model/100a.pt (torch_old, 336838 bytes, 24 tensors)

fc1.weight f4 [128, 28]
00000000: 1856 383b d9f9 473e d670 acbe cdff 36be
00000010: d26c 2dbe 9e07 c8bd d719 0bbe 3e57 92be
00000020: a6a8 dcbd d49c f2bd 60f5 dfbd 8c43 b5be
00000030: 1028 8ebe b6f1 30be 0004 463d 3ab6 94bd
00000040: c8f8 843e c59d 6c3e ca9f 1e3d eed2 fbbe
00000050: fa40 c0be b256 95be 0d8e babe 597b 0a3e
00000060: cc54 f1be f00d da3b e4fb febe a2e4 573d
00000070: 51e6 6c3f dd8c 053f 1410 023d 1347 9fbc
00000080: c7fb 133c e03c 94be 66a5 e33d ab86 f63d
00000090: 5567 27bd 01da b43c 3b6a 4f3d 0b42 203d
000000a0: 3fea 1fbe 5d1d 97be a22b 34bc 2683 423d
000000b0: dc68 293e 2b35 edbb 829f 23be 4ea5 f4bd
000000c0: 1d30 f2bd c9b0 d03d f86b c43d f867 543f
000000d0: 6d34 493e f535 77bd 7ffd 723f 2772 c7bb
000000e0: cff3 44bf 6cb0 25bf 6cfa 1fbe 0538 0f3e
000000f0: b7db c3bd c800 28be a859 2ebd 2c1f 1f3d
00000100: e713 943d a8aa 5c3e a961 293e af43 803e
00000110: 40a0 ae3d 5239 b73d 6f63 b93d 7018 6ebd
00000120: bf2b db3b a45b 72be 99c0 a83d 3e15 bebd
00000130: dff4 983d d66e a0bd 096e 8fbe febe 67bf
00000140: 2ac0 573e 5618 233e 53b9 80bf 27ca e83d
00000150: 9327 e2be 1c4a fbbe e19e 91be 6727 efbd
00000160: 4778 adbd 7e9d 0ebc 6f0e 2fbe a47c 583d
00000170: 9174 de3d 419c 973e f8e0 6f3e 8faf ab3d
00000180: e394 ac3d e8b0 f5bc acee 8cbd 6f4d a5be
00000190: eb88 08be 35a0 4cbe 6ed1 a43e 1635 1e3e
000001a0: 70a2 f83d dc66 d4ba 3d26 4abe d640 12bf
000001b0: ed77 1a3e aa99 a03b f275 47bf 37f7 d13d
000001c0: b169 3cbf 75ed 01bf 42b6 5f3e 87c3 0abd
000001d0: b90a fabd 8eae 26bd 4b9f 39be 21e7 bb3d
000001e0: b4f6 c23d 3e9e 9d3d e911 a13e 5efe 263e
000001f0: 5d01 b5bd fadb 623d c01f 013e 230d 903d
00000200: c98c aabe d876 a8be cfbe 52bb a719 ec3d
00000210: b1b7 653d 53a8 d23d 89da fabc 33ac 3dbf
00000220: 4dad 8b3e d5a3 273e 1928 5abf facc 593d
00000230: 803b 1fbf 93e0 68bf 75e4 bfbe 81f1 8e3e
00000240: 6311 443e 249d d73d 1875 cdbd 5344 b73d
00000250: e6fb d53d 3f6b ec3d 3bb1 523e c0b7 86bc
00000260: 0a0b b23d eb9d 76bd 2ce6 493c e2a0 fe3d
00000270: c363 e93b 3c2d da3d 04e0 113e 6147 903e
00000280: e153 03be 1f9f 113e 2c77 043e 2ac9 36bf
00000290: 6d65 053e 7b06 3e3e 9f9a 3cbf d38e 98bd
000002a0: 86dc f4be 29d3 313e 18a1 423d 431f 753c
000002b0: 27c8 133e 0e20 0ebd 0f70 9e3e 1601 5e3e
000002c0: 28c3 593e edd1 263e ba30 763e c89c abbd
000002d0: e145 82bd e780 153e 290a 81bc 9b7b 09be
000002e0: ce02 a13d 46c8 853e 9b28 253e 75be 26be
000002f0: 10ef 443d de9c 213d 68a2 eebd 50c5 23bf
00000300: 5bcf d9bd c3ef babc 85dd 82bf 6836 c8bc
00000310: 7e0e 2cbf 685c 9fbd 52c2 1cbc bfd2 febb
00000320: c5bb 01be 1509 143e 77db a83d 2608 14bc
00000330: fa96 243e f768 15be ee97 c8bd e37d 45be
00000340: 0c70 9cbd 9969 4a3c 81c2 2c3d 80d7 5abe
00000350: b0ea 53bd 5e43 d8bc 577f fabd b16e bcbe
00000360: ab8f 4abf db9e 3abf ba63 2abf c974 4ebf
00000370: 599e 96be e889 093d 60ae 73bf 3718 cf3d
00000380: 7bef 813e 86f6 193f b139 f7bd f32e 553e
00000390: d1b9 613d a03f 9a3b b426 3abe 1680 3dbe
000003a0: fc61 95bc ddeb c73d 6e23 1fbe 84e5 0c3d
000003b0: 1ea0 13be f904 e2bd ef76 563d d9be bdbc
000003c0: 7d14 24be 8c4c 63bd ed26 a73d b0d8 0abd
000003d0: e7eb 873e 5d96 c8bd 5b5f 26bd 2b36 af3e
000003e0: 7249 c1be 55b3 97bd 7149 3c3f d4e3 0a3e
000003f0: ce9c 363e 2b34 28be 1307 3bbd deb2 02be
0.0028127488 0.19528903 -0.33679837 -0.17871018 -0.16936043 -0.09767078 -0.13584076 -0.28582186
-0.10774355 -0.11846319 -0.109354734 -0.35403097 -0.2776494 -0.17279705 0.04834366 -0.072613195
0.25971055 0.2310706 0.038726605 -0.49184364 -0.37549573 -0.29167706 -0.364365 0.13523616
-0.47135007 0.0066544935 -0.49801552 0.052708276 0.92538935 0.52168065 0.031753615 -0.01944307
0.009032196 -0.28952694 0.111155316 0.120374046 -0.04087003 0.022076609 0.05063842 0.039125483
-0.15616702 -0.2951459 -0.010996731 0.047488354 0.16543907 -0.007239004 -0.15978816 -0.11945592
-0.11825583 0.10189969 0.09590906 0.82971144 0.19648905 -0.06035419 0.94918054 -0.006086606
-0.7693452 -0.64722323 -0.15622872 0.13986214 -0.09563392 -0.16406548 -0.04256597 0.038848087
0.072303586 0.21549475 0.1654116 0.25051638 0.08526659 0.0894648 0.090521686 -0.058128774
0.0066885646 -0.2366777 0.0823986 -0.092813954 0.074685805 -0.0783364 -0.28013638 -0.90525806
0.21069399 0.15927252 -1.0056556 0.113666825 -0.44170818 -0.49079978 -0.28441527 -0.11677437
-0.08470207 -0.008704541 -0.1709535 0.05285324 0.10862077 0.296114 0.23425663 0.083830945
0.084268354 -0.029991582 -0.068814605 -0.3228564 -0.1333348 -0.19982989 0.32191032 0.15449938
0.121403575 -0.0016204971 -0.19741149 -0.5713018 0.1508481 0.0049011307 -0.77914345 0.102522306
-0.7359877 -0.50752956 0.2184687 -0.033877876 -0.122090764 -0.040693812 -0.18127172 0.09174944
0.09519711 0.07696198 0.31458977 0.16307971 -0.08838151 0.055385567 0.12609768 0.07033756
-0.33310536 -0.3290317 -0.0032157188 0.1152833 0.056083385 0.102860115 -0.030621784 -0.7409088
0.27280656 0.1637109 -0.85217434 0.053173997 -0.62200165 -0.90967673 -0.37478986 0.27918628
0.19147258 0.10528019 -0.100320995 0.08948579 0.104484364 0.11543893 0.2057542 -0.01644504
0.08693512 -0.060209196 0.012322944 0.1243303 0.007122488 0.10653159 0.14245611 0.28179458
-0.12824966 0.14220856 0.12936085 -0.714007 0.13026972 0.1855716 -0.73673433 -0.074491166
-0.47824496 0.17365707 0.047516912 0.014961067 0.14431821 -0.03469854 0.3094487 0.21680102
0.21265852 0.16291018 0.24042025 -0.08379513 -0.063609846 0.14599954 -0.015751915 -0.13426058
0.07861863 0.2612936 0.16128771 -0.16283591 0.04807955 0.03945624 -0.1165207 -0.6397295
-0.10635253 -0.022819405 -1.0223852 -0.024440005 -0.67209613 -0.07781297 -0.009567814 -0.0077765877
-0.12669285 0.1445659 0.082449846 -0.009035146 0.16073218 -0.14590822 -0.09794603 -0.19286303
-0.07638559 0.012354278 0.04217768 -0.21371269 -0.051737487 -0.02639931 -0.122313194 -0.368032
-0.7912547 -0.72898644 -0.6655842 -0.8064695 -0.29417685 0.033578783 -0.9518795 0.101120405
0.25378022 0.6014179 -0.12071551 0.20818691 0.05510885 0.0047072917 -0.18178827 -0.18505892
-0.0182352 0.09761784 -0.15540859 0.03439857 -0.14416549 -0.11036105 0.052359518 -0.023162292
-0.1602344 -0.055492923 0.081617214 -0.033898056 0.26547167 -0.097943045 -0.04061828 0.34221014
-0.37751347 -0.07407252 0.7354956 0.13563472 0.17833254 -0.1642615 -0.045661043 -0.12763545

fc1.bias f4 [128]
00000000: d7bf dd3c 8658 17bc cdf3 a4bc 9d98 16bc
00000010: 2368 713d 02b3 bb3d 1e41 143e 1695 29bd
00000020: 1394 7cbe 0ac8 77bb 65fc 6cbd 1a39 a13d
00000030: fc93 2d3d 6c26 093e 8280 2e3c 2129 34be
00000040: 4c55 2ebe f2a6 a3bd 76bb 0abe 6087 2dbe
00000050: cba9 133d 2287 f63c 773b f03e 41ae 523e
00000060: be52 92bd 93bb 5abe 736b d4bd 2d0d e3bd
00000070: ac6f b43d d511 22be c315 1ebe 4ade ec3d
00000080: 783e 43bd d627 c9bd e49e 8f3e fc79 67bd
00000090: 65e6 ae3d 9240 0fbe 80a6 69bd a3a1 aabd
000000a0: 7dd3 0fbe eb3d 603e c0c9 8a3c fab0 ccbc
000000b0: e4a5 debb deb1 82be 382c f23c b70c f83e
000000c0: fbb3 293e 9e98 9bbb 719d 323d f47b e43d
000000d0: eadc 4fbe f838 47bd 539e e33d 3edc 2abe
000000e0: 13cc a23c 7b00 2f3e d796 63be 4115 0e3f
000000f0: b793 5a3d 77b2 12bd efc9 5d3e 3d6d 2abe
00000100: 1f58 4f3e e93c 613e 8dc6 973d 7255 593e
00000110: fc2b c3bd c02b 7e3e 722f 44be dae6 08bd
00000120: 4ab0 41be 5e30 90bc 51b5 af3c 815d 2dbe
00000130: bbae 933d 9222 f4bd cd36 c3bd a8e9 f03c
00000140: 9802 333d 33f8 d83b 4cfe 4f3d 7cea ae3d
00000150: 3571 773e 8c99 a33d 4b03 83bd ee74 01be
00000160: a8ec e63c 5d3b b7bc b401 08be 2cf9 803c
00000170: c6c3 c93c b9ac d83c 3c12 75bd 2a5f c3bd
00000180: f8ac 01be 35af 2dbe 7add 403f 2f4f 903d
00000190: 9fbd c73e 566f 57bd adf1 963d 7465 dcbd
000001a0: 04bc 073e d360 8f3d a9df 933c 2298 823e
000001b0: 6aeb 47bd 940c c3bd 4a3b b93d f718 8d3e
000001c0: 1dab fbbd 5594 993d 5bac e73c 4ba1 b0bb
000001d0: 221a 29be ccd9 5cbd f5d6 bd3d e999 a0bd
000001e0: 40d5 98bd 49a6 ddbc b457 60bd 4493 a23c
000001f0: 18f4 653d c0c2 10bc fd35 dbbd be44 14be
0.027069015 -0.009237414 -0.020135785 -0.009191659 0.058937203 0.091650024 0.14477965 -0.041401945
-0.24665861 -0.0037808442 -0.05785789 0.078722194 0.042377457 0.13393563 0.010650756 -0.17593814
-0.17024726 -0.07990827 -0.13548073 -0.16946173 0.0360506 0.030093733 0.46920368 0.20574285
-0.07144688 -0.21360616 -0.10372057 -0.110864975 0.08810362 -0.15827115 -0.15437989 0.11565836
-0.047666997 -0.09822051 0.2805091 -0.056512818 0.08540038 -0.13989475 -0.057043552 -0.08331611
-0.1404552 0.2189862 0.016941905 -0.024986733 -0.006794678 -0.25526327 0.0295621 0.484472
0.16572563 -0.004748418 0.04360718 0.11156455 -0.20299116 -0.048638314 0.11114182 -0.16685578
0.0198727 0.17090027 -0.2222551 0.5550118 0.053363528 -0.03581473 0.21659063 -0.16643234
0.2024846 0.21995892 0.074109174 0.21224001 -0.09529874 0.24821377 -0.19158724 -0.033423282
-0.18914905 -0.017601188 0.021448763 -0.169302 0.072110616 -0.11920656 -0.09531937 0.029408291
0.043703645 0.0066213845 0.050779626 0.08540818 0.24164279 0.07988271 -0.063971125 -0.12642261
0.028189018 -0.022367174 -0.132819 0.015743814 0.024629485 0.026449548 -0.059831843 -0.095396355
-0.12663639 -0.16961367 0.75337946 0.07046353 0.39011857 -0.052596413 0.07370315 -0.10761538
0.13255316 0.0700089 0.018050985 0.25506693 -0.048808493 -0.095238835 0.090445116 0.2755811
-0.12288497 0.07498995 0.028280428 -0.0053903214 -0.16513875 -0.053918645 0.092695154 -0.07841856
-0.07462549 -0.02705683 -0.05477114 0.019845612 0.05614099 -0.0088354945 -0.10703657 -0.14479348

fc2.weight f4 [128, 128]
00000000: d1ef 8ebe 6ff7 7fbe 93a8 b23d c76e b0bd
00000010: 37b2 3e3e cc4a 873d 04da 12bc fd9d db3e
00000020: 74d3 cfbd e26b 9cbe 4314 51bd 107d adbd
00000030: ff31 403e cb6b ac3e 657d b5bc 1753 adbe
00000040: 3626 6ebc 294e 053c a4fa 7bbe 1a66 6fbd
00000050: e38b adbe 0c5d 1ebd e42e 9ebb 2e66 453e
00000060: 929e d83d 7042 86be a115 343e f010 273e
00000070: cfee b33d cf77 883e e907 cc3c 78e7 0a3e
00000080: f678 bebc dc19 153f d46c 4e3e b39e 843e
00000090: 6ab5 a53e 68d8 1c3d c2ff 903e 5e20 85be
000000a0: 876e a9be 1bdc 88bd d028 ed3d d3b8 a23e
000000b0: 2380 d7bc 1b2c a6be 216c 923e 38f9 1a3e
000000c0: 1395 4e3e 4b3d bebd a0e4 963e 2441 813e
000000d0: a705 983b 5076 ca3c 9ea0 70be e9c9 40bd
000000e0: 9645 48be 8c9f 913d 4e8e 41be 71d3 19bf
000000f0: c90a 4e3e 0c52 96be 3139 093e 6503 04bf
00000100: 159e 173e 58ee d23e 509e ad3e d2de c03d
00000110: aceb e7bc bc68 2f3e 40f5 11be bd1b 913d
00000120: 570b 88be c467 1a3e 108b 47be 2056 24be
00000130: 1f6e 36be cf76 323e 47ad 5abd fc14 993e
00000140: 103b 63bd 9e96 cabe c5f3 a93d eac2 c0be
00000150: 49d8 873e 55a3 a93c 7f2c 30bd 6420 7dbd
00000160: 8fb5 56be 2f51 4a3e 4945 b2be a5fb 4fbd
00000170: 06dc c2be 976f f9bd c1f9 ba3c b96a 52bd
00000180: 5c7c 863e bd34 64be 26a0 eebd 231b 67be
00000190: 456e c6be f820 a1be 64e5 9f3e 1ebe 443d
000001a0: 2109 373e 4835 9a3d ab22 863e 014f 5b3e
000001b0: afcb 093e c2f4 7ebd 1e79 82bc 8340 9f3d
000001c0: bd77 bebd 1de3 fabd 434e e2bc 8b47 913d
000001d0: fbce b13d 8c6c 033f c2a3 1f3e 7c07 703e
000001e0: 9234 15bf c86d 67bd 0c0d a43e 02f4 87bd
000001f0: 1e37 88be f7a4 d43e 3365 513d 6eae 2dbe
00000200: bde8 2f3d 4cfc fbbc dbe7 fbbd 1aee 333e
00000210: 96a2 19be ef19 8b3e 4f99 cf3d 6607 e03e
00000220: db2c fb3c 3e34 183e eadf 3b3d 690b d7bc
00000230: 692e b03d 5305 ac3e 53a7 5e3e a75c b7be
00000240: 13b0 82bd ac62 893d e161 c13e df19 a53d
00000250: cfd3 383e aef1 febd 1072 11be 6691 bebd
00000260: 5c5c 39bd c107 983e fb07 20be d02e c2bd
00000270: f6f1 e03e 35f5 033e dc97 86be 61bb 9ebd
00000280: d484 643e cc04 a63e 9ecd 323e 50d7 24be
00000290: f0b7 573e 66f1 573d 8d16 1b3e ea9a 6abe
000002a0: a529 6c3e 669a bc3d 012e f6bd d63d 183e
000002b0: 6385 273e 87ff 8c3d b2e3 0c3e e73c 813e
000002c0: 1a10 fe3d c3dc a83e a25a 0e3e f294 1f3d
000002d0: 9014 2bbc ebbc 63be 9320 78bb c0f0 48be
000002e0: e191 803e a53a c63e 8585 75bb 21e8 1ebf
000002f0: f43b eb3e a1fe 47be a133 463e 0c47 6fbd
00000300: e9a6 f03d 835d dbbc 7765 833e d953 ad3d
00000310: 9b1f b63d 9624 b63d 19f5 893e e607 d8bd
00000320: 1f39 773e 1a7c 92bc d8cb 143e 13e6 a63e
00000330: 9896 b83d 2c44 c0bd b410 98bd 001c 373e
00000340: c3d5 7a3e 1b8b a53e 8395 db3e 31ec 403e
00000350: bef8 c9bd b06f 89bd a7cf f43c 6722 ebbd
00000360: 78a2 50be cfce 2a3e 06ae 713d db16 e33e
00000370: be5f 9d3b f4ed 4abe 4701 4abd a9ca a53e
00000380: 3db6 90be 06f7 04bd 0548 25bd a2a5 6cbd
00000390: 6463 da3e c445 f93e 6c26 eabd 4bd9 34be
000003a0: bfed 3c3e ffe0 cabd a5f5 603e d63a d03e
000003b0: 8ea0 6ebd ce41 66be 3045 713e f116 27be
000003c0: bfab 143f 8106 fdbd f9cf b63a 8ed0 273e
000003d0: 4026 b6be f5d7 4a3e d811 6f3e 38c2 dbbb
000003e0: 24f9 e4bd 532e d63d e89a ef3d 2b54 013c
000003f0: d656 013f 933b b53d c6a8 e73c 6683 ea3d
-0.2791734 -0.24996732 0.08723559 -0.08614879 0.18622671 0.06606063 -0.008963112 0.42893973
-0.10147753 -0.30551058 -0.051044714 -0.084711194 0.18769072 0.3367599 -0.02215452 -0.33852455
-0.014535477 0.008136311 -0.2460733 -0.05844698 -0.33895788 -0.038662955 -0.004827367 0.1927726
0.1057712 -0.26222563 0.17586376 0.16315055 0.087857835 0.26653907 0.024906116 0.13564861
-0.023251038 0.58242583 0.20158702 0.25902328 0.3236497 0.03829232 0.28320128 -0.26001257
-0.33092138 -0.06682607 0.1158005 0.31781635 -0.026306218 -0.32455525 0.2859812 0.15134132
0.20174055 -0.092890345 0.29471302 0.2524501 0.0046393457 0.024714619 -0.2349877 -0.047067557
-0.19557795 0.07110509 -0.18901941 -0.6008826 0.20121302 -0.29359472 0.13400723 -0.5156768
0.14806397 0.41197467 0.33909845 0.094174996 -0.02831062 0.17129797 -0.14253712 0.07085369
-0.26571152 0.15078646 -0.19486642 -0.16048479 -0.17815445 0.17428134 -0.053387906 0.29898822
-0.05547625 -0.39568037 0.082984485 -0.37648708 0.265322 0.020707766 -0.043011185 -0.06179847
-0.20967697 0.19757532 -0.34818485 -0.050777096 -0.3805849 -0.12179487 0.02282417 -0.05137131
0.26266754 -0.22285743 -0.1165164 -0.22568946 -0.38756004 -0.31470466 0.312297 0.048032872
0.17874576 0.07529694 0.26198325 0.21416856 0.13456605 -0.062245138 -0.015926894 0.077759765
-0.09300182 -0.1225035 -0.027625209 0.07093724 0.086820565 0.51337504 0.15589812 0.23440355
-0.5828334 -0.05650118 0.32041204 -0.06638338 -0.2660455 0.41532108 0.0511219 -0.16961071
0.042946566 -0.030759953 -0.12300082 0.17571297 -0.15003428 0.27168223 0.10136663 0.43755645
0.030661037 0.14863679 0.045867838 -0.026250558 0.08602602 0.33597812 0.21743517 -0.35812876
-0.0638124 0.06708273 0.37769988 0.08061575 0.18049549 -0.124484405 -0.14203668 -0.09305076
-0.045254096 0.29693416 -0.15628044 -0.09481585 0.43934602 0.12886508 -0.26287735 -0.077505834
0.22316295 0.32425535 0.17461249 -0.1609776 0.2106626 0.05272045 0.15145321 -0.22910658
0.23062761 0.09209137 -0.12020493 0.14867339 0.16359477 0.068846755 0.13758734 0.25241777
0.12405415 0.32980928 0.13901761 0.038960405 -0.010441914 -0.22240035 -0.0037861213 -0.19623089
0.25111297 0.38716617 -0.0037463617 -0.6207295 0.45944178 -0.19530727 0.19355632 -0.058417365
0.117505856 -0.026777988 0.2566335 0.08463258 0.08892747 0.08893697 0.26944807 -0.105483815
0.24142884 -0.017881442 0.14530885 0.32597408 0.090130985 -0.09388003 -0.07425061 0.17881775
0.24495606 0.32332692 0.42887506 0.188401 -0.09861897 -0.06710756 0.029884173 -0.11481171
-0.20374477 0.16680454 0.059003852 0.44353375 0.004802673 -0.19817334 -0.049317624 0.3238118
-0.28264037 -0.032462142 -0.040351886 -0.057775147 0.42653954 0.4868604 -0.1143311 -0.17661016
0.18450068 -0.09906196 0.21968706 0.40669888 -0.058258586 -0.2248604 0.23561549 -0.16317345
0.58074564 -0.12354756 0.0013947479 0.16388151 -0.35576057 0.19808944 0.2334665 -0.0067065023
-0.11180332 0.104580544 0.11699468 0.007893602 0.50523126 0.088492535 0.02827872 0.114508435

fc2.bias f4 [128]
00000000: a72d f63d 2b74 8c3d cd8a c2bd 4477 23bd
00000010: 3e91 48bc 4642 403d fda2 cc3d 0954 d0bd
00000020: a6f8 e4bd b140 aa3c 46ff d83d ef46 7a3d
00000030: 2314 dcbd 0c3a 36bc 861a 623d 57d4 7c3d
00000040: 821c 1e3e 88ce 413d ffc6 4c3e 39da 533c
00000050: c2cf d23d b2f1 863c d2bd 8dbc ff92 e1bd
00000060: ec2c 3fbe 7140 c23c 854a 843d d332 583c
00000070: 0af4 c43d 1822 bdbd d1ea 79bd b16c 23bd
00000080: 4a0c ae3c 38b4 603c f156 c83c cefe 06bd
00000090: 36e8 53bc 8f49 133e a2ba 81bd aa00 08be
000000a0: 2830 6b3e 58e9 b73c 31e0 9a3c a100 5fbe
000000b0: 2da8 44be bd91 e23d 2284 b83d ae01 ca3c
000000c0: 1f32 a8bc 891d 19bd afdd 9cbd 11d1 e5bd
000000d0: e245 afbd 9f34 9dbd f767 3a3e 5ffb 3cbe
000000e0: 8999 233e e6fe 063d e161 28bd 472a 1cbe
000000f0: f1e3 f3bc 4f4b cc3c 154a e33d 9f52 9c3d
00000100: ce37 98bd 2743 b5bd 3f9d 503d 822a 7dbd
00000110: e916 1e3e d6dd 12be 0d31 8e3d 3aba d7bb
00000120: e6b9 4f3e c7db a73c aa89 0d3d aa4a 5c3e
00000130: 0277 4e3d 1790 45bd 88c5 9fbd ceb0 01bd
00000140: 949e b43d e2fb 1a3e 9ffe 043e 1fa3 063d
00000150: f859 b6bd ce6b 80bd a6a9 11bd 229d edbc
00000160: f8b0 05be 40d1 d1bc aaa5 de3d 8ad9 fb3d
00000170: 9bda b63d 1ade 00bd 676c a1bd da16 053e
00000180: 5402 6cbd 2455 1bbd 68a4 123d 11f2 cb3c
00000190: ae56 713d 5465 f03d f692 993d d36d 13bd
000001a0: bd6d 3cbd 60f9 d1bd 6c99 c2bd 2898 39be
000001b0: aea2 823c f3a9 803d 45ff d83d e70c c83d
000001c0: 8c19 f53d 34d5 0cbe 724e 0b3c d91e 2d3e
000001d0: 78af bebd 69b9 f0bd 005e e53d b300 81bd
000001e0: bc72 df3d a787 3d3e dee8 b9bd e7f9 d3bd
000001f0: 07b3 aa3d d4d2 2ebe a895 003e 39fb 263e
0.12020426 0.06858095 -0.094991304 -0.039908662 -0.01224166 0.046938203 0.09992025 -0.101722784
-0.111802384 0.0207828 0.105955645 0.061102804 -0.10746028 -0.011122238 0.055201076 0.06172594
0.15440562 0.047316104 0.19997786 0.012930446 0.10293533 0.016472671 -0.017302427 -0.110143654
-0.1866948 0.023712369 0.06459526 0.013195711 0.09616859 -0.092350185 -0.061014954 -0.039898578
0.021246094 0.0137148425 0.02445552 -0.032957844 -0.012933781 0.14383529 -0.063344255 -0.13281503
0.22967589 0.022450134 0.01890573 -0.21777584 -0.19204779 0.110629536 0.09009577 0.024659004
-0.020531712 -0.037381683 -0.0765947 -0.11221517 -0.08558251 -0.07676052 0.18203722 -0.18455265
0.15976538 0.032957934 -0.04110897 -0.15250503 -0.029771777 0.024938254 0.110981144 0.07632946
-0.07432519 -0.08850699 0.05093121 -0.061808117 0.15438427 -0.14342436 0.069429494 -0.0065834792
0.20285758 0.02049054 0.034555115 0.21512857 0.050406463 -0.048233118 -0.07801348 -0.031662755
0.08819309 0.15135148 0.12987755 0.03287041 -0.08903879 -0.06270562 -0.03556218 -0.02900559
-0.1305579 -0.025612473 0.10871442 0.12297352 0.089284144 -0.031461813 -0.07882004 0.12996998
-0.057619408 -0.037922993 0.03580132 0.0248957 0.058920555 0.11738077 0.07498734 -0.03599341
-0.046003092 -0.10252643 -0.09501919 -0.18124449 0.015946712 0.06282415 0.10595564 0.09768086
0.11967763 -0.13753206 0.00850259 0.16906299 -0.09310812 -0.11754114 0.1119957 -0.062989615
0.10910556 0.18508779 -0.09077619 -0.103503995 0.08334928 -0.17072612 0.1255709 0.16306771

out.weight f4 [5, 128]
00000000: 7fec 073f 58c4 50be 957a 4abe 5a95 c4bd
00000010: df85 9ebe 7950 72be ed2f adbd 3be9 c43e
00000020: 20ee ca3e af42 733e 1735 d03e a573 71be
00000030: 89be 523e 85c6 01be 29b8 d6be 53d8 b3be
00000040: edf5 7bbe f775 153f 0eb5 e73e af2d 963e
00000050: 06f8 2dbe 0ce1 833e 34e7 95be e679 7d3e
00000060: 7129 b63e 1096 dd3e 97dc bcbe 3352 e2bd
00000070: 6970 203f 76d1 8e3d 7222 043e 87b3 653e
00000080: a0b2 e03e 1166 913e 0937 d73e 6389 ea3d
00000090: 91ae 4e3e 43fd 50be 6c2c 423d 6392 733e
000000a0: 0af6 a2bd a3ac babe 0f6b ebbd 9bca 873e
000000b0: 9ffa 803e 664f fc3c 42ae 3fbe 0d9e eabd
000000c0: f31a 843e 2035 a93e 6987 783e 2183 7dbe
000000d0: b418 b4be 1a19 553e ce1b 4cbe 9eaa 853e
000000e0: e6a8 ba3e 713d bebb 2bfb d73e c152 693e
000000f0: 2305 17be 5a08 9b3e 8f10 bb3e 8012 b0bd
00000100: f561 953e 83e2 60bc d8c7 97be 6948 5cbd
00000110: d679 dc3e dcdb 3e3e 103c ad3e 33c0 b33e
00000120: e596 1a3f 4018 a33e 6f0f a03e 0c21 903d
00000130: 5d59 6fbe c2cb b43e d90b c43d c021 723e
00000140: b7b7 14be 171a d93e f076 b93e 0307 8f3e
00000150: e292 303e 5314 123e cf12 9c3e 150f b33d
00000160: 3ada 373e 30e0 ac3d c754 2abe bc45 5c3e
00000170: 60f2 a43e 0fd0 cebe 2898 073e 36bc 74be
00000180: 7a3d dabd 37a8 ae3e 286c c7be 5d3f 023f
00000190: 1c25 c33e c0c3 b33e 65e9 62be dc9c 53be
000001a0: 154f 00bf d805 11bf f59b 5ebe eba6 2d3e
000001b0: 97b6 42be e6f5 bbbe adc5 f0bd 4759 413e
000001c0: e72c a53e 0f15 f5be 05b8 10be 52fd 58be
000001d0: c1fe 873e 1e99 9bbe 53a6 c8bd 0935 87bd
000001e0: 2419 173e faf6 e1bc 06ee 18be dc2a 173e
000001f0: 1e8d a53e 2a6e 993e a0bf 6c3e a3ae 053f
00000200: c86a 723e a0fa 7abe d43e 49be 752e 643d
00000210: 31e7 04bf 0154 81be 7e9d 8dbe 4d3d 5c3e
00000220: 01cd 923e b541 6f3e ab1f a13e c99a 3dbe
00000230: f53f 1c3e cef2 f5bd 8f4f 7bbe 763a e4be
00000240: be9d 58be 4c77 7d3e 3f2c 5e3e a358 073e
00000250: 465f a5be c677 a13e 7e5d 2fbe 4281 703e
00000260: a644 623e a47e 8b3e 6ca0 9bbe 67af aebe
00000270: 00c6 743e 5ce3 393e 3597 873e 6954 853e
00000280: 449e 933e 5079 423e 5f4a 323e 16d9 353e
00000290: 5905 943e a8a6 2ebe b405 ad3d fcde 2f3f
000002a0: fd58 4dbe 5171 2bbe 6eec ef3d d925 8b3e
000002b0: fcf7 833e 9e45 b1bd 89ad 81be c3bc 5cbe
000002c0: 7552 123e f16c 8c3e 7f7a 6f3e 22a8 79be
000002d0: ad53 35be ce19 b73e 7371 9fbe 10ca 783e
000002e0: 9d7a 3c3e ef20 9bbe bd6f 283e a632 663e
000002f0: 1341 cabe f224 883e 9155 8b3e 1d30 5dbe
00000300: c0cc 823e f65f d6bc a49a 63be 734d 29be
00000310: e67f 783e 7d53 e63d 0453 9b3e d27c cb3e
00000320: 9848 c63d 8ff9 053f e9ec 503e 21d1 4b3c
00000330: 440c 6ebe 1f8e 9f3e 7ab3 083e 83c2 8a3e
00000340: 5e5a 85be d5ef e83e de31 cb3e c9bb a83e
00000350: 2299 403e 3fe1 aabd f5f1 063e 10e8 403e
00000360: 6e76 303e 05f6 fa3c 55eb 1dbe 476c 6e3e
00000370: f6d3 403e 0df8 b9be 48b7 1d3e 4d3a 65be
00000380: 166f 08bf b38d 4a3e b533 adbe e777 be3e
00000390: b914 113e 87a3 793e 49c1 78be 1602 bbbe
000003a0: 1cdd b3be 3e66 1abe dce2 11be 4aac 603e
000003b0: 46f7 16be 843d debe d6fc 21be 6eb0 863e
000003c0: 524e c23d e40f 13be f124 76be 2856 8dbe
000003d0: b041 ae3e 0992 93be 26e3 11be d186 16be
000003e0: 7c32 073d 1f90 83be a630 3ebe e6f8 403e
000003f0: f5b2 c33e ae2e 573e a3c9 523e 9ee3 2abd
0.5309524 -0.20387399 -0.19773324 -0.09598799 -0.3096151 -0.2366351 -0.08456407 0.3845919
0.396348 0.23755907 0.40665504 -0.23579271 0.20580496 -0.12673385 -0.41937378 -0.3512598
-0.24605532 0.58383125 0.4525532 0.2933173 -0.16989145 0.25757635 -0.29277956 0.24753532
0.35578492 0.4327855 -0.36887047 -0.110508345 0.62671524 0.06973545 0.12903765 0.22431765
0.4388628 0.28398183 0.42034176 0.11451986 0.2018378 -0.20409112 0.047405645 0.23786311
-0.079570845 -0.36459836 -0.11495029 0.26521763 0.2519121 0.030799579 -0.18718818 -0.11455927
0.2580181 0.33048344 0.24270405 -0.24757053 -0.35175097 0.20810357 -0.19932482 0.26106733
0.36456984 -0.005805664 0.42183813 0.22785474 -0.14748053 0.3027981 0.3653607 -0.085972786
0.29176298 -0.01372588 -0.29644656 -0.053779993 0.43061703 0.18638557 0.33834887 0.35107574
0.60386497 0.3185444 0.31261775 0.07037553 -0.23373933 0.35311705 0.09572572 0.23645687
-0.14523207 0.42402717 0.36223555 0.27935037 0.17243531 0.14265566 0.304831 0.08743111
0.1795434 0.08441198 -0.16633902 0.21510977 0.32216167 -0.4039311 0.13241637 -0.23899922
-0.10656257 0.34112713 -0.38949704 0.50877935 0.3811425 0.35110283 -0.22159345 -0.20665306
-0.5012067 -0.5664954 -0.2173918 0.16958205 -0.19014965 -0.36711043 -0.11756454 0.18881713
0.3226082 -0.4786763 -0.14132698 -0.21190384 0.2656155 -0.30390257 -0.09797349 -0.066019125
0.14755684 -0.027583588 -0.14934549 0.14762443 0.32334226 0.2996686 0.23119974 0.522196
0.23673546 -0.24509668 -0.19652873 0.055708367 -0.5191527 -0.25259402 -0.2765922 0.2150776
0.2867203 0.23364909 0.31469473 -0.18516077 0.15258773 -0.12009202 -0.24542068 -0.44575852
-0.21153924 0.2475254 0.21696566 0.13217406 -0.3229925 0.31536692 -0.17125508 0.23486808
0.220965 0.27245057 -0.3039583 -0.34118196 0.23903656 0.18153137 0.2648255 0.26040962
0.28831685 0.1899159 0.17411183 0.17758593 0.2891033 -0.17055762 0.084483534 0.6869962
-0.20053478 -0.16742446 0.11715017 0.27177313 0.25775135 -0.086558565 -0.2532771 -0.21556382
0.14289267 0.27426866 0.23386572 -0.24380544 -0.17707701 0.35761875 -0.31141242 0.2429583
0.18406148 -0.30298564 0.16448875 0.22480258 -0.39502773 0.26590687 0.2721372 -0.21600385
0.25546837 -0.026168805 -0.2222696 -0.16533451 0.2426754 0.11246393 0.30336773 0.39743668
0.09681815 0.5233392 0.20402874 0.012439997 -0.23246866 0.31163117 0.13349715 0.27101526
-0.26045507 0.45495477 0.39686483 0.3295577 0.18808416 -0.083437435 0.13178237 0.18838525
0.17232677 0.03063489 -0.15421803 0.23283492 0.18830857 -0.3632206 0.15401947 -0.22385521
-0.53294504 0.19780616 -0.33828512 0.37200853 0.14168061 0.24378787 -0.24292482 -0.3652503
-0.3512963 -0.15078065 -0.14246696 0.21940723 -0.14742765 -0.43406308 -0.15819106 0.2630648
0.09487595 -0.1436153 -0.2403753 -0.27604795 0.3403449 -0.28822353 -0.14246807 -0.14699866
0.03300713 -0.25695893 -0.18573245 0.18844947 0.3822247 0.210139 0.20584731 -0.04172098

out.bias f4 [5]
00000000: 9fd0 28be 8fb8 e9be 8ee3 643e cb23 a2bc
00000010: 17fd 0bbf
-0.16485833 -0.4564862 0.2235243 -0.019792458 -0.5468306

exp_avg_sq f4 [128, 28]
00000000: 05f8 ca43 15bc 9a44 9fb8 a344 0fa2 5345
00000010: 9433 9745 e11d 8145 985f 7c45 61b0 4545
00000020: e2a1 2145 47fb fb44 2828 1745 1616 c445
00000030: cb29 0745 4609 2545 117d 7945 960c b545
00000040: c5b9 2a46 244e 4946 a13b a845 e3c0 0844
00000050: 3cbe 4c43 67b3 0a43 f420 0043 c05d c843
00000060: de03 9645 3b7f b947 b68d af42 75d3 4149
00000070: 4a70 3b46 7949 4946 fe8d b047 6ee2 b848
00000080: b9f4 cd48 3bff 7748 a4c9 5348 3ab6 0f48
00000090: 3d85 0848 5305 6048 35fc 9d48 2a2a 8548
000000a0: 54df 5148 a320 1b48 3142 1048 ea7d 1e48
000000b0: 9232 2548 1fb8 fd47 b5a9 1548 1324 4b48
000000c0: 3680 be48 aa42 0c49 97f2 4747 2076 3c46
000000d0: 5af6 1e48 c94a ac4a 5780 9945 8652 b64b
000000e0: 0dda d244 6d03 c444 d73e 0346 d825 f746
000000f0: 9acc 1d47 41fa c646 6357 c446 3adc bb46
00000100: 02e4 e246 2ee7 1b47 f4a2 3947 3ae4 4047
00000110: b860 1547 74bb c946 aafe b546 4a42 9f46
00000120: 6a36 af46 42d0 0247 6f4e 4a47 6984 bd47
00000130: 2e06 f147 3152 7e47 177f b245 8d16 d444
00000140: d2f6 ab46 7aa3 7749 2238 4044 deb5 0b4a
00000150: 56cb 1046 95aa 0246 f5f5 1847 9cbd 1048
00000160: faba 4d48 68ad fd47 45e2 dc47 5384 dc47
00000170: c58a 1048 c137 4948 4d78 6348 2e99 5348
00000180: f00a 2b48 dae4 e247 2274 cb47 51da ba47
00000190: 7e10 ba47 6e4b 0148 d325 7348 ba4d f948
000001a0: b4a9 0f49 5bfa 9648 77a0 f646 bde3 1046
000001b0: 76e1 c347 39e2 924a ca6f 8745 f4c9 494b
000001c0: fa27 3d45 1b3b 2145 c954 5846 4ec9 5c47
000001d0: 51e3 8747 69c0 1c47 7deb 0847 298d 0847
000001e0: f67f 2947 34a3 7547 4e1a 9847 ad96 8e47
000001f0: 9599 6347 443d 2747 7fe4 0e47 e28b e446
00000200: bb03 d446 35a3 0a47 f059 8947 f1f0 1848
00000210: 084c 4748 5e58 0148 1dcd 4b46 0519 3e45
00000220: f2ee ed46 6e83 c349 5840 9c44 3ac9 664a
00000230: 7017 da45 a56d c045 897a f746 a6b6 1448
00000240: 1353 3b48 4dc4 ef47 b34e ca47 9623 b847
00000250: b492 da47 845d 1648 9b1a 3148 8473 2e48
00000260: 1f22 0248 569a b647 79d1 aa47 2bd0 9f47
00000270: eb97 a947 e2bd f547 00a3 4048 eacb b048
00000280: ead7 c848 f729 5e48 b5be be46 36dd db45
00000290: 5bdb ad47 1fe7 684a a6a3 5245 4f2d 0f4b
000002a0: 37c2 9945 9625 3346 2d77 3847 2858 d147
000002b0: 7933 f647 ed14 ad47 3205 9847 2905 6247
000002c0: 7299 7947 5a81 a547 06c1 a347 498c a047
000002d0: 8068 8047 71a2 4647 62aa 4547 9453 5047
000002e0: 5831 6547 ca53 8747 90a7 bc47 2b4e 1148
000002f0: 2f94 2348 e97b a847 1b4c 4946 9ff6 9845
00000300: c64b 5f47 c99a f549 ff4b 1545 be95 df4a
00000310: 46c1 2e45 4b53 0246 e6af 8c47 c514 7748
00000320: 6ff8 8c48 2534 3548 df8a c947 992a 5147
00000330: c7bf 4347 73ac 2447 0eab 8247 22cc c447
00000340: f3ba aa47 1faf c947 9ba3 cb47 dce0 a347
00000350: 9090 5f47 f27f 0f47 f628 a346 284d 3246
00000360: c7b5 0345 108f e344 1e98 ef44 c7c0 2b45
00000370: 2384 c147 c322 e749 5879 ba44 bb55 9c4b
00000380: 0dbb d543 df24 c943 7e72 e244 f864 a045
00000390: 395b a445 4eed 3a45 888c 0245 d3db 2045
000003a0: 5f49 7145 deb7 dd45 6a83 0746 6214 0e46
000003b0: 98a1 cc45 a512 9845 2585 6345 d5aa 2f45
000003c0: a42e 3b45 6c65 8845 335b 8b45 fa4f 1a46
000003d0: 7caf c546 dfc3 a846 a4b3 0945 7b0d d443
000003e0: cec5 8145 f842 2248 ab37 0543 929a b048
000003f0: db04 4b33 c785 1333 2b42 0233 aa63 d832
405.93765 1237.8776 1309.7694 3386.1287 4838.4473 4131.735 4037.9746 3163.0237
2586.1177 2015.8524 2418.5098 6274.7607 2162.612 2640.5796 3991.8167 5793.573
10926.442 12883.535 5383.4536 547.01385 204.7431 138.70079 128.12872 400.73242
4800.4834 94974.46 87.77678 793911.3 11996.072 12882.368 90395.984 378643.44
421797.78 253948.92 216870.56 147160.9 139796.95 229397.3 323553.66 272721.3
214909.31 158850.55 147720.77 162295.66 169162.28 129904.24 153254.83 208016.3
390145.7 574506.6 51186.59 12061.531 162777.4 5.6456685e+06 4912.0425 2.3897356e+07
1686.8141 1568.107 8399.71 31634.922 40396.6 25469.127 25131.693 24046.113
29042.004 39911.18 47522.953 49380.227 38240.72 25821.727 23295.332 20385.145
22427.207 33488.258 51790.434 97032.82 123404.36 65106.19 5711.886 1696.7047
22011.41 1.0143276e+06 768.8771 2.2890155e+06 9266.834 8362.6455 39157.957 148214.44
210667.9 129882.81 113092.54 112904.65 148011.08 206047.02 232929.2 216676.72
175147.75 116169.7 104168.266 95668.63 95264.984 132397.72 248983.3 510573.8
588443.25 309202.84 31568.232 9272.935 100290.92 4.8130845e+06 4333.9736 1.3224436e+07
3026.4985 2579.694 13845.196 56521.305 69574.63 40128.41 35051.49 34957.16
43391.96 62883.203 77876.61 73005.35 58265.582 42813.266 36580.496 29253.941
27137.865 35491.207 70323.875 156611.77 204080.12 132449.47 13043.278 3041.5637
30455.473 1.6016458e+06 1250.0107 3.7811985e+06 6978.9297 6157.7056 31677.268 152282.6
191820.3 122760.6 103581.4 94279.17 111909.41 153974.06 181354.42 178638.06
133256.48 93492.67 87458.945 81824.336 86831.836 125819.766 197260.0 362079.3
411327.3 227495.86 24415.354 7035.6514 89014.71 3.8158798e+06 3370.228 9.383247e+06
4920.277 11465.396 47223.176 107184.31 126054.945 88617.85 77834.39 57861.16
63897.445 84738.7 83842.05 82200.57 65745.0 50850.44 50602.383 53331.58
58673.344 69287.58 96591.125 148792.67 167504.73 86263.82 12883.026 4894.8276
57163.773 2.0119931e+06 2388.7498 7.326431e+06 2796.0796 8340.823 72031.8 253011.08
288707.47 185552.58 103189.74 53546.598 50111.777 42156.45 66902.11 100760.266
87413.9 103262.24 104263.21 83905.72 57232.562 36735.945 20884.48 11411.289
2107.361 1820.4707 1916.7537 2748.0486 99080.27 1.8934644e+06 1491.792 2.0491126e+07
427.46133 402.28806 1811.5779 5132.621 5259.403 2990.8315 2088.7832 2573.739
3860.5857 7094.9834 8672.854 9093.096 6548.199 4866.3306 3640.3215 2810.677
2994.915 4364.6777 4459.4 9875.994 25303.742 21601.936 2203.2275 424.10532
4152.7256 166155.88 133.21745 361684.56 4.7269037e-08 3.4347774e-08 3.0328163e-08 2.5191031e-08

exp_avg f4 [128, 28]
00000000: 3f7b a7c0 73b0 95c0 fea4 80c1 644a 64c1
00000010: 7a23 59c1 8d5c 62c1 a7e9 78c1 4028 71c1
00000020: 2b3b 6cc1 4220 94c1 a534 3dc1 d7d9 51c1
00000030: 1aba 2bc1 0ec4 47c1 9dfe 8ec1 2858 19c2
00000040: 8fd1 37c2 08a1 81c1 d62e e2c0 d8d1 9bc0
00000050: b635 80c0 86b9 68c0 fa6b 68c0 eac8 a6c0
00000060: 6548 d341 76a7 bfc2 6cac 58c0 9400 9dc3
00000070: 8202 9d41 da7b eb3f e807 bdc1 88ce 1cc2
00000080: 6430 8cc2 f0f4 77c2 8870 69c2 febc 10c2
00000090: 7fce 93c0 c972 c142 5a30 3f42 5dfe 9142
000000a0: 366c b842 bea6 5642 7340 ab41 f5c3 89c1
000000b0: a9a4 1dc2 d5e9 fa41 5a2f 8242 0311 c842
000000c0: f759 3e43 abaa a043 f03c 8542 81b7 a241
000000d0: 7632 f441 e8a5 9143 867e aa3f 8cb7 07c4
000000e0: 3e0d 39c0 1f68 99bf a922 0140 3fe5 293f
000000f0: e3a7 90c0 8890 0ec0 cf78 523e e050 8e40
00000100: 734e e141 6f67 27c0 ae7c 84c0 482c 82c1
00000110: 2ae5 29c1 7f67 74c1 560a b5c0 8ebf b23f
00000120: 74fa f740 3282 f3bf a0cd 7840 f1fd a541
00000130: a916 10c1 3f3e 9bc2 3105 53c1 356c 35c0
00000140: 6b55 8dc1 dd53 3dc2 86e2 d43e d8b2 8441
00000150: ca5f 4ac0 5b1c 6940 17e4 6241 bf2f bd41
00000160: 282f 42c2 47cc d8c1 9eee c6c1 bbb1 dac0
00000170: 40cf 8042 5ae0 8841 1b96 0f42 56a8 1f40
00000180: a9cb 3ac1 b853 2ac2 39f0 0dc2 06aa 96c1
00000190: 0b70 edbf 33cd 5741 9545 e3c0 1e5a 0142
000001a0: 04d0 a5c1 5578 19c3 4627 c7c1 d820 0fc0
000001b0: 4a4f 62c2 0e55 dac2 d4a9 6340 cc8c c341
000001c0: 17a3 bfbf bc0a 8a3f e488 d140 bdf0 ca40
000001d0: 16e6 2dc1 f967 9fc0 5ba0 00c0 6650 6140
000001e0: 5b07 1e42 9d45 2940 5d99 d540 2797 01c1
000001f0: ac7e c3c0 ac0c 90c1 3b18 adc0 e6a9 c8bf
00000200: 03ae f140 8a86 f73f 9d68 1d40 310d d241
00000210: b48e 00c1 bbaa aec2 d07a 83c1 0bfa 98bf
00000220: 92e9 12c2 7a0b 1ec2 10f6 e83f f555 45c1
00000230: 8eaf e9c0 a75c 94c0 c3f8 96c0 a3dc b640
00000240: 5b24 62c2 6bf0 21c2 4881 48c2 843e f9c1
00000250: 03f3 8241 9461 c9c1 6dd9 3ec0 0be9 eec1
00000260: dbb8 b3c1 31e4 47c2 fb6c 3ec2 97da 46c2
00000270: 3408 29c2 a7c3 2ec2 9977 24c2 7a44 6041
00000280: ce68 c5c1 4dc1 fcc2 ecb7 95c1 d60a d1c0
00000290: 65d4 0fc1 ad91 67c3 abaf 4fc0 bba2 92c3
000002a0: 6301 2040 db3e 9e40 99df ab41 3683 1e42
000002b0: f3c7 adc1 3d07 75c1 d16c c1c1 7943 39c1
000002c0: b339 9c41 ffa0 eb41 9b0e 4542 62a7 9e41
000002d0: 7ea9 8841 3abd c9c0 b683 39c1 f6d8 fb3f
000002e0: 306c 3541 5443 31c1 7f3c cdc1 8949 e541
000002f0: 27e8 ba41 e652 6bc1 1c27 0940 3c5c 4b40
00000300: 640d 4dc0 d626 0d41 df0f 4240 dda5 4343
00000310: 59a2 bfbf 256f abbf 9271 3141 1981 10bf
00000320: 5c83 bfc2 441a 6ac2 fcdb 16c2 785f acc0
00000330: 6326 adc0 5f43 d3c0 ac19 a3c0 d64b 25c0
00000340: 0582 2ac1 db6a 88c1 ef51 13c2 55ec 35c1
00000350: 1c48 4241 aa10 8c41 c448 e540 8a11 903f
00000360: 0b0f c0be 5597 babd b51b 83bc bd90 58bf
00000370: 972d a4c2 dc58 74c2 af7e 1b3b 5131 5ac3
00000380: 0f2b 2240 5b48 2340 c6ad 8440 6ad8 db40
00000390: 82ad b340 683e be40 7438 9440 bc7d 8dbf
000003a0: 2506 76c1 c727 1ebf daa2 3741 0d6a 5e41
000003b0: 43a6 6a40 66ca 6640 1ee9 7dc0 ed7a 82be
000003c0: a71f 863d 24b1 1ec0 e8de 03c1 24b4 abc1
000003d0: be49 c9c0 37ec 9841 dca1 4d40 4d72 2540
000003e0: 4fed 9840 a21f 7640 9f5a 2a3f c226 9f42
000003f0: 0400 0000 0400 0000 0400 0000 0400 0000
-5.2337947 -4.677789 -16.080563 -14.268162 -13.571161 -14.147595 -15.557044 -15.072327
-14.764445 -18.51575 -11.825353 -13.115684 -10.732935 -12.485365 -17.874323 -38.33609
-45.954647 -16.203629 -7.0682173 -4.8693657 -4.0065565 -3.6363235 -3.6315904 -5.2120256
26.410349 -95.82707 -3.3855238 -314.00452 19.626225 1.8397171 -23.62886 -39.20169
-70.09451 -61.989197 -58.359894 -36.184563 -4.618957 96.72419 47.79722 72.9968
92.21135 53.662834 21.40647 -17.220682 -39.4108 31.364176 65.09248 100.033226
190.35143 321.33334 66.61902 20.339602 30.52464 291.29614 1.3319862 -542.8679
-2.8914332 -1.19849 2.0177405 0.66365427 -4.520494 -2.2275715 0.20553897 4.4473724
28.163305 -2.615688 -4.1402197 -16.271622 -10.618448 -15.275268 -5.6575117 1.3964708
7.749323 -1.9024107 3.8875504 20.748995 -9.005532 -77.621574 -13.188767 -2.8347294
-17.666708 -47.331898 0.41579074 16.587326 -3.1620965 3.6423557 14.180686 23.648314
-48.54605 -27.099745 -24.866512 -6.8341956 64.404785 17.109547 35.896587 2.4946494
-11.674722 -42.581757 -35.484592 -18.83302 -1.8549818 13.487597 -7.102244 32.338005
-20.72657 -153.47005 -24.894176 -2.2363796 -56.57743 -109.16612 3.5572405 24.443748
-1.4971646 1.0784526 6.5479603 6.341887 -10.868673 -4.981442 -2.0097873 3.5205321
39.507183 2.6448739 6.674971 -8.099402 -6.109213 -18.006187 -5.409208 -1.5676849
7.5524917 1.9337933 2.45951 26.256441 -8.03484 -87.33346 -16.434967 -1.1951307
-36.728096 -39.511208 1.8200092 -12.333486 -7.30268 -4.63631 -4.7178664 5.714433
-56.535503 -40.484783 -50.12625 -31.155525 16.368658 -25.172646 -2.9820206 -29.86379
-22.465261 -49.972843 -47.606426 -49.713467 -42.25801 -43.691067 -41.116795 14.016718
-24.676174 -126.37754 -18.714806 -6.5325727 -8.989354 -231.56905 -3.245097 -293.27133
2.5000846 4.945173 21.484179 39.628136 -21.722631 -15.314267 -24.178133 -11.578973
19.528173 29.453611 49.264263 19.83173 17.08276 -6.304349 -11.594656 1.9675586
11.338913 -11.078938 -25.65454 28.660906 23.363356 -14.707739 2.143012 3.1775045
-3.2039423 8.821981 3.0322187 195.6479 -1.497142 -1.3393294 11.090227 -0.5644699
-95.75656 -58.52565 -37.71483 -5.386654 -5.410936 -6.601974 -5.096884 -2.5827537
-10.656743 -17.052176 -36.830013 -11.370198 12.142605 17.508137 7.1651325 1.1255352
-0.37511477 -0.091108955 -0.016004423 -0.84595853 -82.08904 -61.086777 0.0023726632 -218.19264
2.533878 2.5512912 4.1462126 6.8701677 5.61493 5.945118 4.6318913 -1.1053996
-15.3765 -0.61779445 11.477259 13.900891 3.6663978 3.6061034 -3.9673533 -0.2548441
0.06549006 -2.4795618 -8.24192 -21.46296 -6.2902517 19.11534 3.213004 2.5851014
4.7789683 3.8456807 0.66544527 79.5757 6e-45 6e-45 6e-45 6e-45

exp_avg_sq f4 [5, 128]
00000000: 8aeb 2d46 1275 c246 d06e d845 539e 7246
00000010: 8dae 0646 8fae aa46 166a 5246 1a4f bd46
00000020: 61b2 5546 1379 f846 2297 ab46 b4ac a146
00000030: 3fa6 e546 2ba2 1246 6bc6 8f46 2ea3 6846
00000040: 0c76 8f46 6bb5 3046 d866 3646 82ef ba46
00000050: 181c fa46 4829 a346 af4d a045 6eb5 bf46
00000060: 2f4a b446 6709 9046 3f42 9046 e9f8 b346
00000070: 47d2 9145 dcfc f146 22e2 8846 85fb 1347
00000080: b95b a746 0b15 e146 0e95 b146 8ca0 8546
00000090: 64ef ff46 e1e2 d846 e407 1f46 6c95 0b45
000000a0: 4ded d246 51c7 9146 8207 9646 3ff5 cb46
000000b0: f500 bf46 575d a046 3c49 8746 535c 0147
000000c0: 7643 1546 3af2 4246 0c55 d746 c6ac 9146
000000d0: 4e9f 2b46 4393 a646 d9fc b746 25de 2347
000000e0: ffbd ae46 fa99 2046 2015 8c46 79b9 0d47
000000f0: 7d59 9346 8f9e 0947 e1ed a446 5f36 ea46
00000100: 2f63 8d46 9fa5 3a46 d3af d146 5374 b946
00000110: 8639 8946 5bed e246 4cc3 8946 10a3 db45
00000120: 6384 b345 b238 e845 4348 bd46 299b 3746
00000130: 610d 0847 07c5 6146 63a3 b146 27c7 d546
00000140: a5e3 c746 6616 1046 f34e 8446 2888 b646
00000150: 7dd3 3a47 3288 4f45 2be0 0547 b5d7 d646
00000160: ef3c a546 b435 a946 5767 b846 c5b3 1c47
00000170: c1b8 a346 5e64 1746 f2d8 5a47 7fc5 ad46
00000180: 543b 8845 a3a3 9946 b910 9246 772a 5346
00000190: f410 7946 096e 9a46 fe15 4c46 9f0d b246
000001a0: 57b8 f245 214b 1546 43c5 aa46 fa5f 0447
000001b0: 0712 9146 d332 5446 8e29 9e46 eb68 0247
000001c0: c2d3 b846 f883 e645 c4cd b146 0771 ff46
000001d0: 8da2 8e46 ed9a b446 0d8f 9146 4fb9 e445
000001e0: 6eb7 4e46 71bb f546 ef17 da46 5541 a746
000001f0: 127c 9f46 b659 a646 d6a6 e246 c125 1845
00000200: ca77 3946 7cb4 d246 19bf d445 b60e 4246
00000210: 40dd df45 d83f c546 66ae 3546 2178 b246
00000220: f7d9 5746 689b e546 cb6f ad46 43a4 ad46
00000230: de46 ed46 19b8 c245 3798 8146 b81d 8246
00000240: 8252 a046 818d 3346 9b25 3946 22e7 c946
00000250: acd1 d346 e025 9d46 d9be bf45 2f77 ce46
00000260: ab5a b546 7ce3 8c46 9249 8f46 7ab7 b146
00000270: a065 7f45 4a62 d846 a855 8146 5afc 0e47
00000280: 00f4 9746 d042 e946 214c e446 1b59 8446
00000290: 3352 0547 20da d246 f175 1346 ca45 e444
000002a0: 45cc bc46 e594 9a46 51af 8646 85dd c246
000002b0: f2e8 c646 82cc 9046 d2ad 8846 48fd ea46
000002c0: 5548 1546 a5a4 3346 c1f8 ea46 4acd 8046
000002d0: d4b8 3246 1731 b846 1827 a646 7c92 0c47
000002e0: 3c71 ae46 9020 0346 62cd 8a46 0904 1147
000002f0: 1f41 8346 68d8 1047 99f4 a646 7e53 e746
00000300: 1ae6 8e46 476f 1a46 4b3e e446 3aca ba46
00000310: 6276 7446 dca3 f246 1ae7 7746 e996 b845
00000320: f21d 2145 a926 d745 f860 cd46 23dd 1046
00000330: 4a02 ff46 dfa2 5f46 773a 9646 78f9 bf46
00000340: 6236 aa46 bb8c e145 f501 6946 696e ab46
00000350: 9c27 3e47 af7d ec44 b2f5 0a47 2e37 b946
00000360: f490 a146 11e0 b246 fce8 b346 87e5 2547
00000370: 6bc6 b446 8c13 1446 2198 5747 80fc ab46
00000380: 5047 5345 4dda a746 1f31 8f46 5ecb 5546
00000390: 4377 8046 77cf 9746 12d7 4246 4530 9446
000003a0: b191 ac45 bfac 2f46 8943 a246 3e2d f546
000003b0: 0c76 8546 0fc7 5c46 8c4a 8946 bd9a 0b47
000003c0: 8162 c146 00c3 f345 aedb a246 9d92 de46
000003d0: dcf9 8446 7b96 b246 a7aa 8746 a8b3 e745
000003e0: e254 3b46 4cf8 cd46 7ae5 da46 d3c3 a246
000003f0: d3a4 ab46 e3ec a446 fe02 db46 6b7b 1e45
11130.885 24890.535 6925.8516 15527.581 8619.638 21847.28 13466.521 24231.55
13676.595 31804.537 21963.566 20694.352 29395.123 9384.542 18403.209 14888.795
18363.023 11309.3545 11673.711 23927.754 32014.047 20884.64 5129.7104 24538.715
23077.092 18436.701 18465.123 23036.455 4666.2847 30974.43 17521.066 37883.52
21421.861 28810.521 22730.527 17104.273 32759.695 27761.44 10177.973 2233.3389
26998.65 18659.658 19203.754 26106.623 24448.479 20526.67 17316.617 33116.324
9552.865 12476.557 27562.523 18646.387 10983.826 21321.63 23550.424 41950.145
22366.998 10278.494 17930.562 36281.473 18860.744 35230.56 21110.94 29979.186
18097.592 11945.405 26839.912 23738.162 17564.762 29046.678 17633.648 7028.383
5744.5483 7431.087 24228.13 11750.79 34829.38 14449.257 22737.693 27363.576
25585.822 9221.6 16935.475 23364.078 47827.49 3320.5122 34272.168 27499.854
21150.467 21658.852 23603.67 40115.77 20956.377 9689.092 56024.945 22242.748
4359.416 19665.818 18696.361 13514.616 15940.238 19767.018 13061.498 22790.81
7767.0425 9554.782 21858.63 33887.977 18569.014 13580.706 20244.777 33384.918
23657.879 7376.496 22758.883 32696.514 18257.275 23117.463 18631.525 7319.1636
13229.857 31453.72 27915.967 21408.666 20414.035 21292.855 29011.418 2434.3596
11869.947 26970.242 6807.887 12419.678 7163.6562 25247.922 11627.6 22844.064
13814.491 29389.703 22199.896 22226.13 30371.434 6231.012 16588.107 16654.86
20521.254 11491.376 11849.401 25843.566 27112.836 20114.938 6135.856 26427.592
23213.334 18033.742 18340.785 22747.738 4086.3516 27697.145 16554.828 36604.35
19450.0 29857.406 29222.064 16940.553 34130.2 26989.062 9437.485 1826.1809
24166.135 19786.447 17239.658 24942.76 25460.473 18534.254 17494.91 30078.64
9554.083 11497.161 30076.377 16486.645 11438.207 23576.545 21267.547 35986.484
22328.617 8392.141 17766.691 37124.035 16800.56 37080.406 21370.299 29609.746
18291.05 9883.819 29215.146 23909.113 15645.596 31057.93 15865.775 5906.864
2577.8716 6884.8325 26288.484 9271.284 32641.145 14312.718 19229.232 24572.734
21787.191 7217.5913 14912.489 21943.205 48679.61 1891.9276 35573.695 23707.59
20680.477 22896.033 23028.492 42469.527 23139.209 9476.887 55192.13 22014.25
3380.457 21485.15 18328.56 13682.842 16443.63 19431.732 12469.768 18968.135
5522.2114 11243.187 20769.768 31382.621 17083.023 14129.765 17573.273 35738.74
24753.252 7800.375 20845.84 28489.307 17020.93 22859.24 17365.326 7414.457
11989.221 26364.148 28018.738 20833.912 21970.412 21110.443 28033.496 2535.7136

exp_avg f4 [5, 128]
00000000: 2942 e0c1 aa69 c041 31d2 9840 b286 d6c1
00000010: 9b41 8741 0c4f 1a42 97cb b941 7e47 57c2
00000020: 1e61 13c2 b3a2 b2c1 f94c bcc1 654f 6842
00000030: a2a2 fec1 45e7 2b41 ff4e 4241 0dbc 7d41
00000040: 3946 3d42 c4c8 25c2 bc45 09c2 d405 2dc2
00000050: 3679 1e42 18b9 f6c1 7c32 7041 5361 3ec1
00000060: 2dd2 fcc1 0e9b a2c1 8382 3c42 278b 4642
00000070: 2fb8 88c1 8d18 acbe 6624 0640 6c6d 10c2
00000080: 7cef 53c2 4dad c7c1 79e1 aac1 03b5 c7bf
00000090: 6fe4 16c2 6cf1 b341 295b 05c1 ad45 a4c1
000000a0: b503 0d42 cf7c 0741 d29d 63c1 d228 86c1
000000b0: faa2 17c2 18d4 8441 c6b1 8541 6b4d e841
000000c0: 7a03 81c1 d471 3bc1 da59 0dc2 4e1b c441
000000d0: 9e40 fd41 fe86 11c2 9642 2942 7ac3 40c2
000000e0: 23b7 8ac1 9505 8641 a2a3 2ec2 8cdc 29c2
000000f0: 5d58 cc3f 22a8 24c2 3698 2ac2 5f6e bc41
00000100: 2cee f8c1 7174 e3c0 c2f7 9141 412c f7bf
00000110: 40bf 26c2 1c86 f5c1 80cc 0ac2 1531 b8c1
00000120: 9e08 73c1 d3a8 66c0 b66b c4c1 4bff e740
00000130: 9826 d441 29fb 93c0 7e4c 9ac1 012a 06c1
00000140: 5f5c b241 9886 11c2 e432 01c2 32e1 efc1
00000150: b0ae fdc1 eb76 97c1 186e 41c1 dc92 27c2
00000160: 35f1 ecc1 0312 61c1 2aba 1b41 570c 0dc1
00000170: 646b 4ac2 4456 8541 3e3a 54c1 e73c 2942
00000180: a049 4cc0 dd49 3ec2 ab96 e141 ab3b 8bc1
00000190: 4761 7ec1 fd19 ffc1 d798 f641 b4eb 94be
000001a0: 4b55 8441 72d4 b441 f6ea 0c42 e58c 9bc0
000001b0: 2eff fe40 3565 ad41 353a 7041 4f85 0cc2
000001c0: 4925 88c1 cc1c d440 6325 3341 cd65 3b41
000001d0: 57f1 78c1 0b14 0742 7c55 f83e 3634 a141
000001e0: b137 a240 71ed c641 4331 1b41 da5a e2c0
000001f0: a204 e5c1 a8c1 02c2 1069 9fbf 8d8c 6fc1
00000200: 9fb3 6b41 5f27 0ac1 1679 c141 be6f e43f
00000210: 3d62 1142 9bad cb41 81d2 81be 10be 13c2
00000220: d367 73c1 7dd3 eebe ce38 e0c1 2272 be41
00000230: 75f5 c13f e59c 0541 5555 12c1 34f5 a441
00000240: 9b6d 08c1 3c3c 14bf 8d1c e7c1 23cd c3bf
00000250: ee9b 6341 8f45 b0c1 0229 da40 c284 e341
00000260: 531f 4fc1 e56c 12c1 1d17 ba41 ce77 3c41
00000270: 0034 a1c1 8599 e241 8e8d 9cc1 348f 6ac1
00000280: 82c8 5cc1 a520 cac1 4994 2a41 634d dbc1
00000290: c092 a540 f8b2 8041 7533 c740 60b0 fa40
000002a0: 35de 0842 1f54 3341 6832 4240 5edc 7ac1
000002b0: 4ba1 ecc1 4579 7741 6aa9 6f40 0964 6f41
000002c0: 26b4 1dc1 d552 1341 bbd1 aec1 5cd9 bf41
000002d0: 2739 d340 d4a6 04c2 943e 1741 9f7a 7bc0
000002e0: 224c d5c1 3151 2941 194c 29c2 b0c7 f840
000002f0: ee5f 12c1 2138 4ac1 efe4 00c1 4505 8541
00000300: 09e5 11c1 d59a cfbe 6c88 c040 9545 c741
00000310: e715 b7c1 27d4 01c2 1899 eec1 cd3c 0841
00000320: 2f94 85c0 456d 9bc1 d7eb 20c2 d1bf 8c41
00000330: 0481 8842 77ed 92c1 65f5 36c1 6503 dec0
00000340: a86f 21c0 050d 41c1 ec1e a7bf a9bb 61c1
00000350: b946 3ac2 cb1d 2e3e b62f afc1 daab 7ec1
00000360: cf2c c540 11a2 d3c1 3c41 e3c0 dd5a c8c1
00000370: 73cb d940 2c92 d440 e08b a7c1 eb49 ca41
00000380: 4000 63c0 6c0a 04c0 cc5a fc41 6ee4 22c0
00000390: bcd4 2740 7f8b 4bc1 01a8 5cc1 b482 c941
000003a0: a8b8 b140 795b 8e41 4f44 2d3f 9908 b1c1
000003b0: 821e c840 cf38 12c1 adfe 6dc0 8762 a0bf
000003c0: 9085 89c1 c7e8 d340 641c 7540 9191 dcc0
000003d0: acec 73c1 1a53 fb41 5f98 0041 00b8 a641
000003e0: 2076 c541 0a00 bdbf c5f0 0242 43e8 d3c1
000003f0: 847b 8ec1 0056 3ec2 2d7f 02c2 5fe6 14c1
-28.032305 24.051594 4.775658 -26.81577 16.907034 38.577194 23.22441 -53.819817
-36.84484 -22.329443 -23.537584 58.077534 -31.82941 10.743962 12.144286 15.858411
47.318577 -41.44606 -34.3181 -43.25569 39.61837 -30.840378 15.012325 -11.898761
-31.602625 -20.32571 47.127453 49.63589 -17.089933 -0.3361248 2.0959716 -36.106857
-52.98387 -24.95962 -21.360094 -1.5602115 -37.72308 22.492882 -8.334756 -20.534021
35.25362 8.467971 -14.22603 -16.769932 -37.909157 16.603561 16.711803 29.037802
-16.126698 -11.71529 -35.337746 24.513332 31.656551 -36.38183 42.315025 -48.190895
-17.339422 16.752726 -43.659798 -42.465378 1.5964466 -41.164192 -42.648643 23.553892
-31.116295 -7.107964 18.245975 -1.931038 -41.686768 -30.690483 -34.699707 -23.023966
-15.189604 -3.6040542 -24.552593 7.2499137 26.518845 -4.624409 -19.28735 -8.385255
22.295103 -36.38144 -32.299698 -29.984959 -31.710297 -18.933065 -12.089378 -41.893417
-29.617777 -14.066897 9.73295 -8.815513 -50.604874 16.667122 -13.264219 42.309475
-3.1919937 -47.572132 28.198568 -17.404135 -15.898749 -31.88769 30.824629 -0.29086077
16.541647 22.603733 35.229454 -4.860949 7.96865 21.674417 15.014211 -35.130184
-17.018206 6.6285152 11.196628 11.712354 -15.558921 33.769573 0.4850272 20.150494
5.0692983 24.865938 9.699527 -7.0735903 -28.627262 -32.689117 -1.2453938 -14.971814
14.731353 -8.634612 24.184124 1.7846601 36.345936 25.459768 -0.25355914 -36.935608
-15.212848 -0.46645728 -28.027737 23.805729 1.5153033 8.350804 -9.145833 20.619728
-8.526759 -0.5790441 -28.88894 -1.5296978 14.225569 -22.033964 6.817506 28.439823
-12.9451475 -9.151586 23.261286 11.779249 -20.15039 28.32496 -19.569118 -14.659962
-13.798952 -25.26594 10.661202 -27.412786 5.174164 16.087387 6.2250314 7.83403
34.217 11.208037 3.0343266 -15.678801 -29.578756 15.467107 3.7447152 14.961923
-9.856482 9.207723 -21.852407 23.981133 6.6007266 -33.162918 9.452778 -3.9293592
-26.662174 10.582322 -42.324314 7.774376 -9.14842 -12.638703 -8.055892 16.627573
-9.118417 -0.40547815 6.016653 24.908976 -22.885695 -32.45718 -29.824753 8.514844
-4.174339 -19.428354 -40.230312 17.59366 68.25198 -18.36595 -11.434911 -6.9379144
-2.52244 -12.065679 -1.3056312 -14.108315 -46.569065 0.17003553 -21.898296 -15.916956
6.16172 -26.454134 -7.101713 -25.044367 6.806085 6.6428432 -20.943298 25.286093
-3.5468903 -2.063136 31.544334 -2.5451922 2.6223593 -12.721557 -13.791017 25.18882
5.553791 17.794664 0.67682356 -22.129198 6.253724 -9.138869 -3.7186692 -1.2530068
-17.190216 6.622165 3.8298578 -6.8927693 -15.245281 31.415577 8.0372 20.839844
24.682678 -1.4765637 32.735126 -26.488409 -17.81031 -47.583984 -32.624195 -9.306243
