model/110a.pt (torch_old, 336838 bytes, 24 tensors)

fc1.weight f4 [128, 28]
00000000: e2b5 37bd b27a 153e 1994 bfbe 7d29 53be
00000010: 006e a6be 4975 a3be b2ac dbbc 7966 7bbd
00000020: 4e88 52bd 6d8d 80bd 9dbe 0bbe 529f d1be
00000030: f0d9 84be 90ec e5bd ecf0 e43d 12f0 50bc
00000040: 16ec b13e 854e c23e 9f22 11be 0ffe 38bf
00000050: 731d bdbe aaa8 9abe 57f7 cebe a26d bd3d
00000060: c85c c7be f0b1 473c 5170 17bf 4506 5e3d
00000070: 497e 6a3f ef4a 0a3f e0f6 073d 8b03 b3bc
00000080: 4d3e c8bc 5dd3 aabe 1731 df3d 0d47 203e
00000090: 1fbb 9e3c 57ad a13d d002 ae3d 348a 083d
000000a0: 0626 0fbe 7d20 9cbe 2d02 51bc 79c9 693d
000000b0: 44fb 4b3e 2806 b33d b7fe 3cbe 2104 25be
000000c0: 2472 bfbd c62d e73d 2a22 8b3d 584d 523f
000000d0: 5b71 643e 1c8e 7dbd 882a 753f f15d 22bc
000000e0: 38fe 46bf 9eff 27bf 37b0 2bbe 519c 103e
000000f0: f1e2 81bd fb48 0abe 1096 06bd f856 463d
00000100: 472a 443d a42c 453e 803d 153e ff6e 843e
00000110: 5bfb 8b3d 7075 a73d 2fa8 bd3d 80e2 78bd
00000120: 867a aebb 3df5 8cbe ed1e d63d c1b4 b6bd
00000130: 43fc 833d b63b a2bd c9bd 8ebe ea47 6bbf
00000140: d975 523e 46dc 243e f4a6 82bf 1f2a ec3d
00000150: fbc0 e7be 1bd2 03bf 9b34 a2be 85ee 0cbe
00000160: cc90 59bd 635a 343c b157 f3bd 5648 703d
00000170: d04a ad3d 03e8 9b3e f9d1 6e3e bf23 7b3d
00000180: 3282 2b3d c955 efbc bd6e a1bd 2c28 a4be
00000190: fa23 fcbd 816f 6ebe f916 b63e 4121 273e
000001a0: 11ce ef3d 9772 69bc 7b8d 59be 1470 17bf
000001b0: 6fdf 283e 3998 1a3b f3b3 49bf bd33 cc3d
000001c0: 1322 3bbf 87cd 06bf bf42 433e fecf 2fbd
000001d0: 2e82 cbbd 6643 82ba 7550 14be 9162 da3d
000001e0: 167d a53d f48f 743d ae8f 9a3e 296a 323e
000001f0: e7f9 e5bd 7251 533d 60e9 ff3d b6af a83d
00000200: 0cfa a3be a2bb abbe 5b47 f03c 6907 e13d
00000210: 0d7e 573d d22f d63d 08fc 22bb 7496 3ebf
00000220: cdba 8a3e cae1 2d3e a30a 5ebf 7eba 863d
00000230: fe90 21bf 61b3 6fbf 22b5 cbbe 0f80 853e
00000240: 6c2d 4a3e a670 e83d 87f1 d2bd 0b95 a93d
00000250: ae1e b93d d491 dd3d 0f8a 443e b772 b0bc
00000260: f400 473d c87f 7ebd 71db 083c f787 f83d
00000270: 1d13 14bc 34f0 873d b74d 233e f157 8f3e
00000280: 4e7b 07be 1bff 173e b9e7 0c3e 4bf4 3abf
00000290: 271e 033e ebac 3e3e 2f59 42bf fff6 a4bd
000002a0: e712 fbbe fcf0 2e3e 4f86 fd3c bcf2 f5bc
000002b0: 3881 063e aa32 81bd e4b3 893e c0b1 273e
000002c0: 0e24 343e a4b8 283e 7085 6f3e e6be 03be
000002d0: 0c6d fdbd cfde d43d a793 89bd f52d 4fbe
000002e0: d49c 9c3b af10 213e bbfe 3b3e 12de 0dbe
000002f0: 3b35 333d a787 eb3c 7c88 01be e491 28bf
00000300: 0828 0dbe af20 44bd 2e51 85bf fcc5 6bbd
00000310: 94bc 28bf 6f83 76bd a65a 3dbc 6326 9dba
00000320: 457c cdbd a8d2 2e3e e224 f53d 98b1 4ebd
00000330: 2e92 f33d d459 04be 7274 a5bd ad20 43be
00000340: 1d93 b4bd 6987 803c 38d0 363d 72f5 48be
00000350: a841 c2bc 5ec9 62bd 39d9 6ebd 0dc7 a7be
00000360: d6a4 48bf 18d3 38bf 1709 29bf a92f 4dbf
00000370: e76b 79be 65fe 353d 88b4 6dbf 7367 f83d
00000380: 6504 8c3e 0bbb 1b3f 3f1d ebbd 2406 3e3e
00000390: 6386 2f3d 6493 57bc 451f 90be e0d3 91be
000003a0: 64bd d3bc 75bb 193e 2873 08be 7d63 833c
000003b0: c3c7 28be d32c b5bd 9293 a33d ae3d 5fbc
000003c0: 0daf 2fbe 3075 d5bd d7e5 b33d 3b18 393b
000003d0: eb3c 8c3e 15db 4fbd 11b6 10bc 3588 bb3e
000003e0: d06d c8be 57f6 92bd 7011 423f 2ddf de3d
000003f0: ce9c 363e 2b34 28be 1307 3bbd deb2 02be
-0.04485119 0.14597586 -0.37417677 -0.20621295 -0.32505798 -0.3192542 -0.026815746 -0.061377022
-0.05139952 -0.06276975 -0.13646932 -0.40941864 -0.25947523 -0.11226761 0.11178765 -0.01275255
0.34750432 0.3795053 -0.14173363 -0.7226266 -0.3693653 -0.30206805 -0.4042308 0.092494264
-0.38937974 0.01218842 -0.59155756 0.054205198 0.91598946 0.5402059 0.033194423 -0.021852275
-0.02444377 -0.33364382 0.10898035 0.15652104 0.019376336 0.0789439 0.0849663 0.033334926
-0.13979349 -0.30493537 -0.012756866 0.057076905 0.19920069 0.087414086 -0.18456541 -0.16114856
-0.093479425 0.112880275 0.06793626 0.8214927 0.22308867 -0.061903104 0.9576802 -0.009910093
-0.7773166 -0.65624416 -0.1676644 0.1412213 -0.06342114 -0.13504402 -0.032857955 0.048422784
0.04789188 0.1925531 0.14574242 0.25865933 0.068350516 0.08176696 0.09260594 -0.060762882
-0.0053246645 -0.27530852 0.104551174 -0.08921195 0.064445995 -0.07921545 -0.2787917 -0.9190661
0.20552768 0.16099653 -1.02072 0.115314715 -0.4526442 -0.5149247 -0.3168076 -0.13762863
-0.053116605 0.011007878 -0.1188196 0.058662735 0.08461535 0.30450448 0.23322286 0.061313387
0.04187221 -0.02921571 -0.0788245 -0.320619 -0.123115495 -0.23284723 0.35564402 0.16321279
0.11709226 -0.014248512 -0.21245377 -0.5915539 0.16491483 0.0023589267 -0.78790206 0.09970806
-0.7309887 -0.5265736 0.1906843 -0.042922966 -0.09936939 -0.0009938299 -0.14483817 0.10663331
0.08080499 0.059707597 0.30187744 0.1742331 -0.11229306 0.051591344 0.124956846 0.08236639
-0.32026708 -0.3354159 0.0293309 0.109877415 0.052610446 0.1045834 -0.002486946 -0.74448323
0.27095643 0.16980663 -0.8673498 0.06578539 -0.63111866 -0.93633085 -0.3978663 0.26074263
0.1974389 0.11349611 -0.10299974 0.08280381 0.09039055 0.1081883 0.1919329 -0.021539075
0.048584893 -0.06213358 0.0083531 0.12135308 -0.00903776 0.06637612 0.15947615 0.2799678
-0.13230631 0.14843409 0.1376027 -0.7302901 0.12804471 0.1862065 -0.75917333 -0.08054923
-0.4903786 0.17084116 0.030947832 -0.030022971 0.1313523 -0.063084915 0.26895058 0.163764
0.17591879 0.16476685 0.23390746 -0.1286579 -0.12374315 0.1039406 -0.067176156 -0.20232375
0.0047794376 0.1572902 0.1835889 -0.13854244 0.043751936 0.028751208 -0.12649721 -0.6584761
-0.13784802 -0.047882732 -1.0415399 -0.05756186 -0.6591275 -0.06018394 -0.011557257 -0.001198959
-0.10033468 0.17072546 0.119699255 -0.050462335 0.11893116 -0.12924892 -0.08078851 -0.19055434
-0.08817122 0.015689569 0.044632167 -0.1962488 -0.023712948 -0.05536782 -0.05831263 -0.3276905
-0.7837652 -0.72197104 -0.66029495 -0.8015085 -0.24357568 0.044432063 -0.92853594 0.121291064
0.27347103 0.6083228 -0.114801876 0.1855703 0.04285277 -0.013157699 -0.28148857 -0.2848196
-0.025847144 0.15012915 -0.13325179 0.01603865 -0.16482453 -0.0884644 0.07987131 -0.013625545
-0.1715662 -0.10422742 0.08784073 0.0028243202 0.27390227 -0.050746042 -0.0088324705 0.36627355
-0.3914628 -0.07175892 0.7580786 0.10882411 0.17833254 -0.1642615 -0.045661043 -0.12763545

fc1.bias f4 [128]
00000000: be5a 623d 3c46 7dbb bdda babc 0622 04bc
00000010: 343e 853d 21d1 b33d c289 eb3d af50 00bd
00000020: 54d9 74be 0ac8 77bb 65fc 6cbd 5632 ad3d
00000030: 96d1 d73c ec5d 093e cb6a 8c3c ebdd 2dbe
00000040: 4c55 2ebe 2344 a3bd 76bb 0abe 6087 2dbe
00000050: fbe0 013d f3ff 0a3d ae7d ee3e 5b5e 4f3e
00000060: be52 92bd 6750 5dbe 736b d4bd 602a eabd
00000070: 2475 e13c d511 22be cc72 08be c8a6 f93d
00000080: 783e 43bd 9814 c4bd 0d97 8f3e fc79 67bd
00000090: 4d7f ad3d 9240 0fbe 86fa 03bd 8af6 aabd
000000a0: 4262 13be 8d13 5e3e 2de5 073c d94c 09bd
000000b0: 6edb ccba 17ba 81be a512 133d 7e0a e83e
000000c0: f3dc 393e 9e98 9bbb 5a84 f03c 7ba5 d93d
000000d0: eadc 4fbe f838 47bd 930d df3d a2f4 55be
000000e0: f19c e53c b278 103e d796 63be 8b58 093f
000000f0: 160b 983d ed6c f6bc 7c1f 5e3e 64bd 1ebe
00000100: 8233 4e3e b377 5b3e 3259 af3d ff44 593e
00000110: c0de cebd 69cb 783e 722f 44be 1a8a 4bbd
00000120: 579e 34be 5e30 90bc d72c b73c 815d 2dbe
00000130: 7658 c43d da43 e9bd 60ac abbd 53e0 e23c
00000140: eeab 023d ef44 273c 51dd 443d b403 ba3d
00000150: f1af 703e 8829 cd3d 4b03 83bd 9bfb e9bd
00000160: bb6c aa3c 5d3b b7bc f506 07be c774 24bc
00000170: 32b5 a63b 51c6 7e3c 3c12 75bd 58ab cfbd
00000180: f8ac 01be 8c8d 33be 7add 403f d664 943d
00000190: 9fbd c73e 566f 57bd 23b2 9c3d 574b d0bd
000001a0: 1c88 053e 275b 8e3d c2e2 e13c a95b 873e
000001b0: 1bc3 59bd 940c c3bd 04e3 913d f718 8d3e
000001c0: 1dab fbbd e254 893d 1e51 cc3c 1b79 7fbc
000001d0: 221a 29be 6aa6 60bd 9126 943d 748d 9ebd
000001e0: ca11 8bbd b02d 1fbd a72a 92bd ceb3 9dbb
000001f0: 18f4 653d 41dc 07bc fd35 dbbd 9911 28be
0.05526232 -0.00386466 -0.02280938 -0.008064752 0.06506005 0.087801225 0.115008846 -0.031326946
-0.23911029 -0.0037808442 -0.05785789 0.084568664 0.026345056 0.13414735 0.017140767 -0.16979186
-0.17024726 -0.079719804 -0.13548073 -0.16946173 0.0317087 0.0339355 0.4658026 0.20250838
-0.07144688 -0.21612702 -0.10372057 -0.11433864 0.027521677 -0.15827115 -0.13325042 0.12190014
-0.047666997 -0.095742404 0.2804493 -0.056512818 0.08471546 -0.13989475 -0.03222134 -0.08347805
-0.14392951 0.21687146 0.008294386 -0.033520553 -0.001562936 -0.25337288 0.035906453 0.45320505
0.18150692 -0.004748418 0.029359985 0.10627266 -0.20299116 -0.048638314 0.10891261 -0.20894101
0.028028937 0.14108542 -0.2222551 0.5365073 0.074239895 -0.030081237 0.21691698 -0.15501934
0.20136836 0.2143238 0.085619345 0.21217726 -0.1010108 0.24296345 -0.19158724 -0.04969225
-0.17638527 -0.017601188 0.022360248 -0.169302 0.09587185 -0.11389895 -0.08382487 0.027694857
0.031902246 0.010209306 0.048062626 0.090827376 0.23504616 0.10017687 -0.063971125 -0.11424943
0.0208038 -0.022367174 -0.13186248 -0.0100376075 0.005087518 0.015550212 -0.059831843 -0.10140103
-0.12663639 -0.17534465 0.75337946 0.072457954 0.39011857 -0.052596413 0.076511644 -0.1017062
0.13040203 0.0695098 0.027573947 0.2643712 -0.053164583 -0.095238835 0.07123378 0.2755811
-0.12288497 0.06705643 0.024941023 -0.015592839 -0.16513875 -0.054846205 0.072339185 -0.07741824
-0.06790502 -0.03886193 -0.071370415 -0.004812694 0.05614099 -0.008292259 -0.10703657 -0.16412963

fc2.weight f4 [128, 128]
00000000: fe04 8bbe 4bfb 97be ec7e a93d 03f9 cbbd
00000010: 1e4a 333e e747 5c3d f317 f03b 9e69 e83e
00000020: f9be 00be c5c4 9dbe 4e60 0fbd deae bebd
00000030: f0cb 683e 5095 a43e 1008 53bc a291 b4be
00000040: 72be 48bc fc98 04bb 61ba 62be 6faa 0fbd
00000050: 0000 b0be 6379 e3bc edb4 813b f1d4 483e
00000060: b499 ca3d bbf6 4cbe 5e58 3c3e aee9 3a3e
00000070: 2b54 f43d cf77 883e 72a5 393d 312d 023e
00000080: 7039 7c3c 311b 143f db6a 443e 6109 a03e
00000090: d16d a23e a4c4 213d 47a7 893e 9abe a1be
000000a0: 601f b8be 9e43 adbd 352a e83d c479 a53e
000000b0: 7105 f03c d164 abbe 37ae 8d3e 6d88 fd3d
000000c0: 0af1 7e3e fdf2 26bd 6c3b 933e 57e5 703e
000000d0: 3ab4 f43c 08e1 893d 87e0 7ebe 55c5 5dbd
000000e0: bc88 29be a1e4 1a3e 08b4 ddbc 056d 0fbf
000000f0: 6eec 0c3e 33b4 8cbe ae2e 093e c0e0 0cbf
00000100: f468 223e 78c3 e23e c007 a73e 03b6 983d
00000110: 2163 a7bc a0df 233e 9d48 d5bd b6d0 9b3d
00000120: 5fb1 80be 7ad3 0a3e fbe2 30be 6615 36be
00000130: bb61 46be 86ca 4f3e 4aab aebd 41e8 923e
00000140: 45e8 b3bd 4169 d1be 6e74 813d 7664 d5be
00000150: a09e 8e3e e954 503d 7f2c 30bd 388d 8fbd
00000160: e5e7 5fbe 2f51 4a3e c35f babe dbb2 ee3b
00000170: 9dc6 cabe c2f1 d9bd c1f9 ba3c 6083 48bd
00000180: 7183 a63e 967d 72be 288b 0ebe b380 69be
00000190: f432 a8be 0e38 8abe 7c88 a13e 5db8 c23d
000001a0: 20ab 2d3e 1ad2 823d 2361 833e 3819 403e
000001b0: f7bf 0c3e 3582 d2bd 1ca1 c93b e35a 133e
000001c0: 8840 3dbd daf3 0cbe 1085 c5bb e9e9 803d
000001d0: 482d 0f3e 18e0 053f b682 293e ae0d b43e
000001e0: 8325 19bf 0442 64bd f7fc b13e 0571 aabd
000001f0: 7c3e 57be 0975 d23e 9d60 903d 5c18 28be
00000200: 1463 e8bd 180c 2bbd ef46 d3bd b97b 713e
00000210: 7f11 1cbe 0aa1 883e 5e03 b03d 74ef d93e
00000220: 0b5f 8b3d cbba 273e 6849 b93d bc71 ddbb
00000230: ce99 d83d 7e8e a53e 2d90 043e 1975 b7be
00000240: 177a 0ebd 2bd4 da3c ba2a d33e 0c8d f33d
00000250: e1b7 3e3e 1718 d3bd 8ce2 16be 3708 f5bd
00000260: 7cb3 2fbd bed2 863e 7ae7 2cbe a7c6 1fbe
00000270: 7f44 cf3e 35f5 033e 9ef2 95be c615 e4bd
00000280: 41e3 6a3e 370d cb3e a047 3d3e 921e 36be
00000290: ac68 7e3e 80ab 5f3d c7c0 fe3d f811 64be
000002a0: 65ee 683e 8f88 cb3d 27a8 fabd 90eb 3d3d
000002b0: fd14 3d3e 1069 be3d 50a0 e73d b5f5 8b3e
000002c0: d036 053e 1ad9 a93e 9f03 123e 5214 983c
000002d0: 70a4 06b8 0b4b 7abe 5fd0 66bd 59e4 42be
000002e0: 6cc8 973e 7ece d03e 0092 babd e873 13bf
000002f0: 89e1 0c3f 1e16 4cbe 66b5 733e dcec 12bd
00000300: a35e 963d 1b6f 0fbd d0e9 8c3e ba89 993d
00000310: 5827 0d3e 33b3 b63d d145 973e 95da d8bd
00000320: 833b 823e de22 8f3c f8ef 183e b480 ad3e
00000330: e222 d33d 9c3b abbd c49c dabd 3983 1d3e
00000340: e309 7f3e da56 b83e dc89 e53e dd48 123e
00000350: b504 debd 7435 06be a7cf f43c 2085 a1bd
00000360: 95f5 47be cfce 2a3e 53a7 2d3d 08ce e93e
00000370: e92c f73c c659 3ebe 4701 4abd e486 973e
00000380: 48ff 9bbe 6c92 a3bc 2d62 c5bc cedf a0bc
00000390: 4e82 e43e 9517 033f 4e37 0cbe 6ebf 5abe
000003a0: d1d9 7c3e 672a d5bd 95a1 4b3e 7895 ec3e
000003b0: dd03 40bd 00df 50be 5905 803e 37f4 33be
000003c0: 750d 143f 0540 0abe 0fe7 793c 606b 363e
000003d0: 4c87 c2be 5232 463e 28df 703e c8df d2b9
000003e0: fa81 9cbd 2fcc eb3d 2390 d93d 29dd e83c
000003f0: 6867 073f 4950 863d 41a0 b33d 9198 e93d
-0.27152246 -0.2968391 0.082761616 -0.099596046 0.17508742 0.05377951 0.0073270737 0.4539308
-0.1257285 -0.30814186 -0.035003953 -0.09310697 0.22734046 0.32145166 -0.01288034 -0.3526736
-0.012252437 -0.0020232787 -0.2214141 -0.035074648 -0.34375 -0.027767843 0.0039583356 0.1961248
0.09892598 -0.20015995 0.18393084 0.18253204 0.11930116 0.26653907 0.045323797 0.12712552
0.015394554 0.5785399 0.19181387 0.31257156 0.31724408 0.03949417 0.26885435 -0.3159073
-0.35961437 -0.084601626 0.11336175 0.32319462 0.02929947 -0.33475354 0.27671978 0.12379537
0.24896637 -0.040759075 0.28756273 0.23524986 0.029871095 0.067323744 -0.24890338 -0.05414327
-0.16556066 0.15126278 -0.027063385 -0.56025726 0.13762066 -0.2748123 0.13396713 -0.5503044
0.15860349 0.44289756 0.326231 0.07456591 -0.02043301 0.16003275 -0.104142405 0.07608168
-0.25135323 0.13557234 -0.17274086 -0.177816 -0.19373219 0.202921 -0.085287645 0.2869282
-0.08784536 -0.40900615 0.06321035 -0.41678208 0.27855396 0.050862227 -0.043011185 -0.07009357
-0.21865804 0.19757532 -0.36401185 0.007284505 -0.39604655 -0.10641815 0.02282417 -0.048953414
0.32522157 -0.2368072 -0.13920271 -0.22803001 -0.32851374 -0.2699589 0.31549442 0.09507821
0.1695981 0.0638773 0.25660047 0.1875962 0.13745104 -0.10278741 0.006153239 0.1439014
-0.04620412 -0.13764897 -0.006027825 0.06294615 0.13982117 0.52295065 0.16553769 0.35166687
-0.59822863 -0.05572702 0.3476331 -0.08322338 -0.2101993 0.41104916 0.070496775 -0.16415542
-0.11347023 -0.04175958 -0.10316264 0.23582353 -0.15241049 0.26685363 0.08594392 0.425655
0.068052374 0.1637985 0.09047204 -0.006757943 0.10576211 0.32335275 0.12945624 -0.35831526
-0.034784403 0.026712498 0.41243535 0.11892137 0.18624832 -0.10307329 -0.14734858 -0.119644575
-0.04289578 0.2633266 -0.16885176 -0.15603124 0.40481946 0.12886508 -0.29286665 -0.111369655
0.22938253 0.3965852 0.18484354 -0.17785099 0.24844617 0.054606915 0.12439113 -0.2227248
0.2274719 0.09938156 -0.12239104 0.046367228 0.18465038 0.09297383 0.11309874 0.27335897
0.1300919 0.33173448 0.14259194 0.018564377 -3.2101234e-05 -0.24442689 -0.056351062 -0.1903242
0.29645097 0.4078254 -0.091098785 -0.57598734 0.5503164 -0.19930312 0.23799667 -0.035870418
0.07342269 -0.035018068 0.27522135 0.074969724 0.1378454 0.08920898 0.29545453 -0.10588566
0.2543603 0.01747268 0.14935291 0.33887255 0.10309388 -0.08360979 -0.10674432 0.15382089
0.24906115 0.36003762 0.4483174 0.14285608 -0.108407415 -0.13106328 0.029884173 -0.0788672
-0.19527276 0.16680454 0.0423959 0.45665002 0.030172782 -0.18588933 -0.049317624 0.295951
-0.30468202 -0.01996728 -0.024094665 -0.019637968 0.44630665 0.5120786 -0.13692972 -0.21362087
0.24692465 -0.10408478 0.19885857 0.46207786 -0.046878684 -0.20397568 0.2500408 -0.1757363
0.57833034 -0.13500984 0.015252843 0.17814398 -0.37993848 0.19355133 0.23522627 -0.0004022105
-0.076419786 0.11513554 0.10623195 0.02842577 0.5289216 0.06558282 0.087708004 0.11406053

fc2.bias f4 [128]
00000000: 0f94 d03d a5ee 813d 4bc9 e6bd d4ec 42bd
00000010: 8c2a 66bc 9279 86bc 1b32 e73d 3a78 7dbd
00000020: df1c 06be ec71 7c3a 3761 eb3d 867a 8e3d
00000030: d0db dbbd 382e 1fbd 5d17 913d 28a3 913d
00000040: 2a61 273e 37f1 683d dc43 5f3e 6df7 d43c
00000050: 149b b83d b3b0 a83c 7dc5 c7bc 44f8 bbbd
00000060: efbb 26be 9701 443d 461a 633d f3f7 b63c
00000070: fadd 9e3d e6c5 81bd cb77 2dbd 543c c6bc
00000080: 2a18 863c a8c5 f13c 64ec 923b 593f 1bbd
00000090: e6e8 e8bc 5ca1 0f3e c2ad 35bd b378 1abe
000000a0: b45c 603e a140 773d c50f 5e3d 86dd 51be
000000b0: 373f 3ebe 3af8 f53d 48d6 6d3d 4780 5c3d
000000c0: 2b67 9ebc 7665 d3bc 4abb 8bbd 69d2 d3bd
000000d0: fb12 ddbd f4d3 93bd 5b71 383e c777 38be
000000e0: f482 273e 1d41 123d f780 18bd 16b4 1abe
000000f0: 62a0 a0bc ff9b 213d 23d4 e33d 0d2a b43d
00000100: 5d2a 94bd 5956 84bd cb17 8e3d e8bc 84bd
00000110: 1876 1b3e 9b0f 06be 8831 ab3d 4d40 debc
00000120: 7ed9 423e 6f75 3e3c 19c3 5c3d 1874 573e
00000130: e0d2 4a3d 6ac8 a4bc 927d 9fbc 8b71 42bd
00000140: 67b9 b63d c914 3f3e 0d65 0e3e 3604 573c
00000150: d268 6fbd fd18 6dbd 7674 34bd 0945 e6bb
00000160: 3a84 e4bd 7e5f a2bc 4a06 da3d e682 063e
00000170: ff5c ab3d 77eb d7b9 3440 87bd fabf ec3d
00000180: 7627 84bd f462 30bd 716f 323d 25f1 b23c
00000190: 64a3 9a3d 4487 f33d 5f8d a23d a903 20bd
000001a0: b0a8 51bd 95cd 10be 5e67 c1bd 8f62 4bbe
000001b0: fb6c 943c 448e b33d c8af b63d ff1a cb3d
000001c0: cdcc fe3d 9e08 15be 783e 5f3c f04c 283e
000001d0: d8b5 d6bd 7171 03be 1139 dc3d 5919 99bd
000001e0: 5f83 c13d 6b07 3a3e b534 8abd af24 f2bd
000001f0: c2ee d43d 3811 2fbe 1510 033e af6b 0e3e
0.1018449 0.06344346 -0.11268862 -0.04758914 -0.01404823 -0.016415391 0.11288854 -0.061882235
-0.13096951 0.0009630013 0.11493152 0.06956963 -0.10735285 -0.038862437 0.07084534 0.07111198
0.16345659 0.056870665 0.2180323 0.025996888 0.09013954 0.02059207 -0.024386162 -0.09178212
-0.16282628 0.04785308 0.05544498 0.022335028 0.077571824 -0.06336574 -0.04235057 -0.024198689
0.016368944 0.029513195 0.0044837464 -0.03790221 -0.028431367 0.14026397 -0.04435516 -0.15085106
0.21910363 0.06036437 0.054214258 -0.2049466 -0.18578802 0.12010236 0.058065683 0.053833272
-0.019336304 -0.025805216 -0.06822832 -0.10342867 -0.10794636 -0.07218161 0.18011992 -0.18014441
0.16358548 0.035706628 -0.037232365 -0.1510776 -0.019607726 0.03945541 0.11124446 0.08797083
-0.07234643 -0.06461782 0.06938132 -0.064813435 0.15181768 -0.1309189 0.08359057 -0.02713027
0.19028279 0.011624678 0.053896997 0.2104038 0.049517512 -0.020115096 -0.019469056 -0.047471564
0.089220814 0.18660273 0.13905735 0.013123563 -0.058449574 -0.05788516 -0.04405638 -0.0070272726
-0.11158033 -0.019820925 0.10645731 0.13135871 0.08367347 -0.0004118343 -0.06604043 0.11560054
-0.06452839 -0.04306312 0.04356331 0.021843502 0.075506955 0.11891034 0.07937121 -0.03906599
-0.051186264 -0.14140923 -0.09443544 -0.19861816 0.018118372 0.087673694 0.08920246 0.099172585
0.124414064 -0.14554068 0.013625734 0.164356 -0.10483903 -0.12836243 0.10753072 -0.07475538
0.09448885 0.18166892 -0.06748334 -0.11823403 0.10397102 -0.17096412 0.12799104 0.13908266

out.weight f4 [5, 128]
00000000: cd69 0e3f 4b86 5cbe 80f7 48be 2e4a 06be
00000010: 5348 aabe 266d 5dbe 914c a5bd b1e3 ab3e
00000020: d53a de3e 770b 7d3e 4d4f c53e e6d9 63be
00000030: fa78 4c3e 7aa1 44be 7c14 e6be 973f b6be
00000040: 7535 90be 7e0f 173f 206c f73e 2c80 ab3e
00000050: a537 1fbe 1b73 5f3e b83a 99be c130 793e
00000060: b9c5 9a3e 17ad e73e 2860 b4be 69e7 abbd
00000070: 89a4 303f ff23 933c 5f7b f73d dc72 6c3e
00000080: 23a4 d83e b7d5 8a3e e6bd d33e 6925 e03d
00000090: 226b 463e d4bf 78be e6be 513d 6276 8a3e
000000a0: 05fd 98bd a195 b7be d3e1 edbd b3fe 923e
000000b0: 4e53 853e 3b9e 1e3d b910 32be 0b45 d4bd
000000c0: f243 563e d0f5 ae3e 6523 893e 6a4b 95be
000000d0: c3bd b4be a4e9 463e 8aa5 3abe 589c 843e
000000e0: 2f04 b23e 7f19 183d 1816 df3e fee9 613e
000000f0: b1b3 16be 949a 973e 6f98 ac3e 3abe c1bd
00000100: baf0 8b3e a6b4 3a3c 4d72 89be d749 b0bd
00000110: ca75 df3e 7dae 073e abbe b03e d263 b63e
00000120: e3aa 2d3f fd9c aa3e 8657 a53e bee2 9c3d
00000130: 87b1 54be 1f9f b33e 3b1e 503d ce32 703e
00000140: 1b07 11be 6529 e83e bc89 c93e f101 893e
00000150: f616 1d3e ec49 f73d 7819 8e3e 9756 9f3d
00000160: 9a05 3c3e 1d95 ee3d c96f 30be 17b1 573e
00000170: da0d 9e3e c1c2 d2be ab83 e93d fa43 80be
00000180: 2740 33be 6b42 a23e 7f27 d2be aed2 073f
00000190: 13a9 c33e 2614 c23e b908 49be 560a 2ebe
000001a0: dc07 0fbf d4bc 17bf 1d6d 31be 939f 283e
000001b0: 659e 3bbe 04be d0be 0288 bdbd 7878 1a3e
000001c0: 78be ab3e e381 02bf 59d5 e5bd 197e 59be
000001d0: 022b 833e 7cb5 9dbe bb26 5cbd cbdd 76bd
000001e0: d004 2f3e f7de 07bd 312e fbbd c779 3d3e
000001f0: 53c4 b83e 2b0b 9d3e e547 5c3e 6870 183f
00000200: d8fc 893e dbae 92be bc0f 47be 94cc 963d
00000210: d334 14bf 3758 89be e981 9ebe 3beb 793e
00000220: 9380 a33e 211e 823e 5f3b a63e 39ba 47be
00000230: fef6 513e 06d0 11be 30d5 98be 2131 f8be
00000240: 0902 7fbe c738 943e 8597 753e f781 223e
00000250: 27a5 abbe 72ab af3e 3233 34be 5936 913e
00000260: b881 813e 6f15 9a3e ef3e b3be 9075 cabe
00000270: d0af 983e d3ca 3f3e ed28 923e 3811 963e
00000280: 8432 9d3e 2d7c 763e 5430 4d3e 5f44 653e
00000290: a9e9 a13e 8522 55be ab4b a13d edad 463f
000002a0: ab82 54be 5e0b 64be f6e1 d63d f5fa 9b3e
000002b0: 1545 953e 3f42 9cbd 187c 90be 00a3 75be
000002c0: 2c9f 403e e86f 9e3e 0bf1 853e 131c 84be
000002d0: d524 69be 08ed b93e 71e1 a7be 13ca 863e
000002e0: 0089 673e 4c36 aabe 018c 4c3e 4067 7d3e
000002f0: 06d7 e2be 0d91 953e 558c 943e e14f 65be
00000300: c19f 983e d81b 81bc a27a 83be 0e74 44be
00000310: cf8b 7d3e 91b3 033e a563 a33e 3d5b e83e
00000320: cec1 013e 6e1a 0e3f fdf4 783e 47db 223c
00000330: 5e9a 80be b40d ad3e 8287 183e b3c6 9e3e
00000340: aa64 97be 9dc9 f43e 9186 cc3e 0ccd ad3e
00000350: ac1d 5e3e a804 ca3c 7a8e 2d3e ca45 543e
00000360: 4e27 483e 79de 5e3d cab8 12be 08d2 823e
00000370: 6255 653e e7db d1be 6f38 3c3e 7e07 81be
00000380: 9fe2 0bbf 8aa6 7a3e 4c7f ccbe ce4f d33e
00000390: 26d4 2f3e c408 8d3e 016b 92be b99d c8be
000003a0: 4229 ccbe 3ecf 2ebe 5866 2dbe efd0 863e
000003b0: d54a 3abe a586 eebe a360 24be 29a0 8a3e
000003c0: bc0d 1a3e a038 27be 75ab 84be c2ab a5be
000003d0: 8051 b93e e6e6 9abe b3c8 2dbe f783 37be
000003e0: 0ad3 2a3d 1821 88be 3136 60be 2b34 623e
000003f0: a740 dc3e dfae 773e f729 873e 8a12 8fbc
0.5563019 -0.21535604 -0.19625664 -0.13114235 -0.33258304 -0.21623668 -0.080712445 0.33572152
0.4340426 0.24711405 0.38537064 -0.2225109 0.19968024 -0.19202223 -0.44937503 -0.3559539
-0.28165784 0.59008014 0.4832468 0.33496225 -0.1554857 0.21821253 -0.2992761 0.24335004
0.30228975 0.45249245 -0.3522961 -0.08393747 0.6900106 0.0179615 0.12084078 0.2309069
0.42312726 0.27116176 0.4135582 0.109446354 0.19376805 -0.24291927 0.051207446 0.27043444
-0.07470135 -0.35856345 -0.11615338 0.28709945 0.2604012 0.03872512 -0.17389192 -0.103647314
0.20924357 0.34171915 0.26784816 -0.291591 -0.35301027 0.19425064 -0.1822721 0.2590053
0.34768817 0.03713369 0.43571544 0.22061917 -0.14716984 0.2961012 0.33710048 -0.09460111
0.27332097 0.011395609 -0.26845017 -0.08607834 0.43644553 0.13250156 0.34520468 0.35623032
0.6783888 0.33322898 0.32293338 0.07660435 -0.20770846 0.35082337 0.05081008 0.2345688
-0.14162867 0.45344082 0.39362895 0.26759294 0.1534079 0.12074646 0.27753806 0.077801876
0.18361512 0.11649535 -0.17230143 0.21063648 0.30869943 -0.4116421 0.11402067 -0.25051862
-0.17504941 0.31691298 -0.41045758 0.53055847 0.3821493 0.37905997 -0.19632234 -0.1699613
-0.5587137 -0.59272504 -0.1732678 0.16467123 -0.18322141 -0.4076997 -0.09254457 0.15085018
0.33543754 -0.5097944 -0.112223335 -0.21239509 0.2561875 -0.30802524 -0.053747874 -0.060270112
0.1709168 -0.03317162 -0.1226467 0.18503486 0.36087283 0.30672583 0.215118 0.5954652
0.26950717 -0.2864903 -0.19439596 0.07363239 -0.57893103 -0.26825115 -0.3095849 0.2440614
0.31934032 0.25413612 0.32467172 -0.19504632 0.20504376 -0.14239511 -0.2985015 -0.48474982
-0.2490312 0.28949568 0.23983581 0.1586989 -0.3352444 0.3431049 -0.17597654 0.28361776
0.2529428 0.30094478 -0.35008952 -0.39542818 0.29821634 0.18729715 0.2854685 0.29310012
0.30702603 0.24070807 0.20037967 0.22389363 0.3162358 -0.2081395 0.07875761 0.7760914
-0.20752971 -0.22269961 0.104923174 0.30464903 0.29154268 -0.07629823 -0.28219676 -0.23987961
0.18810719 0.30944753 0.26160464 -0.2580267 -0.22767957 0.36313653 -0.32789186 0.26326045
0.22610855 -0.3324455 0.19975282 0.24746418 -0.44304675 0.29212227 0.29013315 -0.22393753
0.29809383 -0.015760347 -0.256795 -0.19184896 0.24760364 0.12861468 0.3191196 0.4538211
0.12671587 0.5550908 0.24312206 0.009939975 -0.25117773 0.33799517 0.14895442 0.3101097
-0.29568988 0.4781007 0.39946416 0.339455 0.21691006 0.024660423 0.16948882 0.20729747
0.19546244 0.054411385 -0.14328304 0.25550866 0.22395852 -0.40988085 0.18380903 -0.2520103
-0.5464267 0.24477592 -0.3994087 0.41271824 0.17170772 0.2754575 -0.28597263 -0.39182833
-0.39875227 -0.17071244 -0.16933572 0.2633128 -0.18192609 -0.465871 -0.16052489 0.27075318
0.15044302 -0.16330194 -0.2591206 -0.32357603 0.36194992 -0.30254287 -0.16971092 -0.17921434
0.04170517 -0.2658775 -0.21895672 0.22090213 0.43018076 0.24187802 0.26399204 -0.017464895

out.bias f4 [5]
00000000: 538f 8dbe 8ac3 e4be 4ea1 9b3e 0245 98bd
00000010: fc3a 0dbf
-0.2764841 -0.44680434 0.30396503 -0.07435037 -0.5516813

exp_avg_sq f4 [128, 28]
00000000: 0f88 e443 5230 4144 de01 7844 b687 2045
00000010: bf2c fe45 27fb 1e46 176a a746 9df1 7e46
00000020: 09e5 1c46 7814 a545 4f45 9d45 08ca 1146
00000030: e688 8245 b0aa 7c45 56de d345 aa1b 3246
00000040: fc68 b746 6d67 2d47 5f6f 0846 421f 9b44
00000050: f293 1544 b5e0 c143 e88d a643 df82 df43
00000060: 204f 6b46 5ab3 3a48 6a42 6343 768e b549
00000070: a201 2146 22a9 0346 82cc 1347 576d 1848
00000080: 102d 3d48 dc0b 0348 1921 0048 4444 e447
00000090: 4c05 fa47 9061 6648 dcb0 9548 e274 6248
000000a0: 00ab 0848 5794 c147 70b0 b947 38f6 cf47
000000b0: f827 0148 e594 1348 15f2 ea47 0bff 3548
000000c0: 9a8c cc48 ef35 0b49 a943 6847 9ebe 2246
000000d0: 1d18 f047 9a65 754a c4fb 6e45 2d8d 3b4b
000000e0: b6f8 8f44 f4ed 6f44 abd5 6045 1149 5d46
000000f0: 667e bc46 c69b 5b46 48a8 4b46 2d09 5b46
00000100: 89f9 9546 0c9a f246 b6dd 0a47 cbf4 fa46
00000110: a21e b146 4a13 7246 2b53 8546 45a2 7a46
00000120: 9eae 6146 2e63 a946 63e1 0047 7b58 7e47
00000130: 0fd9 a247 b881 4047 7d1d 8f45 81e1 9044
00000140: a81f 6446 8f4b 1b49 ec55 fe43 af5e a949
00000150: b9bc fb45 f5ba cc45 122b 9446 aa84 9847
00000160: 11c2 1348 cc33 b647 4f8b a747 ee00 bc47
00000170: 0ed0 ff47 a2ba 4348 c39d 5148 006e 2748
00000180: 9c99 fb47 1af4 ad47 a155 bd47 6a27 c047
00000190: b0d8 ac47 b3ad ee47 e076 4b48 c8d0 d048
000001a0: 3d76 e148 cb0d 8848 33c7 ef46 fbc9 fc45
000001b0: 6888 a847 fd97 6a4a 40eb 6745 9cb9 174b
000001c0: aab9 0c45 eb24 d644 7aa3 bc45 f6a2 c246
000001d0: 1e4c 1e47 1de2 bb46 4392 9c46 5cde ab46
000001e0: 5fb2 e946 b3c6 4a47 097c 7547 f11f 4c47
000001f0: 5221 1147 48cf d346 8d24 db46 0ffc c446
00000200: 526e 9f46 0771 cf46 33e1 4047 d719 da47
00000210: e970 0b48 b3c4 ca47 ff8b 3a46 4fb1 0d45
00000220: ce2c a046 8d29 8349 86eb 5c44 ad8c 104a
00000230: e61e a445 bc42 8045 cd84 5546 aa1a 8047
00000240: 9779 ce47 48cc 8c47 a887 6447 bc89 8047
00000250: f78b a847 504b fb47 a7c8 0d48 a408 fb47
00000260: 823f ab47 9ec8 6c47 52f4 7847 6b65 7347
00000270: 1892 7047 7a09 bc47 d9b3 0d48 a5d0 8948
00000280: 1fa9 9048 ee9b 3c48 1d20 b446 150b a645
00000290: 7312 8047 3570 224a b7fd 1545 5669 a04a
000002a0: e35a 2745 ca0e 9945 4f43 8f46 e7f1 2247
000002b0: c02c 5247 ade1 2847 83ee 2747 f74c 1347
000002c0: 049c 2247 0c39 5647 12e6 4e47 5047 2f47
000002d0: d3a6 0647 a03e c446 dc91 c146 a998 d646
000002e0: bf49 0e47 cb65 4847 4f98 6447 e1d0 b547
000002f0: 8d7d bb47 e388 4c47 3078 e345 1915 2745
00000300: fe77 0c47 ffd2 8749 7b54 a744 dd80 4b4a
00000310: a9c9 c944 d102 7b45 d5cf e746 b0e8 e247
00000320: da30 2e48 4775 d247 0a75 8047 d54c 0347
00000330: 33f3 e646 c2e3 be46 2ec8 0647 041a 3447
00000340: c7e7 1f47 84ea 6047 5278 9a47 9f46 8a47
00000350: cd99 2347 52bd f146 464b 1c46 548f 9845
00000360: f39b a544 4547 8b44 26e5 9044 f056 c444
00000370: 637f 4c47 6e26 7949 4464 6544 762e 3a4b
00000380: 3bab d943 0a19 9f43 bee3 7544 b28e 1a45
00000390: fec5 2245 e664 c944 bb84 a644 ffc5 cd44
000003a0: 9227 3245 e04f d445 09e5 0446 686c e645
000003b0: 3802 9845 7e9d 5045 4693 1e45 d0b3 0245
000003c0: 6604 0a45 0b12 4545 87ee 6445 76f9 fd45
000003d0: c12e a746 f1ae 9946 94b1 0945 e905 d943
000003e0: 7286 3e45 ac85 f447 35e0 d642 1090 4f48
000003f0: eced 9232 cf87 5532 b88a 3c32 029b 1c32
457.06296 772.755 992.0292 2568.482 8133.5933 10174.788 21429.045 16316.403
10041.259 5282.5586 5032.6636 9330.508 4177.1123 4042.668 6779.792 11398.916
23476.492 44391.426 8731.843 1240.9768 598.31165 387.75552 333.10864 447.02243
15059.781 191181.4 227.25943 1.4873108e+06 10304.408 8426.283 37836.508 156085.36
193716.25 134191.44 131204.39 116872.53 128010.59 235910.25 306566.88 231891.53
139948.0 99112.68 95072.875 106476.44 132255.88 151123.58 120292.164 186364.17
418916.8 570206.94 59459.66 10415.654 122928.23 4.0205825e+06 3823.7354 1.2291373e+07
1151.7722 959.718 3597.3542 14162.267 24127.2 14054.943 13034.07 14018.294
19196.768 31053.023 35549.71 32122.396 22671.316 15492.822 17065.584 16040.567
14443.654 21681.59 32993.387 65112.48 83378.12 49281.72 4579.686 1159.047
14599.914 636088.94 508.67126 1.3874779e+06 8055.5903 6551.3696 18965.535 78089.33
151304.27 93287.59 85782.62 96257.86 130976.11 200426.53 214647.05 171448.0
128819.22 89064.2 96939.26 98382.83 88497.375 122203.4 208347.5 427654.25
461745.9 278638.34 30691.6 8089.2476 86288.81 3.8435832e+06 3710.7031 9.943452e+06
2251.604 1713.1537 6036.4346 24913.48 40524.117 24049.057 20041.13 21999.18
29913.186 51910.7 62844.035 52255.94 37153.32 27111.64 28050.275 25214.03
20407.16 26552.514 49377.2 111667.68 142787.64 103817.4 11938.999 2267.0818
20502.402 1.0744816e+06 883.68005 2.3682992e+06 5251.8623 4104.342 13665.2 65589.33
105715.18 72088.56 58503.656 65811.47 86295.93 128662.625 145186.61 128529.28
87679.016 60616.617 63732.32 62309.418 61586.094 96274.95 145103.39 282245.16
296264.97 193135.72 23056.057 5313.3853 65572.9 2.6613892e+06 2399.8572 5.256363e+06
2677.6804 4897.8486 18337.654 41713.902 53804.75 43233.676 42990.51 37708.965
41628.016 54841.047 52966.07 44871.312 34470.824 25119.312 24776.93 27468.33
36425.746 51301.793 58520.31 93089.76 95995.1 52360.887 7279.0234 2673.3186
35959.992 1.1126719e+06 1338.64 3.3341992e+06 1614.3019 4016.176 29671.916 116177.375
178371.4 107754.555 65770.08 33612.832 29561.6 24433.879 34504.18 46106.016
40935.777 57578.516 79088.64 70797.24 41881.8 30942.66 10002.818 4881.916
1324.8734 1114.2272 1159.1609 1570.7168 52351.387 1.0205189e+06 917.56665 1.220159e+07
435.33774 318.19562 983.5585 2472.9185 2604.3745 1611.1531 1332.1478 1646.1874
2850.4731 6793.9844 8505.259 7373.551 4864.2773 3337.8433 2537.2046 2091.2383
2208.275 3153.1277 3662.908 8127.1826 21399.377 19671.47 2203.0986 434.04617
3048.4028 125195.34 107.437904 212544.25 1.7104831e-08 1.2429111e-08 1.0974581e-08 9.11564e-09

exp_avg f4 [128, 28]
00000000: b2a0 fa40 89e6 ba40 063d e740 8341 2741
00000010: 627e 5b42 d165 5a42 770d cd42 c81d 4042
00000020: a025 0842 4d9a b041 1ed3 8b41 9b3e 7e41
00000030: 4eb1 8341 df17 8b41 bc47 a641 3882 ec41
00000040: 75c4 3c42 4a25 7742 fffb 3742 db62 a341
00000050: 4ecb 2b41 c703 1141 5cb0 f640 cf31 e640
00000060: 7de5 cbc1 af25 0043 ac34 0341 b16e fe43
00000070: 79dd 2341 ab71 3841 c9e5 9441 5c61 8241
00000080: eeba 6442 69d0 7042 209b 0443 7679 9242
00000090: 4896 8442 c7b5 6c41 03aa 1c42 102e 0842
000000a0: dd4c 1442 4722 e541 28d2 1042 5c5a 5b42
000000b0: 7426 ab42 ae40 d842 85bc 8c42 e9db 0c42
000000c0: 1dc2 9ac0 2021 61c1 f257 ea3e f5b6 1041
000000d0: b042 0c41 3419 5043 69cb 4c41 caad 3644
000000e0: 6951 fd3b ab1f 89bf 5343 c7bf f72d e3c0
000000f0: 2625 cac1 e921 ecbd e67e 63c1 d51c 11c0
00000100: 7077 3c3f 8771 4741 c809 5141 c98d 3141
00000110: 5e8e 2541 a1c8 2040 8b0f 753f 62be fe3e
00000120: 0282 1c40 a06b 1e3f b30f d8bf 74af 6841
00000130: 82ff 5b41 907d 4541 db9e 573e 92bf 9b3e
00000140: 55ef 5941 71fd e140 2782 df3d 8547 8ac2
00000150: a7e8 2dc1 2b0b ecc0 60b8 cebf efad 5640
00000160: b79a 85c2 fd60 ab40 6fa1 b1c2 0ea8 57c2
00000170: 6b08 56c2 7ec8 19c2 c6cb f5c1 f99b d740
00000180: ed51 f3c0 bc4f 0ac1 d527 f8c0 5015 98c1
00000190: 0545 1ec2 f40e 84c2 564d 9bc2 5ff4 9dc1
000001a0: f00d 9bc1 f7eb bb3f 1d1d 7cc1 6968 14c1
000001b0: f956 1f40 d80f 1ec3 e6aa 09c1 b2a9 74c3
000001c0: 7115 16c0 ef87 82c0 822a b4c0 2a25 afc0
000001d0: 49bc bfc1 7db5 cf40 3a03 fdc1 a3d5 60c1
000001e0: 253b 42c1 9285 92bf d1dc b93f 57e6 ce40
000001f0: b786 a840 a82a e0be 73b4 f4be 464d 9cc0
00000200: 39c1 20c1 1eae 94c1 28ca 71c1 356f 1b41
00000210: eefb 8440 b76e 7141 49f1 e9bf 3d2e e8bf
00000220: 35ad 8441 9ab1 e4c1 fe0a debf 8c11 1fc3
00000230: 0d1c 09bf e764 03c0 2522 0f3f 3af6 2140
00000240: e27f 76c1 abca 5d40 b928 0ac2 83f1 e1c1
00000250: c869 03c2 b772 36c1 9494 01c1 4b17 61c0
00000260: c941 aac0 7412 85c0 3b41 bfc0 e210 5ec1
00000270: ae7c d5c1 bcf3 15c2 c581 dac1 5703 5041
00000280: 7fa8 f440 0570 ca41 360a 2c41 1aa2 d23d
00000290: fe2b 3140 f642 38c2 f7ba 17c0 ea4c e8c2
000002a0: 6fee b0c0 7ba3 c2c0 0c1f bcc0 1cc3 dac0
000002b0: 4e60 aec1 db21 07c2 e07a 86c2 1b4c 3ac2
000002c0: 25ec 1fc2 c7ed d7c1 16b0 d2c1 55f0 0fc1
000002d0: d80f 8bc1 ccdd 1bc1 4ac1 4ac1 9ad7 94c1
000002e0: be1e 1ec2 4073 49c2 947c 1ac2 bd5d 22c0
000002f0: 0b34 b33f 79f0 df40 238b 6bc0 785f a0c0
00000300: 4d5d 73c0 5b8d c6c2 3ca7 b7c0 6f1e 79c3
00000310: a791 adc0 9db5 d0c0 7917 35c1 9fc3 0641
00000320: adcd 38c2 0b12 cfc1 1252 98c2 9d85 6dc1
00000330: 6833 c340 a126 5dc0 f639 80c1 533a 2dc0
00000340: 1e20 ebc0 d936 83c1 24cf 7ac1 b99c 98c1
00000350: cce3 fbc1 3e14 0ec2 430f f6c1 2a99 54c1
00000360: 8c09 d0c0 c135 a7c0 8b45 94c0 7a4d 8ac0
00000370: dc83 89c1 5504 55c2 db12 96c0 7e17 cec3
00000380: 5bee 2bc0 8739 36c0 f673 87c0 18e9 6840
00000390: cd81 00c0 d97b d640 46fc 9c40 0c89 3940
000003a0: ca8c 433f 9f07 0cc1 3722 0ac1 d3ee ef3f
000003b0: 43a5 3a40 46bd 9bbf bcd0 30c0 8426 d8bf
000003c0: ac68 9b3f 5c37 4340 ec36 2bc1 f0b0 4ec1
000003d0: 27c5 3dc1 e10c e3c0 a42a eebf cbc7 2ac0
000003e0: ea63 8841 fcea a4c1 9515 90bf f9b2 8c42
000003f0: 0400 0000 0400 0000 0400 0000 0400 0000
7.832116 5.8406415 7.226199 10.453494 54.87342 54.59943 102.5263 48.029083
34.036743 22.075342 17.478085 15.890285 16.461575 17.386656 20.785027 29.563583
47.191853 61.786415 45.99609 20.42327 10.737135 9.063422 7.7090282 7.19358
-25.487055 128.1472 8.200359 508.86478 10.24157 11.527751 18.6122 16.297539
57.18255 60.203526 132.60596 73.23723 66.29352 14.794379 39.166027 34.044983
37.07506 28.641737 36.20523 54.83824 85.5751 108.12633 70.3682 35.214756
-4.8361955 -14.070587 0.45770222 9.044667 8.766281 208.09845 12.799661 730.71545
0.007730652 -1.0712789 -1.5567421 -7.099361 -25.268139 -0.11529905 -14.218481 -2.2673848
0.7361975 12.465217 13.064888 11.0971155 10.347258 2.5122454 0.9572684 0.49754626
2.445435 0.6188297 -1.6879791 14.542835 13.74988 12.343155 0.21056692 0.30419594
13.620931 7.0621877 0.109134965 -69.13969 -10.8693 -7.3763633 -1.6150017 3.354366
-66.80218 5.3555894 -88.8153 -53.914116 -53.50822 -38.445793 -30.724499 6.7377896
-7.6037507 -8.644466 -7.7548623 -19.010406 -39.5674 -66.029205 -77.65105 -19.744322
-19.381805 1.4681386 -15.757108 -9.275491 2.4896834 -158.06189 -8.604223 -244.66287
-2.3450587 -4.0790935 -5.630189 -5.4732866 -23.966936 6.4909043 -31.626575 -14.052157
-12.13944 -1.1447012 1.4520513 6.4656177 5.2664447 -0.43782544 -0.47793922 -4.884433
-10.0471735 -18.585018 -15.111855 9.71465 4.155753 15.08953 -1.8276759 -1.8139111
16.584574 -28.58672 -1.7347105 -159.06854 -0.5355843 -2.0530336 0.55911475 2.5306535
-15.406221 3.4654949 -34.53977 -28.242926 -32.853302 -11.403007 -8.098774 -3.5170467
-5.3205304 -4.1585026 -5.9767127 -13.879122 -26.685879 -37.48802 -27.313364 13.000815
7.6455684 25.304697 10.752493 0.10284825 2.76831 -46.06539 -2.3707864 -116.15022
-5.5291057 -6.082456 -5.87879 -6.836317 -21.797024 -33.783062 -67.23999 -46.57432
-39.98061 -26.991102 -26.33598 -8.996175 -17.382736 -9.74165 -12.67219 -18.605274
-39.53002 -50.36255 -38.62166 -2.5369713 1.4000257 6.9981046 -3.6803672 -5.011654
-3.8025696 -99.276085 -5.7391644 -249.11888 -5.42403 -6.5221696 -11.318231 8.422759
-46.200855 -25.88381 -76.16029 -14.84512 6.100025 -3.4554827 -16.028301 -2.7066848
-7.3476706 -16.401781 -15.675571 -19.076525 -31.486229 -35.519768 -30.757452 -13.287394
-6.5011654 -5.2253118 -4.633489 -4.3219576 -17.189384 -53.25423 -4.6898017 -412.18353
-2.686423 -2.8472612 -4.2329054 3.639227 -2.0079224 6.702618 4.905795 2.8989897
0.763867 -8.751861 -8.633353 1.8744758 2.9163368 -1.2167137 -2.7627401 -1.6886754
1.2141318 3.0502539 -10.700909 -12.918198 -11.860633 -7.095322 -1.8606763 -2.6684444
17.048786 -20.614738 -1.1256586 70.349556 6e-45 6e-45 6e-45 6e-45

exp_avg_sq f4 [5, 128]
00000000: 0d74 f045 8d1f ad46 3201 bb45 d4bf 5b46
00000010: 5914 c645 12c8 8d46 320a 1f46 42c3 a546
00000020: 49be 3346 8889 cb46 46dd 9146 1f52 be46
00000030: 7a6a cb46 f767 0e46 1ae4 7446 7d57 3f46
00000040: 25d3 9746 6c33 2746 58c4 3146 5754 a946
00000050: 1538 b446 9b10 8c46 aa89 8945 c969 ab46
00000060: e882 9d46 f491 6446 d879 8b46 4846 9746
00000070: d09c 8645 34ad cd46 f231 4046 eea9 da46
00000080: e41e b146 6e9a c746 1e06 c646 99fb 7646
00000090: 6c2d 9f46 4d1d ba46 8561 e445 029b b244
000000a0: 591b 9f46 793d 8346 90c0 4a46 19c2 bd46
000000b0: 5af5 b046 d624 4746 fdd5 4846 2753 bc46
000000c0: fa16 2046 deec 2046 bd0b ba46 1d64 6c46
000000d0: e674 4946 32d2 a946 8919 8f46 60ed ea46
000000e0: d1df 9046 0d76 0846 1afa 7846 c98f d446
000000f0: 35c7 4c46 41b7 f746 418f 9c46 313f 9846
00000100: d3cb 9746 9b3b 2c46 fef3 ac46 8003 9246
00000110: a613 8946 4aca eb46 a382 6846 a24a cf45
00000120: 82b5 3545 f94c f745 7d3d 9246 554b f345
00000130: f402 c146 0e8f 4846 5dbb 6b46 b7bf a346
00000140: 2a1f 9846 5a7b c245 de01 4846 bf10 a346
00000150: 2a9d 0b47 eefb e244 3b86 ed46 83bf 9246
00000160: c9db 9946 b56b 9a46 4d78 7a46 cdfb 0147
00000170: 8ce0 9646 bb42 2046 0067 1847 fcf4 8c46
00000180: 1d79 6645 f741 9146 d53e 7746 5593 1346
00000190: 33a2 6946 06d8 7846 7def 3746 7eb7 9046
000001a0: 7de6 a745 2142 d845 ef5b a946 fc24 c846
000001b0: b462 5046 da2b 2746 fa15 8d46 cbba e446
000001c0: ce9e c046 bda4 e845 e03a 9646 a3d5 ef46
000001d0: ff3f 8046 fa45 7846 c46f 4d46 aed0 e145
000001e0: 88e4 1046 c728 9e46 c964 af46 ca5e 8846
000001f0: a8ed 9b46 5d57 aa46 5d4f 9646 2d43 0645
00000200: 8bf5 c145 cc96 6746 a386 6345 fa57 b345
00000210: a4ff 8f45 9c08 3e46 f090 b245 cc46 4e46
00000220: 82a1 0f46 9104 6346 0d8f 4946 becf 4c46
00000230: 1e53 6546 92d2 4645 d1d9 0b46 fca1 1f46
00000240: 53fb 3f46 f355 f345 2a14 e845 4bc7 5946
00000250: f807 4d46 7940 2146 5fd6 6145 99b6 5b46
00000260: 2caa 5246 e4a6 2b46 38f1 3646 24c1 2b46
00000270: 5538 6b45 59f1 4146 9e6c fb45 f47e 8e46
00000280: 7232 3146 3e91 6a46 8131 8b46 2b3e 0a46
00000290: f3a2 8a46 82f1 5a46 6667 9245 788d b344
000002a0: 3ebe 3246 92b0 4046 1651 0046 acba 4d46
000002b0: 3e50 6946 bc6f 0446 3be5 0646 5b1b 6c46
000002c0: 5a99 a545 8225 ca45 3b64 7046 7ed7 0c46
000002d0: 692a e245 f509 4446 4081 2146 1203 9a46
000002e0: 135d 5346 443e 7d45 aa6d 1446 d02a 8b46
000002f0: a86a 0446 698d 9d46 ded3 4246 add5 5746
00000300: 2c00 2746 b562 9a45 f44b 5e46 f838 3a46
00000310: 878e 1e46 d55b 7046 7815 1146 476e 5a45
00000320: 5797 b144 14e6 7d45 23dc 6146 db49 9345
00000330: 379b 7b46 9fdd 0046 ee42 0146 8230 4346
00000340: 5889 3f46 6662 a045 8ea8 1946 dbff 3646
00000350: ebe1 c146 e28a af44 3269 7e46 017f 2446
00000360: e2b1 2446 37b6 3e46 f9d1 2846 8d8b af46
00000370: 8d8e 5946 c781 bd45 fc88 ce46 305e 3146
00000380: f19e c644 2f9f 2e46 7939 1f46 924c fe45
00000390: a6a2 1646 c92d 2246 de43 c045 63b7 1546
000003a0: 9ff7 8d45 5211 ad45 2559 2f46 a8e8 7d46
000003b0: 8bd4 f245 5b4a fd45 4371 0846 8b3a 8a46
000003c0: fa58 5846 dccb 9445 5a4e 1846 ad0a 8046
000003d0: 80f0 1146 d104 2d46 9bb6 ec45 8f34 8545
000003e0: 3397 a245 6dda 4a46 4d85 5546 47ee 1f46
000003f0: 8423 6246 6f8b 4846 fb31 5b46 1d6a 0845
7694.5063 22159.775 5984.1494 14063.957 6338.5435 18148.035 10178.549 21217.629
11503.571 26052.766 18670.637 24361.06 26037.238 9113.991 15673.025 12245.872
19433.572 10700.855 11377.086 21674.17 23068.041 17928.303 4401.208 21940.893
20161.453 14628.488 17852.922 19363.14 4307.6016 26326.602 12300.486 27988.965
22671.445 25549.215 25347.059 15806.899 20374.71 23822.65 7308.19 1428.844
20365.674 16798.736 12976.141 24289.049 22650.676 12745.209 12853.497 24105.576
10245.744 10299.217 23813.87 15129.028 12893.225 21737.098 18316.768 30070.688
18543.908 8733.513 15934.525 27207.893 13105.802 31707.627 20039.627 19487.596
19429.912 11022.901 22137.996 18689.75 17545.824 30181.145 14880.659 6633.329
2907.3442 7913.6216 18718.744 7785.4165 24705.477 12835.764 15086.841 20959.857
19471.582 6223.419 12800.467 20872.373 35741.164 1815.8728 30403.115 18783.756
19693.893 19765.854 16030.075 33275.8 19312.273 10256.683 39015.0 18042.492
3687.5696 18592.982 15823.708 9444.833 14952.55 15926.006 11771.872 18523.746
5372.811 6920.266 21677.967 25618.492 13336.676 10698.963 18058.988 29277.396
24655.402 7444.5923 19229.438 30698.818 16415.998 15889.494 13147.941 7226.085
9273.133 20244.389 22450.393 17455.395 19958.828 21803.682 19239.682 2148.1985
6206.693 14821.699 3640.4148 5738.997 4607.955 12162.152 5714.117 13201.699
9192.377 14529.142 12899.763 13107.936 14676.779 3181.1606 8950.454 10216.496
12286.831 7786.7437 7426.5205 13937.823 13121.992 10320.118 3613.3982 14061.649
13482.543 10985.723 11708.305 10992.285 3763.5208 12412.337 8045.577 18239.477
11340.611 15012.311 17816.752 8847.542 17745.475 14012.377 4684.925 1436.4209
11439.561 12332.143 8212.271 13166.668 14932.061 8475.934 8633.308 15110.839
5299.169 6468.6885 15385.058 9013.873 7237.3013 12546.489 10336.3125 19713.535
13527.269 4051.8916 9499.416 17813.406 8474.664 20166.705 12468.967 13813.419
10688.043 4940.3384 14226.988 11918.242 10147.632 15382.958 9285.367 3494.8923
1420.7294 4062.38 14455.034 4713.232 16102.804 8247.405 8272.732 12492.127
12258.336 5132.3 9834.139 11711.964 24816.959 1404.3401 16282.299 10527.751
10540.471 12205.554 10804.493 22469.775 13923.638 6064.222 26436.492 11351.547
1588.9669 11175.796 10190.368 8137.5713 9640.662 10379.446 6152.4834 9581.847
4542.9526 5538.165 11222.286 16250.164 7770.568 8105.2944 8732.315 17693.271
13846.244 4761.4824 9747.588 16389.338 9340.125 11073.204 7574.8257 4262.57
5202.9 12982.606 13665.325 10235.569 14472.879 12834.858 14028.495 2182.632

exp_avg f4 [5, 128]
00000000: ed9e 65c1 968d a5c0 5806 0341 07e3 4b41
00000010: 0bbd 5d41 c331 d440 a0e5 8340 f773 0dc1
00000020: 35f3 00c1 2d2e 83c1 1348 4d3f 7693 b3c0
00000030: c57e 82c1 81fb da3f d059 53c1 052b 0340
00000040: 92fd 8f40 2c6e 19c1 8fe0 95c1 555b 71c1
00000050: a4c4 28c0 0a0b b93e 1180 91c0 22ee 8ec1
00000060: 6dd2 0741 1825 8740 f935 54c1 355a 83c1
00000070: c5f4 6bc1 5094 4741 309f eb40 1482 6d41
00000080: 892d 7541 ef12 7141 a916 c1c1 995f acc1
00000090: 8fdd 8dc1 da14 a941 af27 bcc0 bb77 3dc0
000000a0: bbe0 4741 1bd8 033f 4947 bec0 d1ad f1bd
000000b0: e2c8 693f f67e 10c0 5466 03c1 575d 9541
000000c0: 4539 c340 f059 0b40 46b0 f2bf 4add ffc0
000000d0: 3682 c540 dd3a 9841 a752 5a41 6a44 c5c0
000000e0: 5180 61c1 b0d9 d140 c774 a1c1 08e6 3ac1
000000f0: c05e 6841 c730 4041 14b8 5a41 df40 8241
00000100: 6280 1541 12da 46c0 76c1 1ac1 b57c 1ac1
00000110: bcbf 5dc1 1e5d eac0 c07c 11c1 2c05 cf40
00000120: 2788 f9bf ee0c 14c0 8d18 abc1 2548 8a41
00000130: 2143 ad41 a332 033d 6a3e 3441 76ff 8140
00000140: 6102 9241 8624 9440 1ea2 8540 7620 ce40
00000150: 2bb9 f0c0 67b5 13bf 71a7 b0bf 2bb3 7f3f
00000160: 45fe b140 1abf ca40 115b 743e 7d51 8ec0
00000170: 297a acc1 3391 6741 ebf0 b4c1 d684 ed40
00000180: 7613 9640 3858 1a41 296b 4bc0 07dd f440
00000190: d9af 59c1 bce4 9ec1 b3da cb40 7976 45c0
000001a0: e652 98c0 fa8f 1541 4524 e7c0 c009 38c1
000001b0: 976b e4c0 bcbf 10c0 f850 82c1 4ff6 0bc1
000001c0: d12d 1641 60e3 ff40 4760 eabf 08cf e040
000001d0: 44eb b9c1 d8c1 83c1 5113 0fc1 b0d4 3840
000001e0: 8c67 5840 715c 7640 b995 8341 7d11 a740
000001f0: 0617 82c1 fa27 0740 6603 98c1 f98c ad40
00000200: 7b7e 3e41 45bc fcc0 13c6 c340 2658 47c1
00000210: c8c2 b441 97a4 bcc1 be02 ff40 63db 0a41
00000220: 8c8c c240 c496 f7bf 8d23 05c2 f101 f8bf
00000230: 5472 17c0 0f2f 24c0 240b d341 42e7 d640
00000240: 69da c441 f81a 3d41 e137 ebbf 0713 63c1
00000250: 01f6 83c0 aa95 4541 1dfb 1741 9bed 2fc1
00000260: 18c2 1fc2 2e70 fac0 8724 3f40 81b4 13c1
00000270: 5f9d 8ac1 6bfb 97c1 42bd a2c1 e73f 89c1
00000280: 387a 9741 8d32 4740 d0f8 91c1 772e 85c0
00000290: f536 59c2 4050 a641 bbe9 6d40 b10c 53c1
000002a0: fafc 64c1 8ad8 1041 c11a 19c0 173c ac40
000002b0: fce9 0c41 359e d5bf 3e03 2641 5cee 88c1
000002c0: bf37 6a41 55f6 c6c0 673d 99c0 7361 a441
000002d0: 1091 47c1 8ddd dc41 cb5e 27c1 1795 cfbf
000002e0: 26da 9040 09c4 08c0 bfce 0341 a307 36c1
000002f0: 99ce a141 85af 22c1 65b6 e7bf 7451 2a41
00000300: f530 8f40 cf0e 8140 679f 0042 40b0 8441
00000310: 1977 9340 54ae e7c0 0bab 07bf 65f3 b1c0
00000320: 7c03 0cc0 2bab 5241 5709 ae40 e2b1 4141
00000330: 9708 7b41 16ad 3f3f 7633 9c41 acf4 21c1
00000340: 4e91 b241 e86f 63c0 6b27 7941 4652 df41
00000350: 0844 71c1 7b94 a1bf 2f79 61c1 8d9e 91c0
00000360: 8546 86c1 9fa9 b0c0 7ad1 1cc1 2e4a 07c2
00000370: 0a12 cbbf daf3 c4c0 9ec9 35c0 3849 0541
00000380: 8e15 0541 4966 12c1 9bfa a5c0 7a1b ddc1
00000390: f4d1 0cc1 9a06 5e41 36aa 5440 2f7d e9c0
000003a0: 09df 8540 f88f 9a40 2d26 38c1 52b0 03c1
000003b0: 983f b7c0 e11f dcc1 e5f1 a7c0 3695 8c41
000003c0: d0a7 60c1 8709 4d41 326c 91c0 726e 6041
000003d0: 840b cf41 b806 7041 d868 42be 1e97 8dc1
000003e0: 88e5 58c1 39db a8c0 1220 423f e2a0 4dc1
000003f0: 2819 cfc0 e4a8 2dc1 69ea 8041 30c1 40c1
-14.3513 -5.1735334 8.189049 12.742927 13.858653 6.6310744 4.1217804 -8.840812
-8.059377 -16.397547 0.801881 -5.6117506 -16.3119 1.7108003 -13.209427 2.0495007
4.4997034 -9.589397 -18.734648 -15.084798 -2.637002 0.36141235 -4.546883 -17.866276
8.4888735 4.223278 -13.263177 -16.419046 -14.747258 12.473709 7.363182 14.844257
15.323617 15.067122 -24.136065 -21.546679 -17.733183 21.135181 -5.879844 -2.9604328
12.492366 0.51501626 -5.946202 -0.11800731 0.9132215 -2.257749 -8.212482 18.670576
6.100741 2.1773643 -1.8960044 -7.995763 6.172145 19.028742 13.645179 -6.1646013
-14.093827 6.557823 -20.18202 -11.68116 14.523132 12.011909 13.669941 16.281675
9.343843 -3.10706 -9.672232 -9.655446 -13.85931 -7.323867 -9.092957 6.4693813
-1.9494675 -2.3132892 -21.386988 17.285227 21.657778 0.032030713 11.265238 4.062434
18.251162 4.6294584 4.1760397 6.4414625 -7.5226035 -0.57698673 -1.3801099 0.99882764
5.5622888 6.335828 0.23862864 -4.4474473 -21.559649 14.472949 -22.617636 7.4224653
4.6898756 9.646538 -3.1784155 7.651981 -13.605432 -19.861687 6.3704467 -3.085356
-4.7601194 9.347651 -7.2231774 -11.50238 -7.1381335 -2.2617025 -16.289536 -8.747634
9.386186 7.9965057 -1.8310632 7.0252724 -23.239876 -16.46965 -8.942216 2.8879814
3.38132 3.8493922 16.448107 5.220885 -16.261242 2.111815 -19.00166 5.4234586
11.905879 -7.897982 6.117929 -12.459021 22.595108 -23.580366 7.9690847 8.678561
6.0796566 -1.9342885 -33.284718 -1.9375592 -2.366353 -2.5653722 26.38044 6.7157297
24.606646 11.819084 -1.8376428 -14.192145 -4.12378 12.349039 9.498807 -10.995509
-39.939545 -7.826194 2.9866045 -9.231568 -17.326841 -18.997763 -20.342411 -17.156202
18.934677 3.1124604 -18.24649 -4.161922 -54.30367 20.789185 3.7173908 -13.1905985
-14.311762 9.052866 -2.392258 5.382335 8.807125 -1.6688906 10.375792 -17.116386
14.63861 -6.21757 -4.7887454 20.547583 -12.472916 27.60818 -10.460643 -1.6217374
4.5266294 -2.136965 8.237975 -11.376864 20.225878 -10.167851 -1.8102537 10.644886
4.474726 4.0330577 32.155666 16.58606 4.6082883 -7.2400303 -0.52995366 -5.5609612
-2.1877127 13.166789 5.43864 12.105928 15.689597 0.74873483 19.525127 -10.122234
22.32095 -3.5537052 15.572124 27.915173 -15.079109 -1.2623438 -14.092086 -4.5506043
-16.784433 -5.5207057 -9.801142 -33.82244 -1.586488 -6.154767 -2.8404307 8.330376
8.317762 -9.149972 -5.1868415 -27.638416 -8.801258 13.876612 3.3228889 -7.296531
4.183476 4.8300743 -11.50932 -8.230547 -5.726513 -27.515566 -5.248278 17.572857
-14.04097 12.814826 -4.5444574 14.026964 25.880623 15.00164 -0.18985307 -17.698788
-13.556038 -5.2767606 0.75830185 -12.851778 -6.471821 -10.853733 16.114458 -12.047165
