model/130a.pt (torch_old, 336838 bytes, 24 tensors)

fc1.weight f4 [128, 28]
-0.102977075 0.16243468 -0.27920356 -0.1368875 -0.40825537 -0.4332464 0.02090069 0.04164441
-0.077749565 -0.0189708 -0.113339774 -0.35147128 -0.18529034 -0.036822684 0.20019859 0.09219603
0.40326214 0.45647594 -0.33959895 -0.8937014 -0.33221647 -0.25087598 -0.30377206 0.02867639
-0.3776895 0.020438226 -0.6181346 0.06038343 0.8805682 0.62989265 0.14405058 0.015701018
0.0071581397 -0.36210054 0.06961436 0.23513812 0.043754682 0.101135224 0.05306177 -0.02682884
-0.1399539 -0.26565263 0.02723856 0.05383003 0.16435553 0.0865022 -0.31163555 -0.18138519
-0.06625453 0.16324356 -0.10616027 0.77980864 0.15402876 -0.07378927 0.9686617 0.021351641
-0.8184294 -0.67484367 -0.19096506 0.16319853 -0.011229685 -0.13369219 -0.041182183 0.04374892
0.022648305 0.16781619 0.20434391 0.29164946 0.07540723 0.080092385 0.07268739 -0.039247323
0.012514529 -0.28965664 0.11943496 -0.07873229 0.122205704 -0.07958823 -0.30499497 -0.96172273
0.28397727 0.14764112 -1.0487498 0.10952845 -0.54944175 -0.570482 -0.29871112 -0.11378247
-0.049982082 -0.10643694 -0.20479995 0.049924716 0.055657987 0.3065986 0.3087653 0.05639251
0.028267598 0.015678799 -0.08781335 -0.3360448 -0.15039352 -0.23910572 0.33232296 0.12957577
0.16665964 -0.005455476 -0.24453796 -0.6933662 0.21628295 -0.03394555 -0.8735253 0.09980908
-0.73582715 -0.6187924 0.07279204 -0.05570019 -0.15660179 -0.03854699 -0.13114555 0.10253646
0.07991895 0.062879704 0.32999292 0.22130917 -0.09131408 0.054747116 0.117459215 0.07937695
-0.29602203 -0.32712305 0.027898917 0.0964905 0.096270084 0.0638578 0.1470564 -0.7488673
0.27744663 0.16078746 -0.90297776 0.06369779 -0.652547 -0.98597854 -0.47098428 0.28661343
0.16180344 0.09710394 -0.052467603 0.08467482 0.093500935 0.1008402 0.23185572 0.02693176
0.07255937 -0.063261144 0.019893399 0.1475962 0.054741163 0.068976045 0.14129545 0.2529788
-0.101098605 0.11709766 0.2413544 -0.7499926 0.20748393 0.17750347 -0.82905525 -0.05243765
-0.53915346 0.12527417 -0.039207667 -0.085750364 0.1094105 -0.14356655 0.2398907 0.13088708
0.16055962 0.21174185 0.34404692 -0.09666064 -0.11770633 -0.018581571 -0.12816705 -0.15053867
0.008829051 0.16669624 0.14273739 -0.14840484 0.09378068 0.084916204 -0.39185658 -0.7169291
-0.16873245 -0.029971182 -1.1009287 -0.015267608 -0.67033345 -0.11754814 -0.08381482 -0.0128297005
-0.10394754 0.14152686 0.103848636 -0.08512257 0.09361089 -0.16912617 -0.11024985 -0.20986593
-0.09785592 0.017380824 0.022997258 -0.20761397 0.00537429 -0.049554583 -0.018312896 -0.30895412
-0.798131 -0.73454237 -0.6690691 -0.82258445 -0.22426035 0.06155953 -0.94099337 0.12062293
0.30294126 0.6096715 -0.035518628 0.14979559 -0.034722365 -0.103750676 -0.55592245 -0.49248588
-0.00055311073 0.26778495 -0.064721435 -0.043389138 -0.17777577 -0.03795326 0.048212033 0.016451897
-0.14874429 -0.21358733 0.032847743 -0.019208841 0.22971025 0.11495051 -0.111491784 0.3962372
-0.6534605 -0.061116688 0.55782837 0.103064515 0.17833254 -0.1642615 -0.045661043 -0.12763545
00000000: a5e5 d2bd 4755 263e c5f3 8ebe 3d2c 0cbe
00000010: d906 d1be 79d2 ddbe ed37 ab3c 5493 2a3d
00000020: 2a3b 9fbd a768 9bbc af1e e8bd 0bf4 b3be
00000030: c0bc 3dbe 62d3 16bd dc00 4d3e 46d1 bc3d
00000040: 6078 ce3e 37b7 e93e eadf adbe 9dc9 64bf
00000050: 4718 aabe d172 80be 0388 9bbe c0ea ea3c
00000060: 8560 c1be 116e a73c 123e 1ebf 9e54 773d
00000070: eb6c 613f a540 213f ff81 133e 6c9f 803c
00000080: d48e ea3b 3e65 b9be f991 8e3d 0cc8 703e
00000090: 1c38 333d fc1f cf3d 4c57 593d 28c8 dbbc
000000a0: 1350 0fbe 9f03 88be 6723 df3c e17c 5c3d
000000b0: d14c 283e 1128 b13d b28e 9fbe 0abd 39be
000000c0: 74b0 87bd 5229 273e 8e6a d9bd 8aa1 473f
000000d0: b7b9 1d3e d41e 97bd 37fa 773f a3e9 ae3c
000000e0: 9784 51bf 8ec2 2cbf 588c 43be 841d 273e
000000f0: b6fc 37bc 9be6 08be a6ae 28bd 1132 333d
00000100: f088 b93c 02d8 2b3e 883f 513e 1453 953e
00000110: 1b6f 9a3d 7a07 a43d 20dd 943d cdc1 20bd
00000120: bd09 4d3c e04d 94be 519a f43d 653e a1bd
00000130: fc46 fa3d 27ff a2bd 4d28 9cbe 7633 76bf
00000140: 7865 913e 3c2f 173e 6f3d 86bf 7450 e03d
00000150: 37a8 0cbf 1c0b 12bf aaf0 98be c906 e9bd
00000160: 03ba 4cbd 9cfb d9bd 14b7 51be dc7d 4c3d
00000170: a1f9 633d 7efa 9c3e 7c16 9e3e d5fb 663d
00000180: 7391 e73c d370 803c 7cd7 b3bd 100e acbe
00000190: c200 1abe 21d8 74be 3c26 aa3e 83af 043e
000001a0: d3a8 2a3e dac3 b2bb 2968 7abe 7380 31bf
000001b0: 4779 5d3e 7d0a 0bbd 5b9f 5fbf b468 cc3d
000001c0: 2b5f 3cbf 2e69 1ebf fe13 953d e225 64bd
000001d0: 385c 20be 73e3 1dbd 054b 06be a3fe d13d
000001e0: 8cac a33d 13c7 803d d5f4 a83e df9e 623e
000001f0: e002 bbbd 833e 603d 758e f03d 6290 a23d
00000200: 3390 97be ac7c a7be 458c e43c d09c c53d
00000210: 4029 c53d e1c7 823d f495 163e c4b5 3fbf
00000220: 7c0d 8e3e 78a5 243e 8d29 67bf fd73 823d
00000230: 520d 27bf 1769 7cbf da24 f1be ffbe 923e
00000240: cdaf 253e 6ede c63d 45e8 56bd fe69 ad3d
00000250: 6b7d bf3d 4f85 ce3d 966b 6d3e ff9f dc3c
00000260: 029a 943d 0f8f 81bd 7bf7 a23c 7523 173e
00000270: 4538 603d 5043 8d3d c1af 103e 7086 813e
00000280: c90c cfbd e6d0 ef3d 9c25 773e 84ff 3fbf
00000290: ab76 543e 78c3 353e f73c 54bf dcc8 56bd
000002a0: f605 0abf df47 003e 3898 20bd e39d afbd
000002b0: 9d12 e03d 1c03 13be e8a5 753e 4307 063e
000002c0: be69 243e dbd2 583e eb26 b03e 03f6 c5bd
000002d0: 0410 f1bd 6138 98bc 393e 03be cf26 1abe
000002e0: b9a7 103c 6bb2 2a3e c029 123e 70f7 17be
000002f0: 1610 c03d 8ce8 ad3d 6da1 c8be aa88 37bf
00000300: 33c8 2cbe 2086 f5bc 3beb 8cbf fd24 7abc
00000310: f99a 2bbf 14bd f0bd 1ba7 abbd aa33 52bc
00000320: 73e2 d4bd 6bec 103e 98ae d43d be54 aebd
00000330: 11b7 bf3d 692f 2dbe acca e1bd 18e7 56be
00000340: af68 c8bd 3b62 8e3c bf64 bc3c c298 54be
00000350: d01a b03b bff9 4abd ed04 96bc 3c2f 9ebe
00000360: 5052 4cbf f80a 3cbf 1d48 2bbf e594 52bf
00000370: 81a4 65be d925 7c3d f1e4 70bf 2809 f73d
00000380: 1e1b 9b3e 6e13 1c3f fb7b 11bd 0464 193e
00000390: 0a39 0ebd 3c7b d4bd ef50 0ebf 1c27 fcbe
000003a0: a2fe 10ba 1c1b 893e ac8c 84bd cfb8 31bd
000003b0: da0a 36be e174 1bbd fb79 453d 21c6 863c
000003c0: 6c50 18be a3b6 5abe 5b8b 063d dc5b 9dbc
000003d0: 2a39 6b3e 2c6b eb3d ce55 e4bd 9adf ca3e
000003e0: 3049 27bf 7e55 7abd d7cd 0e3f 7d13 d33d
000003f0: ce9c 363e 2b34 28be 1307 3bbd deb2 02be

fc1.bias f4 [128]
0.08536522 -0.009201284 -0.025853459 -0.02939163 0.059815753 0.090242885 0.124806106 -0.032702908
-0.23435977 -0.0037808442 -0.05785789 0.050291818 -0.00717523 0.1173034 -0.0030694525 -0.17353185
-0.17024726 -0.097324535 -0.13548073 -0.16946173 0.035299998 0.037955396 0.4658026 0.17322028
-0.07144688 -0.20887423 -0.10372057 -0.10258905 0.011793704 -0.15827115 -0.114345394 0.09126365
-0.088693015 -0.10376559 0.2595644 -0.056512818 0.11381817 -0.13989475 -0.059045788 -0.09972831
-0.13052219 0.19307564 -0.009406632 -0.008907725 -0.01652099 -0.2306531 0.011954124 0.45320505
0.17604308 -0.004748418 0.006880295 0.09346301 -0.20299116 -0.048638314 0.08624704 -0.2406065
0.03909978 0.15633371 -0.2222551 0.52679515 0.055162847 -0.009636215 0.19503362 -0.14238285
0.17899904 0.22255002 0.0921911 0.20406485 -0.1217384 0.1972787 -0.19158724 -0.03128858
-0.18109159 -0.017601188 0.029918829 -0.169302 0.08124857 -0.13824508 -0.16169879 0.006890324
-0.011337242 0.031852055 0.075154826 0.10105178 0.22998443 0.1011499 -0.063971125 -0.10497202
0.049723744 -0.022367174 -0.16504042 0.015699789 0.04088899 -0.042830054 -0.059831843 -0.10604937
-0.12663639 -0.17145412 0.75337946 0.086196445 0.39011857 -0.052596413 0.06605293 -0.08714655
0.10642884 0.054383267 0.018348545 0.26453698 -0.053164583 -0.095238835 0.070739366 0.26604685
-0.14089237 0.07840172 0.02494053 -0.04459069 -0.16513875 -0.06580528 0.07250275 -0.06348404
-0.083477736 -0.018732168 -0.07409968 0.015680071 0.05614099 -0.007427309 -0.12875876 -0.15503642
00000000: f6d3 ae3d fbc0 16bc a2ca d3bc b7c6 f0bc
00000010: 5d01 753d 43d1 b83d 589a ff3d 7cf3 05bd
00000020: 02fc 6fbe 0ac8 77bb 65fc 6cbd cbfe 4d3d
00000030: 311e ebbb c43c f03d de28 49bb 55b2 31be
00000040: 4c55 2ebe 1652 c7bd 76bb 0abe 6087 2dbe
00000050: bb96 103d 1e77 1b3d ae7d ee3e a860 313e
00000060: be52 92bd 20e3 55be 736b d4bd 351a d2bd
00000070: 613a 413c d511 22be eb2d eabd 70e8 ba3d
00000080: afa4 b5bd 0e83 d4bd a0e5 843e fc79 67bd
00000090: 8019 e93d 9240 0fbe ffd9 71bd 5b3e ccbd
000000a0: 9ca7 05be 9fb5 453e 461e 1abc b5f1 11bc
000000b0: 0757 87bc 5430 6cbe 3bdb 433c 7e0a e83e
000000c0: a344 343e 9e98 9bbb 1974 e13b 8969 bf3d
000000d0: eadc 4fbe f838 47bd 4aa2 b03d 8d61 76be
000000e0: 1727 203d f215 203e d796 63be 0cdc 063f
000000f0: 70f2 613d 37e1 1dbc e5b6 473e cfcc 11be
00000100: 864b 373e 27e4 633e b0ce bc3d 60f6 503e
00000110: fb51 f9bd 6d03 4a3e 722f 44be 7428 00bd
00000120: 1370 39be 5e30 90bc 5518 f53c 815d 2dbe
00000130: a665 a63d 1e90 0dbe 5e94 25be 3ac8 e13b
00000140: d7bf 39bc 4d77 023d c6ea 993d 3cf4 ce3d
00000150: 0a81 6b3e ae27 cf3d 4b03 83bd 92fb d6bd
00000160: 20ab 4b3d 5d3b b7bc 5b00 29be d89c 803c
00000170: 377b 273d 916e 2fbd 3c12 75bd 6930 d9bd
00000180: f8ac 01be ab91 2fbe 7add 403f c387 b03d
00000190: 9fbd c73e 566f 57bd c246 873d e479 b2bd
000001a0: 5df7 d93d fdc0 5e3d b04f 963c 6471 873e
000001b0: 1bc3 59bd 940c c3bd cddf 903d 4b37 883e
000001c0: 1746 10be 1591 a03d 1550 cc3c baa4 36bd
000001d0: 221a 29be ebc4 86bd 527c 943d ec03 82bd
000001e0: 60f6 aabd 3474 99bc 93c1 97bd 7e73 803c
000001f0: 18f4 653d c960 f3bb 56d9 03be dec1 1ebe

fc2.weight f4 [128, 128]
-0.39471847 -0.3985065 0.06670457 -0.12779748 0.12925284 0.0013826062 0.021330573 0.46091807
-0.13040492 -0.31411204 -0.023060601 -0.13812186 0.25385576 0.28601053 -0.03275069 -0.3682682
-0.032255802 0.0052306573 -0.2323586 -0.03184518 -0.3485327 -0.09495369 0.07352146 0.17661062
0.08537716 -0.36973292 0.22494295 0.1480549 0.09947921 0.26653907 0.016114065 0.11505526
0.08383768 0.5775261 0.1423016 0.35532314 0.30040538 0.02393628 0.1931893 -0.41324082
-0.35935503 -0.017593125 0.119099185 0.3252112 0.03035712 -0.41252688 0.24024133 0.15081668
0.2561922 0.019985765 0.30150908 0.20715503 0.039357867 0.18951438 -0.26914385 -0.13761781
-0.19304894 0.28637516 0.28804666 -0.54346395 0.12592098 -0.27290496 0.112760425 -0.66380495
0.18564215 0.37900668 0.34311473 0.065451935 -0.016165318 0.12276233 -0.069091074 0.0055321706
-0.27800843 0.23049058 -0.22498888 -0.15308084 -0.107462 0.18506226 -0.12972465 0.26104167
-0.108836085 -0.42493507 0.034626137 -0.47707424 0.2501011 0.014150657 -0.011275188 -0.11092171
-0.2924506 0.19757532 -0.36563483 0.115619175 -0.39136094 -0.06887909 0.02282417 -0.060818616
0.40076616 -0.2631348 -0.122316234 -0.27017015 -0.30049396 -0.26626962 0.2488986 0.0768608
0.24216238 0.058080304 0.19240268 0.15699774 0.12846206 -0.08169288 -0.018973721 0.19403493
0.038011815 -0.15099615 0.0062386566 0.052921657 0.16598226 0.51060474 0.18769811 0.45764798
-0.6552307 -0.04355076 0.37771025 -0.123242125 -0.20236105 0.44410136 0.027546773 -0.18373434
-0.15583375 -0.01021543 -0.045223095 0.33496812 -0.22443426 0.25702757 0.15999259 0.41044927
0.13637246 0.22946467 0.11631138 -0.0038826675 0.14079745 0.35955027 0.10179723 -0.37130284
-0.025602454 -0.040760897 0.48513746 0.17399982 0.15640682 -0.11994668 -0.19466527 -0.08611678
-0.04789301 0.16634561 -0.22673176 -0.24048316 0.44530788 0.12886508 -0.37341443 -0.08622242
0.2524165 0.37300688 0.22568284 -0.17829245 0.35312167 0.090747155 0.13823257 -0.39751282
0.2544282 0.27890673 -0.1613276 0.029329045 0.224771 0.13743944 0.09267684 0.28250983
0.059540994 0.36634564 0.17132945 0.03816558 -0.054474868 -0.27319607 -0.055362195 -0.40885824
0.2523332 0.55308896 -0.3069102 -0.52818245 0.576814 -0.22253662 0.251053 -0.0960345
0.057327043 0.05399483 0.19835837 0.10150306 0.14604032 0.09528451 0.3483834 -0.20273331
0.23202094 -0.083894715 0.07066815 0.3977988 0.26222786 -0.08972038 -0.051848114 0.15018666
0.27522033 0.35219094 0.47807086 0.1309378 -0.0998205 -0.1815506 0.04073655 -0.08839505
-0.27099416 0.16680454 0.03896781 0.5430999 0.064189814 -0.24573056 -0.07363711 0.2950158
-0.3129052 -0.03487746 0.002143887 -0.014774577 0.50239944 0.5602863 -0.065831184 -0.41035262
0.37075347 -0.092980914 0.21937099 0.56137466 0.0028967857 -0.18934013 0.31550395 -0.16109104
0.6263849 -0.14653382 0.04667877 0.19347262 -0.37157717 0.13989837 0.22175604 0.08362212
-0.03563291 0.16146414 0.1151848 0.062531345 0.5733851 0.16903965 0.19626388 0.08475854
00000000: 8a18 cabe 0b09 ccbe 689c 883d 58dd 02be
00000010: db5a 043e 9138 b53a 74bd ae3c 74fd eb3e
00000020: de88 05be 4bd3 a0be 96e9 bcbc d16f 0dbe
00000030: 62f9 813e f96f 923e 9625 06bd a68d bcbe
00000040: a91e 04bd ef65 ab3b 6aef 6dbe 1770 02bd
00000050: e172 b2be 1577 c2bd 6b92 963d 6ad9 343e
00000060: 38da ae3d a24d bdbe 7257 663e b49b 173e
00000070: c2bb cb3d cf77 883e a501 843c 18a2 eb3d
00000080: 17b3 ab3d c0d8 133f 83b7 113e eaec b53e
00000090: bcce 993e 0416 c43c 6ad3 453e 4d94 d3be
000000a0: 62fd b7be 751f 90bc 46ea f33d 1582 a63e
000000b0: 7faf f83c b936 d3be d301 763e b06f 1a3e
000000c0: a02b 833e 30b9 a33c 665f 9a3e 7320 543e
000000d0: b735 213d 0f10 423e 39cd 89be afeb 0cbe
000000e0: 9fae 45be c49f 923e da7a 933e 7420 0bbf
000000f0: 6ef1 003e 33ba 8bbe f0ee e63d 1fef 29bf
00000100: fa18 3e3e 2a0d c23e bcac af3e aa0b 863d
00000110: 216d 84bc d16a fb3d 9f7f 8dbd 3647 b53b
00000120: 1f57 8ebe b905 6c3e 7c63 66be 39c1 1cbe
00000130: 0915 dcbd f680 3d3e 8ad6 04be 41a7 853e
00000140: 74e5 debd 1791 d9be 23d4 0d3d 1343 f4be
00000150: 400d 803e 28d8 673c 91bb 38bc ec2a e3bd
00000160: 16bc 95be 2f51 4a3e 7d34 bbbe bfc9 ec3d
00000170: 7660 c8be 7b10 8dbd c1f9 ba3c f11c 79bd
00000180: 3931 cd3e 9bb9 86be ef80 fabd be53 8abe
00000190: 58da 99be 7e54 88be 46df 7e3e 3269 9d3d
000001a0: 6af9 773e 9de5 6d3d 3505 453e 04c4 203e
000001b0: 8f8b 033e 994e a7bd c76e 9bbc 18b1 463e
000001c0: 47b2 1b3d bc9e 1abe a56d cc3b 61c4 583d
000001d0: 41f7 293e feb6 023f ef33 403e d650 ea3e
000001e0: 33bd 27bf 4862 32bd 3d63 c13e 5e66 fcbd
000001f0: bc37 4fbe 4161 e33e c5a9 e13c db24 3cbe
00000200: e292 1fbe 9e5e 27bc da3b 39bd f180 ab3e
00000210: 18d2 65be 1e99 833e 19d5 233e 6826 d23e
00000220: 39a5 0b3e c9f8 6a3e a934 ee3d 5a74 7ebb
00000230: 352d 103e f916 b83e 117b d03d 681b bebe
00000240: 3dbc d1bc e6f4 26bd f063 f83e 022d 323e
00000250: 1c29 203e 9ba6 f5bd 5556 47be ff5d b0bd
00000260: 762b 44bd 8156 2a3e 5f2c 68be 3841 76be
00000270: 65ff e33e 35f5 033e 2d30 bfbe 6195 b0bd
00000280: bc3c 813e c2fa be3e 6719 673e 4c92 36be
00000290: 5dcc b43e a5d9 b93d d78c 0d3e cd86 cbbe
000002a0: 6a44 823e ddcc 8e3e 1033 25be 7743 f03c
000002b0: 5e2a 663e edbc 0c3e 5bcd bd3d 21a5 903e
000002c0: 42e1 733d a891 bb3e fd70 2f3e 8353 1c3d
000002d0: 0a21 5fbd 5be0 8bbe 78c3 62bd de55 d1be
000002e0: d131 813e 3d97 0d3f 5523 9dbe f736 07bf
000002f0: 15aa 133f a4e0 63be 058a 803e bcad c4bd
00000300: c3cf 6a3d af29 5d3d 751e 4b3e d6e0 cf3d
00000310: 988b 153e 8624 c33d 4f5f b23e 5299 4fbe
00000320: e696 6d3e fed0 abbd 77ba 903d 49ac cb3e
00000330: bb42 863e 52bf b7bd b05e 54bd 88ca 193e
00000340: aee9 8c3e 5f52 b43e b4c5 f43e 8f14 063e
00000350: b16e ccbd 67e8 39be 5edb 263d 7708 b5bd
00000360: bfbf 8abe cfce 2a3e b69c 1f3d 9808 0b3f
00000370: f375 833d cba0 7bbe 0ecf 96bd 500c 973e
00000380: 1c35 a0be abdb 0ebd 7580 0c3b 1111 72bc
00000390: 409d 003f ec6e 0f3f 80d2 86bd bd19 d2be
000003a0: 66d3 bd3e c76c bebd caa2 603e 40b6 0f3f
000003b0: 00d8 3d3b 61e2 41be bc89 a13e 0df5 24be
000003c0: c35a 203f f60c 16be 3d32 3f3d b01d 463e
000003d0: 5d3f bebe 8541 0f3e 0414 633e 1342 ab3d
000003e0: d0f3 11bd db56 253e 02e6 eb3d 6f10 803d
000003f0: 5ec9 123f bb18 2d3e 66f9 483e e395 ad3d

fc2.bias f4 [128]
0.0670067 0.06134236 -0.11531719 -0.08091821 -0.035775464 -0.01459344 0.09718039 -0.07183975
-0.14346866 0.016344314 0.123883404 0.08171341 -0.1384925 -0.09819715 0.058184948 0.052003898
0.18195139 0.12674709 0.22863862 0.013763306 0.07085173 -0.043177433 -0.04394942 -0.11657344
-0.20149429 0.0163757 0.036023796 0.035897 0.07734748 -0.087238766 -0.08140111 -0.04881605
0.03537518 0.009994358 -0.052293207 -0.04663539 -0.08899951 0.18080004 -0.094948806 -0.15293369
0.21306372 0.102267355 0.02067271 -0.2227971 -0.20031355 0.124518484 0.08707123 0.08021736
-0.06354326 0.036188032 -0.081913844 -0.09812031 -0.118015245 -0.0718309 0.18407714 -0.21190158
0.17655183 -0.024712672 0.0031531125 -0.19332427 -0.026670076 0.08554645 0.08537615 0.105647564
-0.122482166 -0.11363222 0.108885065 -0.11276882 0.12261915 -0.12926577 0.11693855 0.005957374
0.16913262 0.019976823 0.031865284 0.1992184 0.06948365 -0.069528274 -0.033932634 -0.08141064
0.089817256 0.17596452 0.1321274 0.02843975 -0.11542386 -0.040438976 -0.084796384 -0.043108143
-0.10682289 -0.065223955 0.143771 0.123762935 0.1251731 -0.02402937 -0.10559608 0.09438292
-0.117507376 -0.035799887 0.10147358 0.03313389 0.08990343 0.09802773 0.035581708 0.0015981542
-0.10153003 -0.117747396 -0.14949152 -0.20978129 -0.00097015256 0.17962506 0.078163944 0.08238913
0.14252363 -0.15447049 -0.007635564 0.12875275 -0.13866863 -0.16119446 0.13910486 -0.1413818
0.11939926 0.18840082 0.0009448992 -0.15574631 0.09514627 -0.16920882 0.06831718 0.13450947
00000000: cf3a 893d 2042 7b3d 6b2b ecbd 72b8 a5bd
00000010: 4b89 12bd 5319 6fbc 8306 c73d b820 93bd
00000020: 73e9 12be 83e4 853c 95b6 fd3d 5c59 a73d
00000030: fad0 0dbe 961b c9bd 5753 6e3d 0a02 553d
00000040: 7751 3a3e fdc9 013e 3e20 6a3e 7d7f 613c
00000050: b61a 913d d2da 30bd 4f04 34bd 0ebe eebd
00000060: 8554 4ebe 5526 863c b08d 133d bc08 133d
00000070: 5b68 9e3d 3daa b2bd a0b5 a6bd 57f3 47bd
00000080: 91e5 103d 60bf 233c 6731 56bd c004 3fbd
00000090: 6045 b6bd a523 393e 8574 c2bd a69a 1cbe
000000a0: 602d 5a3e 8c71 d13d d159 a93c ec24 64be
000000b0: ff1e 4dbe 8c03 ff3d 6752 b23d 0049 a43d
000000c0: f822 82bd e739 143d 72c2 a7bd 4df3 c8bd
000000d0: fab1 f1bd 141c 93bd b87e 3c3e bafc 58be
000000e0: 01ca 343e 3b72 cabc 73a4 4e3b ccf6 45be
000000f0: 347b dabc fa32 af3d b1d9 ae3d c05d d83d
00000100: eed7 fabd 02b8 e8bd 22ff de3d 57f3 e6bd
00000110: c01f fb3d 3f5e 04be 7a7d ef3d 1336 c33b
00000120: 1a31 2d3e 6fa6 a33c 2c85 023d e9ff 4b3e
00000130: 724d 8e3d d764 8ebd f2fc 0abd 9fba a6bd
00000140: 1cf2 b73d 0b30 343e 684c 073e 7bfa e83c
00000150: 5863 ecbd 57a3 25bd baa9 adbd 2a92 30bd
00000160: f6c5 dabd 2394 85bd b438 133e 6c77 fd3d
00000170: 612d 003e 3ed9 c4bc c242 d8bd d54b c13d
00000180: b5a7 f0bd e7a2 12bd 61d1 cf3d 67b7 073d
00000190: 4a1f b83d c3c2 c83d 20be 113d 2879 d13a
000001a0: faee cfbd 8c25 f1bd 4e14 19be e8d0 56be
000001b0: d651 7eba a2ef 373e 6b14 a03d a2bb a83d
000001c0: b7f1 113e 832d 1ebe c133 fabb c3d7 033e
000001d0: 26ff 0dbe 2910 25be 8171 0e3e 64c6 10be
000001e0: 9987 f43d 25ec 403e 1db3 773a f67b 1fbe
000001f0: 0cdc c23d 1445 2dbe e1e9 8b3d dabc 093e

out.weight f4 [5, 128]
0.51575184 -0.21146007 -0.2366434 -0.124675 -0.38509595 -0.26813152 -0.03043623 0.32327527
0.44718114 0.22674689 0.35160083 -0.24329478 0.18702282 -0.14790754 -0.42724973 -0.37089345
-0.20315349 0.6296901 0.47793275 0.33002064 -0.11852465 0.188849 -0.26856163 0.24053755
0.33331448 0.43457842 -0.33641306 -0.11923754 0.7428388 0.056166757 0.1590518 0.24800418
0.42071453 0.3398184 0.38226536 0.13835323 0.19065332 -0.20524113 0.03601031 0.18681271
-0.08978708 -0.35885334 -0.06116538 0.3122521 0.28842813 0.0808688 -0.2293944 -0.10070895
0.1824314 0.3561993 0.29079357 -0.305948 -0.3679095 0.21955615 -0.1795165 0.23695411
0.41784215 -0.001703576 0.40622276 0.22247401 -0.08859327 0.3309298 0.34218267 -0.019825416
0.29435918 -0.011530622 -0.31831136 -0.14202587 0.40468842 0.1423384 0.39755094 0.35984176
0.75115234 0.3662829 0.3393306 0.05837295 -0.1447552 0.31604618 0.076478764 0.27226615
-0.0898592 0.52588767 0.37880692 0.27993938 0.13811338 0.0065422626 0.23975171 0.08573413
0.19048104 0.115467 -0.13121912 0.23003042 0.35986418 -0.39515635 0.105315454 -0.29553914
-0.13020217 0.31565163 -0.4254007 0.5484599 0.42660525 0.3871454 -0.1396442 -0.14613608
-0.58673626 -0.55886674 -0.22073118 0.1953164 -0.16338338 -0.38554978 -0.07715472 0.18856026
0.34972236 -0.50299364 -0.110316284 -0.2237156 0.23109604 -0.31785437 -0.017022988 -0.11908379
0.16673926 -0.031809427 -0.11195475 0.23236276 0.37525657 0.30158597 0.21378052 0.67857605
0.269058 -0.356462 -0.20489195 0.006172589 -0.6549114 -0.29270253 -0.42548373 0.27203268
0.4175383 0.2800288 0.38108087 -0.2166594 0.21083178 -0.15892139 -0.36151028 -0.5400204
-0.25982952 0.37602562 0.3141234 0.15385084 -0.41332746 0.39061588 -0.14272285 0.3069295
0.24413551 0.34708965 -0.40181288 -0.4470865 0.35602987 0.14332604 0.32079056 0.34128553
0.32935676 0.27964023 0.20813355 0.23966457 0.3649629 -0.24612065 0.012693515 1.0299516
-0.23937158 -0.2790877 0.019874536 0.26946953 0.34643 0.038544085 -0.2630858 -0.25858077
0.19038394 0.3444685 0.3132829 -0.3402364 -0.24747795 0.4212432 -0.3742705 0.3081269
0.2579515 -0.42834836 0.25385624 0.2979367 -0.52431875 0.2657456 0.34121034 -0.23939167
0.33331707 0.048360657 -0.32713324 -0.20612898 0.32696193 0.09481039 0.29222804 0.6920277
0.18212533 0.7475371 0.24624543 0.08108913 -0.29628503 0.4181192 0.14427815 0.30487928
-0.38529378 0.5772635 0.4565826 0.35559046 0.29046023 0.17145355 0.24075955 0.21098801
0.21396068 0.030265642 -0.1452875 0.23658898 0.27236575 -0.50711423 0.24561323 -0.28575194
-0.64640474 0.26770994 -0.5194135 0.49752456 0.18124166 0.31348026 -0.4123052 -0.46520486
-0.489565 -0.22812462 -0.20876214 0.27697238 -0.18500842 -0.5825353 -0.19541928 0.29975295
0.13913418 -0.18870595 -0.32555652 -0.41872007 0.45371225 -0.38661313 -0.19178037 -0.18674031
0.11132139 -0.2917533 -0.16769543 0.3333833 0.4761789 0.20447175 0.35067722 -0.008670596
00000000: 5008 043f fd88 58be a652 72be 9b55 ffbd
00000010: 4c2b c5be 8948 89be 6755 f9bc 5684 a53e
00000020: edf4 e43e 5630 683e 0605 b43e 4422 79be
00000030: e982 3f3e 1375 17be 7ac0 dabe bfe5 bdbe
00000040: 7807 50be 5f33 213f 9ab3 f43e 77f8 a83e
00000050: 0dbd f2bd a261 413e e980 89be 7a4f 763e
00000060: 32a8 aa3e 1081 de3e 553e acbe d032 f4bd
00000070: af2a 3e3f 1d0f 663d 7ade 223e cff4 7d3e
00000080: e567 d73e adfc ad3e 49b8 c33e 78ac 0d3e
00000090: a03a 433e bb2a 52be 8c7f 133d d54b 3f3e
000000a0: 4ae2 b7bd a0bb b7be 8d88 7abd 82df 9f3e
000000b0: daac 933e 8b9e a53d 5ee6 6abe 7e40 cebd
000000c0: 4ccf 3a3e c15f b63e e5e2 943e 37a5 9cbe
000000d0: a25e bcbe 54d3 603e 2cd3 37be 19a4 723e
000000e0: 68ef d53e 864a dfba 6efc cf3e 3ad0 633e
000000f0: 6370 b5bd a16f a93e 9132 af3e e968 a2bc
00000100: 3fb6 963e efea 3cbc b5f9 a2be 3b6f 11be
00000110: 5233 cf3e 28c1 113e cc8b cb3e 2e3d b83e
00000120: 854b 403f 6f89 bb3e bebc ad3e 7918 6f3d
00000130: b53a 14be ced0 a13e e6a0 9c3d 7866 8b3e
00000140: 1a08 b8bd 93a0 063f fbf2 c13e 3754 8f3e
00000150: 986d 0d3e 7a60 d63b 7981 753e 6095 af3d
00000160: 760d 433e f679 ec3d 4e5e 06be 188d 6b3e
00000170: 1e40 b83e ef51 cabe a1af d73d e850 97be
00000180: b853 05be 179d a13e 1fce d9be de67 0c3f
00000190: 016c da3e ec37 c63e e4fe 0ebe b2a4 15be
000001a0: 5934 16bf e411 0fbf 5b07 62be 0601 483e
000001b0: f94d 27be c866 c5be 4b03 9ebd f115 413e
000001c0: cf0e b33e 31c4 00bf 81ed e1bd b415 65be
000001d0: 71a4 6c3e cfbd a2be cb73 8bbc 34e2 f3bd
000001e0: b2bd 2a3e 9a4a 02bd 8848 e5bd 81f0 6d3e
000001f0: a121 c03e 7a69 9a3e 48e9 5a3e 29b7 2d3f
00000200: f8c1 893e 3082 b6be 32cf 51be 6e43 ca3b
00000210: 46a8 27bf 1bdd 95be 01d9 d9be de47 8b3e
00000220: 94c7 d53e ef5f 8f3e 081d c33e f6db 5dbe
00000230: 49e4 573e 4abc 22be e017 b9be c73e 0abf
00000240: 6008 85be 6e86 c03e c8d4 a03e 138b 1d3e
00000250: a89f d3be cefe c73e f025 12be dd25 9d3e
00000260: a9fe 793e bcb5 b13e 6bba cdbe 86e8 e4be
00000270: 8c49 b63e 10c4 123e a93e a43e fabc ae3e
00000280: 73a1 a83e 012d 8f3e f620 553e a16a 753e
00000290: 6bdc ba3e 0d07 7cbe 76f8 4f3c 74d5 833f
000002a0: d31d 75be 95e4 8ebe eccf a23c e9f7 893e
000002b0: 465f b13e 67e0 1d3d 2fb3 86be b364 84be
000002c0: 02f4 423e 2d5e b03e 9e66 a03e 7733 aebe
000002d0: dc6a 7dbe 30ad d73e 62a0 bfbe cfc2 9d3e
000002e0: 3812 843e 7a50 dbbe 72f9 813e 298b 983e
000002f0: c139 06bf cf0f 883e 1fb3 ae3e 1723 75be
00000300: 89a8 aa3e d315 463d 027e a7be 7a13 53be
00000310: 8e67 a73e f32b c23d ea9e 953e ba28 313f
00000320: 107f 3a3e 975e 3f3f c327 7c3e 0f12 a63d
00000330: acb2 97be b813 d63e a7bd 133e 2319 9c3e
00000340: 3a45 c5be 8ac7 133f 32c5 e93e f40f b63e
00000350: 34b7 943e 8591 2f3e ac89 763e 3e0d 583e
00000360: 8218 5b3e a7ef f73c 3fc6 14be 6244 723e
00000370: 8673 8b3e 3dd2 01bf 0982 7b3e 144e 92be
00000380: c87a 25bf 4711 893e 48f8 04bf 8abb fe3e
00000390: 6a97 393e 7c80 a03e ab19 d3be 552f eebe
000003a0: 44a8 fabe 8099 69be bec5 55be 53cf 8d3e
000003b0: d972 3dbe 0921 15bf fe1b 48be 3879 993e
000003c0: 3179 0e3e 223c 41be 58af a6be 7a62 d6be
000003d0: f94c e83e 28f2 c5be 1362 44be da38 3fbe
000003e0: 78fc e33d b060 95be 5ab8 2bbe 37b1 aa3e
000003f0: b9cd f33e 0b61 513e f78b b33e 1e0f 0ebc

out.bias f4 [5]
-0.48117954 -0.37169424 0.34970313 -0.08083803 -0.62209517
00000000: 2a5d f6be b54e bebe 4a0c b33e 698e a5bd
00000010: a141 1fbf

exp_avg_sq f4 [128, 28]
766.5526 692.93494 855.2873 1658.3524 4803.588 22838.791 39567.06 36576.83
21817.58 10279.054 8037.0073 7562.2065 7435.298 9566.702 15397.885 36136.543
113517.79 75464.914 22856.361 1901.4225 880.4397 576.7166 502.22403 791.37195
23548.521 507743.5 393.24283 832592.25 28325.377 13428.755 28007.928 58409.54
91237.48 178775.5 320666.22 405168.12 209434.14 171862.34 451546.56 461784.94
288051.1 194948.94 241375.83 299122.47 430865.16 315608.25 223710.08 205671.27
489643.2 1.3512842e+06 509186.44 27952.047 249860.45 6.8118585e+06 5844.637 1.261658e+07
2435.5488 1220.7782 2048.945 5330.5576 10622.976 8671.529 20772.303 26263.486
14704.23 22680.297 55097.785 53393.004 29322.742 19146.207 21503.564 20271.242
23490.926 18804.047 22451.678 35763.516 74186.914 144180.62 33234.54 2361.1262
19230.629 667956.0 565.0288 1.0835641e+06 6825.434 3791.3152 6202.9106 20982.158
40652.402 28002.738 27973.457 88892.46 67070.93 90751.27 174790.92 163072.98
86461.3 57844.94 62100.348 53870.586 56697.977 64457.734 95379.54 157520.83
271818.6 439738.62 49313.207 6543.5522 62607.734 2.1972312e+06 1989.2972 5.2789195e+06
2107.384 1009.1866 1980.7917 6070.7046 12157.32 10691.857 10066.161 10932.897
8302.975 15412.363 38133.434 38210.58 23026.943 15128.195 18348.076 15733.116
12207.615 10997.727 15462.3545 27647.592 52245.31 103534.64 35682.01 2072.4333
8685.359 486373.0 401.2071 1.0192691e+06 6525.9546 2995.3281 4055.7756 14035.4795
32197.64 45963.695 71996.05 91415.72 52056.69 54231.758 112851.805 112415.766
68261.18 47309.66 51787.574 62548.37 82807.54 67163.086 71541.69 94477.78
158228.02 314111.97 109448.3 6422.5596 59820.953 1.6756562e+06 1508.4495 2.5218038e+06
1403.0923 1316.7671 2326.8445 4338.4824 9384.619 11481.206 60882.34 97916.91
49842.164 37114.812 30673.37 22214.262 13409.006 15299.881 13181.184 23597.977
47253.992 49302.6 45473.223 44785.58 61185.94 32646.23 5586.3184 1357.8192
60956.32 709914.3 854.45135 1.2046655e+06 979.5596 1924.6687 11257.297 36223.74
57135.17 38121.14 23685.344 46344.5 25160.18 10793.862 10595.969 11232.986
14284.107 28929.646 69671.94 52003.758 27907.31 16951.516 10240.761 2608.0942
1028.5745 764.34625 774.6746 952.75055 28885.959 557761.9 620.08624 6.9574205e+06
5438.074 2933.6233 2791.4797 2809.4617 3047.9622 2127.6228 1598.0657 1953.6713
3245.9102 6085.1714 6793.6494 7430.4995 5062.579 4147.3535 4954.0537 3916.2715
2582.3801 2567.9036 3451.8057 7992.7344 14951.774 12998.201 5944.363 5442.4805
2808.657 106018.77 189.23528 408041.97 1.2424498e-09 9.028155e-10 7.971627e-10 6.621334e-10
00000000: 5ea3 3f44 d63b 2d44 63d2 5544 474b cf44
00000010: b41c 9645 956d b246 0f8f 1a47 d4e0 0e47
00000020: 2973 aa46 379c 2046 0f28 fb45 a751 ec45
00000030: 625a e845 cf7a 1546 8a97 7046 8b28 0d47
00000040: e5b6 dd47 7564 9347 b990 b246 85ad ed44
00000050: 241c 5c44 dd2d 1044 ad1c fb43 ced7 4544
00000060: 0bf9 b746 f0eb f748 159f c443 0445 4b49
00000070: c14a dd46 05d3 5146 dbcf da46 8a29 6447
00000080: bd32 b247 e095 2e48 4793 9c48 04d6 c548
00000090: 8986 4c48 96d5 2748 527b dc48 1e7b e148
000000a0: 63a6 8c48 3c61 3e48 f5b7 6b48 4f0e 9248
000000b0: 2562 d248 081b 9a48 8577 5a48 d1d9 4848
000000c0: 6615 ef48 a2f3 a449 4ea0 f848 1860 da46
000000d0: 1d01 7448 a5e1 cf4a 19a5 b645 8483 404b
000000e0: c838 1845 e798 9844 1f0f 0045 7694 a645
000000f0: e7fb 2546 1e7e 0746 9b48 a246 f92e cd46
00000100: ecc0 6546 9830 b146 c939 5747 0191 5047
00000110: 7c15 e546 6a94 9546 21ff a746 7c5e 9e46
00000120: da85 b746 18e8 9246 5b67 af46 84b3 0b47
00000130: 75e5 9047 28cd 0c48 8ad2 0147 0592 1345
00000140: 423d 9646 4013 2349 d841 0d44 6145 8449
00000150: 794b d545 0bf5 6c45 49d7 c145 51ec a346
00000160: 67cc 1e47 7ac5 da46 ea8a da46 3b9e ad47
00000170: 77ff 8247 a33f b147 bbb1 2a48 3f40 1f48
00000180: a6de a847 f1f4 6147 5994 7247 966e 5247
00000190: fa79 5d47 bcc9 7b47 c549 ba47 35d4 1948
000001a0: 53b9 8448 54b7 d648 35a1 4047 6b7c cc45
000001b0: bc8f 7447 bd1b 064a 83a9 f844 8f19 a14a
000001c0: 25b6 0345 f14b 7c44 5699 f744 a3b5 bd45
000001d0: 48f5 3d46 6e0f 2746 a548 1d46 97d3 2a46
000001e0: e6bb 0146 74d1 7046 6ff5 1447 9442 1547
000001f0: e3e5 b346 c860 6c46 2758 8f46 77d4 7546
00000200: 76be 3e46 e8d6 2b46 6b99 7146 2fff d746
00000210: 4f15 4c47 5237 ca47 0362 0b47 ef86 0145
00000220: 70b5 0746 a07c ed48 829a c843 52d8 7849
00000230: a3ef cb45 4035 3b45 697c 7d45 eb4d 5b46
00000240: 488b fb46 b28b 3347 069e 8c47 dc8b b247
00000250: b158 4b47 c2d7 5347 e769 dc47 e28f db47
00000260: 9752 8547 a9cd 3847 934b 4a47 5f54 7447
00000270: c5bb a147 8b2d 8347 d8ba 8b47 e486 b847
00000280: 0185 1a48 ff5f 9948 26c4 d547 7ab4 c845
00000290: f4ac 6947 428c cc49 628e bc44 2feb 194a
000002a0: f462 af44 8c98 a444 836d 1145 dc93 8745
000002b0: 7aa2 1246 d364 3346 57d2 6d47 743e bf47
000002c0: 2ab2 4247 d0fa 1047 bda2 ef46 868c ad46
000002d0: 0684 5146 860f 6f46 bcf4 4d46 f45b b846
000002e0: fe95 3847 9a96 4047 39a1 3147 94f1 2e47
000002f0: f101 6f47 760c ff46 8c92 ae45 37ba a944
00000300: 521c 6e47 a551 2d49 e39c 5544 cc0d 9349
00000310: d0e3 7444 6695 f044 30e5 2f46 bd7f 0d47
00000320: 2c2f 5f47 24e9 1447 b00a b946 8008 3547
00000330: 5c90 c446 73a7 2846 e08f 2546 f283 2f46
00000340: 6e30 5f46 4b03 e246 f813 8847 c223 4b47
00000350: 9f06 da46 086f 8446 0b03 2046 8201 2345
00000360: 6292 8044 2916 3f44 2dab 4144 0930 6e44
00000370: ebab e146 1e2c 0849 8505 1b44 d952 d44a
00000380: 98f0 a945 f959 3745 ad77 2e45 6397 2f45
00000390: 657f 3e45 f7f9 0445 1ac2 c744 7b35 f444
000003a0: 90de 4a45 5f29 be45 324d d445 ff33 e845
000003b0: a234 9e45 d49a 8145 6ed0 9a45 58c4 7445
000003c0: 1566 2145 757e 2045 e4bc 5745 e0c5 f945
000003d0: 199f 6946 ce18 4b46 e7c2 b945 d813 aa45
000003e0: 838a 2f45 6311 cf47 3b3c 3d43 3f3d c748
000003f0: d1c2 aa30 fe29 7830 571f 5b30 7f01 3630

exp_avg f4 [128, 28]
-2.06316 -3.7692852 -1.5977427 -1.1571263 -0.9943595 -0.90303624 -0.82113725 -0.8188364
-0.69733906 -0.86420053 -1.1470491 -1.1571583 -1.0400326 -1.1424946 -1.3637012 -2.0622725
-1.7377303 -2.4273696 -0.66460806 -0.4907142 -0.62918925 -0.8122267 -2.0373333 -2.0571663
0.91375494 -7.509596 -0.4115169 -18.256634 28.969242 16.691393 13.169679 14.875752
6.5474 0.7819916 27.18137 79.043335 68.777565 64.741425 85.72702 81.73813
41.525433 33.330395 30.743778 25.50814 65.22924 60.35173 54.650852 73.98162
78.006546 89.19538 95.3263 30.320366 50.025146 220.52432 12.010355 11.514387
-6.780591 -5.697718 -6.3678727 -4.817031 -4.874308 -8.443722 -1.1055232 -25.505917
-17.299133 -19.532358 -41.33527 -41.945297 -21.002111 -18.231138 -13.33687 -13.788864
-15.704913 -19.738064 -22.568913 -34.11262 -37.885754 -44.488277 -27.19525 -7.021742
-5.250458 -87.6311 -3.7091553 -62.970695 -10.095443 -11.124488 -17.17394 -15.706175
-13.7573 -13.63594 -23.106218 -41.026123 -1.5006785 -23.342934 -85.57184 -74.87677
-30.385164 -37.03581 -24.050262 -24.964529 -23.90677 -34.184357 -44.193665 -68.401405
-72.04212 -86.56036 -56.321037 -10.894526 -13.558377 -156.53085 -7.607764 -58.38122
-0.66355324 0.8057197 1.6278698 0.84267175 5.8541236 5.8669343 5.092142 -7.037458
-9.07431 -16.528666 -14.604829 -15.8833685 -6.519446 -2.277866 -4.255231 -3.0129426
-5.5410933 -9.022154 -9.223451 -12.947487 -20.154795 -13.667183 -5.8172336 -0.92710876
-1.5097044 -23.637762 -0.7404725 36.302315 -11.807364 -7.3663163 -7.014237 -10.211738
-2.754209 -2.7802074 -34.44395 -61.360424 -41.52986 -33.01236 -46.081596 -39.48368
-19.74698 -19.885775 -20.127739 -16.872707 -53.646442 -45.904324 -37.05363 -48.107483
-46.148067 -45.74018 -53.20618 -12.174547 -35.558624 -123.25452 -6.6175036 -24.698658
3.568951 2.3096976 2.7905726 3.9908247 2.6203654 -0.23393223 14.646034 -18.467342
3.5542593 9.778329 -4.302957 -2.4569192 8.889746 -0.62501836 -0.57530814 -2.7790344
-0.662921 -3.291463 -2.4940414 -14.044852 2.0658238 10.730016 6.7859793 3.0952802
3.4565222 15.726397 0.42451417 126.467705 2.0985584 3.3616798 2.7386215 3.9374635
3.7033513 4.467001 9.556338 27.919127 19.735914 9.897118 7.565907 6.8845167
8.104101 9.240664 6.5868297 7.599395 16.001968 13.932598 13.347156 5.986032
3.137741 2.2465649 1.9361953 1.9687186 18.851105 55.602997 1.6566476 202.44925
-0.71176046 -3.4575653 -11.710706 -9.868435 -13.449467 -12.229698 -10.520967 -6.370164
-10.895037 -18.476374 -33.33301 -20.640987 -8.765686 -7.093534 -5.184921 -4.813103
-3.6502762 -6.1613703 -11.279774 -18.106928 -21.626734 -30.065641 -9.985269 -1.5429305
15.394515 -49.099354 -1.9726638 -115.546394 6e-45 6e-45 6e-45 6e-45
00000000: d00a 04c0 f83b 71c0 d582 ccbf b71c 94bf
00000010: 588e 7ebf 622d 67bf 0d36 52bf 439f 51bf
00000020: d084 32bf 3f3c 5dbf 81d2 92bf c31d 94bf
00000030: ca1f 85bf 433d 92bf c38d aebf 46fc 03c0
00000040: f26d debf 065a 1bc0 c123 2abf e43e fbbe
00000050: 8c12 21bf 17ee 4fbf ab63 02c0 9da8 03c0
00000060: d8eb 693f 9c4e f0c0 58b2 d2be 960d 92c1
00000070: 02c1 e741 f987 8541 01b7 5241 1503 6e41
00000080: 4d84 d140 9a30 483f 7273 d941 3016 9e42
00000090: 1d8e 8942 9c7b 8142 3c74 ab42 ec79 a342
000000a0: 0b1a 2642 5352 0542 42f3 f541 ac10 cc41
000000b0: 5f75 8242 2c68 7142 799a 5a42 97f6 9342
000000c0: 5a03 9c42 0964 b242 11a7 be42 1c90 f241
000000d0: c019 4842 3a86 5c43 6a2a 4041 ee3a 3841
000000e0: 9afa d8c0 b553 b6c0 9dc5 cbc0 1e25 9ac0
000000f0: 55fa 9bc0 7c19 07c1 c981 8dbf 1e0c ccc1
00000100: a064 8ac1 4542 9cc1 5157 25c2 fcc7 27c2
00000110: 5304 a8c1 5fd9 91c1 d263 55c1 309f 5cc1
00000120: 5347 7bc1 8ee7 9dc1 228d b4c1 5373 08c2
00000130: 038b 17c2 fff3 31c2 df8f d9c1 1cb2 e0c0
00000140: c003 a8c0 2043 afc2 cd62 6dc0 fee1 7bc2
00000150: ef86 21c1 e7fd 31c1 3b64 89c1 7e4c 7bc1
00000160: e71d 5cc1 cf2c 5ac1 89d9 b8c1 c01a 24c2
00000170: 3c16 c0bf 54be bac1 c824 abc2 e8c0 95c2
00000180: d114 f3c1 ab24 14c2 f066 c0c1 5bb7 c7c1
00000190: 1141 bfc1 c8bc 08c2 50c6 30c2 85cd 88c2
000001a0: 9115 90c2 e81e adc2 be48 61c2 fa4f 2ec1
000001b0: 1def 58c1 e687 1cc3 cd72 f3c0 5f86 69c2
000001c0: a0de 29bf a543 4e3f 0a5e d03f 56b9 573f
000001d0: fb54 bb40 edbd bb40 d4f2 a240 db32 e1c0
000001e0: 6030 11c1 b53a 84c1 61ad 69c1 4722 7ec1
000001f0: 4d9f d0c0 8ec8 11c0 da2a 88c0 0dd4 40c0
00000200: a350 b1c0 be5a 10c1 4193 13c1 e828 4fc1
00000210: 053d a1c1 c8ac 5ac1 c726 bac0 0057 6dbf
00000220: fe3d c1bf 231a bdc1 9b8f 3dbf 9235 1142
00000230: f7ea 3cc1 ddb8 ebc0 a174 e0c0 4763 23c1
00000240: f644 30c0 ebee 31c0 9bc6 09c2 1371 75c2
00000250: 941e 26c2 a80c 04c2 8e53 38c2 4aef 1dc2
00000260: d1f9 9dc1 1116 9fc1 9c05 a1c1 4efb 86c1
00000270: f595 56c2 079e 37c2 eb36 14c2 106e 40c2
00000280: 9f97 38c2 f2f5 36c2 21d3 54c2 f2ca 42c1
00000290: 083c 0ec2 5082 f6c2 97c2 d3c0 da96 c5c1
000002a0: b169 6440 16d2 1340 be98 3240 ac69 7f40
000002b0: 11b4 2740 ee8b 6fbe 2856 6a41 1ebd 93c1
000002c0: fc78 6340 0974 1c41 d3b1 89c0 2a3e 1dc0
000002d0: 663c 0e41 3401 20bf 6547 13bf b3db 31c0
000002e0: 31b5 29bf 54a7 52c0 609e 1fc0 b7b7 60c1
000002f0: 7536 0440 25ae 2b41 be26 d940 1219 4640
00000300: a937 5d40 529f 7b41 ec59 d93e 77ef fc42
00000310: c84e 0640 c325 5740 9345 2f40 67ff 7b40
00000320: b503 6d40 acf1 8e40 c3e6 1841 5f5a df41
00000330: 27e3 9d41 985a 1e41 e91b f240 f64d dc40
00000340: 66aa 0141 c2d9 1341 4fc7 d240 3e2e f340
00000350: 0804 8041 eceb 5e41 f38d 5541 938d bf40
00000360: c0d0 4840 b8c7 0f40 3fd5 f73f f9fe fb3f
00000370: 10cf 9641 7869 5e42 070d d43f 0273 4a43
00000380: ef35 36bf c048 5dc0 0d5f 3bc1 1ce5 1dc1
00000390: 0431 57c1 d8ac 43c1 e155 28c1 62d8 cbc0
000003a0: 1252 2ec1 9dcf 93c1 0155 05c2 be20 a5c1
000003b0: 4040 0cc1 3bfe e2c0 dfea a5c0 f104 9ac0
000003c0: 209e 69c0 f229 c5c0 f479 34c1 fdda 90c1
000003d0: 8d03 adc1 6f86 f0c1 a9c3 1fc1 bf7e c5bf
000003e0: ef4f 7641 bd65 44c2 3f80 fcbf c117 e7c2
000003f0: 0400 0000 0400 0000 0400 0000 0400 0000

exp_avg_sq f4 [5, 128]
3634.798 10180.466 3423.2302 8045.446 5163.377 8612.846 6037.8 10545.754
9096.752 11992.6875 10495.084 10866.748 15685.069 6772.997 8209.14 13110.003
9188.728 7064.501 6958.7163 9431.763 10050.325 8229.339 2983.164 12211.565
9864.957 6678.808 8221.359 10432.775 1903.7249 10742.679 8064.61 17683.527
9408.084 11016.664 14519.178 9738.218 13311.383 10557.179 6762.4277 1128.4517
9362.678 10367.465 4936.1187 11228.826 16188.87 5636.858 7718.5835 13752.075
8069.2324 4238.7173 14573.763 9534.238 6202.4346 10949.273 7560.324 15728.943
9312.673 5001.944 10875.314 17577.44 5396.9507 12990.543 9339.461 9591.571
10985.8125 4474.6694 13663.4795 11277.509 8390.049 12921.779 5975.6216 4999.12
655.65106 3969.0105 10627.929 3848.4092 11162.822 7962.4355 7838.392 13663.214
8398.024 4071.5107 8662.321 9643.265 17159.764 399.27222 14263.917 9556.043
14358.241 11780.593 7995.069 14885.755 9976.742 5703.5195 17992.652 9004.448
2797.8804 9928.82 9936.765 4788.902 6313.267 8236.814 9257.12 8941.031
2529.8806 4191.952 11699.172 18441.662 7322.573 7942.392 6748.8027 13731.562
12959.6875 5270.4707 8160.3774 14296.914 9227.596 7300.524 6673.1724 4464.771
3246.6145 6853.6797 11540.586 9087.318 11939.787 10759.221 9709.122 2926.1567
2185.4983 3504.568 1376.7168 3714.0503 1958.0978 3939.9556 2032.252 5505.5596
4967.7104 4696.5215 5235.612 5505.58 6517.595 2690.9072 3213.728 4429.245
3107.0671 2693.4946 2948.23 4879.797 3547.558 3589.6973 2257.264 5512.6396
5152.5107 2875.5059 4339.342 3020.1943 1333.0955 4471.7334 4342.521 6281.1655
2980.1877 4727.6016 7479.0913 3773.1619 4729.441 4304.148 3991.1633 769.8746
3325.9448 5035.5186 2737.538 5445.9966 5801.219 3019.6587 3291.0808 4867.9897
4503.714 1511.0035 5860.907 3382.78 4322.0234 3338.939 2304.9443 6455.091
5852.198 1257.163 3777.1965 5493.565 2267.1877 5880.4253 4495.788 3538.8704
4365.7773 1128.4366 5189.7383 4840.939 3348.9363 5429.3374 2277.1746 1284.0444
491.6498 1609.626 5136.8696 1150.7397 4908.5576 3266.6506 2290.9363 6447.8066
2944.4487 2179.5676 3968.5813 2711.6929 7678.322 298.4566 4634.728 3485.396
5896.041 5187.1035 3037.85 6250.819 4717.534 1970.2606 5768.2744 3750.0364
1211.2462 4278.9707 2945.0327 2129.6157 2869.3586 3580.8242 1834.35 2572.7788
1589.8243 2803.0464 4282.76 6271.1714 2289.2415 2676.1665 2454.6948 6520.7466
3959.859 2883.5874 2299.0688 5015.3477 3801.61 3006.6345 2491.9434 1128.6537
1032.6544 2835.5913 4658.446 2908.4434 5198.558 5749.1826 3332.7847 1781.5789
00000000: c52c 6345 dd11 1f46 aff3 5545 916b fb45
00000010: 045b a145 6293 0646 66ae bc45 04c7 2446
00000020: 0223 0e46 c062 3b46 56fc 2346 feca 2946
00000030: 4714 7546 faa7 d345 8f44 0046 03d8 4c46
00000040: e992 0f46 02c4 dc45 bb75 d945 0d5f 1346
00000050: 4d09 1d46 5b95 0046 a072 3a45 43ce 3e46
00000060: d423 1a46 77b6 d045 7075 0046 1a03 2346
00000070: 32f7 ed44 b7da 2746 e104 fc45 0e27 8a46
00000080: 5600 1346 a822 2c46 b6dc 6246 df28 1846
00000090: 88fd 4f46 b7f4 2446 6c53 d345 740e 8d44
000000a0: b64a 1246 dcfd 2146 f340 9a45 4e73 2f46
000000b0: 7bf3 7c46 dd26 b045 ab34 f145 4de0 5646
000000c0: dc29 fc45 bd75 8445 0db7 6346 f4f8 1446
000000d0: 7ad3 c145 1815 2b46 9842 ec45 c6c3 7546
000000e0: b182 1146 8d4f 9c45 42ed 2946 e152 8946
000000f0: 9ba7 a845 2cfa 4a46 d8ed 1146 49de 1546
00000100: 40a7 2b46 5bd5 8b45 eb7d 5546 0936 3046
00000110: 3218 0346 1ee7 4946 f9bc ba45 f638 9c45
00000120: abe9 2344 2b10 7845 b70f 2646 8c86 7045
00000130: 4a6b 2e46 7cd3 f845 23f3 f445 db7c 5546
00000140: 1938 0346 2c78 7e45 4959 0746 0fad 1646
00000150: 870f 8646 d8a2 c743 abdf 5e46 2c50 1546
00000160: f758 6046 5f12 3846 8dd8 f945 0597 6846
00000170: f8e2 1b46 283c b245 4e91 8c46 cbb1 0c46
00000180: 16de 2e45 4823 1b46 0f43 1b46 37a7 9545
00000190: 234a c545 42b3 0046 7ba4 1046 20b4 0b46
000001a0: 171e 1e45 9eff 8245 b0cc 3646 5313 9046
000001b0: 96d4 e445 2333 f845 6ce6 d245 3f8e 5646
000001c0: c07e 4a46 c4b3 a445 0503 ff45 a863 5f46
000001d0: 622e 1046 3124 e445 6189 d045 2b86 8b45
000001e0: d5e9 4a45 702d d645 5852 3446 46fd 0d46
000001f0: 268f 3a46 e21c 2846 7db4 1746 82e2 3645
00000200: f997 0845 1709 5b45 f016 ac44 ce20 6845
00000210: 21c3 f444 4a3f 7645 1008 fe44 7a0c ac45
00000220: af3d 9b45 2cc4 9245 e59c a345 a40c ac45
00000230: c3ac cb45 842e 2845 a6db 4845 f669 8a45
00000240: 1331 4245 ea57 2845 ae43 3845 607e 9845
00000250: eeb8 5d45 285b 6045 3914 0d45 1e45 ac45
00000260: 1604 a145 18b8 3345 bc9a 8745 1cc3 3c45
00000270: 0ea3 a644 debd 8b45 2bb4 8745 5349 c445
00000280: 0143 3a45 d0bc 9345 bbb8 e945 97d2 6b45
00000290: 87cb 9345 2f81 8645 9d72 7945 f977 4044
000002a0: 1edf 4f45 265c 9d45 9c18 2b45 f92f aa45
000002b0: c149 b545 8aba 3c45 4bb1 4d45 eb1f 9845
000002c0: b6bd 8c45 1de0 bc44 4227 b745 7b6c 5345
000002d0: 3010 8745 06af 5045 1c0f 1045 bab8 c945
000002e0: 96e1 b645 3725 9d44 2513 6c45 85ac ab45
000002f0: 01b3 0d45 67c3 b745 4e7e 8c45 ed2d 5d45
00000300: 386e 8845 f90d 8d44 e82d a245 8347 9745
00000310: fb4e 5145 b3aa a945 cb52 0e45 6c81 a044
00000320: 2dd3 f543 0834 c944 f586 a045 acd7 8f44
00000330: 7664 9945 692a 4c45 fb2e 0f45 747e c945
00000340: 2e07 3845 1539 0845 4d09 7845 167b 2945
00000350: 93f2 ef45 723a 9543 d3d5 9045 56d6 5945
00000360: 5440 b845 d418 a245 9add 3d45 8d56 c345
00000370: 466c 9345 5748 f644 3242 b445 9560 6a45
00000380: e167 9744 c4b7 8545 8610 3845 da19 0545
00000390: bd55 3345 30cd 5f45 334b e544 76cc 2045
000003a0: 61ba c644 be30 2f45 14d6 8545 5ff9 c345
000003b0: dd13 0f45 aa42 2745 1e6b 1945 f9c5 cb45
000003c0: be7d 7745 6639 3445 1ab1 0f45 c8ba 9c45
000003d0: c399 6d45 27ea 3b45 18bf 1b45 eb14 8d44
000003e0: f114 8144 7639 3145 9193 9145 18c7 3545
000003f0: 7774 a245 76a9 b345 8e4c 5045 86b2 de44

exp_avg f4 [5, 128]
3.2631936 5.1659384 -2.4712312 -2.6086848 -17.886345 -16.700098 -5.670149 2.833046
0.54681146 4.727141 15.710954 -7.0837884 4.261566 10.681851 -1.7997804 -7.40689
2.1274242 12.484559 10.946856 19.432262 -10.331559 12.562189 -8.481221 9.493821
4.5957594 15.2485075 -1.0343337 -23.108395 1.561344 6.4043107 11.910804 10.509301
9.314909 6.5833335 11.041315 7.4081526 10.324979 -21.905865 11.16632 2.1610823
-14.941822 -6.392598 4.798289 8.384362 4.6156707 -2.67008 -13.249622 -16.505
6.860866 4.2387266 20.203196 -11.106304 -3.6844401 9.675134 -17.594995 13.90116
2.94053 -4.6471915 17.829723 23.472794 -4.742641 12.381891 13.775331 2.247877
20.6573 -3.308601 -24.950567 -15.498878 10.978961 3.607813 7.336119 18.996563
0.5541947 -0.3111894 5.9260006 -1.095566 -5.7957287 4.179436 1.2195672 10.67445
-8.523121 8.43741 15.970292 4.324301 22.48366 -0.5009567 6.4041233 17.641832
10.790991 -0.18504697 -6.350373 2.4460778 13.036952 -16.987997 18.942778 0.60567665
1.9033862 5.3857474 -8.13196 10.713078 8.647575 12.8202715 -16.159292 -18.64076
3.7363746 -13.147068 -13.663483 6.911404 3.2649965 -19.356401 -15.314089 25.551777
4.8418503 -2.419451 -5.9021935 -5.037229 16.666487 -9.691747 -15.554922 -7.303233
-9.264031 -5.5699797 -18.822271 9.39649 6.7860703 12.419175 0.58019334 -0.30108222
-5.382809 3.2355022 2.8800747 -4.993627 8.354085 3.8056219 4.981584 -6.796798
-8.482549 -8.167655 -4.8089705 0.44590563 -11.75674 -8.099577 -0.14981028 4.8276134
4.1757755 -1.9611028 -8.53254 -13.954219 4.7588916 -5.7946353 9.151654 -4.02872
-2.6327336 -6.196537 4.5148244 -0.75414366 -5.224545 -1.4440752 -3.4084482 -6.848517
-5.2484913 -7.3307385 -13.704627 0.19629118 -13.57207 5.8932395 -4.7483673 4.748607
4.0079417 5.71157 -3.1126552 -4.1418047 -15.190533 0.83245593 3.596356 2.4817173
-6.89325 -3.2611935 -7.0751834 -1.9392272 5.392965 -0.64458275 2.8304417 -0.74611855
-9.452046 2.5054278 -5.637763 -3.5131738 3.9909804 -3.1878357 -10.993502 0.35136682
-7.2860723 1.5565871 4.2972455 7.562608 -8.792248 -8.875236 -2.7590663 -1.9437945
0.5222275 -5.0177817 -7.4697437 0.63591504 6.035053 -9.349458 -4.3296475 -6.9153028
-0.02319051 1.4486763 4.4014997 -6.327353 -5.277078 0.6180929 -4.1311746 -8.122958
-7.416999 -1.9532658 4.352963 -7.7598658 -11.232727 5.120515 -14.714021 -0.8949166
-5.6072073 -5.486799 4.36241 -8.778943 -5.127344 -5.7049947 1.446346 1.4260657
-0.8677182 2.0513191 10.5630865 -2.4674358 4.695065 5.7957425 0.38219166 -1.1805985
-1.3312839 2.6137543 3.0587342 6.392529 -4.516203 -1.4204854 4.041697 5.567137
-0.15365212 2.811679 7.686917 -7.1428113 -3.2766612 -7.8247614 -1.6228191 -3.776971
00000000: 2ad8 5040 5e4f a540 a728 1ec0 b1f4 26c0
00000010: 3c17 8fc1 cd99 85c1 dc71 b5c0 a050 3540
00000020: d6fb 0b3f bd44 9740 1160 7b41 65ae e2c0
00000030: c05e 8840 dde8 2a41 345f e6bf 3e05 edc0
00000040: b827 0840 c1c0 4741 5226 2f41 4675 9b41
00000050: 114e 25c1 bafe 4841 15b3 07c1 b1e6 1741
00000060: 7610 9340 e3f9 7341 0c65 84bf fedd b8c1
00000070: 1fda c73f 1df0 cc40 a792 3e41 1926 2841
00000080: de09 1541 abaa d240 3aa9 3041 960f ed40
00000090: 1d33 2541 363f afc1 3fa9 3241 2c4f 0a40
000000a0: b411 6fc1 2a90 ccc0 958b 9940 5926 0641
000000b0: 93b3 9340 97e2 2ac0 74fe 53c1 3d0a 84c1
000000c0: 378c db40 a6a3 8740 25a0 a141 6cb3 31c1
000000d0: decd 6bc0 59cd 1a41 8dc2 8cc1 276b 5e41
000000e0: a531 3c40 cbb5 94c0 46a3 8e41 48c8 bb41
000000f0: b7c3 97c0 3a1c 4641 c167 5c41 37dd 0f40
00000100: 2742 a541 1ec0 53c0 c39a c7c1 67fb 77c1
00000110: d3a9 2f41 68e6 6640 7dc1 ea40 f6f8 9741
00000120: b4df 0d3f 3854 9fbe cca1 bd40 823b 8cbf
00000130: 9c76 b9c0 f1bd 8540 c71a 9c3f 8cca 2a41
00000140: b45e 08c1 a2ff 0641 5186 7f41 ac60 8a40
00000150: 89de b341 b33e 00bf 94ee cc40 7922 8d41
00000160: e6a7 2c41 f47c 3dbe 4136 cbc0 8a8c 1c40
00000170: 5b97 5041 6be7 87c1 cf8a 9741 a00d 1b3f
00000180: 29a2 f33f 0b58 ac40 821c 02c1 c468 2b41
00000190: 785c 0a41 d51f 4d41 3b46 81c1 4720 95c1
000001a0: c320 6f40 645a 52c1 a09d 5ac1 392a dd40
000001b0: b4f5 5040 e9d9 9ac1 8206 75c1 0a6a cc41
000001c0: 70f0 9a40 49d8 1ac0 c5de bcc0 fb30 a1c0
000001d0: f754 8541 6511 1bc1 f6e0 78c1 16b4 e9c0
000001e0: 7939 14c1 463d b2c0 0394 96c1 0658 1641
000001f0: 7d27 d940 f1b4 4641 8d87 143f 7327 9abe
00000200: f93f acc0 7812 4f40 2553 3840 cbcb 9fc0
00000210: 55aa 0541 4f8f 7340 2369 9f40 5f7f d9c0
00000220: 85b8 07c1 b7ae 02c1 16e3 99c0 be4d e43e
00000230: 9b1b 3cc1 de97 01c1 de67 19be cf7b 9a40
00000240: f49f 8540 6b05 fbbf 4985 08c1 7b44 5fc1
00000250: d748 9840 a76d b9c0 2d6d 1241 46eb 80c0
00000260: b57e 28c0 084a c6c0 7179 9040 8f0f 41bf
00000270: 792f a7c0 75d7 b8bf 0424 5ac0 0d27 dbc0
00000280: a4f3 a7c0 6995 eac0 2746 5bc1 8e00 493e
00000290: 3327 59c1 6b95 bc40 a0f2 97c0 97f4 9740
000002a0: 0f41 8040 2ec5 b640 be35 47c0 aa89 84c0
000002b0: 6c0c 73c1 d51b 553f b22a 6640 75d4 1e40
000002c0: 8195 dcc0 65b7 50c0 e767 e2c0 9938 f8bf
000002d0: 2b93 ac40 6003 25bf f525 3540 a001 3fbf
000002e0: 953b 17c1 ee58 2040 8e68 b4c0 d7d7 60c0
000002f0: 396c 7f40 8005 4cc0 62e5 2fc1 5ae6 b33e
00000300: 8127 e9c0 3f3e c73f 0983 8940 e200 f240
00000310: 0cad 0cc1 f700 0ec1 8b94 30c0 42ce f8bf
00000320: b4b0 053f ab91 a0c0 2408 efc0 54cb 223f
00000330: 271f c140 6197 15c1 798c 8ac0 294a ddc0
00000340: 06fa bdbc 3a6e b93f 16d9 8c40 ad79 cac0
00000350: d3dd a8c0 563b 1e3f 9532 84c0 a3f7 01c1
00000360: 0e58 edc0 9d04 fabf 794b 8b40 d250 f8c0
00000370: 40b9 33c1 42db a340 a16c 6bc1 4119 65bf
00000380: 3e6e b3c0 db93 afc0 dd98 8b40 8d76 0cc1
00000390: 3413 a4c0 518f b6c0 de21 b93f 5289 b63f
000003a0: c822 5ebf d048 0340 6702 2941 78ea 1dc0
000003b0: f93d 9640 b976 b940 a0ae c33e da1d 97bf
000003c0: 8367 aabf c047 2740 4dc2 4340 998f cc40
000003d0: bc84 90c0 77d2 b5bf 9555 8140 fc25 b240
000003e0: fb56 1dbe 8cf2 3340 39fb f540 e991 e4c0
000003f0: d1b4 51c0 7264 fac0 89b8 cfbf e5b9 71c0
