model/140a.pt (torch_old, 336838 bytes, 24 tensors)

fc1.weight f4 [128, 28]
0	0xbd987d65	-0.07445792
1	0x3e7ae6ae	0.2450206
2	0xbe864e81	-0.2623177
3	0xbe088399	-0.1333145
4	0xbed18af0	-0.40926313
5	0xbee08692	-0.4385267
6	0x3c50250d	0.012704146
7	0x3cdf84fe	0.027285095
8	0xbda31059	-0.079621024
9	0xbcbf08b8	-0.023319587
10	0xbdedc5f8	-0.11610025
11	0xbeb41aab	-0.35176596
12	0xbe45bdec	-0.1931073
13	0xbd603670	-0.054739416
14	0x3e3b2574	0.18276006
15	0x3dca5925	0.09880284
16	0x3ed0b014	0.40759337
17	0x3eee20ff	0.4650955
18	0xbeaafa69	-0.33394173
19	0xbf63094c	-0.8868606
20	0xbea2bba5	-0.31783786
21	0xbe689c58	-0.2271589
22	0xbe6a9c33	-0.22911148
23	0x3d671589	0.056417022
24	0xbec5e0af	-0.38647982
25	0x3cc19b43	0.023633605
26	0xbf1b05f3	-0.6055595
27	0x3d6eb153	0.05827458
28	0x3f617958	0.8807578
29	0x3f2f2421	0.68414503
30	0x3e352e1f	0.17693375
31	0x3d436450	0.047703087
32	0x3d11d90b	0.03560738
33	0xbeb61030	-0.35559225
34	0x3d890f2a	0.066923454
35	0x3e70cea9	0.23516335
36	0x3cf14144	0.029450066
37	0x3dfc7152	0.12326302
38	0x3d9e75b8	0.07737297
39	0xbd54a957	-0.051919308
40	0xbe1b50fb	-0.1516761
41	0xbe925af5	-0.2858502
42	0x3d01cdd2	0.031690426
43	0x3c89d208	0.016823784
44	0x3e314743	0.1731234
45	0x3d8cce00	0.06875229
46	0xbe8da997	-0.2766845
47	0xbe2d1db8	-0.16905868
48	0xbc9c4238	-0.019074544
49	0x3e4bd703	0.19906239
50	0xbde9832c	-0.11401972
51	0x3f46d9cf	0.776761
52	0x3e424eec	0.18975419
53	0xbd230162	-0.03979624
54	0x3f814c43	1.0101398
55	0xbc358e5e	-0.011081306
56	0xbf5d3a1c	-0.8641679
57	0xbf37de46	-0.7182354
58	0xbe8e5422	-0.27798563
59	0x3e189ecd	0.14904328
60	0xbc858530	-0.01629886
61	0xbdb4f865	-0.0883644
62	0xbd1df20b	-0.03856091
63	0x3d60b84d	0.054863263
64	0x3d0aec27	0.03391662
65	0x3e1c3d5e	0.15257785
66	0x3e593594	0.21211845
67	0x3e9a4ec9	0.30138233
68	0x3ce09455	0.02741448
69	0x3da3d92c	0.080004066
70	0x3d0f3f54	0.034972504
71	0x3c495414	0.012288112
72	0x3c97f139	0.018547641
73	0xbe95ca07	-0.29255697
74	0x3d5b5464	0.053547278
75	0xbe024eca	-0.12725368
76	0x3dac8341	0.08423472
77	0xbdb9fbc9	-0.09081227
78	0xbeb02f9f	-0.34411332
79	0xbf811d0b	-1.0086988
80	0x3e7ddaf0	0.2479055
81	0x3de4561d	0.11149237
82	0xbf8c682c	-1.0969291
83	0x3ddf7ed2	0.10912861
84	0xbf1a6811	-0.6031504
85	0xbf1a75b3	-0.60335845
86	0xbea5579d	-0.32293406
87	0xbe3d62e2	-0.18494752
88	0xbe0527f0	-0.13003516
89	0xbe2fe542	-0.17177299
90	0xbe89f5a3	-0.26945218
91	0x3d997b40	0.07494211
92	0x3daf6cab	0.08565649
93	0x3e93f7ee	0.28900093
94	0x3ea5a4ff	0.32352445
95	0x3da125ac	0.078685135
96	0x3bbe6519	0.0058103916
97	0x3c4b2b24	0.012400422
98	0xbde83944	-0.113390476
99	0xbea879b1	-0.32905343
100	0xbe0b956a	-0.13631216
101	0xbe510637	-0.20412527
102	0x3eb7074f	0.35747764
103	0x3e061e5b	0.13097517
104	0x3e33f445	0.1757365
105	0x3c9c6370	0.019090384
106	0xbe77e4bd	-0.2420835
107	0xbf3def65	-0.7419341
108	0x3e65368c	0.22384089
109	0xbd2def97	-0.04246482
110	0xbf68cfa2	-0.9094182
111	0x3da6cf99	0.08145065
112	0xbf343fdd	-0.7040995
113	0xbf2b526f	-0.6692266
114	0x3b9e32e9	0.0048278463
115	0xbdb9dea7	-0.09075671
116	0xbe263a8b	-0.1623327
117	0xbd329842	-0.043602236
118	0xbe003c83	-0.12523083
119	0x3da946d8	0.082654655
120	0x3d4df529	0.05028263
121	0x3d3a819e	0.04553377
122	0x3e9d292e	0.3069548
123	0x3e767b96	0.24070582
124	0xbd6b3158	-0.057420105
125	0x3d2b4373	0.04181237
126	0x3dbdbb93	0.092642926
127	0x3df80ea0	0.121121645
128	0xbe976b4d	-0.29574051
129	0xbe9bff0e	-0.3046803
130	0x3c97e765	0.018542955
131	0x3da174c7	0.07883602
132	0x3dbd60c4	0.09246972
133	0x3d5b0da8	0.05347982
134	0x3e27321e	0.16327712
135	0xbf367dcb	-0.71285695
136	0x3e725ef1	0.2366903
137	0x3e13b4fe	0.14424512
138	0xbf713f81	-0.94237524
139	0x3d7fcd18	0.062451452
140	0xbf294aee	-0.6612996
141	0xbf8270e2	-1.0190699
142	0xbf03344c	-0.51251674
143	0x3e95e359	0.29275015
144	0x3e3689b7	0.17825972
145	0x3e0f3b4a	0.1398746
146	0xbd06ed17	-0.03294095
147	0x3dd66472	0.10468377
148	0x3dfff987	0.124987654
149	0x3dbf606f	0.09344565
150	0x3e695705	0.22787102
151	0x3d349726	0.04408946
152	0x3daefe65	0.08544616
153	0xbd1a0978	-0.037606686
154	0x3d3c366e	0.045950346
155	0x3e5e6ff7	0.21722399
156	0x3da3ea8f	0.08003723
157	0x3dcbf8db	0.09959575
158	0x3ddcc315	0.107793964
159	0x3e706160	0.23474646
160	0xbdf372a9	-0.11887104
161	0x3dd067c0	0.10176039
162	0x3e6cd38f	0.23127578
163	0xbf4296f5	-0.7601159
164	0x3e3eaaa9	0.18619789
165	0x3e26ae47	0.16277419
166	0xbf5ae547	-0.855061
167	0xbced3cdf	-0.02895969
168	0xbf129290	-0.57254887
169	0x3dd775b1	0.10520495
170	0xbdee3eae	-0.11633049
171	0xbd9557c9	-0.07292134
172	0x3e2f899f	0.17142342
173	0xbcca27ce	-0.024677183
174	0x3e8d6d34	0.27622378
175	0x3e1eda4b	0.1551296
176	0x3e4f3086	0.20233354
177	0x3e443f8a	0.19164863
178	0x3eb9ecc3	0.36313447
179	0xbd57843c	-0.052616343
180	0xbe1831de	-0.14862773
181	0x3cf06323	0.029344147
182	0xbda508e5	-0.08058337
183	0xbd1cab52	-0.03824932
184	0x3d206973	0.039163064
185	0x3e5d63fc	0.21620172
186	0x3df42c79	0.11922545
187	0xbe0c690c	-0.13711947
188	0x3d8b6f2d	0.068083145
189	0x3d927491	0.071511395
190	0xbf09548f	-0.5364465
191	0xbf4122c3	-0.7544367
192	0xbe116b54	-0.14201099
193	0xbc8189b2	-0.015812729
194	0xbf8b3d12	-1.0878012
195	0x3c8a124a	0.016854424
196	0xbf2c258c	-0.6724479
197	0xbe1ff630	-0.15621257
198	0xbe224559	-0.15846767
199	0xbcbdcb93	-0.02316836
200	0xbd9df722	-0.077131525
201	0x3e4120fe	0.18860242
202	0x3dc17800	0.09446716
203	0xbd06d978	-0.032922238
204	0x3e0a5e9a	0.1351265
205	0xbe165e03	-0.146843
206	0xbdc2d96d	-0.09514127
207	0xbe4c4385	-0.19947632
208	0xbde92545	-0.11384062
209	0x3d324d73	0.043530893
210	0xbcce14c0	-0.025156379
211	0xbe490f13	-0.19634657
212	0x3d76717d	0.060166825
213	0xbd0d2cf9	-0.034466717
214	0xbc609e7c	-0.013709661
215	0xbe99b3e4	-0.30020058
216	0xbf4b50a7	-0.7941994
217	0xbf3b1f71	-0.7309485
218	0xbf2cb68f	-0.6746606
219	0xbf5615b8	-0.8362689
220	0xbe81ec57	-0.25375625
221	0x3d465660	0.048422217
222	0xbf6e678e	-0.9312676
223	0x3e01e02c	0.12683171
224	0x3ea7a7eb	0.327453
225	0x3f1256a6	0.57163465
226	0xbc11ebd8	-0.008906327
227	0x3e4792a4	0.19489533
228	0x3d06793b	0.032830458
229	0x3cd1ce4f	0.02561107
230	0xbed8926a	-0.42299205
231	0xbf005dbe	-0.5014304
232	0x3d9e94ee	0.0774325
233	0x3e78ff76	0.243162
234	0xbd1ccfa9	-0.038283978
235	0xbd8163d3	-0.06317868
236	0xbe687ed1	-0.22704627
237	0x3d1ea642	0.038732775
238	0x3d60f508	0.05492118
239	0x3daf6d11	0.08565725
240	0xbdeabc1c	-0.1146166
241	0xbea0453a	-0.31302816
242	0x3a860f4c	0.0010227947
243	0x3ac7d21a	0.001524511
244	0x3e7397dd	0.237884
245	0x3e12b674	0.14327413
246	0xbd8a78d6	-0.06761329
247	0x3edbb8f1	0.42914537
248	0xbf50132d	-0.8127926
249	0xbdf3b4d9	-0.11899728
250	0x3ee17bff	0.44039914
251	0x3de04ffc	0.10952756
252	0x3e369cce	0.17833254
253	0xbe28342b	-0.1642615
254	0xbd3b0713	-0.045661043
255	0xbe02b2de	-0.12763545

fc1.bias f4 [128]
0	0x3dac5d62	0.08416249
1	0xb9de8ee3	-0.000424496
2	0xbd20570f	-0.039145526
3	0xbcf07a92	-0.029355321
4	0x3d666170	0.056245267
5	0x3dd3ceb3	0.10342159
6	0x3e2483ec	0.16065949
7	0xbcd9eb49	-0.02660145
8	0xbe65b6aa	-0.22432962
9	0xbb77c80a	-0.0037808442
10	0xbd6cfc65	-0.05785789
11	0x3d6bc20b	0.0575581
12	0xbc413472	-0.011792289
13	0x3de03cc9	0.10949094
14	0x3d1bf395	0.038074095
15	0xbe48ddd2	-0.19615868
16	0xbe2e554c	-0.17024726
17	0xbdf30271	-0.118657
18	0xbe0abb76	-0.13548073
19	0xbe2d8760	-0.16946173
20	0x3cf54a5b	0.029942682
21	0x3cf85da1	0.030318083
22	0x3eee7dae	0.4658026
23	0x3e3e71f8	0.18598163
24	0xbd9252be	-0.07144688
25	0xbe4c96ec	-0.19979447
26	0xbdd46b73	-0.10372057
27	0xbdd8b2d2	-0.10580982
28	0x3c079175	0.008274426
29	0xbe2211d5	-0.15827115
30	0xbdf6277d	-0.120192505
31	0x3d96f950	0.07371771
32	0xbdb5a4af	-0.088693015
33	0xbdd61854	-0.10453859
34	0x3e8dde56	0.2770869
35	0xbd6779fc	-0.056512818
36	0x3e1dd027	0.15411435
37	0xbe0f4092	-0.13989475
38	0xbd8e8a60	-0.06959987
39	0xbdda740d	-0.10666666
40	0xbe2e4ba9	-0.1702105
41	0x3e63ef5f	0.22259282
42	0x3b0f069f	0.0021824015
43	0x3c3dacf7	0.011576883
44	0xbb691802	-0.0035567288
45	0xbe69af12	-0.2282069
46	0x3c5e090d	0.013551963
47	0x3ee80a7e	0.45320505
48	0x3e431210	0.19049859
49	0xbd158c14	-0.036510542
50	0x3c040a0f	0.008059039
51	0x3da08c3d	0.07839248
52	0xbe4fdcea	-0.20299116
53	0xbd4738f8	-0.048638314
54	0x3d99eb8b	0.075156294
55	0xbe6aa225	-0.22913416
56	0x3d3c1439	0.045917723
57	0x3e3808c8	0.179721
58	0xbe6396d7	-0.2222551
59	0x3f03fe6c	0.5156009
60	0x3dbc599f	0.09196781
61	0xbc2d02f7	-0.010559789
62	0x3e568863	0.20950465
63	0xbe0c58f4	-0.13705808
64	0x3e3452bc	0.17609686
65	0x3e61a6a5	0.22036226
66	0x3dc1537a	0.0943975
67	0x3e5f50c4	0.21808153
68	0xbe08d2e2	-0.13361695
69	0x3e589f36	0.21154484
70	0xbe442f72	-0.19158724
71	0xbd1b755a	-0.037953712
72	0xbe33414b	-0.17505376
73	0xbc90305e	-0.017601188
74	0x3cd4d3e6	0.025979947
75	0xbe2d5d81	-0.169302
76	0x3db04d9a	0.08608551
77	0xbdf12760	-0.11775088
78	0xbe2bd77f	-0.16781424
79	0x3b667dd3	0.0035170212
80	0xbcc75768	-0.02433367
81	0x3cf2fc20	0.029661238
82	0x3d9e0cd3	0.0771729
83	0x3d901645	0.070354976
84	0x3e7ee420	0.2489171
85	0x3de5e994	0.11226192
86	0xbd83034b	-0.063971125
87	0xbdd44e56	-0.10366504
88	0x3d2ab36a	0.04167501
89	0xbcb73b5d	-0.022367174
90	0xbe389f60	-0.18029547
91	0x3d3e353e	0.046437494
92	0x3d2934ba	0.04131005
93	0xbcf78c69	-0.03021832
94	0xbd75123c	-0.059831843
95	0xbdc5e656	-0.09663074
96	0xbe01acf8	-0.12663639
97	0xbe35733d	-0.17719741
98	0x3f40dd7a	0.75337946
99	0x3db32da0	0.08748937
100	0x3ec7bd9f	0.39011857
101	0xbd576f56	-0.052596413
102	0x3d849442	0.064735904
103	0xbdd9a0a0	-0.1062634
104	0x3dddcde0	0.10830283
105	0x3d62c19e	0.05536043
106	0x3cd389b6	0.025822502
107	0x3e870dd5	0.2637774
108	0xbd59c31b	-0.053164583
109	0xbdc30c94	-0.095238835
110	0x3d8e1a6a	0.06938632
111	0x3e88374b	0.26604685
112	0xbe104617	-0.14089237
113	0x3d87dce5	0.06633929
114	0x3ccc5015	0.02494053
115	0xbcd4c7d1	-0.025974186
116	0xbe291a22	-0.16513875
117	0xbd1fcb5a	-0.03901229
118	0x3d905da4	0.070491105
119	0xbd390be4	-0.045177355
120	0xbdb60c5e	-0.088890776
121	0x3bdad21b	0.0066778786
122	0xbdb16d50	-0.08663428
123	0xbb2f569b	-0.0026754502
124	0x3d65f418	0.05614099
125	0x3b6dffd9	0.0036315827
126	0xbe1e4c8f	-0.15458892
127	0xbe1ff27d	-0.15619846

fc2.weight f4 [128, 128]
0	0xbebbe8e3	-0.36701116
1	0xbee52a4d	-0.44758835
2	0x3df2c3bd	0.1185374
3	0xbdfe3476	-0.1241235
4	0x3dac2848	0.084061205
5	0xbd30a658	-0.043127388
6	0x3ccf10b4	0.02527652
7	0x3ede50fc	0.4342116
8	0xbd896229	-0.06708176
9	0xbeaea9de	-0.34113973
10	0xbdb3c30f	-0.08777439
11	0xbe166fae	-0.1469104
12	0x3e81f962	0.25385576
13	0x3e9b1e27	0.30296442
14	0xbd0f5f79	-0.03500316
15	0xbec3c93b	-0.38239464
16	0xbd6f79e1	-0.058465842
17	0xbcb85fb1	-0.022506567
18	0xbe828d72	-0.2549854
19	0xbdb09a46	-0.08623175
20	0xbebfbeb0	-0.3745017
21	0xbe03f9ee	-0.1288831
22	0x3def63a8	0.1168893
23	0x3e22f17f	0.15912436
24	0x3daeda38	0.08537716
25	0xbf0cd47d	-0.5501173
26	0x3e83651b	0.25663075
27	0x3dcf3fe3	0.10119607
28	0x3d826992	0.06367792
29	0x3e8877cf	0.26653907
30	0xbcef2225	-0.029191086
31	0x3da7d6bf	0.081952564
32	0x3d88482c	0.06654391
33	0x3f0c8f39	0.5490604
34	0x3de53671	0.111920245
35	0x3ea799a8	0.32734418
36	0x3eb67c6b	0.35641798
37	0xbc86894e	-0.016422894
38	0x3e3866d3	0.18007974
39	0xbf1b6887	-0.6070637
40	0xbec74b71	-0.38924745
41	0x3d076154	0.033051804
42	0x3df3ea46	0.119099185
43	0x3e9e1085	0.30871978
44	0x3bfb070b	0.0076607517
45	0xbee4b805	-0.44671646
46	0x3e54cb74	0.20780736
47	0x3e17e1a7	0.14832173
48	0x3e822051	0.2541528
49	0xb9b9cc63	-0.0003543823
50	0x3ea9e503	0.33182535
51	0x3e652a2a	0.22379366
52	0x3d59baaa	0.053156532
53	0x3e825d46	0.25461787
54	0xbe86c586	-0.26322573
55	0xbec819a9	-0.39082077
56	0xbe8c699b	-0.2742432
57	0x3e9c9650	0.3058343
58	0x3e80c119	0.25147322
59	0xbeefcac0	-0.46834373
60	0x3dcc55f5	0.099773325
61	0xbe9dab48	-0.3079474
62	0x3dfd5aff	0.12370872
63	0xbf36e979	-0.7145
64	0x3e176d0d	0.14787693
65	0x3ebd1db1	0.36936715
66	0x3ead1b69	0.33809975
67	0x3dab48b0	0.083634734
68	0xbd33a09e	-0.04385435
69	0x3dc4efe9	0.09616072
70	0xbd314003	-0.043273937
71	0xbbb34d65	-0.0054718726
72	0xbea73362	-0.3265639
73	0x3e8b6258	0.27223468
74	0xbe8f65f0	-0.2800746
75	0xbe545469	-0.20735325
76	0xbde0f7c0	-0.109847546
77	0x3e1ce2f6	0.15320954
78	0xbe208479	-0.15675534
79	0x3e7a6a80	0.24454689
80	0xbe363d9b	-0.17796938
81	0xbedf8c97	-0.4366195
82	0xbc35f258	-0.0111051425
83	0xbefa82f4	-0.48928034
84	0x3e8389d6	0.25691098
85	0x3a7b228c	0.0009580038
86	0xbc38bb91	-0.011275188
87	0xbe0c414b	-0.13696782
88	0xbea14e70	-0.31505156
89	0x3e733ff7	0.2375487
90	0xbeb0ed77	-0.3455617
91	0x3e29b99b	0.16574709
92	0xbeb7d65a	-0.35905725
93	0xbd0b5e00	-0.034025192
94	0x3cbaf9c1	0.02282417
95	0xbd9eeb50	-0.07759726
96	0x3ecd215d	0.40064517
97	0xbeacf433	-0.3378006
98	0xbe016a41	-0.12638189
99	0xbe86e6a5	-0.26347843
100	0xbe9b269b	-0.3030289
101	0xbe7bb151	-0.2457936
102	0x3e4d3462	0.20039514
103	0x3ac4a0da	0.0015001551
104	0x3e9fa76c	0.3118242
105	0x3db786d8	0.08961266
106	0x3e1c095e	0.15237948
107	0x3e55d243	0.2088099
108	0x3d89686f	0.06709372
109	0xbd9b346d	-0.07578359
110	0xbd4bdd7e	-0.04977178
111	0x3e2e1ec6	0.17003927
112	0x3d61463b	0.054998618
113	0xbe2e8b1e	-0.17045256
114	0xbce05013	-0.027381932
115	0x3d1796cd	0.03700905
116	0x3e25cdd5	0.161918
117	0x3ef7e78d	0.48418847
118	0x3e0abbbb	0.13548176
119	0x3ef7c114	0.48389494
120	0xbf2dc5a2	-0.6787969
121	0xbdc51d75	-0.09624759
122	0x3ea2e0c3	0.31812105
123	0xbdf79681	-0.12089253
124	0xbe59c724	-0.21267372
125	0x3ecdbd9d	0.40183726
126	0x3c395721	0.011312277
127	0xbe594c54	-0.21220523
128	0xbe149749	-0.14510836
129	0xbbd912c3	-0.006624551
130	0xbc419de8	-0.011817433
131	0x3ec7f7f1	0.39056352
132	0xbe814d2e	-0.25254196
133	0x3e77fb73	0.24217014
134	0x3e454ad0	0.1926682
135	0x3edbf794	0.42962325
136	0x3e3b1ccb	0.18272702
137	0x3ec0b877	0.37640736
138	0x3df99625	0.12186841
139	0xbccedbfa	-0.025251377
140	0x3e0ff684	0.14058882
141	0x3ed63e1f	0.4184427
142	0x3e1ba34c	0.15199012
143	0xbeb38ea2	-0.35069758
144	0xbd1a21bc	-0.037629828
145	0xbd73f54a	-0.059560098
146	0x3f04078c	0.51574016
147	0x3e31b0cf	0.17352603
148	0x3e3355b3	0.1751316
149	0xbe2d5d65	-0.16930158
150	0xbe2fb15e	-0.17157504
151	0xbd98b96e	-0.07457243
152	0xbd442b76	-0.04789301
153	0x3de6ea64	0.11275175
154	0xbe64db47	-0.22349273
155	0xbec5e505	-0.3865129
156	0x3ee93d91	0.45554784
157	0x3e03f535	0.12886508
158	0xbef62659	-0.48076132
159	0xbdd6dff4	-0.104919344
160	0x3ec90868	0.39264226
161	0x3ec1a0b3	0.37817916
162	0x3e7544ef	0.23952077
163	0xbe320830	-0.17385936
164	0x3ed51642	0.41618544
165	0x3dc91305	0.09818081
166	0x3e07ef86	0.13274965
167	0xbef10505	-0.47074142
168	0x3e91d0b5	0.28479543
169	0x3eaa72f7	0.33290836
170	0xbe42d3e8	-0.19026148
171	0x3da15f98	0.07879561
172	0x3e8d3c8b	0.27585253
173	0x3df5f17c	0.1200895
174	0x3d96a8ea	0.073564366
175	0x3e98368f	0.29729125
176	0x3db03865	0.086045064
177	0x3ed91456	0.42398328
178	0x3e011812	0.12606838
179	0x3dadde34	0.084896475
180	0xbd85aa92	-0.06526674
181	0xbe6f95a2	-0.23396924
182	0xbd32fac0	-0.043696165
183	0xbf462cee	-0.7741231
184	0x3e5f22e7	0.21790658
185	0x3f0dc239	0.55374485
186	0xbec02fe0	-0.37536526
187	0xbee83a4c	-0.45356977
188	0x3f22c86e	0.6358708
189	0xbe5f423a	-0.21802607
190	0x3e948115	0.29004732
191	0xbdd9db54	-0.10637537
192	0x3dd5c2f5	0.10437576
193	0x3df2bfbb	0.11852976
194	0x3e653d16	0.22386584
195	0x3e15c995	0.14627679
196	0x3e0a3363	0.13496165
197	0x3ddbc397	0.10730665
198	0x3ed03e8c	0.4067272
199	0xbe83cb29	-0.25740936
200	0x3e4c0664	0.19924313
201	0xbd88ce39	-0.06679959
202	0x3ca992e1	0.02069992
203	0x3f03c284	0.5146868
204	0x3eadc8af	0.33942172
205	0xbd93fbf2	-0.07225789
206	0xbcfca102	-0.030838493
207	0x3e13e21d	0.14441724
208	0x3ea918cf	0.3302674
209	0x3ec0f712	0.376885
210	0x3f026210	0.5093088
211	0x3e07e25d	0.13269944
212	0xbdc33218	-0.09531039
213	0xbe4f0c63	-0.20219569
214	0x3d26db5e	0.04073655
215	0xbe2fa84d	-0.17154045
216	0xbe8d6f92	-0.27624184
217	0x3e2f0b98	0.17094266
218	0x3d323c22	0.04351438
219	0x3f09b596	0.53792703
220	0x3e15d577	0.14632212
221	0xbe8c11ef	-0.27357432
222	0xbd96cf0e	-0.07363711
223	0x3e987da2	0.2978335
224	0xbea01299	-0.3126419
225	0xbd001acc	-0.031275555
226	0x3c4320c8	0.011909671
227	0x3d100542	0.035161264
228	0x3f008ad3	0.5021183
229	0x3f13a151	0.57668024
230	0xbd6ce290	-0.057833254
231	0xbeecd02e	-0.46252578
232	0x3ecb8738	0.397516
233	0xbd3d4965	-0.046212573
234	0x3e655ef2	0.223995
235	0x3f140337	0.57817405
236	0x3d6c58ab	0.057701748
237	0xbe2c60b2	-0.16833761
238	0x3ead1e37	0.33812115
239	0xbe0dcbdf	-0.13847302
240	0x3f3a5262	0.72781956
241	0xbe09b536	-0.13448033
242	0x3d8f30b3	0.069917105
243	0x3e80e3d0	0.25173807
244	0xbebd955e	-0.3702802
245	0x3df66538	0.12031025
246	0x3e800c02	0.2500916
247	0x3dd165f5	0.10224525
248	0xbd44d106	-0.048050903
249	0x3e4c630d	0.1995966
250	0x3de14439	0.109993406
251	0x3def16c1	0.11674262
252	0x3f0e2b20	0.55534554
253	0x3e4a1f1f	0.19738434
254	0x3e6a4482	0.22877696
255	0x3dd209f9	0.102558084

fc2.bias f4 [128]
0	0x3d37b8bf	0.044853922
1	0x3d96c1ae	0.0736116
2	0xbe16412c	-0.14673299
3	0xbdbc2531	-0.09186781
4	0xbd82c4fb	-0.06385227
5	0xbd816791	-0.06318582
6	0x3ddc4b15	0.10756508
7	0xbdca7ec2	-0.098874584
8	0xbe24a957	-0.16080223
9	0x3ca23dd9	0.019804882
10	0x3df0f250	0.117649674
11	0x3dfcb0ae	0.123383865
12	0xbe011846	-0.12606916
13	0xbdbbd9dd	-0.091724135
14	0x3dc07301	0.09396935
15	0x3d8ce41f	0.06879448
16	0x3e553ef1	0.20824791
17	0x3dc66880	0.096879005
18	0x3e7e7e8c	0.24852961
19	0xbc6a3a2a	-0.014296094
20	0x3da22388	0.07916933
21	0xbc701261	-0.014652819
22	0xbd23d44f	-0.039997395
23	0xbdfe1446	-0.124062106
24	0xbe721a0a	-0.23642746
25	0x3d0a7bb2	0.03380937
26	0x3d441d76	0.04787966
27	0x3c9562c2	0.018235568
28	0x3d997435	0.07492868
29	0xbda0e366	-0.07855873
30	0xbdd9bb6f	-0.10631453
31	0xbd59f21a	-0.0532094
32	0x3d5e30f9	0.054245923
33	0xbba2b786	-0.0049657254
34	0xbd8bd427	-0.06827574
35	0xbdaf6db7	-0.08565848
36	0xbdd77b02	-0.10521509
37	0x3e51368d	0.20430966
38	0xbddecfa9	-0.10879452
39	0xbe1a88ce	-0.1509125
40	0x3e5940a2	0.21216062
41	0x3dd5ea44	0.10445073
42	0xbcbfbe96	-0.023406308
43	0xbe5b1552	-0.21394852
44	0xbe5b4065	-0.21411283
45	0x3e0a5ccc	0.13511962
46	0x3dade629	0.08491165
47	0x3d9c01d9	0.0761754
48	0xbd9784af	-0.07398354
49	0x3d7dafcb	0.061935227
50	0xbdbe9aea	-0.09306891
51	0xbd9846df	-0.074353926
52	0xbe05b324	-0.13056618
53	0xbdbdf27a	-0.09274764
54	0x3e4f6138	0.2025193
55	0xbe4d6bad	-0.20060606
56	0x3e553b96	0.20823511
57	0x3c77ca8a	0.015123973
58	0xbcb7de30	-0.022444814
59	0xbe2558e1	-0.16147186
60	0xbcc3949d	-0.023874575
61	0x3d36a651	0.044592205
62	0x3d886fc0	0.066619396
63	0x3dbb0d71	0.09133423
64	0xbe14e534	-0.14540559
65	0xbe07cd4d	-0.1326191
66	0x3d914328	0.07092887
67	0xbded64cb	-0.1159149
68	0x3e081971	0.13290955
69	0xbe0ebfd6	-0.13940367
70	0x3de22605	0.11042408
71	0x3b194fd4	0.0023393529
72	0x3e3c6651	0.18398406
73	0x3c3a32b0	0.011364624
74	0x3d9341d7	0.07190292
75	0x3e7581af	0.23975252
76	0x3d97c79b	0.074111186
77	0xbdc37914	-0.09544578
78	0xbdcb5915	-0.099291004
79	0xbde563ba	-0.11200662
80	0x3dc9a976	0.09846775
81	0x3e59bdeb	0.21263854
82	0x3e242bc5	0.16032322
83	0x3ce92584	0.028460272
84	0xbdd05486	-0.101723716
85	0xbcbb8637	-0.022891147
86	0xbdbb6f44	-0.091520816
87	0xbd3f9d1e	-0.046780698
88	0xbdf636c0	-0.120221615
89	0xbd85b6bf	-0.06528997
90	0x3e2d1bfa	0.16905203
91	0x3e28e7ee	0.16494724
92	0x3dade7fe	0.084915146
93	0xbd1ad30d	-0.03779893
94	0xbdd4381e	-0.10362266
95	0x3decec81	0.11568547
96	0xbdebef45	-0.115202464
97	0xbc9977f3	-0.018733954
98	0x3dce213e	0.10064934
99	0x3d045c46	0.03231456
100	0x3dc97250	0.098362565
101	0x3dd8ec9b	0.10592004
102	0x3cac07e1	0.02099985
103	0x3c3bdf4b	0.011466811
104	0xbe0641ec	-0.13111085
105	0xbe1d8e8c	-0.15386409
106	0xbe3089bb	-0.1724004
107	0xbe5c8f84	-0.21539122
108	0xbcccf497	-0.025018973
109	0x3e57d607	0.21077739
110	0x3d9d3fdc	0.07678196
111	0x3d9a5501	0.075357445
112	0x3e36a7e0	0.17837477
113	0xbe15cf95	-0.14629968
114	0x3cd3670a	0.025805969
115	0x3e0135ea	0.12618223
116	0xbe27f6a4	-0.1640268
117	0xbe1b34c8	-0.15156853
118	0x3e0bb1fe	0.13642117
119	0xbe316cee	-0.1732671
120	0x3dd81a21	0.10551859
121	0x3e39201b	0.18078654
122	0xbd4418f4	-0.04787536
123	0xbe228678	-0.15871608
124	0x3da90542	0.08252956
125	0xbe1c060a	-0.15236679
126	0x3c960ace	0.018315699
127	0x3e08850a	0.13332

out.weight f4 [5, 128]
0	0x3f13f21d	0.5779131
1	0xbe7b8f87	-0.2456647
2	0xbe80705d	-0.25085726
3	0xbdfd00e1	-0.12353683
4	0xbecc5b13	-0.39913234
5	0xbea2a3f3	-0.31765708
6	0xbd778d76	-0.060437642
7	0x3eb11f13	0.3459402
8	0x3ef374bf	0.47550008
9	0x3e8e1797	0.27752373
10	0x3eb25906	0.34833544
11	0xbe8c17b9	-0.2736185
12	0x3e595f49	0.21227755
13	0xbd3d5d52	-0.046231575
14	0xbef720a2	-0.48267084
15	0xbed869ce	-0.42268223
16	0xbe6da772	-0.23208407
17	0x3f31372b	0.69224805
18	0x3eff8dc7	0.49912855
19	0x3eaf97fd	0.34295645
20	0xbdf98a6d	-0.12184606
21	0x3e41edba	0.18938342
22	0xbe8b6431	-0.27224877
23	0x3e902f30	0.28161
24	0x3ea3b46b	0.31973585
25	0x3edc1c60	0.42990398
26	0xbebf0151	-0.37305692
27	0xbe434bd4	-0.19071895
28	0x3f56a7e9	0.8384996
29	0x3dc23aa8	0.09483844
30	0x3e63e64b	0.22255819
31	0x3e74be75	0.23900779
32	0x3eeae338	0.4587648
33	0x3eae5274	0.34047282
34	0x3eb36f74	0.3504597
35	0x3e209d30	0.15684962
36	0x3e27c000	0.16381836
37	0xbe5a4e41	-0.21318914
38	0x3d9f19bc	0.0776858
39	0x3e31832f	0.17335199
40	0xbe1b7371	-0.15180756
41	0xbea20a81	-0.3164864
42	0xbd1ac18b	-0.037782233
43	0x3e90c12c	0.28272378
44	0x3eb5e916	0.35529393
45	0x3d8807f9	0.06642146
46	0xbe590a2e	-0.2119529
47	0xbe284a76	-0.16434655
48	0x3e75de1a	0.24010506
49	0x3ec33502	0.3812638
50	0x3e96e2b3	0.29469833
51	0xbeaf2293	-0.34206066
52	0xbeaf87d2	-0.3428331
53	0x3e6ce9f0	0.23136115
54	0xbe143cc2	-0.14476302
55	0x3e8a045d	0.26956454
56	0x3eec6fad	0.46178952
57	0xbd830b36	-0.06398623
58	0x3efac99f	0.4898195
59	0x3e78944d	0.24275322
60	0xbe51bc33	-0.20481949
61	0x3eb6cf33	0.35704955
62	0x3eb118ec	0.34589326
63	0xbd09b6ae	-0.033621483
64	0x3e959e3b	0.29222283
65	0xbd3c8633	-0.04602642
66	0xbea0f9ff	-0.31440732
67	0xbe6547de	-0.22390696
68	0x3ef9f8aa	0.48822528
69	0x3de330ad	0.110932685
70	0x3efd6900	0.4949417
71	0x3e9f3932	0.31098324
72	0x3f5c4fb2	0.86059105
73	0x3ea7076b	0.32622847
74	0x3ec9e142	0.3942967
75	0x3d784ab2	0.06061811
76	0xbe330ac3	-0.17484574
77	0x3ed35c2c	0.4128126
78	0x3de73206	0.11288838
79	0x3e965e2a	0.29368716
80	0xbe0c48f6	-0.13699707
81	0x3f0ecbfb	0.5578
82	0x3ee1e44d	0.44119492
83	0x3ea1e679	0.3162115
84	0x3e2fefd7	0.17181335
85	0xbd3702f0	-0.044680536
86	0x3e825a6c	0.2545961
87	0x3de3e336	0.111273214
88	0x3e41b14d	0.18915291
89	0x3dfddd3a	0.12395711
90	0xbe1f94e0	-0.15584135
91	0x3e84c1f5	0.25929227
92	0x3ebd4203	0.36964425
93	0xbee43085	-0.44568267
94	0x3e1428f5	0.14468749
95	0xbea561b7	-0.32301113
96	0xbe1a89a8	-0.15091574
97	0x3ebf7813	0.37396297
98	0xbedcae36	-0.43101662
99	0x3f111023	0.5666525
100	0x3efcc895	0.49371782
101	0x3eda7798	0.42669368
102	0xbe690abb	-0.22758
103	0xbe01cac5	-0.12675007
104	0xbf18a9b4	-0.59633946
105	0xbf12ba60	-0.57315636
106	0xbe61e6cb	-0.22060697
107	0x3e4c3248	0.19941056
108	0xbe26f204	-0.16303259
109	0xbeea286c	-0.45733964
110	0xbdedb644	-0.1160703
111	0x3e5f09e4	0.21781117
112	0x3eac8a6b	0.33699355
113	0xbf0683f2	-0.5254508
114	0xbdbf699e	-0.09346317
115	0xbe7fc323	-0.24976783
116	0x3e8b114d	0.27161637
117	0xbebb64a5	-0.36600223
118	0xbdddaef6	-0.10824387
119	0xbe0e629e	-0.13904807
120	0x3dd76ddd	0.10519002
121	0xbc462bb4	-0.012095381
122	0xbddee69c	-0.10883829
123	0x3e9c26ad	0.30498257
124	0x3eca9c98	0.39572597
125	0x3e9bc77c	0.30425632
126	0x3e8cea1f	0.2752237
127	0x3f4014e1	0.7503186
128	0x3ea03400	0.31289673
129	0xbed7210e	-0.42017406
130	0xbe61760e	-0.2201769
131	0x3d31e068	0.0434269
132	0xbf3912a9	-0.722941
133	0xbe86479c	-0.2622651
134	0xbf10c555	-0.56551105
135	0x3e8fcdb4	0.28086627
136	0x3ef2c1e0	0.4741354
137	0x3e99fe04	0.3007661
138	0x3edc8d71	0.4307666
139	0xbe660bce	-0.2246544
140	0x3e90a42b	0.2825025
141	0xbdfc6aa3	-0.12325027
142	0xbed0e26a	-0.4079774
143	0xbf0db5c2	-0.55355465
144	0xbe9619aa	-0.29316455
145	0x3eca8751	0.39556363
146	0x3e8dbe4d	0.2768425
147	0x3e0654a0	0.1311822
148	0xbeeb6766	-0.45977324
149	0x3ed7b2d6	0.42128628
150	0xbe2a6b75	-0.16642554
151	0x3eb277c2	0.34856993
152	0x3eb362a0	0.35036182
153	0x3ebb7456	0.36612195
154	0xbee7b025	-0.45251575
155	0xbf085faf	-0.53271
156	0x3ea1c8fd	0.31598654
157	0x3e556190	0.20837998
158	0x3eb53d5d	0.3539838
159	0x3ebec280	0.37257767
160	0x3eb2ffea	0.34960872
161	0x3e9b28d5	0.3030459
162	0x3e85032a	0.25978976
163	0x3e7b24da	0.24525777
164	0x3edeb6df	0.43498895
165	0xbe9a05be	-0.30082506
166	0x3c17ccf6	0.009265175
167	0x3f8ad91a	1.0847504
168	0xbe86e720	-0.2634821
169	0xbe980f35	-0.29699102
170	0x3d8892d3	0.066686295
171	0x3e8f4c17	0.2798774
172	0x3ec7c073	0.39014015
173	0x3d0b751f	0.034047242
174	0xbea51be6	-0.32247847
175	0xbe83d97a	-0.2575186
176	0x3e63f446	0.22261152
177	0x3eb82c90	0.35971498
178	0x3ea7d53c	0.32779872
179	0xbeabeb58	-0.3357799
180	0xbe89603a	-0.26831228
181	0x3ef06e97	0.46959373
182	0xbed4e07b	-0.41577515
183	0x3ec01bff	0.3752136
184	0x3e8ec91b	0.27887806
185	0xbf06786d	-0.52527505
186	0x3e8cc901	0.27497104
187	0x3ebae787	0.36504766
188	0xbf16392b	-0.5868098
189	0x3e871830	0.2638564
190	0x3ed10302	0.40822607
191	0xbeb4c973	-0.35309944
192	0x3ecaa761	0.39580825
193	0x3bcc8603	0.0062415614
194	0xbe9fb0a6	-0.3118946
195	0xbe599d06	-0.21251306
196	0x3ea7ac42	0.3274861
197	0x3dcaccb3	0.099023245
198	0x3e8aa1e3	0.27076635
199	0x3f547a3f	0.8299903
200	0x3e242a05	0.16031654
201	0x3f54fb01	0.831955
202	0x3e7797d6	0.24179015
203	0xbcee1fd1	-0.029067906
204	0xbeb895bd	-0.3605174
205	0x3ef94fdc	0.4869374
206	0x3e2d43ad	0.16920348
207	0x3eabb40d	0.33535805
208	0xbeee4e52	-0.4654413
209	0x3f0f6d7a	0.5602642
210	0x3ef82e96	0.48473042
211	0x3ed2fbab	0.41207632
212	0x3eb0d37a	0.34536344
213	0x3e496dd3	0.19670801
214	0x3e7c1ab9	0.24619569
215	0x3e98b33f	0.29824254
216	0x3e86c58e	0.26322597
217	0x3db52138	0.088442266
218	0xbe236001	-0.15954591
219	0x3e67e217	0.2264484
220	0x3e91789b	0.28412327
221	0xbf1ef4d7	-0.62092346
222	0x3e7bbf65	0.2458473
223	0xbebb75b9	-0.36613253
224	0xbf223672	-0.63364327
225	0x3e90179b	0.2814301
226	0xbf0bb27e	-0.5456923
227	0x3f01deff	0.5073089
228	0x3dff76a8	0.12473804
229	0x3e76f2d4	0.24116069
230	0xbeed9d99	-0.464093
231	0xbf08d023	-0.5344259
232	0xbf0b0ed0	-0.5431948
233	0xbe8f35db	-0.27970776
234	0xbe866e02	-0.26255804
235	0x3e890abc	0.26766002
236	0xbe72d3ab	-0.23713557
237	0xbf1d44f3	-0.61433333
238	0xbe64e156	-0.22351584
239	0x3e9a41bb	0.30128273
240	0x3e3d1d3f	0.18468188
241	0xbe6885c0	-0.22707272
242	0xbedd59df	-0.4323263
243	0xbef22322	-0.4729243
244	0x3eec424c	0.4614433
245	0xbedcd7cc	-0.4313339
246	0xbea038c7	-0.31293318
247	0xbe1e6758	-0.1546911
248	0x3c6b3c55	0.014357646
249	0xbeacf162	-0.3377791
250	0xbe68066a	-0.22658697
251	0x3ebf7400	0.37393188
252	0x3ef1607e	0.4714393
253	0x3e2d9f61	0.1695533
254	0x3ec92fd5	0.39294305
255	0xbc43d2b4	-0.011952091

out.bias f4 [5]
0	0xbf1eb84a	-0.6199995
1	0xbecd0120	-0.4003992
2	0x3ebe7a04	0.37202466
3	0xbd2158e5	-0.039391417
4	0xbf31eb14	-0.69499326

exp_avg_sq f4 [128, 28]
0	0x437acbab	250.79558
1	0x43677b28	231.48108
2	0x43d4338b	424.40268
3	0x44327624	713.84595
4	0x452dbda2	2779.852
5	0x463d12b0	12100.672
6	0x4631d511	11381.267
7	0x4624e4cd	10553.2
8	0x45ac5d24	5515.6426
9	0x4526ae61	2666.8987
10	0x45063647	2147.3923
11	0x4502c29d	2092.1633
12	0x450dd25e	2269.148
13	0x45543c31	3395.762
14	0x45eb3cbd	7527.5923
15	0x460e8783	9121.878
16	0x46b5fb1c	23293.555
17	0x467f1c56	16327.084
18	0x4592fbfd	4703.4985
19	0x43fde9a9	507.82547
20	0x43719060	241.56396
21	0x43216b47	161.41905
22	0x4316a668	150.65002
23	0x437db524	253.70758
24	0x45a5d488	5306.5664
25	0x47d6e1f6	110019.92
26	0x42f4abaf	122.33532
27	0x49232f2e	668402.9
28	0x472d58f3	44376.95
29	0x469feb8a	20469.77
30	0x46ab5435	21930.104
31	0x471428ae	37928.68
32	0x47f2a5d3	124235.65
33	0x49062021	549378.06
34	0x49617784	923512.25
35	0x493893be	756027.9
36	0x48a09b56	328922.7
37	0x488b7472	285603.56
38	0x492d4e94	709865.25
39	0x492eed08	716496.5
40	0x48de93cd	455838.4
41	0x488dd017	290432.72
42	0x48c3c187	400908.22
43	0x48cc94f8	418983.75
44	0x49040c95	540873.3
45	0x48d16ae5	428887.16
46	0x489bb225	318865.16
47	0x489a0543	315434.1
48	0x4943e69e	802409.9
49	0x49d347a5	1.7308046e+06
50	0x4944313f	803603.94
51	0x472adabf	43738.746
52	0x48f1c8d7	495174.72
53	0x4b112ea8	9.514664e+06
54	0x461db1ec	10092.48
55	0x4b836ee6	1.7227212e+07
56	0x45989ff4	4883.994
57	0x453d2973	3026.5906
58	0x459039af	4615.2104
59	0x4615dbfb	9590.995
60	0x47484b88	51275.53
61	0x47cff446	106472.55
62	0x4809b4af	141010.73
63	0x47c2a869	99664.82
64	0x4731bf70	45503.438
65	0x4736f72f	46839.184
66	0x47c158da	98993.7
67	0x47bd9fd1	97087.63
68	0x4763749c	58228.61
69	0x476b668a	60262.54
70	0x478968f3	70353.9
71	0x477935da	63797.85
72	0x47924466	74888.8
73	0x47534fde	54095.867
74	0x4729569a	43350.6
75	0x4748a4d1	51364.816
76	0x47ec7422	121064.266
77	0x4859dffa	223103.9
78	0x47696655	59750.332
79	0x45956f0b	4781.8804
80	0x47816e7a	66268.95
81	0x499ab893	1.2674744e+06
82	0x44c0b9c4	1541.8052
83	0x4a82a467	4.2808835e+06
84	0x45d30c17	6753.511
85	0x4577b962	3963.5864
86	0x45c90e69	6433.8013
87	0x46137553	9437.331
88	0x4691ed8d	18678.775
89	0x46afbcf2	22494.473
90	0x4710844b	36996.293
91	0x483a7d36	190964.84
92	0x47d080d4	106753.66
93	0x47f501f8	125443.94
94	0x48372b12	187564.28
95	0x48203498	164050.38
96	0x47a520cd	84545.6
97	0x47803e82	65661.016
98	0x47615a05	57690.02
99	0x472d6a80	44394.5
100	0x479edce0	81337.75
101	0x47a8b84f	86384.62
102	0x47c752ee	102053.86
103	0x480fb8de	147171.47
104	0x48b3f811	368576.53
105	0x48c02873	393539.6
106	0x471afb22	39675.133
107	0x45c8e83f	6429.031
108	0x4803c0d8	134915.38
109	0x4a0370c8	2.153522e+06
110	0x45113cc2	2323.7974
111	0x4ad1fdc0	6.880992e+06
112	0x4518d485	2445.2825
113	0x44837b0f	1051.8456
114	0x44af0ec4	1400.4614
115	0x454f292a	3314.5728
116	0x4615b7a3	9581.909
117	0x4678931d	15908.778
118	0x46b510a9	23176.33
119	0x4672663c	15513.559
120	0x45fba7a0	8052.953
121	0x465af807	14014.007
122	0x471a25a4	39461.64
123	0x471f2ce8	40748.906
124	0x46beef39	24439.611
125	0x46857160	17080.688
126	0x46812160	16528.688
127	0x466270f1	14492.235
128	0x4671dff5	15479.989
129	0x463d6fe0	12123.969
130	0x464c2216	13064.521
131	0x46a017fb	20491.99
132	0x473c57fe	48215.992
133	0x47c25c5c	99512.72
134	0x472a9a0e	43674.055
135	0x4516fc7b	2415.78
136	0x4647787a	12766.119
137	0x48d04694	426548.62
138	0x43ce91b6	413.13837
139	0x49403226	787234.4
140	0x46190fd3	9795.956
141	0x45a28ce2	5201.6104
142	0x45c4cc03	6297.5015
143	0x46515b29	13398.79
144	0x47ae36d6	89197.67
145	0x485462c3	217483.05
146	0x488093d2	263326.56
147	0x484708f0	203811.75
148	0x47b5f7ee	93167.86
149	0x4792a6ea	75085.83
150	0x48193491	156882.27
151	0x481941b2	156934.78
152	0x47c710e1	101921.76
153	0x47c1676a	99022.83
154	0x47f7fa6d	126964.85
155	0x47eedf8f	122303.12
156	0x481492b3	152138.8
157	0x47dab961	111986.76
158	0x479f6934	81618.41
159	0x47a7cbe9	85911.82
160	0x482f0a8e	179242.22
161	0x48aabfdc	349694.88
162	0x481b3b38	158956.88
163	0x4617028c	9664.637
164	0x47f2fa14	124404.16
165	0x4a0aaee1	2.2721842e+06
166	0x4530b348	2827.205
167	0x4ace3d61	6.7580645e+06
168	0x45834286	4200.3154
169	0x45843cb1	4231.5864
170	0x45e0ae63	7189.7983
171	0x469dc821	20196.064
172	0x47be22c7	97349.555
173	0x484a50ce	207171.22
174	0x48699437	239184.86
175	0x4860a08e	230018.22
176	0x47d54ee5	109213.79
177	0x47a663b5	85191.414
178	0x479f4be7	81559.805
179	0x478185b8	66315.44
180	0x4740bed9	49342.848
181	0x479d4ccd	80537.6
182	0x47d61602	109612.016
183	0x47c8f7c0	102895.5
184	0x4803f572	135125.78
185	0x47c9be42	103292.516
186	0x4788e389	70087.07
187	0x47829ad0	66869.625
188	0x481a1d1b	157812.42
189	0x47c41c9d	100409.23
190	0x461bee0f	9979.515
191	0x457d63e4	4054.2432
192	0x4803ed63	135093.55
193	0x49beb3f7	1.5622389e+06
194	0x4522816d	2600.089
195	0x4ae1435a	7.381421e+06
196	0x450547b2	2132.481
197	0x4545a9d4	3162.6143
198	0x46226006	10392.006
199	0x46cbe415	26098.041
200	0x482c8868	176673.62
201	0x486aebb3	240558.8
202	0x47c0f838	98800.44
203	0x47c55f93	101055.15
204	0x4746cb02	50891.008
205	0x46c35794	25003.79
206	0x46aa8a76	21829.23
207	0x46b197a4	22731.82
208	0x46e95b96	29869.793
209	0x47d54a26	109204.3
210	0x47efdeb0	122813.375
211	0x47a66427	85192.305
212	0x47b413fb	92199.96
213	0x47473bbe	51003.742
214	0x469c8d5a	20038.676
215	0x45b1ef3a	5693.9033
216	0x4524f251	2639.1448
217	0x44f203e5	1936.1217
218	0x44e964ff	1867.1561
219	0x45018c68	2072.7754
220	0x4724f1dd	42225.863
221	0x492592ec	678190.75
222	0x44d20172	1680.0452
223	0x4b6bb295	1.5446677e+07
224	0x465292b1	13476.673
225	0x45bb6302	5996.376
226	0x45bce2e6	6044.3623
227	0x46485ec2	12823.689
228	0x46f82e57	31767.17
229	0x4701c650	33222.312
230	0x464eab77	13226.866
231	0x45faec28	8029.5195
232	0x463c5099	12052.149
233	0x46efbccc	30686.398
234	0x474cdefe	52446.992
235	0x47581677	55318.465
236	0x4712b237	37554.215
237	0x4700419e	32833.617
238	0x46d57eaf	27327.342
239	0x469d8692	20163.285
240	0x46969f82	19279.754
241	0x466852f4	14868.738
242	0x46752a38	15690.555
243	0x46fbb50e	32218.527
244	0x47b4c982	92563.016
245	0x47f3726c	124644.84
246	0x47246c5c	42092.36
247	0x4651a568	13417.352
248	0x462d29b9	11082.431
249	0x49039f18	539121.5
250	0x445353ea	845.31116
251	0x4a0af2eb	2.2765388e+06
252	0x2f771eb3	2.2475426e-10
253	0x2f33915a	1.6331594e-10
254	0x2f1e8db7	1.4420364e-10
255	0x2f03b25d	1.1977748e-10

exp_avg f4 [128, 28]
0	0xbf19324d	-0.5984238
1	0xbf87de46	-1.0614707
2	0xbec154c1	-0.37759975
3	0xbeb65af2	-0.3561626
4	0xbe9b28e6	-0.3030464
5	0xbe8e03ce	-0.27737278
6	0xbe8b4e92	-0.27208382
7	0xbe91953a	-0.28434163
8	0xbf3709e5	-0.7149947
9	0xbdba4bf3	-0.090965174
10	0xbe0eefbd	-0.1395864
11	0xbe1ae10b	-0.1512491
12	0xbe266cb6	-0.16252407
13	0xbe3a7309	-0.18207945
14	0xbe602cb3	-0.21892051
15	0xbea70c75	-0.3262669
16	0xbf11e482	-0.569893
17	0xbf521202	-0.8205873
18	0xbf92839e	-1.1446416
19	0xbe4c7353	-0.19965868
20	0xbdb431d9	-0.0879857
21	0xbd48dc57	-0.049038257
22	0xbdc63f71	-0.09680069
23	0xbf18da83	-0.5970842
24	0x3ebe75cd	0.3719925
25	0xc023dbbc	-2.5602865
26	0xbd7b0fd2	-0.061294384
27	0xc1159c9e	-9.350737
28	0x408e8735	4.454005
29	0xc126c990	-10.42421
30	0xc1da4277	-27.282454
31	0xc2391648	-46.27176
32	0xc2e2e961	-113.45582
33	0xc362e3d9	-226.89003
34	0xc317b40f	-151.70335
35	0xc2ae543d	-87.16453
36	0xc250a248	-52.158478
37	0xc201b4af	-32.42645
38	0xc1a7b109	-20.961443
39	0x418f1c8e	17.888943
40	0x404ba53b	3.1819599
41	0xc220a76e	-40.163506
42	0xc2f574a1	-122.72779
43	0xc2cb9945	-101.799355
44	0xc2ba0675	-93.01261
45	0xc2de5ed8	-111.18524
46	0xc152b301	-13.168702
47	0x40e5f19f	7.185745
48	0x42438ae2	48.885628
49	0x42bcdfde	94.43724
50	0x429f87e5	79.76542
51	0x4064f578	3.5774822
52	0xc18d3cd1	-17.654696
53	0xc1d69189	-26.821062
54	0xc1579f71	-13.476426
55	0xc4d98656	-1740.198
56	0x3ff18f21	1.8871804
57	0x4039488e	2.8950534
58	0x40955bcd	4.667456
59	0x40deb775	6.9598947
60	0xc15ebe21	-13.921418
61	0x41ba5688	23.292252
62	0x41c0bebf	24.093138
63	0x4140f2cc	12.059277
64	0x4106efd4	8.433552
65	0x407245bb	3.785506
66	0x3fa284dd	1.2696797
67	0x3f1abbef	0.60443014
68	0x40b14111	5.5391927
69	0xc180c068	-16.093948
70	0x41bb1099	23.383104
71	0x4199293d	19.145136
72	0x4130e8c5	11.0568285
73	0x421c2988	39.040558
74	0x412e79d7	10.904746
75	0x4130c6d3	11.048541
76	0xc07c70f7	-3.9443948
77	0xc19c5b76	-19.544659
78	0xbc382fe7	-0.01124189
79	0x40024b36	2.0358405
80	0x40e89cd3	7.2691436
81	0x419c8602	19.565434
82	0x4024b9f1	2.573849
83	0x4399a417	307.28195
84	0xc10b7b7e	-8.717649
85	0xc0d0eda3	-6.5290084
86	0xc082debd	-4.0896897
87	0xc01a4f84	-2.4111032
88	0xbebe33c8	-0.3714888
89	0xc038f462	-2.889916
90	0xc0ad54f8	-5.416622
91	0xc0f1ec2f	-7.560081
92	0xc11d04a3	-9.813632
93	0xc2005344	-32.081314
94	0xc210a536	-36.16134
95	0xc1e356bc	-28.41735
96	0xc19387bd	-18.441278
97	0xc17ccb45	-15.799626
98	0xc151cdf2	-13.11278
99	0xc138ea0a	-11.557138
100	0xc1416ae6	-12.088598
101	0xc14aa88e	-12.666151
102	0xc171e439	-15.118218
103	0xc1771b5a	-15.444178
104	0xc282f8dc	-65.48605
105	0xc2a3b2e8	-81.84943
106	0xc1629a3d	-14.162656
107	0xc1014977	-8.080436
108	0xc076813d	-3.851638
109	0xc2e6b209	-115.347725
110	0xc09c22e5	-4.8792596
111	0x418370f4	16.430153
112	0xc0440c27	-3.0632417
113	0xc046e816	-3.1079154
114	0xc04e33a0	-3.221901
115	0xc0dd3f02	-6.9139414
116	0xc1988e16	-19.069378
117	0xc1614ce7	-14.081275
118	0xc1017553	-8.091144
119	0xc05ee13b	-3.482497
120	0x3ef5a349	0.4797614
121	0x403dcacd	2.965503
122	0x3fbe88a4	1.488545
123	0xc0bb9c83	-5.8628554
124	0xc11af891	-9.685685
125	0xc144d182	-12.301149
126	0xc0418c37	-3.024183
127	0xc0d739c5	-6.725802
128	0xc08142b1	-4.039391
129	0xc091917a	-4.5490084
130	0xc0ce8738	-6.454006
131	0xc04a8841	-3.1645663
132	0x3f800f71	1.0004712
133	0xc1410a9b	-12.065089
134	0xc18df309	-17.74367
135	0xc03cf8f5	-2.9526951
136	0xc0f3d0fa	-7.61926
137	0xc1bdea06	-23.73927
138	0xbfc003a1	-1.5001107
139	0xc2ac36ad	-86.10679
140	0xc0e9c0ee	-7.304801
141	0xbfadd121	-1.3579446
142	0x407c2f58	3.9403896
143	0x40a43bd3	5.1323028
144	0xc1dc77b4	-27.558449
145	0x420a43e5	34.566303
146	0x421496af	37.147152
147	0x41722f9d	15.136624
148	0x40aa2faa	5.3183184
149	0xc16c2b49	-14.760568
150	0xc1988c91	-19.068636
151	0xc1d16222	-26.172916
152	0xc1a1eefa	-20.241688
153	0xc224e04b	-41.219036
154	0x4144c17e	12.297239
155	0x40d3f815	6.6240335
156	0x4077cd77	3.8719156
157	0x42456ea4	49.358047
158	0x400e77ed	2.2260697
159	0xc100c3a0	-8.04776
160	0xc21c8a79	-39.135227
161	0xc279e9e1	-62.478397
162	0xc2156967	-37.352932
163	0xc0d32d7b	-6.599302
164	0x40e28e1d	7.079848
165	0xc2a6ef0f	-83.46691
166	0x3f7f7d4f	0.9980058
167	0x43b509bc	362.07605
168	0xc08de5c7	-4.434299
169	0x3f52062a	0.82040656
170	0x40a955f9	5.2917447
171	0x40f68d2a	7.704732
172	0xc2005c23	-32.089977
173	0x41cbdcdd	25.482843
174	0x420c4de5	35.07607
175	0x4158ca20	13.549347
176	0xc09ac6e7	-4.83678
177	0xc1f8a077	-31.078352
178	0xc2122529	-36.53629
179	0xc1bcfae9	-23.622515
180	0xc03b289b	-2.9243534
181	0xc21a4018	-38.56259
182	0x41bcc8fc	23.598137
183	0x41444767	12.267432
184	0xbff1bc99	-1.888568
185	0x420f1722	35.77259
186	0xc0be0836	-5.9385023
187	0xc1c2e235	-24.360453
188	0xc2aec0b1	-87.37635
189	0xc2a7f036	-83.96916
190	0xc11c41a2	-9.766024
191	0xc07782a3	-3.8673484
192	0x40d417fc	6.627928
193	0xc2b98e4f	-92.77795
194	0xbfa987a6	-1.3244522
195	0x43d4b558	425.41675
196	0x40eb1eca	7.3475084
197	0x410be7c9	8.744088
198	0x4146925f	12.410735
199	0x41596c2f	13.588912
200	0xc1eb71ab	-29.430502
201	0x428233e6	65.101364
202	0x42876c37	67.71136
203	0x420bb109	34.922886
204	0x41cf39e5	25.903269
205	0x41a38ab2	20.442722
206	0x41902dfd	18.022455
207	0x418f4c1d	17.912165
208	0x41a45bdb	20.544851
209	0xc1b092a7	-22.071608
210	0x4276906c	61.641037
211	0x423e0774	47.50728
212	0x42199bb6	38.40206
213	0x42a5d3b3	82.913475
214	0x418f0c3c	17.880974
215	0x41314d7d	11.081418
216	0x41121dca	9.132273
217	0x40da7899	6.8272214
218	0x40dbf745	6.8739343
219	0x40e93d6e	7.2887487
220	0x4161ccdd	14.112515
221	0x42c6b778	99.35834
222	0x40db54fd	6.8541245
223	0x441c4bae	625.1825
224	0xc150bebe	-13.046568
225	0xc0928b3d	-4.579497
226	0xc0a3d0ed	-5.1192536
227	0x40ac4264	5.3831043
228	0xc14babae	-12.729414
229	0x418163ee	16.173794
230	0x415a6a8a	13.6510105
231	0x3f1e53bd	0.61846524
232	0xc17ea054	-15.914143
233	0xc238e238	-46.220917
234	0xc244a4d4	-49.160965
235	0xc21806d8	-38.006683
236	0xc2005fac	-32.09343
237	0xc220a200	-40.158203
238	0x3f8178a7	1.0114945
239	0x4040f62f	3.0150259
240	0xc0e3e373	-7.121515
241	0x417a5957	15.6468115
242	0xc16a5d90	-14.647842
243	0xc1efa6c0	-29.95642
244	0xc2a1c412	-80.88295
245	0xc2b3f308	-89.97467
246	0xc228e7c4	-42.226334
247	0xc14397ab	-12.224528
248	0x41137ef6	9.218496
249	0xc310f601	-144.96095
250	0xc0308139	-2.7578871
251	0x4319fd4b	153.98943
252	0x00000004	6e-45
253	0x00000004	6e-45
254	0x00000004	6e-45
255	0x00000004	6e-45

exp_avg_sq f4 [5, 128]
0	0x4623c262	10480.596
1	0x46924d16	18726.543
2	0x461ba830	9962.047
3	0x46916370	18609.719
4	0x4635c897	11634.147
5	0x46a02700	20499.5
6	0x469d7c9f	20158.31
7	0x46b58bfa	23237.988
8	0x46a4aa14	21077.04
9	0x46afbbbe	22493.871
10	0x46ce7dcc	26430.898
11	0x46c2e5b6	24946.855
12	0x46dad013	28008.037
13	0x461842ba	9744.682
14	0x465d6aee	14170.732
15	0x46a1ad15	20694.541
16	0x466a3c5b	14991.089
17	0x46663e96	14735.646
18	0x4606c708	8625.758
19	0x46e6d026	29544.074
20	0x4696c99b	19300.803
21	0x46a0d71a	20587.55
22	0x460114d2	8261.205
23	0x46ddc959	28388.674
24	0x46b3e600	23027.0
25	0x46704f19	15379.774
26	0x46d298b9	26956.361
27	0x46a9553f	21674.623
28	0x457bf457	4031.2712
29	0x46d2bda1	26974.814
30	0x46b8c7f3	23651.975
31	0x46e85681	29739.252
32	0x467dd941	16246.313
33	0x46cf9a87	26573.264
34	0x47014f19	33103.098
35	0x46c8c914	25700.54
36	0x47005934	32857.203
37	0x468163f3	16561.975
38	0x4689042a	17538.082
39	0x45556be8	3414.7441
40	0x469f3078	20376.234
41	0x468e1f57	18191.67
42	0x46508777	13345.866
43	0x46c5c8ff	25316.498
44	0x473957e2	47447.883
45	0x4646f667	12733.601
46	0x4669b1ad	14956.419
47	0x469b70f6	19896.48
48	0x46db5642	28075.129
49	0x462c6f42	11035.814
50	0x4702821e	33410.117
51	0x469de433	20210.1
52	0x469c34de	19994.434
53	0x46c0aa69	24661.205
54	0x463a82a2	11936.658
55	0x470386b6	33670.71
56	0x4698ba1d	19549.057
57	0x461b9aa2	9958.658
58	0x4702b6aa	33462.664
59	0x471a579b	39511.605
60	0x4658f5c9	13885.446
61	0x46bd30a5	24216.322
62	0x469a51c0	19752.875
63	0x46b9af45	23767.635
64	0x46cb45b7	26018.857
65	0x45e30eed	7265.8657
66	0x46bb0910	23940.531
67	0x46daf5e2	28026.941
68	0x46964ee3	19239.443
69	0x46d62987	27412.764
70	0x465d0566	14145.35
71	0x4629bc72	10863.111
72	0x4408068a	544.1022
73	0x46281430	10757.047
74	0x46ab08a0	21892.312
75	0x460e898d	9122.388
76	0x46b9568d	23723.275
77	0x46d47caf	27198.342
78	0x465d6d4e	14171.326
79	0x4700f25b	33010.355
80	0x4698c034	19552.102
81	0x4607d000	8692.0
82	0x46941b51	18957.658
83	0x469e6564	20274.695
84	0x475cb79d	56503.613
85	0x4431fbc8	711.9341
86	0x46fabdcb	32094.896
87	0x46d46fb4	27191.852
88	0x46b47b63	23101.693
89	0x46a3be01	20959.002
90	0x4683f503	16890.506
91	0x46e29472	29002.223
92	0x46ae46e4	22307.445
93	0x468951c2	17576.879
94	0x4706844a	34436.29
95	0x4697240d	19346.025
96	0x46349333	11556.8
97	0x46aac786	21859.762
98	0x46f0d0b5	30824.354
99	0x46239063	10468.097
100	0x46864e43	17191.13
101	0x46aa8dfc	21830.992
102	0x468dbf44	18143.633
103	0x46a99377	21705.732
104	0x45954de9	4777.739
105	0x461de256	10104.584
106	0x46ab7da2	21950.816
107	0x471582be	38274.742
108	0x46686a07	14874.507
109	0x465e4d69	14227.353
110	0x465b80b0	14048.172
111	0x46d88ce1	27718.44
112	0x467cfa23	16190.534
113	0x463dc57c	12145.371
114	0x4684bb77	16989.732
115	0x46cd2874	26260.227
116	0x46ba8a7f	23877.248
117	0x465f8f10	14307.766
118	0x468cae55	18007.166
119	0x466a4486	14993.131
120	0x45bd5b74	6059.4316
121	0x4667a4ac	14825.168
122	0x46af3186	22424.762
123	0x46af35c4	22426.883
124	0x46d9afc1	27863.877
125	0x46c61971	25356.72
126	0x46c9176a	25739.707
127	0x459b0e6c	4961.8027
128	0x45464fa8	3172.9785
129	0x4591b03a	4662.0283
130	0x4548c0c0	3212.0469
131	0x45dfbe49	7159.7856
132	0x45733045	3891.0168
133	0x45c8217b	6404.185
134	0x455622de	3426.1792
135	0x460dbe81	9071.626
136	0x461e8ee4	10147.723
137	0x46135f20	9431.781
138	0x45fd3018	8102.0117
139	0x461a25aa	9865.416
140	0x4618f16f	9788.358
141	0x45a7c797	5368.9487
142	0x45cbfbc6	6527.4717
143	0x45e8920d	7442.2563
144	0x45c472ee	6286.366
145	0x45b2c735	5720.901
146	0x45aaf2b1	5470.3364
147	0x465335ec	13517.48
148	0x45969348	4818.41
149	0x45be572b	6090.896
150	0x4547bd57	3195.8337
151	0x4620bdd7	10287.46
152	0x462078eb	10270.2295
153	0x45aff444	5630.533
154	0x45d4cccc	6809.5996
155	0x4585e6b4	4284.838
156	0x44f7b427	1981.6298
157	0x45c2a628	6228.7695
158	0x46401321	12292.782
159	0x4624372a	10509.791
160	0x4599e4c1	4924.594
161	0x4625e139	10616.306
162	0x460d8f1f	9059.78
163	0x45eec975	7641.182
164	0x45fbfa5f	8063.2964
165	0x45a858da	5387.1064
166	0x458b42bd	4456.3423
167	0x44595683	869.35175
168	0x45a50e9c	5281.826
169	0x45aace0b	5465.7554
170	0x4581e505	4156.6274
171	0x45f0e2dc	7708.3574
172	0x4645f839	12670.056
173	0x4555bf0d	3419.9407
174	0x45920c20	4673.5156
175	0x460034c7	8205.194
176	0x4644d845	12598.067
177	0x4558baca	3467.6743
178	0x4623cc8a	10483.135
179	0x46065f51	8599.829
180	0x45bb1b41	5987.4067
181	0x45c83d51	6407.6646
182	0x45484f19	3204.9436
183	0x462e5875	11158.114
184	0x45f05668	7690.801
185	0x45037b44	2103.704
186	0x46257d65	10591.349
187	0x4618bc44	9775.066
188	0x4547551b	3189.319
189	0x460a0bd2	8834.955
190	0x45a84a31	5385.274
191	0x45b1d60b	5690.7554
192	0x4610a5a1	9257.407
193	0x451357b0	2357.4805
194	0x461c2e14	9995.52
195	0x460b754b	8925.323
196	0x46034efd	8403.747
197	0x4619f5fc	9853.496
198	0x458f4d4b	4585.6616
199	0x44dd5f3d	1770.9762
200	0x43e8a3cc	465.27966
201	0x4510af09	2314.9397
202	0x461e5436	10133.053
203	0x44db39b6	1753.8035
204	0x45b24a86	5705.3154
205	0x45e4baad	7319.3345
206	0x458db873	4535.056
207	0x4633e8b0	11514.172
208	0x458d2d94	4517.6973
209	0x4598354a	4870.661
210	0x45d65920	6859.1406
211	0x45bcd445	6042.5337
212	0x46809dbb	16462.865
213	0x43acce0c	345.60974
214	0x4645e46f	12665.108
215	0x46163db6	9615.428
216	0x45c372d2	6254.3525
217	0x46251e4f	10567.577
218	0x458d163b	4514.779
219	0x461c470b	10001.761
220	0x45fbb5e9	8054.739
221	0x45bb8da5	6001.7056
222	0x4675dd64	15735.348
223	0x458de656	4540.792
224	0x45632ae0	3634.6797
225	0x4605c199	8560.399
226	0x45fdb3c5	8118.471
227	0x4569ec93	3742.786
228	0x45eb60fd	7532.1235
229	0x4606064a	8577.572
230	0x455d480f	3540.5037
231	0x45589289	3465.1584
232	0x44f7b496	1981.6433
233	0x4560f043	3599.0164
234	0x45f40fc8	7809.9727
235	0x462672f7	10652.741
236	0x457051a0	3845.1016
237	0x45954af9	4777.3716
238	0x452ba9f7	2746.6228
239	0x4628a434	10793.051
240	0x4587b19c	4342.201
241	0x45d39f23	6771.892
242	0x45596b1c	3478.6943
243	0x45f22bc2	7749.4697
244	0x45db70f0	7022.117
245	0x459db451	5046.5396
246	0x45475c39	3189.764
247	0x45521662	3361.399
248	0x44b7ff3c	1471.9761
249	0x4577fb0f	3967.6912
250	0x45cbad5e	6517.671
251	0x45a00182	5120.1885
252	0x460be276	8952.615
253	0x461a6604	9881.504
254	0x45d97054	6958.041
255	0x44e31734	1816.7251
