model/150a.pt (torch_old, 336838 bytes, 24 tensors)

fc1.weight f4 [128, 28]
000000 22 dd 2f bd cf e9 01 3e c5 4e 78 be bf f3 c6 bd
       -0.042935498 0.12686847 -0.24248798 -0.0971446
000010 87 bf c6 be 43 32 df be 5b c4 9b ba fa cf a1 3c
       -0.38818 -0.43593034 -0.001188408 0.019752491
000020 6e 0f cd bd c8 88 7b 3c 26 d9 4f bd ed ab c2 be
       -0.100127086 0.015352435 -0.0507442 -0.38021794
000030 54 49 82 be c9 f4 bb bd 99 92 38 3e d9 08 1d 3e
       -0.2544657 -0.091775484 0.18024673 0.15335406
000040 66 81 e7 3e 49 f0 df 3e 5e 69 b5 be 4b 01 78 bf
       0.4521591 0.4373801 -0.3543195 -0.9687697
000050 c4 23 f1 be e5 bf dc be 22 9c 22 3b a8 64 af 3d
       -0.470976 -0.43115154 0.00248123 0.085641205
000060 d0 70 e0 be 80 03 5a 3d b0 66 34 bf 30 1a b9 3d
       -0.4383607 0.053225994 -0.7046919 0.09038198
000070 f2 aa 5e 3f a2 d6 2e 3f b2 19 11 3e 8f d4 a3 3d
       0.8697959 0.68296254 0.14169958 0.07999527
000080 76 97 50 3d 65 3c b5 be f2 94 96 3d 11 6f 81 3e
       0.050925694 -0.3539764 0.07352628 0.2528005
000090 f5 b1 f8 3c a8 4d 18 3e 54 a0 2d 3e 0c 7e 9c bd
       0.030358294 0.14873374 0.16955692 -0.07641229
0000a0 36 bb 54 be 09 31 ab be d9 8f 2d bb bc bb 20 3a
       -0.2077454 -0.33435848 -0.0026483445 0.000613149
0000b0 e9 84 27 3e 8e 85 62 3d a4 a3 91 be 83 aa 0a be
       0.16359295 0.05530315 -0.2844516 -0.13541608
0000c0 ee 9b 26 3c aa 29 3a 3e a4 26 4d be 7f 0a 46 3f
       0.0101690125 0.18179956 -0.20034271 0.77359766
0000d0 a2 34 1e 3e 0b 2e 6f bd 15 33 86 3f 47 a8 97 bc
       0.15449765 -0.05839352 1.0484339 -0.018512858
0000e0 58 0f 60 bf 05 4c 34 bf cf 93 8f be 53 70 08 3e
       -0.8752341 -0.70428497 -0.28042457 0.13324098
0000f0 b1 99 a0 bc 4d 11 b3 bd 23 7d 01 bd eb 11 71 3d
       -0.019604536 -0.08743534 -0.03161348 0.05885498
000100 5b 28 ab 3d de bc 0c 3e 0e a8 48 3e e4 fb 99 3e
       0.083573066 0.13743922 0.19595358 0.3007499
000110 8f 17 9d 3c ca 4c a5 3d 0d 3f 05 3d 5e 8b 2a 3c
       0.019176273 0.08071287 0.032530833 0.010409204
000120 c7 42 97 3c 19 df 95 be e3 25 77 3d 1d bb f1 bd
       0.01846446 -0.29271773 0.060338866 -0.11803267
000130 01 2d d4 3d f7 d1 a1 bd fa 45 c2 be 39 9e 82 bf
       0.10360146 -0.07901376 -0.37944013 -1.0204536
000140 7f a0 78 3e e5 0e 01 3e 58 2d 8c bf ba 10 cc 3d
       0.24279974 0.12603338 -1.0951338 0.09964128
000150 b2 3b 1f bf 35 50 17 bf bd fa 55 be 68 e8 0d be
       -0.6220046 -0.5910676 -0.2089643 -0.13858187
000160 f2 90 da bd ee 17 25 be 9c ac 84 be 79 3d 56 3d
       -0.106721774 -0.1612241 -0.2591294 0.05230472
000170 55 30 0a 3e 00 35 84 3e 61 2d 98 3e c9 e5 a3 3d
       0.13495 0.25821686 0.2972212 0.080028124
000180 37 e7 f7 bb 6d 2b 4e 3b 65 8b ce bd 81 fa a1 be
       -0.0075654048 0.003145899 -0.10085181 -0.31636432
000190 46 f6 fb bd 33 a5 3f be 37 04 c5 3e da 97 1a 3e
       -0.12302832 -0.18715362 0.38479778 0.1509699
0001a0 fe 24 4d 3e de 3c 14 3d 24 44 a5 be bd dc 43 bf
       0.20033643 0.03619086 -0.3227855 -0.76508695
0001b0 a9 c8 61 3e b6 dd 60 bc aa 45 66 bf 64 23 b1 3d
       0.22049202 -0.013724735 -0.8995005 0.08649328
0001c0 c8 09 3a bf 95 98 33 bf 68 e4 d4 bd 87 44 10 be
       -0.72671175 -0.70154697 -0.103951275 -0.14088641
0001d0 86 ef 2d be 8e 03 7e bd 4a 9d 07 be af 3a 93 3d
       -0.16985902 -0.06201511 -0.13243595 0.071889274
0001e0 7e df be 3d 80 a9 40 3c 9e 39 5f 3e 4d 31 69 3e
       0.093199715 0.011759162 0.21799323 0.22772713
0001f0 dc 1a 27 bd 53 df 18 3d 55 26 c0 3d 5e 07 f7 3d
       -0.0407971 0.037322354 0.09382311 0.12061952
000200 c7 44 9a be cf 10 9c be ac a0 77 b9 89 a3 63 3d
       -0.30130598 -0.30481574 -0.0002361561 0.05557588
000210 02 01 c1 3d 08 40 0a 3d c4 f9 47 3e cd 87 3d bf
       0.0942402 0.03375247 0.19528872 -0.7403534
000220 dd 6d 83 3e 3c 52 08 3e 66 54 7b bf db 42 16 3d
       0.25669757 0.1331262 -0.98175657 0.036684852
000230 13 7f 2e bf 57 a1 86 bf 0a 8a 08 bf 5d cd 8d 3e
       -0.6816265 -1.0517987 -0.5333563 0.27695742
000240 17 d1 26 3e c5 27 f1 3d 65 4c 59 bd 54 7a 99 3d
       0.16290699 0.117751636 -0.05305137 0.07494035
000250 76 ec 00 3e 45 a6 bb 3d 32 d3 18 3e 9f d6 48 3d
       0.12590203 0.09162573 0.14924315 0.049032804
000260 80 05 de 3d 72 26 f3 bc 4c 88 4a 3d a6 09 50 3e
       0.10840893 -0.029681418 0.04944639 0.2031618
000270 14 e6 8a 3d 1c 60 b6 3d dc d7 b6 3d 9e 6b 72 3e
       0.06782165 0.0890505 0.08927891 0.23673865
000280 1f b0 e2 bd 9f d0 e5 3d 7b bc 8a 3e d1 14 4a bf
       -0.11068749 0.11221432 0.27096924 -0.78938013
000290 40 3b 5f 3e 62 28 38 3e 08 98 66 bf 35 f0 3d bd
       0.21799946 0.17984155 -0.9007573 -0.046371657
0002a0 cd 71 14 bf 73 da 35 3e 49 5b 00 bd ce 07 55 bd
       -0.57986146 0.17759113 -0.031337056 -0.052009396
0002b0 63 1a 28 3e 18 bb c8 bc cc 2b 91 3e ac ec 06 3e
       0.16416316 -0.024503276 0.28353727 0.1317622
0002c0 ed 18 73 3e 5e 20 18 3e 0d ac c0 3e fd 96 73 bc
       0.23739977 0.14856097 0.37631264 -0.014867541
0002d0 03 30 1c be 41 7a 78 3d d5 e1 90 bd 73 dd 12 bd
       -0.1525269 0.060663465 -0.07074324 -0.03585572
0002e0 a0 44 50 3d f1 f5 6e 3e da 23 e2 3d 16 f9 c5 bd
       0.050846696 0.23336007 0.110419944 -0.0966665
0002f0 15 5e ae 3d b1 d0 1c 3e 10 ae 0d bf 46 ba 43 bf
       0.085140385 0.15313984 -0.55343723 -0.76456106
000300 74 48 03 be 17 35 0b 3d 97 53 8d bf 2f 4f 8d 3c
       -0.12820607 0.033986177 -1.1041135 0.017249672
000310 ef 1a 2c bf 3a 29 dc bd 2e db 3c be e2 a0 1a bd
       -0.672286 -0.10750051 -0.18442985 -0.037751086
000320 b3 29 97 bd 68 9f 48 3e 7e 5b f5 3d b7 92 34 bc
       -0.07381 0.19592059 0.119803414 -0.011021308
000330 a4 98 0d 3e 8f 73 12 be b7 5e ba bd cd c0 48 be
       0.13827759 -0.14301895 -0.09100097 -0.19604798
000340 9f 17 fd bd ed d9 4d 3d 12 fd eb bc c7 6b 47 be
       -0.12358021 0.05025666 -0.028807197 -0.19474708
000350 1d 3f 81 3d 12 e7 04 bd 7a 8b 71 bc f1 d4 97 be
       0.06310866 -0.03244693 -0.014742726 -0.2965465
000360 af 43 4a bf 8a 1a 3a bf 16 e7 2c bf 53 ef 55 bf
       -0.79009527 -0.72696745 -0.6754011 -0.83568305
000370 4d 83 81 be 3c fd 46 3d 5c 51 6d bf a7 7f 04 3e
       -0.25295487 0.048581347 -0.9270227 0.1293932
000380 d7 cd bb 3e c6 94 0f 3f 73 aa ca bd a1 56 e6 3d
       0.3668048 0.56086385 -0.09895792 0.11246992
000390 28 b2 08 bd 36 c6 65 bd c9 ca d0 be b9 15 f8 be
       -0.033373028 -0.05609723 -0.40779713 -0.48454073
0003a0 15 a6 6d 3d d1 a4 98 3e d7 65 55 bd f9 61 04 be
       0.058019716 0.29813245 -0.052099075 -0.12927999
0003b0 6d ca 74 be dd 4d 85 3d af 00 37 3d 6f e7 86 3d
       -0.23905344 0.06508992 0.044678386 0.06587111
0003c0 1c ad 0f be ec e5 b9 be 24 e1 ca bc f7 f6 2d bd
       -0.1403088 -0.3630823 -0.024765559 -0.042471852
0003d0 79 06 70 3e c3 37 14 3e 4c 50 c9 bc 60 8c ed 3e
       0.23439969 0.14474396 -0.024574421 0.4639616
0003e0 e1 1d 54 bf 46 61 a8 bd c1 93 a6 3e ad 5d fd 3d
       -0.8285809 -0.082216784 0.32534602 0.12371383
0003f0 ce 9c 36 3e 2b 34 28 be 13 07 3b bd de b2 02 be
       0.17833254 -0.1642615 -0.045661043 -0.12763545

fc1.bias f4 [128]
000000 c2 2f b5 3d ae 16 7b bc 36 0d 0d bd 47 12 93 bc
       0.08847 -0.0153252315 -0.034436427 -0.017953051
000010 bf 2b 3e 3d 0b 38 dd 3d 9d 35 41 3e 65 4e c0 bc
       0.04642844 0.10801705 0.18868108 -0.023474881
000020 db 02 5f be 0a c8 77 bb 65 fc 6c bd c8 ee 9c 3d
       -0.21778433 -0.0037808442 -0.05785789 0.076627314
000030 72 34 41 bc 5d c9 e8 3d b9 24 27 3d 99 1f 53 be
       -0.011792289 0.11366532 0.040806506 -0.20617522
000040 4c 55 2e be 8d 1e e3 bd 76 bb 0a be 60 87 2d be
       -0.17024726 -0.110898115 -0.13548073 -0.16946173
000050 3f 9a 01 3c e6 6b be 3c ae 7d ee 3e 87 d6 40 3e
       0.00791031 0.02324481 0.4658026 0.18831836
000060 be 52 92 bd 74 70 53 be 73 6b d4 bd ae b2 00 be
       -0.07144688 -0.20648366 -0.10372057 -0.12568161
000070 16 a3 07 3c d5 11 22 be 24 1c 03 be 50 f9 96 3d
       0.008278629 -0.15827115 -0.12803704 0.07371771
000080 af a4 b5 bd 71 45 cb bd cb f3 97 3e fc 79 67 bd
       -0.088693015 -0.09925354 0.29678187 -0.056512818
000090 fa 19 29 3e 92 40 0f be 0e 30 3c bd f5 01 eb bd
       0.16513816 -0.13989475 -0.045944266 -0.11474983
0000a0 dc c8 33 be 05 69 79 3e 0c 02 b7 bb e8 6f 6d 3c
       -0.1755709 0.24356468 -0.005584961 0.014492013
0000b0 38 44 ed bb 54 0d 6d be 85 ac 07 3c 7e 0a e8 3e
       -0.0072407983 -0.23149616 0.008280878 0.45320505
0000c0 2f 8c 3c 3e 14 8c 15 bd 1e a5 e6 3c b5 c5 b0 3d
       0.18412851 -0.036510542 0.028154906 0.086314596
0000d0 ea dc 4f be f8 38 47 bd f5 c7 a2 3d 23 a3 72 be
       -0.20299116 -0.048638314 0.07948295 -0.23695044
0000e0 02 cc 4e 3d 83 40 39 3e d7 96 63 be 53 13 02 3f
       0.050487526 0.18091016 -0.2222551 0.50810736
0000f0 b2 8d c6 3d 46 84 a3 bc 0e a5 5e 3e 2d 32 0d be
       0.09694995 -0.019960534 0.21742651 -0.13788672
000100 03 98 46 3e ee 9e 68 3e 88 43 c4 3d 34 4c 63 3e
       0.19393925 0.22716877 0.09583193 0.22197038
000110 e2 d2 08 be 3f 89 70 3e 72 2f 44 be 79 40 23 bd
       -0.13361695 0.23489855 -0.19158724 -0.039856408
000120 2c ea 36 be 5e 30 90 bc 87 00 50 3c 81 5d 2d be
       -0.17862767 -0.017601188 0.012695438 -0.169302
000130 06 20 be 3d 34 20 fc bd b9 17 3d be 75 0c 72 3b
       0.09283452 -0.1231083 -0.1846608 0.0036933695
000140 5f a9 9f bb dd ae 8d 3c 96 66 98 3d 37 23 9a 3d
       -0.0048724855 0.017295295 0.07441442 0.07526248
000150 96 37 77 3e 41 1d c0 3d 4b 03 83 bd f3 cb e0 bd
       0.24142298 0.0938058 -0.063971125 -0.109764
000160 c5 84 82 3d 5d 3b b7 bc 42 8f 37 be f9 4a 1d 3d
       0.0637298 -0.022367174 -0.17925742 0.038401578
000170 74 c0 ef 3c ba 8b c9 bc 3c 12 75 bd c6 f4 b3 bd
       0.029266573 -0.02460276 -0.059831843 -0.08786921
000180 f8 ac 01 be 3e aa 41 be 7a dd 40 3f 87 c1 c8 3d
       -0.12663639 -0.18912598 0.75337946 0.098025374
000190 9f bd c7 3e 56 6f 57 bd 4e 24 19 3d 1e 26 c8 bd
       0.39011857 -0.052596413 0.03738814 -0.09772895
0001a0 a7 8b 00 3e f0 06 6e 3d 96 ef fe 3c cb 73 91 3e
       0.12553273 0.058112085 0.031120103 0.28408656
0001b0 1b c3 59 bd 94 0c c3 bd e7 34 01 3d 4b 37 88 3e
       -0.053164583 -0.095238835 0.031544592 0.26604685
0001c0 17 46 10 be 71 ac 65 3d 15 50 cc 3c ad 84 d8 bc
       -0.14089237 0.056072656 0.02494053 -0.026430452
0001d0 22 1a 29 be b9 3a 19 bd ab 77 a2 3d 21 4b 2c bc
       -0.16513875 -0.037409518 0.07932981 -0.010515959
0001e0 82 29 93 bd 18 5f b7 3c 46 06 93 bd 5c 04 40 bd
       -0.07185651 0.022384211 -0.07178931 -0.046879157
0001f0 18 f4 65 3d a5 7d e1 3b 8f 4c 1e be 8d e5 3c be
       0.05614099 0.006881433 -0.15458892 -0.18446942

fc2.weight f4 [128, 128]
000000 eb 3b bb be d4 13 06 bf dd af 96 3d a0 86 38 be
       -0.3656915 -0.52374005 0.07357762 -0.18020105
000010 ff b6 c6 3d 9b d1 c8 bc 3f fb 21 bc fc 50 de 3e
       0.097028725 -0.02451401 -0.009886562 0.4342116
000020 4f 0a f1 bd ea 7d af be 16 a4 84 bd d6 43 4f be
       -0.11769544 -0.34275752 -0.064766094 -0.20240721
000030 62 f9 81 3e 71 d5 8e 3e 90 7f 66 bd f5 b9 bd be
       0.25385576 0.27897218 -0.056273997 -0.37055936
000040 cf fa 94 bd d9 ee e9 3c ff df 82 be 42 46 76 bd
       -0.072744004 0.028556274 -0.2556152 -0.060125597
000050 d8 fb b2 be 27 79 20 be 44 fc 68 3d d0 47 3b 3e
       -0.34957767 -0.15671216 0.056881204 0.18289113
000060 38 da ae 3d 37 c0 09 bf 13 b5 3f 3e 45 f1 0d 3e
       0.08537716 -0.5380892 0.18721418 0.13861568
000070 e7 e0 77 3d df e9 17 3e 8d bd a6 bc bf d6 a7 3d
       0.060517218 0.14835308 -0.020354057 0.081952564
000080 9b 75 95 3d 39 8f 0c 3f 28 84 93 3d a8 99 a7 3e
       0.07297822 0.5490604 0.07202941 0.32734418
000090 a2 09 b7 3e a3 b2 f1 bc 6f 9b 11 3e 25 e2 19 bf
       0.35749537 -0.029504126 0.1421945 -0.60110694
0000a0 c0 8d d1 be ec 14 8e 3d 46 ea f3 3d 21 e3 9d 3e
       -0.4092846 0.06937584 0.119099185 0.30837348
0000b0 0b 07 fb 3b 8c a1 ec be bf 15 5c 3e 25 92 d3 3d
       0.0076607517 -0.46217 0.2149267 0.10330609
0000c0 44 15 82 3e 4f b0 1d 3c 52 9c 8a 3e 5f ee 39 3e
       0.2540685 0.009624555 0.27072388 0.18157338
0000d0 0a 88 d0 ba d0 25 9c 3e 35 16 a2 be 2b 16 b9 be
       -0.0015909683 0.304976 -0.31657568 -0.36149725
0000e0 0a 07 88 be 08 8d 9b 3e 19 c1 80 3e 68 61 f1 be
       -0.2656787 0.30381036 0.25147322 -0.47144628
0000f0 dc e3 c5 3d 3c c4 86 be 6a 13 ce 3d 94 89 44 bf
       0.09662601 -0.2632159 0.10062297 -0.7677243
000100 db 5d 50 3e e1 8f aa 3e 0f 13 96 3e fb 11 cd 3d
       0.20348303 0.33312896 0.29311416 0.10013195
000110 8e 29 10 bd d3 61 41 3d c1 49 9c bd 96 72 47 bc
       -0.03519588 0.047212433 -0.07631255 -0.0121733155
000120 76 0c a3 be e7 99 a7 3e b9 88 9f be a3 40 72 be
       -0.31845444 0.32734606 -0.31159 -0.2365747
000130 fc 09 65 bd f6 e2 1c 3e 26 9f 20 be 09 fb 83 3e
       -0.055917725 0.15320954 -0.1568571 0.25777462
000140 21 58 0a be 65 8b f4 be f7 46 e1 3c 23 14 fc be
       -0.13510181 -0.477626 0.027499659 -0.49234113
000150 83 3d 83 3e 36 69 49 3c 91 bb 38 bc 6f 2c 0d be
       0.25632867 0.012293151 -0.011275188 -0.13786481
000160 a2 41 bd be e3 0b af 3d d0 03 c0 be 9e 7a 2e 3e
       -0.36964136 0.08547189 -0.3750291 0.17038962
000170 70 56 b7 be 3f df ab bd c1 f9 ba 3c 19 48 e4 bd
       -0.35808134 -0.0839219 0.02282417 -0.11146564
000180 5d 21 cd 3e b6 70 8b be 13 39 23 be c1 57 84 be
       0.40064517 -0.2723443 -0.15939741 -0.258482
000190 87 2f 97 be bc 97 86 be 8c 60 7d 3e 68 f1 42 3d
       -0.29528448 -0.2628764 0.24743861 0.047593504
0001a0 99 fa 92 3e 95 9f 85 3d 8f ab 25 3e 9b 7e 32 3e
       0.28706816 0.065245785 0.16178726 0.17431109
0001b0 30 46 58 3d bf bb fd bd c1 b6 85 bd 1e 2a 24 3e
       0.05280131 -0.12389325 -0.06528998 0.16031691
0001c0 5f 11 83 3d 46 ce 0c be c7 86 7a bd 32 1e 90 3c
       0.06399798 -0.13750562 -0.06116369 0.017592523
0001d0 d5 cd 25 3e fd b0 f2 3e 69 d2 46 3e 9e 0f f9 3e
       0.161918 0.47400656 0.19416203 0.48644727
0001e0 5e 30 2f bf a2 d3 f1 bd 11 77 c1 3e 00 00 f0 bd
       -0.6843318 -0.11807944 0.37786153 -0.1171875
0001f0 dc 21 5d be 86 5a ed 3e eb 56 29 bd 04 34 27 be
       -0.21594948 0.46358126 -0.041342657 -0.16328436
000200 22 a7 a3 bd 60 2a 8f 3c 3f ed c3 bb 83 92 bb 3e
       -0.079908624 0.01747626 -0.0059792097 0.36635217
000210 d6 9a 5e be a8 8b 92 3e c6 54 1d 3e 68 c1 f3 3e
       -0.21738753 0.28622174 0.1536437 0.47608495
000220 51 49 57 3e 0c b7 eb 3e a6 97 ce 3d 4f 4e ee bc
       0.21024062 0.4603809 0.100875184 -0.029090075
000230 84 f6 0f 3e 3a c4 e7 3e cf e3 2d 3e fe 6a a2 be
       0.14058882 0.45266896 0.16981433 -0.31722254
000240 97 39 a9 bd bc 11 8b bc 4c 11 06 3f 25 a8 0f 3e
       -0.082629375 -0.01697623 0.5237014 0.14028986
000250 fe 16 45 3e 26 40 66 be 9e db 35 be 23 dc 9b bd
       0.19247052 -0.22485408 -0.17759559 -0.07610347
000260 76 2b 44 bd db c2 00 3e bc ac 78 be fd ff a1 be
       -0.04789301 0.12574331 -0.24284643 -0.31640616
000270 9e ec e8 3e e9 ea ee 3d 83 85 e9 be f4 df d6 bd
       0.45493025 0.11665899 -0.45609674 -0.104919344
000280 c1 68 e4 3e 66 a3 df 3e 69 b4 76 3e 30 08 32 be
       0.4461117 0.4367935 0.24092259 -0.17385936
000290 5a f8 df 3e 91 c6 54 3d e9 45 a2 3d c4 4d d4 be
       0.43744165 0.05194718 0.079234906 -0.4146558
0002a0 75 40 97 3e 03 7c cf 3e 1a 48 86 bc b0 14 d3 3d
       0.29541364 0.405243 -0.016391803 0.1030668
0002b0 c0 c6 9e 3e 38 21 c1 3d bb 4a f6 3d 36 23 86 3e
       0.3101101 0.09430164 0.120259725 0.2619874
0002c0 d3 bd 06 3e 1f 74 e1 3e 5a 51 f2 3d 43 5f 78 3d
       0.1315835 0.44033906 0.11831923 0.060637724
0002d0 92 e7 ec bd b5 5a 8c be 97 61 0c bd 3f f6 52 bf
       -0.11567606 -0.27412954 -0.034272756 -0.8240699
0002e0 cf fe 49 3e fb 35 07 3f e0 2f c0 be 9b 5d c6 be
       0.19726108 0.5281674 -0.37536526 -0.3874329
0002f0 d4 d1 35 3f 2c 33 26 be 0c 7e 83 3e cb fa 80 bd
       0.710233 -0.16230458 0.25682104 -0.06297835
000300 53 5a ff 3d 86 bc dd 3d d9 00 84 3e db 65 18 3e
       0.124684 0.108269736 0.25781897 0.14882605
000310 ad 3c dd 3d f3 02 15 3e aa b9 f1 3e b7 d4 74 be
       0.108025886 0.14551906 0.47211963 -0.2390927
000320 c2 6c 83 3e 43 b6 57 be a2 fc cc 3c b8 22 0c 3f
       0.25668913 -0.21065621 0.025022808 0.54740477
000330 0d 42 e2 3e bd da 1f bd 1e 94 56 bc a3 d9 1f 3e
       0.44191018 -0.039026964 -0.013096837 0.15610366
000340 5f f1 e6 3e 63 21 d8 3e 69 fb 15 3f 0f 61 06 3e
       0.45106027 0.42212972 0.58586746 0.13122962
000350 d0 ac cf bd 46 71 30 be 5e db 26 3d f1 6e 46 be
       -0.10140383 -0.1723071 0.04073655 -0.19378258
000360 28 bb 90 be d3 cc cb 3e bc 3c 58 3d 1d cf 0a 3f
       -0.2826779 0.39804706 0.052792296 0.5422228
000370 71 d9 10 3e 56 76 88 be 0e cf 96 bd 16 1e a9 3e
       0.14145447 -0.26652783 -0.07363711 0.33030766
000380 99 12 a0 be 13 f5 21 3d ed d0 96 bc 68 49 1d 3d
       -0.3126419 0.03954036 -0.01841017 0.038400084
000390 fc a0 fa 3e 30 80 15 3f 25 ca 67 bd 9c e6 c4 be
       0.48950946 0.58398724 -0.056589264 -0.3845719
0003a0 2a 87 b2 3e b3 ef 81 bd de 52 89 3e 3e 27 14 3f
       0.34868747 -0.06344547 0.26821035 0.5787238
0003b0 9a bb b5 3d 52 78 40 be 94 69 b3 3e 96 56 07 be
       0.08873673 -0.18795899 0.35041487 -0.13216624
0003c0 02 32 4c 3f d6 82 a3 bd be 95 c5 3d 5d 1f ad 3e
       0.79763806 -0.07983939 0.09647702 0.3381299
0003d0 5e 95 bd be 79 6a 49 3e 8e 40 b3 3e 6c 06 d5 3b
       -0.3702802 0.19669522 0.3501019 0.0065010097
0003e0 d8 3a c3 bd 04 59 bb 3e d3 5e 33 3e 35 a8 61 3d
       -0.09532708 0.3659135 0.17516641 0.055092055
0003f0 6b 00 05 3f 44 66 77 3e 6d 50 a5 3e 0a 24 09 3e
       0.5195376 0.24160105 0.32287923 0.13392654

fc2.bias f4 [128]
000000 ff 4b 9d 3d 97 ca f9 3d 09 f7 20 be 08 15 05 be
       0.07680511 0.12196844 -0.15719236 -0.12996304
000010 d4 a0 60 bd aa 4c 90 bd 5a be ea 3d e5 db ef bd
       -0.054840878 -0.070458725 0.11462088 -0.117118634
000020 10 28 17 be 55 e0 50 3b ab 6f c6 3d fe 67 04 3e
       -0.14761376 0.0031871994 0.09689268 0.12930295
000030 e6 ed e7 bd f1 c9 01 be 0f c8 cf 3d 71 21 b6 3d
       -0.113246724 -0.12674691 0.1014558 0.08893097
000040 2c e3 5b 3e 9f ff f1 3d 02 9c 72 3e f5 92 52 3c
       0.21473378 0.11816334 0.23692325 0.01285242
000050 94 ce b5 3d 61 73 46 bd ed 34 63 bd b8 05 ee bd
       0.08877292 -0.048449878 -0.055470396 -0.116221845
000060 6e 6f 71 be 12 98 dc 3c f2 e7 58 3d 20 a7 1d bc
       -0.23577663 0.026927982 0.052955575 -0.009622365
000070 33 c3 da 3d 75 e1 5c bd bb 2f 01 be 53 25 71 bd
       0.106817625 -0.05392595 -0.12615864 -0.058873486
000080 fd 7e 88 3d 75 31 c2 bb 32 4a 86 bd b6 ea a9 bd
       0.06664846 -0.005926306 -0.065571204 -0.08296721
000090 bc e7 bc bd 76 81 59 3e 66 15 01 be 55 70 ca bd
       -0.09223887 0.21240792 -0.12605819 -0.09884707
0000a0 f9 d1 52 3e 7b 65 d8 3d cf 36 1e bd 8c 44 58 be
       0.2058791 0.10566231 -0.03862649 -0.21119899
0000b0 8f 28 48 be 0e 54 35 3e 58 f8 56 3d 95 9b 83 3d
       -0.19546722 0.17707846 0.052482933 0.06426159
0000c0 ff 3d af bd fa 6a 46 3d 7e a6 bc bd 36 52 96 bd
       -0.08556747 0.048441865 -0.09211443 -0.07339899
0000d0 a9 7e 12 be 27 63 9e bd 5a c6 5c 3e 24 df 4c be
       -0.1430613 -0.077337556 0.2156004 -0.20006996
0000e0 b0 da 5e 3e 98 df 11 3d 53 49 dd bc 74 22 23 be
       0.2176311 0.035613626 -0.027012503 -0.15931112
0000f0 10 12 4c bd 31 75 a7 3d 80 d9 3b 3d 6a 67 07 3e
       -0.049821913 0.08176649 0.04586172 0.13223043
000100 13 89 0e be 91 fe 08 be d6 f2 8b 3d 6e 33 2c be
       -0.13919477 -0.1337836 0.06833427 -0.16816494
000110 73 7c ee 3d d7 67 2a be 15 78 12 3e f5 62 87 3c
       0.116448306 -0.16641174 0.1430362 0.016526679
000120 dc 44 49 3e 48 05 9b 3c e8 4d ec 3d 40 03 71 3e
       0.19655174 0.018923417 0.11538297 0.23536396
000130 e0 61 2f 3d 6b f3 cc bd fb 5b e5 bd 1a 95 c5 bd
       0.04281795 -0.10007366 -0.111991845 -0.096475795
000140 1d 23 cb 3d b7 81 56 3e 28 84 33 3e 4b 48 f9 3c
       0.09918807 0.2094792 0.17530882 0.03042998
000150 27 fc b7 bd 3a 03 6a bd 4a 70 d5 bd 5f 4e 5a bd
       -0.08983641 -0.057131983 -0.10421808 -0.053297397
000160 8c 34 ed bd f3 ef 54 bd 17 42 34 3e a0 73 fd 3d
       -0.11582288 -0.051986646 0.17603336 0.12375569
000170 76 33 a7 3d fd e1 ad bc e4 f5 ce bd 8c ac d2 3d
       0.08164112 -0.021225924 -0.10105494 0.10286817
000180 60 92 0f be 4b 86 b8 bc 1c 6d c5 3d 6b b3 91 3d
       -0.14020681 -0.022524973 0.096399516 0.071142994
000190 09 b0 c8 3d 1b 79 14 3e 9c 44 27 3d bf ef b5 3c
       0.09799201 0.14499323 0.040836915 0.022209046
0001a0 54 bb 0e be a8 ad 51 be 65 55 68 be c3 84 59 be
       -0.13938648 -0.20476401 -0.22688825 -0.21242051
0001b0 ed 18 ed bc 32 24 46 3e f4 73 c3 3d ab 3e 17 3d
       -0.02894255 0.19349745 0.09543601 0.036925
0001c0 16 ee 05 3e ef 3d 2a be 30 7f ba 3b 8f 34 02 3e
       0.13079104 -0.16625188 0.0056914315 0.12715362
0001d0 49 d8 22 be ac 71 25 be af 0b e7 3d 5e d4 3f be
       -0.15902819 -0.16156644 0.11281525 -0.18733355
0001e0 47 a2 c9 3d bd 31 2d 3e 4d a9 b1 bd 2f a3 32 be
       0.09845405 0.16913505 -0.0867487 -0.17445062
0001f0 84 69 1c 3e f3 2a 2b be a5 60 87 3c 9b 2e 0c 3e
       0.15274626 -0.16715603 0.016525576 0.13689654

out.weight f4 [5, 128]
000000 a8 8b 18 3f 01 2e 86 be c5 84 95 be 94 0b b4 bd
       0.595881 -0.26206973 -0.29202858 -0.08791271
000010 10 c7 e0 be 9c 84 af be e8 85 17 bd 8c e0 c2 3e
       -0.43901873 -0.3428086 -0.036992937 0.3806194
000020 8a 74 0b 3f d2 f3 a1 3e 36 a7 d7 3e ec 00 8b be
       0.544747 0.31631333 0.4211976 -0.2714914
000030 74 cd 62 3e 0b 17 e9 bc b9 f8 01 bf 3f b3 e7 be
       0.22148687 -0.02845337 -0.50770146 -0.4525394
000040 c0 ce 8c be bd 10 36 3f b1 0c 12 3f 32 2f a6 3e
       -0.27501488 0.7111929 0.57050616 0.32457882
000050 7a bc 07 be 82 61 4b 3e bb 3a 9c be d3 2e 98 3e
       -0.13255492 0.19861415 -0.30513558 0.29723224
000060 dd 8c b5 3e 87 07 ec 3e 5e c8 ca be c5 79 68 be
       0.35459033 0.46099493 -0.39605993 -0.22702701
000070 96 e3 67 3f 36 66 82 3d 5f cf 88 3e 2e 45 91 3e
       0.90581644 0.063671514 0.26720712 0.28373092
000080 68 66 07 3f ff 5b d8 3e c8 36 bf 3e 29 8e 31 3e
       0.52890635 0.42257687 0.37346482 0.17339386
000090 8d de 47 3e 67 72 62 be 61 9e 97 3d 7d e8 5b 3e
       0.1951849 -0.22113954 0.07403255 0.21475406
0000a0 20 ed 25 be 35 2a 9c be 43 f5 1b bc 7f f3 a9 3e
       -0.16203737 -0.3050095 -0.009518924 0.33193585
0000b0 4a 22 c4 3e 4f 37 7a 3d 5e 1f 76 be 06 bb 2f be
       0.3830741 0.061087903 -0.24035403 -0.17161188
0000c0 26 4e 8a 3e f3 9c e1 3e 4e 8e aa 3e 0d 3a c7 be
       0.27012748 0.44065055 0.33311695 -0.38911477
0000d0 24 d8 bd be 19 80 85 3e 5b 9d 20 be 65 53 8b 3e
       -0.37078965 0.26074293 -0.15685026 0.27212062
0000e0 86 c5 08 3f bd 55 84 bd 7a 83 fe 3e d4 f5 7c 3e
       0.53426397 -0.06461666 0.49709684 0.24703151
0000f0 77 a5 53 be 16 51 cc 3e e4 a0 cb 3e 5e 74 fc bc
       -0.20668589 0.39905614 0.39771187 -0.030817207
000100 80 30 a9 3e f5 f3 1c bd 06 16 bd be 44 39 67 be
       0.33044815 -0.038318593 -0.36930865 -0.22580439
000110 b8 7c f3 3e 52 0a 11 3e 05 52 0f 3f 12 52 a0 3e
       0.4755609 0.14164093 0.55984527 0.31312615
000120 98 4c 80 3f 26 08 b4 3e b8 e8 cf 3e af 00 b2 3d
       1.0023375 0.35162467 0.40607238 0.08691537
000130 3a af 48 be 44 b2 dc 3e 29 35 dc 3d e7 99 a9 3e
       -0.19598094 0.43104756 0.10752327 0.3312523
000140 29 c6 ed bd 05 00 24 3f 11 7c e2 3e c4 7f c6 3e
       -0.11610062 0.6406253 0.4423528 0.38769352
000150 9e 98 5d 3e 91 8b c8 bd 55 96 7e 3e a0 5c 1a 3e
       0.2164025 -0.09792245 0.24862035 0.15074396
000160 08 42 64 3e 17 61 26 3e 02 75 02 be 4d 79 87 3e
       0.22290814 0.16247974 -0.12739947 0.26459733
000170 cc b1 d3 3e d2 bb ed be 37 80 43 3e 3a 06 ac be
       0.41346586 -0.46432358 0.19091879 -0.335985
000180 e2 fa 06 be b1 cd bd 3e 56 17 d5 be ca 3f 21 3f
       -0.13181642 0.37070993 -0.41619366 0.6298796
000190 22 24 0a 3f 69 30 ef 3e e2 c0 70 be 6b b8 4e be
       0.53961384 0.46716622 -0.23511079 -0.20187537
0001a0 61 2c 32 bf 70 39 13 bf 93 03 52 be 74 0c 5e 3e
       -0.69598967 -0.5750952 -0.20509176 0.21684438
0001b0 ef 72 10 be b7 27 f5 be 90 cd c8 bd 81 d5 93 3e
       -0.14106344 -0.47881863 -0.09804833 0.28873828
0001c0 1a 31 c4 3e ee e4 0c bf 67 b7 98 bd 51 dc 83 be
       0.38318712 -0.5503682 -0.07456856 -0.25754026
0001d0 43 e7 9d 3e 36 10 da be c1 8e fa bd f7 c5 00 be
       0.308405 -0.42590493 -0.122342594 -0.12575518
0001e0 c5 93 f3 3d 35 5b 28 bd dc 5d cf bd b4 e2 a4 3e
       0.11893419 -0.041102607 -0.10125324 0.3220421
0001f0 31 6b e8 3e 50 37 b4 3e ca 4a 9a 3e 52 1d 4b 3f
       0.4539428 0.3519845 0.30135185 0.79341614
000200 0f 8e 93 3e fd c9 d7 be 78 dc 55 be 38 47 21 3d
       0.2881932 -0.42146292 -0.20884883 0.03937456
000210 68 33 38 bf 6f 3d 82 be 89 a4 10 bf 23 8b 8c 3e
       -0.7195344 -0.25437495 -0.5650106 0.27449903
000220 1b 0e ec 3e c0 4a 99 3e 0d 13 d5 3e e2 16 66 be
       0.46104512 0.29939842 0.41616097 -0.22469667
000230 7d 20 8c 3e 42 5b 04 be 6d d7 c9 be 77 cc 0a bf
       0.27368537 -0.12925437 -0.3942217 -0.5421824
000240 21 0c 97 be 3b ff c5 3e 3b e5 80 3e 7f 11 f5 3d
       -0.2950144 0.38671288 0.2517489 0.11966228
000250 bd e1 e8 be d3 61 d6 3e f2 6a 24 be e2 81 b1 3e
       -0.45484725 0.4187151 -0.16056421 0.34669405
000260 2b 3f af 3e c1 8c ae 3e b1 83 df be cd 57 06 bf
       0.3422788 0.34091762 -0.4365516 -0.52477723
000270 88 81 90 3e da 62 54 3e c3 15 b2 3e a3 88 be 3e
       0.28223825 0.20740834 0.34782228 0.3721362
000280 10 61 b0 3e ba ac 96 3e 3b 9a 80 3e 5a 96 71 3e
       0.34449053 0.29428655 0.25117669 0.23592511
000290 32 46 df 3e b6 67 99 be 98 63 09 3a f4 19 89 3f
       0.43608242 -0.29961938 0.0005240976 1.0711045
0002a0 2e 49 88 be 41 58 91 be 23 6c 8e 3d 15 00 91 3e
       -0.26618332 -0.28387645 0.06954219 0.28320375
0002b0 ea 22 c6 3e 02 fd 30 3d d5 5a a1 be 17 7c 74 be
       0.38698512 0.043210037 -0.31514612 -0.23875462
0002c0 c1 9f 5c 3e d8 3b ad 3e b3 25 a8 3e 62 c5 a7 be
       0.21545316 0.3383472 0.32841262 -0.3276778
0002d0 e7 d5 87 be c8 98 ee 3e 93 2a d2 be bc 65 bd 3e
       -0.26530382 0.46600938 -0.41048107 0.3699168
0002e0 3e 8b 86 3e 25 e3 02 bf 36 9d 87 3e 75 33 bc 3e
       0.26278108 -0.51127845 0.2648713 0.3675801
0002f0 51 06 0d bf 21 f3 7a 3e f5 d9 c9 3e cb 10 b4 be
       -0.55087763 0.24506809 0.394241 -0.35169062
000300 fc 8e c6 3e 49 03 63 3c f5 6d 99 be fe 3f 4e be
       0.38780963 0.013855764 -0.29966703 -0.20141599
000310 c6 b9 9e 3e b5 1e c9 3d 4a 54 7c 3e 5b c6 54 3f
       0.3100111 0.0982031 0.24641529 0.83115166
000320 ec 6d bf 3d 10 b2 50 3f 4e 1f 67 3e 03 89 8e bc
       0.09347138 0.815217 0.22570536 -0.017399317
000330 04 12 b9 be f1 30 f4 3e 89 36 35 3e 90 fb a9 3e
       -0.36146557 0.4769359 0.17696585 0.3319974
000340 e2 0a e9 be 57 ee 08 3f 06 c1 ef 3e 2a 96 cd 3e
       -0.45516115 0.5348868 0.46826953 0.4015363
000350 37 2b ae 3e 0f 00 71 3e 16 0f 80 3e fd 4e 99 3e
       0.34017345 0.23535179 0.2501151 0.29943076
000360 00 b7 8b 3e 64 66 b9 3d fe 77 22 be 78 07 6d 3e
       0.27288055 0.090527326 -0.15866086 0.2314738
000370 ae 7f 86 3e 5f 39 1a bf 59 ec 78 3e a3 2e bd be
       0.26269287 -0.6024379 0.2430891 -0.36949643
000380 b8 ac 21 bf 9e 4e 8d 3e ad 48 09 bf 8f 4a f7 3e
       -0.6315417 0.27599043 -0.5362652 0.4829907
000390 3d 95 dc 3d 0f 98 66 3e 16 3d e9 be 59 78 06 bf
       0.107706524 0.22518943 -0.45554417 -0.52527386
0003a0 96 a3 01 bf ca 59 8c be ed 1e 82 be c4 a4 85 3e
       -0.5064024 -0.27412254 -0.2541422 0.2610227
0003b0 48 9a 81 be be f5 1b bf 96 14 6a be 3f f5 92 3e
       -0.2531302 -0.6092185 -0.22859415 0.28702733
0003c0 18 d6 3e 3e 7d 67 59 be a1 5d e1 be 24 a2 f2 be
       0.18636358 -0.21230884 -0.44016746 -0.47389328
0003d0 02 38 e9 3e b4 9c d6 be 92 26 a1 be 18 66 18 be
       0.45550543 -0.4191643 -0.3147474 -0.14882696
0003e0 94 70 c0 3b 1d 35 b0 be e8 e8 62 be fb b3 be 3e
       0.0058727954 -0.34415522 -0.22159159 0.3724669
0003f0 93 45 ee 3e dd e9 27 3e b4 f8 c3 3e ff 38 6c bd
       0.46537456 0.16397806 0.38275683 -0.057671543

out.bias f4 [5]
000000 52 79 37 bf 79 24 a1 be a4 04 0e 3f f7 4d ec bd
       -0.71669495 -0.3147314 0.5547583 -0.11538308
000010 49 8e 36 bf
       -0.7131086

exp_avg_sq f4 [128, 28]
000000 38 cd b6 44 2f 43 c7 44 89 42 22 45 d1 4e cd 44
       1462.4131 1594.0995 2596.1584 1642.463
000010 ae 44 1d 45 d1 7f e0 45 98 8a 96 45 1d cf 65 45
       2516.2925 7183.977 4817.324 3676.9446
000020 22 eb 2a 45 09 87 db 44 65 a1 d8 44 d7 a1 a0 44
       2734.6958 1756.2198 1733.0436 1285.0575
000030 19 ff ae 44 4d 7a ec 44 91 c6 86 45 cf 8d a5 45
       1399.9718 1891.8219 4312.821 5297.726
000040 30 b3 40 46 1f 60 6d 46 60 42 af 44 ab a8 85 43
       12332.797 15192.03 1402.0742 267.31772
000050 05 dd 12 43 12 31 25 43 b9 4a be 44 81 71 b5 44
       146.86336 165.19168 1522.3351 1451.547
000060 f6 6d ff 44 3f 64 85 47 ff 66 9e 42 99 62 3f 49
       2043.4363 68296.49 79.201164 783913.56
000070 f6 ed 6c 47 77 26 99 46 51 1f e9 46 de c4 d8 46
       60653.96 19603.232 29839.658 27746.434
000080 9f 61 18 47 99 eb 20 48 fb 98 5a 48 11 f7 1d 48
       39009.62 164782.39 223843.92 161756.27
000090 a4 81 17 48 08 bb 65 48 f4 a9 1a 49 dc 2c 32 49
       155142.56 235244.12 633503.25 729805.75
0000a0 f1 c8 02 49 78 03 80 48 dc ce 61 48 29 33 43 48
       535695.06 262171.75 231227.44 199884.64
0000b0 46 c4 58 48 e3 ee 51 48 a9 9c 58 48 9e b0 c0 48
       221969.1 214971.55 221810.64 394628.94
0000c0 c3 2d 88 49 69 29 d0 49 78 16 b4 49 5c 15 69 47
       1.1155764e+06 1.7052611e+06 1.475279e+06 59669.36
0000d0 6c f4 d5 47 e5 d1 05 4b 68 0c db 45 82 d4 e6 4a
       109544.84 8.770021e+06 7009.551 7.563841e+06
0000e0 e9 12 d2 44 1a a2 72 44 bd fa bd 44 b5 3c a3 45
       1680.591 970.53284 1519.8356 5223.5884
0000f0 3d 2b 96 46 9a 42 e8 46 40 c1 fa 46 47 5c a2 46
       19221.62 29729.3 32096.625 20782.139
000100 dd 5b 84 46 62 8f a9 46 e8 11 12 47 3f 54 0b 47
       16941.932 21703.691 37393.906 35668.246
000110 e8 c1 9c 46 6e dd 91 46 c7 1b a0 46 e8 05 8c 46
       20064.953 18670.715 20493.889 17922.953
000120 72 35 a0 46 ee d8 82 46 58 ae 81 46 4a 1d 02 47
       20506.723 16748.465 16599.172 33309.29
000130 b1 a4 b5 47 cd 97 a4 47 bc de 81 46 92 b3 cd 44
       93001.38 84271.6 16623.367 1645.6116
000140 b4 27 3c 46 c5 ab fe 48 da fd ff 43 9c a4 88 49
       12041.926 521566.16 511.98322 1.1193795e+06
000150 3f b6 a8 45 73 5a 27 45 b1 82 3c 45 d4 af 38 45
       5398.781 2677.653 3016.1682 2954.9893
000160 00 7c 8d 45 e6 78 a5 45 d5 89 04 46 78 9e 16 47
       4527.5 5295.1123 8482.458 38558.47
000170 ba 78 69 47 1d 9f b6 47 5d cd 08 48 fa 2c ef 47
       59768.727 93502.23 140085.45 122457.95
000180 06 d0 6a 47 48 b2 13 47 d4 8c eb 46 04 f1 ca 46
       60112.023 37810.28 30150.414 25976.508
000190 e1 4a 06 47 3f 0f 20 47 8b 63 68 47 16 c7 01 48
       34378.88 40975.246 59491.543 132892.34
0001a0 ea b2 ce 48 42 c0 99 48 7f 87 20 47 4b b6 a3 45
       423319.3 314882.06 41095.496 5238.7866
0001b0 7c 1e bf 46 35 ae d4 49 37 3b b8 44 e6 b8 c9 49
       24463.242 1.7422786e+06 1473.8505 1.6525088e+06
0001c0 be b3 2d 45 e0 70 4e 44 1a 64 2b 44 b1 c4 77 44
       2779.234 825.7637 685.5641 991.0733
0001d0 de f7 55 45 58 d0 70 45 b2 8d 93 45 e9 4e 51 45
       3423.4917 3853.0215 4721.712 3348.932
0001e0 a2 0d 84 45 58 76 e9 45 f3 22 b7 46 79 74 f4 46
       4225.704 7470.793 23441.475 31290.236
0001f0 06 3f bc 46 6c 95 37 46 c6 98 04 46 71 54 d8 45
       24095.512 11749.355 8486.193 6922.555
000200 b5 9c d5 45 66 8a d0 45 c2 95 01 46 70 49 6f 46
       6835.5884 6673.3 8293.439 15314.359
000210 25 db 20 47 fa 06 84 47 69 f3 84 47 25 10 2c 45
       41179.145 67597.95 68070.82 2753.009
000220 c8 a2 49 45 9b 55 a7 48 22 2e 80 43 0d c4 9d 48
       3226.1738 342700.84 256.3604 323104.4
000230 ae e7 61 46 65 bb 97 45 ef 9c 22 46 b3 12 ab 46
       14457.92 4855.4243 10407.233 21897.35
000240 7b 13 37 47 61 a6 89 47 e2 cd 82 47 cb 48 37 47
       46867.48 70476.76 66971.766 46920.793
000250 26 cc 27 47 85 37 6a 47 b4 84 03 48 ed b2 23 48
       42956.15 59959.52 134674.81 167627.7
000260 4e 9e fe 47 29 64 8f 47 35 30 7f 47 c0 a9 5c 47
       130364.61 73416.32 65328.207 56489.75
000270 4e a2 6f 47 e2 64 61 47 f8 39 73 47 8d e0 df 47
       61346.305 57700.883 62265.97 114625.1
000280 d7 f4 85 48 ff 10 b1 48 ab 70 ac 48 1d 88 5e 46
       274342.72 362631.97 353157.34 14242.028
000290 fb 27 da 46 6c 71 06 4a bf 6c e7 44 7a 13 28 4a
       27923.99 2.202715e+06 1851.3983 2.7537585e+06
0002a0 54 f0 4b 45 ae 2e 8a 45 48 e3 7c 46 63 1e 03 47
       3263.0205 4421.835 16184.82 33566.387
0002b0 fb fb 62 47 b6 d4 90 47 68 0e 80 47 ea f3 53 47
       58107.98 74153.42 65564.81 54259.914
0002c0 01 8c 4a 47 9e e1 87 47 86 79 96 47 c5 1d 76 47
       51852.004 69571.234 77043.05 63005.77
0002d0 1c 1a 13 47 55 ff 1e 47 32 b8 31 47 d6 5b 1e 47
       37658.11 40703.332 45496.195 40539.836
0002e0 20 63 47 47 95 06 4c 47 41 f6 4b 47 d5 c2 d1 47
       51043.125 52230.582 52214.254 107397.664
0002f0 2c 25 88 48 52 ab 08 48 47 de 15 46 92 30 45 45
       278825.38 139949.28 9591.569 3155.0356
000300 bf 32 cb 46 62 68 a1 49 af 8a b1 44 2c 9e 22 4a
       26009.373 1.3222522e+06 1420.3339 2.664331e+06
000310 4b 9c 0d 44 69 64 75 44 00 c7 7e 45 6d 55 f4 45
       566.4421 981.5689 4076.4375 7818.678
000320 6b fb 3e 47 a7 bc 81 47 70 06 cf 46 38 98 af 46
       48891.418 66425.305 26499.219 22476.11
000330 31 bf 38 46 29 b1 ce 45 ab c5 b7 45 ba 50 c5 45
       11823.798 6614.145 5880.7085 6314.091
000340 ee bd 02 46 30 54 ef 46 33 37 00 47 3a 20 b3 46
       8367.482 30634.094 32823.2 22928.113
000350 1d 51 ce 46 f6 17 8f 46 a5 1c 81 45 e2 0a 9f 44
       26408.557 18315.98 4131.5806 1272.3401
000360 e5 43 21 44 99 4b f8 43 fa d8 f3 43 57 cb 09 44
       645.06085 496.5906 487.69513 551.1772
000370 b5 17 02 46 d5 d7 2e 48 da ab dd 43 07 1d 7c 4a
       8325.927 179039.33 443.3426 4.1306258e+06
000380 af aa 15 47 34 ab 1a 46 8b c7 d9 45 23 e8 f2 45
       38314.684 9898.801 6968.943 7773.017
000390 cd 2c 42 46 69 d2 3b 46 ac 24 c2 45 75 ee 9c 45
       12427.2 12020.603 6212.584 5021.807
0003a0 bc 04 30 46 bd c8 bf 46 5e 03 19 47 0b 5a 31 47
       11265.184 24548.37 39171.367 45402.043
0003b0 0f d9 05 47 a2 23 cc 46 2a 0b 89 46 c4 7f 5d 46
       34265.06 26129.816 17541.582 14175.941
0003c0 a4 2f 61 46 28 09 59 46 c0 84 5b 46 ee 00 df 46
       14411.91 13890.289 14049.1875 28544.465
0003d0 8a cc 9e 47 1f e8 bc 47 93 a1 8a 47 1b 40 15 47
       81305.08 96720.24 70979.15 38208.105
0003e0 a8 92 88 45 3c 15 0e 49 3b 1c 35 44 d1 2e 9b 49
       4370.332 581971.75 724.4411 1.2712581e+06
0003f0 2d 24 2c 2e a3 2b fa 2d e1 e4 dc 2d 28 7a b7 2d
       3.9140403e-11 2.8441088e-11 2.5112747e-11 2.085894e-11

exp_avg f4 [128, 28]
000000 10 70 b7 3f 42 e2 94 c1 76 77 36 c1 34 f7 1e c1
       1.4331074 -18.610477 -11.404165 -9.935352
000010 87 8d 13 c1 df 4d ff c0 49 2a d2 bf 2f 46 1c c0
       -9.222053 -7.9782557 -1.6419154 -2.4417837
000020 31 c0 75 c0 ce bf c4 c0 13 3f 29 c1 de 1a 51 bf
       -3.8398554 -6.1484137 -10.577899 -0.8168162
000030 cf 5f 83 bd 7d 51 fe bf 19 2a bf c0 11 a8 64 c1
       -0.064147584 -1.9868618 -5.973889 -14.291032
000040 c8 c2 8d c1 82 45 27 c1 ee 06 5e c0 71 5b b0 3f
       -17.720108 -10.45447 -3.469173 1.3777906
000050 b7 64 7d 40 19 60 c7 40 dc 18 20 c1 d4 6b be 3f
       3.9592721 6.2304807 -10.006069 1.4876657
000060 10 14 18 41 0a 7b 48 c2 fa be 93 3f 86 61 69 c2
       9.504898 -50.120155 1.1542656 -58.345238
000070 e3 28 2d 42 94 d2 8c 41 25 c5 21 40 6b 09 b8 40
       43.28993 17.602821 2.5276577 5.7511497
000080 b2 4e c6 40 0d cd 01 41 c4 85 c8 40 a5 51 43 41
       6.1971064 8.112561 6.266329 12.207433
000090 8d aa 8c 41 ba a4 f6 41 62 3a 0d 43 c7 17 0e 43
       17.583277 30.830433 141.22806 142.09288
0000a0 a9 12 ff 42 ae 06 9d 42 bf 83 74 42 a8 e4 4f 42
       127.536446 78.51305 61.12866 51.973297
0000b0 e5 cd 36 42 99 51 47 42 27 a8 4c 42 d0 c8 71 42
       45.70107 49.829685 51.16421 60.446106
0000c0 7b 78 ce 42 8b be 41 43 de dc 66 43 19 1d 2b 42
       103.23531 193.74431 230.86276 42.778416
0000d0 98 f8 fb 41 80 60 c7 43 67 8b 1d 41 94 7d 7f 43
       31.496384 398.7539 9.846534 255.49054
0000e0 fd 1e c7 bf 5b 02 72 bf ca 14 1a bf a6 4d 03 40
       -1.5556332 -0.94534844 -0.6018797 2.0516143
0000f0 b1 d7 3f 40 bd 9c d8 3f e5 de 7c 3f 76 62 a8 3e
       2.9975398 1.6922833 0.9877761 0.3288762
000100 1d 73 ad be 48 26 ba bf 59 b9 e6 c0 30 b8 fc c0
       -0.33876887 -1.4542933 -7.2101254 -7.897484
000110 ee 4c 8d c0 0e ab 2f c0 c5 59 a2 bf a6 60 87 bf
       -4.415641 -2.7448153 -1.2683645 -1.057637
000120 69 d3 0b c0 35 c3 f0 bf db fd b9 bf 6c 0f 6c bf
       -2.1847785 -1.8809572 -1.4530596 -0.9221103
000130 e6 62 92 c0 54 f9 6f c1 51 70 80 c0 99 47 c4 bf
       -4.5745726 -14.998371 -4.0137105 -1.533435
000140 c9 f5 ef bf a3 98 8c c1 05 57 ff be 51 af 9a c1
       -1.8746883 -17.57453 -0.49871078 -19.335604
000150 7b a5 8e c0 27 56 33 c0 57 32 24 c0 d2 40 36 c0
       -4.4577003 -2.8021333 -2.5655725 -2.8477063
000160 14 c0 86 c0 51 6e 3c c0 15 aa 0e c0 17 8f 45 c0
       -4.210947 -2.9442332 -2.229131 -3.0868585
000170 77 c9 6d c0 79 34 fb c0 e9 63 a9 c1 33 d3 bc c1
       -3.7154214 -7.8501554 -21.173784 -23.603125
000180 b1 7c 6b c1 93 70 36 c1 c3 91 17 c1 4e 50 0b c1
       -14.717942 -11.402484 -9.473086 -8.707106
000190 55 34 08 c1 73 f4 0e c1 e4 8f 20 c1 92 3a 62 c1
       -8.512776 -8.93468 -10.03513 -14.139299
0001a0 41 cd be c1 7a 5f 20 c2 95 28 30 c1 65 36 8d c0
       -23.850222 -40.09324 -11.009908 -4.41289
0001b0 d1 2c 4e c0 ee 63 8a c2 84 5e f9 bf 14 2e 6e c2
       -3.2214854 -69.195175 -1.9481969 -59.545
0001c0 5b ca 0e c1 b6 a8 8d c0 fc 16 48 c0 5d 03 2b c0
       -8.924403 -4.4268446 -3.1264029 -2.6720803
0001d0 75 f2 6e bf 28 33 ca bf f1 e5 ec bf 3d a5 20 c0
       -0.9333871 -1.5796862 -1.8507673 -2.5100853
0001e0 0e 4c 5d c0 a3 95 f4 c0 f5 00 d8 c1 50 db d7 c1
       -3.457767 -7.643266 -27.000467 -26.982086
0001f0 2b bb c6 c1 1b ca 7b c1 fe 4f 52 c1 09 39 3e c1
       -24.84139 -15.736842 -13.144529 -11.888925
000200 35 40 15 c1 e4 61 21 c1 25 1d 2f c1 73 4d 4e c1
       -9.328176 -10.086399 -10.944615 -12.8939085
000210 66 99 9e c1 0d 91 12 c2 2d f2 2e c2 35 b5 0d c1
       -19.824902 -36.64165 -43.7365 -8.85674
000220 34 eb b1 c0 47 9a 9e c2 7d b0 06 c0 e1 7a 62 c2
       -5.5599613 -79.30132 -2.104522 -56.62
000230 81 3e 9c c1 ca de 16 c1 44 e5 2d c1 45 b1 b2 c0
       -19.53052 -9.429392 -10.868473 -5.5841393
000240 9d f3 a8 3f a7 bf 97 3e 58 55 ad bf 89 80 44 c0
       1.3199345 0.29638407 -1.354167 -3.0703452
000250 d3 d2 ce c0 4c 19 44 c1 2d 03 64 c2 3a 44 74 c2
       -6.4632354 -12.256176 -57.0031 -61.066628
000260 84 73 5c c2 a4 63 06 c2 d4 09 c3 c1 b3 b8 9a c1
       -55.11281 -33.597305 -24.379799 -19.340185
000270 4a 60 99 c1 16 27 af c1 86 8e b8 c1 f0 f4 cd c1
       -19.172016 -21.894085 -23.069592 -25.744598
000280 98 13 13 c2 93 91 9e c2 76 84 c2 c2 9b 5a 9a c1
       -36.769135 -79.284325 -97.25871 -19.29424
000290 4f ba 71 c1 19 6b 2f c3 9b 02 87 c0 a0 ee f2 c2
       -15.1079855 -175.41835 -4.219068 -121.466064
0002a0 61 f8 80 c0 80 6b 88 c1 87 04 b5 c1 2e 14 65 c1
       -4.0303197 -17.05249 -22.62721 -14.317427
0002b0 2c b3 22 c0 ee ae b5 c0 a4 5a a7 c0 dd 24 c1 c0
       -2.5421858 -5.6776037 -5.2298145 -6.03575
0002c0 9b 83 e0 c0 4a 14 e7 c0 dd 59 87 c1 b5 4d 91 c1
       -7.016065 -7.2212267 -16.918879 -18.162943
0002d0 21 29 3d c1 25 6e 1f c1 cf b8 f5 c0 46 25 f5 c0
       -11.822541 -9.964391 -7.6788096 -7.6608
0002e0 71 fc 5b c1 52 56 b2 c1 ca 6a 66 c1 56 9d 6f c1
       -13.749131 -22.292149 -14.401072 -14.975912
0002f0 6e 04 1b c1 48 44 cf c1 75 f8 03 c1 ce 0b 80 c0
       -9.688581 -25.90834 -8.248158 -4.001441
000300 9b a3 6d 40 04 b7 a1 c2 9b 7f 0c c0 71 db a8 c1
       3.7131107 -80.85745 -2.1952884 -21.10715
000310 90 a7 65 3e 72 79 23 40 54 21 9c 3f d1 6a 59 3f
       0.22427201 2.5542874 1.2197671 0.84928614
000320 60 b1 31 3f c4 f6 1f 3f 8e 10 17 3f 3d d1 23 3f
       0.6941128 0.6248591 0.59009635 0.6399115
000330 5e d9 28 3f 72 c8 f5 3e a6 a9 cd 3e c7 dc c4 3e
       0.65956676 0.4800449 0.40168494 0.3844969
000340 dd 3a ba 3e 10 81 c6 3e a1 b4 ee 3e d0 be 1d 3f
       0.36373034 0.38770342 0.46622184 0.6161928
000350 fa 2a 82 3f 09 43 1b 40 04 90 9d 3f 8b da 01 3f
       1.0169365 2.4259665 1.2309575 0.50724095
000360 bf fc a8 3e 07 90 85 3e e4 8b 78 3e 65 eb 5e 3e
       0.3300533 0.26086447 0.24272114 0.21769483
000370 d6 14 28 bf 17 a2 93 40 6c ac 62 3e 11 af 7f 41
       -0.65656793 4.6135364 0.22136086 15.980241
000380 66 6f 99 41 2b c3 01 41 38 f5 30 41 f1 26 12 41
       19.179394 8.110148 11.059868 9.134507
000390 b6 2f 15 41 1e d3 03 41 c0 47 84 41 11 c3 19 41
       9.324148 8.239042 16.535034 9.610124
0003a0 22 4c 91 41 cd 74 88 41 8b 84 b6 40 19 47 b7 3c
       18.162174 17.057032 5.7036796 0.02237277
0003b0 c8 b1 bb 3f e2 da bf bf a4 7c 07 41 bd 8b 82 40
       1.466363 -1.4988673 8.46793 4.079558
0003c0 e9 6d a2 c0 21 1c 8d c0 16 76 d3 3f 3a c1 0b 41
       -5.075917 -4.4096837 1.6520412 8.734674
0003d0 86 ac ae 40 a6 7b bf 40 1b a3 16 41 3c 9c 99 41
       5.45856 5.983844 9.414821 19.201286
0003e0 97 7b 75 3f c8 6f c6 c0 e6 b8 a6 40 94 5b df 42
       0.9589171 -6.201145 5.2100706 111.67886
0003f0 04 00 00 00 04 00 00 00 04 00 00 00 04 00 00 00
       6e-45 6e-45 6e-45 6e-45

exp_avg_sq f4 [5, 128]
000000 b8 80 c8 45 0a 06 4f 46 40 b0 93 45 f8 c1 15 46
       6416.09 13249.51 4726.0312 9584.492
000010 8d 2f 0a 46 c0 44 51 46 c7 3b 1c 46 d3 1b 71 46
       8843.888 13393.1875 9998.944 15430.956
000020 bd 7a b6 46 a2 50 33 46 9e 02 39 46 96 00 5e 46
       23357.37 11476.158 11840.654 14208.146
000030 d8 79 4b 46 d0 2c 69 45 67 74 1c 46 43 4e 6e 46
       13022.461 3730.8008 10013.101 15251.565
000040 81 43 0f 46 94 ee 29 46 65 64 f3 45 46 41 60 46
       9168.876 10875.645 7788.5493 14352.318
000050 f1 22 35 46 84 c4 35 46 be 7c 78 45 14 63 81 46
       11592.735 11633.129 3975.7964 16561.54
000060 e5 24 3c 46 f1 fb 3c 46 f8 f0 4d 46 01 9b 73 46
       12041.224 12094.985 13180.242 15590.751
000070 c6 51 5d 45 04 0a 2b 46 27 e6 81 46 c0 42 b0 46
       3541.1108 10946.504 16627.076 22561.375
000080 c7 4f 7b 46 4f d9 7e 46 ee 95 b1 46 8c 0d 69 46
       16083.944 16310.327 22730.965 14915.387
000090 b5 dd 9c 46 9c b7 2c 46 4b 53 a0 45 87 a7 96 44
       20078.854 11053.902 5130.4116 1205.2352
0000a0 2e cd 1f 46 d0 0b 15 46 0c 47 fc 45 33 22 40 46
       10227.295 9538.953 8072.881 12296.55
0000b0 90 aa c9 46 4e d2 8b 45 fc 24 ef 45 db d8 fb 45
       25813.281 4474.288 7652.623 8059.107
0000c0 58 41 51 46 e8 c7 0d 46 37 df 50 46 88 53 08 46
       13392.336 9073.977 13367.804 8724.883
0000d0 70 3e 1e 46 56 b5 3f 46 af af d7 45 6f 9b ac 46
       10127.609 12269.334 6901.9604 22093.717
0000e0 14 39 4b 46 99 a6 a8 45 9d e6 72 46 50 77 99 46
       13006.27 5396.8247 15545.653 19643.656
0000f0 9a 56 ed 45 f8 4a 72 46 f8 a4 30 46 a9 96 13 46
       7594.825 15506.742 11305.242 9445.665
000100 23 1e 9c 46 49 8e 84 45 e4 53 89 46 21 c6 3b 46
       19983.068 4241.7856 17577.945 12017.532
000110 39 b3 0d 46 93 24 58 46 1b 0c 3e 46 4d 0c eb 45
       9068.806 13833.144 12163.026 7521.5376
000120 b6 64 c1 44 05 c9 1e 46 8f d2 24 46 6a 17 32 45
       1547.1472 10162.255 10548.64 2849.4634
000130 cd ee 40 46 7e df d1 46 8e 70 cc 45 cf a4 bb 46
       12347.7 26863.746 6542.0693 24018.404
000140 13 83 26 46 7b 64 f5 45 41 03 4a 46 c2 c6 72 46
       10656.769 7852.56 12928.813 15537.689
000150 d6 77 01 47 00 c0 8e 43 00 75 a6 46 44 f8 5c 46
       33143.836 285.5 21306.5 14142.066
000160 38 c9 45 46 cd 18 2f 46 e3 0f d7 45 4b 08 38 46
       12658.305 11206.2 6881.986 11778.073
000170 44 ba 7d 46 51 1b 12 46 6a 7c d0 46 f9 4c 11 46
       16238.566 9350.829 26686.207 9299.243
000180 3e dc 39 45 1b f4 59 46 b4 15 84 46 c0 7b e8 45
       2973.7651 13949.026 16906.852 7439.4688
000190 61 5a 05 46 d2 cc 2d 46 55 52 37 46 e1 c9 24 46
       8534.595 11123.205 11732.583 10546.47
0001a0 da 49 b0 45 77 05 8c 45 7a cc 29 46 c9 f5 67 46
       5641.2314 4480.683 10867.119 14845.446
0001b0 3a 14 cd 45 77 e4 20 46 16 24 b3 45 73 da 73 46
       6562.5283 10297.116 5732.5107 15606.612
0001c0 19 07 6e 46 62 76 a7 45 20 2c ee 45 5e 28 52 46
       15233.774 5358.798 7621.5156 13450.092
0001d0 00 24 8c 46 be 16 21 46 09 7f 05 46 06 d4 9e 45
       17938.0 10309.686 8543.759 5082.503
0001e0 f9 3f 1d 45 ef 58 02 46 08 97 f3 45 48 ad 19 46
       2515.9983 8342.233 7794.879 9835.32
0001f0 db 04 81 46 7b 27 5f 46 b0 88 a9 46 e6 77 3e 45
       16514.428 14281.87 21700.344 3047.4937
000200 35 6c 0c 44 f4 e7 4e 44 47 93 0c 44 95 95 9c 44
       561.69073 827.62427 562.3012 1252.6744
000210 4b a8 2e 44 f8 62 8c 44 3a 70 18 44 d3 38 c7 44
       698.6296 1123.0928 609.75354 1593.7758
000220 9d 4c de 44 ef ca ce 44 e7 14 b2 44 26 e3 d7 44
       1778.3942 1654.3417 1424.6532 1727.0984
000230 dd c7 d7 44 c6 25 6c 44 89 03 90 44 6b 42 a4 44
       1726.2457 944.5902 1152.1105 1314.0756
000240 22 5b 8a 44 c0 9d 7e 44 48 39 70 44 30 dc 13 45
       1106.8479 1018.46484 960.895 2365.7617
000250 ba 24 54 44 bc 89 85 44 be c0 0b 44 7f 92 e0 44
       848.57385 1068.3042 559.0116 1796.578
000260 2d ab e1 44 13 04 78 44 4a cb 95 44 e1 12 3e 44
       1805.3492 992.06366 1198.3528 760.295
000270 75 ab b7 43 23 c6 88 44 80 d1 06 45 b8 e6 e7 44
       367.3395 1094.1918 2157.0938 1855.21
000280 1c 6a 5a 44 bd a5 e7 44 4a ed c6 44 6b e2 a6 44
       873.65796 1853.1793 1591.4153 1335.0756
000290 ae 09 b4 44 90 3c 6d 44 d6 1a 43 44 88 d4 27 43
       1440.3025 948.9463 780.4193 167.8302
0002a0 be 58 68 44 0d 0a 70 44 4d 0b 37 44 e1 cb aa 44
       929.3866 960.15704 732.1766 1366.3712
0002b0 14 96 0b 45 63 fc 16 44 c1 c0 4d 44 d7 dd b3 44
       2233.38 603.94354 823.0118 1438.9325
0002c0 b5 6b 09 45 09 91 18 44 8f 54 e7 44 ad 3f bc 44
       2198.7317 610.2662 1850.6425 1505.9899
0002d0 cb 82 83 44 c4 0c 8d 44 be 53 0d 44 86 12 f6 44
       1052.0873 1128.3989 565.3085 1968.5789
0002e0 42 bf a9 44 69 c4 bc 43 c7 f0 e7 44 57 08 d8 44
       1357.9768 377.53445 1855.5243 1728.2606
0002f0 a9 93 0f 44 e8 64 c2 44 ba 27 6e 44 68 a6 7a 44
       574.3072 1555.1533 952.6207 1002.6001
000300 a6 58 ca 44 47 88 d1 43 22 a9 db 44 19 50 c3 44
       1618.7703 419.06467 1757.2854 1562.503
000310 87 b5 b7 44 42 fb d6 44 db ff 4e 44 90 da a3 43
       1469.6727 1719.8518 827.99774 327.70752
000320 19 ab c5 42 96 1c d5 43 4d c8 df 44 b1 ca 9c 43
       98.834175 426.22333 1790.2594 313.58353
000330 f6 61 7a 44 7b 52 a1 44 14 79 48 44 78 0d ff 44
       1001.53064 1290.5775 801.89185 2040.4209
000340 82 4a 47 44 68 21 5a 44 04 ad 97 44 f2 4d 86 44
       797.1642 872.522 1213.4067 1074.4358
000350 c4 47 34 45 40 d0 89 42 60 21 0c 45 2c 72 d4 44
       2884.4854 68.90674 2242.086 1699.5679
000360 2b 79 8a 44 6b e0 e6 44 8f 85 45 44 9a 6e db 44
       1107.7865 1847.0131 790.08685 1755.4563
000370 f5 69 b1 44 b6 c0 83 44 6e b4 2c 45 21 34 4a 44
       1419.3112 1054.0222 2763.2769 808.8145
000380 d2 0b 20 44 fb 8f bc 44 2a 58 b1 44 61 ac 24 44
       640.1847 1508.4994 1418.7551 658.6934
000390 90 cf a4 44 37 05 bc 44 a8 47 1c 44 8a 0b 1a 44
       1318.4863 1504.163 625.1196 616.1803
0003a0 a9 f4 b0 43 7f 5b 1e 44 4b ff aa 44 d4 f4 e9 44
       353.9114 633.4296 1367.9779 1871.6509
0003b0 1f 4b 2a 44 7d 2f 55 44 c7 9c f2 43 9c 56 ec 44
       681.17377 852.742 485.22482 1890.7065
0003c0 81 2d 41 44 b3 f7 93 44 8e 8a 1a 44 82 f4 aa 44
       772.711 1183.7406 618.1649 1367.6409
0003d0 fe a1 9a 44 b1 ca 5f 44 c3 94 0c 44 20 95 13 44
       1237.0623 895.16705 562.3244 590.3301
0003e0 de ae 83 43 a7 a5 2e 44 93 d4 8e 44 ba 71 61 44
       263.36615 698.5883 1142.643 901.777
0003f0 07 b6 c7 44 33 ed d7 44 17 d0 99 44 20 b5 a2 43
       1597.6884 1727.4125 1230.5028 325.41504
