model/160a.pt (torch_old, 336838 bytes, 24 tensors)

fc1.weight f4 [128, 28]
000000 30 17 b1 bd 8d cf 7e 3c ab ae 94 be d0 2c e6 bd
       -0.08647001 0.015552414 -0.2903951 -0.11239016
000010 95 7b c5 be 9f 52 db be 17 e8 8e bd 28 69 9e bc
       -0.38570848 -0.42836472 -0.069778614 -0.019337252
000020 c2 47 e9 bd 4d b3 b2 3e ba c4 e0 3d 1e 73 1a bf
       -0.1139064 0.3490242 0.109750226 -0.60331905
000030 81 5d 96 be 10 71 bc bd 98 5f 57 3e ad 15 88 3e
       -0.29368213 -0.092012525 0.2103256 0.26579037
000040 75 9f eb 3e 9d 34 99 3e 1d 5f ec be 0b 71 9d bf
       0.46020094 0.29922953 -0.46166316 -1.2300123
000050 5c a0 4c bf 42 a1 cb be 27 a0 ec 3d 04 22 26 3d
       -0.7993219 -0.39771467 0.11553984 0.040559784
000060 ea 64 e5 be 4b 85 f5 3b 46 c7 82 bf ad 6d ac 3d
       -0.44803554 0.0074926964 -1.0217063 0.084193565
000070 35 77 5f 3f 51 eb 2c 3f f9 27 2c 3e 23 fa c1 3d
       0.8729127 0.67546564 0.16812123 0.09471538
000080 71 78 76 bb e0 5d d0 be e2 3d 82 3d bc 95 7f 3e
       -0.003760841 -0.4069662 0.063594595 0.24959463
000090 ef 57 49 3d bd 9c 23 3e 27 10 09 3e a4 96 bb bd
       0.049156126 0.1597776 0.13385068 -0.09159592
0000a0 13 32 56 be 60 2b ab be f0 57 30 bc b9 a6 e4 bc
       -0.2091754 -0.3343153 -0.010763153 -0.02791153
0000b0 5d de 0d 3e a5 03 4c 3d 2a 15 8f be 9a c6 f4 bd
       0.13854356 0.049808163 -0.27945834 -0.11951943
0000c0 af ec 11 3d 71 c1 36 3e 59 ca 4a be 2e f6 46 3f
       0.03562611 0.1784723 -0.19803752 0.7771939
0000d0 72 89 d2 3d 0d a8 21 bd 61 bd 87 3f 2a 3f 63 bd
       0.10280122 -0.039466906 1.0604669 -0.05548016
0000e0 37 a7 64 bf 08 75 3d bf 52 00 af be 86 e2 13 3e
       -0.8931765 -0.740067 -0.34179932 0.1444188
0000f0 aa fd a3 3c 79 1d 5c bd ef 87 ba bc 00 ef 83 3d
       0.020018417 -0.053739045 -0.022769896 0.0644207
000100 63 17 8e 3d b2 a4 27 3e 72 a6 78 3e e4 36 a1 3e
       0.069380544 0.1637142 0.24282244 0.3148719
000110 25 bd 85 3c f2 d8 9e 3d da 26 26 3d b2 70 92 3c
       0.016325543 0.07756223 0.040564395 0.017876003
000120 05 37 d7 bc 48 fd 88 be a7 cd 69 3d f7 a3 11 be
       -0.026271353 -0.26755738 0.05708089 -0.14222704
000130 e2 00 c3 3d c6 e3 90 bd 6a 77 bd be 93 90 84 bf
       0.09521653 -0.07074694 -0.37005168 -1.035662
000140 d2 6d 90 3e 1e ca db 3d b9 38 8f bf d2 ef b2 3d
       0.28208786 0.1073191 -1.1189185 0.08737148
000150 3e 08 29 bf 8d 13 26 bf cd 8e 95 be f9 66 a0 bd
       -0.660282 -0.6487358 -0.2921051 -0.078321405
000160 fe 70 e6 bc 0b e3 c0 bd 55 06 73 be 81 45 76 3d
       -0.02813005 -0.09418305 -0.23732884 0.060124878
000170 df a5 e6 3d 64 ed 95 3e 7f e2 ad 3e 70 f7 c0 3d
       0.11262106 0.29282677 0.33961865 0.09422195
000180 c5 ef 21 bc 09 dd f4 bb cf b0 03 be 49 cc b2 be
       -0.009883826 -0.0074726385 -0.12860416 -0.34921482
000190 6f cc 17 be 8c e9 45 be 56 dd bf 3e f9 9f 13 3e
       -0.14824079 -0.19327372 0.37473553 0.14416493
0001a0 8a 00 3e 3e f4 d5 30 3d 7c ae a5 be 74 27 4d bf
       0.18554893 0.04317279 -0.32359684 -0.80138326
0001b0 d2 d7 79 3e cc 9f 0f bd 00 34 70 bf b2 16 0d 3d
       0.24398735 -0.035064504 -0.93829346 0.034445472
0001c0 ef aa 40 bf 69 ef 2e bf 74 3a 4f bd c9 26 b3 bd
       -0.75260824 -0.6833406 -0.050592855 -0.08747632
0001d0 db f3 e6 bd 2c 1f 58 bd 24 ea 12 be 62 10 a3 3d
       -0.112769805 -0.052764103 -0.1434713 0.07962109
0001e0 19 1b bd 3d 57 d9 67 3d 8f 2c 8e 3e f5 8e 6e 3e
       0.09233684 0.056603756 0.2776837 0.23296721
0001f0 91 40 00 bd c8 2b 8e 3d 2e 0b 2e 3e 3f c8 3e 3e
       -0.031311575 0.06941944 0.16996452 0.18631075
000200 14 15 a6 be 5a 78 8b be b2 a4 f2 3c fc b7 9b 3d
       -0.32437956 -0.27240258 0.029619548 0.076034516
000210 94 e2 e0 3d 7d 98 0a 3d ea 9d 25 3e 49 a6 44 bf
       0.10980716 0.03383683 0.1617352 -0.7681623
000220 20 da 86 3e 97 8e 01 3e 24 ce 75 bf a1 22 6d 3d
       0.2633829 0.1265205 -0.9601767 0.057894353
000230 2e 4b 36 bf 67 75 8e bf 29 73 22 bf 57 51 8b 3e
       -0.71208465 -1.1129578 -0.6345697 0.27210495
000240 3d 4c 4e 3e 74 38 18 3e 79 99 33 bd b1 42 a1 3d
       0.2014627 0.14865285 -0.043847535 0.078740485
000250 10 5e d4 3d 3e 00 ee 3d e7 24 4f 3e 80 83 82 3d
       0.103695035 0.1162114 0.20228921 0.06372738
000260 cf 4f cb 3d 7a e9 37 bd 5a 6f f8 3c 1d 7e 32 3e
       0.09927332 -0.044900395 0.030326534 0.17430921
000270 4e 13 b9 3b 9c 83 b2 3d 4a 08 84 3d fb 93 51 3e
       0.0056480533 0.08716509 0.064468935 0.20466606
000280 90 2a 0a be ca 8c bf 3d 1f e6 78 3e a3 4f 51 bf
       -0.13492799 0.09353025 0.24306534 -0.8176214
000290 98 6b 96 3e 6c 80 10 3e 9a cc 73 bf 27 15 a5 bd
       0.29378963 0.14111489 -0.9523407 -0.08060675
0002a0 43 68 24 bf d2 45 e9 3d 1b a6 09 be c6 ba 91 bd
       -0.6422159 0.1139027 -0.1344227 -0.07115702
0002b0 88 a4 52 3e b3 9d 1d 3d 2f 00 96 3e ff 04 09 3e
       0.20570576 0.03848047 0.29297015 0.13380812
0002c0 68 89 50 3e f4 c6 21 3e eb 4f d8 3e ff f0 83 bc
       0.20364916 0.15798551 0.42248473 -0.016106127
0002d0 ef 7c 32 be 40 2d 1e 3d 30 2e cd bd 33 07 7e bd
       -0.17430471 0.038617373 -0.10018575 -0.062018584
0002e0 b2 c4 04 bb 60 cc 80 3e 21 06 9b 3d 7b b9 10 be
       -0.002025884 0.25155926 0.07569528 -0.14133255
0002f0 bb c3 6b 3d 5a d4 17 3e 2b 42 0c bf e0 32 52 bf
       0.05755971 0.148271 -0.54788464 -0.8210888
000300 96 31 47 bd b1 df 74 bc 94 8e 95 bf fa 3b 79 bc
       -0.048631273 -0.01494591 -1.1684136 -0.015212053
000310 a1 fd 32 bf e1 be 17 be e2 6b 58 be 5c ca 60 bd
       -0.69918257 -0.14818908 -0.21134904 -0.054880485
000320 e5 23 b9 bd d9 43 26 3e 92 65 b8 3d b0 ae fe bc
       -0.090400495 0.1623682 0.09003748 -0.031089157
000330 8b 1b e9 3d fb de 2b be 1f 53 ed bd 1a 0e 62 be
       0.113822065 -0.16784279 -0.1158812 -0.22075692
000340 95 79 16 be 40 bf 00 3d a6 04 3a bd c5 2e 5b be
       -0.14694817 0.03143239 -0.04541459 -0.2140456
000350 e9 ea a5 3c 0e 78 49 bd 1b 96 2b bd 5e 5f a1 be
       0.020253615 -0.04918676 -0.0418912 -0.31518072
000360 a2 90 51 bf 2d 41 41 bf 95 92 33 bf 2e 37 5c bf
       -0.8186132 -0.75490075 -0.7014554 -0.860217
000370 25 9e 8c be ed 71 b7 3c 92 5d 74 bf 63 d0 cc 3d
       -0.27464405 0.022393191 -0.95455277 0.10000684
000380 b0 01 b7 3e d9 61 19 3f f8 f6 e9 bd 0f 3e b9 3d
       0.35743475 0.5991493 -0.11424059 0.0904504
000390 2a 4a e1 bc 27 14 8f bd 35 9b de be 3f c2 e5 be
       -0.027501184 -0.06986266 -0.4347779 -0.4487476
0003a0 9e b8 c4 3a f2 34 97 3e 45 51 75 bd f2 86 4f be
       0.0015008633 0.29532582 -0.059891958 -0.20266321
0003b0 76 d4 7e be 5c 00 05 3d 52 5b 63 bc d7 95 88 3d
       -0.24885735 0.032471046 -0.013876753 0.06669205
0003c0 77 ba 38 be 35 46 c3 be c7 63 24 bd a1 86 b1 bd
       -0.1803988 -0.381395 -0.040134218 -0.086682566
0003d0 eb 27 4e 3e 95 49 f5 3d fe 3a 18 bd db a2 e9 3e
       0.20132415 0.11976925 -0.037165634 0.4563206
0003e0 2e d8 4c bf 59 28 d7 bd a3 3c 70 3e 45 35 b1 3d
       -0.80017364 -0.105057426 0.23460631 0.086527385
0003f0 ce 9c 36 3e 2b 34 28 be 13 07 3b bd de b2 02 be
       0.17833254 -0.1642615 -0.045661043 -0.12763545

fc1.bias f4 [128]
000000 4d a2 83 3d 3c b2 25 bc 79 c0 24 bd 0d db fa bc
       0.06427441 -0.010113295 -0.04022262 -0.03062203
000010 34 a9 71 3d bb 0c b3 3d 4a 99 24 3e bb 8f 4e bd
       0.058999255 0.087426625 0.160741 -0.05043004
000020 ca d1 76 be 0a c8 77 bb 65 fc 6c bd 33 88 b4 3d
       -0.24103466 -0.0037808442 -0.05785789 0.088150404
000030 72 34 41 bc 8d 48 c6 3d f9 07 fe 3c 73 6d 47 be
       -0.011792289 0.09681807 0.031009661 -0.19475345
000040 4c 55 2e be 31 6f ed bd 76 bb 0a be 60 87 2d be
       -0.17024726 -0.11593474 -0.13548073 -0.16946173
000050 60 4b 32 bc d0 a6 0c 3d ae 7d ee 3e 8e 0e 3d 3e
       -0.010882229 0.034338772 0.4658026 0.18462583
000060 be 52 92 bd 21 0e 51 be 73 6b d4 bd 8a 5c ec bd
       -0.07144688 -0.20415546 -0.10372057 -0.11541088
000070 c8 2d a7 bc d5 11 22 be e9 71 d1 bd 50 f9 96 3d
       -0.020407572 -0.15827115 -0.10226805 0.07371771
000080 af a4 b5 bd c9 76 f5 bd dc 6d 91 3e fc 79 67 bd
       -0.088693015 -0.11985547 0.2840413 -0.056512818
000090 e9 3a 32 3e 92 40 0f be 6f ce 6e bd 47 01 e5 bd
       0.17405285 -0.13989475 -0.05830234 -0.11181884
0000a0 bd c2 17 be a1 bc 79 3e 5b 8e 79 bc bd 72 03 3d
       -0.1482038 0.24388362 -0.015231694 0.032091845
0000b0 1d 4e ba bb b5 0d 6c be 93 63 1b bc 7e 0a e8 3e
       -0.0056855814 -0.23052104 -0.00948419 0.45320505
0000c0 63 bd 20 3e 14 8c 15 bd 1f 31 00 3c 34 a8 9b 3d
       0.15697245 -0.036510542 0.007824211 0.076004416
0000d0 ea dc 4f be f8 38 47 bd 83 ec ca 3d f4 5a 84 be
       -0.20299116 -0.048638314 0.09908392 -0.25850642
0000e0 f4 b6 3c 3d 28 5f 20 3e d7 96 63 be 13 3b f8 3e
       0.046072915 0.15661299 -0.2222551 0.4848257
0000f0 ff 0a ae 3d d6 79 a2 39 43 5f 58 3e ca 92 07 be
       0.08498191 0.00030989823 0.2113009 -0.1323959
000100 fe 6e 3c 3e 5b 0d 58 3e db fd 8b 3d 1f ff 5e 3e
       0.18401715 0.21098845 0.068355285 0.21777008
000110 e2 d2 08 be 9c 5d 56 3e 72 2f 44 be 3e 83 27 bd
       -0.13361695 0.20934147 -0.19158724 -0.040896647
000120 f7 40 43 be 5e 30 90 bc 6a dd 93 3c 81 5d 2d be
       -0.19067751 -0.017601188 0.018049914 -0.169302
000130 17 b8 a9 3d 57 22 f5 bd a1 a0 54 be 55 df 07 bc
       0.082870655 -0.119694404 -0.207644 -0.008292993
000140 76 2f 12 bd 99 43 76 3c 24 d4 38 3d bf a1 b8 3d
       -0.035689794 0.015030765 0.045124188 0.090152256
000150 a8 67 6d 3e 06 65 ba 3d 4b 03 83 bd e0 23 e1 bd
       0.23184073 0.091013 -0.063971125 -0.10993171
000160 93 d5 8d 3d 5d 3b b7 bc 96 88 50 be df 9a c1 3b
       0.06925502 -0.022367174 -0.20364603 0.0059083547
000170 2c 48 c9 3c 19 64 47 bd 3c 12 75 bd 7d fa bf bd
       0.024570547 -0.048679445 -0.059831843 -0.09373949
000180 f8 ac 01 be a4 69 39 be 7a dd 40 3f 76 87 b5 3d
       -0.12663639 -0.18106705 0.75337946 0.08863728
000190 9f bd c7 3e 56 6f 57 bd c5 ca 75 3d 65 7f fd bd
       0.39011857 -0.052596413 0.06000783 -0.12377814
0001a0 88 e8 f8 3d ac 9d 22 3d 18 cc 89 3c 5b 6b 96 3e
       0.12153727 0.03970115 0.016820952 0.2937878
0001b0 9e ec bc bc 94 0c c3 bd e7 34 01 3d 4b 37 88 3e
       -0.023062047 -0.095238835 0.031544592 0.26604685
0001c0 17 46 10 be b8 4f 85 3d 15 50 cc 3c f8 db 87 bc
       -0.14089237 0.06509346 0.02494053 -0.016584381
0001d0 22 1a 29 be 42 0f 62 bd a0 72 65 3d 81 58 17 bd
       -0.16513875 -0.055190332 0.056017518 -0.03694964
0001e0 14 ce 72 bd 27 12 e5 ba 6d 3c b4 bd d5 07 ed bc
       -0.059278563 -0.0017476723 -0.08800588 -0.028934399
0001f0 18 f4 65 3d 13 b3 65 bb 8f 4c 1e be a1 ea 1d be
       0.05614099 -0.0035049364 -0.15458892 -0.15421535

fc2.weight f4 [128, 128]
000000 74 1d bb be 4b fe 01 bf 2b 99 63 3d 46 9a 38 be
       -0.36545908 -0.50778645 0.055565994 -0.180276
000010 fd 8a c3 3d 53 61 db bc 76 ea db bc fc 50 de 3e
       0.09547994 -0.026779806 -0.026845198 0.4342116
000020 6b 22 f1 bd 78 64 af be 9b 72 59 bd 12 b0 52 be
       -0.11774143 -0.3425634 -0.053087812 -0.20574978
000030 62 f9 81 3e 5d d0 8e 3e 91 9b 41 bd b4 62 b5 be
       0.25385576 0.27893344 -0.0472675 -0.35426867
000040 12 f6 ac bd 1c 4c ee 3c 62 39 74 be df 30 2f bd
       -0.08445372 0.029089026 -0.23850015 -0.042771216
000050 b4 95 b6 be b4 82 24 be 8c 3b 94 3d 3c b0 3b 3e
       -0.3566109 -0.16065484 0.0723792 0.18328947
000060 38 da ae 3d 6c cc 07 bf ea 4f 4a 3e 0c a8 bb 3d
       0.08537716 -0.530463 0.19757047 0.09162912
000070 25 6b 71 3d ed ee 01 bd d4 72 9d bc bf d6 a7 3d
       0.05894007 -0.031721998 -0.019219793 0.081952564
000080 a6 1c 95 3d 39 8f 0c 3f b1 0c 93 3d a8 99 a7 3e
       0.07280855 0.5490604 0.07180155 0.32734418
000090 a2 09 b7 3e 47 57 25 bd bb 64 12 3e fd de 0e bf
       0.35749537 -0.040366437 0.14296238 -0.55809003
0000a0 e2 d5 cd be 77 0f 9c 3d 46 ea f3 3d 21 e3 9d 3e
       -0.40202242 0.07620137 0.119099185 0.30837348
0000b0 0b 07 fb 3b 11 3d f4 be 2b e4 5f 3e d6 38 d5 3d
       0.0076607517 -0.4770284 0.21864383 0.10411231
0000c0 44 15 82 3e 23 10 8a 3c 13 95 8a 3e fa 7d 3f 3e
       0.2540685 0.016853398 0.2706686 0.187004
0000d0 30 33 06 bc eb 3c 9c 3e 86 bb c4 be af df b7 be
       -0.008190915 0.30515227 -0.3842432 -0.35912845
0000e0 a2 79 85 be 96 a4 9c 3e 19 c1 80 3e dc 64 f1 be
       -0.2606936 0.3059432 0.25147322 -0.47147262
0000f0 14 fe c5 3d 30 8d 85 be a8 ad ce 3d 94 5a 49 bf
       0.09667602 -0.2608428 0.10091716 -0.78653836
000100 bf 3f 51 3e bd 89 aa 3e ae 55 95 3e 74 b4 c2 3d
       0.20434473 0.3330821 0.2916693 0.09507075
000110 7b 9d ae bc 54 6e 40 3d a9 27 93 bd 6c 33 1a bb
       -0.021315327 0.046980217 -0.07185299 -0.0023529185
000120 29 a3 af be 32 b6 c9 3e cb 20 9e be 90 43 56 be
       -0.3430417 0.39396816 -0.30884394 -0.2092421
000130 de 87 65 bd f6 e2 1c 3e 22 f8 04 be 4b 19 84 3e
       -0.056037776 0.15320954 -0.1298528 0.25800547
000140 a3 e4 ff bd 8c 79 f1 be ba 84 e0 3c 14 f7 fb be
       -0.12494781 -0.47163045 0.027407039 -0.49211943
000150 cd 23 83 3e 1e 53 e5 3b 91 bb 38 bc 45 f3 0b be
       0.2561325 0.0069984337 -0.011275188 -0.13667019
000160 40 fb bc be 53 a2 83 3d 12 ad cb be 78 86 2e 3e
       -0.3691044 0.06427445 -0.3978048 0.17043483
000170 66 53 b7 be 3f ae 6f bd c1 f9 ba 3c 9a 56 fe bd
       -0.35805815 -0.058515783 0.02282417 -0.12418862
000180 5d 21 cd 3e b7 8c 8a be e7 76 26 be 8a e4 82 be
       0.40064517 -0.27060482 -0.16256295 -0.25564986
000190 c1 72 8c be cc 4a 75 be d0 35 80 3e 62 b4 03 3d
       -0.274313 -0.23954314 0.25041056 0.03215445
0001a0 23 bb 97 3e 8a 56 5d 3d 99 66 26 3e 38 74 32 3e
       0.2963496 0.05403761 0.16250075 0.17427146
0001b0 d8 e7 93 3d a8 cd cf bd bb e2 8b bd 2b 24 24 3e
       0.07221955 -0.10146648 -0.06830355 0.16029422
0001c0 39 44 83 3d f9 80 05 be 2a 9c 6f bd ed 29 d3 3c
       0.06409497 -0.1303748 -0.05849854 0.025776828
0001d0 d5 cd 25 3e 11 6d f3 3e b3 6d 44 3e 00 18 f6 3e
       0.161918 0.4754415 0.19182472 0.48065186
0001e0 c3 97 39 bf 73 43 01 be 5b eb c1 3e e6 d3 d7 bd
       -0.72497195 -0.12623386 0.37874874 -0.10538463
0001f0 b4 25 67 be f2 e3 ed 3e 59 93 90 ba 64 e4 22 be
       -0.22572976 0.4646297 -0.0011030241 -0.15907437
000200 45 35 9f bd 18 92 88 bc 67 c2 ba bb be 6a c9 3e
       -0.07773832 -0.016671225 -0.005699444 0.3933925
000210 7a e1 6d be 1c 75 8c 3e ba f9 27 3e d5 25 dd 3e
       -0.23230544 0.27433097 0.16403857 0.43192926
000220 55 56 34 3e 8c e3 eb 3e b4 29 27 3d 5e 17 83 bd
       0.17611058 0.46072042 0.040811256 -0.06400941
000230 84 f6 0f 3e 99 55 da 3e 9c c4 08 3e 76 44 b8 be
       0.14058882 0.4264343 0.1335625 -0.35989732
000240 3e ff 86 bd 55 66 95 bc 83 a2 e4 3e 27 d7 7c 3d
       -0.06591652 -0.018237272 0.44655237 0.061728623
000250 9c ab 1e 3e db 69 9a be 4a 25 da bd cb 2c 92 bd
       0.15495151 -0.30158886 -0.106516436 -0.0713745
000260 76 2b 44 bd 19 a2 b3 3d 5f 9b 40 be f0 af bb be
       -0.04789301 0.08771152 -0.1880927 -0.36657667
000270 25 7e c4 3e 3b 3f 71 3e 32 5f f1 be f4 df d6 bd
       0.3837749 0.23559277 -0.4714294 -0.104919344
000280 dd f4 e3 3e de 43 d3 3e 2e 01 7b 3e 30 08 32 be
       0.44522753 0.41262716 0.24512169 -0.17385936
000290 00 66 d6 3e cd 3c 20 3d 67 ea 3e 3b 6d 52 da be
       0.41874695 0.039120484 0.0029131414 -0.4264101
0002a0 e3 5a 7a 3e 27 b2 d1 3e 45 86 08 3d b0 b9 70 3c
       0.24448733 0.40956232 0.033331174 0.014692709
0002b0 54 0b 74 3e 50 dc c9 3c ba d6 f1 3d f3 6c 8f 3e
       0.23832446 0.024641186 0.11808534 0.2801281
0002c0 e2 af 05 3e ae b7 bf 3e 4b 4f be 3d 95 c9 52 3d
       0.13055375 0.37444824 0.09292468 0.051461775
0002d0 f0 33 cb bd 07 b3 8e be f6 6b 6f bd e0 87 46 bf
       -0.09922016 -0.27870962 -0.05845257 -0.7755108
0002e0 a4 bb 0e 3e 6a 90 f3 3e e0 2f c0 be 21 86 d9 be
       0.13938767 0.47571117 -0.37536526 -0.42485145
0002f0 77 4a 2d 3f e2 29 5e be 30 bc 86 3e 84 a5 cb bd
       0.6769175 -0.21695665 0.2631545 -0.09943679
000300 83 26 e7 3d 65 bd b2 3d a0 ed 66 3e cc 90 d0 3d
       0.112866424 0.087275304 0.22551584 0.10183868
000310 54 73 46 3d 33 af fd 3d 4a 6d e9 3e 4e fd 8d be
       0.04844983 0.12386932 0.45591193 -0.2773232
000320 dc 4b 5c 3e 98 68 7b be 94 04 68 bc f4 df fe 3e
       0.21513313 -0.24551618 -0.014161248 0.49780238
000330 e5 03 d3 3e dc 73 ef bd 87 76 fa bc d9 e4 1c 3e
       0.4121391 -0.1169202 -0.030574096 0.15321673
000340 50 b6 d7 3e 75 0b c3 3e 9b 83 0e 3f a6 2f d5 3d
       0.4213128 0.3809468 0.55669564 0.10409479
000350 9e 48 e3 bd f3 17 56 be 5e db 26 3d 6f 44 7a be
       -0.11097835 -0.20907573 0.04073655 -0.24440168
000360 fb 86 a7 be 94 39 f0 3e 64 f7 0f 3c e3 b2 04 3f
       -0.3272017 0.4691893 0.00878701 0.5183546
000370 e9 6c c5 3d d2 16 55 be 0e cf 96 bd 28 0d 98 3e
       0.096399136 -0.20809487 -0.07363711 0.29697537
000380 99 12 a0 be cc b1 de 3b a7 f8 92 3c 1c 6b 09 bd
       -0.3126419 0.0067960974 0.017940832 -0.033549413
000390 57 0e da 3e 76 69 09 3f ce 9e 9c bd b0 87 d2 be
       0.42589065 0.53676546 -0.07647477 -0.41119146
0003a0 83 ac c9 3e 45 3d 4f bd 8c fc 79 3e 06 ba 0f 3f
       0.39389428 -0.05059554 0.24412745 0.56143224
0003b0 af ef 1d 3e 95 0b 2c be 23 37 92 3e f1 c3 07 be
       0.15423463 -0.16801293 0.2855769 -0.1325834
0003c0 cf 50 4c 3f 46 4a e4 bd 48 4f 51 3d 4d 17 cd 3e
       0.79810804 -0.11146979 0.051101 0.4005684
0003d0 5e 95 bd be 6c 61 3f 3e dd 50 a6 3e b3 09 a7 bc
       -0.3702802 0.18689507 0.3248357 -0.020390367
0003e0 e5 63 1c be c6 70 a2 3e 9a 55 20 3e 5e 44 a4 3b
       -0.15272482 0.31726664 0.15657654 0.005013033
0003f0 af 97 f3 3e 9d c8 61 3e c4 52 ac 3e f6 ee 50 3d
       0.47576663 0.22049184 0.33656895 0.05100914

fc2.bias f4 [128]
000000 b9 39 94 3d 15 88 98 3d 33 a1 2d be 76 c9 36 be
       0.07237572 0.074478306 -0.16956024 -0.17850289
000010 bc f8 b7 bd 19 da 94 bd b3 9d ca 3d 2f bf 08 be
       -0.08982989 -0.07268161 0.0989336 -0.13354181
000020 f7 7a 27 be 7e c9 37 ba 02 b2 a9 3d 0b a1 d2 3d
       -0.16355501 -0.00070109207 0.082859054 0.10284623
000030 79 73 05 be b4 19 0b be 0c d5 cc 3d f1 35 30 3d
       -0.1303233 -0.13584024 0.10001573 0.043020193
000040 28 c8 80 3e ac d2 b7 3d a7 70 6b 3e 78 2b e2 3c
       0.25152707 0.08975729 0.22992192 0.027608618
000050 75 f4 88 3d 03 d7 d9 bd f3 f6 8e bd be 0c 6e bd
       0.066872515 -0.10636713 -0.069806956 -0.05811762
000060 3b 21 73 be 98 60 e4 3c 39 32 84 3d 31 6f 1a 3d
       -0.23743145 0.02787809 0.06454892 0.037703697
000070 44 ef e6 3d f7 aa 6c bc 15 92 2c be f1 c7 7d bd
       0.11276105 -0.014445058 -0.16852601 -0.061958257
000080 1c 00 4c 3d f6 d5 18 bc d9 cd 84 bd 57 0b af bd
       0.04980479 -0.009328356 -0.06484575 -0.08547085
000090 38 a6 ac bd b5 0f 81 3e 0b 5a e1 bd b7 e7 16 be
       -0.08430141 0.25207296 -0.110035025 -0.1473683
0000a0 eb 25 40 3e 85 9b d2 3d 36 95 95 bd 91 bf 92 be
       0.18764465 0.10283569 -0.0730385 -0.2866178
0000b0 16 e3 3c be 44 62 5d 3e 5a 4c 79 3d eb aa c7 3d
       -0.18446001 0.21619517 0.06086383 0.09749397
0000c0 77 93 0e be 35 c6 88 3d 9c fc eb bd f1 11 e1 bd
       -0.13923441 0.0667843 -0.11522791 -0.1098975
0000d0 40 6a 52 be 96 1b a7 bd 19 4f 60 3e f3 99 73 be
       -0.20548344 -0.081595585 0.21905173 -0.23789196
0000e0 b1 97 4a 3e 7b 7e 07 3d c1 01 31 bd 7b 12 37 be
       0.19784428 0.033079606 -0.043214563 -0.17878143
0000f0 d4 0b 34 bd f4 21 f8 3c bd dc a0 3d b9 b2 18 3e
       -0.043956593 0.030289628 0.078546025 0.14911927
000100 a9 e9 45 be 21 c6 fd bd 2e 73 91 3d 5a 83 50 be
       -0.19327416 -0.12391306 0.07102047 -0.20362607
000110 17 5a e4 3d f7 ef 4c be 84 f1 df 3d 17 6d 7a 3b
       0.11149996 -0.20013414 0.10934737 0.0038211995
000120 92 52 6d 3e fa b5 30 bb 25 c6 c4 3d ec 88 4c 3e
       0.2317603 -0.0026963935 0.096081056 0.19974107
000130 f3 ae af 3c 26 59 09 be 2c dc ff bd 68 e6 05 be
       0.021445727 -0.13412914 -0.12493166 -0.13076174
000140 6c 88 84 3d 2b 74 35 3e ea 18 0a 3e 38 79 e1 3c
       0.06471333 0.17720096 0.13486066 0.027523622
000150 8d af 72 bd 20 33 bc bd a2 22 01 be 20 2b 1c bd
       -0.05924945 -0.09189439 -0.12610868 -0.038127065
000160 2d 4e 04 be 12 94 01 be 34 f9 59 3e 2c 35 f8 3d
       -0.12920447 -0.1265414 0.2128647 0.12119517
000170 40 f7 40 3d a1 39 4a bd 93 44 0b be 08 5a b4 3d
       0.047110796 -0.049371365 -0.13600378 0.088062346
000180 d1 56 0e be 6a 2a 2e bd 03 2a 07 3e c0 38 85 3d
       -0.13900305 -0.042520918 0.1319962 0.06504965
000190 d3 1c d5 3d 74 5c 0b 3e df 3f 61 3c 8c e1 1b bb
       0.104058884 0.13609487 0.013748138 -0.002378556
0001a0 52 61 44 bd b7 e7 6e be 0c 28 6e be 2e 1d 72 be
       -0.047944374 -0.2333058 -0.23257464 -0.23643944
0001b0 e8 2a 9c bd 35 d9 54 3e d6 37 fa 3d 10 68 21 3d
       -0.07625371 0.20785983 0.12217681 0.039405882
0001c0 d1 95 06 3e 26 aa 36 be d8 5b 94 bb 2a 82 d9 3d
       0.13143088 -0.17838344 -0.00452755 0.1062053
0001d0 1a 68 44 be cf 26 24 be bb 52 cb 3d b8 e7 57 be
       -0.19180337 -0.1603043 0.09927889 -0.21084487
0001e0 d4 b9 0b 3e 07 0a 1e 3e cd a8 86 bd ec 34 33 be
       0.13645107 0.15433513 -0.06575165 -0.17500657
0001f0 64 4e 06 3e 6c cc 48 be c4 38 53 bc 2b f0 14 3e
       0.13115841 -0.19609231 -0.012891952 0.14544742

out.weight f4 [5, 128]
000000 61 3d 29 3f 67 7c 82 be 09 cf a8 be 00 fb c4 bc
       0.6610928 -0.25485536 -0.32970455 -0.024045467
000010 03 05 e7 be 83 5d c4 be b3 04 90 bd bd 77 d6 3e
       -0.4512101 -0.38352594 -0.07032146 0.41888228
000020 22 53 13 3f 4d 19 bc 3e a4 9e f7 3e 49 85 a2 be
       0.57548726 0.36738053 0.4836322 -0.31742314
000030 c8 c4 88 3e d9 80 5c 3d 57 86 11 bf 62 78 f3 be
       0.26712632 0.053833816 -0.5684561 -0.47552782
000040 78 f2 96 be a8 ee 39 3f 2a 5b 1b 3f 6e 87 ce 3e
       -0.29481864 0.72629786 0.6068598 0.403377
000050 1e 05 20 be 3f 01 69 3e 29 53 b4 be 97 3b b0 3e
       -0.15626952 0.22754382 -0.35219696 0.34420463
000060 25 c2 c4 3e ee 1c 01 3f ee 1f d8 be 7c bf 7f be
       0.3842937 0.5043477 -0.4221186 -0.24975389
000070 54 62 73 3f 33 49 fc 3d de 77 9c 3e e4 41 b3 3e
       0.9507191 0.12318649 0.305602 0.35011208
000080 09 ca 0c 3f 86 d9 eb 3e 0c 69 d1 3e a5 40 4e 3e
       0.5499578 0.46064395 0.40900457 0.20141847
000090 16 c2 6c 3e 00 49 7b be bf 79 0f 3e ed 67 16 3e
       0.23120913 -0.24539566 0.14011286 0.14688082
0000a0 46 49 48 be 1c a6 ae be 89 ce 42 3d 71 4c cc 3e
       -0.19559202 -0.34111106 0.04756025 0.3990207
0000b0 a1 53 d6 3e 61 7e 50 3b 4d d8 94 be 78 8e 71 be
       0.4186068 0.003181361 -0.29071274 -0.23589504
0000c0 ff e1 aa 3e 21 96 fb 3e 0a 7b ce 3e 3b b5 e3 be
       0.33375546 0.49137977 0.40328246 -0.44474205
0000d0 16 2e d5 be 9e 0c 91 3e 7d 03 30 be d7 8d a9 3e
       -0.41636723 0.2832994 -0.1718883 0.33116028
0000e0 40 8c 16 3f 2f ec 8d bd 33 43 0b 3f 07 52 8f 3e
       0.58807755 -0.06929814 0.5439941 0.2799227
0000f0 d2 60 53 be 39 eb f0 3e 2a f1 e4 3e 18 c1 79 bd
       -0.20642403 0.4705446 0.44715244 -0.060975164
000100 aa 06 bb 3e 65 61 a4 bd 4c 58 bf be 8c 6e 8a be
       0.36528522 -0.08026389 -0.37372053 -0.27037466
000110 17 3b 01 3f 13 1c 2d 3e c3 59 1a 3f e7 c1 a8 3e
       0.5048079 0.1690524 0.60293216 0.32960436
000120 25 0f 82 3f a3 fa bf 3e a1 89 e4 3e e3 49 50 3d
       1.0160872 0.37495908 0.44636253 0.050851714
000130 65 59 58 be 64 8b ed 3e 42 08 1b 3e f3 db cc 3e
       -0.21127851 0.4639541 0.15139869 0.40011558
000140 8a 21 18 be ef c2 2e 3f 64 fd f2 3e c2 33 e1 3e
       -0.14856544 0.68266195 0.47458947 0.439848
000150 26 9f 8d 3e f2 fe 16 be ff ee 92 3e 68 b5 4c 3e
       0.27660483 -0.14745691 0.28697965 0.19991076
000160 8c f4 82 3e 9c 3d 4f 3e fd 61 25 be c6 d6 a1 3e
       0.255772 0.20238346 -0.16150661 0.31609172
000170 d4 d7 f1 3e 2f bf f0 be b8 86 6e 3e 0a 5d b7 be
       0.47234976 -0.47020862 0.23293579 -0.3581317
000180 7f 95 89 bd 4f cc d8 3e c0 8d e7 be e4 bd 2b 3f
       -0.06717967 0.42343375 -0.45225334 0.67086625
000190 19 59 18 3f 99 8e 02 3f 27 93 7c be d4 88 5c be
       0.5951095 0.50998837 -0.24665509 -0.21536571
0001a0 e5 c3 3b bf 79 8c 18 bf 09 14 70 be 16 3d 86 3e
       -0.73345786 -0.59589344 -0.23445143 0.2621848
0001b0 b1 09 15 be 6f ce 02 bf 0b 50 11 be af 62 a5 3e
       -0.14554478 -0.5109624 -0.1419069 0.32301852
0001c0 94 df d4 3e cd 62 1b bf 84 f0 c7 bd 33 3a 8a be
       0.41576827 -0.60697633 -0.097626716 -0.26997527
0001d0 fe 2b bc 3e cf 26 f0 be 76 e3 12 be cd 4b 4d be
       0.36752313 -0.4690461 -0.14344582 -0.20048447
0001e0 2c 74 6a 3d 42 43 2b bd 0e 34 2d be 7e 6d b9 3e
       0.057239696 -0.04181219 -0.16914389 0.36216348
0001f0 e5 b2 f7 3e 8d 9d ce 3e 23 5d aa 3e 97 a8 5d 3f
       0.48378673 0.40354577 0.33274183 0.8658537
000200 e8 b1 60 3e 55 d8 c8 be 9c 85 25 be d7 cd 2e 3c
       0.21942866 -0.39227548 -0.16164249 0.010669193
000210 a5 a2 2a bf 79 43 46 be 30 da 03 bf 8d 1b 63 3e
       -0.66654426 -0.19361676 -0.515048 0.22178479
000220 87 80 c1 3e c9 8d 6f 3e 2d fc d1 3e 41 62 25 be
       0.3779337 0.2339393 0.41012707 -0.16150762
000230 9d 6f 67 3e c5 96 17 be ff 44 ca be 25 73 03 bf
       0.22601171 -0.14803608 -0.39505765 -0.5134757
000240 84 e5 6d be 59 4e 98 3e d4 b8 69 3e f0 92 54 3d
       -0.23232085 0.29747275 0.22824413 0.051897943
000250 05 e2 db be ff fa c7 3e 7a 34 a8 bd eb 5a a2 3e
       -0.42945877 0.39058682 -0.08213134 0.3170999
000260 39 27 a5 3e 14 d5 80 3e c8 2b c8 be e2 f5 f9 be
       0.32256487 0.25162566 -0.39095902 -0.48820406
000270 28 6f 3f 3e 0f b9 23 3e b0 34 9b 3e 43 a1 ab 3e
       0.18694746 0.15988563 0.30313635 0.3352147
000280 55 1a 86 3e 66 c5 85 3e 8e dc 3c 3e 65 a2 1a 3e
       0.26191965 0.26127166 0.1844351 0.15101011
000290 88 fe ba 3e b7 3c 90 be f4 c1 b8 3d 41 9e 91 3f
       0.36522317 -0.28171322 0.090213686 1.137642
0002a0 96 95 7c be 93 12 5f be 82 c4 2d 3d 14 6e 50 3e
       -0.24666438 -0.21784429 0.042423733 0.20354491
0002b0 ff c5 9b 3e 54 d3 f6 3d 63 85 89 be 3c 74 2d be
       0.30424497 0.120520264 -0.26859578 -0.16938871
0002c0 da 19 fe 3d 67 f7 6d 3e 86 cf 98 3e df 37 8e be
       0.124072745 0.23238908 0.29845828 -0.27777
0002d0 78 46 5a be 1c 0a d3 3e 5d b2 cd be 18 8d bc 3e
       -0.21315944 0.4121865 -0.40175143 0.36826396
0002e0 ca 64 60 3e 7b 6e ec be ca f7 55 3e cf c4 96 3e
       0.21913448 -0.4617804 0.20895305 0.29447028
0002f0 d2 51 13 bf f1 85 18 3e fe 2b b0 3e a5 e9 a4 be
       -0.5754672 0.14894845 0.34408563 -0.32209507
000300 ff 8e 93 3e d9 cb 15 3d b7 29 83 be 26 cd 2c be
       0.28820035 0.036571357 -0.25617763 -0.16875133
000310 db 00 97 3e 5e 7d ff 3c 95 83 38 3e fc 28 4e 3f
       0.2949284 0.03118771 0.18018945 0.8053129
000320 33 a9 ad 3b d3 0a 49 3f 1c 44 2a 3e 5a 20 3f bb
       0.005299711 0.7853214 0.16627544 -0.002916357
000330 20 94 9a be 30 75 cd 3e 4b 2c 1d 3e cb aa 8c 3e
       -0.30191135 0.4012847 0.15348928 0.27474055
000340 3f a4 d5 be 74 06 f0 3e a7 2c d5 3e 97 13 a7 3e
       -0.41726872 0.46879923 0.4163563 0.32632133
000350 cc 1b 8f 3e f5 22 4b 3e ab 61 33 3e c1 d6 8a 3e
       0.27950895 0.19837554 0.17517726 0.2711697
000360 af bf 66 3e 3f 6f da 3c 35 b2 36 be 0d e0 fd 3d
       0.22534059 0.026664374 -0.17841418 0.1239625
000370 cd 49 72 3e 74 9b 08 bf 00 d3 72 3e 4b 08 ad be
       0.23660965 -0.533622 0.23713303 -0.3379539
000380 12 46 27 bf 21 86 5c 3e 77 90 f5 be e6 fe d5 3e
       -0.65341294 0.21535541 -0.4796178 0.41796035
000390 96 f9 46 3d cb 83 fa 3d a7 2d c4 be 60 16 fa be
       0.048577867 0.12232169 -0.3831608 -0.48845196
0003a0 2f 78 e4 be 2f a0 70 be f8 c0 7e be e3 4d 66 3e
       -0.44622943 -0.23498605 -0.24878299 0.22490649
0003b0 15 8d 51 be cb 1e 00 bf 5d 55 2f be 55 34 9e 3e
       -0.20463975 -0.50046986 -0.17122407 0.308993
0003c0 a0 87 f1 3d 32 4e fa bd 10 14 b7 be 90 fb da be
       0.117934465 -0.12221946 -0.35757494 -0.42770052
0003d0 04 5c db 3e eb 58 c9 be 52 cb a8 be b9 2c db bd
       0.4284364 -0.39325652 -0.3296762 -0.107018895
0003e0 d7 cb fd 3c df 2c a4 be 93 9b 3e be c1 33 81 3e
       0.030980987 -0.32065484 -0.18614034 0.25234798
0003f0 49 20 db 3e 96 7f 0c 3e e4 b5 a4 3e 3d 48 22 bd
       0.4279807 0.13720545 0.32170022 -0.039619673

out.bias f4 [5]
000000 c0 35 4f bf 4e 77 32 be cc db 00 3f 2b c9 78 be
       -0.8094139 -0.17428324 0.50335383 -0.2429549
000010 bc 3d 34 bf
       -0.704067

exp_avg_sq f4 [128, 28]
000000 e5 37 2d 45 c8 5d cf 44 fc e0 c6 44 4f a4 50 45
       2771.4934 1658.9307 1591.0308 3338.2693
000010 7e b5 61 46 b9 af 02 47 b6 84 a8 46 7c 06 1b 46
       14445.373 33455.723 21570.355 9921.621
000020 bc 95 af 45 35 63 b1 45 14 56 c0 45 06 22 5c 45
       5618.717 5676.401 6154.76 3522.1265
000030 94 f7 70 45 34 de b1 45 00 a6 47 46 a6 2f 14 47
       3855.4736 5691.7754 12777.5 37935.65
000040 33 fe 66 47 93 30 9c 46 80 e8 52 46 95 5b eb 44
       59134.2 19992.287 13498.125 1882.8619
000050 8f 43 c6 43 02 94 96 44 fd ec 58 45 55 6b 2a 45
       396.5278 1204.6252 3470.8118 2726.7083
000060 4e 0b 39 46 06 e8 2b 47 b0 8b 84 43 60 ce 3b 4a
       11842.826 44008.023 265.0913 3.077016e+06
000070 06 d1 53 46 d2 d4 be 45 fe 34 0c 46 14 3d 64 49
       13556.256 6106.6025 8973.248 934865.25
000080 6d 0c 64 49 a7 01 a6 48 05 71 2e 48 ad 52 ea 47
       934086.8 339981.22 178628.08 119973.35
000090 35 4d d3 47 f9 75 76 49 b7 b2 d9 48 69 8e 54 48
       108186.414 1.00950356e+06 445845.72 217657.64
0000a0 4c 80 00 48 d8 67 9a 47 96 f5 88 47 2d f5 86 47
       131585.19 79055.69 70123.17 69098.35
0000b0 63 e4 a8 47 46 af c6 47 1e 66 15 48 60 0b da 48
       86472.77 101726.55 152984.47 446555.0
0000c0 9c 69 49 49 e5 59 9b 48 c1 ec 40 48 80 5e 55 46
       824985.75 318159.16 197555.02 13655.625
0000d0 90 f8 9a 46 9a 7a 27 4a 26 94 84 45 76 34 b7 49
       19836.281 2.7439745e+06 4242.5186 1.5008148e+06
0000e0 c4 94 91 44 43 ef 74 44 cb 87 c8 44 84 84 bf 47
       1164.6489 979.73846 1604.2435 98057.03
0000f0 9f a7 e3 47 b9 94 67 47 73 e7 05 47 20 b4 9c 46
       116559.24 59284.723 34279.45 20058.062
000100 fc 11 5f 46 cb cb cd 47 32 7e 2e 47 96 79 98 46
       14276.496 105367.586 44670.195 19516.793
000110 9e d7 35 46 c6 70 28 46 35 41 76 46 ab 7d 1b 47
       11637.904 10780.193 15760.302 39805.668
000120 5d 57 2c 47 de cb e6 46 c9 0b c8 46 2c 98 44 47
       44119.363 29541.934 25605.893 50328.17
000130 a2 53 a5 47 49 8e b1 46 fd 47 86 45 00 72 92 44
       84647.266 22727.143 4296.9985 1171.5625
000140 de 53 37 46 3e d1 7e 48 a7 d4 2b 44 8f 55 22 4a
       11732.967 260932.97 687.3227 2.6596838e+06
000150 a3 25 c0 45 d5 96 6d 45 8a ef a1 45 6d 2b 3d 49
       6148.7046 3801.427 5181.9424 774838.8
000160 b5 d1 40 49 fe 97 90 48 c8 af 23 48 2e 41 d9 47
       789787.3 296127.94 167615.12 111234.36
000170 05 b9 b2 47 bb af 4f 49 51 25 a5 48 88 74 f8 47
       91506.04 850683.7 338218.53 127209.06
000180 ce c2 83 47 88 ad 3f 47 4a b2 33 47 39 19 5c 47
       67461.61 49069.53 46002.29 56345.223
000190 bc da d9 47 32 99 ef 47 12 98 f7 47 1d 91 b0 48
       111541.47 122674.39 126768.14 361608.9
0001a0 5f 58 1d 49 75 64 0b 48 ce c8 a9 46 30 3e c5 45
       644485.94 142737.83 21732.402 6311.7734
0001b0 2a a3 cc 46 a3 af cd 49 5f 79 51 45 18 ef 83 4a
       26193.582 1.6849804e+06 3351.5857 4.323212e+06
0001c0 1f 9c da 43 2c 5d 32 43 ab c2 51 43 57 33 0d 46
       437.2197 178.36395 209.76042 9036.835
0001d0 75 6a 1c 46 80 5d 92 45 f9 59 49 45 9c f6 fa 44
       10010.614 4683.6875 3221.6233 2007.7065
0001e0 83 41 c5 44 ef 48 1c 46 26 d3 c1 45 8c 47 a4 45
       1578.0472 10002.233 6202.3936 5256.9434
0001f0 b6 f5 6a 45 63 e7 06 45 e5 c7 02 45 7d 4c 60 45
       3759.357 2158.4617 2092.4934 3588.7805
000200 5a 60 59 45 3a 9b 42 45 ea 6a 35 45 ad 47 b9 45
       3478.022 3113.7017 2902.6821 5928.9595
000210 74 19 30 46 51 fb 0e 46 51 70 06 46 6a 7a d9 43
       11270.363 9150.829 8604.079 434.95636
000220 6f bd 8e 44 15 f8 63 47 f9 41 9f 42 1b 79 50 48
       1141.9198 58360.082 79.62885 213476.42
000230 18 de b3 45 8d b4 7c 45 0b 57 e5 45 25 04 a1 48
       5755.7617 4043.2844 7338.8804 329761.16
000240 4c 5f c7 48 47 54 58 48 df a2 eb 47 3d 16 88 47
       408314.38 221521.11 120645.74 69676.48
000250 a1 eb 3f 47 4f a1 ac 48 21 b9 1f 48 02 42 9a 47
       49131.63 353546.47 163556.52 78980.016
000260 c3 82 43 47 5e 28 1d 47 02 24 61 47 71 4b 12 48
       50050.76 40232.367 57636.008 149805.77
000270 11 83 22 48 4b dc d1 47 b3 7a b5 47 9a da 2a 48
       166412.27 107448.586 92917.4 174954.4
000280 a1 24 8c 48 8b cf c1 47 95 53 59 47 23 65 b4 45
       287013.03 99231.086 55635.582 5772.642
000290 27 e0 25 47 1d a4 6e 49 ad 54 25 45 34 53 15 4b
       42464.152 977473.8 2645.2922 9.786164e+06
0002a0 93 fe ca 45 53 f2 d3 45 16 e4 4a 46 98 1e c4 48
       6495.822 6782.2905 12985.021 401652.75
0002b0 8e 84 06 49 d5 65 a2 48 a2 2e 32 48 52 b6 c3 47
       550984.9 332590.66 182458.53 100204.64
0002c0 da 93 83 47 33 48 d5 48 2f 17 45 48 84 0c a3 47
       67367.7 436801.6 201820.73 83481.03
0002d0 07 10 49 47 22 30 4a 47 9f 0a ad 47 6e e8 79 48
       51472.027 51760.133 88597.24 255905.72
0002e0 86 c8 8d 48 bd 9a 36 48 e8 b5 05 48 50 34 5b 48
       290372.2 186986.95 136919.62 224465.25
0002f0 21 80 b1 48 17 9a bd 47 67 dd 78 46 ff ae cc 45
       363521.03 97076.18 15927.351 6549.8745
000300 49 ca 91 47 d6 a0 86 49 cd b9 82 45 71 5f 86 4b
       74644.57 1.1028748e+06 4183.225 1.7612514e+07
000310 6e 41 0c 44 af 27 41 44 2e ad d3 44 66 95 98 45
       561.02234 772.62006 1693.4119 4882.675
000320 2b ff 02 47 2e a2 3a 47 82 07 08 47 ad 6b 9b 46
       33535.168 47778.18 34823.508 19893.838
000330 5d 62 01 46 b5 e2 a9 45 c9 15 8f 45 9b 77 8b 45
       8280.591 5436.3384 4578.723 4462.9507
000340 f3 a1 a6 45 f8 3a 1a 46 1f ef 84 46 32 a4 34 47
       5332.2437 9870.742 17015.56 46244.195
000350 a7 b1 8e 47 36 22 24 47 85 a5 92 46 ed d0 30 46
       73059.305 42018.21 18770.76 11316.231
000360 f8 71 2d 44 a8 43 0d 44 39 e0 ef 43 eb 4f 07 44
       693.78076 565.0571 479.75174 541.2487
000370 2f cc 92 46 74 50 83 47 8c 8a e6 43 95 e6 8d 4a
       18790.092 67232.91 461.0824 4.6498025e+06
000380 59 ad 0e 46 bd 26 92 45 67 1c 49 45 2c 89 2b 46
       9131.337 4676.8423 3217.7751 10978.293
000390 2e bd 64 46 4a 75 02 46 ec 88 7c 45 68 00 1e 45
       14639.295 8349.322 4040.5576 2528.0254
0003a0 86 fa 47 45 a3 25 46 46 e8 32 1b 46 a1 51 10 46
       3199.6577 12681.409 9932.727 9236.407
0003b0 ab df e4 45 84 c4 b3 45 41 43 b7 45 22 1d 3d 46
       7323.9585 5752.5645 5864.4067 12103.283
0003c0 d8 3a fe 45 c5 43 99 45 6d de ac 45 3f db 04 46
       8135.3555 4904.471 5531.803 8502.812
0003d0 3a 62 84 46 42 74 5d 46 d1 5a 30 46 1d 84 0e 46
       16945.113 14173.064 11286.704 9121.028
0003e0 15 57 ff 44 d1 44 d2 47 51 58 90 43 3f af 2a 49
       2042.7213 107657.63 288.68997 699123.94
0003f0 95 f6 a4 2c ff bc 6f 2c ce ae 53 2c 8a d3 2f 2c
       4.6885365e-12 3.4068857e-12 3.008194e-12 2.4986424e-12

exp_avg f4 [128, 28]
000000 61 44 54 40 c8 d3 22 40 3d b3 d8 3f 66 a5 bd 3f
       3.3166735 2.544176 1.6929699 1.4816101
000010 49 6d c6 3f fb 72 00 40 02 d0 f8 3f 48 0e 01 40
       1.5502101 2.0070179 1.9438479 2.0164967
000020 67 c2 25 40 ac a9 97 40 2c 9e f2 40 5f 94 32 40
       2.5899904 4.739462 7.581808 2.7903059
000030 be 44 15 40 b2 d6 30 40 d3 b5 78 40 e1 62 da 40
       2.3323207 2.763104 3.8860977 6.82457
000040 f8 1c 76 40 cd c1 88 3f f4 6c a0 3f 96 66 94 3f
       3.845518 1.0684143 1.253325 1.1593807
000050 25 0a e1 3f 4b b2 bc 40 25 f4 bf 40 5b 64 53 40
       1.7581221 5.8967643 5.998553 3.3030002
000060 33 b1 72 bf c8 e5 d2 40 8a 7b 41 3f 65 1c 2d 42
       -0.94801635 6.5905495 0.7557913 43.27773
000070 a4 6f f0 3e 50 81 56 bf c0 c4 c6 3e 2d 20 15 40
       0.46960175 -0.83791065 0.38821983 2.3300889
000080 c4 d6 c7 3f 89 9a 37 3f 8c f8 c3 3f 1a b8 5f 3f
       1.5612416 0.71720177 1.5310225 0.8739029
000090 b1 a5 35 3f e0 e4 1e 40 52 c7 b8 3f ae 76 41 3e
       0.7095595 2.4827194 1.4435828 0.18892929
0000a0 f9 32 e1 3d ca cc 1c be 88 61 d2 3f 34 4e 21 40
       0.109960504 -0.15312496 1.6436014 2.5203981
0000b0 18 ef de 3e 6e 1e 50 be 43 53 2c 3f 3a cf f8 3f
       0.4354179 -0.20324108 0.6731455 1.943824
0000c0 4a 10 16 be 16 19 6e 3e 96 bb 59 bf 56 fd f2 3e
       -0.14654651 0.23251757 -0.8505186 0.47458905
0000d0 03 99 82 be 4c 23 11 3f 30 a1 31 3d 27 61 83 3f
       -0.25507364 0.56694484 0.04336661 1.0264024
0000e0 5d 1a 97 3f db 76 e0 3f 67 97 00 40 ff d8 01 40
       1.180492 1.7536272 2.0092409 2.0288694
0000f0 da 74 06 41 03 f7 01 41 13 9a de 40 bf 4a 9b 40
       8.403528 8.122806 6.956308 4.8528743
000100 4c 44 59 40 3b 78 26 40 9d b2 40 40 28 fc 6b 40
       3.3947935 2.6010883 3.0109017 3.6872654
000110 63 1b 75 40 0a 6b 7b 40 eb c9 8f 40 85 ef 26 41
       3.8297966 3.9284081 4.493398 10.433476
000120 70 f1 05 41 57 44 fa 40 4a 13 c5 40 53 c9 42 40
       8.371445 7.8208423 6.1586046 3.0435379
000130 0c 41 da 3e 64 24 8b 3f 65 a4 8b 3f ef d2 9a 3f
       0.42627752 1.087048 1.0909544 1.2095622
000140 f3 04 8f 40 7e 00 18 41 88 1a 85 3f 62 8a bc 42
       4.469354 9.50012 1.0398722 94.27028
000150 9c 7f 63 bd b9 60 6f bd 81 06 02 bd f0 14 0d c0
       -0.05554162 -0.05844185 -0.031744484 -2.204403
000160 92 45 01 c0 a0 95 8a bf d7 fb 3f bf eb 32 1b bf
       -2.0198712 -1.0826912 -0.7499365 -0.6062457
000170 a5 f8 d6 be 76 dd ea bf 92 06 57 bf 9c b8 12 bf
       -0.41986576 -1.8348835 -0.839944 -0.5731294
000180 1e fe e3 be 17 30 af be 42 44 bd be 0e 9e c1 be
       -0.44529814 -0.34216377 -0.3696614 -0.378159
000190 d5 a7 d0 be aa b9 03 bf ac e9 32 bf 98 c1 9e bf
       -0.40753046 -0.51455176 -0.69887805 -1.240283
0001a0 ec a9 c7 bf 9e 11 2d be 7b 63 bf 3a a9 b4 54 bd
       -1.5598731 -0.16901252 0.0014601791 -0.051930103
0001b0 b5 f7 01 bd 1f ac 0f c0 db bc 96 bd eb 78 88 bf
       -0.031730372 -2.2448804 -0.0736024 -1.0661901
0001c0 2a a9 fa be f2 a0 44 bf 3f 16 b3 bf 86 30 a7 c0
       -0.48957187 -0.76808083 -1.3991164 -5.2246733
0001d0 64 be 27 c0 96 7f 18 bd f6 0b 65 3e 70 65 14 bf
       -2.6209955 -0.03723105 0.22367844 -0.5796728
0001e0 bb dd 81 bf 53 59 a5 bf c4 b1 66 bf 42 8c a7 bd
       -1.0145792 -1.2917885 -0.90115 -0.08181049
0001f0 cb 18 3a bf 16 27 0e c0 8a 30 93 c0 9c 72 bb c0
       -0.7269408 -2.2211356 -4.599675 -5.8577404
000200 19 c6 8d 3e 16 b8 b4 be 1b 4d bd bf 9e 0f 63 c0
       0.276902 -0.35296696 -1.4789156 -3.5478282
000210 14 f3 c2 bc dd 47 93 be 12 66 ba 3f f2 92 cc be
       -0.02379755 -0.28765765 1.4562399 -0.3995586
000220 24 f6 26 3e ec e3 35 40 f0 af be be 7d 70 5a c1
       0.16304833 2.8420362 -0.37243605 -13.652463
000230 6c 50 78 40 28 a5 9a 40 91 99 df 40 82 34 54 41
       3.8799086 4.8326607 6.987496 13.262819
000240 69 83 ea 41 a4 fa c3 41 39 cb 92 41 5f bb 56 41
       29.314165 24.497383 18.34923 13.420745
000250 c0 b4 16 41 7b 34 e1 40 1b 42 e8 40 56 5c eb 40
       9.419128 7.0376563 7.2580695 7.3550215
000260 0f 77 09 41 b9 cf 36 41 7e 27 95 41 29 4f 14 42
       8.591567 11.425714 18.644283 37.077305
000270 55 a1 e8 41 57 fe b5 41 98 62 a1 41 80 f2 84 41
       29.078775 22.74919 20.173141 16.618408
000280 84 d6 39 40 79 09 51 40 92 03 35 40 db 35 75 40
       2.903718 3.2662032 2.828343 3.831412
000290 f4 e4 88 41 e7 d5 dc 41 81 68 60 40 b3 e9 8d 43
       17.111794 27.604445 3.5063784 283.82578
0002a0 b8 d4 4e 40 2d 3b 83 40 d0 8b ba 40 19 15 23 41
       3.2317333 4.1009736 5.829567 10.192651
0002b0 0e b9 04 42 a4 b7 ce 41 1f 91 92 41 ec e4 77 41
       33.180717 25.839668 18.32086 15.493389
0002c0 66 5f 29 41 17 dd f3 40 95 db c9 40 a8 6e c3 40
       10.585791 7.6207385 6.3080544 6.107258
0002d0 9c 15 03 41 4a 19 4c 41 86 e2 9e 41 4f d9 20 42
       8.192776 12.756174 19.860607 40.212215
0002e0 14 4f e5 41 53 16 ba 41 3d 54 a0 41 78 d1 4e 41
       28.663612 23.2609 20.041132 12.92614
0002f0 b4 86 cf bf f2 fd 34 40 93 e9 31 40 da 0c 4f 40
       -1.6212983 2.8279996 2.7798812 3.2351594
000300 19 af a3 41 b1 16 ec 41 85 60 50 40 be 6d 93 43
       20.460497 29.51108 3.255891 294.85736
000310 83 51 bd 3d 65 81 d1 3d ee 50 ea 3d 3b e6 fd 3d
       0.09244063 0.10229758 0.11441217 0.123974286
000320 e5 fd 96 3d 50 40 8c 3d a5 b2 e1 3f 8b ba cb 3f
       0.07372645 0.06848204 1.7632643 1.5916303
000330 6b bb 51 3f 03 bf 1d 3f b3 fb fe 3e 6a 5c dd 3e
       0.819266 0.61619586 0.49801406 0.4323457
000340 a1 8b d3 3e 03 fa dc 3e dd e8 ef 3e b1 b1 0a 3f
       0.41317466 0.43159494 0.46857348 0.54177386
000350 30 56 59 3f 93 f4 2b 40 ef f9 47 3f 8f 9f 92 3f
       0.84897137 2.6868026 0.78115743 1.1454943
000360 1a 45 36 3e 84 9f f4 3d 07 94 ac 3d 4a 84 d3 3d
       0.17799798 0.11944488 0.084266715 0.103279665
000370 d0 86 90 3f e0 a8 b5 3f 09 fe ae 3d 85 0b 5d 41
       1.1291142 1.4192162 0.08544547 13.815312
000380 de 46 b3 be 69 8e e6 3f ee ea 20 40 8f b9 01 40
       -0.35015005 1.801221 2.514339 2.0269506
000390 eb 4e 38 3f e9 d7 a8 3f 70 04 aa 3e 8c ae c4 3e
       0.7199542 1.319089 0.3320651 0.3841442
0003a0 2a 59 3c 40 e6 50 a3 40 3f 10 a0 40 97 99 29 40
       2.9429421 5.1036253 5.001983 2.6499994
0003b0 09 9a 71 40 7d 4f d4 3f f5 ea 2c 40 94 1a 6e 40
       3.7750266 1.6586758 2.7018406 3.7203722
0003c0 c3 2c da 3f 65 d4 b6 bf d2 3c e2 3f 5d 3b a0 3f
       1.704491 -1.4283568 1.7674811 1.2518116
0003d0 0c ba d6 3e 05 07 6a 40 ad 04 44 bf a7 dd b3 be
       0.41938818 3.6566784 -0.76569635 -0.35130045
0003e0 a4 00 14 c0 54 7c 54 40 a8 ec a1 3e 4b 95 9f 41
       -2.312539 3.3200884 0.31625867 19.947897
0003f0 04 00 00 00 04 00 00 00 04 00 00 00 04 00 00 00
       6e-45 6e-45 6e-45 6e-45

exp_avg_sq f4 [5, 128]
000000 9e ad bb 44 d4 e3 dc 44 ea 2f 54 44 4e b5 de 44
       1501.4255 1767.1196 848.74866 1781.6658
000010 54 1e 9d 44 aa ee 0b 45 66 a7 b0 44 d4 f5 40 45
       1256.9478 2238.9165 1413.2312 3087.3643
000020 65 ee 82 45 d3 7b 0c 45 f4 e9 29 45 92 ff 1c 45
       4189.7993 2247.739 2718.622 2511.9731
000030 5c fb 1a 45 92 c3 28 44 c2 c9 0c 45 e2 c7 22 45
       2479.71 675.0558 2252.6099 2604.4927
000040 e0 40 a1 44 2e b2 e2 44 a1 93 c9 44 ea 93 42 45
       1290.0273 1813.5681 1612.6134 3113.2446
000050 26 7d db 44 e4 67 eb 44 8b 5a 33 44 b7 44 2e 45
       1755.9109 1883.2466 717.41473 2788.2947
000060 2c 67 ee 44 28 46 1a 45 88 9c 12 45 3c 30 0b 45
       1907.2241 2468.3848 2345.7832 2227.0146
000070 20 f8 80 44 c0 74 e2 44 15 ae 1f 45 a8 c5 79 45
       1031.7539 1811.6484 2554.8801 3996.3535
000080 4e a1 0f 45 c3 76 47 45 1b 14 6d 45 b4 91 10 45
       2298.0815 3191.4226 3793.2566 2313.1064
000090 9d 11 5a 45 26 6b ce 44 e4 23 65 44 9b 37 2c 43
       3489.1008 1651.3484 916.5608 172.21721
0000a0 04 57 bb 44 c1 33 d1 44 ac 9e a3 44 92 67 34 45
       1498.7192 1673.6173 1308.9585 2886.4731
0000b0 84 bc 8f 45 21 74 41 44 86 42 9c 44 5b 21 c9 44
       4599.5645 773.8145 1250.0789 1609.0424
0000c0 f1 8c 44 45 14 bc f9 44 6b 87 26 45 84 9c d9 44
       3144.8088 1997.8774 2664.4636 1740.8911
0000d0 3d 85 e6 44 95 dc 12 45 96 da 85 44 c5 4e 6a 45
       1844.1637 2349.7864 1070.8308 3748.923
0000e0 e2 9f 26 45 d2 11 4c 44 2b 1c 50 45 91 b8 50 45
       2665.9927 816.27844 3329.7605 3339.5354
0000f0 2a f8 84 44 ae 9b 55 45 a9 da 20 45 68 27 ab 44
       1063.7551 3417.73 2573.6663 1369.2314
000100 9a 1a 63 45 71 2e 2c 44 b0 53 1a 45 e3 97 f8 44
       3633.6626 688.72565 2469.2305 1988.7465
000110 fc 0e f3 44 06 24 1f 45 4f 3c 07 45 79 74 90 44
       1944.4683 2546.2515 2163.7693 1155.6398
000120 93 ad d3 43 54 dd d4 44 56 e7 06 45 3f ad d9 43
       423.35605 1702.9165 2158.4585 435.3535
000130 05 37 d2 44 2e ee 91 45 70 43 86 44 a5 9f a3 45
       1681.7194 4669.7725 1074.1074 5235.9556
000140 93 32 c1 44 dc c1 0a 45 f9 ff 18 45 c8 1b 2d 45
       1545.5804 2220.1162 2447.9983 2769.7363
000150 dd e2 b7 45 4b 9f 8d 42 f5 14 5a 45 9f d5 27 45
       5884.358 70.81112 3489.3098 2685.3513
000160 1c aa 03 45 0a bc 0a 45 3f 2a 83 44 ec ba 23 45
       2106.6318 2219.7524 1049.3202 2619.6826
000170 d9 24 59 45 25 69 b1 44 e1 7b 87 45 12 67 b9 44
       3474.303 1419.2858 4335.485 1483.221
000180 a6 15 2c 44 a9 98 3a 45 56 f1 2b 45 7c 9c b2 44
       688.33826 2985.5413 2751.0835 1428.8901
000190 4e 93 ff 44 18 e7 f5 44 c8 84 cc 44 b3 ba c5 44
       2044.6033 1967.2217 1636.1494 1581.8344
0001a0 96 f6 8a 44 bd 17 3a 44 cd 47 d8 44 77 d9 16 45
       1111.7058 744.3709 1730.2438 2413.5916
0001b0 66 45 5d 44 1c 2d fb 44 78 d3 50 44 a6 f7 26 45
       885.08435 2009.4097 835.3042 2671.478
0001c0 b5 98 25 45 20 69 ad 44 20 a6 88 44 2e 81 f3 44
       2649.5442 1387.2852 1093.1914 1948.0369
0001d0 51 55 45 45 42 a3 df 44 ab 5a 8d 44 c7 4b 69 44
       3157.3323 1789.1018 1130.8334 933.184
0001e0 8b ce b3 43 84 8d 8a 44 1f 3b bd 44 13 e8 d2 44
       359.61362 1108.4224 1513.8475 1687.2523
0001f0 3d cf 24 45 30 cc 2a 45 51 0f 82 45 9c 40 72 44
       2636.9524 2732.7617 4161.9146 969.0095
000200 ac d3 a7 45 ad 85 b8 44 23 fb 83 45 32 88 22 46
       5370.459 1476.1774 4223.392 10402.049
000210 86 99 d0 45 4c e1 fd 45 ee a5 64 45 b7 9f 46 46
       6675.1904 8124.162 3658.3706 12711.929
000220 36 d8 2c 46 6c cf 32 46 d2 ba c8 45 35 4c 71 45
       11062.053 11443.855 6423.3525 3860.763
000230 f0 8a 37 46 9b 70 e8 44 a6 08 ae 45 68 b5 37 45
       11746.734 1859.5189 5569.081 2939.338
000240 95 a7 a8 45 36 66 d9 45 b2 9a 54 45 f7 d8 1b 46
       5396.9478 6956.7764 3401.6685 9974.241
000250 26 0e 3a 45 1c b7 ac 45 22 26 a6 45 15 4f 4f 45
       2976.8843 5526.8887 5316.7666 3316.9426
000260 ec ac 91 45 cf e6 d1 45 9c d2 fb 45 35 71 85 45
       4661.615 6716.851 8058.326 4270.151
000270 a4 1c 84 45 a1 c8 e8 45 85 57 38 46 50 f4 15 46
       4227.58 7449.0786 11797.88 9597.078
000280 db 7d 94 45 d9 c7 19 46 c6 cd 69 46 5c 0a e4 45
       4751.732 9841.962 14963.443 7297.295
000290 1e 24 d9 45 e2 f0 98 45 2c 2c 9b 44 d1 b8 e7 43
       6948.5146 4894.1104 1241.3804 463.44388
0002a0 2d 91 e6 44 9e 0a b2 45 25 9f 06 46 a1 14 79 46
       1844.5367 5697.327 8615.786 15941.157
0002b0 c9 77 a1 46 03 9c b5 45 5d b7 e3 45 45 ef 4a 46
       20667.893 5811.5015 7286.9204 12987.817
0002c0 5c e5 52 46 ba 9c 2b 45 b6 2a 35 46 e6 ce 04 46
       13497.34 2745.7954 11594.678 8499.725
0002d0 ee 26 76 45 fc 52 0f 46 ae b2 22 45 b3 5e fa 45
       3938.433 9172.746 2603.1675 8011.8374
0002e0 b9 f5 24 46 54 68 3f 45 a9 2d 5f 46 6a af d1 45
       10557.431 3062.5205 14283.415 6709.927
0002f0 ab 47 07 45 a7 46 96 46 68 d1 0e 46 9c d3 a0 45
       2164.4792 19235.326 9140.352 5146.451
000300 61 14 6f 45 3f 68 78 45 00 48 97 45 2e 67 8a 45
       3825.2737 3974.5154 4841.0 4428.8975
000310 7b d6 61 45 52 7d 2c 46 25 5f d7 45 ee 43 10 45
       3613.405 11039.33 6891.893 2308.2456
000320 b9 3a ae 43 e2 35 2e 45 fb 62 1a 46 b5 b2 3b 45
       348.45877 2787.3677 9880.745 3003.1692
000330 3f 5e fd 44 02 56 8a 46 35 4b 2e 45 d6 89 2d 46
       2026.9452 17707.004 2788.7004 11106.459
000340 5d 6b 19 45 7c 3f e1 45 fd 1f c8 45 c1 cc fa 45
       2454.7102 7207.9355 6403.9985 8025.594
000350 fb b9 24 46 b4 fd ef 43 e6 65 49 46 a7 8c 35 46
       10542.495 479.98206 12889.475 11619.163
000360 d1 41 5e 46 f8 38 8c 46 f3 6b ad 44 8b c9 d7 45
       14224.454 17948.484 1387.3734 6905.193
000370 f4 ce 07 46 d8 c2 99 45 69 d9 a7 45 c6 82 c7 45
       8691.738 4920.3555 5371.1763 6384.3467
000380 cf c5 39 45 cc 36 2d 46 30 6d e6 45 cd 3a 8e 45
       2972.363 11085.699 7373.6484 4551.35
000390 b1 9a 1d 46 45 37 a0 45 e5 2d 21 45 1e 6a 88 44
       10086.673 5126.9087 2578.8684 1091.3162
0003a0 83 7f 35 45 f0 4e 42 45 68 f2 92 45 4f 84 07 46
       2903.9695 3108.9336 4702.301 8673.077
0003b0 67 cc 00 44 0f ba a3 45 6a ab 8a 45 c8 d4 5d 45
       515.1938 5239.2573 4437.427 3549.2988
0003c0 0c 15 cb 45 50 d5 fb 45 1a 54 d4 44 e3 f7 ca 45
       6498.631 8058.664 1698.6282 6494.986
0003d0 6d 6e c6 45 3d 8c fd 45 91 63 7f 44 b7 49 02 45
       6349.803 8113.53 1021.5557 2084.6072
0003e0 d8 c8 86 44 93 36 2f 45 91 d8 c3 45 21 a6 8e 45
       1078.2764 2803.411 6267.071 4564.766
0003f0 af 46 c0 45 9e e8 18 46 7f 74 cc 45 4a bd 08 45
       6152.8354 9786.154 6542.562 2187.8306
