model/170a.pt (torch_old, 336838 bytes, 24 tensors)

fc1.weight f4 [128, 28]
-0.082844466 0.0075617107 -0.2984091 -0.1200451 -0.39117768 -0.4358545 -0.0773804 -0.029512178
-0.1310491 0.31941372 0.10481069 -0.60854274 -0.29860067 -0.09696151 0.20526208 0.25945687
0.45142692 0.29094073 -0.4718058 -1.2443801 -0.82951653 -0.42098436 0.07345006 0.044178456
-0.4443419 0.003734808 -1.034031 0.079239555 0.8686649 0.67269623 0.15839252 0.09348201
-0.0049602534 -0.40734255 0.06217074 0.24943528 0.048841655 0.15988755 0.1351936 -0.091706604
-0.21047664 -0.33387414 -0.012009795 -0.029472126 0.13834542 0.051445387 -0.2787751 -0.11940909
0.03708221 0.17819358 -0.19786623 0.77298975 0.10787941 -0.039945457 1.0575012 -0.06293618
-0.8975476 -0.7516287 -0.3628564 0.14124109 0.017812071 -0.059266225 -0.02277461 0.0681385
0.06985078 0.1634477 0.24222417 0.30615467 0.0053844806 0.07039939 0.04921305 0.027316665
-0.029017173 -0.2598583 0.065082714 -0.13802002 0.094236486 -0.07095185 -0.3709861 -1.0390164
0.29237735 0.10472205 -1.1216928 0.08396068 -0.6608663 -0.6492442 -0.29244015 -0.07832148
-0.028130265 -0.094222136 -0.2373243 0.06012293 0.11234822 0.2925852 0.33928353 0.094004765
-0.009911507 -0.00756953 -0.12890989 -0.3494145 -0.1483821 -0.19341467 0.3746523 0.14406939
0.1852732 0.042628575 -0.32441273 -0.8019753 0.24358712 -0.035406422 -0.9387648 0.034371328
-0.73931056 -0.70629716 -0.14660442 -0.08491852 -0.097999245 -0.07050565 -0.14859836 0.09149348
0.10632672 0.0546137 0.2735876 0.21369919 -0.04863708 0.04960812 0.20160483 0.24302992
-0.30264702 -0.24123318 0.04211909 0.09437699 0.108764865 0.043708738 0.16959386 -0.75606775
0.31452042 0.12199006 -0.9399947 0.055147447 -0.7134081 -1.112514 -0.63611656 0.27099845
0.19348769 0.1329858 -0.05254842 0.07524851 0.097538054 0.114755325 0.20004487 0.06576404
0.07802363 -0.05806257 0.029813122 0.17734343 -0.005246757 0.089973226 0.061707254 0.20660333
-0.13388358 0.09713247 0.252116 -0.8179381 0.29801607 0.13394697 -0.96867955 -0.0723774
-0.6437154 0.1405862 -0.10508249 -0.07378102 0.19050792 0.024202256 0.2900007 0.13317464
0.20054005 0.15836442 0.42431426 -0.018382015 -0.20125562 0.03146786 -0.10112884 -0.066133715
-0.007952057 0.2563798 0.07476022 -0.1376461 0.05797533 0.1454208 -0.55502987 -0.82261056
-0.0509688 -0.021803718 -1.1793298 -0.00084793015 -0.7023069 -0.15092944 -0.21389131 -0.057062704
-0.09215437 0.15897107 0.086266525 -0.03441635 0.11037902 -0.17132434 -0.119349174 -0.22420883
-0.15027851 0.0285484 -0.04830718 -0.21696152 0.016401812 -0.052226473 -0.045397025 -0.3170146
-0.82177 -0.7580459 -0.704418 -0.8631608 -0.2782827 0.019313844 -0.9575392 0.0964854
0.3575931 0.60601205 -0.103263 0.0936693 -0.03444944 -0.062149428 -0.4116624 -0.4205533
-0.00086079934 0.2870938 -0.03710563 -0.1947757 -0.2698307 0.022017164 -0.030461337 0.052068498
-0.18908267 -0.3707271 -0.053311277 -0.105630755 0.20708719 0.11650015 -0.03444447 0.456994
-0.79462737 -0.10285178 0.20175728 0.08566894 0.17833254 -0.1642615 -0.045661043 -0.12763545
00000000: 5caa a9bd 3ac8 f73b 14c9 98be 35da f5bd
00000010: 7148 c8be 5228 dfbe 9d79 9ebd 86c3 f1bc
00000020: bc31 06be 328a a33e fda6 d63d 75c9 1bbf
00000030: 30e2 98be c293 c6bd 3930 523e 88d7 843e
00000040: 6e21 e73e 2ff6 943e 8890 f1be d947 9fbf
00000050: 325b 54bf 438b d7be fc6c 963d 78f4 343d
00000060: c880 e3be aec3 743b 215b 84bf 5948 a23d
00000070: d360 5e3f d235 2c3f a631 223e 7f73 bf3d
00000080: 9f89 a2bb 348f d0be bfa6 7e3d f66b 7f3e
00000090: 300e 483d 90b9 233e 3170 0a3e acd0 bbbd
000000a0: 3087 57be 8df1 aabe bbc4 44bc 876f f1bc
000000b0: 6caa 0d3e 66b8 523d 9cbb 8ebe c18c f4bd
000000c0: 84e3 173d 6178 363e 729d 4abe a8e2 453f
000000d0: e1ef dc3d d99d 23bd 335c 873f afe4 80bd
000000e0: aec5 65bf bd6a 40bf 50c8 b9be 81a1 103e
000000f0: 9fea 913c 24c1 72bd d291 babc 338c 8b3d
00000100: ed0d 8f3d d55e 273e 9d09 783e 4ec0 9c3e
00000110: 4c70 b03b 8e2d 903d a093 493d 33c7 df3c
00000120: 6cb5 edbc 260c 85be 164a 853d 1f55 0dbe
00000130: 0fff c03d 344f 91bd e4f1 bdbe 7dfe 84bf
00000140: 7cb2 953e 8478 d63d a193 8fbf 94f3 ab3d
00000150: 892e 29bf de34 26bf b7ba 95be 0367 a0bd
00000160: 7171 e6bc 89f7 c0bd 2405 73be 7643 763d
00000170: d316 e63d bacd 953e 92b6 ad3e 9285 c03d
00000180: e063 22bc d209 f8bb f400 04be 75e6 b2be
00000190: 7af1 17be 7f0e 46be 6dd2 bf3e ed86 133e
000001a0: 42b8 3d3e 4d9b 2e3d 6d19 a6be 414e 4dbf
000001b0: e76e 793e 5306 11bd e452 70bf f3c8 0c3d
000001c0: 7543 3dbf e4cf 34bf 781f 16be c3e9 adbd
000001d0: d4b3 c8bd 4465 90bd 2b2a 18be ef60 bb3d
000001e0: d3c1 d93d 9db2 5f3d ad13 8c3e f6d3 5a3e
000001f0: ad37 47bd e231 4b3d 7f71 4e3e d6dc 783e
00000200: 8df4 9abe d505 77be 1185 2c3d b948 c13d
00000210: 1dc0 de3d ef07 333d 03aa 2d3e a88d 41bf
00000220: d208 a13e edd5 f93d 7ea3 70bf 4ae2 613d
00000230: eaa1 36bf dc66 8ebf 89d8 22bf 4fc0 8a3e
00000240: a321 463e 6e2d 083e 033d 57bd e41b 9a3d
00000250: 08c2 c73d d704 eb3d 90d8 4c3e 4caf 863d
00000260: daca 9f3d 04d3 6dbd a63a f43c 8499 353e
00000270: fdec abbb e243 b83d bfc0 7c3d d38f 533e
00000280: c718 09be 63ed c63d 5915 813e 6464 51bf
00000290: 9095 983e 6529 093e 62fb 77bf 9a3a 94bd
000002a0: 88ca 24bf d4f5 0f3e 7d35 d7bd 811a 97bd
000002b0: 8214 433e cf43 c63c f97a 943e ef5e 083e
000002c0: 5f5a 4d3e 482a 223e b83f d93e e195 96bc
000002d0: f415 4ebe 71e4 003d a31c cfbd 1d71 87bd
000002e0: 5849 02bc 3744 833e e31b 993d 19f3 0cbe
000002f0: 8a77 6d3d 31e9 143e 7016 0ebf 9b96 52bf
00000300: a9c4 50bd b69d b2bc 47f4 96bf a147 5eba
00000310: 63ca 33bf 3f8d 1abe 5306 5bbe 95ba 69bd
00000320: 6ebb bcbd 50c9 223e 81ac b03d 29f8 0cbd
00000330: 650e e23d a66f 2fbe 576d f4bd 0097 65be
00000340: 9ce2 19be 56de e93c c0dd 45bd 292b 5ebe
00000350: 185d 863c 6deb 55bd 3bf2 39bd bd4f a2be
00000360: 855f 52bf 4c0f 42bf bd54 34bf 1bf8 5cbf
00000370: 127b 8ebe 1138 9e3c 4a21 75bf 239a c53d
00000380: 7116 b73e 9b23 1b3f 8d7b d3bd b1d5 bf3d
00000390: db1a 0dbd 6690 7ebd 6ac5 d2be c352 d7be
000003a0: 44a7 61ba f5fd 923e 13fc 17bd 4873 47be
000003b0: 4027 8abe 575d b43c 0e8a f9bc c745 553d
000003c0: e39e 41be f1cf bdbe ed5c 5abd f054 d8bd
000003d0: aa0e 543e a197 ee3d a515 0dbd 1efb e93e
000003e0: b36c 4bbf f4a3 d2bd 7699 4e3e 3273 af3d
000003f0: ce9c 363e 2b34 28be 1307 3bbd deb2 02be

fc1.bias f4 [128]
0.055436797 -0.010289749 -0.040619515 -0.030898795 0.061596528 0.08364257 0.15868647 -0.053902056
-0.23975638 -0.0037808442 -0.05785789 0.09820524 -0.011792289 0.098982744 0.027945265 -0.18018466
-0.17024726 -0.11640063 -0.13548073 -0.16946173 -0.0031878708 0.034773093 0.4658026 0.1833798
-0.07144688 -0.20731355 -0.10372057 -0.11262653 -0.020407572 -0.15827115 -0.09225539 0.106554665
-0.088693015 -0.12187755 0.27720928 -0.056512818 0.16169432 -0.13989475 -0.03302718 -0.11235098
-0.13810143 0.24341379 -0.01905623 0.025483899 -0.0052487603 -0.21933004 -0.00920173 0.45320505
0.15699321 -0.036510542 0.008722361 0.08264347 -0.20299116 -0.048638314 0.10213233 -0.2594676
0.04370871 0.12966728 -0.2222551 0.49406472 0.09090656 -0.004381925 0.2022775 -0.1281507
0.17586055 0.21098845 0.06925248 0.20382938 -0.13361695 0.20262107 -0.19158724 -0.026822904
-0.18926278 -0.017601188 0.028644523 -0.169302 0.04303984 -0.11455659 -0.23393917 -0.0080753565
-0.038923554 0.019694826 0.035022374 0.12142709 0.23272574 0.08581129 -0.063971125 -0.09568865
0.08200568 -0.022367174 -0.20936292 -0.012298715 0.0035287861 -0.049384948 -0.059831843 -0.09777259
-0.12663639 -0.18706824 0.75337946 0.07909327 0.39011857 -0.052596413 0.057867356 -0.13064326
0.12073645 0.039432034 0.01909754 0.2788919 -0.047535148 -0.095238835 0.031544592 0.26604685
-0.14089237 0.07748509 0.02494053 -0.042575296 -0.16513875 -0.05874868 0.051578604 -0.03530233
-0.06419347 0.006724026 -0.08599469 -0.030889964 0.05614099 -0.006261397 -0.15458892 -0.14087684
00000000: b211 633d 5696 28bc a660 26bd 781f fdbc
00000010: a44c 7c3d cc4c ab3d b57e 223e 67c8 5cbd
00000020: b282 75be 0ac8 77bb 65fc 6cbd d41f c93d
00000030: 7234 41bc 77b7 ca3d 78ed e43c 5482 38be
00000040: 4c55 2ebe 7463 eebd 76bb 0abe 6087 2dbe
00000050: 99eb 50bb 3b6e 0e3d ae7d ee3e eac7 3b3e
00000060: be52 92bd 014a 54be 736b d4bd bda8 e6bd
00000070: c82d a7bc d511 22be 65f0 bcbd 5539 da3d
00000080: afa4 b5bd f09a f9bd 60ee 8d3e fc79 67bd
00000090: 3293 253e 9240 0fbe 8247 07bd 4518 e6bd
000000a0: 766a 0dbe 7741 793e d01b 9cbc 9cc3 d03c
000000b0: cbfd abbb 0e98 60be dac2 16bc 7e0a e83e
000000c0: d4c2 203e 148c 15bd 3ce8 0e3c fb40 a93d
000000d0: eadc 4fbe f838 47bd c12a d13d f0d8 84be
000000e0: e807 333d 80c7 043e d796 63be 0df6 fc3e
000000f0: 382d ba3d 4096 8fbb d521 4f3e f039 03be
00000100: ca14 343e 5b0d 583e 3fd4 8d3d a6b8 503e
00000110: e2d2 08be e67b 4f3e 722f 44be b5bb dbbc
00000120: 1ace 41be 5e30 90bc eba7 ea3c 815d 2dbe
00000130: 8b4a 303d a59c eabd c08d 6fbe 804e 04bc
00000140: 4e6e 1fbd 0b57 a13c 9f73 0f3d c4ae f83d
00000150: a84f 6e3e d4bd af3d 4b03 83bd 69f8 c3bd
00000160: 98f2 a73d 5d3b b7bc 3c63 56be 8d80 49bc
00000170: 3543 673b df47 4abd 3c12 75bd ff3c c8bd
00000180: f8ac 01be d18e 3fbe 7add 403f a7fb a13d
00000190: 9fbd c73e 566f 57bd 5206 6d3d 59c7 05be
000001a0: ac44 f73d 7c83 213d 7272 9c3c ebca 8e3e
000001b0: 37b4 42bd 940c c3bd e734 013d 4b37 883e
000001c0: 1746 10be 81b0 9e3d 1550 cc3c 6f63 2ebd
000001d0: 221a 29be 75a2 70bd 1644 533d 2d99 10bd
000001e0: de77 83bd 3855 dc3b fc1d b0bd f30c fdbc
000001f0: 18f4 653d 682c cdbb 8f4c 1ebe 0542 10be

fc2.weight f4 [128, 128]
-0.36545908 -0.50342363 0.056959108 -0.180276 0.08616536 -0.025211707 -0.023068223 0.4342116
-0.11774143 -0.3425634 -0.052784704 -0.19315563 0.25385576 0.27893344 -0.044505294 -0.34986898
-0.07926933 0.029089026 -0.23858374 -0.044529766 -0.35247213 -0.16031529 0.06265526 0.1697718
0.08537716 -0.53127 0.19534297 0.099447235 0.05940502 -0.05503722 -0.019219793 0.081952564
0.07280855 0.5490604 0.07180155 0.31696394 0.35749537 -0.037282858 0.14296238 -0.54952705
-0.40046895 0.08498349 0.119099185 0.30837348 0.0076607517 -0.4712977 0.21083559 0.106187515
0.2540685 0.016654268 0.2706686 0.17986485 0.0009841154 0.30474788 -0.37698713 -0.35912845
-0.26253352 0.30658513 0.25147322 -0.47147262 0.09667602 -0.2608428 0.10210376 -0.78261906
0.20434473 0.3330821 0.31292892 0.09633325 -0.021333216 0.046980217 -0.07185299 -0.0051739886
-0.34052882 0.35240945 -0.30747038 -0.20966132 -0.041750267 0.15320954 -0.064165436 0.25800547
-0.1242969 -0.47123545 0.027701821 -0.49211943 0.26121908 0.006390243 -0.011275188 -0.13667019
-0.3691044 0.06424925 -0.39051637 0.17043483 -0.35805815 -0.06348749 0.02282417 -0.11695931
0.40064517 -0.27060482 -0.15935043 -0.2570537 -0.27626795 -0.23954314 0.25041056 0.03404903
0.2858531 0.050993867 0.1630851 0.17427146 0.071354926 -0.09680445 -0.0645634 0.15281543
0.06409497 -0.13132271 -0.055275917 0.027628675 0.161918 0.4754415 0.19221613 0.48090804
-0.71519214 -0.12344837 0.3792859 -0.09127815 -0.22385779 0.4646297 -0.0033938694 -0.16001505
-0.077297494 -0.018462071 -0.0060897362 0.39340153 -0.22428624 0.26227516 0.15566419 0.4296461
0.17611058 0.46072042 0.03106519 -0.07036539 0.14058882 0.42628366 0.11119065 -0.3730666
-0.074412666 -0.018237272 0.4337006 0.046411663 0.15006354 -0.301988 -0.08822107 -0.085814424
-0.04789301 0.075322494 -0.15781926 -0.38105989 0.37164396 0.15773232 -0.49684623 -0.104919344
0.44522753 0.41262716 0.23230183 -0.16727515 0.3972739 0.032444227 -0.044333152 -0.428513
0.22160798 0.4044951 0.031769294 -0.0032912982 0.23604046 -0.0073647653 0.12088097 0.2770701
0.13055757 0.359915 0.092933446 0.06691615 -0.09448739 -0.27675346 -0.06446218 -0.7755108
0.11263448 0.4367912 -0.37536526 -0.42485145 0.673814 -0.23858613 0.26001334 -0.121125765
0.112866424 0.087275304 0.20810707 0.09130365 0.037165657 0.12323175 0.45591193 -0.29992127
0.20839342 -0.2552675 -0.030865604 0.49558076 0.39183128 -0.11945309 -0.0356891 0.15321673
0.41840804 0.3760471 0.5552129 0.08157327 -0.113123864 -0.20968741 0.04073655 -0.24910189
-0.3502527 0.46969888 -0.0046822247 0.47505426 0.085644975 -0.19318317 -0.07363711 0.2858484
-0.3126419 0.0054233302 0.023166848 -0.04122315 0.41841906 0.53676546 -0.07778376 -0.41975933
0.39354253 -0.04890217 0.24199753 0.53555423 0.13963732 -0.1707019 0.26637706 -0.1156013
0.79810804 -0.12157818 0.041074276 0.39135945 -0.3702802 0.18689507 0.32319623 -0.0565629
-0.16464515 0.3048341 0.15602171 -0.0076129683 0.4736025 0.22031327 0.35271883 0.010572505
00000000: 741d bbbe 5fe0 00bf f44d 693d 469a 38be
00000010: 7777 b03d c888 cebc 92f9 bcbc fc50 de3e
00000020: 6b22 f1bd 7864 afbe c634 58bd 97ca 45be
00000030: 62f9 813e 5dd0 8e3e 2f4b 36bd 0722 b3be
00000040: f557 a2bd 1c4c ee3c 4c4f 74be d864 36bd
00000050: 3a77 b4be b129 24be 6751 803d a9d8 2d3e
00000060: 38da ae3d 5001 08bf fd07 483e feaa cb3d
00000070: ae52 733d b56e 61bd d472 9dbc bfd6 a73d
00000080: a61c 953d 398f 0c3f b10c 933d 1949 a23e
00000090: a209 b73e e9b5 18bd bb64 123e cead 0cbf
000000a0: 440a cdbe d30b ae3d 46ea f33d 21e3 9d3e
000000b0: 0b07 fb3b ef4d f1be 49e5 573e d778 d93d
000000c0: 4415 823e 886e 883c 1395 8a3e 7e2e 383e
000000d0: 6ffd 803a ea07 9c3e 7504 c1be afdf b7be
000000e0: cb6a 86be baf8 9c3e 19c1 803e dc64 f1be
000000f0: 14fe c53d 308d 85be c71b d13d b959 48bf
00000100: bf3f 513e bd89 aa3e 3838 a03e 5e4a c53d
00000110: ffc2 aebc 546e 403d a927 93bd 908a a9bb
00000120: cb59 aebe 036f b43e c26c 9dbe 75b1 56be
00000130: 5402 2bbd f6e2 1c3e 2b69 83bd 4b19 843e
00000140: 608f febd c645 f1be eeee e23c 14f7 fbbe
00000150: 82be 853e 3e65 d13b 91bb 38bc 45f3 0bbe
00000160: 40fb bcbe 1c95 833d c3f1 c7be 7886 2e3e
00000170: 6653 b7be bb05 82bd c1f9 ba3c 5d88 efbd
00000180: 5d21 cd3e b78c 8abe c22c 23be 8b9c 83be
00000190: fe72 8dbe cc4a 75be d035 803e ff76 0b3d
000001a0: 565b 923e f2de 503d c8ff 263e 3874 323e
000001b0: 8822 923d 6941 c6bd d139 84bd a67b 1c3e
000001c0: 3944 833d 7679 06be 0069 62bd 8855 e23c
000001d0: d5cd 253e 116d f33e 4ed4 443e 9439 f63e
000001e0: d516 37bf 80d2 fcbd c331 c23e 0af0 babd
000001f0: fa3a 65be f2e3 ed3e ae6b 5ebb fcda 23be
00000200: 264e 9ebd c53d 97bc 698c c7bb ed6b c93e
00000210: 4bab 65be ee48 863e 6f66 1f3e 93fa db3e
00000220: 5556 343e 8ce3 eb3e 6d7c fe3c bb1b 90bd
00000230: 84f6 0f3e da41 da3e ecb7 e33d 9602 bfbe
00000240: ab65 98bd 5566 95bc 010e de3e 281a 3e3d
00000250: 42aa 193e 2c9e 9abe 40ad b4bd 79bf afbd
00000260: 762b 44bd ae42 9a3d 5f9b 21be 481a c3be
00000270: 1e48 be3e 9584 213e a162 febe f4df d6bd
00000280: ddf4 e33e de43 d33e 88e0 6d3e 2d4a 2bbe
00000290: 7c67 cb3e 3de4 043d ae96 35bd 0e66 dbbe
000002a0: 34ed 623e fb19 cf3e 8520 023d d2b2 57bb
000002b0: 97b4 713e 2154 f1bb 7190 f73d 22dc 8d3e
000002c0: e2b0 053e c746 b83e e453 be3d 560b 893d
000002d0: 9b82 c1bd a1b2 8dbe bf04 84bd e087 46bf
000002e0: e8ac e63d 19a3 df3e e02f c0be 2186 d9be
000002f0: 137f 2c3f ec4f 74be 7820 853e c910 f8bd
00000300: 8326 e73d 65bd b23d 051a 553e 68fd ba3d
00000310: 043b 183d ee60 fc3d 4a6d e93e 488f 99be
00000320: 1665 553e 6cb2 82be ddd9 fcbc c3bc fd3e
00000330: 1c9e c83e d2a3 f4bd bc2e 12bd d9e4 1c3e
00000340: 9439 d63e 3f89 c03e 6f22 0e3f e30f a73d
00000350: 7cad e7bd 4cb8 56be 5edb 263d 9114 7fbe
00000360: 5254 b3be 5f7c f03e 596d 99bb 503a f33e
00000370: a266 af3d cfd1 45be 0ecf 96bd b95a 923e
00000380: 9912 a0be 31b6 b13b 67c8 bd3c 9bd9 28bd
00000390: 063b d63e 7669 093f 184d 9fbd b2ea d6be
000003a0: 687e c93e a44d 48bd 33ce 773e 151a 093f
000003b0: 16fd 0e3e 7bcc 2ebe 9362 883e 60c0 ecbd
000003c0: cf50 4c3f fbfd f8bd 803d 283d 4460 c83e
000003d0: 5e95 bdbe 6c61 3f3e fa79 a53e 80ae 67bd
000003e0: bd98 28be 3713 9c3e 28c4 1f3e 3576 f9bb
000003f0: 077c f23e cd99 613e 9097 b43e 4d38 2d3c

fc2.bias f4 [128]
0.06963068 0.05345817 -0.16825104 -0.18296504 -0.089742176 -0.0664223 0.0823522 -0.14574727
-0.16701747 0.0024031922 0.08709896 0.087890215 -0.15319553 -0.13646661 0.106180966 0.04797176
0.26214787 0.090839624 0.22680008 0.028673874 0.049776077 -0.115715995 -0.09992358 -0.09824036
-0.23578988 0.024339622 0.048112184 0.016692556 0.100853175 -0.0009773939 -0.20254955 -0.09056168
0.048594475 -0.0076961303 -0.073576346 -0.10008439 -0.08069359 0.26343507 -0.10700769 -0.17485073
0.17287114 0.117736235 -0.081200525 -0.2956588 -0.19693874 0.17782901 0.0732762 0.1010891
-0.14579311 0.07784449 -0.13255516 -0.1056928 -0.22462834 -0.0947738 0.1937287 -0.22990261
0.19906168 0.02167591 -0.05865361 -0.20869677 -0.040304467 0.029616792 0.06519019 0.12831388
-0.20483173 -0.11157881 0.13774171 -0.19954696 0.10571514 -0.19395143 0.107903935 -0.018267278
0.20281734 -0.02565735 0.07814813 0.19332771 -0.0024218014 -0.13645782 -0.13566162 -0.14852913
0.058518782 0.18002251 0.12358303 0.022997636 -0.0670243 -0.09679843 -0.14489892 -0.056003276
-0.14830136 -0.15481766 0.22115363 0.1191055 0.042190645 -0.052323274 -0.1533088 0.06870646
-0.15808432 -0.04909507 0.12480309 0.056546208 0.10440184 0.13617109 0.013876641 -0.017582357
-0.013771258 -0.24667491 -0.21346144 -0.22831231 -0.07472628 0.1903909 0.10769676 0.03905521
0.13143401 -0.18846324 -0.02170708 0.08672279 -0.18148918 -0.13429922 0.08406223 -0.17608239
0.13663465 0.1328013 -0.06366307 -0.19834116 0.12265951 -0.21108516 0.00052970706 0.14102718
00000000: 889a 8e3d f4f6 5a3d 004a 2cbe 305b 3bbe
00000010: bfca b7bd 6a08 88bd 45a8 a83d c63e 15be
00000020: a106 2bbe e07e 1d3b f160 b23d c9ff b33d
00000030: 4adf 1cbe e7bd 0bbe 6875 d93d 097e 443d
00000040: 3f38 863e 200a ba3d 483e 683e 79e5 ea3c
00000050: 00e2 4b3d 82fc ecbd bca4 ccbd 3e32 c9bd
00000060: e772 71be e363 c73c 4811 453d d4be 883c
00000070: 1c8c ce3d e61b 80ba 2669 4fbe 6778 b9bd
00000080: 000b 473d d22f fcbb 32af 96bd 0bf9 ccbd
00000090: ae42 a5bd f6e0 863e d926 dbbd 120c 33be
000000a0: 2205 313e b21f f13d 764c a6bd 9760 97be
000000b0: 4faa 49be cf18 363e d511 963d cd07 cf3d
000000c0: ca4a 15be ef6c 9f3d 8abc 07be 7775 d8bd
000000d0: f904 66be c418 c2bd d160 463e 976b 6bbe
000000e0: d3d6 4b3e ae91 b13c c53e 70bd 9bb4 55be
000000f0: 4c16 25bd ea9e f23c 6f82 853d b764 033e
00000100: 69bf 51be 6e83 e4bd 2a0c 0d3e 0a56 4cbe
00000110: 2e81 d83d 349b 46be bdfc dc3d 42a5 95bc
00000120: 59af 4f3e 5d2f d2bc 200c a03d b3f7 453e
00000130: 16b7 1ebb 99bb 0bbe e1ea 0abe 0518 18be
00000140: 64b1 6f3d d257 383e 1a19 fd3d 8a65 bc3c
00000150: 0944 89bd 413e c6bd 6260 14be b163 65bd
00000160: 50dc 17be 8588 1ebe 1976 623e 96ed f33d
00000170: 19d0 2c3d ee50 56bd fbfc 1cbe f9b5 8c3d
00000180: dbe0 21be ea17 49bd c398 ff3d ff9c 673d
00000190: a2d0 d53d 6f70 0b3e da5a 633c e008 90bc
000001a0: d8a0 61bc 5998 7cbe a395 5abe b4ca 69be
000001b0: 180a 99bd d5f5 423e 1e90 dc3d 5bf8 1f3d
000001c0: a396 063e 82fc 40be 0cd3 b1bc b89b b13d
000001d0: 4dd8 39be bc85 09be d228 ac3d f14e 34be
000001e0: f4e9 0b3e 10fd 073e c961 82bd f219 4bbe
000001f0: e934 fb3d b526 58be 0adc 0a3a 6e69 103e

out.weight f4 [5, 128]
0.6505767 -0.24705197 -0.32540372 -0.02471293 -0.44438487 -0.38182345 -0.07080939 0.40963042
0.5671537 0.354273 0.48064044 -0.31259847 0.257383 0.054825317 -0.5634479 -0.47076336
-0.28498533 0.71336263 0.5925546 0.39830843 -0.15565453 0.22707817 -0.3494582 0.34033364
0.3708036 0.4953733 -0.4164879 -0.24173157 0.9424765 0.11572363 0.29739267 0.3436968
0.5442388 0.45393774 0.40475252 0.19566572 0.21843943 -0.23569435 0.1378262 0.14406922
-0.18996406 -0.33636245 0.04078301 0.38558665 0.4079767 0.007867395 -0.28593814 -0.23398717
0.3280997 0.49024802 0.395822 -0.43983164 -0.41083845 0.2771237 -0.165825 0.3226511
0.5774817 -0.069149785 0.5337053 0.2690182 -0.19525835 0.45983234 0.43942115 -0.059476458
0.36142153 -0.07733323 -0.36888862 -0.26612142 0.5009565 0.16346309 0.59323585 0.3266613
1.0002474 0.36755374 0.435272 0.055749264 -0.2060792 0.46074158 0.13830973 0.39286873
-0.1428818 0.6662896 0.4681623 0.42917776 0.27454218 -0.14016701 0.2785389 0.19253422
0.2388961 0.19132407 -0.15229438 0.3039394 0.45967582 -0.4655127 0.22272441 -0.35212833
-0.06100396 0.4125386 -0.4465223 0.6556958 0.5847711 0.49781314 -0.24334198 -0.20970574
-0.7325194 -0.5870097 -0.23065536 0.24697049 -0.13265109 -0.5047248 -0.13434541 0.3180132
0.40838593 -0.601025 -0.10139304 -0.2644478 0.3619463 -0.46339625 -0.1383873 -0.1970294
0.04544382 -0.03828307 -0.16697796 0.36196756 0.4755622 0.3939899 0.3237395 0.8476828
0.19212289 -0.38240895 -0.14358942 0.0020946562 -0.6614196 -0.18976523 -0.5111147 0.19815414
0.35261393 0.22361037 0.39753547 -0.15805411 0.22253028 -0.15403695 -0.37005362 -0.49057496
-0.22728121 0.2760361 0.19818851 0.02523134 -0.41806948 0.36216703 -0.076019764 0.2955159
0.29947954 0.2347606 -0.38007936 -0.48443708 0.16080327 0.15070057 0.29141936 0.32025677
0.24885063 0.22954302 0.15800339 0.13079314 0.33322832 -0.25979492 0.08704134 1.131481
-0.24350506 -0.2097112 0.037635095 0.18510999 0.27750844 0.12859246 -0.26007682 -0.15805414
0.10765532 0.21646866 0.28148475 -0.2743512 -0.19083086 0.4033825 -0.3889324 0.33447617
0.18940258 -0.46299568 0.19503845 0.27940166 -0.5705181 0.13256511 0.3343064 -0.32804215
0.2798436 0.032727472 -0.24969319 -0.14740643 0.28183123 0.019630602 0.15450378 0.78753793
-0.04896327 0.76764506 0.14754108 -0.0047747954 -0.29866478 0.39253318 0.13722967 0.26092064
-0.4210058 0.43058473 0.39993137 0.31787142 0.26926234 0.20928589 0.16809791 0.26770234
0.21705922 0.020714553 -0.17625086 0.1050355 0.21980844 -0.53426784 0.21515942 -0.3251158
-0.6568322 0.19527504 -0.47331613 0.39084557 0.042309374 0.092600495 -0.36725664 -0.4575425
-0.4287083 -0.21978816 -0.23422877 0.21909319 -0.22253567 -0.48637882 -0.16567427 0.29756787
0.0993512 -0.09958317 -0.36871076 -0.42080057 0.41534704 -0.39788797 -0.33154795 -0.095258735
0.046939857 -0.31394076 -0.17389698 0.2482763 0.3960101 0.13031843 0.30582115 -0.07093836
00000000: 328c 263f 31fb 7cbe 519b a6be c572 cabc
00000010: 6a86 e3be 5d7e c3be 8304 91bd 14bb d13e
00000020: fc30 113f 4563 b53e 8116 f63e e80c a0be
00000030: b4c7 833e 8390 603d 1f3e 10bf e507 f1be
00000040: 99e9 91be ef9e 363f a9b1 173f 15ef cb3e
00000050: e763 1fbe 2e87 683e 2fec b2be 3640 ae3e
00000060: f8d9 bd3e 92a1 fd3e e73d d5be 7b88 77be
00000070: 2446 713f 8300 ed3d da43 983e 07f9 af3e
00000080: 3c53 0b3f 876a e83e b93b cf3e 985c 483e
00000090: 96ae 5f3e dc59 71be 5022 0d3e e286 133e
000000a0: f085 42be b337 acbe 160c 273d 9d6b c53e
000000b0: 52e2 d03e 3fe6 003c 7c66 92be 559a 6fbe
000000c0: affc a73e ca01 fb3e 2ea9 ca3e 9d31 e1be
000000d0: 6b59 d2be 28e3 8d3e 07ce 29be 8632 a53e
000000e0: d7d5 133f 679e 8dbd e9a0 083f c1bc 893e
000000f0: cef1 47be 256f eb3e cffb e03e 969d 73bd
00000100: 3e0c b93e e260 9ebd f8de bcbe 1141 88be
00000110: af3e 003f de62 273e 4ede 173f 2640 a73e
00000120: 1b08 803f 0130 bc3e f9db de3e 5759 643d
00000130: 6d06 53be 52e6 eb3e 11a1 0d3e 1726 c93e
00000140: 9b4f 12be f591 2a3f f8b2 ef3e 30bd db3e
00000150: cb90 8c3e f187 0fbe a79c 8e3e b127 453e
00000160: 2ea1 743e 75ea 433e 0ff3 1bbe f29d 9b3e
00000170: a15a eb3e ae57 eebe de11 643e 2a4a b4be
00000180: 4adf 79bd 4238 d33e 929e e4be aedb 273f
00000190: 8fb3 153f 5de1 fe3e a42e 79be 1abd 56be
000001a0: 6486 3bbf 4546 16bf eb30 6cbe d5e5 7c3e
000001b0: b0d5 07be a535 01bf d891 09be a0d2 a23e
000001c0: f617 d13e c6dc 19bf 27a7 cfbd b465 87be
000001d0: 0751 b93e 4642 edbe 66b5 0dbe 13c2 49be
000001e0: 4d23 3a3d b5ce 1cbd 45fc 2abe d053 b93e
000001f0: e47c f33e 0bb9 c93e 2fc1 a53e bd01 593f
00000200: ddbb 443e 1bcb c3be 1b09 13be 8046 093b
00000210: cb52 29bf d151 42be 6ad8 02bf ebe8 4a3e
00000220: d089 b43e 1efa 643e c589 cb3e f0d8 21be
00000230: fade 633e ddbb 1dbe ab77 bdbe a42c fbbe
00000240: 68bc 68be 9b54 8d3e eef1 4a3e f5b1 ce3c
00000250: 340d d6be f56d b93e 40b0 9bbd dc4d 973e
00000260: 6255 993e 1565 703e c399 c2be 2308 f8be
00000270: 9da9 243e 4051 1a3e eb34 953e b2f8 a33e
00000280: b3d2 7e3e 530d 6b3e a4cb 213e a3ee 053e
00000290: e79c aa3e d703 85be bb42 b23d 5fd4 903f
000002a0: 6459 79be 88be 56be 4227 1a3d 798d 3d3e
000002b0: 9615 8e3e bead 033e ca28 85be f2d8 21be
000002c0: 647a dc3d f6a9 5d3e c51e 903e c377 8cbe
000002d0: 2a69 43be 2788 ce3e 2622 c7be 7640 ab3e
000002e0: c0f2 413e c50d edbe 29b8 473e bc0d 8f3e
000002f0: 790d 12bf 26bf 073e 352a ab3e 24f5 a7be
00000300: a947 8f3e 3e0d 063d 92af 7fbe b6f1 16be
00000310: 2f4c 903e 5bd0 a03c 3d36 1e3e 169c 493f
00000320: b68d 48bd 6384 443f 0215 173e e375 9cbb
00000330: 97ea 98be 1cfa c83e ef85 0c3e 6497 853e
00000340: 128e d7be 9a75 dc3e cec3 cc3e 0bc0 a23e
00000350: c1dc 893e 0a4f 563e dc21 2c3e 4810 893e
00000360: c644 5e3e 91b1 a93c 1b7b 34be da1c d73d
00000370: 7715 613e c7c5 08bf c052 5c3e 9475 a6be
00000380: 2826 28bf 2ef6 473e 7e56 f2be e91c c83e
00000390: 984c 2d3d 54a5 bd3d 1009 bcbe 0343 eabe
000003a0: a87f dbbe 2610 61be abd9 6fbe f759 603e
000003b0: 64e0 63be a506 f9be 84a6 29be d15a 983e
000003c0: a478 cb3d 43f2 cbbd a8c7 bcbe 2c73 d7be
000003d0: 5ea8 d43e f9b7 cbbe a7c0 a9be 0317 c3bd
000003e0: 0244 403d d8bc a0be 0d12 32be 243c 7e3e
000003f0: d6c1 ca3e 3272 053e 9794 9c3e 2248 91bd

out.bias f4 [5]
-0.83546484 -0.17988236 0.55148035 -0.22189537 -0.7549977
00000000: 06e1 55bf 1533 38be d12d 0d3f 8a38 63be
00000010: 8747 41bf

exp_avg_sq f4 [128, 28]
1224.8206 605.9091 541.1879 1066.1616 4505.4893 10853.953 6935.153 3170.3071
1810.8604 1824.5151 1935.9712 1129.1095 1237.6022 1820.5261 4048.4956 12011.834
19585.842 6259.2217 4306.1924 584.3543 129.70746 375.46277 1120.3087 1208.9017
3850.3809 15254.624 85.31898 995781.1 4131.0913 1880.4127 2754.749 282862.8
282609.62 102872.19 54053.676 36307.156 32741.547 305420.0 134922.06 65883.6
39833.293 23934.564 21225.227 20917.025 26182.004 30787.31 46293.75 135113.17
249606.69 96284.96 59803.96 4161.271 6009.0195 830448.06 1284.8513 455985.7
387.24457 346.58456 590.3157 30080.34 37261.777 20106.893 12363.136 7186.56
4765.0854 32184.5 13771.683 6174.154 3843.4272 3772.708 5875.1885 15932.236
16357.116 11695.193 9034.376 15651.333 25673.635 6908.5337 1327.8022 387.09793
4661.9946 82135.22 234.21835 1.0740382e+06 1860.1759 1150.0544 1567.6937 234410.06
238932.34 89587.02 50708.227 33651.84 27683.598 257355.58 102320.63 38484.426
20409.34 14845.295 13916.997 17045.998 33744.43 37112.445 38351.06 109396.805
194975.38 43182.504 6574.746 1909.5068 7924.332 509754.62 1013.9572 1.3078988e+06
144.05363 77.871 153.26712 2904.5144 3405.9075 1804.6024 1333.6624 826.56775
578.7595 3093.921 1959.828 1699.93 1248.7168 793.5708 833.36285 1755.3845
1595.174 1407.0063 1103.4418 1890.5485 3444.637 2818.6875 2629.86 143.1315
542.56757 18493.367 29.745852 113994.41 1871.5863 1410.192 2579.013 101236.06
133045.0 75048.414 43082.15 25134.79 16418.285 108021.96 50350.82 24933.227
17969.865 14383.867 21042.762 56291.17 56886.273 42659.09 32162.666 54481.754
87064.74 30178.719 17040.594 1878.7705 16127.987 309832.2 899.09576 3.6658235e+06
2313.1533 2579.207 4949.3145 125019.37 186868.25 125259.62 73080.29 39702.93
24255.186 134807.16 63327.355 27697.842 21192.316 21332.1 35408.266 102821.23
113011.98 80273.86 51664.027 72261.31 111574.414 29726.39 5123.956 2322.16
31140.18 369976.97 1545.1483 7.3915745e+06 188.61357 252.56464 548.8659 1556.6058
10526.342 16974.012 11977.597 6534.1016 2773.4475 1833.3037 1551.5284 1518.6931
1804.3289 3248.0088 5626.519 15419.538 26704.688 13478.383 6453.8354 3483.4502
229.94249 188.97614 159.2554 178.80284 6431.7812 22308.564 153.2165 1.593253e+06
3279.8906 1980.2318 1507.4613 3729.2896 4580.635 2631.9712 1308.924 840.33826
1053.055 3971.2544 3355.7615 3234.9207 2703.8916 2116.16 1902.9889 3729.1123
2533.6904 1534.5094 1726.9354 2639.733 5222.0854 4490.374 3648.4575 3277.0696
658.2324 35546.9 96.04236 241235.86 1.4184132e-12 1.0306775e-12 9.100621e-13 7.5590863e-13
00000000: 421a 9944 2f7a 1744 074c 0744 2c45 8544
00000010: eacb 8c45 d097 2946 39b9 d845 ea24 4645
00000020: 885b e244 7c10 e444 14ff f144 8123 8d44
00000030: 45b3 9a44 d690 e344 ee07 7d45 56af 3b46
00000040: af03 9946 c699 c345 8a91 8645 ad16 1244
00000050: 1cb5 0143 3cbb bb43 e109 8c44 db1c 9744
00000060: 18a6 7045 7f5a 6e46 51a3 aa42 521c 7349
00000070: bb18 8145 350d eb44 fc2b 2c45 da1d 8a48
00000080: 34fe 8948 18ec c847 ad25 5347 28d3 0d47
00000090: 18cb ff46 8021 9548 84c2 0348 cdad 8047
000000a0: 4b99 1b47 21fd ba46 74d2 a546 0d6a a346
000000b0: 028c cc46 9f86 f046 c0d5 3447 4bf2 0348
000000c0: acc1 7348 7b0e bc47 f69b 6947 2b0a 8245
000000d0: 28c8 bb45 01bf 4a49 3e9b a044 36a6 de48
000000e0: 4e9f c143 d34a ad43 3494 1344 ae00 eb46
000000f0: c78d 1147 c915 9d46 8b2c 4146 7b94 e045
00000100: afe8 9445 0071 fb46 bb2e 5746 3bf1 c045
00000110: d636 7045 54cb 6b45 8299 b745 f2f0 7846
00000120: 7794 7f46 c6bc 3646 8129 0d46 558d 7446
00000130: 4593 c846 45e4 d745 acf9 a544 898c c143
00000140: f5af 9145 9c6b a047 e637 6a43 b21b 8349
00000150: a185 e844 bec1 8f44 33f6 c344 84ea 6448
00000160: 1655 6948 83f9 ae47 3a14 4647 d773 0347
00000170: 3247 d846 e552 7b48 51d8 c747 6d54 1647
00000180: ae72 9f46 2ef5 6746 fd73 5946 ff2b 8546
00000190: 6ed0 0347 72f8 1047 0fcf 1547 67aa d547
000001a0: d867 3e48 81ae 2847 f875 cd45 38b0 ee44
000001b0: a8a2 f745 54e7 f848 437d 7d44 d6a7 9f49
000001c0: bb0d 1043 f4bd 9b42 6244 1943 3b88 3545
000001d0: 85de 5445 4793 e144 32b5 a644 56a4 4e44
000001e0: 9cb0 1044 bc5e 4145 7ffa f444 c37d d444
000001f0: f016 9c44 8864 4644 3957 5044 4e6c db44
00000200: 9165 c744 34e0 af44 23ee 8944 8d51 ec44
00000210: 314a 5745 002b 3045 c35d 2445 aa21 0f43
00000220: 53a4 0744 bc7a 9046 81f7 ed41 34a5 de47
00000230: c3f2 e944 2546 b044 3530 2145 08ba c547
00000240: 40ed 0148 3594 9247 264a 2847 945d c446
00000250: 9244 8046 fbfa d247 d2ae 4447 74ca c246
00000260: bb63 8c46 78bf 6046 8665 a446 2ce3 5b47
00000270: 4636 5e47 17a3 2647 5545 fb46 c1d1 5447
00000280: 5f0c aa47 70c5 eb46 3021 8546 a8d8 ea44
00000290: f3ff 7b46 0649 9748 21c6 6044 7ebe 5f4a
000002a0: 7492 1045 5033 2145 84aa 9a45 af2d f447
000002b0: 107d 3648 cfa5 f447 25bc 8e47 ee16 1b47
000002c0: 5f7e bd46 caa5 0348 5b5f 7747 af63 d846
000002d0: a290 a546 33a8 a646 4450 0a47 9dd2 c847
000002e0: fdb9 dc47 eec8 9c47 07d0 4947 a822 8d47
000002f0: 35eb d947 c83c e846 a61f a045 8f22 1145
00000300: 5c48 f346 1fa7 b448 bf24 c144 ad92 e14a
00000310: 139d 3c43 8c90 7c43 6b37 0944 6393 c244
00000320: 5e79 2446 069c 8446 6326 3b46 d030 cc45
00000330: 2957 2d45 b829 e544 e9f0 c144 2ed6 bd44
00000340: 868a e144 2400 4b45 27d4 af45 27ee 7046
00000350: 60a1 d046 8899 5246 afae c945 34b7 5945
00000360: 47f1 6543 e4f9 3c43 6241 1f43 87cd 3243
00000370: 40fe c845 2149 ae46 6d37 1943 287d c249
00000380: 40fe 4c45 6b87 f744 c36e bc44 a214 6945
00000390: 1425 8f45 8a7f 2445 919d a344 a615 5244
000003a0: c3a1 8344 1234 7845 2fbc 5145 bb2e 4a45
000003b0: 44fe 2845 8f42 0445 a5df ed44 cc11 6945
000003c0: 0c5b 1e45 4dd0 bf44 efdd d744 bafb 2445
000003d0: af30 a345 fe52 8c45 5207 6445 1dd1 4c45
000003e0: e08e 2444 e6da 0a47 b015 c042 f794 6b48
000003f0: b99f c72b 120e 912b 7114 802b f5c4 542b

exp_avg f4 [128, 28]
-22.308573 -10.535387 -7.520275 -6.08264 -5.5652504 -5.3347173 -5.7192364 -4.260727
-5.2366204 -3.8775167 -4.7144756 -4.590857 -5.0243044 -6.0147476 -7.9553013 -13.3225565
-21.910517 -4.6545877 -1.4040872 -0.58367795 -0.24404159 -0.15617722 -7.7654877 -22.026798
7.638744 -45.386185 -0.6614606 -135.6714 3.6456459 2.195727 0.7035241 -0.854029
0.17678666 -0.027951358 0.65834504 0.7138631 1.1296285 2.420079 0.5654089 1.2502
1.5650989 1.4763165 1.5158248 0.9428381 1.2621577 -0.035564706 0.09290511 -0.21330653
-0.35914865 1.8574021 3.5885339 3.6561394 -1.1103792 2.692179 0.6569164 23.96184
0.029303074 -0.19817095 -0.5474855 -0.0051313173 0.30385277 0.22206652 0.19533955 0.09938612
0.0961823 0.010514236 0.039212756 -0.1636783 0.0015010169 0.5559527 0.59389406 -0.29101467
0.06851294 0.037034143 -0.28150553 -0.31104583 0.05901486 0.16559511 0.053034794 0.024290286
-0.4726498 0.24661511 0.02195336 0.61524385 0.0025664929 0.0020730954 0.0015353726 0.0015973356
0.002454752 0.0041264063 0.0049524736 0.031588096 0.013377517 -0.018551303 0.0003011971 0.01997759
0.016841363 0.004819352 0.010114345 0.010651834 0.01111627 0.0139231505 0.02086835 0.026981248
0.06627485 0.049917858 -0.008169669 0.0024619256 -0.012084825 0.11703403 0.0019618412 0.02810882
-0.9409884 -1.143585 -0.95103323 -3.3914888 -1.82195 0.44551107 -0.32863522 -0.16405955
0.065543815 -1.0594342 -2.0303597 -0.89452225 -0.23067601 -1.2172481 -2.9947 -3.8154
-1.6000049 -1.3965312 -1.2319691 -1.6350658 -0.012568361 -1.2675904 -1.2613987 -0.908068
-2.0174453 -3.353417 -0.41759297 -14.467087 -0.2620086 -0.41340867 -0.29408202 -0.86456186
-1.837791 -1.1842471 0.60399866 0.38142058 0.100431755 0.108450964 0.1043448 -1.3594034
-0.54655397 -0.10584485 -0.14955908 -0.118902154 -0.008962576 0.26659384 0.18597385 -0.13087799
-0.92954385 -0.72808766 -1.1600847 -0.2790929 -0.021451628 -1.1764766 0.05827018 -6.386347
-1.2404175 -6.4256244 -8.550978 -3.611478 -2.492395 -1.229307 -1.5837457 -2.2558577
-2.7357473 -2.650861 -4.457496 -3.7899828 -4.648865 -2.0883367 -0.106840804 0.61687773
0.4975301 0.2383524 0.1311654 -0.18538763 -1.7154936 -0.73642594 -0.6956226 -1.2230823
2.4353833 -11.310384 -0.2952931 -43.696587 1.7637787e-12 1.7581645e-12 2.4574524e-12 3.6326695e-12
7.986394e-12 2.0550953e-11 1.5068396e-11 8.704505e-12 6.4708672e-12 5.4592936e-12 5.1604194e-12 5.2203645e-12
5.576271e-12 6.54231e-12 8.87957e-12 1.5403932e-11 2.766408e-11 1.0015761e-11 1.1244792e-11 2.3070495e-12
1.7897901e-12 1.7149037e-12 1.5236799e-12 1.5690959e-12 1.0907554e-11 1.7863095e-11 1.5017659e-12 1.7388856e-10
3.6034744 3.7540498 4.5076723 6.3649516 4.209021 1.0531763 0.5774412 0.73981845
2.1374404 4.9497423 4.463803 4.476955 4.5703163 4.502754 6.4240866 2.1282103
-2.5549428 2.552094 3.926777 5.9696355 5.6248436 7.6873565 6.087639 3.6900508
3.7860918 11.651705 2.0168016 19.638924 6e-45 6e-45 6e-45 6e-45
00000000: f577 b2c1 f290 28c1 18a6 f0c0 fda4 c2c0
00000010: 8816 b2c0 01b6 aac0 fc03 b7c0 e057 88c0
00000020: 6592 a7c0 3c29 78c0 fcdc 96c0 4de8 92c0
00000030: 1ac7 a0c0 d078 c0c0 d491 fec0 3129 55c1
00000040: bd48 afc1 62f2 94c0 21b9 b3bf eb6b 15bf
00000050: 0ae6 79be ecec 1fbe e07e f8c0 e236 b0c1
00000060: 9770 f440 748b 35c2 7b55 29bf e1ab 07c3
00000070: 4352 6940 cb86 0c40 281a 343f a5a1 5abf
00000080: 9007 353e 3ffa e4bc 4d89 283f bbbf 363f
00000090: ab97 903f 93e2 1a40 a3be 103f 8e06 a03f
000000a0: 2955 c83f f0f7 bc3f 8c06 c23f d65d 713f
000000b0: 628e a13f 4cac 11bd 0945 be3d 076d 5abe
000000c0: 55e2 b7be 5abf ed3f 8aaa 6540 30fe 6940
000000d0: e820 8ebf a94c 2c40 ac2b 283f d9b1 bf41
000000e0: 000d f03c 53ed 4abe 0228 0cbf 9c24 a8bb
000000f0: 9792 9b3e 6865 633e 1707 483e f38a cb3d
00000100: 3afb c43d e743 2c3c 8e9d 203d 499b 27be
00000110: c5bd c43a eb52 0e3f 7109 183f e0ff 94be
00000120: 8350 8c3d 1db1 173d 7e21 90be 6641 9fbe
00000130: 91b9 713d c491 293e 033b 593d 6cfc c63c
00000140: 28ff f1be ac88 7c3e 88d7 b33c 9f80 1d3f
00000150: 9b32 283b c5dc 073b 8e3e c93a b05d d13a
00000160: e8df 203b ce36 873b 5c48 a23b 8562 013d
00000170: 602d 5b3c e7f8 97bc fee9 9d39 0ba8 a33c
00000180: e6f6 893c a8eb 9d3b a3b6 253c 0885 2e3c
00000190: 0421 363c ed1d 643c 1af4 aa3c c707 dd3c
000001a0: 1cbb 873d ab76 4c3d 13da 05bc 4258 213b
000001b0: 6eff 45bc 8aaf ef3d 3c92 003b 7844 e63c
000001c0: 9ee4 70bf fe60 92bf ea76 73bf 270e 59c0
000001d0: a835 e9bf 071a e43e e042 a8be 3aff 27be
000001e0: d63b 863d 8a9b 87bf 6af1 01c0 69ff 64bf
000001f0: 5536 6cbe c9ce 9bbf 2aa9 3fc0 832f 74c0
00000200: f6cc ccbf 89c1 b2bf 2ab1 9dbf d649 d1bf
00000210: 87eb 4dbc 6740 a2bf 8375 a1bf 2577 68bf
00000220: d31d 01c0 629e 56c0 bfce d5be 3079 67c1
00000230: fe25 86be 4daa d3be eb91 96be ed53 5dbf
00000240: bc3c ebbf 6995 97bf a89f 1a3f 8f49 c33e
00000250: 2aaf cd3d 8a1b de3d bab2 d53d ee00 aebf
00000260: f6ea 0bbf 2fc5 d8bd 0426 19be f982 f3bd
00000270: c5d7 12bc fd7e 883e ee6f 3e3e e104 06be
00000280: 96f6 6dbf f463 3abf a87d 94bf 44e5 8ebe
00000290: 53bb afbc c996 96bf b6ac 6e3d f45c ccc0
000002a0: 00c6 9ebf b79e cdc0 ced0 08c1 7522 67c0
000002b0: 6683 1fc0 ef59 9dbf 2eb8 cabf f95f 10c0
000002c0: 7c16 2fc0 b5a7 29c0 cfa3 8ec0 148f 72c0
000002d0: 81c3 94c0 4fa7 05c0 5acf dabd b3eb 1d3f
000002e0: 44bc fe3e a712 743e 3950 063e 41d6 3dbe
000002f0: 4b95 dbbf 6986 3cbf 5314 32bf f68d 9cbf
00000300: 52dd 1b40 55f7 34c1 a830 97be 4ec9 2ec2
00000310: d33a f82b 8d70 f72b 87ed 2c2c 5ba0 7f2c
00000320: 857f 0c2d a2c4 b42d 038b 842d 9b21 192d
00000330: 64ac e32c f214 c02c ed90 b52c ddac b72c
00000340: 9632 c42c e42f e62c 0736 1c2d 927e 872d
00000350: f855 f32d fa32 302d 0bd2 452d 1c58 222c
00000360: fce3 fb2b eb59 f12b 5b70 d62b a3d4 dc2b
00000370: 42e3 3f2d 1d20 9d2d d25a d32b 4731 3f2f
00000380: 539f 6640 5a42 7040 da3e 9040 afad cb40
00000390: 4db0 8640 7bce 863f 30d3 133f be64 3d3f
000003a0: d3cb 0840 4a64 9e40 79d7 8e40 3743 8f40
000003b0: 0840 9240 9016 9040 1e92 cd40 9934 0840
000003c0: 2f84 23c0 8255 2340 5050 7b40 4107 bf40
000003d0: b8fe b340 d3fe f540 f0cd c240 cb29 6c40
000003e0: 544f 7240 626d 3a41 4713 0140 841c 9d41
000003f0: 0400 0000 0400 0000 0400 0000 0400 0000

exp_avg_sq f4 [5, 128]
457.5377 537.388 260.5163 542.97943 382.46677 682.5899 432.416 938.6972
1271.8156 690.6765 827.2907 761.86115 755.30286 205.35966 685.7334 794.7312
391.6663 553.2092 494.41443 950.6227 536.3421 574.27075 219.41304 846.7091
580.4534 754.75024 714.2918 678.5272 316.50278 551.1988 780.08496 1215.3427
697.9549 971.92725 1150.1575 702.72955 1062.9647 501.56384 279.29202 53.235645
457.87384 509.65103 399.2375 879.3639 1395.7504 242.46278 383.2316 491.20966
955.7797 609.8371 809.98193 534.6235 558.88745 716.3573 329.51465 1144.0953
815.9946 251.33713 1012.11035 1015.7204 327.86023 1042.4164 785.51764 418.21747
1104.4247 212.66307 751.65814 608.6752 593.0067 773.2223 668.4355 351.02618
132.69164 517.68384 660.46045 136.59341 511.35577 1417.7086 329.42227 1590.3982
471.4226 690.2312 745.6408 844.50684 1785.0756 24.474033 1057.8098 815.68066
642.92523 675.98 320.887 798.4758 1070.3503 434.42474 1317.8347 450.84775
209.38725 910.9249 834.3162 440.8982 625.16284 601.3937 497.19223 483.29984
339.6664 227.67249 529.89905 738.9992 274.65146 615.4867 254.62161 812.5989
805.23114 423.48572 335.62024 591.11334 960.7029 548.9671 346.41235 285.30826
110.90533 339.01636 466.3684 516.3876 803.79645 834.033 1266.0591 301.02103
1973.8403 491.6764 1387.4047 3380.4495 2218.3806 2561.633 1174.2113 4523.4556
4084.895 3816.6255 2154.6467 1223.7445 3641.3413 604.7925 1923.8545 1141.2125
1739.268 2483.637 1265.593 3737.1138 1095.2816 1983.3914 1665.1108 1184.1987
1652.0961 2315.9543 2839.2815 1421.1514 1490.4631 2392.085 3758.679 3404.12
1637.0848 3660.3208 5106.7637 2561.1921 2488.2385 1710.4495 394.07056 164.46536
624.5171 1823.3612 2805.6758 5202.773 7049.951 1915.3093 2274.9175 4129.936
4465.3545 961.124 3947.1443 2777.0764 1393.8293 2945.553 869.2261 3176.5112
3770.039 947.28375 4701.8267 2377.2827 738.363 6827.3774 2921.0073 1591.8827
1267.3892 1295.3683 1572.1838 1672.5415 1177.6122 3560.1782 2620.1155 762.4207
242.225 987.5665 3442.8708 963.7207 655.0099 5474.6484 994.8043 3936.0515
767.78906 2854.6025 2139.6501 2536.8643 3584.9617 175.47762 4000.3914 3763.449
4677.124 5795.346 456.63303 2550.8862 3032.2158 1533.5858 2219.3208 2100.2102
955.0451 3881.3938 2377.9048 1734.3451 3296.3474 2101.2498 925.6068 497.25952
940.8444 1074.4364 1596.0852 2780.0906 181.67961 1838.3558 1413.6162 1153.2084
2239.1714 2838.3496 543.7446 2057.755 2078.8735 2539.9392 346.6441 744.5101
361.99258 922.5069 2087.9326 1446.2158 2265.5378 3328.7375 2376.1348 909.20184
00000000: d3c4 e443 d558 0644 1642 8243 afbe 0744
00000010: bf3b bf43 c1a5 2a44 3f35 d843 9fac 6a44
00000020: 19fa 9e44 4cab 2c44 9bd2 4e44 1d77 3e44
00000030: 62d3 3c44 135c 4d43 f06e 2b44 ccae 4644
00000040: 49d5 c343 644d 0a44 0c35 f743 daa7 6d44
00000050: e515 0644 5491 0f44 bd69 5b43 62ad 5344
00000060: 051d 1144 04b0 3c44 ad92 3244 bea1 2944
00000070: 5b40 9e43 b9cc 0944 7005 4344 f7ea 9744
00000080: 1d7d 2e44 58fb 7244 0ac5 8f44 b1ae 2f44
00000090: dfde 8444 2cc8 fa43 61a5 8b43 4df1 5442
000000a0: daef e443 55d3 fe43 669e c743 4ad7 5b44
000000b0: 0378 ae44 7976 7243 a59d bf43 d69a f543
000000c0: e7f1 6e44 9375 1844 d87e 4a44 e7a7 0544
000000d0: ccb8 0b44 de16 3344 e0c1 a443 0d03 8f44
000000e0: a8ff 4b44 4e56 7b43 1007 7d44 1bee 7d44
000000f0: 1cee a343 534d 8244 2161 4444 d61b d143
00000100: 970d 8a44 bfa9 5443 1fea 3b44 362b 1844
00000110: 6e40 1444 3a4e 4144 df1b 2744 5a83 af43
00000120: 0fb1 0443 c46b 0144 781d 2544 ea97 0843
00000130: 8aad ff43 ad36 b144 0db6 a443 becc c644
00000140: 18b6 eb43 cc8e 2c44 0369 3a44 7020 5344
00000150: 6b22 df44 d2ca c341 ea39 8444 90eb 4b44
00000160: 37bb 2044 b8fe 2844 8971 a043 749e 4744
00000170: 36cb 8544 5e36 d943 b6ba a444 836c e143
00000180: 2363 5143 32bb 6344 3d94 5044 f872 dc43
00000190: 6c4a 1c44 3259 1644 9b98 f843 61a6 f143
000001a0: 4dd5 a943 28ac 6343 8a79 0444 f3bf 3844
000001b0: 6353 8943 26df 1944 229f 7e43 5426 4b44
000001c0: cb4e 4944 2cbe d343 64cf a743 41c7 1344
000001d0: fc2c 7044 e53d 0944 c834 ad43 75a7 8e43
000001e0: 87cf dd42 1882 a943 282f e943 ce18 0144
000001f0: f9f2 4844 1d82 5044 e441 9e44 b182 9643
00000200: e4ba f644 94d6 f543 f36c ad44 3147 5345
00000210: 17a6 0a45 211a 2045 c3c6 9244 a55b 8d45
00000220: 524e 7f45 028a 6e45 59aa 0645 d3f7 9844
00000230: 7695 6345 b832 1744 587b f044 cda6 8e44
00000240: 9368 d944 313a 1b45 fa32 9e44 d291 6945
00000250: 03e9 8844 86ec f744 8c23 d044 5c06 9444
00000260: 1383 ce44 45bf 1045 8174 3145 d8a4 b144
00000270: d24e ba44 5c81 1545 ddea 6a45 ecc1 5445
00000280: b7a2 cc44 22c5 6445 1c96 9f45 1313 2045
00000290: d183 1b45 62ce d544 0809 c543 2277 2443
000002a0: 1821 1c44 8feb e344 d05a 2f45 2f96 a245
000002b0: 9c4f dc45 e669 ef44 ae2e 0e45 7d0f 8145
000002c0: d68a 8b45 f047 7044 4fb2 7645 3991 2d45
000002d0: 8a3a ae44 d918 3845 784e 5944 2e88 4645
000002e0: a0a0 6b45 29d2 6c44 9dee 9245 8694 1445
000002f0: 3b97 3844 055b d545 1e90 3645 3ffc c644
00000300: 746c 9e44 c9eb a144 e285 c444 5411 d144
00000310: 9733 9344 da82 5e45 d9c1 2345 ed9a 3e44
00000320: 9a39 7243 42e4 7644 ef2d 5745 20ee 7044
00000330: a2c0 2344 3015 ab45 7ab3 7844 d300 7645
00000340: 80f2 3f44 a469 3245 67ba 0545 d48d 1e45
00000350: 630f 6045 457a 2f43 4306 7a45 2f37 6b45
00000360: fe28 9245 c51a b545 0751 e443 2e6e 1f45
00000370: 7483 3d45 bfb2 bf44 22b5 0a45 5d43 0345
00000380: e3c2 6e44 4d96 7245 7a9e 1445 0bcb d844
00000390: 8f05 4e45 ff53 0345 d666 6744 38a1 f843
000003a0: 0b36 6b44 f74d 8644 ba82 c744 73c1 2d45
000003b0: fbad 3543 63cb e544 b8b3 b044 ab26 9044
000003c0: bef2 0b45 9865 3145 a8ef 0744 149c 0045
000003d0: faed 0145 07bf 1e45 7252 ad43 a520 3a44
000003e0: 0dff b443 71a0 6644 ec7e 0245 e8c6 b444
000003f0: 9b98 0d45 cd0b 5045 2882 1445 eb4c 6344

exp_avg f4 [5, 128]
-0.21239106 0.9356728 0.76505166 1.0572171 -0.32284057 1.2603749 -0.78241646 0.27448437
-0.7215783 0.50763816 -0.66787726 0.3344665 0.8117964 0.34308237 -0.034730356 1.3098438
-0.31017283 -0.8249129 -0.02760112 -1.0059695 -0.29432863 -0.8378156 0.101231195 -0.68542325
-0.74460405 0.025915949 -0.23381302 -0.18094845 0.34777334 -0.8547569 -0.93126 -0.9707291
-0.23044704 -0.036973428 -0.047341995 -1.1806686 -1.497661 0.26821393 0.77136445 0.31974828
0.9483512 0.736345 -0.39901227 -0.80068725 0.12795123 0.28497165 0.7114809 -0.77146965
0.13485329 -1.2537848 0.18301353 -0.6559889 0.23363078 -1.2302152 1.3430623 -1.0320442
-1.0262569 -0.957475 -0.18543509 -0.8915911 -0.5379525 -1.0771835 -0.018310985 0.10156727
-0.7848513 0.60897636 0.38823116 -0.41558072 0.14215308 -0.5575279 -1.7132412 -0.3465182
0.13940153 0.5086426 -0.4557539 0.36279365 -0.05181342 -1.0682691 -0.6592766 -0.113411956
-1.4275389 -1.6673867 -0.92218727 -0.06561415 -1.246315 -0.4031239 0.21334852 -1.0871447
-1.0810568 -0.13100567 0.43609515 0.13424361 -1.6760131 0.28344238 -0.1396283 -0.4582813
-0.23630491 0.019900924 0.33472806 -1.1509724 0.18354946 -0.84216654 -0.25560158 -0.6587623
0.25542167 0.29133222 1.4929135 0.5817687 -0.34962252 -0.7317975 -0.6092752 0.5027605
-1.020454 0.036759138 1.160293 -0.34952566 -0.93605703 -0.17479996 -0.42030117 -0.40082502
-0.38828236 -0.39591062 -0.28664678 -1.2067286 -0.37443146 0.21430433 -1.7219577 0.06421469
-0.070299365 -0.20979917 2.088544 -1.0832589 1.097358 0.29047975 1.0856209 -2.0748723
-2.0099342 -2.219832 -1.2717252 1.0088556 -2.8917549 -0.16309328 2.4881265 1.0752542
1.9563571 -1.8588586 -0.86462605 -1.745452 2.7506695 -0.119384445 0.16508938 -0.81155574
-0.50540805 -3.045577 0.6338491 2.2086565 -0.5762199 0.4907948 -1.9744459 -2.2492528
-1.2813114 -0.35903528 -1.5677773 -0.44236422 -1.3427798 2.1756895 0.080720805 0.7547569
0.4220329 1.5740749 -1.3701339 -2.5900717 -0.72713196 0.6764109 1.4960601 1.7046555
-0.8652917 -0.43135422 -2.2391675 1.5044733 1.0635439 -1.2076349 2.7624822 -0.38223147
-1.5192447 1.6832138 -1.8682798 -3.5537093 5.3706775 -1.4586681 -0.84575534 2.5059156
-0.4402122 2.878459 1.5550725 -0.7866032 -0.5949482 -0.7967165 0.01652378 0.29272792
0.18720798 -0.43031338 0.13152422 2.7983937 0.60891 -0.4722943 0.23743653 -4.097402
1.9169794 -0.043547392 -1.1341299 -1.4487116 -2.5502238 1.4922316 -3.1198313 -3.1058028
-2.6008384 -0.32707447 0.7647815 -0.79509735 -3.529068 0.8795811 0.67625517 2.2974145
0.8717143 -0.6695612 0.28251255 -1.3069671 -0.75670046 -0.29121456 2.821655 1.8709255
0.4750139 -0.17542593 1.2905611 -3.9338562 3.3543422 2.497055 1.4727471 -2.746076
-0.08297698 0.42320848 3.4035354 2.5250497 -0.8276218 1.1028812 3.022351 1.5792166
1.0223267 -0.15932603 0.81016314 -2.566877 -1.3898998 -0.5558618 -3.691387 -0.6703124
00000000: 0b7d 59be 4188 6f3f 6dda 433f e452 873f
00000010: 5c4b a5be f753 a13f 724c 48bf 3789 8c3e
00000020: 5bb9 38bf 93f4 013f 01fa 2abf 313f ab3e
00000030: e4d1 4f3f 7ea8 af3e 6b41 0ebd f6a8 a73f
00000040: f9ce 9ebe 7e2d 53bf be1b e2bc 9cc3 80bf
00000050: 3eb2 96be 157b 56bf 4d52 cf3d e677 2fbf
00000060: 5f9e 3ebf af4d d43c ae6c 6fbe 8d4a 39be
00000070: 590f b23e 59d1 5abf 0e67 6ebf b481 78bf
00000080: 4ffa 6bbe 7371 17bd aee9 41bd 2620 97bf
00000090: 5bb3 bfbf 5653 893e 2478 453f 0cb6 a33e
000000a0: 25c7 723f 1b81 3c3f 564b ccbe d7f9 4cbf
000000b0: a605 033e cee7 913e 9d23 363f 097f 45bf
000000c0: fb16 0a3e 057c a0bf e667 3b3e e3ee 27bf
000000d0: e83c 6f3e b177 9dbf 77e9 ab3f 061a 84bf
000000e0: 635c 83bf 151d 75bf b2e2 3dbe 503f 64bf
000000f0: 41b7 09bf 26e1 89bf eb00 96bc 8002 d03d
00000100: 04ec 48bf e0e5 1b3f 3cc6 c63e ffc6 d4be
00000110: 9490 113e 26ba 0ebf 7d4b dbbf d56a b1be
00000120: 46bf 0e3e 6736 023f 9358 e9be 17c0 b93e
00000130: 4f3a 54bd 0bbd 88bf 5ac6 28bf 8744 e8bd
00000140: 98b9 b6bf ed6c d5bf 7714 6cbf b660 86bd
00000150: 4087 9fbf 4166 cebe 0978 5a3e 8f27 8bbf
00000160: 1260 8abf 5a26 06be dd47 df3e 2877 093e
00000170: 9987 d6bf 5c1f 913e b9fa 0ebe d9a3 eabe
00000180: eaf9 71be 4307 a33c 7a61 ab3e 1053 93bf
00000190: 64f4 3b3e 3a98 57bf 36de 82be a5a4 28bf
000001a0: a1c6 823e 7f29 953e ca17 bf3f cbee 143f
000001b0: b901 b3be 1557 3bbf 76f9 1bbf eab4 003f
000001c0: 3d9e 82bf c090 163d 7b84 943f 07f5 b2be
000001d0: 6fa1 6fbf c3fe 32be b731 d7be f038 cdbe
000001e0: f2cc c6be ccb4 cabe 5ec3 92be 1576 9abf
000001f0: 7bb5 bfbe 9872 5b3e 1c69 dcbf fe82 833d
00000200: 1df9 8fbd 98d5 56be b4aa 0540 3aa8 8abf
00000210: 3a76 8c3f c3b9 943e a0f5 8a3f b5ca 04c0
00000220: c3a2 00c0 ba11 0ec0 e4c7 a2bf 2e22 813f
00000230: 8312 39c0 ed01 27be 773d 1f40 eea1 893f
00000240: e969 fa3f 14ef edbf 2258 5dbf f96a dfbf
00000250: f80a 3040 d57f f4bd 310d 293e 1ec2 4fbf
00000260: 6c62 01bf bcea 42c0 ef43 223f a15a 0d40
00000270: 2683 13bf 7549 fb3e a5ba fcbf c2f3 0fc0
00000280: 0302 a4bf 79d3 b7be edac c8bf 907d e2be
00000290: 35e0 abbf 7f3e 0b40 f350 a53d c037 413f
000002a0: b214 d83e 497b c93f 8c60 afbf bcc3 25c0
000002b0: 5225 3abf 4429 2d3f e67e bf3f 2732 da3f
000002c0: c283 5dbf 76da dcbe 854e 0fc0 9592 c03f
000002d0: 3522 883f c893 9abf 82cc 3040 d8b3 c3be
000002e0: 9c76 c2bf 8d73 d73f cb23 efbf f96f 63c0
000002f0: 97dc ab40 a3b5 babf 6c83 58bf ec60 2040
00000300: 7e63 e1be ac38 3840 9e0c c73f d45e 49bf
00000310: 864e 18bf 9df5 4bbf e15c 873c 6fe0 953e
00000320: 73b3 3f3e 0952 dcbe 49ae 063e e218 3340
00000330: 87e1 1b3f 8fd0 f1be 9022 733e eb1d 83c0
00000340: 955f f53f c05e 32bd 2b2b 91bf 626f b9bf
00000350: de36 23c0 7201 bf3f 51ab 47c0 79c5 46c0
00000360: 2374 26c0 4e76 a7be b8c8 433f 808b 4bbf
00000370: 40dc 61c0 3a2c 613f 0f1f 2d3f d708 1340
00000380: ab28 5f3f 5d68 2bbf 7ca5 903e b34a a7bf
00000390: 1fb7 41bf 131a 95be ff95 3440 7d7a ef3f
000003a0: 0635 f33e dba2 33be 1b31 a53f 4dc4 7bc0
000003b0: 8bad 5640 c0cf 1f40 fa82 bc3f b6bf 2fc0
000003c0: d6ef a9bd c8ae d83e 86d3 5940 6a9a 2140
000003d0: 06df 53bf 362b 8d3f 336e 4140 c523 ca3f
000003e0: 9adb 823f 5d26 23be da66 4f3f b647 24c0
000003f0: 3de8 b1bf f54c 0ebf af3f 6cc0 9899 2bbf
