model/190a.pt (torch_old, 336838 bytes, 24 tensors)

fc1.weight f4 [128, 28]
000000 b1 81 60 bb fb 5e e9 bd c5 83 af be ff 89 f9 bd
       -0.003425699 -0.11395069 -0.3428022 -0.12184524
000010 88 2a c7 be e4 99 df be 66 ce 60 bd ac 4f f0 bd
       -0.38899636 -0.43672097 -0.054884337 -0.11733946
000020 78 15 73 be 35 f9 e7 3d f7 72 1b bd 72 c0 28 bf
       -0.23738658 0.11326829 -0.037951436 -0.6591865
000030 28 61 af be 82 37 e6 bd 00 55 62 3e 39 df a4 3e
       -0.34253812 -0.11241056 0.22102737 0.32201555
000040 36 a7 db 3e 28 fb 15 3e 64 07 0b bf 26 ee b7 bf
       0.4290101 0.1464659 -0.5430815 -1.4369552
000050 74 27 96 bf 60 d0 3c bf ae 76 8e bd 7b b4 f8 3d
       -1.173079 -0.73755455 -0.0695623 0.12143799
000060 42 31 f6 be 02 86 d7 3d 26 22 a1 bf 05 76 bc 3d
       -0.48084456 0.10523607 -1.2588546 0.09202198
000070 ba eb 52 3f 4a 0b 36 3f 42 99 1f 3e ea 5a a2 3d
       0.8239094 0.71110976 0.15585807 0.07927497
000080 fd 36 8e bc ae 20 d6 be a7 3c 5b 3d eb b8 69 3e
       -0.017360205 -0.41821808 0.05352464 0.22824447
000090 99 fe 21 3d 0d 4f 13 3e 64 1f bd 3d 08 ec 11 be
       0.039549444 0.14385624 0.09234503 -0.14250195
0000a0 17 ad 76 be 66 88 ad be e6 a1 56 bc d4 85 c6 bc
       -0.24089466 -0.33893126 -0.013100123 -0.024233736
0000b0 6d 95 e0 3d fd 80 ed 3c d8 d5 96 be 04 7a 07 be
       0.10966001 0.02899217 -0.29460025 -0.13230139
0000c0 8f ca 11 3c a5 b2 ff 3d fe d2 67 be c0 6a 3b 3f
       0.008898391 0.124852456 -0.22639081 0.7320976
0000d0 2a 9a 0f 3e ef 46 95 bd 5d 1b 81 3f 13 0f a8 bd
       0.14023653 -0.0728892 1.0086476 -0.08206
0000e0 3a ed 7d bf 29 11 64 bf 52 71 bb be c6 b5 41 3e
       -0.99190104 -0.89088684 -0.36609894 0.18916997
0000f0 64 a3 75 3d 50 26 6c bd 0f b1 89 3c 69 cd de 3d
       0.059970275 -0.057653725 0.01680806 0.10879023
000100 92 38 d7 3d e0 54 42 3e b3 1f 86 3e e1 7c a4 3e
       0.10508837 0.1897769 0.2619606 0.32126525
000110 4e e9 22 3d 78 eb f7 3c 65 94 17 bd cd 82 58 bd
       0.039773278 0.030263647 -0.037006754 -0.052859116
000120 bf b9 fc bd 38 64 a5 be 18 52 9e bc a3 6b 45 be
       -0.12340116 -0.32303023 -0.019326255 -0.19279341
000130 c8 34 89 3d 6e 76 d0 bd 98 a6 d9 be 54 66 91 bf
       0.0669952 -0.10178839 -0.42509913 -1.1359353
000140 7c e8 7b 3e 50 55 12 3e f6 73 99 bf f5 82 bc 3d
       0.24600405 0.14290357 -1.1988513 0.092046656
000150 ac dd 2e bf 93 b0 2b bf 7d e6 9d be 2e b2 a2 bd
       -0.68306994 -0.67066306 -0.3083991 -0.07944141
000160 ae 6b f0 bc 4a 7e c5 bd 89 11 72 be 78 b9 3c 3d
       -0.02934822 -0.09643228 -0.23639502 0.046075314
000170 9f 17 b5 3d 6e 99 91 3e 29 1e a7 3e 8c 01 96 3d
       0.08842396 0.2843737 0.32640198 0.07324514
000180 41 70 fe bc 26 56 e2 bc d3 21 17 be 4d 31 bb be
       -0.031059386 -0.02762897 -0.14758997 -0.3656105
000190 77 8f 24 be ed ca 53 be 3d 4d b7 3e 3a 82 02 3e
       -0.16070352 -0.20682879 0.35801116 0.1274499
0001a0 1a 99 29 3e 4c c9 43 3c 6b cb b1 be 39 2d 53 bf
       0.1656231 0.011949848 -0.34725508 -0.8249088
0001b0 cb 93 7c 3e 8a 39 7b bd b2 9b 74 bf 4a 21 cc 3c
       0.24665754 -0.06133417 -0.9555007 0.024918217
0001c0 89 66 5c bf 8e 76 4e bf e7 df 58 be 7b 70 95 bd
       -0.86093956 -0.8064965 -0.21179162 -0.072968446
0001d0 98 52 93 bd 25 4b 2b bd 37 8c 11 be 73 47 d4 3d
       -0.07193488 -0.04181971 -0.14213644 0.1036519
0001e0 b4 0b 55 3d 4c e5 5b 3d b1 5c a1 3e 99 17 7c 3e
       0.052013114 0.05368547 0.3151603 0.24618377
0001f0 c4 f0 f6 bb b8 71 75 3d c1 c5 32 3e 03 27 80 3e
       -0.0075360257 0.059922904 0.1745825 0.25029764
000200 8f 9f b4 be a0 e8 b0 be e5 59 88 bd fd 62 0d 3c
       -0.35277984 -0.3455248 -0.06657771 0.008629558
000210 6b dc 19 bb 45 0f cc bc 5e 3f d5 3d 50 26 64 bf
       -0.0023477327 -0.024909625 0.10412477 -0.8912096
000220 77 96 97 3e a5 f5 b6 3d f6 3c 8a bf 3e 59 2d 3d
       0.29606983 0.08933572 -1.0799854 0.042321436
000230 0d db 3c bf 1a 97 92 bf 4b 61 2c bf 3f e9 7f 3e
       -0.73771745 -1.1452363 -0.6733596 0.2499132
000240 57 09 32 3e 17 34 ee 3d b6 4f 85 bd da 14 31 3d
       0.17386375 0.11631029 -0.06509344 0.043232776
000250 b4 5d 46 3d 30 c4 c2 3d 0b ff 49 3e 6d 8c 63 3d
       0.048429206 0.09510076 0.19726197 0.055553842
000260 32 24 3b 3d 70 fe b8 bd 8b f9 9e ba 92 6d 1f 3e
       0.045688815 -0.09032905 -0.0012128813 0.15569142
000270 65 f3 a3 bc fc 56 92 3d 83 c9 14 3d 9a cd 3f 3e
       -0.02001352 0.07145497 0.03632499 0.18730775
000280 3e 9c 16 be 47 12 c4 3d 5c 62 75 3e b1 56 59 bf
       -0.14708039 0.095737986 0.23963302 -0.84897906
000290 12 cd 99 3e d5 29 ee 3d c3 e0 81 bf 11 38 c5 bd
       0.3003927 0.116290726 -1.0146717 -0.096298344
0002a0 43 8e 46 bf e4 d5 fe 3d f4 4f 87 bc 04 5e 88 bb
       -0.77560824 0.1244314 -0.016517617 -0.004161598
0002b0 2e cf 62 3e a0 be 16 3d d3 99 ad 3e 49 a9 49 3e
       0.22149345 0.036802888 0.3390642 0.19693483
0002c0 12 1b 7f 3e 52 bc 2f 3e 6d b1 be 3e d8 58 22 ba
       0.2491267 0.17161682 0.3724474 -0.00061930483
0002d0 a8 bf fe bd dd 70 60 3c 0c 5b 1a be 57 b2 16 be
       -0.12438899 0.013698784 -0.15073794 -0.14716469
0002e0 7e 15 bd bd d4 23 44 3e a7 2d d7 3c 6a d1 48 be
       -0.09232615 0.19154292 0.026266886 -0.19611135
0002f0 a3 41 97 bb 12 a5 c3 3d 54 d9 1e bf 05 0d 74 bf
       -0.004615979 0.09552969 -0.62050366 -0.95332366
000300 b9 d0 d0 bd 32 8a 4c 3d e9 0d 9f bf 40 26 e4 3c
       -0.10196061 0.04993648 -1.242612 0.02785027
000310 63 ca 33 bf 3f 8d 1a be 53 06 5b be 95 ba 69 bd
       -0.7023069 -0.15092944 -0.21389131 -0.057062704
000320 6e bb bc bd 50 c9 22 3e 81 ac b0 3d 29 f8 0c bd
       -0.09215437 0.15897107 0.086266525 -0.03441635
000330 65 0e e2 3d a6 6f 2f be 57 6d f4 bd 00 97 65 be
       0.11037902 -0.17132434 -0.119349174 -0.22420883
000340 9c e2 19 be 56 de e9 3c c0 dd 45 bd 29 2b 5e be
       -0.15027851 0.0285484 -0.04830718 -0.21696152
000350 18 5d 86 3c 6d eb 55 bd 3b f2 39 bd bd 4f a2 be
       0.016401812 -0.052226473 -0.045397025 -0.3170146
000360 85 5f 52 bf 4c 0f 42 bf bd 54 34 bf 1b f8 5c bf
       -0.82177 -0.7580459 -0.704418 -0.8631608
000370 12 7b 8e be 11 38 9e 3c 4a 21 75 bf 23 9a c5 3d
       -0.2782827 0.019313844 -0.9575392 0.0964854
000380 2d 3b bc 3e 4f 65 15 3f 3c ab c2 bd 8c ce a3 3d
       0.36763898 0.5835771 -0.095053166 0.0799838
000390 c2 93 64 bd 35 e5 2d bc 53 ed a5 be 39 f9 b5 be
       -0.055804975 -0.010613729 -0.32407627 -0.35541704
0003a0 f7 f6 c7 bc 8f 1b 8d 3e 70 eb e3 bd 9a 02 5a be
       -0.024409754 0.27560088 -0.111288905 -0.21290055
0003b0 6a b1 6c be 45 c8 3e 3c e6 c9 cb bc d4 65 87 3d
       -0.23114553 0.011644428 -0.024876546 0.06611219
0003c0 90 42 86 be af c7 e4 be 30 e0 2d 3b 4a 24 f7 bd
       -0.26222658 -0.44683596 0.0026531331 -0.120674685
0003d0 b2 8e 17 3e b7 44 8f 3c e2 31 13 bd f8 ad ef 3e
       0.14800528 0.01748882 -0.035936244 0.46812415
0003e0 df 45 53 bf 48 6d 81 bd bb ce 40 3d 00 e6 fd 3d
       -0.8252849 -0.06319672 0.047072154 0.12397385
0003f0 ce 9c 36 3e 2b 34 28 be 13 07 3b bd de b2 02 be
       0.17833254 -0.1642615 -0.045661043 -0.12763545

fc1.bias f4 [128]
000000 55 36 14 3d bb 6b 22 bd eb 89 f6 bc e1 40 4e bd
       0.036184628 -0.03965352 -0.030095061 -0.050354842
000010 2b 41 30 3d 06 20 79 3d 4f d2 3b 3e 67 c8 5c bd
       0.0430309 0.060821556 0.18341945 -0.053902056
000020 2c ce 6f be 0a c8 77 bb 65 fc 6c bd 95 b3 5d 3d
       -0.23418492 -0.0037808442 -0.05785789 0.05412634
000030 8c a9 7c 3d 73 d7 16 3e 81 38 1e 3d 6c 9f 58 be
       0.06168513 0.14730625 0.038628105 -0.21154565
000040 4c 55 2e be b8 af f8 bd 76 bb 0a be 60 87 2d be
       -0.17024726 -0.12142891 -0.13548073 -0.16946173
000050 5a 0b 36 bd 28 b5 11 3d ae 7d ee 3e 66 68 48 3e
       -0.04444442 0.035573155 0.4658026 0.19571075
000060 be 52 92 bd b7 22 4b be 73 6b d4 bd 56 4e 14 be
       -0.07144688 -0.19837461 -0.10372057 -0.14483008
000070 c8 2d a7 bc d5 11 22 be a0 ff f2 bd 7c d6 3a 3e
       -0.020407572 -0.15827115 -0.11865163 0.18245882
000080 af a4 b5 bd 67 32 d8 bd 64 4e 99 3e fc 79 67 bd
       -0.088693015 -0.105564885 0.2994262 -0.056512818
000090 2b e1 31 3e 92 40 0f be 5d 5e 1c bd a7 4a f6 bd
       0.17371051 -0.13989475 -0.03817593 -0.120259576
0000a0 a7 0e 09 be f4 f6 58 3e c2 11 2c 3c 74 38 37 3d
       -0.13384496 0.21187955 0.010502281 0.044731572
0000b0 b3 41 db bc 05 0c 7a be 95 43 bd bc 7e 0a e8 3e
       -0.026764726 -0.24418648 -0.023103515 0.45320505
0000c0 d4 c2 20 3e 14 8c 15 bd b5 93 80 3d 17 cc 71 3d
       0.15699321 -0.036510542 0.06278173 0.059032526
0000d0 ea dc 4f be f8 38 47 bd 47 16 01 3e dd 21 88 be
       -0.20299116 -0.048638314 0.12606154 -0.26588336
0000e0 ef 70 37 3d d6 4f 09 3e d7 96 63 be de 60 00 3f
       0.044785436 0.13409361 -0.2222551 0.5014781
0000f0 ae 97 9d 3d 65 6b be bc 6c 54 3d 3e 67 40 29 be
       0.07694946 -0.02324457 0.18489236 -0.16528474
000100 20 97 34 3e 23 49 4b 3e c9 11 f7 3d f1 5b 48 3e
       0.17635775 0.19852118 0.12063939 0.19566323
000110 e2 d2 08 be 84 7b 44 3e 72 2f 44 be 54 c2 3a bd
       -0.13361695 0.19187742 -0.19158724 -0.045595482
000120 56 9b 5c be 5e 30 90 bc 99 bb f0 3c 81 5d 2d be
       -0.21543631 -0.017601188 0.029386329 -0.169302
000130 72 ab a6 3c ae 84 af bd 36 a4 76 be c4 50 4a bc
       0.020345423 -0.085702285 -0.24086079 -0.012348358
000140 fb 4b 2f bd 2f 3a 87 bc fa 90 25 3d b2 a5 e5 3d
       -0.04279707 -0.016507236 0.040421464 0.112132445
000150 3a e3 86 3e 18 2f 3f 3d 4b 03 83 bd 33 a2 d6 bd
       0.26345235 0.04667577 -0.063971125 -0.10480156
000160 3f 0a 29 3d 5d 3b b7 bc 63 e1 3f be 35 1b a4 3a
       0.041269537 -0.022367174 -0.18738322 0.0012520315
000170 60 7c c6 bc d5 fb 7b bd 3c 12 75 bd 77 14 50 bd
       -0.024229228 -0.061519463 -0.059831843 -0.050800767
000180 f8 ac 01 be a9 46 4a be 7a dd 40 3f 36 86 8e 3d
       -0.12663639 -0.19753517 0.75337946 0.069591925
000190 9f bd c7 3e 56 6f 57 bd a1 39 a3 3d 27 c2 0e be
       0.39011857 -0.052596413 0.07969976 -0.1394125
0001a0 8b 49 fd 3d 44 5d a7 3d 8a bb 1e 3d 83 80 8a 3e
       0.12367543 0.08172086 0.03875307 0.27051172
0001b0 2a b7 48 bd 94 0c c3 bd e7 34 01 3d 4b 37 88 3e
       -0.049002804 -0.095238835 0.031544592 0.26604685
0001c0 17 46 10 be be ec 6f 3d 15 50 cc 3c 6b 23 8d 3c
       -0.14089237 0.058575384 0.02494053 0.017228803
0001d0 22 1a 29 be 5c b9 c0 bc 55 f8 3b 3d 8e ef 5c bd
       -0.16513875 -0.023525886 0.045891125 -0.053939395
0001e0 ca df dd bd 6e ac d7 bc f7 ff b6 bd 23 90 38 bd
       -0.108337 -0.026327338 -0.0893554 -0.045059334
0001f0 18 f4 65 3d 4a 74 a1 bc 8f 4c 1e be 9f 21 38 be
       0.05614099 -0.019708771 -0.15458892 -0.17981575

fc2.weight f4 [128, 128]
000000 10 cc b8 be 3b 08 fc be 77 3a c8 3d 1a b2 27 be
       -0.36093187 -0.4922503 0.09776776 -0.16376534
000010 df dd d1 3d 9d bf 1b bd b0 0b 78 bd fc 50 de 3e
       0.10247397 -0.038024534 -0.06055802 0.4342116
000020 ad d5 0b be 35 17 a5 be ae d6 1b be 3e f3 4a be
       -0.1365573 -0.32244268 -0.15218613 -0.19819352
000030 e9 dd 7a 3e 83 12 89 3e 54 26 1c be 5a c7 b9 be
       0.24498715 0.26771936 -0.15248996 -0.36284906
000040 2b e7 19 be 1b a6 68 3d 5f 87 a4 be 54 a6 d0 bd
       -0.1502959 0.056799036 -0.3213453 -0.101879746
000050 62 ce e8 be af 99 1a be e6 2a f6 3d 0a d1 3e 3e
       -0.45469958 -0.15097688 0.12019901 0.1863443
000060 38 da ae 3d 97 2c 16 bf f7 e5 2b 3e 92 e3 92 3d
       0.08537716 -0.5866179 0.16786943 0.07172312
000070 c5 10 10 bd a9 b9 ad bd 89 1f 6c bb 04 65 ec 3d
       -0.035172243 -0.084826775 -0.0036029539 0.11542705
000080 74 c2 bd 3d 91 15 09 3f 7b 8e e9 3d 19 49 a2 3e
       0.092656046 0.5354853 0.11404129 0.31696394
000090 5b 6d 9f 3e f9 b1 11 be 45 c5 fa 3d 77 63 14 bf
       0.3113812 -0.14228047 0.122446574 -0.5796427
0000a0 8a b2 f5 be 64 d1 8a 3d b8 e8 e0 3d 5d bf 94 3e
       -0.47987777 0.06778219 0.109818876 0.2905225
0000b0 0b 07 fb 3b f2 05 fe be 3e 73 fc 3d 87 8d ac 3d
       0.0076607517 -0.4961391 0.12326668 0.08425432
0000c0 44 15 82 3e 36 cb 62 bd 2d 0e 7e 3e 59 93 46 3e
       0.2540685 -0.05536958 0.24810095 0.19392146
0000d0 03 f0 34 bb 0e 6b 9d 3e 24 96 b9 be af df b7 be
       -0.0027608878 0.3074574 -0.3624736 -0.35912845
0000e0 eb ac ae be ac 74 65 3e 19 c1 80 3e 84 1b e3 be
       -0.341163 0.22407788 0.25147322 -0.4435693
0000f0 c6 13 a7 3d d6 64 8e be e6 30 bd 3d 52 d3 4f bf
       0.08158068 -0.27811307 0.09237842 -0.81181824
000100 e6 3e 69 3e bd 89 aa 3e b4 18 8f 3e 21 00 f1 3d
       0.227779 0.3330821 0.27948534 0.11767603
000110 2a 26 c3 bd 54 6e 40 3d 77 e8 c3 bd 43 95 20 3d
       -0.095287636 0.046980217 -0.095658235 0.039204847
000120 1f 05 d7 be d1 e3 87 3e e5 6d bd be 80 97 76 be
       -0.41996095 0.26540998 -0.36997905 -0.2408123
000130 8b 8b 82 be 0e 05 13 3e 50 8a 13 be 59 d3 92 3e
       -0.25497088 0.14357397 -0.14408231 0.2867687
000140 c0 11 4f be 4d 42 0d bf 18 6b df 3b 31 1a f6 be
       -0.20221615 -0.5517929 0.0068181865 -0.48066857
000150 bb 2c 82 3e c9 56 2c 3d 91 bb 38 bc c5 06 10 be
       0.25424752 0.042074952 -0.011275188 -0.14065082
000160 5d f3 cc be 93 8c a2 bd d2 ed f4 be d0 e6 34 3e
       -0.4002942 -0.07936969 -0.47837692 0.17666173
000170 a3 ad cd be cd b8 32 bd b4 d9 19 3e 07 78 40 be
       -0.40171537 -0.04363327 0.15024453 -0.18795787
000180 5d 21 cd 3e dc 02 83 be 13 00 2e be eb 62 aa be
       0.40064517 -0.2558812 -0.16992216 -0.33278593
000190 ec b6 ac be 3f 45 a7 be b6 bc 5d 3e 6b 74 c7 bc
       -0.33733308 -0.32670018 0.21654019 -0.024347505
0001a0 1b 6c 7b 3e 20 81 19 3d 92 50 3d 3e b5 ca 25 3e
       0.24552958 0.03747666 0.18487766 0.16190608
0001b0 88 22 92 3d cb 73 b0 bd 7b bd a3 bd 01 42 09 3e
       0.071354926 -0.08615836 -0.07995125 0.13404085
0001c0 65 a2 8d 3d 0c 7e fc bd 90 9b 0d be 46 4a 85 bb
       0.0691574 -0.12328729 -0.13828874 -0.004067692
0001d0 d5 cd 25 3e fb 1d e4 3e 94 9d 5a 3e 68 90 ec 3e
       0.161918 0.44554123 0.21349174 0.46203923
0001e0 51 78 37 bf e1 09 45 be 7f d4 cb 3e a8 b6 d3 3d
       -0.71667963 -0.1924205 0.3981056 0.10337573
0001f0 a0 55 98 be 9d c7 f7 3e 0a 5e 6e be e1 2a 95 be
       -0.29752827 0.4839448 -0.2327806 -0.29134277
000200 74 8c 83 bd 14 f7 0f bc 3d e9 3b bd 9f d2 c6 3e
       -0.06423274 -0.008786935 -0.04587673 0.38832566
000210 a0 0b 64 be 53 20 93 3e cc ff 04 3e 93 fa db 3e
       -0.2227006 0.287356 0.12988204 0.4296461
000220 6a ec 15 3e 7d a4 f0 3e 36 f5 86 3d f3 38 ac bd
       0.14640966 0.47000495 0.06589739 -0.084093
000230 7f 23 00 3e 4c 6a d1 3e 94 d3 f1 3d 5b 84 c6 be
       0.1251354 0.4090141 0.118079334 -0.38772854
000240 3e f5 d4 3a 0c f0 5e 3d 5e 85 fb 3e 09 8e 4e 3d
       0.0016247404 0.054428145 0.4912519 0.050428424
000250 aa 7e 14 3e df 05 94 be 98 b3 f4 bd 22 f2 44 be
       0.14501444 -0.2891073 -0.11948317 -0.19232991
000260 76 2b 44 bd 52 5b cc 3d ae 8d c8 bd 1f 23 be be
       -0.04789301 0.099783555 -0.09792648 -0.3713617
000270 5a 83 d3 3e 3b 38 56 3e 30 3e f3 be ab 56 08 be
       0.4131115 0.20919888 -0.47508383 -0.13314311
000280 41 3b 04 3f ca 2b ce 3e 05 81 7e 3e 2d 4a 2b be
       0.51652914 0.40267783 0.24853905 -0.16727515
000290 bb 1b c0 3e 75 0b 19 3e d6 91 8f bd 6a 41 e7 be
       0.37521157 0.14945777 -0.07010238 -0.45167094
0002a0 21 23 95 3e 51 1e dc 3e 93 30 6c 3c 27 97 cb bc
       0.29128364 0.4299188 0.014415878 -0.024852348
0002b0 97 b4 71 3e f9 9d 7e bb 08 39 54 3e cb 37 a7 3e
       0.23604046 -0.0038851483 0.2072488 0.32659754
0002c0 e2 b0 05 3e 5b b4 d8 3e ce 10 7f 3d fe a6 92 3d
       0.13055757 0.423251 0.062271886 0.071607575
0002d0 b3 8e a5 bd db 87 66 be 4e eb 3b bd e0 87 46 bf
       -0.08083858 -0.22512762 -0.0458787 -0.7755108
0002e0 c4 72 f0 3d 10 c6 f4 3e e0 2f c0 be 8e 30 d4 be
       0.1174064 0.4780736 -0.37536526 -0.41443294
0002f0 c9 37 28 3f 83 a7 82 be 51 48 84 3e 88 2b 12 be
       0.6571012 -0.25518426 0.25836423 -0.14274418
000300 97 85 3e 3e 60 3f b2 3d 85 e8 28 3e 97 fc fa 3d
       0.18605648 0.08703494 0.16494949 0.12255209
000310 e2 ca 9b 3d e3 0e fa 3d 3d 9a 16 3f b3 7e b2 be
       0.07607056 0.12209871 0.588291 -0.3486229
000320 4d 3f 5b 3e 43 4f a0 be 2c ba ad bc dc 78 0b 3f
       0.21410866 -0.31310472 -0.021206938 0.5448129
000330 1e d6 07 3f 9a c0 0d be d5 a8 2c 3c ce ef 6f 3e
       0.5306109 -0.13843003 0.0105383 0.23431322
000340 70 37 f8 3e fa cd bb 3e 6d 80 21 3f 16 d0 a4 3d
       0.48479795 0.36680585 0.6308659 0.08047502
000350 88 4b 22 be aa b2 59 be 4b 7b 94 3d 95 8f 82 be
       -0.15849125 -0.21259561 0.07250079 -0.2550017
000360 de b5 bd be 04 5f d8 3e 50 74 11 3d e7 03 f8 3e
       -0.37052816 0.4225999 0.035511315 0.48440477
000370 b6 ce c1 3d d5 2c 50 be e4 2b 53 be b6 02 b5 3e
       0.09463255 -0.20329602 -0.20622212 0.3535363
000380 99 12 a0 be 8c 88 fc 3a 8f 0c 9a 3d 9a b7 54 bd
       -0.3126419 0.0019266768 0.075219266 -0.05193291
000390 16 69 f8 3e 42 77 26 3f df 20 c8 bd 97 0b df be
       0.48517674 0.65025723 -0.09771895 -0.4356353
0003a0 5d 0a db 3e 1b 1f 82 bd e0 9f 96 3e 46 72 0a 3f
       0.42781344 -0.06353589 0.2941885 0.5408062
0003b0 16 fd 0e 3e 07 b2 10 be 06 33 8e 3e e4 a8 da bd
       0.13963732 -0.14130412 0.27773303 -0.106767446
0003c0 84 2c 5b 3f 1a 97 06 be b6 ea cd 3d 28 ad bb 3e
       0.856148 -0.13143578 0.10054533 0.36655545
0003d0 5e 95 bd be ee 0c 31 3e 89 a8 bd 3e c0 62 49 bd
       -0.3702802 0.17290089 0.37042645 -0.04916644
0003e0 aa ad 2a be 29 0b c7 3e 57 7d 57 3e 77 da 16 be
       -0.1666781 0.38875702 0.21043907 -0.14731775
0003f0 d8 18 0d 3f 97 dd 8b 3e 1c 29 37 3f 2c 3d 90 3d
       0.55116034 0.27317497 0.715471 0.070429176

fc2.bias f4 [128]
000000 53 bf 5d 3d e5 c6 3c 3d 6c c2 1a be 81 eb 95 be
       0.05413754 0.046088118 -0.15113229 -0.29281238
000010 10 a9 87 bd c1 dc 23 bd 95 0d ae 3d 40 51 33 be
       -0.06624043 -0.04000545 0.08498684 -0.17511463
000020 71 56 4c be 6e 74 71 bb 25 4f b1 3d 90 20 90 3d
       -0.1995485 -0.003684308 0.08657674 0.07037461
000030 6d c4 3d be 63 f8 56 be f3 97 fd 3d a0 e9 5a 3d
       -0.18531962 -0.2099319 0.12382498 0.05344546
000040 c2 76 96 3e e3 34 cf 3d 63 13 6e 3e a4 06 88 3c
       0.2938748 0.10117509 0.23249583 0.016604729
000050 2d 56 74 3d cb bb ef bd 1a b2 7c bd a8 1a f0 bd
       0.059652496 -0.117057405 -0.06169329 -0.11723834
000060 5d eb 89 be 1c f1 38 3d 55 12 24 3d 53 cf 99 ba
       -0.2693738 0.045151815 0.040056545 -0.0011734761
000070 43 a0 0f 3e 37 c7 45 3d 53 6b 66 be 7d 1d 07 be
       0.14025979 0.04828569 -0.22501878 -0.13194843
000080 d3 ec 1c 3d 0b cf 4d bd 04 eb 98 bd 62 f0 0a be
       0.03831179 -0.05024628 -0.07466701 -0.13568261
000090 d2 81 04 be dc ef 96 3e bd 28 11 be d1 8b 48 be
       -0.12940148 0.29479873 -0.14175697 -0.19584586
0000a0 2c e2 6a 3e 16 79 2e 3e 87 88 05 be 2d 8c ad be
       0.2293784 0.17038378 -0.13040362 -0.33896008
0000b0 79 82 70 be 86 22 48 3e d4 e7 fd 3d 37 60 ca 3d
       -0.23487271 0.1954442 0.12397733 0.09881633
0000c0 ed cb 4a be 13 29 6b 3d bc d0 26 be 92 1e a1 bd
       -0.19804354 0.05741222 -0.16290563 -0.07867159
0000d0 5b 95 83 be 3b 7a d6 bd 79 73 2a 3e cb 83 76 be
       -0.25699887 -0.10472532 0.16645612 -0.24073713
0000e0 c6 d8 58 3e b6 f9 8b 3d 71 88 98 bd c8 04 89 be
       0.21176443 0.06834738 -0.07447899 -0.2676146
0000f0 cc 65 f3 bb e2 9d 74 3c 3c e8 b8 bb 41 4f cd 3d
       -0.0074279066 0.01493022 -0.005642919 0.10024882
000100 1c e3 82 be 13 f5 2c bd 21 81 d3 3d 8c 66 39 be
       -0.25563896 -0.04222591 0.10327364 -0.18105525
000110 e7 d6 c7 3d 92 16 84 be 0f a8 37 3e 64 d7 35 bc
       0.09757786 -0.2579847 0.17935203 -0.011098716
000120 e1 6a 68 3e 7f 8f cd bc f9 42 ca 3d 60 4a 6b 3e
       0.22697021 -0.025092838 0.09876055 0.2297759
000130 f9 62 94 bb eb 96 27 be 73 d9 1e be c1 60 30 be
       -0.0045284 -0.16366164 -0.15512638 -0.17224409
000140 13 c0 de 3d 16 3c 49 3e ba 1c 2a 3e fc 04 6b 3c
       0.10876479 0.19651827 0.16612521 0.01434445
000150 e7 17 96 bd f4 46 bc bd dc 58 34 be 8f cd a1 bd
       -0.07328778 -0.09193221 -0.17612022 -0.07900535
000160 d1 8f 6c be 43 cb 98 be 08 b8 79 3e 56 1b 03 3e
       -0.23101737 -0.29842576 0.24386609 0.12803397
000170 5a 5c 37 3d f1 50 0a bd 58 66 60 be 8d f1 db 3d
       0.044765808 -0.033768598 -0.21914041 0.107394315
000180 50 a4 6b be ea a2 ad bd 07 c5 02 3e 9c f1 8b 3d
       -0.23011899 -0.08478339 0.12770472 0.06833193
000190 4d 4b 9d 3d 92 e2 1b 3e a5 25 d7 3c 68 db 32 bd
       0.07680378 0.15223148 0.026263067 -0.043666273
0001a0 d1 a4 77 3d 74 e4 8b be c9 1e 3b be a9 f9 66 be
       0.060459916 -0.27322733 -0.18273462 -0.22556175
0001b0 21 e2 9a bd 23 e1 fc 3d ec cc db 3d ee 69 04 3d
       -0.07562662 0.12347629 0.10732445 0.032327585
0001c0 da 7b 16 3e e8 1e 4a be dc 20 c9 3b 9e a2 b0 3d
       0.14695683 -0.19738352 0.0061379503 0.08624767
0001d0 c7 5c 61 be 54 87 14 be 3f d5 57 3d 8a fc 5a be
       -0.22008048 -0.14504749 0.0526936 -0.21385399
0001e0 75 c4 f3 3d c4 83 5d 3e ae e4 83 bc 68 a5 41 be
       0.119027056 0.21632296 -0.016100254 -0.18910754
0001f0 36 83 1f 3e 4a 31 78 be 29 4f 36 3d da 49 39 3e
       0.15577397 -0.24237552 0.044509087 0.18094578

out.weight f4 [5, 128]
000000 55 d7 33 3f 3f f9 95 be e7 79 a7 be 84 ea 12 bc
       0.70250446 -0.29291722 -0.32710192 -0.008967046
000010 a8 fc e6 be e3 c0 ac be 45 68 db 3c 71 c6 b3 3e
       -0.45114636 -0.3374091 0.026783118 0.35112336
000020 6e 98 03 3f 2a 37 b2 3e 29 81 19 3f 71 14 bd be
       0.51404464 0.34807712 0.5996271 -0.36929658
000030 d7 c0 0f 3e 4f 4e bd 3d d7 71 1e bf 11 37 f0 be
       0.14038406 0.09243452 -0.61892456 -0.46917012
000040 b8 8d ae be 7d 7b 24 3f 80 3a 10 3f 90 eb f8 3e
       -0.34092498 0.6425093 0.56339264 0.4861722
000050 17 0a 47 be 47 a0 97 3e d6 cd 97 be 61 ca df 3e
       -0.19437443 0.2961447 -0.29649228 0.4370909
000060 5f c0 a5 3e 32 47 f5 3e e9 b2 b9 be 63 e2 5f be
       0.3237333 0.4790588 -0.3626931 -0.21863703
000070 a6 9e 66 3f bd c0 d3 3d e6 8b 81 3e 42 d9 c0 3e
       0.9008583 0.10339496 0.25302047 0.37665755
000080 37 86 0c 3f ca 63 e7 3e d5 64 c0 3e 4e 48 76 3e
       0.54892296 0.4519332 0.3757693 0.2405102
000090 32 34 85 3e 50 b8 d4 be a5 64 1f 3e 56 fc 00 3e
       0.26016384 -0.4154687 0.15565737 0.12596259
0000a0 ef 0f 4e be 2c 6a 9a be 65 91 23 3e 24 be b7 3e
       -0.20123266 -0.30159128 0.15973432 0.35887253
0000b0 71 ad b3 3e f7 b6 bd bd ec 76 aa be 60 bf 5e be
       0.35093263 -0.092634134 -0.33293855 -0.21752691
0000c0 0b 43 b7 3e f2 ad f6 3e c6 3c d3 3e 77 6f da be
       0.35793337 0.48179585 0.41257304 -0.42663166
0000d0 8e 59 d6 be 56 6d c2 3e 1d 66 67 be 79 e4 97 3e
       -0.418652 0.37974042 -0.22597547 0.29666498
0000e0 57 39 19 3f 68 7d 55 be e2 a4 05 3f bf 28 7b 3e
       0.5985312 -0.2084862 0.52204716 0.24527262
0000f0 47 2b 38 be f4 15 04 3f 1f 29 f3 3e a9 62 fe bd
       -0.17985259 0.51596 0.4749231 -0.12421162
000100 69 7d d7 3e 2e 7b 05 be 1f 13 b3 be c1 4c 8e be
       0.42087868 -0.1303527 -0.34975526 -0.27792934
000110 04 55 08 3f 76 41 3c 3e 82 cc f8 3e ec fd f0 3e
       0.53254724 0.18384346 0.48593527 0.47068727
000120 e4 62 7c 3f fd 14 cd 3e 98 5d fb 3e 0d 68 4a 3c
       0.98588395 0.40055075 0.49094844 0.012353909
000130 95 83 42 be a8 ba e0 3e a2 54 30 3e b5 df d7 3e
       -0.18995507 0.43892407 0.17219785 0.42162862
000140 60 ed 01 be 4a 46 27 3f c9 c8 fb 3e 99 35 cc 3e
       -0.12688208 0.6534163 0.49176624 0.39884642
000150 6f 20 a6 3e 24 e6 10 be 7c 8a 95 3e 8e 93 4a 3e
       0.3244662 -0.14150292 0.29207218 0.1978285
000160 4b a8 88 3e 52 a4 37 3e ea 5a 1e be e2 45 90 3e
       0.26690897 0.17933777 -0.15464368 0.28178316
000170 23 e0 ea 3e 3a e2 f2 be 91 a2 48 3e a1 04 b7 be
       0.45874128 -0.47438222 0.19593264 -0.3574572
000180 cc 23 27 bd 44 0b ec 3e f8 6e 04 bf 0d 92 25 3f
       -0.040805623 0.46102345 -0.51731825 0.6467598
000190 39 cf 2e 3f 41 2e 02 3f 71 cd 81 be fa b2 3a be
       0.68284947 0.5085183 -0.25352052 -0.18232337
0001a0 1d 59 49 bf 2d cc 18 bf 66 c7 6e be 96 b7 5a 3e
       -0.786516 -0.5968655 -0.23318252 0.21359095
0001b0 43 29 16 be ed 2f fb be e9 4d 3f be db 55 a7 3e
       -0.14664178 -0.49060002 -0.18682064 0.3268269
0001c0 e5 76 b9 3e b9 de 15 bf 68 18 1b be 98 2d 8f be
       0.36223522 -0.5854297 -0.15146029 -0.27964473
0001d0 c8 50 d4 3e 9a 66 ef be 00 c0 41 be 8f 51 84 be
       0.4146788 -0.46757966 -0.18920898 -0.25843474
0001e0 ab c9 be bd 62 40 69 bd 59 59 25 be 10 1e cb 3e
       -0.09315809 -0.056946166 -0.16147365 0.39671373
0001f0 f6 21 12 3f 35 94 c4 3e cb b2 97 3e 6b 7e 6d 3f
       0.5708307 0.38394323 0.29628596 0.92771024
000200 64 1b 87 3e bf 47 0a bf 2c f0 4b be e9 eb b3 3d
       0.26388085 -0.54015726 -0.19915837 0.08785231
000210 83 fd 35 bf 01 63 7d be 82 07 0b bf fb 66 8c 3e
       -0.71089953 -0.24744798 -0.5430833 0.27422318
000220 97 7f cb 3e 8c a6 94 3e 68 60 ed 3e 46 1d 76 be
       0.3974578 0.29033315 0.46362615 -0.24034604
000230 d0 a4 90 3e ca 88 4a bd c2 63 e6 be 46 f4 14 bf
       0.28250742 -0.04944686 -0.44997984 -0.5818523
000240 fe f7 9f be 6a 8e 9b 3e 25 36 98 3e 9c 69 fd 3d
       -0.3124389 0.3038209 0.2972881 0.12373659
000250 d9 15 f7 be 8f 4e dd 3e 5d 4c 0d be 09 6b ad 3e
       -0.48258856 0.43223998 -0.13798662 0.33870724
000260 8f a1 ba 3e a7 55 89 3e bd 40 fa be 23 b4 15 bf
       0.36451384 0.2682316 -0.48877516 -0.5847799
000270 cd df 58 3e 01 39 4a 3e 93 2d a3 3e e4 ab c0 3e
       0.21179123 0.19748308 0.31870708 0.37631142
000280 fc 1e ad 3e 93 75 a2 3e 6a 1f 5a 3e fc 4e 14 3e
       0.33812702 0.31730327 0.21301046 0.14483255
000290 67 cc be 3e 4e a8 af be ed ba 06 3e b7 9c 86 3f
       0.37265322 -0.34308094 0.13157244 1.0516576
0002a0 8f f9 91 be 61 3d 9f be 56 24 e7 3d e9 a4 73 3e
       -0.2851071 -0.31101516 0.112862274 0.23793377
0002b0 01 62 a3 3e dd c0 a9 3c 4b 93 9a be 89 f2 6b be
       0.3191071 0.020721847 -0.301905 -0.23041739
0002c0 fd 73 28 3e 2c e0 8e 3e 54 33 ac 3e 76 ca b2 be
       0.16450496 0.27905405 0.3363291 -0.3492009
0002d0 23 2d 92 be c2 9e e5 3e 04 ec f6 be af f1 cf 3e
       -0.28550062 0.44847685 -0.4822694 0.40614077
0002e0 2b 86 9a 3e 7c 46 0e bf ef 29 67 3e e1 a2 b9 3e
       0.30180487 -0.555763 0.2257459 0.3625708
0002f0 93 0d 23 bf 82 75 58 3e 4c 3d da 3e 61 c5 d4 be
       -0.6369259 0.21138576 0.4262489 -0.41556838
000300 a7 71 d1 3e f5 4d 2b bd b0 b7 9f be 44 76 6f be
       0.40907022 -0.041822392 -0.3119483 -0.23384959
000310 d1 5e b0 3e b7 6a ce 3d e5 22 67 3e 8c f5 55 3f
       0.3444734 0.10078948 0.22571905 0.835778
000320 9f 47 5e bd c2 dc 5b 3f 2f 9a 5c 3e b2 0e c9 bd
       -0.054267522 0.85883725 0.21543191 -0.09817256
000330 98 35 a8 be a9 1a f9 3e 56 83 4e 3e b8 a2 b0 3e
       -0.3285339 0.48653153 0.20167288 0.34499145
000340 bd e0 04 bf c4 18 04 3f c9 e3 ea 3e f6 4d d5 3e
       -0.51905423 0.5160029 0.4587691 0.41661042
000350 6e 7d a8 3e 3d 0d 01 3e b8 db 82 3e 7c 58 94 3e
       0.32908195 0.12602706 0.25558257 0.28973758
000360 95 29 89 3e 19 d4 8f 3d 74 f8 95 be 13 13 49 3e
       0.26789537 0.07022876 -0.29291117 0.19636182
000370 5e f2 a8 3e 31 44 24 bf 7e 19 81 3e 41 71 a9 be
       0.3299741 -0.6416655 0.25214761 -0.33094218
000380 11 aa 1e bf 52 a3 92 3e 3e ec 10 bf c6 9b 02 3f
       -0.6197825 0.2864023 -0.56610477 0.5101894
000390 e1 27 0f 3e b5 19 34 3e ce 7c e0 be 96 cc 10 bf
       0.13980056 0.17587931 -0.43845218 -0.56562173
0003a0 ab 1c ec be ab 6c 9c be be 1f ad be 8d 0a a5 3e
       -0.46115622 -0.30551657 -0.3381328 0.32234612
0003b0 c4 23 d8 be cb 23 11 bf 81 dc 70 be d9 36 b8 3e
       -0.42214787 -0.5669524 -0.23521616 0.35979345
0003c0 6e d4 31 3e 6d d9 1c be 42 a3 db be d2 1b fb be
       0.17366192 -0.15317316 -0.42897993 -0.49044663
0003d0 38 99 08 3f 63 98 e8 be 7c 77 c5 be 64 02 3d be
       0.53358793 -0.45428762 -0.38567722 -0.18457943
0003e0 a2 ab ef bc 51 74 de be d2 ef 83 be d6 bc 9d 3e
       -0.029256646 -0.43448117 -0.25768906 0.30808133
0003f0 48 20 fe 3e 8d f2 3d 3e 97 ae b8 3e c8 d7 6d 3c
       0.49634004 0.18549557 0.360707 0.014516778

out.bias f4 [5]
000000 fa 0d 7f bf 35 94 11 be 96 dd 39 3f 16 5f ca bd
       -0.996307 -0.14216693 0.7260374 -0.098814175
000010 4e 8b 76 bf
       -0.9630631

exp_avg_sq f4 [128, 28]
000000 c5 8c fb 45 3c 58 1d 45 a7 bc 8f 44 59 f8 3b 44
       8049.596 2517.5146 1149.8954 751.88043
000010 ec f2 36 44 b9 a0 64 44 6f 34 4e 44 6d a1 6a 44
       731.79565 914.5113 824.8193 938.5223
000020 6b 4e 46 44 16 00 1c 44 fd 52 12 44 15 b0 d9 43
       793.2253 624.00134 585.2967 435.37564
000030 d1 66 f6 43 66 52 2c 44 40 ff 9f 44 1b be 68 45
       492.80325 689.2875 1279.9766 3723.8816
000040 f9 ec 14 46 cb 02 c9 44 70 2a 92 43 14 97 ae 42
       9531.243 1608.0873 292.33154 87.295074
000050 1e e6 42 42 ab 1b 94 42 be 89 64 45 b4 aa fa 45
       48.724724 74.05404 3656.609 8021.338
000060 2b 06 a0 44 cf 77 05 47 0d 0f 06 42 a2 27 b6 48
       1280.1927 34167.81 33.514698 373053.06
000070 38 f0 8a 44 ca 9d 68 44 52 70 7f 44 57 8e 1c 46
       1111.5068 930.46545 1021.755 10019.585
000080 01 90 16 46 c7 93 5e 45 09 2b f1 44 26 bb a8 44
       9636.001 3561.236 1929.3448 1349.8484
000090 64 f2 a3 44 9e 2b 24 46 8a 6b a7 45 fa 46 57 45
       1311.5747 10506.904 5357.4424 3444.436
0000a0 56 90 12 45 93 64 ad 44 f6 c9 78 44 09 7d 5c 44
       2345.021 1387.143 995.15564 881.9537
0000b0 d5 e6 84 44 00 cd 92 44 11 09 d5 44 e3 16 93 45
       1063.2135 1174.4062 1704.2833 4706.861
0000c0 eb b6 08 46 69 76 8d 45 2d a1 32 45 38 03 8b 44
       8749.7295 4526.8013 2858.0735 1112.1006
0000d0 41 b3 a0 43 31 cb 0a 47 a9 77 90 42 d0 44 a5 47
       321.40042 35531.19 72.23371 84617.625
0000e0 ed 0f e8 44 05 96 a7 45 a1 ea 11 47 0a 9f 0a 48
       1856.4977 5362.7524 37354.63 141948.16
0000f0 7f 6d 06 48 ea c8 3e 47 6e 63 ba 46 ac e0 86 46
       137653.98 48840.914 23857.715 17264.336
000100 02 4c 65 46 1c 8e 75 46 65 55 8c 46 f7 5b c7 46
       14675.002 15715.527 17962.697 25517.982
000110 80 70 6d 47 ad 55 d4 47 71 69 ae 47 7e f0 f7 46
       60784.5 108715.35 89298.88 31736.246
000120 ae e3 9e 45 0d 2e 21 45 1b f9 d0 44 41 8b ca 44
       5084.46 2578.8782 1671.7845 1620.3517
000130 32 19 03 45 20 46 97 44 4a 36 95 44 1e 06 e9 44
       2097.5747 1210.1914 1193.6965 1864.1912
000140 92 7e b5 44 5a 58 76 48 dc 5c 36 44 11 9b ea 4a
       1451.9553 252257.4 729.4509 7.6875605e+06
000150 eb 4e 88 42 ed fe 28 42 d6 ed 5c 42 09 c4 f0 45
       68.15414 42.24895 55.23226 7704.5044
000160 40 6d f5 45 72 40 38 45 73 24 d8 44 bf 3a 97 44
       7853.6562 2948.0278 1729.139 1209.8358
000170 5b 27 7e 44 fe c5 05 46 54 05 5b 45 aa 9e ac 44
       1016.6149 8561.498 3504.333 1380.9583
000180 f8 9f 38 44 c3 7f 05 44 ff fd f7 43 18 c7 15 44
       738.4995 533.9963 495.98434 599.11084
000190 da 4d 90 44 b6 96 a0 44 b7 92 ad 44 06 3a 81 45
       1154.4329 1284.7097 1388.5848 4135.253
0001a0 23 c6 df 45 94 51 d0 44 2d e7 6e 43 98 a7 8b 42
       7160.767 1666.5493 238.90303 69.82733
0001b0 af 3b 84 43 5e 2d 9d 46 ae 07 11 42 95 73 2b 47
       264.46628 20118.684 36.2575 43891.582
0001c0 35 10 1b 44 17 5d 2a 44 57 7e 5f 45 d7 d3 a0 46
       620.25323 681.4545 3575.8962 20585.92
0001d0 ca 2c ae 46 b0 b0 ff 45 21 50 6b 45 78 15 2c 45
       22294.395 8182.086 3765.008 2753.3418
0001e0 a9 4f 15 45 41 e2 2c 45 a3 60 ba 45 87 29 e1 45
       2388.9788 2766.1409 5964.0796 7205.191
0001f0 8e d9 2e 46 33 b7 92 46 62 a0 80 46 52 e7 ad 45
       11190.389 18779.6 16464.191 5564.915
000200 fd 39 a4 44 69 7a 78 44 0f 0e 85 44 74 9d ba 44
       1313.8121 993.91266 1064.4393 1492.9204
000210 0c 37 49 45 92 00 3d 46 e3 d5 ed 45 b2 ae 1a 44
       3219.4404 12096.143 7610.736 618.7296
000220 e3 50 a0 43 a8 8b a3 47 7d 13 11 43 be 24 92 49
       320.63193 83735.31 145.07613 1.1972078e+06
000230 64 2b 94 44 3b 9d c4 43 a1 10 93 43 4d 86 76 45
       1185.356 393.22836 294.1299 3944.3938
000240 31 d0 9c 45 e5 d2 2d 45 7d 0f d2 44 85 bb 8c 44
       5018.024 2781.181 1680.484 1125.86
000250 a7 66 80 44 f4 f2 a1 45 dc a1 4b 46 bd 93 4b 46
       1027.2079 5182.369 13032.465 13028.935
000260 27 79 0f 46 d5 d7 9d 45 ba c0 63 45 ed 49 7d 45
       9182.288 5050.979 3644.0454 4052.6204
000270 aa fe 73 45 1d ab 5f 45 ef ac 75 45 08 2d ca 45
       3903.9165 3578.6946 3930.8083 6469.629
000280 64 bc 58 46 8e 07 2f 47 5d 64 b3 46 c3 e1 91 44
       13871.098 44807.555 22962.182 1167.055
000290 b8 1f 67 44 de 46 1d 48 f6 f0 14 43 7c 4d 63 48
       924.4956 161051.47 148.94125 232757.94
0002a0 dd c4 a4 45 d6 e0 89 46 79 92 d6 47 95 b6 9f 48
       5272.608 17648.418 109860.945 327092.66
0002b0 c2 eb 90 48 c3 f6 cc 47 9c c4 55 47 f3 99 1a 47
       296798.06 104941.52 54724.61 39577.95
0002c0 16 03 05 47 0e 92 1b 47 ab fb 3a 47 93 f7 87 47
       34051.086 39826.055 47867.668 69615.15
0002d0 64 cb 18 48 2b fe 69 48 d8 de 2e 48 76 b8 8f 47
       156461.56 239608.67 179067.38 73584.92
0002e0 48 1e 67 46 7a f1 07 46 fa 42 cc 45 f3 0c f5 45
       14791.57 8700.369 6536.372 7841.6187
0002f0 25 06 47 46 a3 6e 88 46 b5 31 81 45 65 0c a5 45
       12737.536 17463.318 4134.2134 5281.5493
000300 3c 60 92 45 09 6d 1b 49 bd 61 e0 44 f3 17 86 4b
       4684.0293 636624.56 1795.0543 1.757591e+07
000310 62 4c c6 40 4f c4 04 41 27 43 90 41 ed 90 4c 42
       6.196824 8.297927 18.03279 51.14153
000320 37 eb ac 43 16 6b 0b 44 69 c2 c4 43 c9 ac 56 43
       345.83762 557.6732 393.51883 214.67494
000330 91 3d b6 42 24 ee 70 42 38 e6 4b 42 9b 95 47 42
       91.12025 60.23256 50.974823 49.8961
000340 27 1f 6d 42 8d 6c d5 42 5f db 38 43 f9 4c fd 43
       59.280422 106.71201 184.85692 506.60135
000350 c4 57 5b 44 cb 69 dd 43 d2 09 54 43 06 e5 e4 42
       877.37134 442.8265 212.03836 114.44731
000360 b4 bf f1 40 da ad c6 40 c3 6e a7 40 de fb bb 40
       7.5546513 6.208722 5.2322707 5.8744955
000370 4f 50 53 43 f8 3b 37 44 6a 15 a1 40 a9 79 4c 47
       211.3137 732.937 5.033864 52345.66
000380 4f e1 a0 45 81 b4 9d 45 3b f8 73 46 57 4d 0b 47
       5148.1636 5046.563 15614.058 35661.34
000390 a4 87 ea 46 db b5 28 46 a0 a8 b5 45 1d f8 84 45
       30019.82 10797.464 5813.078 4255.014
0003a0 0c 2c 6f 45 f0 b3 8b 45 ad bd ba 45 6a 0a 18 46
       3826.753 4470.492 5975.7095 9730.604
0003b0 15 a2 98 46 4d 12 d2 46 16 b8 8e 46 81 b7 f4 45
       19537.041 26889.15 18268.043 7830.938
0003c0 c3 bf fc 44 67 8d 6a 44 59 9b 44 44 11 f6 47 44
       2021.9926 938.2094 786.4273 799.8448
0003d0 58 79 88 44 05 c4 95 44 4e be 29 45 91 de a0 45
       1091.792 1198.1256 2715.894 5147.821
0003e0 4b 70 56 44 53 ab 95 47 e9 41 83 43 06 3d f7 49
       857.7546 76630.65 262.51492 2.0253768e+06
0003f0 b8 df 51 29 ca 80 18 29 15 a8 06 29 d8 b1 df 28
       4.6601368e-14 3.3862487e-14 2.9899765e-14 2.4835101e-14

exp_avg f4 [128, 28]
000000 f6 bb f6 35 0b bc 97 35 3f b1 6e 35 63 e6 4a 35
       1.8383132e-06 1.1305104e-06 8.8919836e-07 7.558612e-07
000010 30 16 3a 35 14 75 42 35 ea 19 4e 35 8d 11 76 35
       6.9322687e-07 7.2441003e-07 7.677869e-07 9.166768e-07
000020 09 a8 a8 35 81 70 1d 36 ee 0a 83 36 66 93 8c 35
       1.256588e-06 2.346031e-06 3.9053766e-06 1.0473711e-06
000030 77 9a 82 35 bf da 9e 35 f9 9f eb 35 0b 1f 75 36
       9.73071e-07 1.1835581e-06 1.7555423e-06 3.6525914e-06
000040 ee 0a 83 36 eb 5e 78 35 83 d7 0b 35 4a 29 d3 34
       3.9053766e-06 9.2525323e-07 5.2095146e-07 3.9331854e-07
000050 df 9e 2a 35 39 53 d5 35 57 a9 69 36 d3 02 f4 35
       6.3561123e-07 1.5893958e-06 3.4818274e-06 1.8180239e-06
000060 53 b2 bf b4 e5 2c 4d 36 14 ab d1 34 f8 d7 b1 37
       -3.570627e-07 3.0573513e-06 3.905376e-07 2.1200613e-05
000070 a0 f5 8e 3e 67 a6 34 40 76 24 00 41 d7 eb 0a 41
       0.27921772 2.8226564 8.008902 8.682578
000080 9a f5 6b 40 cd ff 70 40 a4 ce 6a 40 63 c5 81 40
       3.6868653 3.7656128 3.6688623 4.055345
000090 5a b4 8e 40 23 13 c6 40 a9 37 17 40 ef b1 b0 40
       4.4595156 6.189836 2.3627722 5.5217204
0000a0 b4 f2 b4 40 fd 64 65 3f 71 50 c6 3f 04 7f 5f bf
       5.654627 0.8960722 1.5493299 -0.87303185
0000b0 cf 3b 94 3e d2 ff 10 40 4b 6d 86 3f 52 63 96 3f
       0.2895188 2.265614 1.0502104 1.174906
0000c0 33 25 6f 40 3d e6 69 40 52 08 c3 40 51 57 90 3e
       3.7366455 3.6546776 6.0947657 0.28191617
0000d0 09 e1 cd bf ff d6 6e 41 49 ef bd 3e 38 fa 10 42
       -1.60843 14.927489 0.37096623 36.244354
0000e0 9b 4a b0 41 53 75 25 42 ec 8e c3 42 09 6f 96 c1
       22.036428 41.364574 97.779144 -18.804216
0000f0 40 95 b9 3e ac 0f a4 42 7e ec 8c 41 c8 02 aa 41
       0.3624668 82.03061 17.615475 21.251358
000100 08 59 bb 41 0b 2a d9 41 78 aa fd 41 ad 30 28 42
       23.418472 27.145529 31.708237 42.047535
000110 28 6e 8a 42 02 4f 21 43 fc 0d 19 43 c2 e8 dd 41
       69.21515 161.30862 153.05463 27.738651
000120 b2 ba 12 42 3d c6 ed 41 d3 ff f6 41 8d 5a 15 42
       36.68232 29.721796 30.874914 37.33843
000130 e7 de 0c 42 c8 b3 97 41 29 68 8c 41 00 7d bc 41
       35.217678 18.962784 17.55086 23.561035
000140 13 ab e1 c1 ce db b7 42 10 d1 6f 41 6e 12 21 44
       -28.208532 91.929306 14.988541 644.28796
000150 63 30 94 40 df 2b 80 40 1e c8 72 40 75 2b 60 40
       4.6309066 4.0053554 3.7934642 3.5026524
000160 25 2e 7b 40 10 7e 90 40 d3 28 89 41 8f 0b ab 41
       3.9246914 4.5153885 17.144934 21.380644
000170 e5 d5 a0 41 17 01 a1 41 4e 1a b0 41 1f 01 8d 41
       20.10444 20.125532 22.012844 17.625547
000180 86 0e 5d 41 61 06 40 41 06 a5 36 41 7f 44 3f 41
       13.816046 12.001557 11.415289 11.954223
000190 49 50 54 41 43 b1 82 41 15 71 bf 41 67 98 50 42
       13.269601 16.336554 23.930216 52.14883
0001a0 3f 51 54 42 a8 39 45 41 06 26 d3 40 fe 37 92 40
       53.07934 12.326576 6.5983915 4.569335
0001b0 df f7 8c c0 c8 bb df 42 92 62 5c 40 6d 38 53 42
       -4.4052577 111.86676 3.4435163 52.805103
0001c0 5a a9 38 41 ed fd 87 41 81 b2 35 42 7b da bd c0
       11.541346 16.998987 45.42432 -5.93292
0001d0 9c 36 30 c0 47 59 10 42 8f a6 02 41 b4 75 0b 41
       -2.753333 36.087185 8.165664 8.716236
0001e0 a8 aa 2c 41 20 b0 75 41 d2 37 9c 41 46 bc be 41
       10.791664 15.355499 19.527256 23.84193
0001f0 cb 71 14 42 73 04 99 42 88 d1 93 42 9a fb 09 3e
       37.111126 76.50869 73.90924 0.13474885
000200 8f 36 d0 40 9a 2b d8 40 ca 6f b5 40 81 dd f7 40
       6.50666 6.7553225 5.669896 7.745789
000210 5b 53 48 41 b4 56 a1 41 d1 bd 9c 41 94 71 46 41
       12.52035 20.167336 19.592684 12.402729
000220 19 53 9d c1 36 6f 7f 42 1b 65 c9 40 7a 57 8f 43
       -19.665575 63.858604 6.293592 286.6834
000230 10 e6 8b 40 64 d6 31 40 c0 46 20 40 96 d7 24 40
       4.371834 2.7787104 2.5043182 2.5756583
000240 20 c7 48 40 38 a8 4a 40 95 72 ea 40 e7 a0 1d 41
       3.1371536 3.1665173 7.326487 9.851783
000250 34 6a 26 41 6b c4 53 41 b8 2d 94 40 ab f7 86 bf
       10.4009285 13.235454 4.630581 -1.0544332
000260 70 85 a2 40 8f 25 ad 40 2b 7e a6 40 aa 8d 97 40
       5.0787888 5.410835 5.2029014 4.736043
000270 57 d0 ad 40 23 c9 df 40 e4 0c 20 41 57 25 a2 41
       5.431682 6.993303 10.003147 20.268232
000280 e0 d9 b8 41 76 1f 03 41 59 ce 93 40 5e 85 97 40
       23.106384 8.195181 4.618939 4.73503
000290 1e 1d 20 c0 91 b5 77 42 e7 da 20 40 22 bc 08 42
       -2.5017772 61.92731 2.5133607 34.183723
0002a0 aa b0 12 42 74 d0 f1 41 12 fc e6 42 4a 49 8c c1
       36.672523 30.226784 115.492325 -17.535786
0002b0 d6 b4 a2 c1 5a 51 e2 42 f6 5c 1d 42 16 08 37 42
       -20.338299 113.15889 39.340782 45.757896
0002c0 09 4b 31 42 ce 54 60 42 a0 6e 8f 42 8d 63 ac 42
       44.323277 56.082817 71.716064 86.194435
0002d0 70 b5 ae 42 92 02 18 43 1f ea 43 43 62 10 9a 42
       87.35437 152.01004 195.91454 77.032
0002e0 13 6e a3 42 4d 2e 96 42 21 67 a0 42 ef b4 c2 42
       81.71499 75.09043 80.20142 97.353386
0002f0 be 0c df 42 b1 56 99 42 1f 00 24 42 c1 80 1d 42
       111.52489 76.66932 41.00012 39.375736
000300 0e ef 1e c1 2f 50 64 43 b0 15 be 41 58 56 2b 44
       -9.933363 228.31322 23.76059 685.3491
000310 04 00 00 00 04 00 00 00 04 00 00 00 04 00 00 00
       6e-45 6e-45 6e-45 6e-45
000320 04 00 00 00 04 00 00 00 04 00 00 00 04 00 00 00
       6e-45 6e-45 6e-45 6e-45
000330 04 00 00 00 04 00 00 00 04 00 00 00 04 00 00 00
       6e-45 6e-45 6e-45 6e-45
000340 04 00 00 00 04 00 00 00 04 00 00 00 04 00 00 00
       6e-45 6e-45 6e-45 6e-45
000350 04 00 00 00 04 00 00 00 04 00 00 00 04 00 00 00
       6e-45 6e-45 6e-45 6e-45
000360 04 00 00 00 04 00 00 00 04 00 00 00 04 00 00 00
       6e-45 6e-45 6e-45 6e-45
000370 04 00 00 00 04 00 00 00 04 00 00 00 04 00 00 00
       6e-45 6e-45 6e-45 6e-45
000380 0b c7 49 40 98 01 17 40 38 fe 09 42 47 e3 30 41
       3.1527736 2.3594723 34.49826 11.055488
000390 3c e9 d5 40 5e b5 e3 41 60 c4 f4 40 65 93 9d 40
       6.684721 28.463558 7.6489716 4.9242425
0003a0 ea 5a eb 40 dd d0 11 41 e1 93 21 40 bd f2 b9 41
       7.354848 9.113492 2.5246508 23.243525
0003b0 ce 85 da 41 73 cd b3 41 a2 da 09 42 c4 7a 8a 41
       27.315334 22.475317 34.46351 17.309944
0003c0 9a 4c 98 41 a1 c0 6c 41 33 75 db 40 41 82 b4 40
       19.037403 14.797029 6.8580565 5.6409
0003d0 dd 6e e2 40 fa 24 bc 40 97 e0 f3 40 04 7b 69 40
       7.076033 5.8795137 7.6211658 3.6481333
0003e0 55 98 8b bf 16 a1 20 41 44 38 92 40 42 ee 4e 43
       -1.0905863 10.039328 4.5693684 206.9307
0003f0 04 00 00 00 04 00 00 00 04 00 00 00 04 00 00 00
       6e-45 6e-45 6e-45 6e-45

exp_avg_sq f4 [5, 128]
000000 90 2a c9 45 86 dc 4d 46 77 b9 c8 45 d8 f0 b1 46
       6437.3203 13175.131 6423.183 22776.422
000010 2c 51 6b 45 96 25 b8 45 9a 5d 6d 46 69 6c 10 46
       3765.0732 5892.698 15191.4 9243.103
000020 87 cf 0a 45 3d 5e 81 46 1c e1 14 46 a2 8c 2d 46
       2220.9705 16559.12 9528.277 11107.158
000030 e6 54 77 46 5a 16 8e 45 e5 1f 0f 46 a9 f7 12 46
       15829.225 4546.794 9159.974 9405.915
000040 06 0f 57 46 e9 f0 ed 44 39 96 8e 45 a7 e9 80 46
       13763.756 1903.5284 4562.778 16500.826
000050 8f dc 8d 46 35 fa e7 45 95 95 38 45 47 ec 50 46
       18158.28 7423.276 2953.3489 13371.069
000060 a6 94 d2 45 a4 0a 72 45 a0 05 11 46 96 87 0f 46
       6738.581 3872.665 9281.406 9185.896
000070 25 b2 0d 43 a5 f6 af 46 27 33 4a 46 16 c8 5a 46
       141.69588 22523.322 12940.788 14002.021
000080 8a a8 8e 45 a3 8d 34 46 10 b7 14 46 25 74 2d 46
       4565.0674 11555.409 9517.766 11101.036
000090 11 8b 67 46 46 b2 90 46 b1 62 10 46 c7 0f 74 44
       14818.767 18521.137 9240.673 976.2465
0000a0 dd a8 6b 46 23 3c f5 45 b4 0c 9a 46 96 4a 87 46
       15082.216 7847.517 19718.352 17317.293
0000b0 f8 1f 18 46 98 26 a3 46 e1 05 43 46 18 6a 1d 46
       9735.992 20883.297 12481.47 10074.523
0000c0 4e 17 7d 46 05 20 32 45 c3 b5 a4 46 48 50 63 46
       16197.826 2850.0012 21082.88 14548.07
0000d0 4f 31 04 46 51 a2 9c 46 b3 38 39 46 5d 1e 17 46
       8460.327 20049.158 11854.175 9671.591
0000e0 4e 9f 17 46 d7 92 57 46 c5 34 d6 45 d1 7e d3 46
       9703.826 13796.71 6854.596 27071.408
0000f0 23 23 74 46 02 4e 2c 46 63 6e fd 45 29 6c 8f 46
       15624.784 11027.502 8109.7983 18358.08
000100 d0 0b 95 46 e0 da 0a 46 58 36 05 46 5f f2 5c 46
       19077.906 8886.719 8525.586 14140.593
000110 75 19 89 45 ae 72 51 46 e8 d9 31 45 ae f7 06 46
       4387.182 13404.67 2845.6191 8637.92
000120 d4 e1 c9 44 3d a4 06 46 c2 90 e8 45 7d c9 49 46
       1615.0571 8617.06 7442.0947 12914.372
000130 16 2d 1b 46 74 a7 17 46 39 39 5e 46 5e 80 bc 46
       9931.271 9705.863 14222.306 24128.184
000140 00 c0 4d 46 2a f4 93 45 77 99 d3 45 3b 44 27 46
       13168.0 4734.5205 6771.183 10705.058
000150 1f c0 b1 46 24 94 e4 44 f8 be 43 46 eb 5a 85 46
       22752.06 1828.6294 12527.742 17069.459
000160 47 d1 82 46 ed 43 41 46 75 c5 29 46 92 e0 de 45
       16744.639 12368.981 10865.364 7132.0713
000170 81 e4 56 46 19 9a c6 45 e4 d0 77 46 85 c9 78 46
       13753.126 6355.262 15860.223 15922.38
000180 5b 4c 0f 46 a3 8d 87 46 a5 f9 25 46 fb 96 36 45
       9171.089 17350.818 10622.411 2921.4363
000190 89 71 45 46 d7 d8 a5 45 ee 3c 3b 46 c3 70 53 46
       12636.384 5307.105 11983.232 13532.19
0001a0 48 3c 14 44 8a f8 c3 44 e1 8b 4c 46 b2 3a 67 46
       592.9419 1567.7668 13090.97 14798.674
0001b0 62 68 79 46 7a b5 24 46 29 71 4d 46 37 80 67 46
       15962.096 10541.369 13148.29 14816.054
0001c0 54 43 01 46 62 0d 9a 45 a6 ed 3d 46 84 f6 87 46
       8272.832 4929.673 12155.412 17403.258
0001d0 30 07 36 46 43 09 4b 46 a7 09 33 46 f3 81 24 46
       11649.797 12994.315 11458.413 10528.487
0001e0 83 60 5e 46 df 68 88 46 f9 b7 57 46 15 29 7a 46
       14232.128 17460.436 13805.993 16010.2705
0001f0 fa d6 2a 46 1f 28 1f 46 4d e1 f4 45 7e ac 38 45
       10933.744 10186.03 7836.1626 2954.7808
000200 8d 7d 7d 43 91 80 93 43 49 84 3d 43 80 cd b9 43
       253.49043 295.00443 189.51674 371.60547
000210 9f 65 27 43 2e 3f 84 43 e3 b4 81 43 bd ca ce 43
       167.39696 264.4936 259.41318 413.5839
000220 c7 45 a8 43 b8 6f 11 44 16 85 f1 43 5e 15 54 43
       336.54514 581.7456 483.03973 212.08347
000230 e3 19 dd 43 13 76 10 43 03 96 d5 43 bf 2b 92 43
       442.20224 144.46123 427.17197 292.34177
000240 cb 65 99 43 c6 f8 fa 42 85 a4 3d 43 94 c0 b4 43
       306.79526 125.485886 189.64265 361.50452
000250 b7 f8 95 43 3d 66 85 43 0b d2 2a 43 29 19 eb 42
       299.94308 266.79874 170.82048 117.54914
000260 aa 8e a6 43 4c 7b 89 43 2c 8d ba 43 6a c0 ae 43
       333.11456 274.96326 373.1029 349.50323
000270 3f 40 68 43 71 8a d7 43 5f 94 a8 43 03 8a 11 44
       232.25096 431.08157 337.15915 582.15643
000280 00 e5 23 44 35 0a 38 44 1a 9e e5 43 a7 5a b5 43
       655.5781 736.1595 459.23517 362.70822
000290 db fb 95 43 98 b4 08 44 9c 24 99 42 eb 48 dc 41
       299.96762 546.8218 76.5715 27.535604
0002a0 64 15 ac 43 e8 c4 8e 43 92 81 b6 43 dd a9 e1 43
       344.1671 285.53833 365.01227 451.32706
0002b0 40 47 18 44 94 81 99 43 c6 3a 86 43 c9 88 e6 43
       609.1133 307.01233 268.45917 461.06863
0002c0 16 1f 0d 44 1d 4f 27 43 13 df cd 43 dc 32 b3 43
       564.4857 167.30904 411.74277 358.39734
0002d0 a2 5e 6c 43 61 36 87 43 f3 25 9a 43 82 d7 14 44
       236.36966 270.42484 308.29648 595.3673
0002e0 ca ed 27 44 b1 d6 c4 43 75 7b 87 43 59 05 ad 43
       671.71545 393.67728 270.9645 346.04178
0002f0 f7 48 bc 43 65 7a 26 44 51 9a 84 43 07 cf a8 43
       376.57004 665.9124 265.2056 337.6174
000300 a6 5a 0b 44 b1 5f 57 43 01 ec 30 43 d4 e0 70 43
       557.4164 215.3738 176.92189 240.87823
000310 59 35 46 43 c2 59 e3 43 2e 28 82 43 78 96 8d 43
       198.20839 454.70123 260.3139 283.17554
000320 fb 1f 20 42 5a 23 60 43 a9 26 a1 43 a0 d0 45 43
       40.03123 224.13809 322.30203 197.81494
000330 54 38 7f 43 b9 d4 15 44 8b 08 96 43 22 b1 70 44
       255.22003 599.3238 300.06674 962.7677
000340 e9 d2 8b 43 f1 4e bb 43 f1 0d 7a 43 af 32 08 44
       279.64774 374.61673 250.05446 544.79193
000350 ca 22 62 44 da 38 59 42 38 95 ff 43 95 bc 04 44
       904.5436 54.30552 511.16577 530.9466
000360 bd dc 28 44 23 3d 17 44 f7 0b 57 43 7f d5 b8 43
       675.44904 604.95526 215.04674 369.66794
000370 3d 87 dd 43 61 e2 8d 43 c3 34 a9 43 c5 b1 3f 43
       443.05655 283.7686 338.4122 191.69441
000380 66 9e 8e 42 f8 f0 dc 43 5f f0 e2 43 9e e7 c6 43
       71.30937 441.88257 453.8779 397.8095
000390 d8 b0 10 44 dc 04 46 43 34 33 41 43 d0 31 a5 43
       578.7632 198.01898 193.20001 330.38916
0003a0 44 8f a1 43 38 2f 0a 43 e1 fd 8e 43 c0 35 00 44
       323.11926 138.18445 285.98343 512.83984
0003b0 94 ee cd 43 65 62 a2 43 b2 bd 81 43 fa 6d a5 43
       411.8639 324.7687 259.482 330.8592
0003c0 96 9c 6e 43 63 7e 44 43 1d 88 5a 43 b4 b5 ae 43
       238.61166 196.4937 218.5317 349.41956
0003d0 94 95 28 44 25 89 ba 43 51 d9 78 43 7d d7 1d 43
       674.33716 373.07144 248.84889 157.84175
0003e0 1e 0d 71 43 4a ee c1 43 9c 63 c3 43 d5 72 a9 43
       241.05124 387.86163 390.7782 338.89713
0003f0 0f 14 bd 43 76 58 af 43 7a 3a ed 43 fe a0 2c 43
       378.1567 350.6911 474.45685 172.62888
