model/210a.pt (torch_old, 336838 bytes, 24 tensors)

fc1.weight f4 [128, 28]
00000000: 4b97 853d 6f37 793d 526c 6ebe 5c74 63bd
00000010: f2a7 aebe f601 d5be cb06 71bd 1288 00be
00000020: 5918 43be 9125 1b3e 5d80 003d f38b 28bf
00000030: 6df3 83be 833f d8bd 83f4 2f3e 150f 973e
00000040: 4b12 ce3e 76b9 463d 0062 3fbf 4f28 eebf
00000050: 8626 b5bf 5fe5 bcbf d2ad 23bf 14be 433e
00000060: 1aa2 033c 6ba1 1a3d 4d84 dbbf d874 8d3d
00000070: 22cc 453f a603 313f 5b7d b23d 8dbb f73d
00000080: ebdf 11bd aa67 d0be ca7a d43d fb86 843e
00000090: 4c98 133d 0c0f 093e 5376 7d3d 66c0 3ebe
000000a0: 6cc7 8abe e22f 94be 69ed 6ebd 9f6d 2d3d
000000b0: d0c7 f83d 70fc 08bd f4db 9ebe 87b6 1ebe
000000c0: 3ab2 623d a473 703e 3e96 8ebe d00f 2e3f
000000d0: 1827 0c3e 32a2 d3bd 1ecd 6b3f 8254 e5bd
000000e0: badf 84bf 2fa6 6ebf ec75 c1be 3f34 3f3e
000000f0: a75b 243d eeee 88bd 0ad6 733c b0df dc3d
00000100: d65e db3d 021c 423e dbc5 853e be34 a53e
00000110: e0cf fe3c 05ac 013c 29db abbd dad5 d6bd
00000120: e35e 49be 308b c3be 9d5f c5bd a218 8dbe
00000130: f636 f9bc 790f 33be 53c2 f3be d4eb 96bf
00000140: 4be2 663e 3b0f 053e 5d55 a0bf 9624 9a3d
00000150: 8c5a 32bf f51d 2ebf 14bd a2be d8d6 abbd
00000160: 68e7 04bd 8d73 c7bd 53ed 67be 4072 cf3d
00000170: 2c84 a23d 7b25 813e 474c 983e 7dc3 493d
00000180: e604 54bd 019c 37bd 1884 26be bc89 c0be
00000190: 586b 2cbe 3f12 51be b288 c13e e467 c13d
000001a0: b43f 0a3e 89f3 c13b 9366 c8be 8a44 57bf
000001b0: ded7 793e 0b67 acbd 8215 77bf f0d7 e03b
000001c0: f3cf 66bf ae04 59bf 3fee 87be 6da2 9fbd
000001d0: 3258 a1bd 0d41 28bd f6b4 0ebe ee90 d33d
000001e0: 67ff 0a3d 12a9 f63c 0028 9b3e 79c4 713e
000001f0: 72c3 d9bc d6d3 533d 6f0d 283e 501e 5f3e
00000200: 62e7 c7be 7d19 cbbe 23d7 02be 6b52 85bd
00000210: 42e1 33bd 8782 3ebd 6c9d 8c3d dfc6 6ebf
00000220: 43ce 863e b7a5 973d 7975 8fbf 22d4 ff3c
00000230: fe01 39bf 798a 91bf 6ef9 2cbf b47d 753e
00000240: 63f2 203e ef15 d33d 5e84 55bd c257 b33d
00000250: 523b 083d 00ae 8f3d ea2d 3a3e 7246 a13d
00000260: af1a 963d 5dab a0bd 5c7a 3b3c 9d5c 2d3e
00000270: c375 cfba 5daf ad3d d056 2b3d 1ff2 263e
00000280: 5b08 1bbe b670 d43d 1cf3 853e 62ae 56bf
00000290: 76a8 9e3e e607 fc3d 6b24 84bf d07d 9fbd
000002a0: 5279 57bf 93ca a53d 5cee 43bb 48fd 59bc
000002b0: 21f9 463e 57f0 883c 44ba 9e3e b8d9 403e
000002c0: ee40 803e 7503 213e 382d bd3e f6ad 713c
000002d0: 2c15 2dbe f7e3 24bd 2e30 54be a6f2 4bbe
000002e0: ada4 03be d859 223e 2f3b e93c 68f7 5cbe
000002f0: 4e3d 8fbd 6a50 733d c556 2fbf 31bd 81bf
00000300: cce0 0bbd 7302 243d 7b23 a6bf 9132 c63b
00000310: 470d 33bf 4e75 17be 3ecd 57be f9f4 5cbd
00000320: 28c1 b6bd b381 253e b1e5 b53d 4819 02bd
00000330: 53f8 e73d 7667 2cbe aa46 eebd 9a77 62be
00000340: 8bba 16be b1ab 013d f40b 39bd 66b6 5bbe
00000350: 340a 8f3c 2009 52bd 1ba1 35bd f5a9 a1be
00000360: a0ae 51bf 8e5e 41bf 0997 33bf ff36 5cbf
00000370: 5db2 8fbe e4c9 b73c e36b 74bf 3aaa cb3d
00000380: 6fee b33e 3050 143f c9c6 3cbd a0a4 e23d
00000390: 7faa 83bd ce91 413b 15ae afbe ee1e abbe
000003a0: 16bd e8bc e3f5 773e 4aab acbd da57 21be
000003b0: f09a 79be 8ba0 e1bb 8d42 76bd 14cb ea3c
000003c0: bbbe 9abe c8db f3be 054d 08bd 93b1 04be
000003d0: 3d19 113e 88b5 b93d 31e8 b7bd f24e e83e
000003e0: cc1f 57bf 3c41 a0bd 9920 c6bc 151c d63d
000003f0: ce9c 363e 2b34 28be 1307 3bbd deb2 02be
0.065229975 0.06084388 -0.23283508 -0.05553089 -0.34112507 -0.4160306 -0.05884437 -0.12551907
-0.19052257 0.15151049 0.031372417 -0.65838546 -0.25771657 -0.10558989 0.17183118 0.29503694
0.4024833 0.048516713 -0.7475891 -1.8606051 -1.4152381 -1.4757499 -0.63937104 0.19115478
0.0080342535 0.037751596 -1.714975 0.06907052 0.77264607 0.6914619 0.08715316 0.12096319
-0.035613935 -0.4070409 0.10374983 0.25884232 0.036033913 0.13384646 0.06188042 -0.18628082
-0.27105272 -0.28942782 -0.05833188 0.04234087 0.12147486 -0.03344387 -0.31027186 -0.15499316
0.05534575 0.23481613 -0.27849 0.6799288 0.13686788 -0.10333671 0.9210986 -0.11197759
-1.0380776 -0.93222326 -0.3778528 0.18672274 0.04012647 -0.06686197 0.014882574 0.107848525
0.10711448 0.18955997 0.26127514 0.32266802 0.031104982 0.007914548 -0.08391411 -0.10490008
-0.19665103 -0.3819213 -0.096373774 -0.27557856 -0.030421715 -0.17486371 -0.47609195 -1.1790719
0.22547261 0.12994091 -1.2526051 0.075265095 -0.69669414 -0.6801446 -0.3178488 -0.083905876
-0.03244725 -0.097388364 -0.22649126 0.10129213 0.07935366 0.25223908 0.29745695 0.049258698
-0.051762484 -0.04482651 -0.16261327 -0.37605083 -0.16837823 -0.20417117 0.37799603 0.09443644
0.13500863 0.005918924 -0.39140758 -0.8408896 0.24398753 -0.084180914 -0.96517193 0.0068616793
-0.90161055 -0.84772766 -0.26548955 -0.07794652 -0.0787815 -0.041077662 -0.13936219 0.103303775
0.033934977 0.030109916 0.30303955 0.23610105 -0.026582453 0.051715694 0.16411375 0.21788907
-0.3904372 -0.39667884 -0.1277738 -0.065098606 -0.043915994 -0.0465112 0.06865963 -0.93272203
0.2632924 0.074046545 -1.1207725 0.031229082 -0.72268665 -1.1370384 -0.675681 0.23973733
0.15717463 0.10306918 -0.05212819 0.08756973 0.033259697 0.0701561 0.18181577 0.078747645
0.07329308 -0.07845185 0.011442747 0.1692986 -0.0015827942 0.084807135 0.041830838 0.163033
-0.15139906 0.103730604 0.2616204 -0.8385984 0.309879 0.12306194 -1.0323614 -0.07787669
-0.84169495 0.080952786 -0.0029896712 -0.013305016 0.19430973 0.016716165 0.31001484 0.18833053
0.25049537 0.15723975 0.36948562 0.014750948 -0.16902608 -0.040256467 -0.20721504 -0.19916782
-0.12855788 0.15854585 0.028470604 -0.21578753 -0.06994115 0.05940286 -0.68491775 -1.0135862
-0.03414993 0.0400414 -1.2979578 0.0060485085 -0.69942135 -0.14790842 -0.21074387 -0.05394456
-0.089235604 0.16162758 0.08881701 -0.03176239 0.11326661 -0.16836342 -0.11634572 -0.22115937
-0.14719598 0.03165788 -0.045177415 -0.21456298 0.01746092 -0.051278234 -0.044343095 -0.3157498
-0.8190708 -0.75534904 -0.70152336 -0.8602142 -0.28065768 0.022435136 -0.9547712 0.099445775
0.35142848 0.57934856 -0.046088014 0.11066556 -0.06429004 0.002953637 -0.34312502 -0.33422035
-0.028410476 0.24214892 -0.08431108 -0.15756169 -0.2437551 -0.0068855933 -0.06012206 0.028661288
-0.3022364 -0.47628617 -0.033276577 -0.12958364 0.14169784 0.090678275 -0.08979834 0.4537273
-0.84032893 -0.078249425 -0.024185466 0.10454575 0.17833254 -0.1642615 -0.045661043 -0.12763545

fc1.bias f4 [128]
00000000: eda1 a33c 51ff 73bd 4c0b 30bd fff0 84bd
00000010: 9a7c e33c 98b4 853d fbf2 283e 719c 50bd
00000020: 5db5 76be 0ac8 77bb 65fc 6cbd e3ba 5a3d
00000030: ab76 453d 7944 093e 22e7 9a3c 12e3 5bbe
00000040: 4c55 2ebe 5f17 00be 76bb 0abe 6087 2dbe
00000050: e336 32bd 94f7 333d ae7d ee3e d7a1 4d3e
00000060: be52 92bd 0e3b 58be 736b d4bd 7c5f 25be
00000070: c82d a7bc d511 22be 12c2 e7bd d314 023e
00000080: afa4 b5bd 253c ebbd 2e2f 8f3e fc79 67bd
00000090: 5838 203e 9240 0fbe a63d 06bd e570 ecbd
000000a0: a9dd 1fbe 69a1 683e 6a19 99bc 634b e93c
000000b0: e085 10bd b29d 6bbe a815 0fbd 7e0a e83e
000000c0: 294d fa3d 148c 15bd 7734 3d3d 9740 7a3d
000000d0: eadc 4fbe f838 47bd 3d40 d83d d35a 8bbe
000000e0: 4919 253d d64f 093e d796 63be 7bc4 023f
000000f0: 3dfe 833d 8361 c5bc aa11 313e 351e 2abe
00000100: d6dd 373e cdcc 473e 8862 da3d 7726 553e
00000110: e2d2 08be e43b 193e 722f 44be 4258 6fbd
00000120: 912e 59be 5e30 90bc 9bfc 093d 815d 2dbe
00000130: 6e7e 0a3c 00ec c4bd 5234 7bbe 574c 363c
00000140: fb4b 2fbd 4e38 e7bb 91b8 0e3d 4adf 913d
00000150: f08f 803e 0275 8f3c 4b03 83bd bb5c c3bd
00000160: a661 693d 5d3b b7bc 3f67 39be ea23 77bc
00000170: 4fc5 983b d5c1 89bd 3c12 75bd 491d 93bd
00000180: f8ac 01be b0ad 3fbe 7add 403f e18e a73d
00000190: 9fbd c73e 566f 57bd c5f8 b73d 27c2 0ebe
000001a0: dd81 e83d 6ac0 8c3d 707c 043d 1710 883e
000001b0: 2ab7 48bd 940c c3bd e734 013d 4b37 883e
000001c0: 1746 10be abc8 8c3d 1550 cc3c 5cb9 af3b
000001d0: 221a 29be 2740 59bd e601 843d e405 60bd
000001e0: 1912 f6bd f344 82bc 6335 94bd f6f4 9cbd
000001f0: 18f4 653d 7fc4 5ebc 8f4c 1ebe ab9a 3ebe
0.019974673 -0.05956966 -0.042979524 -0.06491279 0.027769376 0.06528586 0.1649894 -0.050930444
-0.24092622 -0.0037808442 -0.05785789 0.053400885 0.048208874 0.13405026 0.01890904 -0.21473339
-0.17024726 -0.12508915 -0.13548073 -0.16946173 -0.043509375 0.04393728 0.4658026 0.20081268
-0.07144688 -0.21116278 -0.10372057 -0.16149706 -0.020407572 -0.15827115 -0.11316313 0.12703256
-0.088693015 -0.11486081 0.27965683 -0.056512818 0.15646493 -0.13989475 -0.032773636 -0.115449704
-0.156119 0.22717823 -0.018688876 0.02847833 -0.035283923 -0.23009375 -0.034932762 0.45320505
0.122217484 -0.036510542 0.046192612 0.061096754 -0.20299116 -0.048638314 0.105591275 -0.2721773
0.040307317 0.13409361 -0.2222551 0.51081055 0.064449765 -0.024094349 0.17291895 -0.16613086
0.17955717 0.19511719 0.106633246 0.20815454 -0.13361695 0.14964253 -0.19158724 -0.05843378
-0.2120917 -0.017601188 0.03368817 -0.169302 0.008452995 -0.09615326 -0.24531677 0.011126599
-0.04279707 -0.0070562726 0.034843985 0.07122667 0.25109816 0.017511848 -0.063971125 -0.09539171
0.05697789 -0.022367174 -0.18105792 -0.015084246 0.004662193 -0.06726424 -0.059831843 -0.0718332
-0.12663639 -0.187186 0.75337946 0.08181549 0.39011857 -0.052596413 0.08982996 -0.1394125
0.113528945 0.068726376 0.032345235 0.26574776 -0.049002804 -0.095238835 0.031544592 0.26604685
-0.14089237 0.06874212 0.02494053 0.0053626727 -0.16513875 -0.053039696 0.064456746 -0.054693118
-0.120151706 -0.015902018 -0.07236745 -0.0766391 0.05614099 -0.013596653 -0.15458892 -0.18613689

fc2.weight f4 [128, 128]
00000000: ccbd a0be 0909 f1be b0f7 b53d 615b 38bd
00000010: 631a 793d ae7b b1bd 8fa9 afbd fc50 de3e
00000020: b8f6 1ebe 84cd bcbe 163d 0ebe 4b82 72be
00000030: 38ac 673e dc49 763e 0899 30be 0f1b c8be
00000040: 2b10 fabd 5d7e b03d c763 a0be 84ac b4bd
00000050: 9982 e2be 084f 2abe a0ba 003e a538 273e
00000060: 38da ae3d 178c 13bf cad3 473e 52ca 933d
00000070: f18e ffbc 95e4 34bc 7fb6 22bd 7420 e83d
00000080: fb7e e43d 703e 073f 0fcc ab3d 1949 a23e
00000090: a229 963e a72f e7bd c9e6 f93d dbbb 19bf
000000a0: 280d f6be b1a7 ff3d 43a5 c23d d1e4 8a3e
000000b0: 0b07 fb3b 6ed3 f4be b383 f53d 29af 833d
000000c0: 4415 823e 628e 3ebd c3b7 673e dae6 213e
000000d0: 57c2 f7bc 0559 913e 254e b2be afdf b7be
000000e0: 97ea adbe 5ec8 733e 19c1 803e f92d f3be
000000f0: 4097 7f3d e2c5 a2be c7d0 cf3d 27cd 54bf
00000100: 3373 3f3e bf2b ab3e d3be 843e 0120 ab3d
00000110: 2a78 b4bd 546e 403d 5271 afbd e291 fa3c
00000120: 08f7 d4be e115 ff3d 05a5 bbbe d6fa 68be
00000130: 1de1 82be 5ebb ff3d ea48 bbbd 551d 723e
00000140: 30bb 46be ebe7 0cbf 640a 21bc 595f f8be
00000150: 92fd 713e adc3 8c3d 91bb 38bc 3622 38be
00000160: c952 d7be 6201 9abd f040 e7be 0872 133e
00000170: e980 c7be 6867 bbbd b4d9 193e 3213 51be
00000180: 5d21 cd3e ff42 98be 6fe7 4bbe 1bb8 bebe
00000190: b35e aabe 85cb a0be 9281 3b3e 57f6 bcbb
000001a0: 1678 883e eac1 8b3c f6c3 0d3e bf0b e23d
000001b0: 6068 c73d bf6d 09be 3a7b 98bd fe7e 083e
000001c0: ccd5 0f3d c7dd 3cbe 3f8a 02be 2de6 dbbc
000001d0: d5cd 253e 5607 db3e c6e8 403e f8da 033f
000001e0: ef0e 31bf 1b73 36be 32b7 b93e a7ee f13d
000001f0: 3541 93be aa4e e53e 2146 5abe 3cf7 8fbe
00000200: 2354 b6bd 1f98 98bc 3c78 b0bd d7dd c03e
00000210: 6df8 81be 5f82 a03e ad65 bf3d 93fa db3e
00000220: a7b2 e73d d7f0 013f 9d50 a33d 5ed8 ffbd
00000230: c89c ac3d 4780 c03e de0e c03d de96 d6be
00000240: 672d b53c 64c3 433d f45e 023f f3d4 a73d
00000250: 4035 143e c2e9 a9be 7f8b fbbd 3e45 0cbe
00000260: 762b 44bd 4029 0c3e b2df b8bd 7024 dbbe
00000270: 17f5 e23e f6d8 483e 4300 f0be a603 90bd
00000280: 41c8 083f 527e b73e 3b7c 663e 2d4a 2bbe
00000290: da00 ab3e fd70 223e 6e4a 8cbd 1c22 03bf
000002a0: 1d5f c33e 8993 e53e 2386 b2bc 49a1 82bd
000002b0: 97b4 713e 6bac 5e3d 166c 5f3e 9c4d ba3e
000002c0: e2b0 053e af8c e03e 4d57 f93c 81eb c13d
000002d0: 78a2 8abd ca4b 48be 1451 743b 7cf6 48bf
000002e0: 58df ad3d 88ea fb3e e02f c0be 3bc7 b5be
000002f0: 91a4 1e3f 82b9 88be fcc6 913e 7905 3bbe
00000300: 88e6 4c3e 1a85 b03d 7319 fe3d 58b5 ee3d
00000310: 3e38 c53d e30e fa3d c7ef 143f ee97 c6be
00000320: 4313 4c3e 94e4 85be 9266 66bd 58de 0f3f
00000330: 74ba 143f 0f69 35be d58f bbbc 65a8 753e
00000340: 56a7 083f cbf3 9f3e cc30 243f fa8d 973d
00000350: 7f08 4bbe e205 7ebe 4b7b 943d c7f0 a2be
00000360: 8756 d4be 4a55 cd3e a1e3 bb3c c22e f83e
00000370: f85c c93d 0ed2 3cbe e42b 53be f762 ae3e
00000380: 9912 a0be 11a3 19bc 3673 e33d 2eb2 65bd
00000390: b6ac ff3e 497d 253f 609f 11be 9666 debe
000003a0: a430 e23e 51c3 d3bd f2ce 883e 2d80 123f
000003b0: bbb5 0d3e 229d ecbd 8092 983e e4a8 dabd
000003c0: 9388 5f3f 796c 18be 55bb 1d3e 8721 a73e
000003d0: 5e95 bdbe 0448 0b3e aa4a bb3e 08b2 cabc
000003e0: db7d 0cbe daef da3e 9072 4d3e ebbb 51be
000003f0: 8aec 0e3f c691 9c3e 6cb1 3f3f 0f77 b03d
-0.31394804 -0.47077206 0.08885133 -0.04500902 0.06081618 -0.08666168 -0.085772626 0.4342116
-0.15523803 -0.36875546 -0.1389049 -0.23682515 0.2262429 0.24051613 -0.17245877 -0.39083144
-0.12210115 0.08617852 -0.31326124 -0.08821967 -0.44240263 -0.1663171 0.12571192 0.16330202
0.08537716 -0.57635635 0.19514385 0.07216324 -0.03119609 -0.011040826 -0.039724823 0.11334315
0.11157032 0.5282965 0.083885305 0.31696394 0.29328638 -0.11288386 0.12202222 -0.6005227
-0.48056912 0.124831565 0.095041774 0.27127698 0.0076607517 -0.47817558 0.1198801 0.064298935
0.2540685 -0.046522506 0.22628693 0.15810719 -0.030244036 0.2838823 -0.34825245 -0.35912845
-0.3396804 0.23806903 0.25147322 -0.47496012 0.062400103 -0.31791598 0.10147243 -0.8312554
0.18696289 0.33431813 0.25926837 0.08355714 -0.08811982 0.046980217 -0.08566536 0.03058714
-0.4159472 0.12455345 -0.36649337 -0.22751936 -0.25562373 0.12486909 -0.09144767 0.23644002
-0.19407344 -0.5504138 -0.0098291375 -0.48510244 0.23631886 0.0687326 -0.011275188 -0.179818
-0.42055348 -0.07519795 -0.4516673 0.14398968 -0.38965538 -0.091505826 0.15024453 -0.20417479
0.40064517 -0.29738614 -0.19912504 -0.37249836 -0.33275375 -0.31405273 0.18311146 -0.0057666707
0.26654118 0.017060239 0.13844284 0.11037397 0.09736705 -0.13420771 -0.074453786 0.13329694
0.035116002 -0.18443976 -0.12748049 -0.026843155 0.161918 0.42779034 0.18838796 0.51505995
-0.6916341 -0.17817347 0.3627258 0.118130974 -0.28760687 0.44786578 -0.21315815 -0.28118312
-0.089027666 -0.018627224 -0.08616683 0.3766925 -0.25384846 0.31349465 0.09345565 0.4296461
0.11313372 0.5075812 0.0797436 -0.12492441 0.08428341 0.37597868 0.09377836 -0.41911978
0.022116376 0.04779376 0.50926137 0.08194914 0.14473438 -0.33186156 -0.12282466 -0.13698289
-0.04789301 0.1368761 -0.090270415 -0.42801237 0.44327614 0.19614014 -0.468752 -0.07031946
0.53430563 0.35838562 0.22508328 -0.16727515 0.33399087 0.15863414 -0.06850134 -0.5122392
0.38158503 0.44839123 -0.021792477 -0.06378419 0.23604046 0.05436365 0.21818575 0.36387336
0.13055757 0.43857333 0.030437136 0.09468747 -0.0676927 -0.19560161 0.0037279772 -0.78501105
0.08489865 0.4920237 -0.37536526 -0.35503563 0.6196986 -0.2670403 0.28472126 -0.18263806
0.20009816 0.08619137 0.12407198 0.11655682 0.09629868 0.12209871 0.5817837 -0.38787788
0.19929223 -0.26150954 -0.056250162 0.56198645 0.58097005 -0.17715858 -0.022895733 0.23990019
0.53380334 0.31240687 0.6413696 0.07400127 -0.1982746 -0.24806932 0.07250079 -0.31824324
-0.41472265 0.40104133 0.02293569 0.48473173 0.098321855 -0.18439505 -0.20622212 0.3405988
-0.3126419 -0.009377257 0.11105959 -0.05607813 0.49936455 0.64644295 -0.14220953 -0.43437642
0.44177735 -0.10339988 0.26720387 0.5722683 0.13838856 -0.11553408 0.2979927 -0.106767446
0.8731777 -0.14885129 0.15403493 0.32642767 -0.3702802 0.1360169 0.36580402 -0.024743095
-0.13719885 0.42761117 0.20063233 -0.20481841 0.5582968 0.30579966 0.748801 0.086164586

fc2.bias f4 [128]
00000000: 0c2d b93c d7e8 863c 54ef 0dbe 87b9 84be
00000010: 3bf0 6fbd dbc0 8fbd 72ab dc3d 2502 2abe
00000020: 332f 5cbe 4619 823c cece a73c e2a9 b23c
00000030: 4f6c 52be 820a 76be 9339 e93d 600a 1f3d
00000040: e02b 913e dcce b33d e069 753e 9949 89bc
00000050: ac42 6a3d 907e cbbd 234e 5ebd 1bd1 c7bd
00000060: 760e 8abe 2b1a 143c 12c0 133d cecd 573d
00000070: ce87 153e 1142 753d f214 73be 0d07 e5bd
00000080: a05e 193d 4896 1bbd 2f1c bebd f2c7 15be
00000090: b665 30be 2c60 903e a465 37be 3f37 63be
000000a0: a20e 7c3e ea19 323e b6bf 33be 7037 aebe
000000b0: e6e7 6ebe f826 2a3e ba11 da3d 4611 8b3d
000000c0: 7eb2 59be 1be6 8b3d be37 1abe d6df 86bd
000000d0: b3c6 84be 301b 03be 41fe 183e 0a52 69be
000000e0: 319d 4d3e b16b ba3d 1df6 44bd a39c 8abe
000000f0: bd22 32bd 3770 ea3c 42d6 2cbd 8939 b23d
00000100: 8e2a 8abe 59d5 92bc 9622 c93d 296d 26be
00000110: 4320 913d a3fa 8abe d25c 343e 4c15 9fbc
00000120: efaf 623e bf67 2e3b 9c5e 083e 9d9c 833e
00000130: 20e0 c9bc 480b fdbd 5e0d 24be d00a 2dbe
00000140: 1449 c03d 93a7 443e 2f2d 1e3e 4075 283d
00000150: ca59 bfbd 9e87 62bd a7b3 28be 9a99 c8bd
00000160: 801c 6abe fde7 b0be 7600 673e aa86 283e
00000170: 636f 0c3d e984 77bd 2648 69be 6a39 cc3d
00000180: aa48 88be e2e1 a0bd 47bd a63d 40a8 993d
00000190: 22be 6c3d 2b4e 123e 7219 88bc 718c 7dbd
000001a0: bcde 7f3d 4d83 9abe ca90 35be 08b4 3ebe
000001b0: 8b35 a9bd 3480 653d 70d8 f83d 65d8 673d
000001c0: ee45 373e a01b 38be 79c7 263c 49b6 a93d
000001d0: 64ba 52be bd00 1fbe 16e0 2b3d 2e8a 41be
000001e0: 64da f23d e53c 443e 14bd 98bc bf91 24be
000001f0: 4f43 0d3e 5c11 82be 88a0 643c a601 123e
0.022604488 0.016468449 -0.13860828 -0.25922796 -0.05857871 -0.07019206 0.10774888 -0.1660238
-0.2150238 0.015881192 0.020484354 0.021809522 -0.20549129 -0.24027446 0.113879345 0.038828254
0.28353786 0.0877969 0.2396617 -0.016758727 0.05719249 -0.09936249 -0.054273736 -0.097566806
-0.26964158 0.009039442 0.036071844 0.052686505 0.14602587 0.05987746 -0.23738459 -0.111829855
0.037443757 -0.037985116 -0.09282719 -0.14627054 -0.172263 0.28198373 -0.17909867 -0.22189043
0.24614957 0.17392698 -0.175536 -0.3402667 -0.2333065 0.16616428 0.10647912 0.06790404
-0.21259496 0.068309985 -0.15060326 -0.06585662 -0.25932845 -0.1280334 0.1494074 -0.22785202
0.20079495 0.09102572 -0.048086274 -0.2707263 -0.04349016 0.028617961 -0.04219652 0.0870238
-0.26985592 -0.017923998 0.0982105 -0.16252579 0.070862316 -0.27144346 0.17613533 -0.019419335
0.22137426 0.002661213 0.1331734 0.25705424 -0.024643004 -0.12355667 -0.16020724 -0.16898656
0.093889385 0.1920455 0.15446924 0.041127443 -0.09343298 -0.055305116 -0.16474782 -0.09794922
-0.22862434 -0.34551993 0.2255877 0.1645762 0.034285914 -0.060429487 -0.22781429 0.09971888
-0.26617938 -0.07855584 0.081415705 0.07502794 0.057798512 0.14287631 -0.016613696 -0.061901513
0.062468275 -0.301783 -0.17731014 -0.18623364 -0.08262166 0.056030467 0.12150657 0.056602854
0.1789777 -0.17979288 0.010179394 0.08286721 -0.20578915 -0.15527625 0.041961752 -0.18900368
0.11858061 0.19163854 -0.018644847 -0.16071223 0.13795207 -0.2540387 0.013954289 0.14258441

out.weight f4 [5, 128]
00000000: 7056 313f f7b8 a8be 75dd a6be 783e a73d
00000010: 78db e7be 5ace b6be 8dc4 083d d1d5 b63e
00000020: a34e 243f 7263 ba3e a51b 163f 69ec c2be
00000030: e018 ef3d b1fd 8d3d 6e6e 14bf 6c88 fdbe
00000040: fa9b e0be 857e 203f 0327 263f da86 013f
00000050: f755 36be c8ff 933e 1706 91be 6cb0 f83e
00000060: 7e93 e83e 04d8 e43e e6ec dabe d0a4 73be
00000070: f608 7d3f befa 0d3e f198 8e3e 7107 ba3e
00000080: aa29 183f 18d8 e33e e867 d73e 356e 833e
00000090: fbb5 883e 36dc c7be 4c06 4c3e f21c 003e
000000a0: 8d1e 47be 1d87 9abe 72c0 783e 3808 b63e
000000b0: e2cc ac3e a174 09be 1738 c8be a91f 93be
000000c0: 6add bb3e 8a31 043f 1834 e03e 6657 c6be
000000d0: 113b fdbe 0f3d d33e cfc9 7fbe c98f 933e
000000e0: db67 1b3f 16ed 91be 1344 0c3f 4830 ab3e
000000f0: c3a4 68be fae0 063f 2095 013f dd43 0bbe
00000100: ba0d e03e 486b 06be 4572 b3be e12d 99be
00000110: 9ab1 193f 4bb0 5d3e 3b36 f93e e56d 0b3f
00000120: 56ba 7b3f 6cc3 f73e 4d4f 073f e3a5 47bd
00000130: 0f75 5abe 8a91 f83e 9b9d 633e a637 e33e
00000140: a161 2ebe 4e89 303f 1878 203f 760c c63e
00000150: 1394 b53e 69bb 07be bb8d 9b3e 7546 783e
00000160: c834 8a3e 7b1f 723e af36 6dbe 6154 993e
00000170: 2bcb 093f 1914 fbbe c653 663e 3a55 b9be
00000180: 4e81 583d 14fe f73e 7fa1 0abf 169f 203f
00000190: 4f37 343f 7e80 003f d50c a6be 01bc 66be
000001a0: 78cf 55bf 006e 25bf b48d 64be 0e35 813e
000001b0: dae1 14be c035 08bf d136 68be 32e6 ab3e
000001c0: 6de5 ca3e e9de 18bf 45d4 1cbe 863a a9be
000001d0: 6814 d13e 02aa e8be 304d 89be 4405 86be
000001e0: a26e 1cbe e574 94bd e9cc 51be b55b e63e
000001f0: a1aa 163f 066a e43e a1e8 883e d3d7 793f
00000200: db11 a63e 0064 fabe b597 49be 34a4 893d
00000210: d1c8 37bf 69bf 75be 98f9 efbe ca11 703e
00000220: ee43 cc3e 94d3 ac3e 8618 ed3e 60de 51be
00000230: d665 963e 7ac4 c4bd e767 d6be 3bf9 13bf
00000240: 9bea 8ebe 93cb ad3e cc94 ad3e 9213 0d3e
00000250: 8a72 e7be f97e df3e bff6 27be 0a00 8a3e
00000260: a945 c93e 1d39 8d3e 690c fbbe 089e 17bf
00000270: ebd0 4f3e 5766 693e b979 9a3e 2541 b33e
00000280: 08ec d63e 9b14 9a3e 1c5b 993e 51bc 0a3e
00000290: 342a 9e3e e317 a0be 4fef aa3d d5ea 7f3f
000002a0: c93d 70be 6199 a0be cd34 073e 8647 4d3e
000002b0: 51cd ae3e 041a ca3d 911c 97be c789 6fbe
000002c0: cfb0 2a3e 4829 b03e 5925 c13e 7458 b1be
000002d0: 5005 7abe dfdc e63e d2d6 e5be 5306 bf3e
000002e0: e86c 9e3e a502 03bf fd3e 803e 11ca a33e
000002f0: 1d2f 0dbf d2d1 673e e284 d03e 159a bbbe
00000300: 0d42 e23e e616 3bbd 6ad6 a6be 499a 86be
00000310: 4ed4 b73e aa38 bb3d b697 893e 9e99 453f
00000320: 992b c33d 5b5d 4d3f cff8 583e 6c35 843c
00000330: c9dc cdbe 5654 0d3f 0686 083e 22ae bb3e
00000340: e3d3 fabe 49a9 ea3e 19e0 f03e c9ab e63e
00000350: 3746 a33e 490b 053e b450 7f3e b28a 863e
00000360: cc41 4f3e 0326 883d ee0c 91be 5b1e 893e
00000370: b94e ac3e 3596 21bf df34 823e 256c afbe
00000380: 8f31 08bf 58b0 a63e 0c1c fabe 5dd9 073f
00000390: 2278 163e a3f0 ee3d 8345 cbbe c753 02bf
000003a0: 21a5 edbe 6fb0 85be 3121 94be f7cc 8f3e
000003b0: 7e2e d3be 5309 16bf 1e94 2abe 7284 cd3e
000003c0: c349 593e 82f0 43be 6761 dabe 34a8 e8be
000003d0: bb75 053f b98b d3be 7bdb bebe 7fd1 1ebe
000003e0: cdc6 003d 7df9 c1be 16f1 72be 8782 933e
000003f0: 92f2 e83e 3564 4f3e e5eb c33e 6216 953d
0.6927252 -0.32953617 -0.32590833 0.08166212 -0.4528463 -0.3570431 0.03339057 0.35710004
0.6418249 0.36403996 0.5863593 -0.38070992 0.116746664 0.069331534 -0.57981 -0.49518144
-0.43869 0.62693053 0.6490328 0.5059639 -0.1780623 0.28906083 -0.2832496 0.485721
0.45425028 0.44696057 -0.42758864 -0.2379334 0.988418 0.13865182 0.2785106 0.36333802
0.59438574 0.44500804 0.42071462 0.2567002 0.2670134 -0.39035195 0.19924277 0.12511042
-0.19445248 -0.30181208 0.24292162 0.35553145 0.33750063 -0.13423397 -0.39105293 -0.28735092
0.36692363 0.5163809 0.43789744 -0.38738555 -0.49459127 0.41257522 -0.24979328 0.28820637
0.60705346 -0.28501195 0.54791373 0.33435273 -0.22719102 0.52687037 0.5061817 -0.13600107
0.43760473 -0.13126862 -0.35048118 -0.29917815 0.60036623 0.21649282 0.48674187 0.5446456
0.983312 0.48391283 0.5285538 -0.048742186 -0.21333717 0.48548537 0.2222809 0.44378394
-0.1702943 0.6895951 0.6268325 0.38681382 0.35464534 -0.13255085 0.3038157 0.24245627
0.26993394 0.23644821 -0.23165391 0.29947188 0.53825635 -0.4903877 0.22492895 -0.36197835
0.05285769 0.48436034 -0.54152673 0.62742746 0.70396894 0.50196064 -0.32431665 -0.22532655
-0.835197 -0.6462097 -0.2231968 0.2523579 -0.1453928 -0.53207016 -0.22677161 0.33574063
0.39628163 -0.59715134 -0.1531535 -0.33052462 0.4083588 -0.45442206 -0.26816702 -0.26175892
-0.15276578 -0.07248858 -0.20488323 0.44991842 0.5885411 0.4461214 0.26739982 0.97594947
0.32435498 -0.4890442 -0.19686778 0.067207724 -0.71790797 -0.23998798 -0.46870112 0.23444286
0.39895576 0.3375517 0.46307772 -0.20494986 0.2937457 -0.096077874 -0.41876146 -0.5780217
-0.27913365 0.33944377 0.33902586 0.13776997 -0.45204574 0.4365156 -0.1640272 0.26953155
0.3931096 0.27582636 -0.49032906 -0.5922551 0.2029454 0.22792946 0.30170992 0.3501064
0.41976953 0.30093846 0.29952323 0.135484 0.30891573 -0.31268224 0.08346426 0.999677
-0.23461069 -0.3136702 0.13203736 0.20046815 0.3414102 0.09868243 -0.29513982 -0.23392402
0.1666901 0.34406495 0.37723807 -0.34637797 -0.24416089 0.45090386 -0.44890457 0.37309512
0.30942464 -0.5117591 0.25048056 0.31990102 -0.55150014 0.22638634 0.40726382 -0.36640993
0.44191018 -0.045676135 -0.3258546 -0.26289585 0.35904163 0.09141667 0.2687356 0.77187526
0.095298 0.80220574 0.21188663 0.016138755 -0.40207508 0.5520681 0.13332376 0.3665629
-0.48989782 0.4583228 0.47045973 0.45052937 0.31889507 0.12992586 0.2493313 0.2627769
0.20239943 0.06647875 -0.28330177 0.26780972 0.3365381 -0.6311982 0.25430962 -0.34262195
-0.5320062 0.32556415 -0.48849523 0.53066045 0.14694265 0.116669916 -0.3970147 -0.50909084
-0.46415046 -0.2611117 -0.28931573 0.28086063 -0.41246408 -0.5860798 -0.16658065 0.4014011
0.21219544 -0.19134715 -0.42652437 -0.4544083 0.5213277 -0.41317537 -0.37276825 -0.15509604
0.03143959 -0.37885657 -0.2372478 0.28810522 0.45497566 0.2025307 0.3826591 0.0727966

out.bias f4 [5]
00000000: db15 85bf 102e 02bd c4c7 8a3f a454 8dbe
00000010: 8fd9 5dbf
-1.0397295 -0.03178221 1.0842214 -0.27603638 -0.86660093

exp_avg_sq f4 [128, 28]
00000000: 4a51 1847 5d5a 6d46 b654 bd45 cedd 6445
00000010: eb9f 3745 819f 2745 45cb 3445 5a44 6a45
00000020: 0d9c b045 7863 4546 5faa 1c47 5c86 5d46
00000030: a7cf 8045 4ef4 a145 b17a 0946 d3cf ae46
00000040: fc10 4247 4460 6846 9f82 0944 5ad3 6943
00000050: 96ba 8943 7761 a143 4f04 5746 b776 1847
00000060: ec0b 1544 2938 3447 6b9e 1743 b2bc cb49
00000070: ca2d 2844 ba1a 1444 9b00 f143 4f5a 2544
00000080: a568 9e43 1ba7 1443 1370 1443 6ddc 4743
00000090: b99e 6443 209f 1544 ac27 4244 9b84 1444
000000a0: aba4 b643 30ed 4a43 b065 1243 18c9 3143
000000b0: ddb1 7843 a6a4 4e43 a984 7143 7ad2 7043
000000c0: a71a e643 5b7a db43 3e32 eb43 584d 2844
000000d0: 40b1 e842 896f 5c45 e6d5 4b41 238a e946
000000e0: 55f6 4844 8dc2 0745 ab2b 9246 0b7d 8847
000000f0: 7ce2 8547 090f a846 0d88 2f46 80fd ff45
00000100: 7245 d945 2653 dc45 e23a 0346 f361 3b46
00000110: 151a f246 0b1e 3947 0a64 1c47 8426 4746
00000120: 673a d844 728d 3044 0820 eb43 39d2 b243
00000130: e569 cb43 0184 b043 1e1b fa43 ad79 4744
00000140: 513e bf43 8ff4 ec47 d6c3 9843 f2d9 5c4a
00000150: 1855 a741 1d8c 9241 49a9 8741 b526 4a43
00000160: 0473 5343 6e90 c342 568e d042 06ef 1644
00000170: 7402 8645 f7f8 8545 d14a a044 8368 1144
00000180: 53f6 c843 6e63 9b43 c5e2 9743 c5e7 a643
00000190: 3793 ed43 d2dd 3d44 ac1e 0545 e91d d745
000001a0: b983 0745 c405 8644 4e86 9644 054b e941
000001b0: 653c 5145 ca88 6f45 70d4 8741 3e9e 5845
000001c0: e136 f942 4f23 4c43 27ed 7744 6323 0f46
000001d0: 39f1 1b46 854c 4f45 9b1c cd44 1fce 9144
000001e0: 0a27 8644 fc7f 8844 3e57 d944 8f4e 0645
000001f0: 71ff 5845 7763 d745 906c bb45 c6c4 0b45
00000200: 2af8 af43 9b43 4d43 6fbd 5743 0be2 cb43
00000210: dfec 0b44 79ca f944 920c 3a44 3be0 f442
00000220: b0f8 e442 e36d ab46 024e 3542 0ca3 f148
00000230: d796 0843 0d9c 4742 ac1b 0d42 bdb0 f742
00000240: 5279 2843 c589 c143 f5c4 cf44 de75 5944
00000250: 1260 a744 0059 ad44 9f33 0645 4a5d 0c45
00000260: 6de4 a644 4375 3944 28c3 1244 c10a 2c44
00000270: 1efb a744 19f4 3445 c8d8 8744 5bb1 2145
00000280: 76bd 1245 c127 d145 e277 a345 131f 0543
00000290: a0dd b344 eb99 9746 c9bd ae41 9990 1647
000002a0: 83d5 0a45 bf26 0046 44d1 6a47 5c90 1748
000002b0: a971 0548 7646 2f47 553a c246 f643 9146
000002c0: 3f4c 7a46 3a2b 8046 31e3 9c46 c431 f846
000002d0: 06dc 9647 24fb cd47 2c02 9f47 688d ca46
000002e0: 7954 a245 b4fe 3545 0119 1a45 1b5a c344
000002f0: 5c3e bb44 f0df b044 7932 a544 6985 0a45
00000300: 249e 0445 4bff 8548 886d 3644 c847 f74a
00000310: f3b7 633f 220d 1240 e301 3942 ba48 3142
00000320: a866 6042 5012 3642 e95e d841 8189 8b41
00000330: ebbc 5241 40c1 3b41 5a12 4841 18d5 8841
00000340: e1c3 e441 1fd0 9a42 e710 5943 d839 e541
00000350: 0fe8 bd41 df02 3b41 335b b740 6274 5140
00000360: 6826 2b3f e303 0c3f b976 463f fa1c 893f
00000370: 604c 3a41 ade7 2a44 0362 043f b8ef 1e46
00000380: 65d2 3f45 df98 2e45 41dd 9545 8d36 f245
00000390: a51d af45 7ba6 0f45 3339 a344 0114 8144
000003a0: 3ee8 8944 c67b c744 dbae 1c45 d456 5345
000003b0: cb9f 9a45 9380 b245 3681 7645 cdf5 d844
000003c0: 1664 4e44 81e7 f843 503c aa43 f549 c943
000003d0: b760 3044 e784 6744 949e be44 c9e8 3f45
000003e0: 430a 5243 eeab bc46 b3c5 a442 ebb9 e748
000003f0: 8753 a126 a573 6a26 fb03 4f26 fff2 2b26
38993.29 15190.591 6058.589 3661.8628 2937.9949 2681.969 2892.7043 3748.272
5651.5063 12632.867 40106.37 14177.59 4121.9565 5182.538 8798.673 22375.912
49680.984 14872.066 550.04095 233.82559 275.4577 322.76144 13761.077 39030.715
596.1863 46136.16 151.61882 1.6690142e+06 672.71545 592.4176 482.00473 661.4111
316.81754 148.65276 148.43779 199.86104 228.62001 598.4863 776.6199 594.07196
365.28647 202.92651 146.39722 177.78552 248.69478 206.64316 241.5182 240.82217
460.20822 438.9559 470.39252 673.2085 116.34619 3526.971 12.739721 29893.068
803.84894 2172.1594 18709.834 69882.086 68548.97 21511.518 11234.013 8191.6875
6952.6807 7050.3936 8398.721 11992.487 30989.041 47390.043 40036.04 12745.629
1729.8251 706.2101 470.25024 357.64236 406.8273 353.03128 500.21185 797.9012
382.48685 121321.12 305.52997 3.6184285e+06 20.91655 18.318415 16.957659 202.1512
211.44928 97.78209 104.278 603.73474 4288.3066 4287.1206 1282.338 581.633
401.9244 310.7768 303.77164 333.8107 475.15012 759.46594 2129.917 6883.739
2168.2327 1072.1802 1204.197 29.16163 3347.7747 3832.5493 16.97873 3465.8901
124.607185 204.13792 991.7055 9160.847 9980.306 3316.7825 1640.8939 1166.4413
1073.22 1091.9995 1738.7263 2148.91 3471.965 6892.433 5997.5703 2236.2983
351.93878 205.26408 215.73997 407.76596 559.7011 1998.3273 744.1964 122.43795
114.48572 21942.943 45.32618 494872.38 136.58922 49.902393 35.277023 123.84519
168.4739 387.07632 1662.1549 869.8417 1339.0022 1386.7812 2147.2263 2245.8306
1335.1383 741.8322 587.0493 688.168 1343.8474 2895.256 1086.7744 2587.0847
2347.8413 6692.969 5230.9854 133.12138 1438.9258 19404.959 21.842669 38544.598
2221.3445 8201.687 60113.266 155201.44 136646.64 44870.46 24861.166 18593.98
16019.062 16405.613 20081.596 31768.883 77240.05 105462.28 81412.34 25926.703
5194.559 2911.919 2465.5627 1562.8158 1497.9487 1414.998 1321.5773 2216.3381
2121.8838 274426.34 729.7114 8.102884e+06 0.8895256 2.2820516 46.251842 44.321022
56.10025 45.517883 27.046343 17.44214 13.171123 11.73468 12.50448 17.10405
28.595644 77.40649 217.06602 28.653244 23.73831 11.688201 5.7298827 3.2727284
0.6685548 0.5469343 0.77524906 1.0711968 11.643646 683.61993 0.51712054 10171.93
3069.1497 2793.5544 4795.6567 7750.819 5603.7056 2298.405 1305.7875 1032.6251
1103.2576 1595.8679 2506.9285 3381.4268 4947.974 5712.072 3944.0757 1735.6813
825.56384 497.80862 340.4712 402.5778 705.51117 926.0766 1524.9556 3070.549
210.04008 24149.965 82.38613 474575.34 1.1194259e-15 8.1341786e-16 7.1822946e-16 5.9656864e-16

exp_avg f4 [128, 28]
00000000: b67a 88c1 03d5 6dc1 03df dec0 9ec3 96c0
00000010: b097 76c0 cc58 5bc0 852d 4fc0 07f8 54c0
00000020: 56fe 78c0 8301 a4c0 273d 88c0 03ac 7bc0
00000030: 3e28 6dc0 6559 7ec0 c438 9ac0 12a0 bfc0
00000040: 2c7c 15c1 d710 87c1 82f0 1ac0 08d1 7bbf
00000050: 8cd9 9bbf e08a cfbf 3dff 29c0 b67a 88c1
00000060: c64c 9440 8387 02c2 32a9 8bbf e843 bcc2
00000070: 0132 b3bf 5427 94bf a6f1 1cbe ae20 d9be
00000080: 1fc6 d03e 05e2 743e f67b 073c 4ddf 613d
00000090: a470 553f e73b 35bc 9308 b13f c1f6 4fbf
000000a0: c3ed e53c cf11 b63d a03d 853e 4c7c 8d3e
000000b0: c21d 6abe 38ed bbbe 4ece 99bf aaea 1bbf
000000c0: 5b65 74bf a7ef aebf 055d 0cc0 6cde b5bf
000000d0: 338f 0e3f 6a7b 8cc0 c272 5c3d c9a0 b73d
000000e0: 2ada 63c0 860a bfc0 2d03 e0c1 fd3e d9c1
000000f0: 93c9 e4c1 9790 bbc1 e7cf 8ac1 3ffe 67c1
00000100: 4858 5bc1 df4b 54c1 434c 5ec1 23fc 83c1
00000110: 0382 acc1 db26 0fc2 b348 71c2 2a5d 86c1
00000120: cb02 d8c0 f7b4 87c0 0337 53c0 9991 3fc0
00000130: 43c6 38c0 5ffb 26c0 0261 55c0 7d54 7fc0
00000140: 8e9f 2941 5a84 d5c2 bda5 26c0 3a4a c3c3
00000150: f305 c7be 5dca c9be f02f c1be f1b5 c9be
00000160: d87e 04bf e994 24bf ea31 9bbf 2b6d a3c0
00000170: 4268 a8c0 8df1 2bc0 68d0 eabf 700d bfbf
00000180: 887e abbf c324 a5bf 6962 abbf 49c0 c8bf
00000190: 3526 febf c8b0 43c0 a404 d9c0 0199 59c0
000001a0: 71e4 22c0 e564 3cc0 6303 03bf 4acf d8be
000001b0: fa6c 7fc0 881c 92c0 abfd bdbe 71c5 7ac0
000001c0: 68e8 a6bf 9a24 0cc0 2091 24c1 6f97 1fc1
000001d0: c710 28c1 90c4 09c1 e3d2 cbc0 fb1f aac0
000001e0: a628 9fc0 64ef 99c0 d23f a2c0 773e c1c0
000001f0: 1fee fcc0 1822 52c1 a92f b1c1 e8ef c4c0
00000200: c374 1dc0 204e c4bf c36f 96bf d10a 82bf
00000210: f00a 82bf 818e 6dbf e23d 98bf f2fc babf
00000220: f5fa 7c40 05b0 1cc2 e9f4 73bf 8c78 0fc3
00000230: ed3d abbd a5a4 c6bd d37e 8dbd 80e7 213e
00000240: f446 e63e 6e7a bdbe 1a22 94bf 0ca4 16c0
00000250: d2fe 22c0 a93c c4bf 31af 92bf 6d02 79bf
00000260: ebbd 71bf 4a3e 71bf 57bc 88bf 81c5 b5bf
00000270: dd54 1ec0 4bc2 15c0 5582 ddbf 21c9 d1bf
00000280: d5cd 93bf 24fb 10c0 26c9 0fc0 603b d1bd
00000290: ad88 0dc0 d404 0bc0 574d 78bd 45f0 97c1
000002a0: 1429 a4c0 8714 47c0 86b7 22c2 2054 29c2
000002b0: 482c 3fc2 ef33 1dc2 4028 ddc1 8b1d e1c1
000002c0: afa3 dfc1 156c bac1 6c93 c0c1 edbb d9c1
000002d0: a9c9 0ac2 6c1b 67c2 fb94 c9c2 045c ebc1
000002e0: 3746 57c1 cf1b 3fc1 d0b7 67c1 6ac6 0ec1
000002f0: f1b5 0ac1 e988 04c1 4b9c aec0 fca1 bbc0
00000300: d6ab 2441 9557 2bc3 0d1c 8fc0 26c9 17c4
00000310: 792d 2ec0 bc09 92c0 0c3e abc1 e711 a6c1
00000320: 7ce4 aec1 7261 8fc1 9839 54c1 d657 31c1
00000330: a2ac 27c1 4849 22c1 87ee 29c1 7fc9 49c1
00000340: e0de 83c1 1adc dac1 0272 38c2 9f6c 4dc1
00000350: 3320 a5c0 407a 4fc0 a475 21c0 fe70 12c0
00000360: 633f 0dc0 f74a ffbf 221d 23c0 be2e 43c0
00000370: 61aa 0141 2738 a3c2 0ac8 febf 3749 95c3
00000380: d2c1 0ac1 b6ab e8c0 9367 44c1 bf4e 09c1
00000390: baa1 2bc1 eee8 1dc1 4387 7dc0 e145 92c0
000003a0: 088b 9bc0 0a8d c8c0 9193 c9c0 39d0 1dc1
000003b0: 9ca4 66c1 de3c 66c1 c93a 8fc1 5bc0 a6c0
000003c0: c593 71c0 ad8b 82c0 706e 7ec0 3f80 6bc0
000003d0: a4ba 54c0 6bbe f6bf 219c 89c0 f258 0cc1
000003e0: 47f3 a540 6bad 25c2 9200 95bf 733f 02c3
000003f0: 0400 0000 0400 0000 0400 0000 0400 0000
-17.059917 -14.864505 -6.964723 -4.711379 -3.8530083 -3.4272947 -3.2371533 -3.3276384
-3.8905234 -5.1251845 -4.257465 -3.9323738 -3.7055812 -3.9742062 -4.8194294 -5.98829
-9.342815 -16.883223 -2.4209294 -0.9836583 -1.2175765 -1.6214256 -2.6562035 -17.059917
4.6343718 -32.632336 -1.0911009 -94.13263 -1.3999635 -1.1574502 -0.15326557 -0.42407745
0.40776154 0.23914345 0.008269301 0.055144597 0.83375 -0.011061645 1.3830742 -0.8123589
0.028067475 0.088901155 0.2602358 0.27633893 -0.22862914 -0.3670442 -1.2016084 -0.60904944
-0.95467156 -1.3666886 -2.1931775 -1.4208503 0.55687255 -4.390065 0.05382038 0.08966214
-3.5601907 -5.9700346 -28.00155 -27.155756 -28.598425 -23.4456 -17.351515 -14.499572
-13.709053 -13.268523 -13.893619 -16.498114 -21.563482 -35.787945 -60.320995 -16.79549
-6.750341 -4.2408404 -3.3002326 -2.9932616 -2.887101 -2.6090925 -3.334046 -3.9895318
10.601454 -106.7585 -2.6038659 -390.5799 -0.38871726 -0.39412203 -0.37731886 -0.39396623
-0.5175605 -0.6428972 -1.2124608 -5.107076 -5.262727 -2.686618 -1.834485 -1.4925976
-1.3397989 -1.2901844 -1.3389407 -1.5683681 -1.985541 -3.0576649 -6.7818165 -3.3999636
-2.545193 -2.943658 -0.5117704 -0.4234565 -3.9910264 -4.565983 -0.37107596 -3.9183009
-1.3039675 -2.189734 -10.285431 -9.974471 -10.504096 -8.610489 -6.369493 -5.316404
-4.973712 -4.8104725 -5.0702906 -6.038875 -7.9040675 -13.133324 -22.148272 -6.1542854
-2.4602516 -1.5336342 -1.1752857 -1.0159551 -1.0159588 -0.9279557 -1.1893885 -1.4608443
3.9528172 -39.171894 -0.9529558 -143.47089 -0.08361421 -0.09699372 -0.069089554 0.15810966
0.44976008 -0.3700747 -1.1572907 -2.3537626 -2.546803 -1.5331012 -1.1459714 -0.97269326
-0.94430417 -0.9423567 -1.0682477 -1.4200898 -2.4739296 -2.3399837 -1.7305399 -1.6389505
-1.154719 -2.2653284 -2.2466521 -0.10216403 -2.211467 -2.1721697 -0.060620632 -18.99232
-5.1300144 -3.110628 -40.679222 -42.332153 -47.793243 -39.300716 -27.644653 -28.139425
-27.954924 -23.302774 -24.071983 -27.21676 -34.696934 -57.77678 -100.79098 -29.41993
-13.454642 -11.944289 -14.482376 -8.923441 -8.669419 -8.283425 -5.4565787 -5.8635235
10.291952 -171.34212 -4.472174 -607.14294 -2.7215254 -4.5636883 -21.405296 -20.758741
-21.861565 -17.92258 -13.264061 -11.083944 -10.479647 -10.142891 -10.620734 -12.611693
-16.483826 -27.357471 -46.111336 -12.839019 -5.1601806 -3.2418365 -2.5228052 -2.2881465
-2.2069938 -1.9944752 -2.5486531 -3.049728 8.104096 -81.60967 -1.9904797 -298.572
-8.672319 -7.270961 -12.275287 -8.581725 -10.726984 -9.869368 -3.9613807 -4.57103
-4.8607216 -6.2672167 -6.2992635 -9.863336 -14.415188 -14.38986 -17.903704 -5.210981
-3.7746441 -4.0795503 -3.9754906 -3.6797025 -3.3238916 -1.9276861 -4.3003087 -8.771715
5.185947 -41.419353 -1.1640799 -130.24785 6e-45 6e-45 6e-45 6e-45

exp_avg_sq f4 [5, 128]
00000000: 8e74 5445 ccee 9245 87ce 7c45 2375 a145
00000010: d85c 4845 3934 6445 6db1 e045 66f5 c445
00000020: 301d 4b45 f8bc 8945 010a d245 6ed2 0546
00000030: 5708 d645 76d0 d044 fba0 ed45 992d 4145
00000040: 175d ba45 a9bc 7a44 4188 e944 a45e 0346
00000050: bcdd 0446 e540 af45 56a2 e944 8910 ba45
00000060: 9c33 8a45 de3f 5345 fd40 8245 c8a2 d345
00000070: baa6 6f43 0866 e645 6544 1146 bebf b945
00000080: b7ef 0245 5ea3 8e45 2717 0846 5105 ff45
00000090: 336d 2546 95fe 1c46 8b71 1a45 4286 1142
000000a0: 5165 0c46 e461 5745 3d79 d945 f566 ca45
000000b0: 185d f645 f3ee 4d45 4243 5b45 43ab 5f45
000000c0: 1f49 f745 4b50 e544 537f 0d46 b843 d045
000000d0: f461 1445 70e7 d845 4742 ae45 4477 0d46
000000e0: 70a3 0046 57db 9145 f00d 9545 8521 1946
000000f0: 4d1e f645 7ff9 c845 cc8c 9e45 8d44 ad45
00000100: 57a1 2446 52e2 c845 47f7 3645 0991 8c45
00000110: e2db 1d45 962d fc45 0c47 ca44 58c9 8945
00000120: fd8b 8743 1d93 2c45 5f9f 4545 f584 8a45
00000130: 27bb b945 c89b 8c45 1532 3f45 5ec7 c845
00000140: b7f9 8845 d217 1d45 6960 4945 b086 dc45
00000150: 2974 7d46 8671 1744 7cec f945 9308 ee45
00000160: bc31 1d46 4c69 e145 59e8 9c45 c366 9845
00000170: 233f a145 bd92 7145 2694 9845 f84c ec45
00000180: e87e 3045 5c25 8945 72ce 5f45 8801 df44
00000190: 11e0 8c45 0306 7545 e549 9345 af7d b245
000001a0: 3cb9 a744 14af c744 e545 6e45 9bb1 a445
000001b0: 7624 0e46 77f6 6845 05c6 9f45 6649 0f46
000001c0: 6c81 2a45 a115 8145 eaf8 ba45 f14f bc45
000001d0: b39b 1246 734b 9545 2c60 a845 70cd 7445
000001e0: c53b 5745 166a 0246 a2e0 b145 dc56 ae45
000001f0: 19b3 a945 fb0c cf45 a0e9 2845 5e39 bf44
00000200: 9b5a 9343 20b5 9f42 4bec 0242 4c3d 1743
00000210: d2f3 c142 6ff5 0b43 dc2d 8142 7fe3 3443
00000220: 6350 9343 4a74 2443 daaa 5d43 baf5 b742
00000230: b852 0943 1951 9441 d34a c542 740b 2a43
00000240: cc2e 1a43 eac4 6e43 17ee 1343 b284 ab43
00000250: 9d2f bc42 d138 4a43 cfe0 3042 e16c fe42
00000260: fc7a 1344 cd14 6543 169b 2243 ce97 c442
00000270: 8c27 6c42 2d7c f542 1202 9d43 7572 8043
00000280: f640 6943 e35e d243 e3a8 ef43 9d0e 3543
00000290: 5e26 2643 cfba 7943 a882 a441 ffc6 d341
000002a0: 09ed 6442 c2b7 1143 9958 b743 dd15 0c43
000002b0: 6bcb 1843 7ccd 6a42 f8e6 8e43 59dd 8643
000002c0: 5e41 1b43 99f2 4f43 1d87 2643 5780 a942
000002d0: ec85 4743 7664 7243 550d b042 5027 8c43
000002e0: a7d0 ab43 60cc da42 f236 1943 3de5 5e43
000002f0: d8b9 b342 face 0444 b16a 9943 d1f8 4242
00000300: 2788 9243 b1e6 8542 02ec 0843 050c cb42
00000310: 717b 1543 a5ac 1f43 b57e 3e43 8508 ca42
00000320: 0d40 1f42 d064 eb42 d6cb 3c43 3c1d 4142
00000330: 571b 0643 5ec6 bc43 e6f8 4042 f82f 1844
00000340: d531 8b42 4b15 8843 3e4a d343 bde5 ad43
00000350: b2a1 9543 54c5 7441 9625 1a43 9f12 0243
00000360: 3c10 8343 a12e a843 e557 0a43 30ce ca43
00000370: 9f7e 7e43 2ecc de42 70df 4243 bffb 8b42
00000380: 0609 0542 f04b c443 b158 e742 9f30 2043
00000390: 2cd8 0644 ac3c 7e42 d3a2 d842 bafe 0843
000003a0: cfa2 5243 079d 4f42 01a9 a942 2a64 1843
000003b0: 2ecb d342 4078 9f42 3d3e 2642 5cd4 7143
000003c0: 5217 0243 ab99 b342 8ed4 9242 ae3a 0243
000003d0: ae70 2243 a88d c542 ab69 8942 af21 3a42
000003e0: a4c8 7341 beae 8f42 d0f3 0043 07dc 3743
000003f0: aced 2243 6e53 7843 c445 1743 a0a6 5e43
3399.2847 4701.8496 4044.908 5166.642 3205.8027 3651.264 7190.178 6302.675
3249.8242 4407.621 6721.2505 8564.607 6849.0425 1670.5144 7604.1226 3090.8499
5963.636 1002.9478 1868.2579 8407.66 8503.434 5608.112 1869.073 5954.067
4422.451 3379.9917 4168.1235 6772.3477 239.65128 7372.754 9297.099 5943.968
2094.9822 4564.421 8709.788 8160.6646 10587.3 10047.6455 2471.0964 36.38111
8985.329 3446.1182 6959.155 6476.8696 7883.6367 3294.9343 3508.2036 3578.7039
7913.14 1834.5092 9055.831 6664.465 2374.122 6940.9297 5576.2847 9053.816
8232.859 4667.4175 4769.742 9800.38 7875.7876 6431.187 5073.5996 5544.569
10536.335 6428.29 2927.4548 4498.1294 2525.7427 8069.698 1618.2202 4409.168
271.09366 2761.1946 3161.9607 4432.6196 5943.394 4499.4727 3059.1301 6424.921
4383.2144 2513.4888 3222.0256 7056.836 16221.04 605.7738 7997.5605 7617.072
10060.434 7213.162 5021.0435 4876.845 5159.892 3865.1711 4882.5186 7561.621
2823.9316 4388.67 3580.9028 1784.0479 4508.0083 3920.3757 4713.237 5711.7104
1341.7886 1597.4712 3812.3684 5270.2007 9097.115 3727.404 5112.7524 9170.35
2728.0889 4130.7036 5983.1143 6025.9927 9382.925 4777.431 5388.0215 3916.8398
3443.7356 8346.521 5692.079 5578.8574 5430.387 6625.6226 2702.6016 1529.7927
294.70786 79.85376 32.730755 151.23944 96.97621 139.95872 64.58957 180.88866
294.62802 164.45425 221.66739 91.979935 137.32312 18.539598 98.64614 170.04474
154.1828 238.7692 147.93004 343.03668 94.092995 202.22194 44.21954 127.212654
589.92163 229.08125 162.6058 98.29649 59.03862 122.74253 314.01617 256.8942
233.25375 420.7413 479.31943 181.05708 166.14987 249.72972 20.563797 26.472166
57.23148 145.7178 366.69217 140.0854 152.7946 58.70067 285.80444 269.72928
155.25534 207.94765 166.52779 84.75066 199.52313 242.39243 88.02604 280.30713
343.6301 109.39917 153.21463 222.89546 89.862976 531.234 306.83353 48.742985
293.0637 66.95057 136.9219 101.523476 149.4822 159.6744 190.49495 101.01664
39.81255 117.6969 188.79623 48.27855 134.1068 377.54974 48.243065 608.7495
69.59733 272.16635 422.58002 347.79483 299.26324 15.298176 154.14682 130.07274
262.12683 336.3643 138.34334 405.61084 254.49461 111.39879 194.8728 69.99169
33.258812 392.59326 115.673225 160.18993 539.3777 63.55925 108.318016 136.99503
210.63597 51.903347 84.830086 152.39127 105.896835 79.73486 41.56078 241.82953
130.0911 89.80013 73.415146 130.22922 162.44016 98.77667 68.70638 46.532894
15.236485 71.84129 128.9524 183.85948 162.9284 248.3259 151.27252 222.65088

exp_avg f4 [5, 128]
00000000: 76ae 5c3d 8534 fb3d 33a4 7dbe 6243 a2be
00000010: 1c6f a8bc c1eb d43e 3c3c 163e 8453 18bd
00000020: 43c5 abbe 6bdd ea3d a272 a4bd 9e3f 39be
00000030: a0fd b03d feac 94be 8b05 173e 738e 083e
00000040: 8c1d 99be 9aa8 46be cbec 873d a72e 0abf
00000050: 4ac6 ba3e 92e7 463e cb89 9fbd b391 233e
00000060: ed05 f0bd c0d6 903d 32b0 93be ab21 cbbe
00000070: ebbf 373e 9b48 87be 2964 42bf 25a8 43be
00000080: e790 94bd aae8 9abe 0b10 88be 595a fa3d
00000090: 589f 38be ffd5 013f 952d 75be fff5 bbbe
000000a0: e9f8 12bf bbc5 9dbc e923 203e f284 e1be
000000b0: 0d07 0ebf 7303 32bf 8821 c03e 301b 94be
000000c0: adc5 0cbe 4abe 67be 057c ce3c a9a8 0e3e
000000d0: 8350 1e3f 8b44 ddbe 48d7 13bf 8146 763d
000000e0: c0bf bdbe 46ca 893e d775 403e abae 273f
000000f0: 8127 febe 48b1 4abe 3eae febe ccea 743e
00000100: 6ec6 c0bd 44e7 d4bd 0a30 5dbe e388 21be
00000110: 2b7e 51be 4055 05be 8407 5abe d14e 09be
00000120: eb66 0c3e 9514 7bbe f6d8 f5be b489 263e
00000130: 5eea 0cbf f561 2bbe 4fe4 283f bce7 c1be
00000140: f432 46bd d7ba b13d c5a6 3a3e 4fb9 b5bd
00000150: a3fb a43e 9f42 81bd 8679 7c3d dbea 9abd
00000160: 0780 293e 99de debe f2d5 c53e b641 1e3e
00000170: c830 f9be b0fd 163e 62cd 633d f3f2 f8bd
00000180: feb5 45bf 85bc 1abc 31da 69be 2ee4 7c3e
00000190: 7ebb 9ebe c29b 79be c9e9 1a3e 0850 863e
000001a0: e41f 1fbe 3def 1cbe dafc f1be 6310 0b3f
000001b0: a891 23be 6d8e f8bd bd66 ea3e 47a1 3f3e
000001c0: 85e5 633e a014 ba3d 0dff c4be 8aeb bb3e
000001d0: 7761 573e 7d69 8fbe da9c d53e c40d 823e
000001e0: f8be 053f 0fba 553f ed88 e3be 1e6c e93d
000001f0: 5de0 56be 767c 01be 79cc 2abf 0500 acbd
00000200: 894b cdc0 7f37 5cbe 6f89 f23d 21c8 b7be
00000210: 8792 da40 63f4 ca3e 4943 6841 4514 28c1
00000220: 9706 20bf 721e cfbf 2d12 37c1 c44a 3441
00000230: fafc 42c1 ea0d d5be a05b 89bf f1c1 f7bd
00000240: f2ee 153e db8e 2cbf 211b 70bf 1f8b cd3d
00000250: 9cbf a1bb 9e3d f53e 9066 ab40 acd1 cd3e
00000260: eee2 52c1 2007 bf3e da8b 3441 6ad5 8341
00000270: c8cf 8abf f17f 4fc1 dbe7 c4bd 2152 7c3e
00000280: 6f72 0cc1 c34e 67c1 cd44 063e 8db1 ce3e
00000290: ad24 f4bf f2db 9841 9717 3bbf f749 87be
000002a0: 63a8 a03e c3cd 1dbf fa1b 8bc1 273b 62c1
000002b0: 7931 41c1 e25a 6241 9424 3c41 6209 7141
000002c0: ca92 67be b846 fcc0 cebe 84c1 a6c6 3741
000002d0: 7ddd 0d41 46af 9cbf d53e 6a41 7f9f acbf
000002e0: 9570 1e3f 4598 8041 7ca3 383f 1671 72c1
000002f0: f95a 9c41 99f5 4dc1 33aa 9a3f e225 babe
00000300: 6949 eb3e 0ad5 2e41 a58e 45be 9785 3841
00000310: 7bbf 14bf 0b07 24bf bf28 293f 8bf3 94be
00000320: c645 5340 99f2 7ac1 3524 42c1 126d 8341
00000330: b756 5941 0217 48c1 42f0 3ec1 06e9 c93e
00000340: 0717 12bf 9e34 24c1 fdd9 15bf ce63 08c1
00000350: c12c 9d3f a9b7 8cbe eb04 66c1 94c1 b83e
00000360: dd39 58c1 ae3d 6bc1 3788 183f e131 10c1
00000370: 5837 723f 2cc8 3ebf 28c0 c03f ade7 5141
00000380: 1bab 2ec1 5857 efc0 c14c 44be eca7 1f3f
00000390: 0527 a33e 0a2a ab3e 1393 4d41 5366 6c41
000003a0: 9ad2 a540 c951 2e3d ffad 3541 c2cb a0bf
000003b0: f9be 6941 e272 45bf 4a6e 82be 799b 62c1
000003c0: 8c81 c2c0 c6bd ec40 a826 243f 9799 7641
000003d0: 13ce 2abf f2df 40bf 2791 68be 2f6a a83f
000003e0: b572 cbbe b7e6 f1be 6c72 6d41 04c3 3cc1
000003f0: 7d24 f7be 5f20 d7bf bdb7 c83d 8360 dbbe
0.053877316 0.12265877 -0.24769668 -0.31692034 -0.020560794 0.41586116 0.14671415 -0.03718902
-0.33548936 0.114680134 -0.08029677 -0.18090674 0.08642125 -0.29038233 0.14748208 0.1333559
-0.29905355 -0.19400254 0.066369615 -0.53977436 0.36479408 0.19424275 -0.07789954 0.15973549
-0.1171988 0.0707221 -0.28845364 -0.39674124 0.17944305 -0.2642258 -0.7593408 -0.19107111
-0.072542004 -0.30255634 -0.2657474 0.12224264 -0.18029535 0.5071716 -0.2394317 -0.36711118
-0.57411057 -0.019259324 0.15638699 -0.44046742 -0.5547951 -0.69536513 0.37525582 -0.28926992
-0.13747282 -0.22631183 0.025205621 0.13931526 0.618416 -0.43216357 -0.5775037 0.06012583
-0.37060356 0.26912135 0.18794952 0.655009 -0.49639514 -0.1979419 -0.4974231 0.23917693
-0.094128475 -0.10395673 -0.21600357 -0.15774874 -0.20458286 -0.13020802 -0.2129193 -0.13408972
0.13711135 -0.2451957 -0.4801709 0.16263467 -0.55045116 -0.16736586 0.6597337 -0.37872112
-0.048388436 0.08678215 0.1822768 -0.088732354 0.32223234 -0.06311535 0.06163933 -0.075643264
0.16552745 -0.43529204 0.3863979 0.15454754 -0.4867003 0.14745212 0.05561579 -0.12155714
-0.77230823 -0.009444361 -0.2283714 0.24696419 -0.3100242 -0.24375823 0.15128244 0.26232934
-0.15539509 -0.15325637 -0.47263223 0.5432188 -0.15973532 -0.121365406 0.45781508 0.18713866
0.22255524 0.09085965 -0.38475838 0.3670314 0.21033274 -0.2801017 0.4172123 0.25401127
0.5224452 0.8348703 -0.44440404 0.11397575 -0.20984025 -0.12645134 -0.6671825 -0.08398441
-6.4154706 -0.21505545 0.1184262 -0.35894874 6.8303866 0.39639577 14.516427 -10.504949
-0.62510055 -1.6181166 -11.441937 11.268253 -12.186762 -0.41612178 -1.0731087 -0.12097538
0.14641932 -0.6740548 -0.93791395 0.10036301 -0.0049361717 0.47898573 5.35627 0.4019903
-13.180403 0.37310123 11.284143 16.479206 -1.084466 -12.968736 -0.096145354 0.24640705
-8.777938 -14.456729 0.13112183 0.40369835 -1.9073693 19.107395 -0.7308287 -0.26423618
0.3137847 -0.6164209 -17.38866 -14.1394415 -12.074578 14.147188 11.75893 15.064791
-0.2261459 -7.8836327 -16.593166 11.485998 8.866574 -1.2240989 14.64034 -1.3486174
0.61890537 16.07435 0.7212446 -15.152609 19.54442 -12.87246 1.2083191 -0.36357027
0.45954445 10.9270115 -0.19292696 11.532615 -0.58104676 -0.64073247 0.660778 -0.2909206
3.3011336 -15.684228 -12.13384 16.428257 13.583671 -12.505617 -11.933657 0.39435595
-0.57066387 -10.262846 -0.5853575 -8.524366 1.2279283 -0.27483872 -14.376201 0.36085188
-13.514127 -14.7025585 0.5958285 -9.012177 0.946157 -0.7452419 1.5058641 13.119061
-10.916774 -7.479412 -0.19169904 0.62365603 0.31865707 0.3343051 12.848407 14.7749815
5.181958 0.042558465 11.3549795 -1.2562182 14.609124 -0.7712842 -0.2547477 -14.162957
-6.078314 7.3981657 0.64121485 15.4124975 -0.66720694 -0.75341713 -0.22711621 1.3157405
-0.39735952 -0.47246334 14.840435 -11.797611 -0.48270026 -1.6806754 0.0980067 -0.4284707
