model/250a.pt (torch_old, 336838 bytes, 24 tensors)

fc1.weight f4 [128, 28]
0.03505026 0.16978082 -0.17429352 -0.012217667 -0.31317875 -0.38958052 -0.047668792 -0.11638325
-0.18688965 0.19691207 0.056360833 -0.6192722 -0.22859694 -0.07406997 0.19525869 0.30847743
0.409459 -0.072094135 -0.9013615 -2.1422448 -1.5456079 -1.6030716 -0.6835379 0.15986823
0.017424773 0.04148882 -1.8590829 0.08438108 0.7054539 0.84021646 0.15384173 0.115885094
-0.11478054 -0.4326211 0.1538482 0.3288514 0.046636775 0.15309009 0.11864856 -0.19244398
-0.3722192 -0.30809727 -0.09319938 0.038692493 0.131354 0.008712752 -0.21434371 -0.14910609
0.09736696 0.1863215 -0.26386324 0.6121565 0.19436835 -0.12874562 1.0148793 -0.15568388
-1.0546778 -0.98438704 -0.36119473 0.19897275 0.00385934 -0.09716402 -0.039922826 0.06616315
0.051534813 0.26347986 0.29971004 0.36857772 0.041428834 0.034984037 -0.063856415 -0.07095373
-0.18848425 -0.36837086 -0.07447213 -0.19592355 0.073117256 -0.030897208 -0.3547249 -1.189215
0.22283043 0.21426573 -1.2752552 0.06337331 -0.7224075 -0.7055555 -0.34292385 -0.091999866
-0.041181237 -0.11028682 -0.24202657 0.09300697 0.052040298 0.22259541 0.26876697 0.021216135
-0.07962047 -0.072202176 -0.18970732 -0.40226215 -0.19383737 -0.22785379 0.3583055 0.0642647
0.10678436 -0.020000339 -0.42307988 -0.8675473 0.21563789 -0.11010621 -0.9908477 -0.01645694
-0.7664258 -0.7310537 -0.24139445 -0.12141331 -0.05779492 -0.08723432 -0.13483265 0.084828936
0.14404581 0.08813579 0.3327304 0.28311104 0.093214765 0.10150242 0.21857701 0.27899733
-0.32097447 -0.30873445 0.006944725 0.10628708 0.22831716 0.11834525 0.24385588 -0.78614616
0.21219517 0.14847149 -1.1245639 -0.06032906 -0.8502071 -1.2427956 -0.7390608 0.09365335
0.08101609 0.085130125 -0.041132435 0.09452109 0.031137645 0.021872513 0.13576108 0.017100623
0.053107 -0.08757479 0.008189371 0.17399922 0.009901215 0.12018533 0.027617322 0.12406785
-0.1622233 0.16587256 0.28743014 -0.97073007 0.2617976 0.12271208 -1.112193 -0.08023281
-0.89729255 0.040299173 -0.0967968 -0.13795285 0.15956321 0.0043801246 0.24288702 0.15166178
0.24404025 0.12319262 0.29228446 -0.028664257 -0.20742391 -0.063508786 -0.20456861 -0.20172197
-0.13600649 0.12481987 -0.008399938 -0.41186488 -0.22644001 0.064887635 -0.74251044 -1.065177
-0.18130225 0.046150535 -1.3459074 -0.020338608 -0.7233908 -0.22222242 -0.13952866 -0.011354825
-0.09348719 0.11696927 0.008563188 -0.049027275 0.10909565 -0.17136244 -0.13977307 -0.24114232
-0.17033347 0.09574405 -0.000786887 -0.23532832 -0.05712192 -0.07277736 -0.05268126 -0.3737629
-0.82114094 -0.77752966 -0.7000375 -0.8698361 -0.38123164 0.10674269 -0.94610506 0.11334131
0.33368152 0.6341899 -0.03317115 -0.007640076 -0.0077739195 -0.047745068 -0.43327886 -0.29393134
-0.0006601226 0.3663271 0.0015509452 -0.21224941 -0.18511587 0.032344513 -0.06893259 -0.041988716
-0.2584361 -0.5313321 -0.08009985 -0.110888235 0.11352543 -0.037695203 0.029579224 0.43540895
-0.9214793 0.02467715 -0.022108126 0.07863198 0.17833254 -0.1642615 -0.045661043 -0.12763545
00000000: dd90 0f3d 06db 2d3e 007a 32be 9c2c 48bc
00000010: f758 a0be 1977 c7be 5a40 43bd 575a eebd
00000020: 0060 3fbe 51a3 493e 9eda 663d 9f88 1ebf
00000030: 5115 6abe ffb1 97bd e5f1 473e c1f0 9d3e
00000040: 9ca4 d13e 17a6 93bd a1bf 66bf 8a1a 09c0
00000050: 7bd6 c5bf 7331 cdbf 57fc 2ebf 7fb4 233e
00000060: 66be 8e3c 2ef0 293d 6ef6 edbf fdcf ac3d
00000070: a098 343f 6d18 573f b088 1d3e 2a55 ed3d
00000080: 0f12 ebbd 8380 ddbe 628a 1d3e 365f a83e
00000090: 3406 3f3d a6c3 1c3e 04fe f23d 0910 45be
000000a0: 8493 bebe edbe 9dbe 51df bebd 057c 1e3d
000000b0: aa81 063e eebf 0e3c eb7c 5bbe 44af 18be
000000c0: 5468 c73d 10cb 3e3e 1519 87be 4ab6 1c3f
000000d0: 7f08 473e e4d5 03be 91e7 813f 986b 1fbe
000000e0: afff 86bf ca00 7cbf 84ee b8be 83bf 4b3e
000000f0: fbec 7c3b eefd c6bd 1e86 23bd 8c80 873d
00000100: 2b16 533d d5e6 863e 9873 993e 38b6 bc3e
00000110: 48b1 293d 6c4b 0f3d 27c7 82bd 3050 91bd
00000120: 0402 41be 1b9b bcbe d884 98bd 2fa0 48be
00000130: 80be 953d 241c fdbc 819e b5be 3238 98bf
00000140: a92d 643e 7a68 5b3e 903b a3bf dec9 813d
00000150: b3ef 38bf 499f 34bf b793 afbe 6d6a bcbd
00000160: a8ad 28bd 0ede e1bd d0d5 77be 707a be3d
00000170: 3528 553d 0df0 633e d39b 893e 76cd ad3c
00000180: 0f10 a3bd bcde 93bd a342 42be 4ef5 cdbe
00000190: 4e7d 46be 8152 69be d273 b73e 369d 833d
000001a0: c2b1 da3d c0d7 a3bc ed9d d8be 9417 5ebf
000001b0: 2ed0 5c3e 5d7f e1bd 32a8 7dbf b4d0 86bc
000001c0: 7b34 44bf 5626 3bbf 1b30 77be 8ba7 f8bd
000001d0: 5eba 6cbd e8a7 b2bd 9211 0abe cbba ad3d
000001e0: bf80 133e 8980 b43d a45b aa3e eef3 903e
000001f0: 62e7 be3d 80e0 cf3d a7d2 5f3e bdd8 8e3e
00000200: c456 a4be 7112 9ebe 9390 e33b 0aad d93d
00000210: f9cb 693e ff5e f23d 5bb5 793e e040 49bf
00000220: b149 593e e908 183e b6f1 8fbf 9b1b 77bd
00000230: 2ca7 59bf ed13 9fbf 1733 3dbf 54cd bf3d
00000240: c4eb a53d b458 ae3d 7c7a 28bd 4694 c13d
00000250: 6014 ff3c fc2d b33c f404 0b3e 9b16 8c3c
00000260: ba86 593d 695a b3bd b62c 063c da2c 323e
00000270: b538 223c ba23 f63d b93d e23c 4917 fe3d
00000280: dd1d 26be 7fda 293e 0b2a 933e c481 78bf
00000290: 560a 863e 7950 fb3d 575c 8ebf 1951 a4bd
000002a0: f7b4 65bf bf10 253d 673d c6bd 8343 0dbe
000002b0: 8a64 233e 2687 8f3b 60b7 783e 3a4d 1b3e
000002c0: b0e5 793e 6a4c fc3d 4fa6 953e 4ed1 eabc
000002d0: ef66 54be e510 82bd 6f7a 51be 3490 4ebe
000002e0: 4945 0bbe 8fa1 ff3d e59f 09bc f4df d2be
000002f0: e4df 67be cfe3 843d 2a15 3ebf b857 88bf
00000300: 4ca7 39be 5808 3d3d b246 acbf 279d a6bc
00000310: 2430 39bf 468e 63be 9ae0 0ebe 9709 3abc
00000320: 3676 bfbd 968d ef3d 9d4c 0c3c d3d0 48bd
00000330: 8a6d df3d a379 2fbe ac20 0fbe 03ee 76be
00000340: e66b 2ebe 7515 c43d 1847 4eba e8f9 70be
00000350: adf8 69bd 4c0c 95bd 4ec8 57bd da5d bfbe
00000360: 4b36 52bf 2f0c 47bf a835 33bf 94ad 5ebf
00000370: cb30 c3be e99b da3d f133 72bf 7d1f e83d
00000380: 4ed8 aa3e 455a 223f 79de 07bd 9a59 fabb
00000390: 5dbc febb 5590 43bd bad6 ddbe 2b7e 96be
000003a0: 140c 2dba 3a8f bb3e 1649 cb3a e957 59be
000003b0: 048f 3dbe ae7b 043d 882c 8dbd 5cfc 2bbd
000003c0: bd51 84be 6105 08bf 640b a4bd 5f19 e3bd
000003d0: 0580 e83d 4966 1abd 2150 f23c eced de3e
000003e0: 11e6 6bbf bc27 ca3c 1a1c b5bc ce09 a13d
000003f0: ce9c 363e 2b34 28be 1307 3bbd deb2 02be

fc1.bias f4 [128]
0.022029191 -0.04412963 -0.0050238003 -0.091921106 0.081029564 0.046850752 0.13700114 -0.030906934
-0.2271315 -0.0037808442 -0.05785789 0.07154761 0.040094107 0.1411542 0.013430083 -0.20343396
-0.17024726 -0.0340387 -0.13548073 -0.16946173 -0.022100775 0.04469051 0.4658026 0.18337724
-0.07144688 -0.1950026 -0.10372057 -0.083758615 -0.020407572 -0.15827115 -0.088331334 0.10935296
-0.12045649 -0.12249902 0.27982578 -0.056512818 0.1554242 -0.13989475 -0.0022002212 -0.062757015
-0.18282098 0.25921157 -0.0052807466 0.02095775 0.030571649 -0.27743554 -0.04081341 0.45320505
0.122217484 -0.036510542 0.08056098 0.08468803 -0.20299116 -0.048638314 0.06920599 -0.22478132
0.12985954 0.15782356 -0.2222551 0.55696917 0.07311385 -0.030900769 0.11502726 -0.12415065
0.15187444 0.16859043 0.09421073 0.19508156 -0.13361695 0.14964253 -0.19158724 -0.0012248486
-0.21633852 -0.017601188 0.07171878 -0.169302 -0.00015363428 -0.12610948 -0.274977 0.004881536
-0.04279707 0.0039598094 -0.031190753 0.009445207 0.2678911 0.015486129 -0.063971125 -0.06559774
0.053705394 -0.022367174 -0.18142642 -0.0071489653 -0.03308036 -0.056479402 -0.059831843 -0.044598605
-0.12663639 -0.21503876 0.7179926 0.09006778 0.39011857 -0.052596413 0.10143728 -0.17143059
0.10455641 0.08043777 0.042065047 0.22402026 0.040682342 -0.095238835 0.031544592 0.26604685
-0.14089237 0.07789045 0.02494053 0.03972686 -0.16513875 -0.045531984 0.11007214 -0.012923154
-0.14548096 -0.029926218 -0.057478193 -0.03545909 0.05614099 -0.0020950183 -0.15458892 -0.1872342
00000000: 9076 b43c 45c1 34bd b19e a4bb 2241 bcbd
00000010: d4f2 a53d 93e6 3f3d 074a 0c3e 8a30 fdbc
00000020: 2995 68be 0ac8 77bb 65fc 6cbd 8e87 923d
00000030: b839 243d ba8a 103e da09 5c3c fe50 50be
00000040: 4c55 2ebe 2a6c 0bbd 76bb 0abe 6087 2dbe
00000050: af0c b5bc 650d 373d ae7d ee3e 3ec7 3b3e
00000060: be52 92bd c3ae 47be 736b d4bd a389 abbd
00000070: c82d a7bc d511 22be 0fe7 b4bd 72f4 df3d
00000080: e4b1 f6bd c4e0 fabd 5345 8f3e fc79 67bd
00000090: 8627 1f3e 9240 0fbe 9631 10bb c086 80bd
000000a0: 6c35 3bbe 61b7 843e 1d0a adbb 96af ab3c
000000b0: 6571 fa3c 080c 8ebe f62b 27bd 7e0a e83e
000000c0: 294d fa3d 148c 15bd 28fd a43d eb70 ad3d
000000d0: eadc 4fbe f838 47bd dfbb 8d3d 132d 66be
000000e0: e6f9 043e 809c 213e d796 63be 8895 0e3f
000000f0: b7bc 953d 9c23 fdbc 6993 eb3d b242 febd
00000100: f984 1b3e f8a2 2c3e 8ef1 c03d 76c3 473e
00000110: e2d2 08be e43b 193e 722f 44be 198b a0ba
00000120: d887 5dbe 5e30 90bc 4ce1 923d 815d 2dbe
00000130: e318 21b9 d822 01be c9c9 8cbe 4bf5 9f3b
00000140: fb4b 2fbd 4ac1 813b c083 ffbc 12c0 1a3c
00000150: 0629 893e 88b9 7d3c 4b03 83bd 1c58 86bd
00000160: 30fa 5b3d 5d3b b7bc d9c7 39be de41 eabb
00000170: 467f 07bd f256 67bd 3c12 75bd 07ad 36bd
00000180: f8ac 01be 1f33 5cbe 5dce 373f 7575 b83d
00000190: 9fbd c73e 566f 57bd 59be cf3d 808b 2fbe
000001a0: ac21 d63d 8fbc a43d 664c 2c3d 9165 653e
000001b0: 87a2 263d 940c c3bd e734 013d 4b37 883e
000001c0: 1746 10be 0785 9f3d 1550 cc3c a2b8 223d
000001d0: 221a 29be bf7f 3abd 816d e13d a3bb 53bc
000001e0: f6f8 14be d427 f5bc 416e 6bbd 8d3d 11bd
000001f0: 18f4 653d 934c 09bb 8f4c 1ebe 52ba 3fbe

fc2.weight f4 [128, 128]
-0.31222636 -0.46127403 0.0975015 0.0522242 0.14284016 -0.16053782 -0.10286985 0.40244594
-0.15523803 -0.36217043 -0.1094578 -0.31809267 0.19483504 0.21112707 -0.27565333 -0.4234396
-0.1531398 0.06412003 -0.27019846 -0.04055129 -0.43056434 -0.1663171 0.216691 0.29816204
0.08537716 -0.53955567 0.251594 -0.1513846 0.0048435186 -0.1517303 -0.09162734 0.087000124
0.03937264 0.5282965 0.052420896 0.43409407 0.2616061 -0.19173673 0.090422444 -0.63176006
-0.5427709 0.09901293 0.06340353 0.27127698 0.034472283 -0.47913805 0.079708375 0.03288731
0.2540685 -0.013549932 0.19463111 0.24800724 0.07906123 0.5383352 -0.55807525 -0.35912845
-0.3858448 0.17842588 0.25147322 -0.5217911 0.030675313 -0.37133932 0.038091265 -0.8636457
0.18696289 0.33431813 0.17048481 0.10007025 -0.059668787 0.046980217 -0.16983286 0.020544976
-0.4048167 0.101271816 -0.4772004 -0.3486852 -0.35870394 0.15935132 -0.22454809 0.21153004
-0.23716275 -0.526402 0.029874943 -0.4797708 0.20971912 -0.060280528 -0.011275188 -0.179818
-0.45131636 -0.07609261 -0.53201985 0.10492266 -0.3936334 -0.019574115 0.15024453 -0.32615557
0.40064517 -0.33443964 -0.25532842 -0.41145983 -0.3011895 -0.40888602 0.084265396 -0.022110216
0.24886054 0.051076394 0.099394284 0.04815554 0.04740519 -0.2544527 -0.069486484 0.1021554
0.044908866 -0.12606017 -0.20008893 -0.049099114 0.161918 0.42779034 0.1980035 0.51132554
-0.6943366 -0.21294954 0.42208493 0.007555449 -0.23045151 0.41928217 -0.2795314 -0.22889374
-0.099298894 -0.010555274 -0.07803239 0.28808856 -0.28233013 0.27212667 0.049134035 0.4239014
0.11313372 0.4808142 0.061646033 -0.12391106 0.05615344 0.3267391 0.02778989 -0.44350928
0.05057235 0.04165783 0.49196908 0.05017645 -0.0023076443 -0.43827814 -0.14290427 -0.13080509
-0.04789301 0.087036304 -0.07508132 -0.31857562 0.43345198 0.23452424 -0.5090044 -0.09359829
0.67117727 0.35838562 0.15869562 -0.1583849 0.29981366 0.19380008 -0.2260197 -0.572133
0.33057377 0.41746438 -0.021792477 -0.11467091 0.21574393 0.038796335 0.21199848 0.4038052
0.13055757 0.43487743 -0.0054108403 0.054758783 -0.10996071 -0.44346502 0.005418335 -0.8024408
-0.049512878 0.4086687 -0.37536526 -0.36600304 0.6196986 -0.31253818 0.23872072 -0.23436677
0.1973939 0.035363924 0.13452482 0.039275277 0.07296076 0.12209871 0.48932275 -0.46222228
0.17575447 -0.28150272 -0.19386585 0.55227953 0.53171706 -0.25169942 -0.039532967 0.21709989
0.486329 0.20538987 0.5715766 0.089070976 -0.22769083 -0.31371823 0.07250079 -0.47994858
-0.49288726 0.4146763 0.0365606 0.40830156 0.03482306 -0.20585446 -0.20622212 0.27224997
-0.3126419 -0.05557986 0.16682425 -0.10292829 0.4671822 0.5860427 -0.1287999 -0.42273134
0.4025789 -0.15536222 0.19047762 0.5731351 0.11884812 -0.024870124 0.29424396 -0.07508949
0.90183365 -0.21219388 0.09932822 0.27061647 -0.3702802 0.13595107 0.29081756 -0.00200592
-0.1701095 0.38068724 0.06140523 -0.18006416 0.41587248 0.2916254 0.7348564 0.03583406
00000000: 22dc 9fbe 1c2c ecbe deae c73d 0be9 553d
00000010: b144 123e 0764 24be 6ead d2bd 650d ce3e
00000020: b8f6 1ebe 676e b9be 692b e0bd 0bdd a2be
00000030: d682 473e b231 583e 6f22 8dbe 13cd d8be
00000040: aed0 1cbe 5d51 833d 7457 8abe 1c19 26bd
00000050: ee72 dcbe 084f 2abe 3fe4 5d3e b2a8 983e
00000060: 38da ae3d 5220 0abf eed0 803e 9104 1bbe
00000070: 61b6 9e3b 305f 1bbe 1da7 bbbd 1f2d b23d
00000080: 3545 213d 703e 073f 4bb7 563d 9441 de3e
00000090: 3cf1 853e a256 44be 672f b93d 07bb 21bf
000000a0: 09f3 0abf 4bc7 ca3d b6d9 813d d1e4 8a3e
000000b0: cf32 0d3d 9551 f5be 253e a33d d8b4 063d
000000c0: 4415 823e 8900 5ebc 614d 473e 9cf5 7d3e
000000d0: dbea a13d 56d0 093f 05de 0ebf afdf b7be
000000e0: 738d c5be 46b5 363e 19c1 803e 1a94 05bf
000000f0: cb4a fb3c 3020 bebe 9605 1c3d e217 5dbf
00000100: 3373 3f3e bf2b ab3e 9293 2e3e a2f1 cc3d
00000110: 4267 74bd 546e 403d aae8 2dbe f04d a83c
00000120: 2244 cfbe 9967 cf3d 9c53 f4be de86 b2be
00000130: 0ba8 b7be fe2c 233e efef 65be 559b 583e
00000140: cbda 72be 48c2 06bf 4cbc f43c 85a4 f5be
00000150: 9cc0 563e b7e8 76bd 91bb 38bc 3622 38be
00000160: f012 e7be 71d6 9bbd 7432 08bf b1e1 d63d
00000170: 518a c9be e559 a0bc b4d9 193e ddfd a6be
00000180: 5d21 cd3e ac3b abbe 68ba 82be ddaa d2be
00000190: 8335 9abe 8259 d1be 5693 ac3d 7c20 b5bc
000001a0: 4cd5 7e3e 7b35 513d 3b8f cb3d be3e 453d
000001b0: f22b 423d a047 82be ee4e 8ebd da36 d13d
000001c0: 5cf2 373d eb15 01be 1de4 4cbe 271c 49bd
000001d0: d5cd 253e 5607 db3e 6ec1 4a3e 3be6 023f
000001e0: 0bc0 31bf 720f 5abe 841b d83e b393 f73b
000001f0: 7bfb 6bbe 27ac d63e bd1e 8fbe 1f63 6abe
00000200: 385d cbbd 07f0 2cbc 72cf 9fbd 5880 933e
00000210: 938d 90be 3054 8b3e c540 493d 9b09 d93e
00000220: a7b2 e73d 472d f63e 8d80 7c3d 15c5 fdbd
00000230: 2601 663d 594a a73e a0a7 e33c a613 e3be
00000240: f424 4f3d 67a1 2a3d 5fe3 fb3e d285 4d3d
00000250: d93b 17bb fe65 e0be 7f55 12be c5f1 05be
00000260: 762b 44bd 1740 b23d 3cc4 99bd 581c a3be
00000270: 6bed dd3e 1f27 703e 1d4e 02bf 76b0 bfbd
00000280: 46d2 2b3f 527e b73e 1b81 223e a72f 22be
00000290: 2d81 993e 8773 463e b571 67be 4f77 12bf
000002a0: f740 a93e e4bd d53e 2386 b2bc 95d8 eabd
000002b0: faeb 5c3e e8e8 1e3d 2116 593e 8ebf ce3e
000002c0: e2b0 053e 41a8 de3e 6b4d b1bb bf4a 603d
000002d0: 1533 e1bd d90d e3be 4a8c b13b c36c 4dbf
000002e0: 04ce 4abd 063d d13e e02f c0be c064 bbbe
000002f0: 91a4 1e3f 0105 a0be 3473 743e d8fd 6fbe
00000300: a021 4a3e c3d9 103d e0c0 093e 1ddf 203d
00000310: 736c 953d e30e fa3d 8388 fa3e 66a8 ecbe
00000320: fbf8 333e 2021 90be c584 46be 3162 0d3f
00000330: 9c1e 083f bfde 80be 52ed 21bd 6f4f 5e3e
00000340: 1d00 f93e b951 523e d852 123f d86a b63d
00000350: c927 69be ad9f a0be 4b7b 943d d2bb f5be
00000360: b85b fcbe 7450 d43e 91c0 153d e70c d13e
00000370: a0a2 0e3d 83cb 52be e42b 53be 5964 8b3e
00000380: 9912 a0be b5a7 63bd fad3 2a3e 11cc d2bd
00000390: 8132 ef3e e506 163f 1fe4 03be 3e70 d8be
000003a0: d21e ce3e 4617 1fbe 910c 433e fbb8 123f
000003b0: a566 f33d 6ebc cbbc 25a7 963e 85c8 99bd
000003c0: 92de 663f 5a49 59be 986c cb3d 3e8e 8a3e
000003d0: 5e95 bdbe c236 0b3e 0ae6 943e c175 03bb
000003e0: 2f31 2ebe 70e9 c23e 0d84 7b3d bd62 38be
000003f0: 3ded d43e ed4f 953e 8d1f 3c3f bcc6 123d

fc2.bias f4 [128]
-0.04636492 -0.044388793 -0.17297031 -0.30915803 -0.016643072 -0.15660742 0.031525504 -0.18701982
-0.24364957 -0.04729527 0.0040218863 -0.0030253078 -0.20678282 -0.31168595 0.10867295 0.016425569
0.30041167 0.04205106 0.15621889 -0.054709446 0.025328625 -0.09762952 -0.05321592 -0.09293105
-0.281796 -0.07960892 0.017739255 0.072994225 0.077633955 0.0815738 -0.2546098 -0.13721941
0.030722903 -0.06408351 -0.11288894 -0.15145986 -0.21148036 0.30087999 -0.25169444 -0.23109788
0.18363054 0.21439551 -0.20219912 -0.37546587 -0.2623074 0.1573985 0.1436509 0.06266473
-0.24123435 0.015983382 -0.15527815 -0.00020158096 -0.26487428 -0.11551245 0.23596685 -0.24483326
0.28529447 0.08602793 -0.072047606 -0.265843 -0.036817487 0.02748677 -0.057152092 0.056481037
-0.2636833 0.02701016 0.12008613 -0.096848994 0.056923512 -0.29738423 0.27164978 -0.00063885463
0.24407044 0.022303512 0.20918578 0.3527698 -0.018393684 -0.051282443 -0.14121883 -0.17938611
0.054491904 0.1504088 0.1744516 -0.0072279056 -0.095014416 -0.0053390474 -0.20782724 -0.10639332
-0.2564958 -0.3882395 0.23764576 0.12179115 -0.047436893 -0.030273823 -0.22926138 0.08252073
-0.2889712 -0.11602268 0.08094602 -0.017714605 -0.008214892 0.25406954 0.009794228 -0.055876866
0.08484521 -0.2998169 -0.15974155 -0.19993018 -0.08687375 0.042774815 0.062635124 0.050962467
0.19470906 -0.17823236 0.0086537 0.04648211 -0.18270776 -0.15216456 0.01613121 -0.18569632
0.09710827 0.15258053 0.028529352 -0.19241656 0.19498354 -0.28390184 0.00020965653 0.11650275
00000000: 24e9 3dbd 06d1 35bd 211f 31be f649 9ebe
00000010: 0d57 88bc b25d 20be e320 013d 2082 3fbe
00000020: 467f 79be afb8 41bd 07ca 833b 3e44 46bb
00000030: e0be 53be 4d95 9fbe ec8f de3d ea8e 863c
00000040: 8fcf 993e bb3d 2c3d d8f7 1f3e 0317 60bd
00000050: fa7d cf3c fcf1 c7bd f0f8 59bd a252 bebd
00000060: 9147 90be 000a a3bd ea51 913c ff7d 953d
00000070: 8dfe 9e3d 2a10 a73d 375c 82be 3f83 0cbe
00000080: 99ae fb3c 373e 83bd 5132 e7bd 4b18 1bbe
00000090: 4f8e 58be f10c 9a3e 18de 80be eca4 6cbe
000000a0: a509 3c3e 7f8a 5b3e 490d 4fbe 103d c0be
000000b0: 284d 86be 132d 213e 3919 133e 5e56 803d
000000c0: 2306 77be 95ef 823c 3c01 1fbe 7a5f 53b9
000000d0: 9a9d 87be cb91 ecbd 4ba1 713e 92b5 7abe
000000e0: 1e12 923e 692f b03d b28d 93bd 931c 88be
000000f0: efcd 16bd ef2b e13c 5018 6abd a958 673d
00000100: 7f01 87be 6944 dd3c b8ef f53d c458 c6bd
00000110: a128 693d bf42 98be ae15 8b3e cf78 27ba
00000120: 9aed 793e dbb5 b63c cc34 563e 3e9e b43e
00000130: 5aae 96bc 8a0d 52bd ab9b 10be feb0 37be
00000140: e732 5f3d c404 1a3e 71a3 323e 11d8 ecbb
00000150: eb96 c2bd 2df3 aebb aad0 54be bee4 d9bd
00000160: 6b53 83be 54c7 c6be 6959 733e a36d f93d
00000170: 304d 42bd cf00 f8bc 7fc3 6abe a100 a93d
00000180: 08f4 93be 4d9d edbd 07c7 a53d 381e 91bc
00000190: c197 06bc 6715 823e f877 203c 24df 64bd
000001a0: 53c3 ad3d 9a81 99be 4a93 23be 7fba 4cbe
000001b0: ddea b1bd a534 2f3d d846 803d 05be 503d
000001c0: d061 473e 8b82 36be 40c8 0d3c 0664 3e3d
000001d0: be17 3bbe 07d1 1bbe 9925 843c 2d27 3ebe
000001e0: b3e0 c63d 123e 1c3e 63b6 e93c d908 45be
000001f0: c4a9 473e 955b 91be 3fd7 5b39 fe98 ee3d

out.weight f4 [5, 128]
0.70339555 -0.31525588 -0.33191824 0.037306473 -0.43022013 -0.34342834 -0.006426552 0.33530447
0.64919424 0.36671793 0.5645016 -0.3593558 0.063216895 0.05819411 -0.48233876 -0.51969635
-0.43383124 0.53312373 0.63726723 0.48275477 -0.13196304 0.19678643 -0.24376763 0.4797612
0.45818257 0.43452388 -0.39781466 -0.24692081 0.9525919 0.09919413 0.24074884 0.34748885
0.5820073 0.40678617 0.3698465 0.2034343 0.24133186 -0.35713014 0.17794664 0.16283841
-0.1449999 -0.27083483 0.23970263 0.3204537 0.29785442 -0.12553729 -0.39852583 -0.25968724
0.31388712 0.5514698 0.4207779 -0.33446378 -0.43802875 0.4107988 -0.21501645 0.31210002
0.6103972 -0.24582638 0.48969856 0.30116078 -0.18701212 0.54134774 0.50959474 -0.06714722
0.43620646 -0.05464924 -0.3387357 -0.29176545 0.54051936 0.18846336 0.37915352 0.48850006
0.8792363 0.5371116 0.46888554 -0.053200178 -0.19521241 0.51957655 0.17016774 0.45926386
-0.18164165 0.63422954 0.58908516 0.35875034 0.32006454 -0.09627302 0.29886028 0.2557802
0.25514132 0.22434276 -0.20536683 0.29163298 0.53720266 -0.4551527 0.17597796 -0.3192004
0.014515854 0.45273104 -0.5172907 0.55622315 0.68754745 0.49497634 -0.3140293 -0.20938708
-0.7812717 -0.5843069 -0.17720255 0.23219089 -0.13515207 -0.47517818 -0.17446138 0.30185553
0.3992174 -0.5343951 -0.124558836 -0.30467966 0.39077118 -0.41834214 -0.2691983 -0.25368765
-0.14921592 -0.045071326 -0.13714714 0.40574923 0.63094795 0.45625266 0.23395972 0.99518234
0.43553555 -0.44913322 -0.21976751 0.10726033 -0.80835295 -0.31826484 -0.36192858 0.34327734
0.3819799 0.3842321 0.4863319 -0.26176316 0.34932253 -0.08461413 -0.45446205 -0.6064086
-0.40140235 0.5118972 0.318781 0.17255525 -0.362136 0.38152212 -0.2114623 0.30983663
0.48817867 0.44531357 -0.5061624 -0.5542768 0.33313105 0.23018073 0.26088428 0.33815002
0.55100644 0.38401082 0.41912878 0.30888814 0.32460436 -0.30711636 0.17653488 1.0057135
-0.15173778 -0.38596562 0.1581393 0.23369832 0.36203316 0.08816032 -0.2685092 -0.19523528
0.25591096 0.4608984 0.4066212 -0.31332055 -0.40313652 0.4067675 -0.44149774 0.3403853
0.3678811 -0.5229915 0.30206317 0.26926082 -0.5622392 0.20922454 0.5740457 -0.34082708
0.51052904 -0.10434481 -0.39955035 -0.31613648 0.43199825 0.14368851 0.5062686 0.7596383
0.45755497 0.76754695 0.3375907 0.002879461 -0.41615862 0.55675656 0.033793975 0.38086814
-0.4057528 0.4902012 0.5413434 0.4781055 0.35348195 0.09201178 0.31424662 0.17662327
0.11848677 0.084449284 -0.3693273 0.32869723 0.36296633 -0.78636426 0.32269534 -0.29061586
-0.365216 0.3565302 -0.5121416 0.5653615 0.17993255 0.1967402 -0.48982236 -0.51780814
-0.5670672 -0.34487095 -0.32005352 0.2579177 -0.35645464 -0.5953389 -0.115576886 0.41012782
0.29215163 -0.33331928 -0.34705836 -0.3850169 0.47025222 -0.4715025 -0.2939676 -0.1827601
0.07602573 -0.32727873 -0.31988695 0.2949467 0.55082244 0.26776323 0.31704578 0.18520734
00000000: bb11 343f 3869 a1be 30f1 a9be acce 183d
00000010: d045 dcbe d7d5 afbe d395 d2bb 07ad ab3e
00000020: 9831 263f 74c2 bb3e 2d83 103f 7cfd b7be
00000030: dc77 813d f25c 6e3d 1bf5 f6be d20a 05bf
00000040: 211f debe cc7a 083f f223 233f a22b f73e
00000050: 5221 07be 6282 493e 399e 79be 43a3 f53e
00000060: e896 ea3e ea79 de3e 5dae cbbe cfd8 7cbe
00000070: 10dd 733f 4b26 cb3d dd86 763e 0fea b13e
00000080: 6efe 143f 4746 d03e 855c bd3e 1551 503e
00000090: b31f 773e c3d9 b6be a537 363e 1dbf 263e
000000a0: db7a 14be ddaa 8abe 9b74 753e 8212 a43e
000000b0: 6080 983e d98c 00be 940b ccbe baf5 84be
000000c0: d0b5 a03e 202d 0d3f 3370 d73e d63e abbe
000000d0: 4e45 e0be 3854 d23e 462d 5cbe 93cb 9f3e
000000e0: fe42 1c3f e9b9 7bbe c5b9 fa3e bf31 9a3e
000000f0: 1b80 3fbe c495 0a3f cd74 023f 7b84 89bd
00000100: 7456 df3e e2d7 5fbd c46e adbe 4862 95be
00000110: 7a5f 0a3f 8afc 403e 6920 c23e ae1c fa3e
00000120: a115 613f 2580 093f c411 f03e 6ee8 59bd
00000130: c3e5 47be f802 053f 7440 2e3e a224 eb3e
00000140: 4500 3abe de5c 223f 49ce 163f 20ae b73e
00000150: 80df a33e ca2a c5bd 3704 993e 9ff5 823e
00000160: e2a1 823e 1cba 653e af4b 52be eb50 953e
00000170: 1d86 093f c609 e9be 9133 343e 3c6e a3be
00000180: e8d3 6d3c 5dcc e73e 2a6d 04bf a464 0e3f
00000190: 1c03 303f 8a6d fd3e 73c8 a0be 9169 56be
000001a0: 6c01 48bf 2395 15bf 9674 35be 73c3 6d3e
000001b0: 4e65 0abe 8e4a f3be 01a6 32be cf8c 9a3e
000001c0: 3966 cc3e 1ece 08bf b418 ffbd f9fe 9bbe
000001d0: 2913 c83e f130 d6be 5cd4 89be 59e3 81be
000001e0: 0fcc 18be b69c 38bd 4d70 0cbe 5dbe cf3e
000001f0: ce85 213f f399 e93e 2393 6f3e 45c4 7e3f
00000200: 84fe de3e caf4 e5be bc0a 61be 4eab db3d
00000210: 38f0 4ebf 9cf3 a2be b44e b9be 0cc2 af3e
00000220: df92 c33e 12ba c43e 7f00 f93e d205 86be
00000230: 67da b23e 2c4a adbd 40af e8be 983d 1bbf
00000240: 9c84 cdbe b20b 033f 4337 a33e 53b2 303e
00000250: e469 b9be de56 c33e 9389 58be e8a2 9e3e
00000260: 8ef2 f93e 2400 e43e dc93 01bf 16e5 0dbf
00000270: 2790 aa3e 7fb4 6b3e a092 853e 0022 ad3e
00000280: c20e 0d3f 119d c43e 0c98 d63e 9626 9e3e
00000290: 8b32 a63e 5b3e 9dbe 8fc5 343e 38bb 803f
000002a0: 2661 1bbe 499d c5be 45ef 213e 9d4e 6f3e
000002b0: 695c b93e 668d b43d 0a7a 89be c2eb 47be
000002c0: c306 833e e0fa eb3e a730 d03e 8d6b a0be
000002d0: e967 cebe d443 d03e fe0b e2be fb46 ae3e
000002e0: e95a bc3e c5e2 05bf 06a8 9a3e 8edc 893e
000002f0: e9ee 0fbf f53e 563e a9f4 123f e380 aebe
00000300: 08b2 023f bbb2 d5bd dd91 ccbe a4dc a1be
00000310: e02e dd3e 1523 133e d29a 013f a877 423f
00000320: a544 ea3e f57d 443f b0d8 ac3e 57b5 3c3b
00000330: be12 d5be 9987 0e3f 8d6b 0a3d 2601 c33e
00000340: d5be cfbe a7fb fa3e 7b95 0a3f 3eca f43e
00000350: 96fb b43e ac70 bc3d efe4 a03e bbdc 343e
00000360: 31a9 f23d bff3 ac3d 7818 bdbe 014b a83e
00000370: b9d6 b93e 2b4f 49bf 5338 a53e 9acb 94be
00000380: 97fd babe 208b b63e b61b 03bf 88bb 103f
00000390: 3d40 383e 4376 493e ffc9 fabe 138f 04bf
000003a0: 512b 11bf ed92 b0be 0ede a3be ca0d 843e
000003b0: 3981 b6be 2168 18bf 93b3 ecbd 46fc d13e
000003c0: e694 953e d3a8 aabe a2b1 b1be ef20 c5be
000003d0: e6c4 f03e c768 f1be ec82 96be 7725 3bbe
000003e0: 61b3 9b3d 1491 a7be 39c8 a3be 4103 973e
000003f0: b302 0d3f 4318 893e d353 a23e fea6 3d3e

out.bias f4 [5]
-1.3563794 0.12063486 1.0859869 0.25763932 -1.3092097
00000000: d79d adbf 690f f73d 9e01 8b3f 4de9 833e
00000010: 2f94 a7bf

exp_avg_sq f4 [128, 28]
4702.387 2800.009 764.4227 408.7273 282.62897 242.7013 289.79834 313.20392
391.0728 482.1997 505.24432 346.93018 306.16342 361.54306 533.5537 1075.5354
3480.2295 3774.455 48.36448 16.802908 19.329414 35.72505 374.04303 4698.323
489.8302 18714.424 12.531122 161308.17 150.03127 128.36311 162.76321 285.3703
205.39621 245.2701 1538.4747 732.9466 310.50815 232.34354 310.2201 290.79492
191.30751 163.43832 193.508 324.2098 960.0185 2305.0396 329.71838 424.19705
678.35205 1007.89355 2326.2585 150.47908 542.0348 3155.074 10.434444 3794.625
1288.6353 1968.2004 6367.263 55748.17 154976.2 51319.52 18145.947 10760.465
8378.607 16145.426 55331.895 68412.76 29731.523 20806.123 17715.043 13858.138
10152.363 6423.691 5138.6665 7176.3794 17797.174 12177.421 2182.064 1246.68
32537.168 689609.3 687.76324 5.749161e+06 0.11871521 0.105955675 0.09776022 0.9540592
1.008601 0.49709883 0.6230453 4.8749967 24.252464 22.423187 6.806558 3.1500301
2.2006233 1.7245 1.6991686 1.9047573 2.7409692 4.6144686 14.3578415 36.111904
11.5628605 6.179996 6.1256332 0.1634021 18.483133 21.11978 0.097769655 18.493198
352.82162 168.02974 308.4446 2271.558 5714.687 1838.4421 850.52124 601.9915
562.6706 1720.3373 5826.481 5557.3364 2230.3208 1293.1311 1067.714 784.2597
565.82153 436.1305 549.66626 1008.52277 2186.4812 2942.5725 2245.9827 352.20078
1338.0795 34228.22 56.05043 208262.44 264.79453 314.4001 668.19806 5668.3438
26930.682 9574.915 6187.4717 3659.8108 2700.2502 2150.185 9376.189 12938.5625
5538.129 3665.163 3143.9922 3424.8286 4712.1416 12113.91 4519.571 3066.6587
4518.6406 4659.8467 4438.142 260.93253 6732.588 142277.33 137.3723 989339.8
1459.4492 2255.6394 6968.5303 47302.793 189377.62 48731.97 25222.627 19641.424
19055.201 14629.395 58760.43 70100.31 33490.047 23157.162 20855.04 22230.736
27976.91 92446.46 42838.75 5092.344 2117.2798 1430.5746 1148.2422 1445.3483
44073.48 1.0010474e+06 950.14026 7.194994e+06 157.98541 267.69547 1020.75507 4154.539
26761.424 8197.477 3061.8013 1915.0967 1567.7039 1293.5823 2058.3044 12118.972
5452.8403 4944.3945 4884.4756 2592.228 1667.1376 2492.3118 1452.4994 164.16505
119.361305 89.90074 109.011566 143.50645 5884.662 115241.516 85.78364 1.1620321e+06
2741.5454 2425.5752 1801.3019 1551.0872 914.1969 636.6958 492.66223 437.04184
595.73944 1221.6492 1632.8134 2069.3848 2092.856 1335.6666 1027.6193 393.78003
269.0 305.2079 471.81506 418.93823 578.1594 1118.2539 2064.51 2741.2822
284.84796 20846.04 59.165867 160453.52 5.1652268e-18 3.7532613e-18 3.31404e-18 2.7526734e-18
00000000: 19f3 9245 2500 2f45 0e1b 3f44 185d cc43
00000010: 8250 8d43 88b3 7243 30e6 9043 1a9a 9c43
00000020: 5289 c343 9019 f143 469f fc43 1077 ad43
00000030: eb14 9943 83c5 b443 7063 0544 2271 8644
00000040: ac83 5945 48e7 6b45 3a75 4142 5b6c 8641
00000050: a4a2 9a41 74e6 0e42 8205 bb43 96d2 9245
00000060: 44ea f443 d934 9246 7a7f 4841 0b87 1d48
00000070: 0108 1643 f55c 0043 62c3 2243 66af 8e43
00000080: 6e65 4d43 2545 7543 314f c044 953c 3744
00000090: 0b41 9b43 f257 6843 2c1c 9b43 c065 9143
000000a0: b94e 3f43 3670 2343 0c82 4143 db1a a243
000000b0: 2f01 7044 a210 1045 f4db a443 3919 d443
000000c0: 8896 2944 30f9 7b44 2364 1145 a57a 1643
000000d0: 3a82 0744 2f31 4545 7cf3 2641 002a 6d45
000000e0: 5414 a144 6a06 f644 1bfa c645 2cc4 5947
000000f0: 0d58 1748 8577 4847 e5c3 8d46 dc21 2846
00000100: 6eea 0246 b445 7c46 e523 5847 619e 8547
00000110: 0c47 e846 3f8c a246 1666 8a46 8d88 5846
00000120: 74a1 1e46 87bd c845 5595 a045 0943 e045
00000130: 590a 8b46 af45 3e46 0661 0845 c3d5 9b44
00000140: 5632 fe46 955c 2849 d9f0 2b44 5273 af4a
00000150: f620 f33d 4aff d83d 8336 c83d 393d 743f
00000160: d619 813f bd83 fe3e e67f 1f3f f9ff 9b40
00000170: 0c05 c241 b062 b341 53cf d940 189a 4940
00000180: 03d7 0c40 6abc dc3f 5b7e d93f 16cf f33f
00000190: 0a6c 2f40 baa9 9340 b8b9 6541 9772 1042
000001a0: 7a01 3941 87c2 c540 3005 c440 e152 273e
000001b0: 75dd 9341 4ff5 a841 753b c83d 12f2 9341
000001c0: 2b69 b043 9d07 2843 e938 9a43 eef8 0d45
000001d0: 7f95 b245 26ce e544 5ca1 5444 757f 1644
000001e0: ebaa 0c44 cb0a d744 d913 b645 b1aa ad45
000001f0: 2265 0b45 32a4 a144 d976 8544 9f10 4444
00000200: 9474 0d44 b410 da43 a46a 0944 7521 7c44
00000210: b3a7 0845 29e9 3745 b95f 0c45 b319 b043
00000220: 8b42 a744 38b4 0547 a433 6042 9c61 4b48
00000230: b365 8443 3633 9d43 ad0c 2744 c022 b145
00000240: 5d65 d246 a99b 1546 c65b c145 f9bc 6445
00000250: 01c4 2845 f662 0645 c280 1246 402a 4a46
00000260: 0811 ad45 9c12 6545 e07f 4445 420d 5645
00000270: 2241 9345 a447 3d46 913c 8d45 8aaa 3f45
00000280: 2035 8d45 c69e 9145 23b1 8a45 5d77 8243
00000290: b464 d245 55f1 0a48 4f5f 0943 bd89 7149
000002a0: 606e b644 3bfa 0c45 3ec4 d945 cbc6 3847
000002b0: 68f0 3848 f85b 3e47 410d c546 d972 9946
000002c0: 67de 9446 9495 6446 6e88 6547 28ea 8847
000002d0: 0cd2 0247 53ea b446 14ee a246 79ad ad46
000002e0: d291 da46 3b8f b447 c056 2747 c122 9f45
000002f0: 7a54 0445 63d2 b244 c087 8f44 25ab b444
00000300: 7b29 2c47 7665 7449 fa88 6d44 e492 db4a
00000310: 44fc 1d43 05d9 8543 5330 7f44 50d4 8145
00000320: d912 d146 e815 0046 d25c 3f45 1863 ef44
00000330: 86f6 c344 a2b2 a144 dfa4 0045 e35b 3d46
00000340: b966 aa45 2883 9a45 cea3 9845 a603 2245
00000350: 6764 d044 fdc4 1b45 fb8f b544 412a 2443
00000360: fdb8 ee42 2ecd b342 ec05 da42 a781 0f43
00000370: 4ce5 b745 c214 e147 3991 ab42 81d9 8d49
00000380: ba58 2b45 3499 1745 a929 e144 cae2 c144
00000390: 9a8c 6444 882c 1f44 c454 f643 5b85 da43
000003a0: 53ef 1444 c6b4 9844 071a cc44 2856 0145
000003b0: b2cd 0245 55f5 a644 d173 8044 d8e3 c443
000003c0: 0080 8643 9c9a 9843 54e8 eb43 1878 d143
000003d0: 348a 1044 20c8 8b44 2908 0145 8454 2b45
000003e0: 8a6c 8e43 14dc a246 d9a9 6c42 61b1 1c48
000003f0: 3090 be22 8d78 8a22 7288 7422 881c 4b22

exp_avg f4 [128, 28]
6e-45 6e-45 6e-45 6e-45 6e-45 6e-45 6e-45 6e-45
6e-45 6e-45 6e-45 6e-45 6e-45 6e-45 6e-45 6e-45
6e-45 6e-45 6e-45 6e-45 6e-45 6e-45 6e-45 6e-45
6e-45 6e-45 6e-45 6e-45 -0.7480239 -1.4213824 -0.5544356 0.4652981
0.039833523 -0.20277596 -0.19396888 -0.003671417 0.095721476 0.09924269 -0.24708824 -0.07861207
-0.24630016 0.10803519 -0.15952611 -0.15271452 -0.56526035 -0.6482998 -0.8552902 0.39336386
0.94719225 0.57110333 0.08674337 -0.7521362 1.2665086 -0.08356029 -0.12124148 -8.362798
-1.2950566 -0.08193345 -0.9454818 5.8532166 4.2270555 -9.650192 -2.8850229 -3.2505689
-1.9572212 -5.168094 2.3037972 -13.268009 -6.428546 -4.5874753 -3.4711378 -3.22591
-3.9709837 -1.3336643 0.81177217 4.0200915 6.490813 -6.9301653 -4.5080175 -0.968624
-9.648905 -18.073956 -0.25237316 -45.683437 -6e-45 -6e-45 -6e-45 -6e-45
-6e-45 -6e-45 -6e-45 -6e-45 -6e-45 -6e-45 -6e-45 -6e-45
-6e-45 -6e-45 -6e-45 -6e-45 -6e-45 -6e-45 -6e-45 -6e-45
-6e-45 -6e-45 6e-45 -6e-45 -6e-45 -6e-45 -6e-45 -6e-45
0.31767872 0.0046055135 -0.73956263 -3.6167324 -4.93548 1.6589696 1.1763915 3.2453957
0.8862264 -1.7573007 -2.5408473 -2.023244 -1.838621 -0.9448165 -0.41070837 -1.0163594
-0.5061829 -0.7879663 -1.3439711 -2.517609 -2.3949344 1.6510907 5.524963 0.2608676
0.44431502 4.349316 0.12508495 -8.610065 0.74822354 0.7784321 0.54990226 0.5701519
6.4092913 0.3326382 0.87242293 0.7954141 0.86204535 1.4842011 -0.7355411 5.623782
3.1444952 1.8433493 1.541665 1.4535664 1.5314621 1.7544885 2.3859193 4.199208
5.82467 -0.085901774 3.8836718 0.82917005 -0.078200154 11.188708 0.29858485 0.8112938
6e-45 6e-45 6e-45 6e-45 6e-45 6e-45 6e-45 6e-45
6e-45 6e-45 6e-45 6e-45 6e-45 6e-45 6e-45 6e-45
6e-45 6e-45 6e-45 6e-45 6e-45 6e-45 6e-45 6e-45
6e-45 6e-45 6e-45 6e-45 1.7845755e-35 1.8517002e-35 2.5736456e-35 4.166635e-35
3.203431e-34 2.8182913e-34 1.3197392e-34 9.233798e-35 7.378393e-35 6.5677217e-35 6.3581106e-35 3.1640736e-34
1.709544e-34 1.242818e-34 1.0409796e-34 9.3191464e-35 9.572461e-35 3.8995518e-35 2.5217072e-35 1.8384828e-35
1.6032744e-35 1.4268481e-35 1.8497794e-35 1.3889137e-35 1.6572568e-34 6.214658e-34 1.4433891e-35 1.9220578e-33
4.5097675 1.1937046 1.8404741 0.3921666 1.6362287 0.8808322 -0.88424885 1.3445222
2.2028472 3.1539903 4.120155 5.1736736 2.9851785 2.2688463 1.3348445 0.76282555
-0.45034072 0.040218223 -2.4618018 -1.327648 -0.6755362 1.211901 2.4862905 4.5408745
-0.6625748 -1.4059792 0.072443075 12.253581 6e-45 6e-45 6e-45 6e-45
00000000: 0400 0000 0400 0000 0400 0000 0400 0000
00000010: 0400 0000 0400 0000 0400 0000 0400 0000
00000020: 0400 0000 0400 0000 0400 0000 0400 0000
00000030: 0400 0000 0400 0000 0400 0000 0400 0000
00000040: 0400 0000 0400 0000 0400 0000 0400 0000
00000050: 0400 0000 0400 0000 0400 0000 0400 0000
00000060: 0400 0000 0400 0000 0400 0000 0400 0000
00000070: 7f7e 3fbf dcef b5bf 7eef 0dbf 8d3b ee3e
00000080: 7a28 233d 80a4 4fbe c79f 46be 289c 70bb
00000090: 9f09 c43d c03f cb3d b304 7dbe 5dff a0bd
000000a0: 1c36 7cbe 8e41 dd3d d05a 23be 3261 1cbe
000000b0: e7b4 10bf faf6 25bf 4cf4 5abf fd66 c93e
000000c0: 317b 723f d433 123f 82a6 b13d ff8b 40bf
000000d0: f41c a23f a821 abbd 744d f8bd 05ce 05c1
000000e0: 6ac4 a5bf bacc a7bd 180b 72bf 8d4d bb40
000000f0: 0a44 8740 3067 1ac1 37a4 38c0 5209 50c0
00000100: 3986 fabf 0761 a5c0 6a71 1340 c449 54c1
00000110: a6b6 cdc0 99cc 92c0 1f27 5ec0 4f75 4ec0
00000120: 9924 7ec0 83b5 aabf 4dd0 4f3f 97a4 8040
00000130: bdb4 cf40 eac3 ddc0 ae41 90c0 bef7 77bf
00000140: ea61 1ac1 7697 90c1 0e37 81be d7bb 36c2
00000150: 0400 0080 0400 0080 0400 0080 0400 0080
00000160: 0400 0080 0400 0080 0400 0080 0400 0080
00000170: 0400 0080 0400 0080 0400 0080 0400 0080
00000180: 0400 0080 0400 0080 0400 0080 0400 0080
00000190: 0400 0080 0400 0080 0400 0080 0400 0080
000001a0: 0400 0080 0400 0080 0400 0000 0400 0080
000001b0: 0400 0080 0400 0080 0400 0080 0400 0080
000001c0: c9a6 a23e d9e9 963b fa53 3dbf 8b78 67c0
000001d0: 74ef 9dc0 1e59 d43f ff93 963f 90b4 4f40
000001e0: bcdf 623f 3bef e0bf 3e9d 22c0 d47c 01c0
000001f0: ef57 ebbf 7fdf 71bf 5e48 d2be 1118 82bf
00000200: 3495 01bf 29b8 49bf 3f07 acbf 8120 21c0
00000210: 9b46 19c0 f156 d33f 7fcc b040 7090 853e
00000220: 427d e33e 992d 8b40 4516 003e d4c2 09c1
00000230: 948b 3f3f 5347 473f 65c6 0c3f 7af5 113f
00000240: ea18 cd40 8e4f aa3e 1c57 5f3f 42a0 4b3f
00000250: 01af 5c3f 4dfa bd3f 6c4c 3cbf 06f6 b340
00000260: 693f 4940 dff2 eb3f 4755 c53f 770e ba3f
00000270: f306 c43f 1493 e03f e7b2 1840 e95f 8640
00000280: b263 ba40 45ed afbd 148e 7840 7d44 543f
00000290: 6727 a0bd f304 3341 1de0 983e f3b0 4f3f
000002a0: 0400 0000 0400 0000 0400 0000 0400 0000
000002b0: 0400 0000 0400 0000 0400 0000 0400 0000
000002c0: 0400 0000 0400 0000 0400 0000 0400 0000
000002d0: 0400 0000 0400 0000 0400 0000 0400 0000
000002e0: 0400 0000 0400 0000 0400 0000 0400 0000
000002f0: 0400 0000 0400 0000 0400 0000 0400 0000
00000300: 0400 0000 0400 0000 0400 0000 0400 0000
00000310: c4c4 bd05 13e8 c405 a6d6 0806 4c89 5d06
00000320: 8ee7 d407 be4e bb07 666c 2f07 f979 f506
00000330: be26 c406 9999 ae06 0f07 a906 ec49 d207
00000340: c53c 6307 e832 2507 b35e 0a07 d3be f706
00000350: cb7a fe06 f355 4f06 b313 0606 4380 c305
00000360: 487d aa05 80ba 9705 c9b3 c405 d4b1 9305
00000370: 8749 5c07 7784 4e08 ca7c 9905 a6ad 1f09
00000380: 0450 9040 50cb 983f a894 eb3f 10ca c83e
00000390: f16f d13f 387e 613f 225e 62bf 4e19 ac3f
000003a0: 73fb 0c40 fada 4940 4fd8 8340 bc8e a540
000003b0: 2a0d 3f40 c734 1140 2fdc aa3f 8948 433f
000003c0: 0f93 e6be ddbb 243d 298e 1dc0 5ff0 a9bf
000003d0: f1ef 2cbf 921f 9b3f 621f 1f40 d84e 9140
000003e0: 819e 29bf 20f7 b3bf 095d 943d ab0e 4441
000003f0: 0400 0000 0400 0000 0400 0000 0400 0000

exp_avg_sq f4 [5, 128]
349.90894 99.91214 80.4618 693.90936 218.62918 569.7402 157.63159 166.97021
492.59033 109.6467 391.44275 146.50754 158.4297 266.4307 482.52505 74.350464
776.76874 114.56377 449.3576 123.07339 560.8271 358.63266 40.261078 165.98973
644.0852 344.83612 81.536736 498.10437 132.01431 238.55913 499.30426 504.73215
652.8554 878.52716 821.9504 677.74066 566.6339 695.03754 103.62232 10.908998
460.87335 58.490974 1143.4438 140.02638 368.83374 131.629 122.56124 145.89877
590.14813 118.492325 910.3769 89.17948 556.1371 167.7462 427.66238 628.8225
86.66079 163.50293 303.08066 878.82654 576.6864 144.16386 110.91439 582.47034
175.61205 661.0283 596.0317 191.26291 299.41278 870.5961 181.36206 401.10867
10.032973 133.50417 460.55734 523.09393 562.45337 103.50085 288.9009 214.18077
333.06226 268.301 99.169014 96.62825 1293.3009 133.74696 201.86795 767.4747
559.1626 1037.2119 596.41943 663.8913 110.48193 384.9335 560.12164 488.13074
421.67245 76.319046 435.38794 182.50116 83.37657 58.520866 145.92082 120.5612
411.45007 193.89597 798.4298 134.3686 552.2208 340.2173 99.07221 845.37524
71.90108 386.23752 449.9026 598.1835 662.9404 198.46733 136.58151 129.4414
441.2159 183.46608 192.72682 758.855 133.17267 145.96565 72.63563 35.982056
363.2962 569.5887 258.5359 493.71207 402.13037 491.53745 463.38812 876.2355
1027.6213 526.81805 776.7851 491.51132 702.92645 179.17352 529.19385 626.56726
638.78925 268.4359 574.6597 652.8331 578.85187 448.6304 204.26225 692.54065
1234.2076 586.309 681.7478 600.06635 316.20456 604.2427 587.7635 556.79663
806.177 895.76 1168.0198 646.3206 851.8831 839.19946 312.91412 123.85087
611.15106 367.47385 1085.0061 843.04834 684.38153 310.62167 642.8993 604.4776
945.5158 439.5664 937.3515 401.6002 423.37393 826.1794 546.3274 829.6259
809.8091 582.7724 658.6626 1057.8093 830.322 902.2078 832.14294 484.44583
1169.616 390.09268 453.4063 563.6898 536.05664 560.1653 302.91653 479.35388
186.77744 570.9122 660.9972 296.56808 453.7642 764.0562 356.56866 1112.4193
470.48804 706.55853 846.5955 723.6423 1464.2488 136.02312 745.1265 818.9881
804.4258 703.46136 562.25775 613.1576 930.27155 570.5063 951.7776 468.83093
200.27011 761.8468 556.74994 532.69196 826.85077 312.11322 632.72144 557.50323
447.65833 219.68625 610.42737 523.0575 461.47296 667.44226 292.25137 960.502
358.8357 380.87024 383.97156 528.49774 870.2913 767.26465 498.75034 228.0552
460.10214 511.54184 625.968 578.01624 907.55334 1016.99335 816.2263 449.98273
00000000: 58f4 ae43 04d3 c742 71ec a042 337a 2d44
00000010: 12a1 5a43 5f6f 0e44 b0a1 1d43 60f8 2643
00000020: 904b f643 1c4b db42 acb8 c343 ee81 1243
00000030: 016e 1e43 2137 8543 3543 f143 70b3 9442
00000040: 3331 4244 a620 e542 c6ad e043 9325 f642
00000050: ef34 0c44 fb50 b343 580b 2142 5ffd 2543
00000060: 7405 2144 066b ac43 cf12 a342 5c0d f943
00000070: aa03 0443 238f 6e43 f2a6 f943 b75d fc43
00000080: bf36 2344 bda1 5b44 d37c 4d44 676f 2944
00000090: 92a8 0d44 67c2 2d44 a13e cf42 418b 2e41
000000a0: ca6f e643 c2f6 6942 34ee 8e44 c106 0c43
000000b0: b86a b843 06a1 0343 5b1f f542 16e6 1143
000000c0: 7b89 1344 12fc ec42 1f98 6344 e55b b242
000000d0: c608 0b44 07bf 2743 c9d4 d543 a434 1d44
000000e0: 5352 ad42 c080 2343 538a 9743 e6b4 5b44
000000f0: ee2b 1044 f329 1043 2bd4 dd42 1a9e 1144
00000100: af9c 2f43 d041 2544 0702 1544 4e43 3f43
00000110: d6b4 9543 27a6 5944 b05c 3543 e98d c843
00000120: 0f87 2041 1181 0543 5747 e643 03c6 0244
00000130: 049d 0c44 6f00 cf42 5173 9043 472e 5643
00000140: f887 a643 8726 8643 8956 c642 aa41 c142
00000150: a1a9 a144 39bf 0543 32de 4943 61de 3f44
00000160: 68ca 0b44 c8a6 8144 d81a 1544 0bf9 2544
00000170: c0f6 dc42 7d77 c043 c907 0c44 bc10 f443
00000180: 13d6 d243 5aa3 9842 a8b1 d943 4c80 3643
00000190: cec0 a642 5e15 6a42 bbeb 1143 561f f142
000001a0: 9cb9 cd43 5ee5 4143 829b 4744 5d5e 0643
000001b0: 220e 0a44 d01b aa43 f924 c642 0458 5344
000001c0: 5acd 8f42 671e c143 88f3 e043 be8b 1544
000001d0: 30bc 2544 a377 4643 de94 0843 0071 0143
000001e0: a39b dc43 5177 3743 11ba 4043 b8b6 3d44
000001f0: 342c 0543 35f7 1143 7145 9142 a0ed 0f42
00000200: eaa5 b543 ad65 0e44 9844 8143 25db f643
00000210: b010 c943 cbc4 f543 aeb1 e743 120f 5b44
00000220: e273 8044 5bb4 0344 3f32 4244 73c1 f543
00000230: 4bbb 2f44 6c2c 3343 684c 0444 4ea4 1c44
00000240: 83b2 1f44 cc37 8643 39aa 0f44 5235 2344
00000250: 85b6 1044 b150 e043 2343 4c43 9a22 2d44
00000260: a546 9a44 c793 1244 dc6f 2a44 3f04 1644
00000270: 2f1a 9e43 880f 1744 ddf0 1244 fc32 0b44
00000280: 548b 4944 a4f0 5f44 a200 9244 8594 2144
00000290: 85f8 5444 c4cc 5144 0275 9c43 a5b3 f742
000002a0: abc9 1844 a7bc b743 32a0 8744 18c3 5244
000002b0: 6b18 2b44 934f 9b43 8eb9 2044 911e 1744
000002c0: 0361 6c44 80c8 db43 7f56 6a44 d3cc c843
000002d0: ddaf d343 7b8b 4e44 f494 0844 0f68 4f44
000002e0: c873 4a44 6fb1 1144 68aa 2444 e639 8444
000002f0: 9c94 4f44 4d8d 6144 2609 5044 1139 f243
00000300: b633 9244 dd0b c343 02b4 e243 26ec 0c44
00000310: a003 0644 940a 0c44 5175 9743 4cad ef43
00000320: 06c7 3a43 61ba 0e44 d23f 2544 b748 9443
00000330: d1e1 e243 9903 3f44 ca48 b243 6b0d 8b44
00000340: 783e eb43 bfa3 3044 1da6 5344 1be9 3444
00000350: f607 b744 eb05 0843 1948 3a44 3dbf 4c44
00000360: 401b 4944 87dd 2f44 7f90 0c44 164a 1944
00000370: 6191 6844 67a0 0e44 c4f1 6d44 5c6a ea43
00000380: 2645 4843 3276 3e44 ff2f 0b44 492c 0544
00000390: 73b6 4e44 7e0e 9c43 2c2e 1e44 3560 0b44
000003a0: 44d4 df43 aeaf 5b43 5a9b 1844 aec3 0244
000003b0: 8abc e643 4edc 2644 2d20 9243 2120 7044
000003c0: f86a b343 646f be43 5cfc bf43 db1f 0444
000003d0: a592 5944 f0d0 3f44 0b60 f943 220e 6443
000003e0: 130d e643 5bc5 ff43 f47d 1c44 0a81 1044
000003f0: 6ae3 6244 933f 7e44 7c0e 4c44 cafd e043

exp_avg f4 [5, 128]
0.41335228 0.06760029 -0.6241058 0.33436564 -0.3289295 -0.28633237 0.00994831 0.58658975
0.10652791 0.27304766 -0.08551933 -0.3051021 0.5398606 0.1618151 -0.33038664 -0.10705908
-0.050144903 0.112116896 0.24797015 0.04518614 -0.5513688 0.12594116 -0.17734435 0.13282043
-0.05706963 0.3689393 0.21993554 -0.668616 0.24616799 1.3349648 -0.12489681 0.78776646
0.5236089 0.43621463 -0.087093 -0.0017097906 0.7063227 -0.725698 0.66549754 0.052231926
-0.08820849 -0.15778 -0.082451485 -0.13124591 0.053836018 -0.28910682 -0.2733437 -0.7551603
0.12150547 0.49938536 0.06392316 -0.08933918 -0.28438747 0.24939536 0.3370245 0.6455437
-0.13418126 -0.37103656 0.19632582 -0.3472902 -0.073802225 -0.5960971 0.34794855 -0.5162898
0.43076202 -0.11304575 -0.582792 -0.40159145 -0.2559638 -0.007329394 0.18449764 -0.23897749
-0.0035603354 0.016510202 -0.42422044 -0.2075884 -0.24702983 0.29769495 0.09343276 0.46340254
-0.4728551 0.18540153 0.04511963 0.51360685 0.041427843 -0.2015036 0.56344396 0.62519145
0.3289003 0.40447554 -0.4776679 0.31873876 0.25366032 -0.28480878 -0.022209868 -0.1326424
0.12394732 0.5873176 -0.2057463 0.17112856 0.33902517 0.06258679 -0.4223338 0.31379524
0.034561105 -0.3824707 -0.40222326 0.31187284 -0.27852562 -0.14715241 0.12109674 0.047314852
0.22812848 -0.55832213 -0.78745127 0.019997694 0.33757094 -0.9146208 -0.4961535 0.1413558
-0.15044157 -0.63712114 0.2321882 0.25801882 -0.01788782 0.43793333 0.31547308 0.11149264
-0.5730523 -0.19084175 -0.6559441 0.10722629 1.8403965 1.1871636 0.22638491 0.06320313
-2.0681734 -0.87429446 0.45950818 0.29630533 -0.2925859 -0.59516335 1.464827 1.6215473
0.41702387 0.48057818 -2.0388043 -1.7409316 -1.1548659 -0.0783076 0.055804417 -0.53831077
-0.9949047 -1.0047094 0.6564327 0.2650923 -3.5364697 2.3267083 0.24275665 0.0063882526
0.45399895 -0.24157207 -1.2680424 -0.7009417 -1.3932115 0.73310465 1.0305089 0.91327
-1.8781966 0.72779137 2.725127 0.32319877 -1.093392 -4.7942433 -0.045542978 -0.38006544
0.41615465 -1.2282841 0.06767622 0.050379388 1.9007978 -1.0778873 0.94373256 -1.3345217
-3.3319917 0.23532838 -2.8407617 -0.32744455 -0.47833383 0.1700595 0.88182783 -1.5267403
-0.075285934 0.039167866 0.5149667 -0.27575842 -2.3445454 0.7858457 -0.5027964 -1.4006387
-1.16218 -1.4191194 0.081164636 -1.3076668 0.5844246 -2.1153238 0.16633332 -0.18251093
0.08683227 -3.7124767 -0.7412322 -2.1482384 -0.5774815 -2.671847 -0.23684382 0.050395463
-0.04852779 -0.008972965 0.06724153 -0.15857455 -0.6948278 1.9803474 0.33790335 0.2465378
-0.19697104 -0.6328197 0.5672345 -2.6549206 -1.5973629 -0.9841982 1.3754588 1.2572365
2.5948453 0.35675207 -0.63976836 0.5896455 -0.20839638 -0.23160893 0.71821827 -0.07032914
-0.14160298 1.2124374 -1.1625904 0.2592306 -1.7450624 1.6779774 -1.2838147 -1.145336
-1.7539688 -0.8249486 -0.38765544 -0.29262915 -0.47589993 -0.3104365 -1.3410126 -1.5521036
00000000: e9a2 d33e 0572 8a3d 66c5 1fbf f931 ab3e
00000010: 7369 a8be 289a 92be 3dfe 223c bf2a 163f
00000020: 4e2b da3d e7cc 8b3e c224 afbd 5836 9cbe
00000030: 4e34 0a3f dcb2 253e 7028 a9be ca41 dbbd
00000040: be64 4dbd 8b9d e53d e3eb 7d3e 1a15 393d
00000050: 8126 0dbf b8f6 003e c299 35be 1402 083e
00000060: d8c1 69bd 9de5 bc3e c836 613e 6b2a 2bbf
00000070: 7613 7c3e 20e0 aa3f e6c9 ffbd 10ab 493f
00000080: 3c0b 063f 8657 df3e d15d b2bd 0d1b e0ba
00000090: 91d1 343f 58c7 39bf 0c5e 2a3f 25f1 553d
000000a0: a7a6 b4bd 1591 21be 53dc a8bd 5465 06be
000000b0: 2883 5c3d cf05 94be b5f3 8bbe 2f52 41bf
000000c0: dcd7 f83d 70af ff3e 25ea 823d 76f7 b6bd
000000d0: 3c9b 91be 7f61 7f3e 7a8e ac3e 5a42 253f
000000e0: d066 09be 81f8 bdbe a309 493e 05d0 b1be
000000f0: 9f25 97bd d299 18bf 5026 b23e 912b 04bf
00000100: d78c dc3e 8884 e7bd db31 15bf 659d cdbe
00000110: b00d 83be 6a2b f0bb f3ec 3c3e 84b6 74be
00000120: 8454 69bb 6740 873c 6c33 d9be 0e92 54be
00000130: 63f5 7cbe 796b 983e ad59 bf3d 1943 ed3e
00000140: 101a f2be e6d9 3d3e 5ccf 383d bd7b 033f
00000150: 3eb0 293d f656 4ebe dd3d 103f 8c0c 203f
00000160: 9f65 a83e 6b17 cf3e e390 f4be ba31 a33e
00000170: c4df 813e 75d2 91be 78f1 b5bc 69d3 07be
00000180: 18d8 fd3d 725a 163f 28af 52be 533c 2f3e
00000190: b594 ad3e 812d 803d 233c d8be c5a9 a03e
000001a0: f28f 0d3d 33d3 c3be 35f0 cdbe ccad 9f3e
000001b0: e99a 8ebe 1faf 16be 9101 f83d 38cd 413d
000001c0: 839a 693e 33ee 0ebf 6896 49bf 34d2 a33c
000001d0: 19d6 ac3e 9724 6abf d507 febe 93bf 103e
000001e0: 5b0d 1abe 5f1a 23bf bec2 6d3e 0b1b 843e
000001f0: 7a89 92bc cc38 e03e b085 a13e 4156 e43d
00000200: 8eb3 12bf 056c 43be f4eb 27bf 7599 db3d
00000210: 1d92 eb3f faf4 973f 72d1 673e a570 813d
00000220: f45c 04c0 c3d1 5fbf a844 eb3e 55b5 973e
00000230: d2cd 95be a05c 18bf 737f bb3f dd8e cf3f
00000240: 2784 d53e 580e f63e c57b 02c0 d9d6 debf
00000250: a5d2 93bf bc5f a0bd 2c93 643d bcce 09bf
00000260: 13b2 7ebf 519a 80bf f90b 283f 2eba 873e
00000270: 8555 62c0 cae8 1440 3395 783e 8c54 d13b
00000280: 8d72 e83e ab5e 77be 374f a2bf ea70 33bf
00000290: c154 b2bf bfac 3b3f b7e7 833f 10cc 693f
000002a0: bf68 f0bf 8950 3a3f 7b68 2e40 4f7a a53e
000002b0: 45f4 8bbf 716a 99c0 468b 3abd f097 c2be
000002c0: 3912 d53e 6a38 9dbf d499 8a3d 9e5a 4e3d
000002d0: 584d f33f 36f8 89bf 7598 713f 9bd1 aabf
000002e0: 5a3f 55c0 ecf9 703e 0acf 35c0 d0a6 a7be
000002f0: 2ce8 f4be 1424 2e3e 78bf 613f 3a6c c3bf
00000300: 832f 9abd 7c6e 203d dcd4 033f 3530 8dbe
00000310: 080d 16c0 2f2d 493f 44b7 00bf 2148 b3bf
00000320: 50c2 94bf b4a5 b5bf a539 a63d a061 a7bf
00000330: da9c 153f 7761 07c0 4853 2a3e 25e4 3abe
00000340: 1ed5 b13d 3899 6dc0 65c1 3dbf bd7c 09c0
00000350: d4d5 13bf 8bff 2ac0 3087 72be 796b 4e3d
00000360: 13c5 46bd 5803 13bc edb5 893d 5e61 22be
00000370: 3ce0 31bf 067c fd3f ab01 ad3e 6874 7c3e
00000380: c7b2 49be 7900 22bf 4836 113f 38ea 29c0
00000390: 6376 ccbf 6af4 7bbf 090f b03f 20ed a03f
000003a0: f211 2640 35a8 b63e dcc7 23bf 02f3 163f
000003b0: dc65 55be e42a 6dbe 27dd 373f b908 90bd
000003c0: 5f00 11be 2631 9b3f c3cf 94bf e0b9 843e
000003d0: 345e dfbf f7c7 d63f 0a54 a4bf 5f9a 92bf
000003e0: 0d82 e0bf d52f 53bf c67a c6be 7dd3 95be
000003f0: 28a9 f3be 88f1 9ebe 4da6 abbf 55ab c6bf
