model/260a.pt (torch_old, 336839 bytes, 24 tensors)

fc1.weight f4 [128, 28]
0	0x3d0f90dd	0.03505026
1	0x3e2ddb06	0.16978082
2	0xbe327a00	-0.17429352
3	0xbc482c9c	-0.012217667
4	0xbea058f7	-0.31317875
5	0xbec77719	-0.38958052
6	0xbd43405a	-0.047668792
7	0xbdee5a57	-0.11638325
8	0xbe3f6000	-0.18688965
9	0x3e49a351	0.19691207
10	0x3d66da9e	0.056360833
11	0xbf1e889f	-0.6192722
12	0xbe6a1551	-0.22859694
13	0xbd97b1ff	-0.07406997
14	0x3e47f1e5	0.19525869
15	0x3e9df0c1	0.30847743
16	0x3ed1a49c	0.409459
17	0xbd93a617	-0.072094135
18	0xbf66bfa1	-0.9013615
19	0xc0091a8a	-2.1422448
20	0xbfc5d67b	-1.5456079
21	0xbfcd3173	-1.6030716
22	0xbf2efc57	-0.6835379
23	0x3e23b47f	0.15986823
24	0x3c8ebe66	0.017424773
25	0x3d29f02e	0.04148882
26	0xbfedf66e	-1.8590829
27	0x3daccffd	0.08438108
28	0x3f2b92b9	0.67020756
29	0x3f526aff	0.82194513
30	0x3e217fc4	0.15771395
31	0x3dee5ed5	0.116391815
32	0xbdef6f46	-0.116911456
33	0xbee72b80	-0.45150375
34	0x3e200e0d	0.1563036
35	0x3ea7994f	0.32734153
36	0x3c851a3a	0.016247857
37	0x3e5268c2	0.20547774
38	0x3e1ea809	0.15493788
39	0xbe1948e2	-0.14969209
40	0xbecddbdb	-0.402068
41	0xbe8a0146	-0.26954097
42	0xbd64724c	-0.055773064
43	0x3d4f5adb	0.050623756
44	0x3e08c74a	0.13357273
45	0x3cca7f6c	0.024718963
46	0xbe28feff	-0.16503523
47	0xbdd94b93	-0.10610118
48	0x3e087587	0.13326083
49	0x3e675e01	0.22594453
50	0xbe667569	-0.22505726
51	0x3f13c743	0.57725924
52	0x3e80a78e	0.25127834
53	0xbda1c8de	-0.078996405
54	0x3f83f505	1.0309149
55	0xbe291d8c	-0.16515177
56	0xbf8b3aa5	-1.0877272
57	0xbf81d4b5	-1.0143038
58	0xbec062dc	-0.37575424
59	0x3e48e0cd	0.19617005
60	0xbbca5ba3	-0.0061754747
61	0xbde83421	-0.11338068
62	0xbd6333ae	-0.055469207
63	0x3d52757b	0.05138157
64	0x3cc5fc49	0.02416815
65	0x3e76c7d2	0.24099663
66	0x3e8e2b89	0.2776759
67	0x3eb188e6	0.34674758
68	0x3c6f2555	0.014596303
69	0x3c0cac89	0.008586057
70	0xbda0ba95	-0.07848088
71	0xbda0fe59	-0.07861013
72	0xbe4e9ec7	-0.20177756
73	0xbec5f364	-0.38662255
74	0xbdd2a194	-0.10284725
75	0xbe6b94f5	-0.23006041
76	0x3ce06c30	0.027395338
77	0xbd9ca4c4	-0.07648614
78	0xbec988cd	-0.39362183
79	0xbf9c34bc	-1.2203593
80	0x3e6d2537	0.23158728
81	0x3e53f7ea	0.2070004
82	0xbfa6f11c	-1.3042331
83	0x3d4a4087	0.049377944
84	0xbf38efb3	-0.7224075
85	0xbf349f49	-0.7055555
86	0xbeaf93b7	-0.34292385
87	0xbdbc6a6d	-0.091999866
88	0xbd28ada8	-0.041181237
89	0xbde1de0e	-0.11028682
90	0xbe77d5d0	-0.24202657
91	0x3dbe7a70	0.09300697
92	0x3d552835	0.052040298
93	0x3e63f00d	0.22259541
94	0x3e899bd3	0.26876697
95	0x3cadcd76	0.021216135
96	0xbda3100f	-0.07962047
97	0xbd93debc	-0.072202176
98	0xbe4242a3	-0.18970732
99	0xbecdf54e	-0.40226215
100	0xbe467d4e	-0.19383737
101	0xbe695281	-0.22785379
102	0x3eb773d2	0.3583055
103	0x3d839d36	0.0642647
104	0x3ddab1c2	0.10678436
105	0xbca3d7c0	-0.020000339
106	0xbed89ded	-0.42307988
107	0xbf5e1794	-0.8675473
108	0x3e5cd02e	0.21563789
109	0xbde17f5d	-0.11010621
110	0xbf7da832	-0.9908477
111	0xbc86d0b4	-0.01645694
112	0xbf50a99a	-0.8150879
113	0xbf208ef9	-0.6271816
114	0xbe1c1377	-0.152418
115	0xbdc932d7	-0.0982415
116	0xbc9c4285	-0.019074688
117	0xbe1f70cb	-0.15570371
118	0xbe2dcbce	-0.16972277
119	0x3d93e3b5	0.07221166
120	0x3e03b48a	0.12861839
121	0xbbb3ec81	-0.00549084
122	0x3ea8bd5b	0.32956967
123	0x3ea58adc	0.32332504
124	0x3df62bb7	0.12020057
125	0x3e004b92	0.12528828
126	0x3e53aeb5	0.20672114
127	0x3e9ac663	0.30229482
128	0xbea93756	-0.3305003
129	0xbea5315c	-0.3226422
130	0xbc341e06	-0.010993486
131	0x3e0241c8	0.12720406
132	0x3e8450e7	0.25842974
133	0x3dd76fa0	0.10519338
134	0x3e4708d3	0.1943696
135	0xbf54f935	-0.8319276
136	0x3e54b9f2	0.20774058
137	0x3e00bcd1	0.12572028
138	0xbf9894e5	-1.1920439
139	0xbd8174ba	-0.06321092
140	0xbf5ee88a	-0.87073576
141	0xbfa0a1ec	-1.2549415
142	0xbf3e6626	-0.74374616
143	0x3dbe56e8	0.0929392
144	0x3d99365f	0.074810736
145	0x3d9afa1c	0.07567236
146	0xbd476c31	-0.048687164
147	0x3db5e147	0.08880859
148	0x3cc8c78f	0.02450922
149	0x3be42071	0.006961875
150	0x3e2ac220	0.16675615
151	0x3c54f381	0.012997509
152	0x3d54a142	0.0519116
153	0xbdaece91	-0.08535493
154	0x3c462108	0.012092836
155	0x3e36e658	0.17861307
156	0x3c5ebcae	0.013594789
157	0x3dfb7640	0.12278414
158	0x3d09e9e6	0.03367033
159	0x3e09b40a	0.13447586
160	0xbe193f43	-0.14965539
161	0x3e273c91	0.16331698
162	0x3e827785	0.2548181
163	0xbf7de73e	-0.9918097
164	0x3e8854fc	0.26627338
165	0x3df8b857	0.12144535
166	0xbf8fbfb4	-1.1230378
167	0xbda4e1b2	-0.080508605
168	0xbf65b4f7	-0.89729255
169	0x3d2510bf	0.040299173
170	0xbdc63d67	-0.0967968
171	0xbe0d4383	-0.13795285
172	0x3e23648a	0.15956321
173	0x3b8f8726	0.0043801246
174	0x3e78b760	0.24288702
175	0x3e1b4d3a	0.15166178
176	0x3e79e5b0	0.24404025
177	0x3dfc4c6a	0.12319262
178	0x3e95a64f	0.29228446
179	0xbcead14e	-0.028664257
180	0xbe5466ef	-0.20742391
181	0xbd8210e5	-0.063508786
182	0xbe517a6f	-0.20456861
183	0xbe4e9034	-0.20172197
184	0xbe0b4549	-0.13600649
185	0x3dffa18f	0.12481987
186	0xbc099fe5	-0.008399938
187	0xbed2dff4	-0.41186488
188	0xbe67dfe4	-0.22644001
189	0x3d84e3cf	0.064887635
190	0xbf3e152a	-0.74251044
191	0xbf8857b8	-1.065177
192	0xbe39a74c	-0.18130225
193	0x3d3d0858	0.046150535
194	0xbfac46b2	-1.3459074
195	0xbca69d27	-0.020338608
196	0xbf393024	-0.7233908
197	0xbe638e46	-0.22222242
198	0xbe0ee09a	-0.13952866
199	0xbc3a0997	-0.011354825
200	0xbdbf7636	-0.09348719
201	0x3def8d96	0.11696927
202	0x3c0c4c9d	0.008563188
203	0xbd48d0d3	-0.049027275
204	0x3ddf6d8a	0.10909565
205	0xbe2f79a3	-0.17136244
206	0xbe0f20ac	-0.13977307
207	0xbe76ee03	-0.24114232
208	0xbe2e6be6	-0.17033347
209	0x3dc41575	0.09574405
210	0xba4e4718	-0.000786887
211	0xbe70f9e8	-0.23532832
212	0xbd69f8ad	-0.05712192
213	0xbd950c4c	-0.07277736
214	0xbd57c84e	-0.05268126
215	0xbebf5dda	-0.3737629
216	0xbf52364b	-0.82114094
217	0xbf470c2f	-0.77752966
218	0xbf3335a8	-0.7000375
219	0xbf5ead94	-0.8698361
220	0xbec330cb	-0.38123164
221	0x3dda9be9	0.10674269
222	0xbf7233f1	-0.94610506
223	0x3de81f7d	0.11334131
224	0x3eaee1d8	0.3415668
225	0x3f220a5e	0.6329707
226	0xbd4c695b	-0.049905162
227	0x3d341a79	0.04397056
228	0xbbbe44dc	-0.0058065485
229	0xbcdac3ce	-0.026704695
230	0xbed886dd	-0.42290393
231	0xbe96784f	-0.29388663
232	0x3c975041	0.018470885
233	0x3ecd85be	0.401411
234	0x3c331487	0.010930187
235	0xbe17557c	-0.14778703
236	0xbe2071ed	-0.15668459
237	0x3cc664dc	0.024218015
238	0xbd03f0e0	-0.03221214
239	0xbb33267d	-0.0027336173
240	0xbe91cad9	-0.28475073
241	0xbf1afd46	-0.60542715
242	0xbe1dddf3	-0.15416698
243	0xbe0e5ef1	-0.13903405
244	0x3df42c75	0.11922542
245	0xbd25be0c	-0.040464446
246	0x3d9b9ba1	0.07598043
247	0x3ee36c1a	0.44418412
248	0xbf5e610c	-0.8686683
249	0x3d29c27a	0.041445233
250	0x3c30d8a6	0.0107938405
251	0x3d82954e	0.06376134
252	0x3e369cce	0.17833254
253	0xbe28342b	-0.1642615
254	0xbd3b0713	-0.045661043
255	0xbe02b2de	-0.12763545

fc1.bias f4 [128]
0	0x3cb47690	0.022029191
1	0xbc363d16	-0.011122962
2	0xbcbb98b2	-0.02289996
3	0xbdbc4122	-0.091921106
4	0x3d90b584	0.07065871
5	0x3d4fa15e	0.050691
6	0x3e0c4a07	0.13700114
7	0xbcfd308a	-0.030906934
8	0xbe58af4e	-0.21160623
9	0xbb77c80a	-0.0037808442
10	0xbd6cfc65	-0.05785789
11	0x3d831c41	0.064018734
12	0x3d1bfb5f	0.038081523
13	0x3e117aed	0.14207049
14	0x3c29a747	0.010354823
15	0xbe563e54	-0.20922214
16	0xbe2e554c	-0.17024726
17	0xbd9fe2b9	-0.07806916
18	0xbe0abb76	-0.13548073
19	0xbe2d8760	-0.16946173
20	0xbcbbb317	-0.022912545
21	0x3d2b7c34	0.041866496
22	0x3eee7dae	0.4658026
23	0x3e47f479	0.19526853
24	0xbd9252be	-0.07144688
25	0xbe36789d	-0.17819448
26	0xbdd46b73	-0.10372057
27	0xbd9ee041	-0.07757617
28	0xbca72dc8	-0.020407572
29	0xbe2211d5	-0.15827115
30	0xbdb82630	-0.08991659
31	0x3d90b839	0.07066388
32	0xbdf6b1e4	-0.12045649
33	0xbdfae0c4	-0.12249902
34	0x3e8d8cf0	0.2764659
35	0xbd6779fc	-0.056512818
36	0x3e202d70	0.15642333
37	0xbe0f4092	-0.13989475
38	0x3c097399	0.008389377
39	0xbd8e8822	-0.06959559
40	0xbe3e45f1	-0.18581368
41	0x3e881dab	0.26585135
42	0xbcb3101f	-0.021858273
43	0x3cdacabd	0.026708001
44	0x3cfa7165	0.030571649
45	0xbe8b6ee0	-0.27233028
46	0xbd272bf6	-0.04081341
47	0x3ee80a7e	0.45320505
48	0x3dfa4d29	0.122217484
49	0xbd158c14	-0.036510542
50	0x3db455bf	0.08805417
51	0x3dad70eb	0.08468803
52	0xbe4fdcea	-0.20299116
53	0xbd4738f8	-0.048638314
54	0x3d83359b	0.06406709
55	0xbe76a8cc	-0.24087828
56	0x3e10b31c	0.14130825
57	0x3e219c80	0.15782356
58	0xbe6396d7	-0.2222551
59	0x3f0e2962	0.55531895
60	0x3da7af44	0.08187726
61	0xbd177e00	-0.036985397
62	0x3deb9369	0.11502726
63	0xbe04f026	-0.12982234
64	0x3e0a1d8b	0.13487832
65	0x3e2ca2f8	0.16859043
66	0x3dbe4a1c	0.09291479
67	0x3e43f978	0.19138134
68	0xbe08d2e2	-0.13361695
69	0x3e193be4	0.14964253
70	0xbe442f72	-0.19158724
71	0xbbfc11fe	-0.0076925745
72	0xbe581f8e	-0.21105787
73	0xbc90305e	-0.017601188
74	0x3d894c00	0.06703949
75	0xbe2d5d81	-0.169302
76	0xb92118e3	-0.00015363428
77	0xbe0122d8	-0.12610948
78	0xbe9a5d23	-0.30149183
79	0x3b19ef70	0.0023488663
80	0xbd2f4bfb	-0.04279707
81	0xbc315dab	-0.010825555
82	0xbd59a67a	-0.05313728
83	0x3b81c623	0.0039603873
84	0x3e8735c8	0.2640822
85	0xbc7a9a78	-0.015295617
86	0xbd83034b	-0.063971125
87	0xbd8b21fe	-0.06793593
88	0x3d459ce8	0.04824534
89	0xbcb73b5d	-0.022367174
90	0xbe3a6854	-0.1820386
91	0xbbea41de	-0.0071489653
92	0xbcf8c35f	-0.030366598
93	0xbd3afe7a	-0.045652844
94	0xbd75123c	-0.059831843
95	0xbd47eea1	-0.04881156
96	0xbe01acf8	-0.12663639
97	0xbe61085d	-0.21975847
98	0x3f37ce5d	0.7179926
99	0x3db97d7c	0.09057137
100	0x3ec7bd9f	0.39011857
101	0xbd576f56	-0.052596413
102	0x3dc7856a	0.097422436
103	0xbe2f8b80	-0.17143059
104	0x3dc40782	0.095717445
105	0x3d9ff060	0.0780952
106	0x3d0a3f51	0.03375179
107	0x3e66f547	0.22554503
108	0x3d2efe95	0.042723257
109	0xbdc30c94	-0.095238835
110	0x3d0134e7	0.031544592
111	0x3e88374b	0.26604685
112	0xbe104617	-0.14089237
113	0x3d9d6891	0.0768596
114	0x3ccc5015	0.02494053
115	0x3d36920e	0.044572882
116	0xbe291a22	-0.16513875
117	0xbd81a109	-0.06329543
118	0x3dac708b	0.08419903
119	0xbd0aade0	-0.033857226
120	0xbe0b6eb4	-0.13616449
121	0xbd1dfdbd	-0.03857206
122	0xbd98bb9e	-0.0745766
123	0xbcde6dad	-0.027151907
124	0x3d65f418	0.05614099
125	0xbc0b08dc	-0.008485999
126	0xbe1e4c8f	-0.15458892
127	0xbe36571e	-0.1780667

fc2.weight f4 [128, 128]
0	0xbe9fdc22	-0.31222636
1	0xbeec2c1c	-0.46127403
2	0x3db80322	0.089849725
3	0x3d55e90b	0.0522242
4	0x3e191515	0.14949448
5	0xbe244acb	-0.16044156
6	0xbdce945c	-0.10086891
7	0x3ece0d65	0.40244594
8	0xbe1ef6b8	-0.15523803
9	0xbeb96e67	-0.36217043
10	0xbde02b69	-0.1094578
11	0xbe9fdc35	-0.31222692
12	0x3e4782d6	0.19483504
13	0x3e570835	0.20999224
14	0xbe8ab60f	-0.27092025
15	0xbed5bb1b	-0.41744313
16	0xbe2c7627	-0.16841947
17	0x3d83515d	0.06412003
18	0xbe8a5774	-0.27019846
19	0xbd26191c	-0.04055129
20	0xbedc72ee	-0.43056434
21	0xbe2a4f08	-0.1663171
22	0x3e605675	0.2190798
23	0x3e803987	0.2504389
24	0x3daeda38	0.08537716
25	0xbf0a2052	-0.53955567
26	0x3e6505bb	0.22365467
27	0xbe1d5b50	-0.15366864
28	0x3b9eb661	0.0048435186
29	0xbd73e562	-0.05954493
30	0xbdbba71d	-0.09162734
31	0x3db22d1f	0.087000124
32	0x3d214535	0.03937264
33	0x3f073e70	0.5282965
34	0x3d56b74b	0.052420896
35	0x3ede4194	0.43409407
36	0x3e85f13c	0.2616061
37	0xbe5abdc0	-0.21361446
38	0x3db92f67	0.090422444
39	0xbf21bb07	-0.63176006
40	0xbf0af309	-0.5427709
41	0x3dba7e53	0.09106126
42	0x3d81d9b6	0.06340353
43	0x3e8ae4d1	0.27127698
44	0x3d0d32cf	0.034472283
45	0xbef55195	-0.47913805
46	0x3dc37e22	0.09545542
47	0x3cfa276c	0.030536376
48	0x3e821544	0.2540685
49	0xbc5e0089	-0.013549932
50	0x3e474d61	0.19463111
51	0x3e7c9c74	0.24669057
52	0x3d88bb1e	0.06676315
53	0x3f09e94b	0.538716
54	0xbf1198cd	-0.5687378
55	0xbeb7dfaf	-0.35912845
56	0xbec6c934	-0.3882538
57	0x3e3a72ff	0.1820793
58	0x3e80c119	0.25147322
59	0xbf05941a	-0.5217911
60	0x3cfb4acb	0.030675313
61	0xbebe2030	-0.37133932
62	0x3d1c0596	0.038091265
63	0xbf5d17e2	-0.8636457
64	0x3e3f7333	0.18696289
65	0x3eab2bbf	0.33431813
66	0x3e1a01af	0.15039705
67	0x3dd947aa	0.10609372
68	0xbd746742	-0.059668787
69	0x3d406e54	0.046980217
70	0xbe2c620e	-0.1683428
71	0x3ce99c6e	0.028516974
72	0xbed84bc6	-0.4224531
73	0x3d825088	0.06363016
74	0xbef67586	-0.48136538
75	0xbed428ad	-0.41437283
76	0xbeb7a80b	-0.35870394
77	0x3e31ad62	0.17351297
78	0xbe1769ca	-0.14786449
79	0x3e589b55	0.21153004
80	0xbe72dacb	-0.23716275
81	0xbf06c248	-0.526402
82	0x3c9080a2	0.017639462
83	0xbef5a485	-0.4797708
84	0x3e56c384	0.20973021
85	0xbd547173	-0.051866006
86	0xbc38bb91	-0.011275188
87	0xbe382236	-0.179818
88	0xbee712f0	-0.45131636
89	0xbd9bd671	-0.07609261
90	0xbf1068cd	-0.56409913
91	0x3dd6e1b1	0.10492266
92	0xbec98a51	-0.3936334
93	0xbc7f3751	-0.015577153
94	0x3e19d9b4	0.15024453
95	0xbea66d61	-0.32505324
96	0x3ecd215d	0.40064517
97	0xbeab3bac	-0.33443964
98	0xbe89208a	-0.26782638
99	0xbed2aadd	-0.41145983
100	0xbe9a3583	-0.3011895
101	0xbecfc1d1	-0.40577558
102	0x3dac9356	0.084265396
103	0xbcb5207c	-0.022110216
104	0x3e752cd4	0.23942882
105	0x3d584b2a	0.052806057
106	0x3dcb8f3b	0.099394284
107	0x3d453ebe	0.04815554
108	0x3d422bf2	0.04740519
109	0xbe607834	-0.21920854
110	0xbd8e4eee	-0.069486484
111	0x3dd136da	0.1021554
112	0x3d37f25c	0.044908866
113	0xbdea0d37	-0.11428302
114	0xbe4c30b6	-0.19940457
115	0xbd491c27	-0.049099114
116	0x3e25cdd5	0.161918
117	0x3edb0756	0.42779034
118	0x3e4ac16e	0.1980035
119	0x3efe9d99	0.49729612
120	0xbf31c00b	-0.6943366
121	0xbe5a0f72	-0.21294954
122	0x3ed8bda7	0.42332193
123	0x3d417b0b	0.047236484
124	0xbe6fd053	-0.23419313
125	0x3ed6ac27	0.41928217
126	0xbe8f1ebd	-0.2795314
127	0xbe6a631f	-0.22889374
128	0xbdcb5d38	-0.099298894
129	0xbc2cf007	-0.010555274
130	0xbda4af6f	-0.08041274
131	0x3e938058	0.28808856
132	0xbe926909	-0.2859576
133	0x3e8b4320	0.2719965
134	0x3d462f02	0.048384674
135	0x3ed9099b	0.4239014
136	0x3de7b2a7	0.11313372
137	0x3ef62d47	0.4808142
138	0x3d7c808d	0.061646033
139	0xbe093049	-0.13397326
140	0x3d660126	0.05615344
141	0x3eaaa0d4	0.33325827
142	0x3ca66688	0.020312563
143	0xbede5e9c	-0.43431556
144	0x3d625691	0.055258337
145	0x3d2aa167	0.04165783
146	0x3efbe35f	0.49196908
147	0x3d4d85d2	0.05017645
148	0xbb173bd9	-0.0023076443
149	0xbee065fe	-0.43827814
150	0xbe16da5b	-0.14731734
151	0xbdde4fcc	-0.10855064
152	0xbd442b76	-0.04789301
153	0x3db24017	0.087036304
154	0xbdae205e	-0.08502267
155	0xbea20542	-0.31644636
156	0x3edded6b	0.43345198
157	0x3e55ffed	0.20898409
158	0xbf024e1d	-0.5090044
159	0xbdbfb076	-0.09359829
160	0x3f2bd246	0.67117727
161	0x3eb77e52	0.35838562
162	0x3e22811b	0.15869562
163	0xbe222fa7	-0.1583849
164	0x3e99812d	0.29981366
165	0x3e5046c9	0.20339502
166	0xbe6771b5	-0.2260197
167	0xbf12774f	-0.572133
168	0x3ea940f7	0.33057377
169	0x3ed9bb7f	0.4252586
170	0xbcb28623	-0.021792477
171	0xbdead895	-0.11467091
172	0x3e5cebfa	0.21574393
173	0x3d1ee8e8	0.038796335
174	0x3e65f2e2	0.22455934
175	0x3eca9440	0.3956623
176	0x3e05b0e2	0.13055757
177	0x3edea841	0.43487743
178	0xbbb14d6b	-0.0054108403
179	0x3d50f0a2	0.051010735
180	0xbdfa581a	-0.12223835
181	0xbee6a845	-0.45050254
182	0x39a01fca	0.00030541263
183	0xbf4d6cc3	-0.8024408
184	0xbd5ecbb2	-0.054393478
185	0x3ecc0b52	0.39852387
186	0xbec02fe0	-0.37536526
187	0xbebb64c0	-0.36600304
188	0x3f1ea491	0.6196986
189	0xbea00501	-0.31253818
190	0x3e747334	0.23872072
191	0xbe6ffdd8	-0.23436677
192	0x3e4a21a0	0.1973939
193	0x3d10d9c3	0.035363924
194	0x3e34d209	0.17658247
195	0x3d00d2ce	0.03145104
196	0x3d956c73	0.07296076
197	0x3dfa0ee3	0.12209871
198	0x3ef448fa	0.47711927
199	0xbee992b0	-0.45619726
200	0x3e44af31	0.19207455
201	0xbe717f15	-0.23583634
202	0xbe4b1d7d	-0.19835468
203	0x3f15e5bf	0.5855369
204	0x3f081e9c	0.53171706
205	0xbe9619b6	-0.2931649
206	0xbc95235f	-0.018205343
207	0x3e5e4f6f	0.21709989
208	0x3ef9001d	0.486329
209	0x3e5251b9	0.20538987
210	0x3f15c79b	0.585077
211	0x3db66ad8	0.089070976
212	0xbe6927c9	-0.22769083
213	0xbea8a83d	-0.32940856
214	0x3d947b4b	0.07250079
215	0xbef5bbd2	-0.47994858
216	0xbefc5bb8	-0.49288726
217	0x3ed45074	0.4146763
218	0x3d554ffe	0.05207824
219	0x3ed10ce7	0.40830156
220	0x3d0ea2a0	0.03482306
221	0xbe56c2bd	-0.20972724
222	0xbe532be4	-0.20622212
223	0x3e8a824e	0.2705254
224	0xbea01299	-0.3126419
225	0xbd63a7b5	-0.05557986
226	0x3e27a338	0.16370857
227	0xbdd2cc11	-0.10292829
228	0x3eef3281	0.4671822
229	0x3f131177	0.57448524
230	0xbe03e41f	-0.1287999
231	0xbed8703e	-0.42273134
232	0x3ed0bde2	0.4076987
233	0xbe1a7fa5	-0.15087755
234	0x3e430c91	0.19047762
235	0x3f12b8fb	0.5731351
236	0x3df366a5	0.11884812
237	0xbb4e51d4	-0.0031481879
238	0x3e96a725	0.29424396
239	0xbd99c885	-0.07508949
240	0x3f66de92	0.90183365
241	0xbe66a09e	-0.22522208
242	0x3dc8d3d3	0.09806027
243	0x3e8a8e3e	0.27061647
244	0xbebd955e	-0.3702802
245	0x3e0b36c2	0.13595107
246	0x3e94e60a	0.29081756
247	0xbb05dd45	-0.0020426076
248	0xbe2e312f	-0.1701095
249	0x3ec2e970	0.38068724
250	0x3d4985f3	0.04920001
251	0xbdfb1626	-0.12260084
252	0x3ed22a57	0.41047928
253	0x3e954fed	0.2916254
254	0x3f3c1f8d	0.7348564
255	0x3d12c6bc	0.03583406

fc2.bias f4 [128]
0	0xbd5cc4a8	-0.053898484
1	0xbd228e49	-0.039686475
2	0xbe41d855	-0.1893018
3	0xbea032d1	-0.3128877
4	0xbc9c8e84	-0.019110925
5	0xbe1fd5fe	-0.15608975
6	0x3d0d3d9b	0.03448258
7	0xbe3ea8e9	-0.18619122
8	0xbe8a9a66	-0.27070922
9	0xbd85926a	-0.06522067
10	0xbb06cb9f	-0.0020568145
11	0x3ca32355	0.019914309
12	0xbe55ea3b	-0.20890133
13	0xbe99a00b	-0.30004916
14	0x3ded1069	0.115753956
15	0x3d053fc0	0.0325315
16	0x3ea01524	0.3126613
17	0x3c25207f	0.010078548
18	0x3e19971f	0.14999054
19	0xbd81ae4b	-0.06332072
20	0x3cd9afb4	0.02657304
21	0xbdf390ac	-0.11892828
22	0xbd7a3518	-0.06108579
23	0xbdcd4506	-0.10022931
24	0xbe946ca5	-0.2898914
25	0xbda746e9	-0.08167822
26	0x3c70b6cc	0.01469202
27	0x3d98458d	0.07435141
28	0x3d94c5c6	0.07264285
29	0x3db9d854	0.090744644
30	0xbe8b1333	-0.27163085
31	0xbe16dfad	-0.14733763
32	0x3ca26145	0.019821772
33	0xbd889265	-0.066685475
34	0xbde6c985	-0.112689056
35	0xbe1fbe98	-0.1560005
36	0xbe69dfce	-0.22839281
37	0x3ea084dd	0.31351367
38	0xbe88cef1	-0.26720384
39	0xbe8281f4	-0.2548977
40	0x3e3e6314	0.18592483
41	0x3e57877b	0.21047775
42	0xbe46c411	-0.19410731
43	0xbec4e297	-0.38454124
44	0xbe8f9abd	-0.28047743
45	0x3e229fba	0.15881243
46	0x3e0e434e	0.13892862
47	0x3da2c404	0.07947543
48	0xbe83dd4c	-0.25754774
49	0x3c39adfb	0.011332984
50	0xbe21107a	-0.15728942
51	0xbca10b42	-0.019658688
52	0xbe8281fc	-0.25489795
53	0xbe040f8b	-0.12896554
54	0x3e6a555f	0.22884129
55	0xbe80ceb9	-0.25157717
56	0x3e989e27	0.2980816
57	0x3dbe6606	0.09296803
58	0xbdbebe59	-0.0931365
59	0xbe8f5a75	-0.279987
60	0xbcfa98d6	-0.030590456
61	0x3c7929b2	0.015207695
62	0xbd8b87d8	-0.068130195
63	0x3d800b32	0.06252135
64	0xbe89b480	-0.26895523
65	0x3d10e6f9	0.035376523
66	0x3dd1cc78	0.102440774
67	0xbdc8c5d2	-0.09803356
68	0x3d5328db	0.051552635
69	0xbe9a24bc	-0.3010615
70	0x3e8ea0b6	0.27856988
71	0xbb20b1ff	-0.0024520156
72	0x3e79a0da	0.24377766
73	0x3c8e2565	0.017351815
74	0x3e4ca5f1	0.19985177
75	0x3eb54ac3	0.354086
76	0xbc96db07	-0.018414987
77	0xbd032323	-0.03201593
78	0xbe0ee53d	-0.13954635
79	0xbe3d86e2	-0.18508485
80	0x3d5dab60	0.054118514
81	0x3e0e5c8c	0.13902491
82	0x3e35119a	0.17682496
83	0xbcae7827	-0.021297527
84	0xbdc39546	-0.09549956
85	0xbcb54bc0	-0.022130847
86	0xbe6ddcb8	-0.23228729
87	0xbdde5d4b	-0.10857638
88	0xbe8c4fa2	-0.27404505
89	0xbeceebe5	-0.40414348
90	0x3e7e4344	0.24830347
91	0x3dcf153f	0.10111474
92	0xbd6e1a6f	-0.058130678
93	0xbd279ec5	-0.0409229
94	0xbe7066ec	-0.23476762
95	0x3d96c774	0.073622614
96	0xbe886fab	-0.26647696
97	0xbe11dd62	-0.14244607
98	0x3dcb0d72	0.09914674
99	0xbcb5f63a	-0.022212137
100	0xbbffa9c6	-0.007802221
101	0x3e8584e5	0.26077953
102	0x3cb8a306	0.022538673
103	0xbd562746	-0.052283548
104	0x3d976344	0.0739198
105	0xbea2add8	-0.31773257
106	0xbe117a5e	-0.14206836
107	0xbe561b8d	-0.20908947
108	0xbd96c822	-0.07362391
109	0x3d63d1a2	0.055619843
110	0x3d9918b1	0.07475413
111	0x3d1500ae	0.0363776
112	0x3e416ecb	0.1888992
113	0xbe35093c	-0.17679304
114	0xbb6adade	-0.0035836021
115	0x3d3a9e4f	0.04556113
116	0xbe4c2822	-0.19937184
117	0xbe0e1996	-0.13876948
118	0x3cc21528	0.023691729
119	0xbe48836b	-0.19581382
120	0x3dbfc08d	0.09362898
121	0x3e1d7309	0.15375914
122	0x3c87c7b6	0.016574722
123	0xbe4f543e	-0.2024698
124	0x3e50677d	0.20351978
125	0xbe9a25ea	-0.3010705
126	0xbb260aab	-0.0025335948
127	0x3df14ea0	0.11782575

out.weight f4 [5, 128]
0	0x3f375840	0.71619034
1	0xbecd1bd3	-0.4006029
2	0xbeba2d0e	-0.363625
3	0x3d9b5528	0.07584602
4	0xbee91bbb	-0.4552897
5	0xbebcafb4	-0.368528
6	0xbd5dad25	-0.0541202
7	0x3ebfc840	0.37457466
8	0x3f346a6f	0.70474905
9	0x3ec8a1ee	0.39186043
10	0x3f12f185	0.5739978
11	0xbee93af7	-0.455528
12	0x3d834bda	0.06410952
13	0x3dcb8ae4	0.09938601
14	0xbf083646	-0.53207815
15	0xbf13d293	-0.57743186
16	0xbef003b4	-0.46877825
17	0x3f0e7a54	0.5565541
18	0x3f245257	0.6418814
19	0x3f05bed8	0.5224433
20	0xbe56b92e	-0.20969078
21	0x3e4b9c79	0.19883908
22	0xbeab37a5	-0.3344089
23	0x3f012e9c	0.50461745
24	0x3ef3802d	0.47558728
25	0x3ef3f7fc	0.47650135
26	0xbece43e2	-0.40286165
27	0xbe97e081	-0.2966347
28	0x3f6b6431	0.91949755
29	0x3dd0f07d	0.102021195
30	0x3e86abb3	0.2630287
31	0x3eb62d72	0.35581547
32	0x3f12d32b	0.57353467
33	0x3ee307f7	0.44342014
34	0x3ec05847	0.3756735
35	0x3e7631cc	0.24042434
36	0x3e8e3623	0.27775678
37	0xbec9c1fc	-0.3940581
38	0x3e44791e	0.19186828
39	0x3e7dc50e	0.24782202
40	0xbe3035c5	-0.17208011
41	0xbe970d1a	-0.29502183
42	0x3e890018	0.26757884
43	0x3eb75155	0.3580424
44	0x3ea065f2	0.31327778
45	0xbe1c330c	-0.15253848
46	0xbedaa4fb	-0.42703995
47	0xbea28197	-0.31739494
48	0x3ea599f3	0.32344016
49	0x3f18d05d	0.5969294
50	0x3ee2086e	0.44147056
51	0xbeb21ce2	-0.3478766
52	0xbeed10a9	-0.46301773
53	0x3ef8d320	0.48598576
54	0xbe74856e	-0.23879024
55	0x3ea22e39	0.3167589
56	0x3f204d76	0.62618196
57	0xbea93602	-0.33049017
58	0x3f065ec6	0.5248836
59	0x3ea01604	0.31266797
60	0xbe87a864	-0.2649566
61	0x3f176f2d	0.59154016
62	0x3f0d4a9b	0.55191964
63	0xbdd4ec3a	-0.10396619
64	0x3ef92799	0.48663023
65	0xbd9bc623	-0.07606151
66	0xbeb87ad5	-0.36031213
67	0xbea26755	-0.3171946
68	0x3f0fda8b	0.56192845
69	0x3e605af3	0.21909694
70	0x3ec2c4f7	0.38040897
71	0x3f034ba6	0.51287305
72	0x3f313ae9	0.69230515
73	0x3f21572e	0.6302365
74	0x3ef96244	0.48707783
75	0xbd2c7399	-0.04210243
76	0xbe74b80d	-0.23898335
77	0x3f19cba9	0.60076386
78	0x3e4e69c4	0.20157534
79	0x3eea4808	0.4575808
80	0xbe7bd59f	-0.24593209
81	0x3f292a39	0.6608005
82	0x3f156038	0.58349943
83	0x3ed4ca88	0.4156077
84	0x3eb7eac9	0.35921314
85	0xbd794fbe	-0.060867064
86	0x3ec67c6e	0.38766807
87	0x3e9445f0	0.28959608
88	0x3e8061ab	0.25074515
89	0x3e7937a7	0.24337636
90	0xbe758d90	-0.23979783
91	0x3eb2b057	0.34900162
92	0x3f1b70eb	0.60719174
93	0xbefa8afc	-0.48934162
94	0x3e43d7e5	0.19125326
95	0xbea971fb	-0.33094773
96	0x3cf1dbfc	0.029523842
97	0x3f00a39b	0.5024964
98	0xbf066848	-0.5250287
99	0x3f11960b	0.5686957
100	0x3f3fc725	0.74913245
101	0x3f0860f0	0.53272915
102	0xbed07b04	-0.40718853
103	0xbe95abaf	-0.29232547
104	0xbf44a203	-0.7680971
105	0xbf183e41	-0.5946999
106	0xbe4eb6a4	-0.2018686
107	0x3e9fa7f4	0.31182826
108	0xbe520ce8	-0.20512736
109	0xbf09d338	-0.5383792
110	0xbe7f3b34	-0.24924928
111	0x3eb23826	0.34808463
112	0x3ee33c0f	0.4438176
113	0xbf0468d3	-0.5172245
114	0xbe0f3c5e	-0.13987872
115	0xbea309c4	-0.31843388
116	0x3ed67a40	0.41890144
117	0xbee78d7b	-0.4522513
118	0xbeaef665	-0.3417236
119	0xbea9cd2e	-0.33164352
120	0xbe433094	-0.190615
121	0xbe23d786	-0.16000184
122	0xbe3e5d8f	-0.18590377
123	0x3edce9db	0.43147168
124	0x3f265eeb	0.64988583
125	0x3ef15703	0.47136697
126	0x3e8495dc	0.25895584
127	0x3f80811c	1.0039401
128	0x3ede21c2	0.4338513
129	0xbed977a0	-0.4247408
130	0xbe4d3eb6	-0.20043454
131	0x3db131b2	0.08652057
132	0xbf4dfea1	-0.8046666
133	0xbe9cd6a3	-0.30632505
134	0xbeacef9d	-0.3377656
135	0x3ea9bd77	0.33152363
136	0x3ec2ac17	0.3802192
137	0x3ebb846d	0.3662447
138	0x3ef5d822	0.4801646
139	0xbe83164c	-0.2560295
140	0x3ea75736	0.32683724
141	0xbd95d9a7	-0.073169045
142	0xbee9fe8b	-0.45702013
143	0xbf197df2	-0.599578
144	0xbec45f19	-0.38353804
145	0x3efb86ba	0.49126226
146	0x3ea0f312	0.31435448
147	0x3e30e78e	0.17275831
148	0xbeb2eda9	-0.34946945
149	0x3ebeb3d3	0.3724657
150	0xbe550e93	-0.20806341
151	0x3e988fc6	0.2979719
152	0x3ef32048	0.47485566
153	0x3ed93131	0.42420343
154	0xbeff73ed	-0.49893132
155	0xbf063f32	-0.5244018
156	0x3eb336f6	0.3500287
157	0x3e5b3d10	0.21410012
158	0x3e83a7c5	0.25713935
159	0x3ea5121e	0.32240385
160	0x3f0b95d5	0.545255
161	0x3ebcc434	0.3686844
162	0x3ed3813f	0.41309544
163	0x3e9e6117	0.3093345
164	0x3e9e76f8	0.3095014
165	0xbe9008be	-0.2813167
166	0x3e32ca6d	0.17460032
167	0x3f7a69cc	0.97817683
168	0xbe17e5ec	-0.14833802
169	0xbec78efa	-0.3897627
170	0x3e23b16d	0.15985651
171	0x3e61ef40	0.22063923
172	0x3eb3ac14	0.35092223
173	0x3db665a8	0.08906108
174	0xbe879048	-0.26477265
175	0xbe310224	-0.17285973
176	0x3e810ded	0.25205937
177	0x3ee18412	0.44046074
178	0x3ec71b20	0.38887882
179	0xbe9b0265	-0.30275264
180	0xbec7da01	-0.3903351
181	0x3ece3777	0.4027669
182	0xbed84452	-0.42239624
183	0x3ea5f8ef	0.32416484
184	0x3eb5d047	0.35510466
185	0xbf02c644	-0.5108378
186	0x3e99828f	0.2998242
187	0x3e839fb9	0.25707796
188	0xbf0a01e4	-0.53909135
189	0x3e5a605f	0.21325825
190	0x3f0d8f50	0.552968
191	0xbe9f5c34	-0.31125033
192	0x3f007902	0.50184643
193	0xbdd02470	-0.101632
194	0xbec41326	-0.3829586
195	0xbe9c126b	-0.30482802
196	0x3edb6fb9	0.42858675
197	0x3e0bce46	0.13652906
198	0x3ef16b76	0.471523
199	0x3f3c77ab	0.736201
200	0x3ee86212	0.45387322
201	0x3f3da069	0.7407289
202	0x3ea88645	0.3291494
203	0x3bcc61e1	0.006237254
204	0xbec9545e	-0.3932218
205	0x3f0c3a59	0.5477653
206	0x3c9fc85c	0.019504718
207	0x3ebc4f0c	0.36779058
208	0xbec409eb	-0.38288817
209	0x3ef9a900	0.4876175
210	0x3f06d0a3	0.52662104
211	0x3eee901d	0.46594325
212	0x3eaaf91a	0.33393174
213	0x3d82d3f6	0.063880846
214	0x3e9a8c2a	0.30185062
215	0x3e317f7d	0.17333789
216	0x3df3bdd6	0.11901443
217	0x3daab38d	0.08335028
218	0xbeb24eec	-0.34825838
219	0x3ea45438	0.32095504
220	0x3eb79236	0.35853738
221	0xbf41d153	-0.7571003
222	0x3e9baa6c	0.3040346
223	0xbe911159	-0.28333548
224	0xbebe7376	-0.37197465
225	0x3eb7a3e0	0.35867214
226	0xbefbf239	-0.4920824
227	0x3f105543	0.563801
228	0x3e26bd3f	0.16283129
229	0x3e373f95	0.17895348
230	0xbef1aed2	-0.4720369
231	0xbefe1b5f	-0.49630257
232	0xbf11772e	-0.5682248
233	0xbeb04412	-0.34426934
234	0xbe9e61c8	-0.30933976
235	0x3e7057d2	0.23471001
236	0xbeac1d67	-0.33616182
237	0xbf12be30	-0.57321453
238	0xbdb8df05	-0.090269126
239	0x3ecd69d7	0.40119812
240	0x3e8e9f13	0.2785574
241	0xbea252d1	-0.3170381
242	0xbea94fa3	-0.3306857
243	0xbebf80fb	-0.37403092
244	0x3eea9749	0.45818546
245	0xbeea5f9e	-0.45776075
246	0xbe8ac495	-0.27103105
247	0xbe1dc7cc	-0.15408248
248	0x3daaea24	0.0834544
249	0xbe9c1448	-0.30484223
250	0xbe9c7b61	-0.3056288
251	0x3e8bd243	0.27308854
252	0x3f092e42	0.5358621
253	0x3e889c64	0.26681817
254	0x3e97bc39	0.2963579
255	0x3e4beded	0.1991498

out.bias f4 [5]
0	0xbf9ae659	-1.2101547
1	0x3dfac1c7	0.12243991
2	0x3f74f733	0.95689696
3	0x3ed54667	0.41655275
4	0xbfc0b86c	-1.5056281

exp_avg_sq f4 [128, 28]
0	0x43ff9883	511.1915
1	0x43983160	304.38574
2	0x42a632e5	83.0994
3	0x4231bab6	44.432335
4	0x41f5cb55	30.724283
5	0x41d311fc	26.383781
6	0x41fc078b	31.503683
7	0x42083125	34.047993
8	0x422a0d5c	42.513046
9	0x4251ad6f	52.41937
10	0x425bb2c6	54.924583
11	0x4216db74	37.71431
12	0x4205218c	33.28276
13	0x421d3649	39.303013
14	0x42680216	58.002037
15	0x42e9d71b	116.92013
16	0x43bd2a67	378.33127
17	0x43cd289c	410.31726
18	0x40a83eae	5.2576513
19	0x3fe9cf04	1.8266301
20	0x40067b67	2.101282
21	0x40788d61	3.883629
22	0x4222a5c5	40.661884
23	0x43ff5ffb	510.74985
24	0x4254ff09	53.249058
25	0x44fe4dc7	2034.4305
26	0x3fae5e1d	1.3622471
27	0x4688ff43	17535.63
28	0x431a13dd	154.07759
29	0x42cffaeb	103.990074
30	0x428a348c	69.10263
31	0x427687f5	61.63277
32	0x4222cfe4	40.70302
33	0x421a76e0	38.61609
34	0x43351578	181.08386
35	0x42c6f6b7	99.481865
36	0x427d31a3	63.298473
37	0x433ae5f5	186.89827
38	0x43f2c0aa	485.5052
39	0x4360f11a	224.9418
40	0x42e88e48	116.27789
41	0x4298f3a9	76.4759
42	0x426f086f	59.758236
43	0x4282e52d	65.44761
44	0x430b5443	139.32915
45	0x438ed394	285.65295
46	0x42932c1e	73.58617
47	0x42d763f9	107.69526
48	0x436000ee	224.00363
49	0x43857d1e	266.97748
50	0x43b38085	359.00406
51	0x4319f96e	153.97433
52	0x429f152d	79.54136
53	0x44a7230f	1337.0956
54	0x40869c47	4.206577
55	0x4581c3d9	4152.481
56	0x4345c03a	197.75089
57	0x4394b166	297.38593
58	0x44753d32	980.9562
59	0x46033b67	8398.851
60	0x46a0f917	20604.545
61	0x45db6364	7020.424
62	0x4517b766	2427.4624
63	0x44b41247	1440.5712
64	0x4490a455	1157.1354
65	0x4537bb42	2939.7036
66	0x46186551	9753.329
67	0x461bd73e	9973.811
68	0x45897139	4398.153
69	0x453da28e	3034.1597
70	0x45159aa9	2393.6663
71	0x44efed48	1919.415
72	0x44b21d9d	1424.9254
73	0x445a7448	873.8169
74	0x443e3bcb	760.93427
75	0x448ab2c4	1109.5864
76	0x4536091c	2912.5693
77	0x4503b2d5	2107.177
78	0x43b3cae0	359.58496
79	0x434004ef	192.01927
80	0x458c32ce	4486.3506
81	0x47b8c5db	94603.71
82	0x42c66ad2	99.20863
83	0x493fbeeb	785390.7
84	0x3c537146	0.012905424
85	0x3c3cb74b	0.01151831
86	0x3c2e1e92	0.010627406
87	0x3dd46863	0.10371473
88	0x3de08d1c	0.109644145
89	0x3d5d580e	0.054039054
90	0x3d8ab658	0.067730606
91	0x3f07ab35	0.52995616
92	0x4028bbc9	2.6364615
93	0x401c01ab	2.4376018
94	0x3f3d6c37	0.7399325
95	0x3eaf53da	0.3424366
96	0x3e74f80e	0.2392275
97	0x3e3ff7c5	0.1874686
98	0x3e3d25c8	0.18471444
99	0x3e5408a8	0.20706427
100	0x3e988f4b	0.29796824
101	0x3f006b20	0.5016346
102	0x3fc7c933	1.5608276
103	0x407b3e6e	3.9256854
104	0x3fa0e4e5	1.2569853
105	0x3f2bfc82	0.6718217
106	0x3f2a7919	0.6659103
107	0x3c918440	0.017763257
108	0x40009816	2.0092826
109	0x4012f029	2.2959082
110	0x3c2e22df	0.010628431
111	0x4000a9fe	2.0103755
112	0x42d0abbc	104.33542
113	0x423113fd	44.26952
114	0x4287b887	67.860405
115	0x43b19a71	355.20657
116	0x4448637f	801.5546
117	0x43836a78	262.8318
118	0x42f89f75	124.31144
119	0x42cb91d0	101.78479
120	0x43039696	131.58823
121	0x43f13dff	482.48434
122	0x44910540	1160.1641
123	0x446a6334	937.55005
124	0x43bbb96c	375.4486
125	0x436e3820	238.21924
126	0x43407319	192.4496
127	0x42ff9743	127.79543
128	0x42bc9264	94.28592
129	0x42aa0d9b	85.02657
130	0x42e79e42	115.8091
131	0x4343897c	195.53705
132	0x43eb9b2a	471.21222
133	0x443fe848	767.6294
134	0x44096651	549.5987
135	0x42d03e34	104.12149
136	0x433013dc	176.07758
137	0x45ac22cc	5508.3496
138	0x41308134	11.031544
139	0x46cfffb8	26623.86
140	0x421f9d68	39.903717
141	0x421c90cd	39.141407
142	0x42986aa3	76.208275
143	0x441c27eb	624.6237
144	0x453824fd	2946.3118
145	0x4485ac66	1069.3875
146	0x442afc40	683.9414
147	0x43cb75c9	406.9202
148	0x439b2130	310.25928
149	0x43c6f89b	397.94223
150	0x4502acf6	2090.81
151	0x44db1b3f	1752.8514
152	0x4434b7b5	722.8704
153	0x43ea469f	468.55173
154	0x43c4febb	393.99008
155	0x43d09e05	417.23453
156	0x440b712c	557.7683
157	0x44ab41a3	1370.0511
158	0x440e2844	568.62915
159	0x43eea445	477.28336
160	0x445ad5e9	875.34235
161	0x4459dd19	871.45465
162	0x4408ef88	547.7427
163	0x421e0ef6	39.51461
164	0x4440f5d1	771.8409
165	0x4684d73e	17003.621
166	0x4188b9b7	17.090681
167	0x47d42aa9	108629.32
168	0x431ea7b1	158.65504
169	0x43753521	245.20753
170	0x443d62a3	757.5412
171	0x45a0b1ef	5142.2417
172	0x46a0d61f	20587.06
173	0x45a58cb8	5297.59
174	0x452b5eda	2741.9282
175	0x4505733c	2135.2021
176	0x45017780	2071.4688
177	0x44c6cafc	1590.3433
178	0x45c79e69	6387.8013
179	0x45ee2449	7620.5356
180	0x45638a8e	3640.6597
181	0x451d5649	2517.3928
182	0x450db202	2267.1255
183	0x45170aee	2416.683
184	0x453e157b	3041.3425
185	0x461d0712	10049.768
186	0x459187ad	4656.9595
187	0x440a656a	553.5846
188	0x43662ade	230.16745
189	0x431b8425	155.51619
190	0x42f9a5f4	124.82413
191	0x431d1f4b	157.12224
192	0x4595b965	4791.1743
193	0x47d48b6f	108822.87
194	0x42ce93bf	103.28857
195	0x493ef4e4	782158.25
196	0x41896548	17.174454
197	0x41e8ce94	29.100868
198	0x42ddee2e	110.965195
199	0x43e1d154	451.63538
200	0x4535d34e	2909.2065
201	0x445ec8f3	891.13983
202	0x43a66c3a	332.84552
203	0x43503033	208.18828
204	0x432a6c52	170.42313
205	0x430c9fa5	140.62361
206	0x435fc19a	223.75626
207	0x44a4ae14	1317.44
208	0x4414315c	592.77124
209	0x44066008	537.5005
210	0x4404bf1c	530.9861
211	0x438ce640	281.79883
212	0x43353ba3	181.23296
213	0x438777e9	270.9368
214	0x431de64e	157.89963
215	0x418ec503	17.846197
216	0x414f9c42	12.975649
217	0x411c5e58	9.773033
218	0x413d9bd6	11.850546
219	0x41799b6b	15.600444
220	0x441fedc9	639.7154
221	0x4643bf38	12527.805
222	0x411534f8	9.325432
223	0x47f6b99a	126323.2
224	0x44db747b	1755.64
225	0x44dfd42d	1790.6305
226	0x44b8650b	1475.1576
227	0x446e6555	953.5833
228	0x441dac1a	630.6891
229	0x44175edd	605.48224
230	0x4395dd54	299.72913
231	0x438e0ee8	284.11646
232	0x43c7382f	398.43893
233	0x443a6b70	745.6787
234	0x44912cca	1161.3997
235	0x44e0e7e3	1799.2465
236	0x44d71a18	1720.8154
237	0x4428d1ec	675.28
238	0x43b27de6	356.98358
239	0x43442bdd	196.17134
240	0x431d9692	157.58817
241	0x4310b24f	144.69652
242	0x43302649	176.14955
243	0x43478a9b	199.54143
244	0x43860702	268.05475
245	0x43d2f609	421.92215
246	0x44581dc3	864.465
247	0x44dbaa90	1757.3301
248	0x4311944a	145.57925
249	0x461250a5	9364.161
250	0x420cb563	35.177135
251	0x47cc25fe	104523.984
252	0x2125ba44	5.6150695e-19
253	0x20f0d925	4.0801276e-19
254	0x20d4a9d1	3.6026572e-19
255	0x20b0a3dc	2.9923993e-19

exp_avg f4 [128, 28]
0	0x00000004	6e-45
1	0x00000004	6e-45
2	0x00000004	6e-45
3	0x00000004	6e-45
4	0x00000004	6e-45
5	0x00000004	6e-45
6	0x00000004	6e-45
7	0x00000004	6e-45
8	0x00000004	6e-45
9	0x00000004	6e-45
10	0x00000004	6e-45
11	0x00000004	6e-45
12	0x00000004	6e-45
13	0x00000004	6e-45
14	0x00000004	6e-45
15	0x00000004	6e-45
16	0x00000004	6e-45
17	0x00000004	6e-45
18	0x00000004	6e-45
19	0x00000004	6e-45
20	0x00000004	6e-45
21	0x00000004	6e-45
22	0x00000004	6e-45
23	0x00000004	6e-45
24	0x00000004	6e-45
25	0x00000004	6e-45
26	0x00000004	6e-45
27	0x00000004	6e-45
28	0xbfef3bd1	-1.869013
29	0xbfc54a49	-1.5413295
30	0xbfcb9420	-1.5904579
31	0xbfde1868	-1.7351198
32	0xbf63de9d	-0.89011556
33	0xbf1966f0	-0.59922695
34	0x3d51e642	0.05124498
35	0xbd8488e6	-0.06471424
36	0xbeaf2a3f	-0.3421192
37	0xbfb394d8	-1.4029799
38	0xc01ce5b6	-2.4515204
39	0xc031408b	-2.7695644
40	0xbf952f95	-1.1655146
41	0xbd545333	-0.051837157
42	0xbd7eca50	-0.06220466
43	0xbee9a674	-0.45634806
44	0xbf8037c2	-1.0017016
45	0xbf975f62	-1.1825984
46	0xbfb51f80	-1.4150238
47	0xbf729aa7	-0.9476723
48	0xbf7b439a	-0.98150027
49	0xbfc34d4a	-1.5257962
50	0xc00325fd	-2.0491936
51	0xbff0948c	-1.8795333
52	0x3f8b5667	1.0885743
53	0xc042b8f2	-3.0425382
54	0xbe22cf4a	-0.15899387
55	0xc17566e2	-15.337618
56	0x399e6469	0.0003021092
57	0x3962398b	0.00021574476
58	0x393654c2	0.00017388447
59	0x39302b91	0.00016800898
60	0x3922b329	0.00015516266
61	0x3923e515	0.00015630231
62	0x39357d9e	0.00017308301
63	0x395ac0ec	0.00020861969
64	0x39aaf219	0.00032605304
65	0x3a8018cd	0.0009773016
66	0x3b13b016	0.0022535375
67	0x3a99cfc1	0.0011734889
68	0x3a3384ee	0.0006848116
69	0x3a070dcd	0.0005151898
70	0x39e61a0f	0.00043888434
71	0x39d47ccf	0.0004052878
72	0x39d6ed44	0.00040994037
73	0x39e958f7	0.00044507507
74	0x3a09da18	0.0005258634
75	0x3a3cf65c	0.0007208341
76	0x3aa3620a	0.0012465131
77	0x3ac62d3f	0.0015119686
78	0x3a334c95	0.000683972
79	0x399e99fe	0.00030250842
80	0x39c69112	0.0003787359
81	0x3b31510f	0.0027056371
82	0x391584da	0.00014259238
83	0x3b2d58b6	0.002645058
84	0x80000004	-6e-45
85	0x80000004	-6e-45
86	0x80000004	-6e-45
87	0x80000004	-6e-45
88	0x80000004	-6e-45
89	0x80000004	-6e-45
90	0x80000004	-6e-45
91	0x80000004	-6e-45
92	0x80000004	-6e-45
93	0x80000004	-6e-45
94	0x80000004	-6e-45
95	0x80000004	-6e-45
96	0x80000004	-6e-45
97	0x80000004	-6e-45
98	0x80000004	-6e-45
99	0x80000004	-6e-45
100	0x80000004	-6e-45
101	0x80000004	-6e-45
102	0x80000004	-6e-45
103	0x80000004	-6e-45
104	0x80000004	-6e-45
105	0x80000004	-6e-45
106	0x00000004	6e-45
107	0x80000004	-6e-45
108	0x80000004	-6e-45
109	0x80000004	-6e-45
110	0x80000004	-6e-45
111	0x80000004	-6e-45
112	0x3cc8f79d	0.024532134
113	0xbdf0e833	-0.117630385
114	0x3e923455	0.2855555
115	0x3f2c1a11	0.67227274
116	0x3dc2fc5b	0.09520789
117	0x3f4614ac	0.7737529
118	0x3ec3fcfd	0.38278952
119	0x3cda8121	0.026672902
120	0xbf99a77a	-1.2004235
121	0xbf0f1981	-0.5589829
122	0x40258274	2.5860872
123	0xbe8154b3	-0.25259933
124	0xbf06317d	-0.52419263
125	0xbfb126d5	-1.3839976
126	0xbfb2f61b	-1.3981355
127	0xbb303eb2	-0.0026892838
128	0x3eba9cfc	0.36447895
129	0x3ee5ae70	0.44859648
130	0x3f114b7e	0.56755817
131	0x3f3ebb2f	0.7450437
132	0x3f02bb38	0.51066923
133	0x4004a7a1	2.0727313
134	0x40033e45	2.0506756
135	0x3d36a7fa	0.04459379
136	0x3de95e5b	0.1139495
137	0x409c3061	4.8809056
138	0x3e5081d0	0.2036202
139	0xc10e3faf	-8.890548
140	0x3daf75c6	0.085673854
141	0x3d52210a	0.05130104
142	0x3d068bcd	0.03284817
143	0x3cbd28d0	0.02309075
144	0xbb0bc52a	-0.0021327236
145	0x3dcb292b	0.099199615
146	0x3d71d587	0.059041526
147	0x3d49a3bc	0.049228415
148	0x3d90288b	0.07038983
149	0x3d49730f	0.049181994
150	0x3ea22b37	0.31673595
151	0x3e98e3ef	0.298614
152	0x3e336ff5	0.17523177
153	0x3e0120b5	0.12610133
154	0x3dcb55f2	0.09928502
155	0x3db615b6	0.0889086
156	0x3dabcf41	0.0838914
157	0x3db332cc	0.08749923
158	0x3dcafd85	0.09911636
159	0x3e01ac5e	0.12663409
160	0x3e457644	0.19283396
161	0x3eacd360	0.33755016
162	0x3ef82f4d	0.48473588
163	0x3db3ca5b	0.087788306
164	0x3d4cdbe3	0.050014388
165	0x3f310070	0.6914129
166	0x3cff1b9b	0.031141093
167	0x3ed996a8	0.42497754
168	0x00000004	6e-45
169	0x00000004	6e-45
170	0x00000004	6e-45
171	0x00000004	6e-45
172	0x00000004	6e-45
173	0x00000004	6e-45
174	0x00000004	6e-45
175	0x00000004	6e-45
176	0x00000004	6e-45
177	0x00000004	6e-45
178	0x00000004	6e-45
179	0x00000004	6e-45
180	0x00000004	6e-45
181	0x00000004	6e-45
182	0x00000004	6e-45
183	0x00000004	6e-45
184	0x00000004	6e-45
185	0x00000004	6e-45
186	0x00000004	6e-45
187	0x00000004	6e-45
188	0x00000004	6e-45
189	0x00000004	6e-45
190	0x00000004	6e-45
191	0x00000004	6e-45
192	0x00000004	6e-45
193	0x00000004	6e-45
194	0x00000004	6e-45
195	0x00000004	6e-45
196	0x00000004	6e-45
197	0x00000004	6e-45
198	0x00000004	6e-45
199	0x00000004	6e-45
200	0x00000004	6e-45
201	0x00000004	6e-45
202	0x00000004	6e-45
203	0x00000004	6e-45
204	0x00000004	6e-45
205	0x00000004	6e-45
206	0x00000004	6e-45
207	0x00000004	6e-45
208	0x00000004	6e-45
209	0x00000004	6e-45
210	0x00000004	6e-45
211	0x00000004	6e-45
212	0x00000004	6e-45
213	0x00000004	6e-45
214	0x00000004	6e-45
215	0x00000004	6e-45
216	0x00000004	6e-45
217	0x00000004	6e-45
218	0x00000004	6e-45
219	0x00000004	6e-45
220	0x00000004	6e-45
221	0x00000004	6e-45
222	0x00000004	6e-45
223	0x00000004	6e-45
224	0x3f34eefb	0.70677155
225	0x406270c4	3.5381327
226	0x407214f8	3.7825298
227	0x3f0682e1	0.52543455
228	0x3f798b88	0.9747853
229	0x40ab6a26	5.3567076
230	0x3f9ec56d	1.2404
231	0x3fe0926e	1.7544687
232	0x400b9755	2.1811116
233	0x408914a8	4.2837715
234	0x406c8e25	3.6961758
235	0x40b20e61	5.564255
236	0x407b8069	3.9297125
237	0x402d103a	2.7041154
238	0x3fb4c306	1.4122016
239	0x3e73a99d	0.23795171
240	0x3fcc6442	1.5968096
241	0x400e37b1	2.2221491
242	0x3f570d8c	0.84005046
243	0x3f5d325c	0.8640497
244	0x3f9d91ea	1.2310154
245	0xbfd8f194	-1.6948724
246	0xc022556a	-2.5364633
247	0x3f1626a6	0.5865272
248	0xc038efa8	-2.8896275
249	0x3ea78cfc	0.3272475
250	0x3e75658a	0.23964515
251	0x421bc80c	38.94536
252	0x00000004	6e-45
253	0x00000004	6e-45
254	0x00000004	6e-45
255	0x00000004	6e-45

exp_avg_sq f4 [5, 128]
0	0x4280160b	64.04305
1	0x42c10a07	96.519585
2	0x422613c7	41.519314
3	0x42fcd3dc	126.41379
4	0x423de46b	47.473064
5	0x430b9db0	139.61597
6	0x42d2db12	105.42787
7	0x42f2d726	121.42021
8	0x43077e83	135.49419
9	0x42afdaf5	87.92765
10	0x42845866	66.17265
11	0x42a99641	84.793465
12	0x428ce21a	70.441605
13	0x4268160f	58.02154
14	0x42f65c18	123.17987
15	0x42331e0c	44.779343
16	0x432462b3	164.38554
17	0x41fcd561	31.604189
18	0x42a03756	80.10808
19	0x425b1db2	54.779
20	0x432c4f80	172.31055
21	0x42999914	76.79898
22	0x421b5f1d	38.842884
23	0x42c66453	99.195946
24	0x42f0e2a1	120.442635
25	0x42bf2861	95.578865
26	0x42900782	72.01466
27	0x4323803f	163.50096
28	0x41a157bd	20.167841
29	0x42b20633	89.01211
30	0x42cbedeb	101.96468
31	0x42c67ed6	99.24773
32	0x42eeab0e	119.33409
33	0x433baeb0	187.68237
34	0x431a644c	154.39178
35	0x4329cbe8	169.79651
36	0x42f5ac59	122.83662
37	0x43151ff1	149.12477
38	0x41f153d7	30.165937
39	0x40c7d0e0	6.2442474
40	0x42b94cdd	92.65012
41	0x426111dd	56.267445
42	0x4349d581	201.834
43	0x4291b118	72.84589
44	0x4292cd84	73.4014
45	0x4263a888	56.91458
46	0x4244c090	49.18805
47	0x42db7263	109.72341
48	0x42c2f8c5	97.48588
49	0x427f40c6	63.813255
50	0x431da7a4	157.65485
51	0x422b2ce1	42.793827
52	0x42d7b615	107.85563
53	0x42b952fb	92.66207
54	0x43070bd5	135.04622
55	0x42f202f5	121.005775
56	0x4280ac3c	64.336395
57	0x42e4d4a7	114.41534
58	0x428e9ac6	71.30229
59	0x430f2eaa	143.18228
60	0x434e37d6	206.21811
61	0x42a5a207	82.81646
62	0x4289a620	68.82446
63	0x4322395a	162.22403
64	0x42b395b3	89.79238
65	0x430d62aa	141.3854
66	0x4306cd7a	134.80264
67	0x427e4a04	63.57228
68	0x425303ce	52.753716
69	0x4315c12a	149.75455
70	0x427c57d8	63.085785
71	0x42d734c4	107.60306
72	0x4093fbf7	4.6245074
73	0x42cc8597	102.26092
74	0x42d423cf	106.06994
75	0x42ad65b3	86.69863
76	0x432e74a7	174.45567
77	0x42b72162	91.5652
78	0x42847228	66.22296
79	0x42e4dc3a	114.43013
80	0x430ec882	142.78323
81	0x428093dc	64.28879
82	0x4245861d	49.38097
83	0x426b6856	58.85189
84	0x438731a6	270.38788
85	0x41ba229f	23.266905
86	0x42e0839c	112.25705
87	0x43141921	148.09816
88	0x42ce5a32	103.17616
89	0x432347da	163.28067
90	0x431ab75a	154.71622
91	0x430d8f4e	141.55978
92	0x42a8b827	84.35967
93	0x42b8c5fc	92.38669
94	0x4305ec52	133.92313
95	0x42e1d89b	112.92306
96	0x425860ea	54.094643
97	0x421bdc58	38.96518
98	0x42d8e728	108.45148
99	0x424174b3	48.363964
100	0x42239a91	40.900944
101	0x421abbf8	38.683563
102	0x43018ee8	129.55823
103	0x431611d4	150.06964
104	0x42980bab	76.02279
105	0x421e8304	39.627945
106	0x433329e1	179.16359
107	0x42e8517e	116.159164
108	0x43355385	181.32625
109	0x43049a9e	132.60397
110	0x42a280b5	81.25138
111	0x434cb8da	204.72208
112	0x42417d9c	48.372665
113	0x429e6da4	79.21414
114	0x42f29958	121.2995
115	0x430d73bc	141.45209
116	0x43197e15	153.49251
117	0x4306b747	134.71593
118	0x42b84997	92.14373
119	0x429ec241	79.3794
120	0x43094718	137.27771
121	0x431cdc97	156.86168
122	0x4326c17e	166.75583
123	0x432b54d1	171.33131
124	0x429e9907	79.29888
125	0x425c7e2b	55.12321
126	0x424167ae	48.35125
127	0x41aa0db8	21.256699
128	0x42298070	42.375427
129	0x4282e31d	65.44358
130	0x41f227df	30.269468
131	0x4268b164	58.173233
132	0x4237ac8c	45.918503
133	0x426bcd19	58.95029
134	0x4259c61a	54.44346
135	0x42c9ae9c	100.841034
136	0x42ead9de	117.42552
137	0x4277a71e	61.9132
138	0x42ad475f	86.6394
139	0x42661010	57.515686
140	0x42a09ebe	80.31004
141	0x41c4f984	24.621834
142	0x427b43d8	62.816254
143	0x428db62f	70.85583
144	0x4290def0	72.435425
145	0x41f6e414	30.861366
146	0x4280f6b5	64.48185
147	0x42943b93	74.116356
148	0x4285874b	66.764244
149	0x424c98b8	51.14914
150	0x41cb998b	25.449972
151	0x429f4293	79.63003
152	0x430b65da	139.39786
153	0x42857dfd	66.74607
154	0x429c270e	78.07628
155	0x428f23ba	71.56978
156	0x4219f143	38.485607
157	0x428eb3c5	71.35111
158	0x42897213	68.7228
159	0x427ed2ed	63.705982
160	0x42b59f3e	90.81102
161	0x42cd0a15	102.51969
162	0x4303a00e	131.62521
163	0x429be39d	77.94456
164	0x42c042b6	96.130295
165	0x42c06757	96.201836
166	0x421bd97e	38.962395
167	0x41843ffd	16.531244
168	0x428e8894	71.266754
169	0x422b8562	42.880257
170	0x42f7077b	123.51461
171	0x42c4aee5	98.34159
172	0x42993a59	76.61396
173	0x421e2c03	39.54298
174	0x42913b67	72.61602
175	0x428d396e	70.61217
176	0x42d5ede4	106.96463
177	0x424e1f08	51.530304
178	0x42d734e8	107.60333
179	0x423a0206	46.501976
180	0x4244c27e	49.189934
181	0x42bcede0	94.4646
182	0x4283101e	65.53148
183	0x42bfda3b	95.92623
184	0x42b7035e	91.50658
185	0x4287a519	67.82246
186	0x429647cb	75.14022
187	0x42ef0620	119.51196
188	0x42c5b52b	98.85384
189	0x42cd6e51	102.71546
190	0x42be6c42	95.21144
191	0x42731164	60.766983
192	0x4304319e	132.19382
193	0x4247a28b	49.908733
194	0x42577bb9	53.870823
195	0x428363bd	65.6948
196	0x4271162e	60.27166
197	0x42818ebc	64.77878
198	0x421a61a3	38.59535
199	0x425a77a8	54.61685
200	0x41b3f50d	22.494654
201	0x42835732	65.6703
202	0x42979e0c	75.808685
203	0x42145a8c	37.088425
204	0x42584ad2	54.073067
205	0x42abda0f	85.925896
206	0x422a110f	42.51666
207	0x43024edc	130.30804
208	0x425a596a	54.58732
209	0x42a115a0	80.54224
210	0x42bfe34a	95.943924
211	0x42a442bc	82.13034
212	0x4326dfd4	166.87433
213	0x41a144d4	20.158607
214	0x42a99dff	84.808586
215	0x42bb6ea7	93.71612
216	0x42b82b3b	92.084435
217	0x42a7e096	83.938644
218	0x428197ba	64.79634
219	0x428bdcf9	69.93159
220	0x42d211c4	105.0347
221	0x42852598	66.573425
222	0x42de4e3c	111.1528
223	0x425fc759	55.944675
224	0x41c793a2	24.947086
225	0x42b004c9	88.009346
226	0x428054f7	64.16595
227	0x42760d6a	61.5131
228	0x42b9fb73	92.99111
229	0x420f24fe	35.786125
230	0x4291e007	72.93755
231	0x42820e71	65.028206
232	0x4250d75d	52.210316
233	0x41d19d7a	26.201893
234	0x42940cf7	74.02532
235	0x427ec8a3	63.695934
236	0x425a25b8	54.536835
237	0x42991487	76.54009
238	0x4210f08f	36.23492
239	0x42d8ba89	108.36433
240	0x422785c6	41.88064
241	0x4233dd4c	44.96611
242	0x423b7588	46.864777
243	0x42775919	61.83701
244	0x42c3afae	97.843124
245	0x42b649c1	91.14405
246	0x426ae7ea	58.72648
247	0x41e86825	29.050852
248	0x42603c83	56.059093
249	0x426e045b	59.504253
250	0x4299f9df	76.98803
251	0x42879632	67.79335
252	0x42cf42eb	103.6307
253	0x42e6d2c7	115.411674
254	0x42b7267d	91.57517
255	0x42518963	52.384167
