model/280a.pt (torch_old, 336839 bytes, 24 tensors)

fc1.weight f4 [128, 28]
000000 94 5f c6 3c b0 7c 1f 3e e7 58 4a be 2c 75 22 bd
       0.024215497 0.15574908 -0.19760476 -0.039662525
000010 c0 bb ab be fc 6e d6 be 1f 5e 9e bd c0 7d 15 be
       -0.3354168 -0.4188155 -0.07732796 -0.14598751
000020 d9 36 5e be 80 ad 2a 3e e0 05 d7 3c 80 43 26 bf
       -0.2170061 0.16667747 0.026247919 -0.64946747
000030 d0 83 84 be eb 84 d5 bd 82 04 29 3e c5 7b 8e 3e
       -0.25881815 -0.10425743 0.16505626 0.27828804
000040 3f 32 c2 3e c2 80 d1 bd 4a 81 6e bf 68 04 0b c0
       0.3792896 -0.10229637 -0.9316603 -2.172144
000050 08 b0 c9 bf 55 11 d1 bf e6 93 35 bf 93 33 18 3e
       -1.5756845 -1.6333414 -0.709288 0.14863424
000060 d4 fb 42 3d 7a 1c 39 3c 3c d0 f1 bf 11 d8 5d 3d
       0.047603443 0.011298293 -1.8891673 0.054161135
000070 ab 77 39 3f af a9 5a 3f 59 e9 45 3e 4f 10 a0 3d
       0.72448224 0.85415167 0.19327296 0.078156106
000080 3c 99 55 be e1 12 bb be 61 e7 63 3e 76 02 9b 3e
       -0.20859236 -0.3653784 0.22256233 0.30275315
000090 98 57 14 3e 25 3a 9c 3e 51 63 44 3e 15 1d d7 bd
       0.1448654 0.3051311 0.19178511 -0.10503594
0000a0 cc 7a b1 be ac 5c 99 be 2d 39 a8 ba 20 21 4b bd
       -0.34664 -0.29953516 -0.0012834423 -0.049592137
0000b0 30 f7 f5 3d fd 0b a2 3c a4 14 ba bd ea 5b d8 bc
       0.12010038 0.019781107 -0.09085968 -0.026411016
0000c0 6e b0 7a 3e 47 eb ae 3e b7 d5 20 be 7c e7 20 3f
       0.24481365 0.34163877 -0.15706526 0.6285322
0000d0 fe db 9d 3e eb f7 74 bc c2 fa 9e 3f 5b 63 57 bd
       0.30831903 -0.014951686 1.2420275 -0.052584987
0000e0 d1 bf 94 bf 88 d7 8a bf ad f3 c6 be 8d f5 ff 3d
       -1.1621038 -1.0847025 -0.38857785 0.12498007
0000f0 8d a2 84 bd da ee c3 bd a6 ab 81 bd 1e 9b 20 3d
       -0.064763166 -0.09567042 -0.063315675 0.03921043
000100 90 45 23 3c 32 4a 61 3e ce e0 69 3e 49 0c 9e 3e
       0.009965315 0.2200096 0.22839662 0.30868748
000110 5b be 07 bd 9d be 21 3d 46 4f 06 bd 46 e3 f4 bd
       -0.03314052 0.039488424 -0.032790445 -0.119574115
000120 62 de 89 be 22 fc f0 be 48 37 3a be 57 19 93 be
       -0.26927477 -0.47067362 -0.1818515 -0.2873027
000130 cd ae ee bc 4a 98 00 be 38 e0 e5 be 8a 66 a5 bf
       -0.029136086 -0.12558094 -0.44897628 -1.2921917
000140 3c 8a 61 3e 3c a5 27 3e 6e 46 b0 bf e2 3d 03 3d
       0.22025388 0.16371626 -1.3771493 0.032041438
000150 b3 ef 38 bf 49 9f 34 bf b7 93 af be 6d 6a bc bd
       -0.7224075 -0.7055555 -0.34292385 -0.091999866
000160 a8 ad 28 bd 0e de e1 bd d0 d5 77 be 70 7a be 3d
       -0.041181237 -0.11028682 -0.24202657 0.09300697
000170 35 28 55 3d 0d f0 63 3e d3 9b 89 3e 76 cd ad 3c
       0.052040298 0.22259541 0.26876697 0.021216135
000180 0f 10 a3 bd bc de 93 bd a3 42 42 be 4e f5 cd be
       -0.07962047 -0.072202176 -0.18970732 -0.40226215
000190 4e 7d 46 be 81 52 69 be d2 73 b7 3e 36 9d 83 3d
       -0.19383737 -0.22785379 0.3583055 0.0642647
0001a0 c2 b1 da 3d c0 d7 a3 bc ed 9d d8 be 94 17 5e bf
       0.10678436 -0.020000339 -0.42307988 -0.8675473
0001b0 2e d0 5c 3e 5d 7f e1 bd 32 a8 7d bf b4 d0 86 bc
       0.21563789 -0.11010621 -0.9908477 -0.01645694
0001c0 c6 68 4c bf 5d 7e 3a bf 7e 6b c0 be 89 d8 9e be
       -0.7984737 -0.72849065 -0.3758201 -0.31024578
0001d0 85 45 41 be 97 4e 41 bd 12 5b 0f bd 78 cb bd 3d
       -0.18874176 -0.04719409 -0.03499896 0.09267324
0001e0 71 98 e4 3e 35 ad ac 3e ef f5 45 bc 13 6a 8a 3e
       0.44647554 0.33725896 -0.012082561 0.27034053
0001f0 85 03 5b 3e 11 b6 6c 3e 0c 04 f8 3e e2 a2 48 3f
       0.21388061 0.23116328 0.48440588 0.7837354
000200 55 e0 2e bf b3 4b 64 bf 77 0c 83 be a3 9d 1c 3e
       -0.68311054 -0.8917801 -0.25595447 0.15294509
000210 90 03 35 3d 52 69 df 3d 17 df 2a 3e 20 0a 4e bf
       0.04419285 0.1090876 0.16686665 -0.804842
000220 00 12 82 be 7a 07 a1 be 9b 26 d4 bf 1a 4e de ba
       -0.25404358 -0.31451017 -1.6574281 -0.0016960532
000230 0e 34 72 bf d2 27 ad bf e0 53 61 bf 39 ea 77 3e
       -0.9461068 -1.3527777 -0.8801861 0.24210443
000240 c7 a9 39 3e d2 04 f6 3d 10 9f ab bc e1 6a f4 3d
       0.18131171 0.12012638 -0.02094987 0.11934448
000250 41 2c ec 3c f4 99 ee 3c 61 6e 28 3e 78 84 2b 3d
       0.028829696 0.029126145 0.16448356 0.04187438
000260 4a d6 15 3d f3 c9 0d be 16 dc 53 3d f1 76 52 3e
       0.036581315 -0.13846569 0.051723562 0.20553185
000270 d3 90 14 3d f1 78 10 3e 1a 3f 28 3e 6e c9 a8 3e
       0.036270928 0.14108635 0.16430321 0.3296618
000280 a4 fe 13 bd c0 d6 09 3e 60 ed 4a 3e 2c 5b 86 bf
       -0.036131516 0.13460827 0.19817114 -1.0496573
000290 4d 04 a6 3e f3 86 44 3e 15 be 98 bf 1f 18 06 be
       0.32425156 0.19192104 -1.1933008 -0.13095139
0002a0 1e 6b 6d bf 09 92 2d 3c 1f 5b ff bd c3 9e 22 be
       -0.9274157 0.0105938995 -0.12468552 -0.15880875
0002b0 00 08 1d 3e 57 8e 92 bc ff 15 59 3e dc 50 f7 3d
       0.15335083 -0.017890139 0.21199797 0.120759696
0002c0 bc 4f 5a 3e fd 4d bd 3d 48 10 87 3e 43 b9 66 bd
       0.21319479 0.09243391 0.2637961 -0.056329023
0002d0 77 8a 72 be d7 c5 bf bd a6 c3 70 be c6 1d 6e be
       -0.23685633 -0.09363907 -0.23512134 -0.23253545
0002e0 8a ea 2a be 5e 5b c0 3d a7 2a fc bc ed 22 df be
       -0.16691032 0.09392427 -0.030782057 -0.43581334
0002f0 f5 94 83 be be 68 0c 3d 06 e8 45 bf a4 37 8c bf
       -0.25699583 0.034279577 -0.77307165 -1.095448
000300 c4 7b 1b be 63 63 82 3c 80 0f b0 bf 28 7f 50 bd
       -0.15183932 0.015916532 -1.375473 -0.050902516
000310 31 96 52 bf 11 84 ad be 89 b9 00 be d3 42 fa bd
       -0.82260424 -0.3388982 -0.12570776 -0.12219777
000320 83 8f 2a be a7 df 24 3e de 1a 0f 3d 29 d3 11 bd
       -0.16656308 0.16100942 0.034937732 -0.03560177
000330 01 1e 04 3e b4 ac 09 be 37 4e dd bd fb 96 59 be
       0.1290207 -0.13444787 -0.10805934 -0.21249
000340 d7 d3 6e be 19 90 7e 3e f2 a7 9e 3d 98 ac ad be
       -0.23322998 0.24859656 0.07746877 -0.3392074
000350 9e 6e 4a be 3b 0e 55 be fb 1c 3b be 6f e5 eb be
       -0.1976876 -0.2080621 -0.18272774 -0.4607348
000360 66 9f 6e bf 77 8b 5d bf b0 bf 3e bf e7 c2 76 bf
       -0.9321197 -0.8654093 -0.7451124 -0.9639115
000370 c7 bc 05 bf f2 2f 50 3d 31 0f 86 bf 4a eb 12 3e
       -0.52241176 0.050826974 -1.0473386 0.14347568
000380 d2 59 a6 3e 57 09 1f 3f c4 4e 2b bd b4 30 96 bc
       0.32490402 0.62123626 -0.041823164 -0.01833377
000390 c7 a2 d8 bd 4f a4 7a bd 60 5b cb be e0 67 7d be
       -0.10577922 -0.061191853 -0.3971815 -0.24746656
0003a0 ba a5 6e 3d cc 18 e3 3e 90 85 c7 bb d4 23 e1 bd
       0.058263518 0.44354856 -0.00608892 -0.10993162
0003b0 74 3e 5d be 51 bc ed 3d 83 64 1f 3d 08 3c 67 bc
       -0.21605855 0.11608184 0.038914215 -0.014113434
0003c0 3e 4e aa be 20 a1 32 bf 8b 23 93 be 1a cc 0a be
       -0.3326282 -0.6977711 -0.28738055 -0.13554421
0003d0 07 da ae 3d ff 1e 46 bd b0 6e 4f 3d 9d 58 da 3e
       0.08537679 -0.048369404 0.05064267 0.42645732
0003e0 be 1b 7d bf 8f e6 22 3d 57 f1 02 bd 84 40 a7 3d
       -0.98870456 0.03977066 -0.03196844 0.08166602
0003f0 ce 9c 36 3e 2b 34 28 be 13 07 3b bd de b2 02 be
       0.17833254 -0.1642615 -0.045661043 -0.12763545

fc1.bias f4 [128]
000000 56 32 06 bc 3c 2f 44 3d af 5d 3b bd 22 41 bc bd
       -0.008190712 0.04789661 -0.04574364 -0.091921106
000010 45 62 96 bd ec b6 b8 3d f9 2e da 3d f4 ec 21 bc
       -0.07342962 0.090192646 0.106534906 -0.009883154
000020 54 da 44 be 0a c8 77 bb 65 fc 6c bd 05 f1 67 3d
       -0.1922391 -0.0037808442 -0.05785789 0.05662634
000030 8e 67 ac 3d 52 48 1a 3e b9 0c 34 ba b3 53 8a be
       0.08418189 0.1506665 -0.0006868351 -0.27016982
000040 4c 55 2e be ef d8 5e bd 76 bb 0a be 60 87 2d be
       -0.17024726 -0.054406103 -0.13548073 -0.16946173
000050 dd bd f3 bc 81 92 41 3d ae 7d ee 3e ec 41 46 3e
       -0.02975362 0.047258858 0.4658026 0.19361085
000060 be 52 92 bd 97 c6 f3 bd 73 6b d4 bd b3 50 95 bd
       -0.07144688 -0.119031124 -0.10372057 -0.07290783
000070 c8 2d a7 bc d5 11 22 be a0 2d 91 bd 43 ac 9f 3d
       -0.020407572 -0.15827115 -0.070887804 0.07796528
000080 e4 b1 f6 bd 3d 3e 4a bd 99 96 8c 3e fc 79 67 bd
       -0.12045649 -0.04937576 0.27458647 -0.056512818
000090 b1 26 22 3e 92 40 0f be b9 fd 9e bc 18 51 62 bd
       0.15835072 -0.13989475 -0.019408094 -0.05525312
0000a0 81 b7 4c be a3 95 82 3e 3c 81 53 bd a2 a9 0e 3d
       -0.19991876 0.2550479 -0.05163692 0.034829743
0000b0 1b a5 97 3d ec 62 a4 be f6 2b 27 bd 7e 0a e8 3e
       0.07404538 -0.3210672 -0.04081341 0.45320505
0000c0 29 4d fa 3d 14 8c 15 bd 0e 3e fa 3d a9 20 0f 3d
       0.122217484 -0.036510542 0.12218867 0.034943257
0000d0 ea dc 4f be f8 38 47 bd b0 fd 1f 3e 91 e3 1b be
       -0.20299116 -0.048638314 0.15624118 -0.15223528
0000e0 74 b1 a1 3d 55 57 19 3e d7 96 63 be 28 94 08 3f
       0.078951746 0.14974721 -0.2222551 0.5335107
0000f0 ba ce 03 3e 6e d2 38 bd 69 93 eb 3d 25 f2 ae bd
       0.12871829 -0.045122556 0.11502726 -0.08542279
000100 1a 14 d8 3d f8 a2 2c 3e 8b df 05 3e 9b 57 3e 3e
       0.10550709 0.16859043 0.13073556 0.18588106
000110 e2 d2 08 be e4 3b 19 3e 72 2f 44 be f6 75 01 bd
       -0.13361695 0.14964253 -0.19158724 -0.031606637
000120 07 e5 67 be 5e 30 90 bc d8 75 8d 3c 81 5d 2d be
       -0.22645961 -0.017601188 0.017268106 -0.169302
000130 23 e6 e2 bb 15 ea 10 be e3 83 bd be a8 31 fe bb
       -0.006924407 -0.14151795 -0.37014684 -0.0077573843
000140 0c 49 72 bd ab 30 b0 bd eb e3 6e 3c 75 fa 24 bc
       -0.059151694 -0.08603033 0.014580707 -0.010069479
000150 6e d5 8b 3e 05 7a a2 bc 4b 03 83 bd ec cf b8 bd
       0.2731127 -0.019833574 -0.063971125 -0.09024033
000160 9a aa a0 3d 5d 3b b7 bc c2 59 39 be c4 d4 9d bc
       0.0784504 -0.022367174 -0.18100646 -0.019266494
000170 1e 32 7c bd b1 c3 c1 bd 3c 12 75 bd 78 31 30 bc
       -0.061571233 -0.09461153 -0.059831843 -0.010753982
000180 f8 ac 01 be e8 06 43 be 5d ce 37 3f 6d 53 96 3d
       -0.12663639 -0.19045603 0.7179926 0.07340131
000190 9f bd c7 3e 56 6f 57 bd b0 e0 ef 3d 80 8b 2f be
       0.39011857 -0.052596413 0.117127776 -0.17143059
0001a0 e0 63 95 3d 67 1d 15 3d 29 a6 1c 3d 31 20 6b 3e
       0.0729444 0.036404993 0.0382444 0.22961499
0001b0 0a eb 3a 3d 94 0c c3 bd e7 34 01 3d 4b 37 88 3e
       0.045634307 -0.095238835 0.031544592 0.26604685
0001c0 17 46 10 be 32 86 17 3d 15 50 cc 3c 21 45 90 3d
       -0.14089237 0.036993213 0.02494053 0.07044435
0001d0 22 1a 29 be 09 a1 81 bd da f4 42 3e d8 33 a4 bb
       -0.16513875 -0.06329543 0.19038716 -0.005011063
0001e0 04 ab c9 bd bd fd 1d bd 7b af c6 3c 6e 82 1d bd
       -0.09847072 -0.03857206 0.024253597 -0.038454466
0001f0 18 f4 65 3d 76 0b 15 3c 8f 4c 1e be e9 0e 1b be
       0.05614099 0.009096971 -0.15458892 -0.15142407

fc2.weight f4 [128, 128]
000000 22 dc 9f be 1c 2c ec be 5a 17 f8 3d be e1 71 3d
       -0.31222636 -0.46127403 0.12113829 0.059053175
000010 bd e0 67 3e 84 c5 2c be a2 6c f9 bd 65 0d ce 3e
       0.22644325 -0.16872221 -0.12178923 0.40244594
000020 b8 f6 1e be 67 6e b9 be 69 2b e0 bd 49 41 dc be
       -0.15523803 -0.36217043 -0.1094578 -0.4301856
000030 d6 82 47 3e 32 d6 58 3e e3 bc ff be fa bb 13 bf
       0.19483504 0.21175459 -0.49948797 -0.57708704
000040 ed a3 d6 bd 5d 51 83 3d 74 57 8a be 1c 19 26 bd
       -0.10480485 0.06412003 -0.27019846 -0.04055129
000050 42 56 2e bf 08 4f 2a be c1 34 8f 3e 52 9e a2 3e
       -0.6810037 -0.1663171 0.27969936 0.31761414
000060 38 da ae 3d de 42 07 bf 7d 60 2a 3e 3f f4 9d be
       0.08537716 -0.52836406 0.1663837 -0.30850407
000070 61 b6 9e 3b a1 91 f3 bd 1d a7 bb bd 1f 2d b2 3d
       0.0048435186 -0.11893011 -0.09162734 0.087000124
000080 35 45 21 3d 70 3e 07 3f 4b b7 56 3d 94 41 de 3e
       0.03937264 0.5282965 0.052420896 0.43409407
000090 3c f1 85 3e d0 26 41 be 47 38 b6 3e 07 bb 21 bf
       0.2616061 -0.18862462 0.3558981 -0.63176006
0000a0 0e 22 3d bf b9 54 46 3e b6 d9 81 3d d1 e4 8a 3e
       -0.7388009 0.19368257 0.06340353 0.27127698
0000b0 cf 32 0d 3d 95 51 f5 be a5 70 26 3e b0 7e 1f 3d
       0.034472283 -0.47913805 0.16253908 0.038939178
0000c0 44 15 82 3e 89 00 5e bc 61 4d 47 3e 53 ed af 3e
       0.2540685 -0.013549932 0.19463111 0.34360752
0000d0 be b1 1a 3e be 80 2c 3f f1 4b 2f bf af df b7 be
       0.15106866 0.67383945 -0.6847525 -0.35912845
0000e0 80 78 07 bf b5 4b 92 bd 19 c1 80 3e 1a 94 05 bf
       -0.52918243 -0.07143346 0.25147322 -0.5217911
0000f0 cb 4a fb 3c 30 20 be be 96 05 1c 3d e2 17 5d bf
       0.030675313 -0.37133932 0.038091265 -0.8636457
000100 33 73 3f 3e 02 64 94 3e a2 41 3c 3e 6d af a5 3d
       0.18696289 0.2898255 0.18384412 0.080901004
000110 4a 96 5c bd 54 6e 40 3d ae 3f cc be 1b 69 73 3c
       -0.053854264 0.046980217 -0.39892334 0.014856602
000120 06 f9 33 bf e5 67 e1 3d 67 eb 29 bf 21 52 23 bf
       -0.70301855 0.110061444 -0.6637482 -0.63797194
000130 23 24 16 bf ec 43 2b 3e 51 b5 77 bd 55 9b 58 3e
       -0.5864889 0.16725129 -0.06047565 0.21153004
000140 2a cf fa be 87 84 2d bf 92 44 18 be 85 a4 f5 be
       -0.4898618 -0.67780346 -0.14869907 -0.4797708
000150 84 c3 56 3e f8 3e b4 be 91 bb 38 bc 36 22 38 be
       0.20973021 -0.3520429 -0.011275188 -0.179818
000160 f0 12 e7 be 71 d6 9b bd 55 18 02 bf b1 e1 d6 3d
       -0.45131636 -0.07609261 -0.5081838 0.10492266
000170 51 8a c9 be e7 10 22 3d b4 d9 19 3e 14 d6 0b bf
       -0.3936334 0.0395669 0.15024453 -0.5462353
000180 5d 21 cd 3e ac 3b ab be 24 e2 99 be dd aa d2 be
       0.40064517 -0.33443964 -0.30055344 -0.41145983
000190 11 c6 da be be d4 1b bf a4 b0 ac 3d f0 ec 4b 3d
       -0.42729238 -0.60871494 0.08432129 0.049786508
0001a0 73 ec a0 3e cd 8c cf 3d fb 60 2e 3d be 3e 45 3d
       0.31430396 0.101342775 0.042572957 0.04815554
0001b0 f2 2b 42 3d a0 dd b3 be ee 4e 8e bd da 36 d1 3d
       0.04740519 -0.35130024 -0.069486484 0.1021554
0001c0 5c f2 37 3d 08 2e 89 bd 84 e8 dd be 98 c0 43 be
       0.044908866 -0.06698233 -0.43341458 -0.19116437
0001d0 d5 cd 25 3e 56 07 db 3e 6e c1 4a 3e ce e0 4c 3f
       0.161918 0.42779034 0.1980035 0.80030525
0001e0 0b c0 31 bf 52 25 e6 be 79 2b 9a 3e ed 73 b2 3e
       -0.6943366 -0.44950348 0.30111292 0.3485407
0001f0 26 7b e2 be 27 ac d6 3e a9 6d 09 bf 1f 63 6a be
       -0.4423458 0.41928217 -0.53682953 -0.22889374
000200 38 5d cb bd 07 f0 2c bc 1c 2a d0 bd b8 21 93 3e
       -0.099298894 -0.010555274 -0.10164282 0.28736663
000210 a2 3b 99 be 25 29 8d 3e e3 55 db 3c 9b 09 d9 3e
       -0.2992831 0.27570453 0.026774352 0.4239014
000220 a7 b2 e7 3d 47 2d f6 3e 8d 80 7c 3d b7 69 cf bd
       0.11313372 0.4808142 0.061646033 -0.101275854
000230 26 01 66 3d 63 43 9f 3e fc 6a fe 3d cb 73 bc be
       0.05615344 0.311061 0.124227494 -0.36807093
000240 19 8b 85 3d 67 a1 2a 3d 5f e3 fb 3e d2 85 4d 3d
       0.065206714 0.04165783 0.49196908 0.05017645
000250 d8 1b bf 3d fe 65 e0 be fe 8e 2d be d4 64 12 be
       0.09331483 -0.43827814 -0.16949078 -0.14296275
000260 76 2b 44 bd f4 99 d9 3d 08 ee 71 bd 1e 34 7d be
       -0.04789301 0.10625067 -0.059064895 -0.24726912
000270 6b ed dd 3e 1b 05 d8 3e 1d 4e 02 bf 76 b0 bf bd
       0.43345198 0.42191395 -0.5090044 -0.09359829
000280 46 d2 2b 3f 52 7e b7 3e 1b 81 22 3e a7 2f 22 be
       0.67117727 0.35838562 0.15869562 -0.1583849
000290 2d 81 99 3e 3c 96 72 3e 81 89 04 bf 4f 77 12 bf
       0.29981366 0.23690122 -0.51772314 -0.572133
0002a0 5a b8 d3 3e 97 b8 e4 3e 23 86 b2 bc 95 d8 ea bd
       0.41351587 0.4467208 -0.021792477 -0.11467091
0002b0 fa eb 5c 3e e8 e8 1e 3d 54 8c 82 3e 04 ff ca 3e
       0.21574393 0.038796335 0.25497687 0.39647686
0002c0 e2 b0 05 3e 41 a8 de 3e 6b 4d b1 bb 93 ab e8 3c
       0.13055757 0.43487743 -0.0054108403 0.028402125
0002d0 0c ec 24 be 6f 4f 11 bf ee 03 0a 3e c3 6c 4d bf
       -0.1610567 -0.5676183 0.13478062 -0.8024408
0002e0 9c ac 88 bc 9b 32 04 3f e0 2f c0 be c0 64 bb be
       -0.016683869 0.5163972 -0.37536526 -0.36600304
0002f0 91 a4 1e 3f 01 05 a0 be 34 73 74 3e d8 fd 6f be
       0.6196986 -0.31253818 0.23872072 -0.23436677
000300 a0 21 4a 3e 3f 72 89 3d 37 b7 76 3e 47 f9 32 3d
       0.1973939 0.06711244 0.24093328 0.04369476
000310 4b 00 a7 3d e3 0e fa 3d 64 a4 13 3f f0 11 eb be
       0.08154353 0.12209871 0.57672715 -0.45912123
000320 1c 73 8d 3e 79 2f 97 be 1c c4 13 be 2a 8f 33 3f
       0.27626884 -0.29528406 -0.14430279 0.70140326
000330 97 26 29 3f 91 56 93 be 23 05 23 3d 6f 4f 5e 3e
       0.6607451 -0.28776982 0.03979982 0.21709989
000340 8b 90 17 3f 28 ff 96 3e 09 59 2c 3f d8 6a b6 3d
       0.5920493 0.29491544 0.67323357 0.089070976
000350 c9 27 69 be 65 e5 7f be 4b 7b 94 3d d2 bb f5 be
       -0.22769083 -0.24989851 0.07250079 -0.47994858
000360 b8 5b fc be 74 50 d4 3e 76 46 88 3d e7 0c d1 3e
       -0.49288726 0.4146763 0.06654064 0.40830156
000370 a0 a2 0e 3d c0 84 5f be e4 2b 53 be c8 ea bc 3e
       0.03482306 -0.21827984 -0.20622212 0.36897874
000380 99 12 a0 be b5 a7 63 bd 73 21 2b 3e 11 cc d2 bd
       -0.3126419 -0.05557986 0.16711979 -0.10292829
000390 64 c9 12 3f 0e 5a 28 3f c6 e7 03 be 54 15 ef be
       0.5733855 0.6576241 -0.12881383 -0.4669596
0003a0 b0 99 e0 3e 44 59 2a be fe 23 65 3e fb b8 12 3f
       0.43867254 -0.16635615 0.22377011 0.5731351
0003b0 a5 66 f3 3d 4e 56 72 3d 8c 3d 93 3e 85 c8 99 bd
       0.11884812 0.059164338 0.28757894 -0.07508949
0003c0 92 de 66 3f a6 fe 6f be 03 15 59 3e 12 c3 a2 3e
       0.90183365 -0.23436984 0.21199422 0.31789452
0003d0 5e 95 bd be 75 d1 e3 3d 0a e6 94 3e 68 87 90 be
       -0.3702802 0.11123935 0.29081756 -0.28228307
0003e0 2f 31 2e be fc 4f f2 3e 0c cf 87 3d 5e 64 00 bf
       -0.1701095 0.47326648 0.06631288 -0.5015315
0003f0 66 12 ea 3e ed 4f 95 3e 77 79 54 3f bc c6 12 3d
       0.45717162 0.2916254 0.8299784 0.03583406

fc2.bias f4 [128]
000000 27 63 8b 3c 6c 6c 54 bd 66 7d 1a be 98 d2 bd be
       0.017015053 -0.05186121 -0.15086898 -0.37074733
000010 e3 e3 1f bc c4 4d 4e be 85 0e fb 3b d0 8e 34 be
       -0.009758922 -0.20146853 0.007661643 -0.17632604
000020 39 55 59 be 1c bc ad bc 29 8a ce 3c 68 54 85 3d
       -0.21223916 -0.021207862 0.025212364 0.0651024
000030 c8 69 5e be 1a c4 c3 be 2a 3e a9 3d 22 84 c2 3d
       -0.2172004 -0.3823555 0.0826381 0.094978586
000040 53 15 9f 3e f8 4c 2c 3d aa 25 35 3e 44 18 43 bd
       0.31070957 0.04206559 0.17690149 -0.047630563
000050 07 04 8a 3d 3c 0d ac bd b1 89 77 bc 12 63 5a bc
       0.067390494 -0.08400962 -0.015108512 -0.013329284
000060 90 d3 61 be 78 61 eb bc c3 ac cf 3c 11 4d 3a 3b
       -0.22053361 -0.028733 0.025350934 0.0028427283
000070 3a 94 1e 3e 0f ed 05 3e eb 8d 77 be c5 fb c8 bd
       0.15486231 0.13078712 -0.24175231 -0.09813646
000080 6f ea 3f 3d 75 c1 4f bd 39 15 4d bd 83 97 ff bd
       0.046854433 -0.050721604 -0.050069068 -0.124800704
000090 d5 6d 54 be ac 13 ab 3e 83 62 ec bd 56 ca 58 be
       -0.20745023 0.33413446 -0.11542227 -0.21170935
0000a0 d6 b7 6a 3e 48 a4 7f 3e 0f c9 41 be d3 58 c7 be
       0.2292169 0.24965012 -0.18924354 -0.38934955
0000b0 cf 86 8e be 4a 0d 63 3e ce a0 ef 3d 08 95 8f 3c
       -0.27837226 0.22173038 0.11700593 0.017527118
0000c0 d6 ce 6c be 34 31 2e 3d 38 19 00 be ee 97 97 3b
       -0.23125777 0.042527393 -0.1250962 0.0046262657
0000d0 de 20 5b be c5 ca 96 bd 5c a5 28 3e 34 9b 66 be
       -0.21399257 -0.07362894 0.1646933 -0.22520143
0000e0 17 3b b4 3e d2 01 99 3d 0f 2a 8c bd 48 71 88 be
       0.35201332 0.0747105 -0.068439595 -0.26648927
0000f0 fe 90 8b bd 12 6c 4b 3d 4d c1 76 bc 0f fd 14 3d
       -0.068147644 0.04966361 -0.015060735 0.036374148
000100 97 16 61 be de a5 ef 3c 33 d2 8b 3e a5 3a 31 be
       -0.21981274 0.029253896 0.27308807 -0.17307527
000110 95 77 8f 3d ae ca 9c be 01 9c 8a 3e 24 24 aa 3c
       0.0700523 -0.30623382 0.27072147 0.020769186
000120 5f 41 b6 3e a3 8e 50 3d e6 5e 37 3e d2 73 aa 3e
       0.3559675 0.05091728 0.17907295 0.3329149
000130 af 4d 22 3c 9e dd 41 3c 52 05 2a be 88 dc 08 be
       0.0099062165 0.011832623 -0.16603592 -0.13365376
000140 8a a1 cd 3d 84 57 99 3e c4 94 86 3e a5 e2 16 3d
       0.10040577 0.29949582 0.26285374 0.03683724
000150 89 85 79 bd 2f ee e6 bc 12 d4 50 be f2 44 eb bd
       -0.060918365 -0.028189747 -0.20393398 -0.1148776
000160 76 d8 8c be f4 5b de be 73 7e 71 3e cc f4 07 3e
       -0.27508897 -0.4342953 0.23583393 0.13276976
000170 a4 ab 07 bd 15 eb 5d b9 16 fa 51 be d7 0d 7e 3d
       -0.033122674 -0.00021163777 -0.20505556 0.062024917
000180 9a 6c be be aa 94 8a bd 99 ec 6f 3d b7 3b b3 3d
       -0.3719223 -0.06766637 0.058575246 0.08751624
000190 a7 00 01 3e 28 82 73 3e 07 5d dd bc ce 9c 16 be
       0.12597905 0.2378012 -0.027021898 -0.14708254
0001a0 d6 4a d8 3d 91 27 9a be 30 11 3d be 8f 81 37 be
       0.10561149 -0.30108312 -0.18463588 -0.17920516
0001b0 ff f8 a5 bd c7 af 45 3d 1f f9 9c 3d df cf 33 3d
       -0.08104133 0.048263337 0.076647036 0.043899413
0001c0 af 9f 45 3e 50 e6 2a be d0 4f d2 3c 03 18 d4 3d
       0.19299196 -0.1668942 0.025672823 0.10356142
0001d0 70 41 43 be 05 58 3b be 18 cb 07 3d 81 e1 08 be
       -0.19067931 -0.18295296 0.03315267 -0.13367273
0001e0 48 9d 14 3e e1 22 46 3e 5b 30 55 bd 0d 7e 62 be
       0.14513123 0.19349243 -0.05204807 -0.22118397
0001f0 2c 37 8a 3e 8e 26 94 be 69 7e 06 3d e3 55 44 3e
       0.26995218 -0.28935665 0.032835398 0.19173388

out.weight f4 [5, 128]
000000 86 a2 45 3f 7e eb c9 be b4 67 2f be 33 41 e7 3d
       0.77201116 -0.3943748 -0.17129403 0.11291733
000010 aa 14 37 bf 65 17 c2 be 8c d5 fb bd f5 e7 e9 3e
       -0.71515906 -0.37908474 -0.1229659 0.45684782
000020 6b f0 3c 3f 50 ac dc 3e 98 55 19 3f b2 d3 f3 be
       0.7380435 0.43100214 0.5989623 -0.47622448
000030 65 15 36 3e 0a dd 25 be 21 4c 11 bf bf 9d 18 bf
       0.17781599 -0.16197601 -0.5675679 -0.596157
000040 3a d9 04 bf e9 f1 1d 3f 95 48 25 3f ab a4 e8 3e
       -0.5189396 0.6169725 0.64563876 0.45438132
000050 a7 3f 3d be 28 e4 63 3e b3 bb 53 be c2 f3 f2 3e
       -0.18481313 0.22255003 -0.2067707 0.47451597
000060 e5 fa 0c 3f 99 8e f9 3e 18 62 b1 be 19 4f c7 be
       0.55070335 0.48741606 -0.34645152 -0.38927534
000070 61 d9 6b 3f fb 82 06 3e 79 66 47 3e 01 5e c5 3e
       0.9212857 0.13135903 0.19472684 0.38548282
000080 50 94 08 3f a9 f2 ef 3e e8 a5 dc 3e a0 bb 7c 3e
       0.53351307 0.46864823 0.43095326 0.24680948
000090 0a 92 b9 3e 94 36 b3 be e2 f2 39 3e ea 33 fb 3e
       0.3624423 -0.35002577 0.18159059 0.49063045
0000a0 7f 7a f8 bd 3c 6a 5b be 3c 05 6d 3e 51 31 b6 3e
       -0.12132739 -0.21427244 0.23146528 0.355845
0000b0 53 af 88 3e 1d f9 89 3d 83 59 b5 be 63 5d 2a be
       0.26696262 0.06736968 -0.35419855 -0.16637187
0000c0 9b 9f af 3e 85 3f 1f 3f 2b 4c ea 3e 14 29 b8 be
       0.34301457 0.622063 0.45761237 -0.3596884
0000d0 82 b0 1c bf e1 0a 18 3f 37 2d 67 be fb 11 d8 3e
       -0.6120683 0.593916 -0.22575842 0.42201218
0000e0 2d ec 1c 3f 42 4a bc be 6c 8c 08 3f b9 42 be 3e
       0.61297876 -0.36775404 0.53339267 0.3716028
0000f0 7e 30 9e be 09 3f 32 3f 5b 32 1a 3f ce 57 27 bd
       -0.30896372 0.69627434 0.60233086 -0.04085522
000100 9f 80 00 3f 97 ca c8 ba f6 29 97 be 86 de cc be
       0.5019626 -0.0015319166 -0.295242 -0.40013522
000110 c3 72 07 3f fe 2d 7d 3e 1d fb 0d 3f 2b d7 13 3f
       0.5290949 0.24724576 0.55461293 0.57750195
000120 ad a1 4c 3f 64 bd 54 3f 01 49 e8 3e 73 16 f0 3c
       0.799342 0.8310149 0.45368198 0.02930758
000130 14 e1 91 be 2b 2a 51 3f da 9b 15 3e 5f 34 0e 3f
       -0.28492033 0.8170497 0.14610234 0.5554866
000140 01 02 8f be 97 a9 2a 3f 39 34 1c 3f bb 16 f8 3e
       -0.27931216 0.66665024 0.61017185 0.48454842
000150 11 39 bf 3e d6 1e 91 3e 2e 4e a2 3e 8e ce 68 3e
       0.37348226 0.28343838 0.3170027 0.22735044
000160 db 87 38 3e 57 fe 23 3e de 9d 4c be 2b 68 d7 3e
       0.18020575 0.16014992 -0.19982097 0.4207166
000170 e2 a7 39 3f 86 4c 10 bf dd b4 03 3e 50 8a d1 be
       0.72521794 -0.56366765 0.12861963 -0.40925837
000180 10 50 af bc fd 17 c9 3e 80 e2 13 bf 8b dc 1c 3f
       -0.021400481 0.39276114 -0.57767487 0.6127402
000190 b7 e7 40 3f 8f 20 02 3f ef 16 a5 be c3 29 a5 be
       0.7535357 0.5083093 -0.3224406 -0.32258424
0001a0 f5 84 43 bf 29 a7 1a bf f4 df 88 be 96 f3 ab 3e
       -0.7637475 -0.60411316 -0.26733363 0.3358428
0001b0 ed 7b 53 be 31 68 02 bf 8b 38 ce bd 7e 5f b0 3e
       -0.20652743 -0.50940233 -0.100693785 0.34447855
0001c0 c8 4c 0b 3f 3c 3b 0d bf f2 f1 e5 bd 98 d5 a1 be
       0.54414034 -0.5516851 -0.11227788 -0.31608272
0001d0 dd 06 ee 3e 76 22 f0 be 13 d3 aa be 19 e9 b9 be
       0.4648961 -0.46901292 -0.33364162 -0.36310652
0001e0 c0 da c3 bc c2 66 41 bd 3c 6c 37 be f0 cc c6 3e
       -0.023908019 -0.047217138 -0.17912382 0.3882823
0001f0 12 49 35 3f 55 19 a5 3e 7f bf 5d 3e 56 35 67 3f
       0.7081462 0.3224589 0.21655081 0.9031576
000200 8e 27 1e 3f 2f 9e c1 be 51 37 12 be 5a 88 5e 3c
       0.61779106 -0.37815997 -0.14278914 0.013582313
000210 6f 61 5b bf 2a f4 8a be 35 95 98 be 35 59 d6 3e
       -0.85695547 -0.27139407 -0.29801336 0.41864935
000220 da 86 05 3f b5 25 cd 3e 3c b5 05 3f fb 62 69 be
       0.5215889 0.4006783 0.52229667 -0.22791664
000230 01 58 59 3e 0c 40 85 be bb dc 01 bf 00 91 30 bf
       0.21224977 -0.26025426 -0.5072743 -0.6897125
000240 c6 e2 d9 be c4 4f 27 3f 1a a5 f1 3e ab 73 81 3e
       -0.42555827 0.6535609 0.47196275 0.2528356
000250 24 fa 35 be 2f 1b a1 3e 88 d8 4e be c5 c8 7d 3e
       -0.17771202 0.31466052 -0.20199788 0.24783619
000260 d6 f4 eb 3e 97 cc 0f 3f 47 15 02 bf d1 94 dd be
       0.46085232 0.56171554 -0.50813717 -0.432776
000270 0e d3 45 3f c7 f9 49 3e 17 55 8e 3e 4b f7 dc 3e
       0.7727517 0.19724189 0.27799293 0.4315742
000280 09 4a 28 3f 6e 85 bd 3e 92 93 bc 3e 5d c2 9b 3e
       0.6573797 0.3701586 0.36831337 0.30421725
000290 7f 1e a3 3e a1 64 a7 be da c7 8f 3d 98 db ac 3f
       0.31859204 -0.3269396 0.070205405 1.3504515
0002a0 a8 1c ed bd 8e 9d de be b2 72 22 3e 86 f0 65 3e
       -0.11577731 -0.4347958 0.15864065 0.22455034
0002b0 0e 39 e4 3e 93 7d 21 3e 42 4d 84 be 5a cb 5b bd
       0.4457478 0.15770559 -0.25840193 -0.053660728
0002c0 5b 1a 94 3e c5 73 cc 3e d3 7b d4 3e 0a db b4 be
       0.28926358 0.39932075 0.4150072 -0.35323364
0002d0 16 82 fa be 98 78 bd 3e 5f 06 da be 71 2c a0 3e
       -0.48927373 0.37006068 -0.42582986 0.31283906
0002e0 dd c4 e0 3e 9a 72 e2 be 31 3f b6 3e ba 87 90 3e
       0.43900195 -0.4422806 0.35595086 0.2822855
0002f0 24 c0 f4 be dc 59 a1 3e f3 d7 1c 3f 53 cc 61 be
       -0.47802842 0.3151387 0.6126701 -0.220506
000300 83 72 00 3f c8 d8 06 be 3f 34 9c be b7 39 90 be
       0.5017473 -0.13168633 -0.3050861 -0.28169033
000310 81 95 07 3f ad 3d 22 3e a2 ab 0d 3f c6 55 50 3f
       0.529625 0.1584384 0.55340016 0.8138088
000320 fc 53 48 3f 9d f7 54 3f cf a0 be 3e 9c 93 3f 3c
       0.7825315 0.8319033 0.37232062 0.011692908
000330 a6 94 a0 be c7 97 fa 3e 38 86 14 bd 55 9c ae 3e
       -0.3136341 0.48943922 -0.036260813 0.34103647
000340 38 6c ce be 93 d6 30 3f b7 88 1c 3f 31 b6 1a 3f
       -0.4031694 0.69077414 0.6114611 0.6043425
000350 83 fc cf 3e be b7 d3 3e 5f 7b b9 3e fd fb 08 3e
       0.4062234 0.41351122 0.36226937 0.13377376
000360 7c d2 cf 3c b1 4f 9a 3d 9a 64 75 be 46 ec be 3e
       0.025368921 0.07534731 -0.23964158 0.37289637
000370 07 71 bf 3e 61 32 65 bf 13 58 85 3e 77 58 ba be
       0.3739092 -0.8953 0.26043758 -0.36395618
000380 19 69 dc be c4 2d d9 3e e7 4c 01 bf 9b be 41 3f
       -0.43048933 0.4241773 -0.5050797 0.75681466
000390 ca 03 2b 3e c5 33 aa 3e 2b 63 c0 be 3d c5 d4 be
       0.16700664 0.33242622 -0.3757566 -0.4155673
0003a0 34 4c 43 bf cf b1 f7 be 73 65 98 be 03 e4 af 3e
       -0.7628815 -0.48377845 -0.297649 0.34353647
0003b0 8d da 9a be d1 f5 1d bf dd d1 8b bd a6 ac e3 3e
       -0.30244866 -0.6170321 -0.068271376 0.44467658
0003c0 fc f0 bb 3e c5 49 ad be 28 cd c3 be 48 b1 cd be
       0.36707294 -0.33845344 -0.3824246 -0.40174317
0003d0 de b3 df 3e 29 70 d8 be 2c 04 4e be b6 43 e5 bb
       0.43691915 -0.4227307 -0.20118779 -0.006996597
0003e0 93 62 f5 3d cb df a9 be 7e 22 3a be 96 9b 87 3e
       0.11981692 -0.33178553 -0.1817722 0.2648589
0003f0 e5 46 34 3f 65 28 a8 3d a0 c2 fb 3d 0e 86 c6 3e
       0.70420676 0.0821083 0.12292981 0.3877415

out.bias f4 [5]
000000 71 fc 02 bf b8 08 44 3f 11 d4 e7 3e 89 6c 38 3f
       -0.51166445 0.76575804 0.4527898 0.7204061
000010 a6 a4 a4 bf
       -1.2862747

exp_avg_sq f4 [128, 28]
000000 99 9f b3 41 01 75 6b 41 ad 18 e6 40 cc 88 f1 40
       22.452929 14.716065 7.190512 7.547949
000010 4d ca 19 40 a0 3f 0b 41 db df 33 43 be f9 4a 43
       2.4029725 8.703033 179.87444 202.97556
000020 d9 53 d8 42 5f cc 7d 42 52 b0 2f 42 57 14 1b 42
       108.163765 63.44958 43.922188 38.769863
000030 05 af 18 42 22 c0 2c 42 05 5b 79 42 be 5e e5 42
       38.170918 43.18763 62.338886 114.68504
000040 1f a5 ac 43 9d e2 36 44 ae ad e2 40 70 4e 96 3f
       345.29 731.54083 7.083701 1.1742687
000050 32 0a c5 40 62 df 8f 40 73 b8 9b 40 3c 33 b5 41
       6.1574945 4.4960184 4.866266 22.650017
000060 16 08 4e 42 96 2c 00 45 ed 50 99 3f 20 11 aa 46
       51.507896 2050.7866 1.1977822 21768.562
000070 5e 8c 99 47 d9 6f 8b 47 61 a0 53 47 7f 7b 14 48
       78616.734 71391.695 54176.38 152045.98
000080 a7 a8 8c 47 e4 ea 16 47 02 e1 db 47 a4 4c f0 47
       72017.305 38634.89 112578.016 123033.28
000090 2e f3 b2 47 fb 0b c4 47 53 48 ad 47 74 67 b8 47
       91622.36 100375.96 88720.65 94414.91
0000a0 38 a1 a9 47 28 03 a7 47 57 fe 98 47 65 cf 8b 47
       86850.44 85510.31 78332.68 71582.79
0000b0 f7 e6 16 48 a7 f3 9b 48 96 3e 04 47 ce a8 db 47
       154523.86 319389.22 33854.586 112465.61
0000c0 e0 6a 01 48 be 5f 5c 47 89 83 83 47 01 a9 99 47
       132523.5 56415.742 67335.07 78674.01
0000d0 fd 17 e2 46 8f ec e2 49 35 3a 3c 45 da 91 8b 4a
       28939.994 1.8589619e+06 3011.638 4.573421e+06
0000e0 54 2c b2 43 11 aa 8d 44 28 cd 1f 46 8b ba 4f 46
       356.3463 1133.3146 10227.289 13294.636
0000f0 de ef 74 46 8d 71 47 46 27 3c 79 45 9b bd 40 45
       15675.967 12764.388 3987.7595 3083.8503
000100 95 79 2d 45 eb 76 3e 45 60 99 9b 45 13 b9 ca 45
       2775.5989 3047.4324 4979.172 6487.1343
000110 86 65 74 46 44 b9 0e 47 21 a6 d7 46 69 53 b4 44
       15641.381 36537.266 27603.064 1442.6066
000120 69 fd 03 44 d7 b4 b7 43 81 eb 84 43 8f ab 1d 43
       527.95953 367.4128 265.83987 157.67015
000130 28 73 6b 43 6c 20 61 43 dd c9 53 43 a2 d7 a7 43
       235.44983 225.12665 211.78853 335.68463
000140 8b ca 8f 44 48 5a 19 47 62 e3 d5 42 33 c8 b6 49
       1150.3295 39258.28 106.94411 1.4973504e+06
000150 63 d6 02 3a c3 8c e9 39 64 7c d7 39 64 6f 83 3b
       0.00049910526 0.000445461 0.00041100674 0.0040110815
000160 fe f2 8a 3b e6 f6 08 3b 92 aa 2b 3b 5f e6 a7 3c
       0.0042403927 0.0020899116 0.0026194197 0.020495592
000170 de d1 d0 3d b3 11 c1 3d a4 6c ea 3c 11 fb 58 3c
       0.10196279 0.09427204 0.028616257 0.013243453
000180 40 95 17 3c e2 92 ed 3b 91 15 ea 3b 14 34 03 3c
       0.009251893 0.007250176 0.007143684 0.008008022
000190 ca cd 3c 3c 31 ed 9e 3c e6 3f 77 3d 48 77 1b 3e
       0.011523673 0.019400211 0.060363673 0.15182221
0001a0 29 1e 47 3d 8f d8 d4 3c ea f8 d2 3c 50 16 34 3a
       0.048612747 0.02598217 0.025753457 0.000686978
0001b0 0a 25 9f 3d bf d8 b5 3d 9e 81 d7 39 0c 3b 9f 3d
       0.077707365 0.08879232 0.00041104568 0.07774934
0001c0 4a ae 89 48 02 10 06 49 62 24 28 49 ce 75 30 49
       281970.3 549120.1 688710.1 722780.9
0001d0 1e 24 37 49 43 b6 d8 48 f8 3f f5 48 f7 ef 4c 49
       750145.9 443826.1 502271.75 839423.44
0001e0 80 c5 42 49 6c 53 5f 49 21 72 22 49 78 43 51 49
       797784.0 914742.75 665378.06 857143.5
0001f0 08 7d cc 49 37 b0 fb 49 e6 cc 9f 49 cd d6 00 49
       1.675169e+06 2.0618309e+06 1.3090848e+06 527724.8
000200 7d d7 96 47 1b 46 67 47 fb 65 b0 47 46 f9 40 48
       77230.98 59206.105 90315.96 197605.1
000210 3c 3b 5a 49 fe 49 7b 49 95 d2 21 49 b6 ae 89 48
       893875.75 1.0292799e+06 662825.3 281973.7
000220 4a 6e 49 48 51 49 67 4a 91 5f cc 46 cf 40 ba 4c
       206265.16 3.7893962e+06 26159.783 9.7650296e+07
000230 ed 26 13 45 76 44 f1 44 23 12 3e 45 24 bf c2 47
       2354.4329 1930.1394 3041.1335 99710.28
000240 a2 6b 37 47 66 55 a3 46 b2 2e b6 47 53 4a c4 47
       46955.633 20906.7 93277.39 100500.65
000250 3b 78 65 47 9e cc 23 47 21 9f 03 47 38 e4 ea 46
       58744.23 41932.617 33695.13 30066.11
000260 d9 24 d8 46 4e e9 f4 46 a0 0e 06 47 87 81 57 47
       27666.424 31348.652 34318.625 55169.527
000270 61 ff 16 48 0e 41 a2 48 72 94 a5 46 54 dd 9a 47
       154621.52 332296.44 21194.223 79290.66
000280 d8 71 a7 47 81 dd 34 46 1e 42 0a 46 56 46 15 45
       85731.69 11575.376 8848.529 2388.396
000290 48 d4 b7 46 7b 4e a3 49 e0 6a 76 44 dd fe 94 4a
       23530.14 1.3378074e+06 985.6699 4.8822865e+06
0002a0 1e d5 99 42 f7 4e ae 42 56 35 06 43 d5 54 b0 43
       76.916245 87.15423 134.20834 352.66275
0002b0 fe 0e 4f 44 5c c7 cb 43 83 99 96 45 78 d4 a8 45
       828.23425 407.5575 4819.189 5402.5586
0002c0 8b a3 34 45 d7 3c d2 44 34 b7 a8 44 1a e1 9f 44
       2890.2214 1681.9012 1349.7251 1279.0344
0002d0 c2 3a 8b 44 ed 92 95 44 4d 22 d1 44 4e 7b 3b 45
       1113.8362 1196.5914 1673.0719 2999.7065
0002e0 2b 23 0a 46 c5 89 96 46 2f cf b4 43 21 18 4a 42
       8840.792 19268.885 361.61862 50.523563
0002f0 1d 33 29 43 a1 53 f1 42 8e 70 b7 42 e8 04 a5 42
       169.19966 120.66334 91.71983 82.50958
000300 b8 39 ba 44 e1 aa 5b 47 00 d0 08 42 d2 38 0f 49
       1489.8037 56234.88 34.203125 586637.1
000310 09 51 bf 47 66 3a b5 48 c8 34 19 4a 76 60 31 4a
       97954.07 371155.2 2.51013e+06 2.9061415e+06
000320 cb 46 54 4a 34 05 e4 49 d1 34 5f 49 f1 9e 3f 49
       3.4779388e+06 1.8679425e+06 914253.06 784879.06
000330 57 c2 26 49 dc 75 30 49 94 47 62 49 0f b5 b7 49
       683045.44 722781.75 926841.25 1.5049299e+06
000340 9f 61 6b 4a d8 a8 f8 4a 4c cd 5d 4a d4 c6 8d 48
       3.8564878e+06 8.148076e+06 3.634003e+06 290358.62
000350 03 32 76 48 bc c9 cb 48 08 31 07 47 d7 5c ce 46
       252104.05 417357.88 34609.03 26414.42
000360 63 50 03 47 2c 00 19 47 f5 1e 50 47 63 4b bb 47
       33616.387 39168.17 53278.957 95894.77
000370 1c c4 93 48 5f 33 0c 4b 72 60 cb 46 fc 6d a0 4d
       302624.88 9.188191e+06 26032.223 3.364453e+08
000380 2b f1 36 46 80 5b 09 47 76 55 2b 48 97 5a 42 48
       11708.292 35163.5 175445.84 199018.36
000390 e7 99 63 48 b8 e9 f7 47 d7 d7 52 47 39 92 30 47
       233063.61 126931.44 53975.84 45202.223
0003a0 17 42 2b 47 e5 ad 47 47 66 1f 87 47 83 ef d2 47
       43842.09 51117.895 69182.8 107999.02
0003b0 dd bc 85 48 ab 90 03 49 b4 f7 6e 48 a9 76 85 46
       273894.9 538890.7 244702.81 17083.33
0003c0 41 24 b9 45 95 86 6e 45 e9 13 45 45 d9 89 7a 45
       5924.5317 3816.4114 3153.2444 4008.6155
0003d0 7b 3e e9 45 73 78 17 46 af ef 28 46 40 7e 34 46
       7463.81 9694.112 10811.921 11551.5625
0003e0 d7 60 94 46 7e a4 0a 49 49 aa e3 44 3a df a4 4b
       18992.42 567879.9 1821.3214 2.16101e+07
0003f0 90 19 cd 1e 91 08 95 1e e5 97 83 1e ec 9a 5a 1e
       2.1715792e-20 1.5779532e-20 1.3932987e-20 1.1572861e-20

exp_avg f4 [128, 28]
000000 04 00 00 00 04 00 00 00 04 00 00 00 04 00 00 00
       6e-45 6e-45 6e-45 6e-45
000010 04 00 00 00 04 00 00 00 04 00 00 00 04 00 00 00
       6e-45 6e-45 6e-45 6e-45
000020 04 00 00 00 04 00 00 00 04 00 00 00 04 00 00 00
       6e-45 6e-45 6e-45 6e-45
000030 04 00 00 00 04 00 00 00 04 00 00 00 04 00 00 00
       6e-45 6e-45 6e-45 6e-45
000040 04 00 00 00 04 00 00 00 04 00 00 00 04 00 00 00
       6e-45 6e-45 6e-45 6e-45
000050 04 00 00 00 04 00 00 00 04 00 00 00 04 00 00 00
       6e-45 6e-45 6e-45 6e-45
000060 04 00 00 80 04 00 00 00 04 00 00 00 04 00 00 00
       -6e-45 6e-45 6e-45 6e-45
000070 7d ed 3f 3e 68 0b d5 40 a5 88 73 40 eb 33 a9 40
       0.18742938 6.6576424 3.8052151 5.2875876
000080 12 29 09 41 ab eb 2a bf 50 29 0c 40 38 af ba 40
       8.572527 -0.6676585 2.1900215 5.833889
000090 c6 fd b5 3e 15 96 4a 40 b3 01 0c 3f 9b 13 b9 bf
       0.35545176 3.1654103 0.5469009 -1.4459108
0000a0 69 c4 0d 40 c3 da 93 41 f1 01 be c0 f3 41 e2 c0
       2.215113 18.481817 -5.937737 -7.0705504
0000b0 4f 4f 9d 3e 4a a2 da bf fb e5 d7 c0 c3 f9 8e c0
       0.3072457 -1.7080777 -6.746824 -4.4679885
0000c0 43 ea 6b 41 7c 08 41 41 4f e7 59 3f d4 bd 49 3e
       14.744693 12.064571 0.85118574 0.1970132
0000d0 f7 77 2f 40 a7 95 28 42 d9 cc f7 3f 78 85 83 42
       2.741697 42.146145 1.935939 65.76068
0000e0 04 00 00 00 04 00 00 00 04 00 00 00 04 00 00 00
       6e-45 6e-45 6e-45 6e-45
0000f0 04 00 00 00 04 00 00 00 04 00 00 00 04 00 00 00
       6e-45 6e-45 6e-45 6e-45
000100 04 00 00 00 04 00 00 00 04 00 00 00 04 00 00 00
       6e-45 6e-45 6e-45 6e-45
000110 04 00 00 00 04 00 00 00 04 00 00 00 04 00 00 00
       6e-45 6e-45 6e-45 6e-45
000120 04 00 00 00 04 00 00 00 04 00 00 00 04 00 00 00
       6e-45 6e-45 6e-45 6e-45
000130 04 00 00 00 04 00 00 00 04 00 00 00 04 00 00 00
       6e-45 6e-45 6e-45 6e-45
000140 04 00 00 00 04 00 00 00 04 00 00 00 04 00 00 00
       6e-45 6e-45 6e-45 6e-45
000150 04 00 00 80 04 00 00 80 04 00 00 80 04 00 00 80
       -6e-45 -6e-45 -6e-45 -6e-45
000160 04 00 00 80 04 00 00 80 04 00 00 80 04 00 00 80
       -6e-45 -6e-45 -6e-45 -6e-45
000170 04 00 00 80 04 00 00 80 04 00 00 80 04 00 00 80
       -6e-45 -6e-45 -6e-45 -6e-45
000180 04 00 00 80 04 00 00 80 04 00 00 80 04 00 00 80
       -6e-45 -6e-45 -6e-45 -6e-45
000190 04 00 00 80 04 00 00 80 04 00 00 80 04 00 00 80
       -6e-45 -6e-45 -6e-45 -6e-45
0001a0 04 00 00 80 04 00 00 80 04 00 00 00 04 00 00 80
       -6e-45 -6e-45 6e-45 -6e-45
0001b0 04 00 00 80 04 00 00 80 04 00 00 80 04 00 00 80
       -6e-45 -6e-45 -6e-45 -6e-45
0001c0 10 f8 b7 41 76 ef 7d 41 65 1d 41 41 e0 ee 21 41
       22.996124 15.870962 12.069676 10.120819
0001d0 8a 10 19 41 15 8c 13 41 79 05 f8 40 cd 55 02 be
       9.566538 9.2217 7.750668 -0.12728043
0001e0 68 40 ba 41 56 fc 01 43 b1 71 b7 42 36 72 0f 42
       23.281448 129.98569 91.72205 35.861534
0001f0 e8 42 1d 42 2e ef 4d 42 15 76 cc 42 16 af cb 42
       39.31534 51.483574 102.23063 101.841965
000200 35 60 89 41 39 fb 92 41 9b ab a0 41 84 1b 8b 41
       17.171976 18.372667 20.083792 17.388435
000210 7b c7 ef 41 e9 55 b7 42 c5 31 3a 42 f7 fc bd 41
       29.972403 91.66779 46.548603 23.748518
000220 7a 14 6a c1 3a e8 8d 42 67 ea 34 41 3c 36 54 43
       -14.629999 70.95357 11.307227 212.21185
000230 6e cb 07 c1 44 e4 a2 c0 61 36 72 c0 1c 04 a1 3f
       -8.487165 -5.0903645 -3.784569 1.2579379
000240 4b 00 00 c1 01 5d 70 c0 3b 6a 02 c1 17 f9 cf c0
       -8.000072 -3.7556765 -8.150935 -6.4991565
000250 a6 63 27 c1 34 6f 53 c1 c9 03 c9 c1 b0 26 fd c1
       -10.461828 -13.214649 -25.126848 -31.64389
000260 9b c7 99 c1 f6 17 32 c1 cd ad 39 c1 20 d6 32 c1
       -19.222464 -11.13085 -11.604932 -11.177277
000270 4b 96 40 c1 df 52 5c c1 3a cc 25 c1 fd cf 46 c1
       -12.036693 -13.770232 -10.36236 -12.425778
000280 b0 e1 b7 c1 8c cf 1e c2 0c e6 bf c1 21 ad 05 c1
       -22.985199 -39.702682 -23.987328 -8.354768
000290 5c 65 e9 c0 e4 04 a6 c2 9e 3a 51 c0 35 a9 82 c2
       -7.293623 -83.00955 -3.2692027 -65.33048
0002a0 04 00 00 00 04 00 00 00 04 00 00 00 04 00 00 00
       6e-45 6e-45 6e-45 6e-45
0002b0 04 00 00 00 04 00 00 00 04 00 00 00 04 00 00 00
       6e-45 6e-45 6e-45 6e-45
0002c0 04 00 00 00 04 00 00 00 04 00 00 00 04 00 00 00
       6e-45 6e-45 6e-45 6e-45
0002d0 04 00 00 00 04 00 00 00 04 00 00 00 04 00 00 00
       6e-45 6e-45 6e-45 6e-45
0002e0 04 00 00 00 04 00 00 00 04 00 00 00 04 00 00 00
       6e-45 6e-45 6e-45 6e-45
0002f0 04 00 00 00 04 00 00 00 04 00 00 00 04 00 00 00
       6e-45 6e-45 6e-45 6e-45
000300 04 00 00 80 04 00 00 00 04 00 00 00 04 00 00 00
       -6e-45 6e-45 6e-45 6e-45
000310 a2 78 ba be 78 e1 7b bf 12 e0 69 bf ea f8 71 bf
       -0.3642016 -0.98390913 -0.9135753 -0.9452044
000320 9b 3a 89 bf 9e d4 ac bf 6e 9d cf be 59 0b ba be
       -1.072101 -1.3502386 -0.40549797 -0.36336783
000330 3a 98 c5 be f4 85 eb be cc 75 03 bf 6d 92 2e bf
       -0.38592702 -0.46000636 -0.5135162 -0.6819218
000340 7c 5f 8b bf e1 c6 08 c0 c2 e1 c2 bf ca 01 c4 be
       -1.0888515 -2.1371386 -1.5225146 -0.38282615
000350 de e4 05 be 73 c8 f2 3c 15 7c 52 be 7f 37 4f be
       -0.13075587 0.029636597 -0.20555146 -0.20236014
000360 95 42 33 be e5 ab 35 be 4b 52 91 be 88 00 ae be
       -0.17505868 -0.17741354 -0.28383097 -0.3398478
000370 df 53 be 3e 32 ff c4 bf 8c d6 44 be f7 4e 3f c1
       0.37173364 -1.539038 -0.19222468 -11.956779
000380 a7 59 08 41 9c a4 b3 40 43 32 c9 40 66 37 a5 3f
       8.521888 5.613844 6.2873855 1.2907531
000390 7a 22 04 40 77 b4 33 40 a8 ed a0 40 be 46 8b c0
       2.0646043 2.8078897 5.029011 -4.3523855
0003a0 e0 a7 0d c1 a2 89 82 c1 34 9f 17 c1 ac 07 dd bf
       -8.853485 -16.317204 -9.476368 -1.7267966
0003b0 a9 72 bd 40 2c 96 52 c0 f1 fe b7 c0 25 c8 6b c0
       5.9202466 -3.2904158 -5.749871 -3.6840909
0003c0 92 22 62 bf 43 86 f7 be 70 12 fd bf 2d bd 0b c1
       -0.88334 -0.4834462 -1.9771252 -8.7336855
0003d0 86 da 53 c1 cb fb 19 c1 67 8e bc 3e ac 7a 08 41
       -13.24085 -9.623973 0.36827394 8.529949
0003e0 1c 13 60 40 ee 52 30 41 92 87 9d 3e 27 04 f6 41
       3.5011663 11.0202465 0.30767494 30.752028
0003f0 04 00 00 00 04 00 00 00 04 00 00 00 04 00 00 00
       6e-45 6e-45 6e-45 6e-45

exp_avg_sq f4 [5, 128]
000000 00 30 65 44 10 bc ad 44 9d f6 24 44 57 fb 0f 44
       916.75 1389.877 659.85333 575.9272
000010 80 a3 ee 43 cd 0c 70 44 c8 9e 07 44 2d aa 03 45
       477.27734 960.2 542.48096 2106.636
000020 cd c6 cc 44 5d 2c af 44 00 11 84 44 84 eb 6f 44
       1638.2125 1401.3864 1056.5312 959.67993
000030 81 ec 0b 44 dd 89 68 44 f8 00 b8 44 68 c7 6c 44
       559.6954 930.1541 1472.0303 947.1157
000040 2e 9e 32 44 a0 05 44 44 18 35 ce 44 7f 01 37 45
       714.47156 784.0879 1649.6592 2928.0935
000050 16 fe 47 44 a0 23 ed 42 53 2d 11 44 fe 2a e2 44
       799.9701 118.56958 580.7082 1809.3435
000060 6c fb d9 44 41 44 f6 43 b6 c7 17 44 9a 7d e4 43
       1743.8569 492.53323 607.1205 456.98126
000070 64 ba 09 44 8b 14 98 44 3f b0 7f 44 84 e5 c2 44
       550.91235 1216.642 1022.75385 1559.1724
000080 83 bc 22 45 5d c0 32 45 21 67 eb 44 3f d2 b7 44
       2603.782 2860.0227 1883.2228 1470.5702
000090 ee ba 8d 44 58 ce a8 44 29 75 4c 44 91 af 01 44
       1133.8416 1350.4482 817.8306 518.7432
0000a0 83 2e bb 43 c5 a0 71 44 84 69 9a 44 d4 58 96 44
       374.36337 966.512 1235.2974 1202.7759
0000b0 4a 40 76 44 d0 13 37 44 3e fc 60 44 de 9e 58 44
       985.0045 732.3096 899.9413 866.4823
0000c0 7d 2b d5 43 cc cb b9 43 51 51 1e 45 c3 6c d2 43
       426.33975 371.59216 2533.0823 420.8497
0000d0 c1 58 f7 42 96 1d 75 43 dc f2 dd 44 e4 ef b6 43
       123.67335 245.11557 1775.5894 365.87415
0000e0 6d 4d f6 43 ef ae 16 44 a5 6b ae 44 49 c5 c2 44
       492.6049 602.73334 1395.3639 1558.1652
0000f0 97 41 69 44 b0 30 99 43 7f b8 fe 44 c8 80 b0 44
       933.02484 306.38037 2037.7655 1412.0244
000100 8d cd 2f 44 e6 b8 50 44 f5 0d b6 44 ed bc 29 44
       703.21173 834.88904 1456.4362 678.95197
000110 45 95 b7 44 d5 54 f2 43 20 4a da 43 c8 d7 c4 43
       1468.6647 484.66275 436.5791 393.6858
000120 b6 a3 23 44 c9 9f d0 43 2b 97 e4 44 59 c8 72 44
       654.558 417.24832 1828.724 971.13043
000130 13 9e 94 44 94 ee 82 43 66 a3 53 44 91 41 ae 44
       1188.9398 261.8639 846.5531 1394.049
000140 0f ed 01 44 8a 43 1a 44 ae ca 69 44 e6 1d 44 44
       519.70404 617.0553 935.1669 784.46716
000150 6a f4 1c 45 9b a2 11 44 e4 53 f4 44 cc b8 8e 44
       2511.276 582.5407 1954.6216 1141.7749
000160 69 4f 1a 44 4a 34 68 44 9c 53 a3 44 7f ce e8 44
       617.2408 928.817 1306.6128 1862.453
000170 c5 71 80 44 53 b9 2c 44 8f 64 c6 44 8c 36 88 43
       1027.5553 690.8957 1587.1425 272.42615
000180 ed 53 ed 43 31 9b 2f 44 60 e1 09 44 d3 95 a4 43
       474.65567 702.42487 551.5215 329.1705
000190 b3 b7 35 44 7f e8 a9 43 7d be 44 44 dc c4 08 44
       726.8703 339.81638 786.9764 547.0759
0001a0 b3 7c 48 44 86 62 bb 43 eb ba 1d 44 ac 13 86 44
       801.9484 374.7697 630.9206 1072.6147
0001b0 e5 46 fe 43 12 97 8f 44 a1 79 69 44 86 79 aa 44
       508.55386 1148.721 933.90045 1363.7976
0001c0 0b 53 2c 44 35 b9 86 44 3b d7 a3 44 21 ff bd 44
       689.29755 1077.7877 1310.726 1519.9728
0001d0 d3 62 df 44 2b 8b cf 44 4e 6b b2 44 35 1e d8 43
       1787.0883 1660.349 1427.3533 432.236
0001e0 b2 3e 95 44 d9 7a 08 44 ab f9 98 44 00 4c 91 44
       1193.9592 545.9195 1223.8021 1162.375
0001f0 e0 0e 2f 44 59 12 49 44 6d 30 db 43 ba f2 96 44
       700.2324 804.2867 438.37833 1207.5852
000200 ab 7f 73 48 d7 82 d5 47 08 a0 81 47 6b 83 11 48
       249342.67 109317.68 66368.06 149005.67
000210 79 c9 28 47 09 f9 9e 47 f7 f5 07 48 c0 d3 8b 48
       43209.473 81394.07 139223.86 286366.0
000220 9c ab 42 48 5e 9b 7e 48 bc dd f7 47 94 0d f4 47
       199342.44 260717.47 126907.47 124955.16
000230 80 3e c5 47 b9 a6 ea 47 9f ee 4d 48 7c 7f 06 48
       100989.0 120141.445 210874.48 137725.94
000240 4a a2 86 48 83 15 84 47 f4 89 09 48 4e 52 a1 48
       275730.3 67627.02 140839.81 330386.44
000250 e6 ce f2 47 9e 87 3b 48 9f b2 b7 47 8c a2 4b 48
       124317.8 192030.47 94053.24 208522.19
000260 b0 40 27 48 36 e6 87 48 e6 04 96 47 5a 67 dd 47
       171266.75 278321.7 76809.8 113358.7
000270 85 a4 43 47 37 48 4c 48 22 87 86 48 07 23 d8 47
       50084.52 209184.86 275513.06 110662.055
000280 05 0e 50 48 d5 65 1a 48 21 4f d0 47 ad 52 45 48
       213048.08 158103.33 106654.26 202058.7
000290 c2 5b 29 48 bd b3 21 48 43 7f 0c 48 4a 28 84 46
       173423.03 165582.95 143869.05 16916.145
0002a0 2f 82 2c 48 f3 36 19 48 7a 63 96 48 30 97 a2 48
       176648.73 156891.8 307995.8 332985.5
0002b0 6e 1b 33 48 8b e1 a3 47 fe 49 03 48 a3 9e 7f 48
       183405.72 83907.086 134439.97 261754.55
0002c0 a8 5e 6b 48 a0 a3 b3 47 fe 00 7f 48 bf a2 a1 47
       241018.62 91975.25 261123.97 82757.49
0002d0 1f c1 09 48 76 d5 83 48 a7 a1 94 48 d3 42 f5 47
       141060.48 269995.7 304397.22 125573.65
0002e0 af b4 70 47 5b fa de 47 7a 3d 30 48 e4 e5 0b 48
       61620.684 114164.71 180469.9 143255.56
0002f0 63 14 92 48 b8 7a 9d 48 32 eb 06 48 b7 1f a2 48
       299171.1 322517.75 138156.78 332029.72
000300 c6 c3 5c 48 3c 79 7a 48 d8 06 77 48 f7 5c f6 47
       226063.1 256484.94 252955.38 126137.93
000310 4b 78 ed 47 e1 11 b0 48 b5 9a 05 47 41 0f ea 47
       121584.586 360591.03 34202.707 119838.51
000320 c3 b5 1e 47 2b 7f 05 48 60 3d 44 48 d0 fc 5f 48
       40629.76 136700.67 200949.5 229363.25
000330 7b a0 28 48 9f ea cc 47 6a 47 af 47 7a d9 7b 48
       172673.92 104917.24 89742.83 257893.9
000340 1c 49 14 48 db 0d 90 47 fa 1f 2b 48 20 2b 48 48
       151844.44 73755.71 175231.9 204972.5
000350 e9 0c cc 48 13 bd d9 46 9e a8 04 48 bb a8 2a 48
       417895.28 27870.537 135842.47 174754.92
000360 9d 98 9e 48 3b a3 9f 48 da bb 18 48 43 6a 8b 48
       324804.9 326937.84 156399.4 285522.1
000370 c2 d3 45 48 18 49 fe 47 31 7f b0 48 b2 fa e1 47
       202575.03 130194.19 361465.53 115701.39
000380 b1 c6 c8 47 0e 29 e4 47 d1 c2 fc 47 4b ae 61 47
       102797.38 116818.11 129413.63 57774.293
000390 d4 fa f2 47 9a 91 c5 47 9c 7f 3b 48 a5 50 27 48
       124405.66 101155.2 191998.44 171330.58
0003a0 09 bb 5e 47 b6 73 af 47 0c f0 53 48 91 55 ad 48
       57019.035 89831.42 217024.19 354988.53
0003b0 60 ae 28 48 5f 94 14 48 ef 09 80 48 5d dc a8 48
       172729.5 152145.48 262223.47 345826.9
0003c0 88 b1 4d 47 6c 76 44 47 ed 8c 3a 48 89 a3 81 48
       52657.53 50294.42 191027.7 265500.28
0003d0 b8 27 d9 48 e0 f9 51 48 c8 f3 44 48 19 ef 94 47
       444733.75 215015.5 201679.12 76254.195
0003e0 5e 48 9a 48 52 81 a6 48 d6 1e 07 48 20 17 5c 48
       315970.94 341002.56 138363.34 225372.5
0003f0 68 11 fc 47 a3 ee 53 48 1e 60 e4 47 60 35 58 48
       129058.81 217018.55 116928.234 221397.5
