model/30a.pt (torch_old, 336838 bytes, 24 tensors)

fc1.weight f4 [128, 28]
00000000: 96d1 933d 25fe 823c c56c a5bd 95df f13b
00000010: 2842 09be fb99 8dbd 3a72 8fbd 2a2d 97be
00000020: 94f7 0bbe 9481 47be fae1 65bd 29df c5bd
00000030: d9ed f9bd 1912 6bbd 15c8 debc 0b4f 5bbe
00000040: b116 bd3c 76fd 5ebc 3419 373e 1657 c5bd
00000050: 109c 24be 308a 163d 773c 943d eeea 543e
00000060: 6308 45be fc65 bc3d a344 57be b375 8e3d
00000070: db64 123f 0991 a03e 0ba7 d63d 1ddc c23c
00000080: 799c 243d d68b 4ebe 4c8a 023e 96eb e63d
00000090: 28ef cfbb 4138 83ba f60f ea3c 7648 463d
000000a0: d9d7 c9bd 89df 9ebe c861 81bd 51bf 473d
000000b0: cda0 473e d089 40bd d8c8 bcbd 7772 1b3b
000000c0: 7af1 f9bc 8ed0 df3d 036d f53d 9a63 ed3e
000000d0: f131 213c a421 293b b4cd 073f 4e78 873c
000000e0: cd3d 98be 8003 86be 679e dabd 39b9 303e
000000f0: b97e 1abe 1395 28be 44f5 0ebd 0e5d 6d3d
00000100: fccb db3d 4f46 293e 0236 213e 60c1 6f3e
00000110: bebb 073e e245 533e 0dbd 743e 45ce 0cbb
00000120: c4a1 823b de78 1fbe 2324 0c3e 39c3 b6bd
00000130: 31bc 433d 7bb0 f1bd e0d6 46be 0f10 cebe
00000140: 0cd9 7c3e 7a89 2c3e 241a 04bf b919 113e
00000150: d578 0cbe 468f 3abe 6846 35be 1262 a5bd
00000160: 4bf8 0bbe 0cf4 fbbb 0aa8 0fbe 9c16 3f3d
00000170: 4780 163e 1148 6d3e 868d 533e c650 b33d
00000180: e217 2e3e a9cc f23d 4565 f63d 6585 26be
00000190: ea20 79bd 4209 ffbd 2b41 8c3e f11a be3d
000001a0: 3113 b23c 8347 e5bd 12ed 68be c64f 67be
000001b0: 901c 453e 81b9 883c 2d33 dabe 3b46 9a3d
000001c0: 8017 b3be c557 19be d03e 743e bc32 e33a
000001d0: bac4 1ebe 4857 7cbd 1935 3cbe 2a79 d53d
000001e0: cd20 f03d 5e5e 723d 602e a43e 3eaf 223e
000001f0: 129d 92bd 19cb 323e 508a 903e dbae 0c3e
00000200: 10f0 a7be bd34 8ebe bd2d 22bb 00da d13d
00000210: 22c8 1c3c 6e3a 4e3d 2662 14bd ed36 a7be
00000220: 3659 a63e e8e3 1f3e d845 dbbe b058 953c
00000230: 2806 85be 8402 febe 9530 96be 4d03 683e
00000240: 7b14 d53d 03ec 153d b208 0dbe 55b2 693d
00000250: 8c88 023e 3135 963d f262 753e ae2d a93c
00000260: a534 d13d 7009 193d 1314 113d 4c1d 1b3e
00000270: eef0 4bbd e303 0e3e 9a06 143e dcdc 813e
00000280: 8942 54be 978e b73d e6dc b23d 0a07 a6be
00000290: ded2 8a3e cbea 353e d8fa a2be bd1b 0fbe
000002a0: 8395 d4bd 5330 c23d 0f51 8ebd 8b34 4cbd
000002b0: f1de 613d 79c2 4ebe ec0a 6e3e 471f 453e
000002c0: 1636 943e 6c6c 0f3e 48a7 673e c908 b2bd
000002d0: eae7 96bc ddee 423e f296 e43b cc93 9bbc
000002e0: 1665 2d3e 132e 653e 3198 033e d9c4 d0bd
000002f0: 8940 b1bb 23e5 a23d 214c 923c 859c 6ebe
00000300: bb24 ffbb 6f22 b1bc 28fb 04bf 6241 a0bd
00000310: b5c4 e9be 72e1 2fbe c98a c1bc f020 1cbd
00000320: b338 1dbe 7829 143e a246 173c 8ea6 bd3c
00000330: 5d11 293e 39a7 b2bd c8d0 debd 623c 0bbe
00000340: 4afc a1bd 539e 1b3d 0a72 b63d d2bf 3dbe
00000350: e527 8fbc ed7a a33d 65e2 5d3d a672 d1be
00000360: 10d8 eebe a207 c0be 01d8 bbbe 7870 15bf
00000370: f798 0ebe 910f 953b 754c 1dbf 3ec8 db3d
00000380: b29a 7e3d be42 b93e 99af aebc 38e4 533e
00000390: abbd ae3d a82a 793d 9689 03be a5bf 02be
000003a0: 5e11 d7bd 85c1 423d c60e 93bd 620c b23d
000003b0: 71af f5bd b91f fcbd 7ced f8bc 126c 63bd
000003c0: 79a1 69be 2da3 26be 0525 06bd e08d 59bc
000003d0: cc84 843e a6b0 83bc 5807 413d 86de 083e
000003e0: 7e4a cfbd 5e08 b2bc e890 bc3e dd09 393e
000003f0: ce9c 363e 2b34 28be 1307 3bbd deb2 02be
0.0721771 0.015990326 -0.08077387 0.0073813894 -0.13404143 -0.06914135 -0.07004209 -0.29526645
-0.13668662 -0.19483024 -0.05612371 -0.09661705 -0.12203569 -0.057390306 -0.027195016 -0.21416871
0.02308211 -0.0136102345 0.17880708 -0.09635751 -0.16075158 0.03675288 0.07238095 0.20792744
-0.1924148 0.091991395 -0.21022277 0.06956043 0.57185143 0.31360653 0.1048108 0.023786599
0.040188286 -0.2017053 0.12748069 0.11275403 -0.0063456483 -0.0010011272 0.028572064 0.048408948
-0.09855623 -0.3102992 -0.063174784 0.048766438 0.19494934 -0.04700643 -0.092179954 0.002371935
-0.030510653 0.109284505 0.11983683 0.46365052 0.009838567 0.0025807405 0.53048253 0.016536858
-0.2973465 -0.26174545 -0.10674744 0.17258157 -0.15087403 -0.16463117 -0.034901872 0.057950072
0.10732266 0.16530727 0.15743259 0.2341361 0.13255212 0.20632127 0.23900242 -0.002148525
0.003986569 -0.15573451 0.1368566 -0.089239545 0.047786895 -0.11801239 -0.19417906 -0.40246627
0.24692172 0.16849318 -0.5160239 0.14169969 -0.13717969 -0.18218717 -0.17702639 -0.08075346
-0.13668935 -0.0076890048 -0.14028946 0.04665242 0.14697371 0.23172022 0.20659456 0.08755641
0.17001298 0.11855442 0.120310344 -0.16261823 -0.060822405 -0.12452938 0.2739347 0.092824824
0.021737667 -0.111952804 -0.22746685 -0.22589025 0.19249177 0.016690018 -0.4261717 0.07532927
-0.34978867 -0.14974888 0.23852086 0.0017333846 -0.15504733 -0.061606675 -0.1837963 0.10423501
0.11725006 0.059172027 0.3206663 0.15887162 -0.07158865 0.17460288 0.28230524 0.13738577
-0.3280034 -0.2777461 -0.00247465 0.10246658 0.0095692 0.05034869 -0.036226414 -0.32659093
0.32489938 0.15614283 -0.42826724 0.018230766 -0.2598126 -0.49611294 -0.2933394 0.22657509
0.10404297 0.03660203 -0.13772848 0.057054836 0.12747401 0.07334364 0.23963526 0.020651665
0.10215119 0.037362516 0.035419535 0.15147895 -0.049790315 0.1386867 0.14455643 0.25363815
-0.20728506 0.08962744 0.08733539 -0.32427245 0.27114004 0.17765348 -0.31832004 -0.13975425
-0.103800796 0.09481873 -0.069490544 -0.049854796 0.055144254 -0.20191373 0.23246354 0.19250213
0.28947514 0.14006203 0.22622406 -0.08693082 -0.018421132 0.19036432 0.006976002 -0.018991373
0.16933092 0.22380857 0.12851025 -0.10193796 -0.0054093045 0.079538606 0.017858567 -0.23301895
-0.007786361 -0.021622865 -0.51945734 -0.07824971 -0.45657888 -0.17175844 -0.023625748 -0.03811735
-0.1535366 0.14468944 0.009233149 0.023150709 0.1651053 -0.087233014 -0.108796656 -0.13597253
-0.079094484 0.037992787 0.0890847 -0.18530205 -0.017475078 0.079824306 0.054170985 -0.40907782
-0.46649218 -0.37505823 -0.36688235 -0.5837474 -0.13925539 0.004548975 -0.6144479 0.107315525
0.062159248 0.36183733 -0.021323966 0.20692527 0.0853227 0.060831696 -0.12845454 -0.12768419
-0.105013594 0.047547836 -0.07180552 0.08693768 -0.119963534 -0.12310738 -0.030386679 -0.055522986
-0.22815503 -0.16273184 -0.03275015 -0.013278455 0.25882566 -0.016075443 0.047126144 0.13366136
-0.1012163 -0.021732505 0.36829305 0.18070169 0.17833254 -0.1642615 -0.045661043 -0.12763545

fc1.bias f4 [128]
00000000: e66d c13d 950f 9a3d 2d1b 42bd 57c8 32bd
00000010: 1e34 683c a7db d83c 6101 d93d 2f4e 64bd
00000020: d92f 37be 0ac8 77bb 80d8 fabc d564 c43d
00000030: d5eb 08bc 92d2 ae3d 1ea8 b93a f240 22be
00000040: 4c55 2ebe f3f2 f5bd 76bb 0abe 7849 12be
00000050: ae60 5c3d 2268 ad3d 5cc0 6e3e 7c5a 293e
00000060: fc05 48bd 524f 2bbe 736b d4bd 659a b5bd
00000070: 820d 213d d511 22be aab9 07be b535 c33d
00000080: 783e 43bd 510a 09be f469 623e fc79 67bd
00000090: 3b14 543d f7a8 dfbd c8db 87bd 2c0e b1bc
000000a0: f4b3 b5bd 2d6a 393e ea60 87bb 0b6c bbbd
000000b0: c04d 14bd 74e3 45be 81cb bcbb 399f 6f3e
000000c0: b5c9 083e 9e98 9bbb 0b13 5bbc 72b4 a23d
000000d0: eadc 4fbe f838 47bd 959b 443e 194d 1dbe
000000e0: 69d8 e43d 4c5e f83d 7035 44be 98fa 1d3f
000000f0: d09c 113d 96a0 e93c edc7 393e 9239 cebd
00000100: b096 1f3e dde5 443e 155f 553d 447d 213e
00000110: d735 c7bd 1831 513e e9f8 23be d94d 173d
00000120: 659a acbd 5e30 90bc 5119 8a3d 815d 2dbe
00000130: 745c 043e 7257 17be 44f7 b8bd 5c03 d4bc
00000140: 6c4f 2cba 84e1 aa3d 5f86 283d b706 303e
00000150: eb0f 4b3e d53d dc3d d8fc 0cbd 43dc 71bd
00000160: 644f a53d 5d3b b7bc bee0 ffbd 60ab e53c
00000170: fce9 973d 7a07 bd3d 3c12 75bd 9b4c 27be
00000180: f8ac 01be 2b95 09be 524b e53e dc8d 9c3d
00000190: 31b0 763e 566f 57bd e8df f53d 7e62 f3bd
000001a0: 6c24 ce3d 2918 e73c e57d 7ebd 185e 5b3e
000001b0: fe50 edbc 940c c3bd 34e4 d33d 620f 8f3d
000001c0: 1dab fbbd c84f f43d 273c 003d c9a5 9a3b
000001d0: 221a 29be b77d a2bd 581f 0e3d c8ba 24be
000001e0: 391e 38bd aa41 0fbd 593b d9bd d321 44bd
000001f0: 0b2e 0a3e c2d4 30bd 27e6 aebd e791 18be
0.094447896 0.07522503 -0.047389198 -0.04364809 0.014172582 0.026471926 0.10595966 -0.055738624
-0.17889346 -0.0037808442 -0.030620813 0.09589545 -0.008357008 0.08536257 0.0014164483 -0.15845087
-0.17024726 -0.120092295 -0.13548073 -0.14285839 0.05380314 0.084671274 0.23315567 0.16538423
-0.048833832 -0.16729477 -0.10372057 -0.08867339 0.039319523 -0.15827115 -0.13254419 0.09531728
-0.047666997 -0.13382842 0.2211073 -0.056512818 0.051777106 -0.10920899 -0.06633717 -0.021613203
-0.08872214 0.18106909 -0.004131426 -0.09151467 -0.03620696 -0.19325048 -0.0057615642 0.23400582
0.13358195 -0.004748418 -0.013371239 0.079445735 -0.20299116 -0.048638314 0.19199975 -0.15361442
0.111740895 0.12127361 -0.1916101 0.617105 0.03554994 0.028518956 0.18142672 -0.100695744
0.15584826 0.19228311 0.05209263 0.15770441 -0.09727066 0.20428884 -0.1601292 0.036939476
-0.08427886 -0.017601188 0.0674311 -0.169302 0.12925893 -0.14779451 -0.09031537 -0.025880508
-0.0006573114 0.08343795 0.04114377 0.17190062 0.19830291 0.10753981 -0.034420818 -0.05904795
0.08071783 -0.022367174 -0.12494038 0.02803582 0.07417676 0.09229942 -0.059831843 -0.16337816
-0.12663639 -0.1343581 0.44784027 0.07644245 0.24090649 -0.052596413 0.12005597 -0.1188402
0.10065541 0.028209763 -0.06213178 0.21422613 -0.028969284 -0.095238835 0.10346261 0.06985356
-0.12288497 0.119292796 0.031307366 0.00471947 -0.16513875 -0.079341345 0.03469786 -0.16086876
-0.044950698 -0.03497473 -0.10607023 -0.04788382 0.13494126 -0.04317165 -0.08539992 -0.14899407

fc2.weight f4 [128, 128]
00000000: fad9 a0bc 3496 6f3c 246e c03d 0b96 dcbc
00000010: fc16 ef3d 4666 eaba ec83 ce3d 150f 873e
00000020: a944 8abd d44c cebd 10d0 883d 9fe1 11bd
00000030: 3bed 0b3e 3b62 943e fae0 83bd 344d 73be
00000040: 4e79 7b3d 5467 1b3d 74f6 adbd b2fb 663d
00000050: 1277 7cbe b2d7 a5bd 3eb3 51bc 6cb0 973d
00000060: ed0f b13d b740 7ebe db73 643e 6604 ec3d
00000070: 3c1e e73d cf77 883e 67c3 1c3d 0cd5 de3d
00000080: 5682 733e d664 843e d0a8 1f3e ba1b 3b3e
00000090: 21d4 8c3e c13f 553e bb2f 363e e1c8 45be
000000a0: 11b6 0dbe ffcd 86bd f2c3 053d af3b 553e
000000b0: 728e 203c 840a 68be 016e 4a3e 8ca5 273e
000000c0: 4097 8e3d 775d 303e 3e73 1f3e 2675 993e
000000d0: 21cc 8f3c 1f08 63bd 222e 1bbe 8238 dc3b
000000e0: eb0d 3abe 51f1 ee3b 2123 43be b1e0 d1be
000000f0: f946 093e 1e01 82be 2a92 f83d 1727 b7be
00000100: 3870 863d b551 743e e393 1e3d 701e 0f3e
00000110: 2a10 163e ab7f 1b3d eea5 3e3b bb98 dfbd
00000120: a1ea 0dbe 8112 4a3e e52f 24be 7207 51bd
00000130: f28b aabd fca8 243e 2d1f 823d 7230 6a3e
00000140: 0a1b afbb 773f 62be 165f 1abc 263e bcbd
00000150: 6a63 593e eaba 39bd 7f2c 30bd b91e cc3c
00000160: f7b5 14be f37e 673e 6f53 6fbe e1db 44be
00000170: f679 f6bd c116 d2bd c1f9 ba3c 820a 6c3c
00000180: f5e6 0cbc 6da7 ddbd 6d1f 91bd b5bb b1bc
00000190: 8222 8fbe ca8d 17be 1867 843e 5cad f2bc
000001a0: 9b12 0c3e 187b 1f3e 2aed 463e 6f85 d4bc
000001b0: 366c 123c fb73 80bd 538f 603d 290b 9abc
000001c0: 06b4 163e 3922 c8bd 030b 803c e776 3e3b
000001d0: c2a5 b23d ff4e 633e c27e 693d 7096 9d3d
000001e0: 86c6 82be f960 12bd 08e9 2e3e 71d5 40bd
000001f0: a43b 33be ba00 6f3e ce97 af3d e32c 13be
00000200: 3f15 3d3e 1201 39bd dbe6 a2bd 72ed 9f3d
00000210: ca05 e6bd e7f9 4f3e 3313 dabb d315 9a3e
00000220: 9dde dd3d 04ae 7fbd 64e5 31bd de4f 06bd
00000230: dd0c b23d b99c 5e3e 04e8 0c3e 558e 94be
00000240: d90c afbd 1661 973d 9247 3d3e 3b7c 75bd
00000250: 8eae 1c3e 2aec 06be 8a7e d6bd 2224 6abd
00000260: 1eef 873b fb1e 793e fd6e 04be 8b97 93bc
00000270: 46bd b73e 35f5 033e 502c febd 649c 0bbe
00000280: ec19 d43c 03b5 163d 88df ad3d e865 873d
00000290: 49f5 063e b230 17bd 872b 1b3e 2a47 08be
000002a0: 6770 283e 8a9c b33c 47e4 16bd ecee 543c
000002b0: 550d 853e de68 bf3d 1ac8 2a3e b342 653e
000002c0: 017a 383c 88a6 1b3e fcb6 5a3e 9054 813b
000002d0: 068c 0fbc 657a afbd 2c43 a93b 5e4d dcbd
000002e0: 96cd 503e 72d4 223e db81 8ebd 55a3 d9be
000002f0: 1cbf 873d 5800 1cbe 37fb d63c 3eae 3dba
00000300: 5c3f 513d 50cf 9bbd 4a38 993d 44ea b73c
00000310: 0178 f4bd 1bd2 db39 f24d a53d 4aae b6bd
00000320: e466 783e b67d 563d e085 033e d7d1 693e
00000330: fb70 fd3d 8f5b de3c 6ebf 92bc 4f14 193e
00000340: f582 043e 1fa0 b13e da85 913e ca11 2b3e
00000350: 1436 0dbd 89d5 6fbe 061f 203d 05ed 57bb
00000360: 6fe7 07be 2b0f 193e 0cd5 e539 1e13 8e3e
00000370: 8ba2 9abd ca82 b8bd 4701 4abd 4ae7 bb3d
00000380: 58a1 ccbd d1e1 a6bc 64f0 a1bd 9afa b3bd
00000390: 7c4e 803e 8f7c 843e dfcb 03be 8113 00be
000003a0: 7f08 debc 0b3a cebd 6a72 023e 52ce cb3d
000003b0: e32a ddbd 0b58 84be 4b4e 0a3e 54ee d2bd
000003c0: f13a 4c3e 6b2c 06be 75f7 84bc 9a4b 0d3e
000003d0: c8cd 70be 65fc 623d 67a5 3b3e 7d4d 3ebd
000003e0: 06a0 07be 3baf a13d 2a16 883d 304b 4dbc
000003f0: 4961 c43e a154 21bd d87f 7a3c 2161 0b3e
-0.01963519 0.014623214 0.09396008 -0.026927015 0.11674306 -0.0017883263 0.10083756 0.26378694
-0.06751377 -0.100732476 0.0668031 -0.03561556 0.13664715 0.28981194 -0.06439395 -0.2375992
0.061394982 0.03794034 -0.08494273 0.05639238 -0.24654797 -0.08097781 -0.012799082 0.07406697
0.08645616 -0.24829374 0.2230982 0.115242764 0.112850636 0.26653907 0.038272288 0.10880479
0.23780188 0.25858182 0.1559174 0.18272296 0.27505592 0.20825101 0.17791645 -0.1931491
-0.13838984 -0.065822594 0.03265757 0.20823549 0.009799587 -0.22660261 0.19768526 0.16371745
0.069624424 0.17223154 0.15571305 0.2997219 0.017553391 -0.055427667 -0.15154317 0.0067206034
-0.18169372 0.0072919508 -0.1905637 -0.40991738 0.1340598 -0.25391477 0.121372536 -0.3577201
0.06564373 0.23859294 0.038715255 0.13976455 0.14654604 0.03796355 0.00290906 -0.10917803
-0.13859035 0.19733621 -0.16033895 -0.05103249 -0.08327474 0.16080087 0.063536026 0.22870043
-0.0053437995 -0.22094522 -0.009422084 -0.091915414 0.2122933 -0.04534427 -0.043011185 0.024916993
-0.14522539 0.22607021 -0.23371671 -0.19224502 -0.12034981 -0.10258246 0.02282417 0.014406802
-0.008599986 -0.108229496 -0.07086072 -0.021695951 -0.27956015 -0.14800182 0.25859904 -0.02962368
0.13678972 0.155743 0.19426408 -0.025942532 0.008936932 -0.062721215 0.054824185 -0.01880415
0.14717111 -0.097721525 0.01563025 0.002906257 0.08723022 0.22198103 0.05700565 0.07694709
-0.25542086 -0.03573701 0.17081082 -0.047078554 -0.1750322 0.23340121 0.08573876 -0.14372592
0.18465136 -0.045167036 -0.079541884 0.07808961 -0.11231573 0.20310174 -0.0066551208 0.30094776
0.10833476 -0.062421814 -0.043431655 -0.03279101 0.0869386 0.21739472 0.13760382 -0.2901484
-0.08547372 0.073915645 0.18484333 -0.05993293 0.15300962 -0.13176027 -0.10473354 -0.057163365
0.004148378 0.24328224 -0.12932964 -0.018016597 0.35886592 0.12886508 -0.12410796 -0.13633877
0.025891267 0.03679372 0.08489901 0.06611234 0.13179506 -0.036911674 0.15153323 -0.13308397
0.16449128 0.02192523 -0.036838796 0.012996417 0.25986734 0.09346174 0.16677895 0.22388725
0.011259557 0.15200245 0.21358865 0.003946848 -0.0087614115 -0.08568267 0.005165478 -0.10756944
0.20390925 0.15901354 -0.06958362 -0.42507425 0.06628248 -0.15234506 0.026242835 -0.0007235742
0.051085815 -0.07607901 0.074814394 0.022450574 -0.119369514 0.00041927476 0.080715075 -0.08919962
0.24258 0.05236598 0.12844038 0.22833954 0.12375065 0.027143268 -0.017913546 0.14949153
0.12940581 0.34692475 0.28422433 0.16706005 -0.0344754 -0.23421301 0.039092086 -0.003294767
-0.13271879 0.14947192 0.00043837016 0.2774896 -0.07550534 -0.09009321 -0.049317624 0.09174974
-0.099917114 -0.02037135 -0.07907179 -0.08788033 0.2505988 0.2587628 -0.1287074 -0.1250744
-0.02710366 -0.100696646 0.12738958 0.09951462 -0.107991956 -0.2584842 0.13506429 -0.10299364
0.1994436 -0.13102882 -0.016231278 0.13798371 -0.23516 0.055416483 0.18324815 -0.046460617
-0.13244638 0.07894751 0.066448525 -0.012530133 0.38355473 -0.03938735 0.015289269 0.1361127

fc2.bias f4 [128]
00000000: 0d97 803d 4d9d 823c 3995 71bd 72ae 8e3c
00000010: 04d7 fe3c fa07 ecbc 5ebf 1a3d 573c ccbc
00000020: 5441 af3c 6b5f 44bd e36e 033d 0ed6 9fbc
00000030: b264 b9bd 832b 1abd a92c 8d3c 7838 513d
00000040: 06dd cd3d 490b c83d 0b63 ff3d 494d 2ebd
00000050: d586 933d f321 31bd ed23 393d 7280 e1bd
00000060: 15ed a5bd 6484 89bc 2806 e63d 79e5 c33c
00000070: f742 a73d e1d2 3abd 5e1e b3b8 92e2 2a3d
00000080: 2077 babc 6f4a 873d 63a2 99bc 8f41 fabc
00000090: 604b 88bd f841 533d 3b79 ddbc 5c53 23bd
000000a0: 6348 1c3e 0755 59bd 413d da3d e6b5 07be
000000b0: 9683 03be f2d9 37bc 4cf1 ec3c 8013 cb3c
000000c0: 2730 1cbd 773b 61bd cd47 2e3c 0767 8ebc
000000d0: 8735 65bc c17c c1bd 10ba c03d fd16 d8bd
000000e0: e395 003e ab19 343d d498 fe3c c3a4 d7bd
000000f0: 7dbe 86bc fa18 703a ddcb a53d 61cd 063c
00000100: 4039 25bd 5b17 5dbc 1cfa d23d ffc8 be3c
00000110: 77f8 c23d b1d0 68bd 65d2 033d df01 0a3d
00000120: d9a6 f23d b6a4 ec3c 6e84 52bd 0f25 f93d
00000130: 7e4c a4bc d854 d43c 0779 21bd aa82 2b3c
00000140: 47dc 0a3d 0c2e 9e3d 837b ec3c b2bc f1bb
00000150: 1afa 8fbd 2de4 7ebc 4483 eb3b efb7 3e3d
00000160: 1684 46bd 2cd9 a93c 5ce7 eb3c ba5e c73d
00000170: 18a4 a23d e247 a439 4cd0 a3bd bbf9 b03d
00000180: d538 55bd cf07 babd b0c6 fcbc f6ac 18bd
00000190: 0ef2 b13a 355f 703d a3b4 873c 0d6d 34bd
000001a0: 5d9b abbd 0951 86bd ad3d 4c3d d529 11be
000001b0: 1438 553c 987c 2d3d bb4d 543d 0b12 153d
000001c0: 1a04 9d3d aad0 b4bd 0a29 d0bc 97f9 f43d
000001d0: dbfd a4bc 05bd 403d 4749 ba3d 6451 c33d
000001e0: b49d 553d 0d3a 093e 135f c2bc 5da4 b6bd
000001f0: 4850 9a3d b557 b3bd 108d 823b aef4 bb3d
0.06278811 0.015944147 -0.0589802 0.017417166 0.031108387 -0.028812397 0.03778016 -0.024931116
0.021393456 -0.04794256 0.03208817 -0.019511249 -0.09052409 -0.037639152 0.01723321 0.051079243
0.100519225 0.097677775 0.12470063 -0.042554174 0.072034515 -0.043245267 0.045200277 -0.11010827
-0.081018604 -0.016786762 0.11231643 0.023913132 0.081670694 -0.045611266 -8.5410415e-05 0.04171998
-0.022761881 0.06605994 -0.01875419 -0.030548839 -0.06655002 0.051576585 -0.027035346 -0.03987442
0.15261988 -0.053059604 0.106562145 -0.13252982 -0.12843165 -0.011221396 0.028923653 0.024789572
-0.03813186 -0.05498835 0.010637236 -0.017383112 -0.013989813 -0.09447623 0.094104886 -0.1055126
0.12557177 0.04396979 0.031078734 -0.10529473 -0.016448254 0.0009158995 0.080955245 0.008227677
-0.0403378 -0.013494338 0.10301611 0.023289202 0.09520047 -0.05683965 0.03218307 0.03369319
0.1184823 0.028887134 -0.051395826 0.121652715 -0.020056006 0.025919363 -0.03942206 0.010468164
0.03390148 0.077236265 0.028867489 -0.0073772306 -0.07030125 -0.015557331 0.007187279 0.04656213
-0.04846581 0.020733438 0.028796844 0.097348645 0.07941455 0.00031334074 -0.07998714 0.08641382
-0.052056152 -0.090835206 -0.03085646 -0.037274323 0.0013576166 0.058684547 0.016565626 -0.04404931
-0.083792426 -0.06558425 0.049863506 -0.14176114 0.013013858 0.04235515 0.051831942 0.03639416
0.07666798 -0.08828862 -0.025410194 0.11961668 -0.020140579 0.047055263 0.09096008 0.095370084
0.05215235 0.13401051 -0.023726976 -0.089180686 0.07534844 -0.08756963 0.003984101 0.09177528

out.weight f4 [5, 128]
00000000: 6e42 b53e 641b 44be 5d17 4dbe 7ef0 15be
00000010: d6c0 38be fb53 59be c64f 23bd 5686 a13e
00000020: 4940 1d3e c45a bc3d 8a6f 0d3e 8a3c 10be
00000030: f0e1 8d3d 5940 16be 7a11 a6be ee7f 0ebe
00000040: 30b8 dabd 50ff a13e b2e6 2f3e 3799 223e
00000050: cf29 47bd 57ed 1d3e 7aa0 0ebe 2634 303e
00000060: aaf0 873e e111 543e a70d 54be eb36 ef3b
00000070: f1bb 663e 68c5 cfbd ec28 373d 2064 173e
00000080: 26ce 003e 6587 073e 3981 4f3e 16b4 a53d
00000090: 5bcc 123e 1368 02be 83e2 9b3d 0427 babd
000000a0: da70 8cbc 56ab 7abe 679f 2cbe 1fba 4c3e
000000b0: 9d5d 723e d3a0 51bc fbf2 e4bd 9807 84bd
000000c0: bc19 f93d a3ba 323e b34a 3a3e 0dce 38be
000000d0: c7df 7abe 50a4 cc3d 194d 60be 5f12 b33d
000000e0: 25d6 1c3e f9b9 903d a076 a33e 7942 243e
000000f0: a885 27bc 20d2 153e ba59 1a3e fdea 6a3d
00000100: c177 5d3d bf6c 9b3c 40d8 2cbe 28a9 193d
00000110: 9104 603e 19fc 633d 7ca0 373e 5d51 0b3e
00000120: 804f b13e bf0a a83d 7c41 1d3e cd31 423d
00000130: f646 87bd 011f 3e3e e284 94bc 2915 193e
00000140: 489a e5bd dfc7 353e db2f 403e 9120 393e
00000150: 12f3 0e3d 3087 c3bd b35c 273e 0a9a f5ba
00000160: 549d 013e fdd2 38bb 66a8 c3bd 3284 fa3d
00000170: c97f dc3d cd8b 43be a08b 063d 2538 0abe
00000180: d02c 32bd 0401 8d3e b378 87be 7875 773e
00000190: 99f9 3b3e f4d7 113e b394 0bbe eb94 f3bd
000001a0: bd0f 46be 445a bebe fca3 babc 71b8 db3d
000001b0: 8173 e6bd 1615 43be 88f0 5fbd 87b9 a03c
000001c0: f348 fc3d db73 b9be 84aa 00be 647f 50be
000001d0: 76a1 e43d 6e67 81be bc48 fbbc 41f4 e63d
000001e0: b1dc f83d 8423 673d 8df8 a2bd ea83 303d
000001f0: 3b04 e33d 8b7a 393e a8f9 d03d b89f c33d
00000200: 53bf 0f3e ebfc f3bd 412e 81bd aa62 dc3c
00000210: 13ff 79be 2cb2 12be 6bd4 78bd a529 883d
00000220: fa7c c43d 1626 db3d ec8f 5d3e ca8a d4bd
00000230: 6890 663d b650 1bbe 3941 3abe 679f 8bbe
00000240: 63e9 d8bd 271f 3f3e ccca 313e 552b b33d
00000250: 3a8a 89be 18d2 5d3e 94eb 56bd 2e37 463e
00000260: be50 c53d 34e8 6f3e f45a 94bd f76b 55be
00000270: 9bfe 6abc 5619 db3d f765 893e 03a7 0c3e
00000280: 6be5 b53d e5a9 d93d 4f62 a2bd 14a2 1a3e
00000290: 4657 2c3e 73e6 45be fee1 25bc 71ed 8d3e
000002a0: 1770 c9bd 0731 10be e263 bd3d 0033 4d3e
000002b0: 7891 343e 4d7c 27bc 0b33 94be f7e8 dcbd
000002c0: 5e30 21bd 0969 623e 2bbe 303e 3ce7 07be
000002d0: bb21 043c ad51 903e adff 82be 29c6 1d3e
000002e0: e5ea 7b3d 444d 4bbe e925 b33d 10c9 f73d
000002f0: 6f01 88be b494 133e e02f 5b3e 25c9 26be
00000300: 3af9 033e a455 0b3d fb8d d4bd df40 f2bd
00000310: 4f19 803c b64c 4dbb 0943 873e c17c 5c3e
00000320: b355 603d c0ca ae3e e473 473e da29 633d
00000330: 5c73 d5bc 83ac 413e 2bd4 593d 1d42 5c3e
00000340: 76d0 a2bd e288 ab3e 9ec6 6e3e f22b 383e
00000350: 02b9 193e aa71 ce3d 3bc2 913d e7e8 c93d
00000360: 9a48 283e 4089 a9bd c537 64bc c9c5 283e
00000370: ee3b 003e fd72 78be 0bc8 1b3e b105 4e3c
00000380: b01b c3be 5bb2 da3d 2947 83be db88 383e
00000390: 79d2 c63d c186 3a3e b32a 1ebe 3dfd 95be
000003a0: 0f0b c6bd 1632 2bbd 96e0 a5bd 665e e73d
000003b0: 2d9b 81bd 764a aebe fa4e 17bc 5b69 823d
000003c0: 0057 423c ecd2 a33d d76f 03be b6e0 2fbe
000003d0: d257 943e 64bd 49be de5a e5bd 2774 913c
000003e0: 70a5 d43d ebaf 41be b5d2 1abe d329 ff3d
000003f0: 1f57 a83e 10a5 1c3e 0e4f 9b3d dff6 2ebd
0.35402244 -0.19151074 -0.20028444 -0.14642522 -0.18042311 -0.21223442 -0.039871 0.31547803
0.15356554 0.09197 0.1381208 -0.14085594 0.0692786 -0.14672984 -0.3243521 -0.13915989
-0.10679662 0.316401 0.17177847 0.1587876 -0.048623856 0.15422569 -0.13928404 0.17207393
0.265508 0.20709945 -0.20708333 0.007300248 0.22532631 -0.10145074 0.04471676 0.14784288
0.1257864 0.13235243 0.20264138 0.08090989 0.14335768 -0.12735014 0.07611563 -0.09089473
-0.017143656 -0.24479422 -0.16857682 0.19992875 0.23668523 -0.012794691 -0.11179157 -0.06446761
0.121631116 0.17454009 0.18192558 -0.18047352 -0.24499427 0.099922776 -0.2190441 0.087437384
0.15316065 0.070667215 0.3192644 0.16040982 -0.010224737 0.14630938 0.1507329 0.05735301
0.054069284 0.018972753 -0.16879368 0.037514836 0.21876742 0.05566034 0.17932314 0.13605256
0.34630966 0.08205175 0.15357012 0.047410775 -0.066053316 0.18566515 -0.01812977 0.14949478
-0.112110674 0.17752026 0.18768255 0.1807883 0.03489978 -0.09547269 0.16343956 -0.0018737924
0.12657672 -0.002820193 -0.09553604 0.122322455 0.107665606 -0.19096299 0.032848 -0.1349798
-0.043499768 0.27539837 -0.26459274 0.24165905 0.18356933 0.14242536 -0.13630943 -0.11893638
-0.19341941 -0.37178242 -0.022783272 0.10728539 -0.11252499 -0.19051012 -0.054672748 0.019619716
0.123186015 -0.36221203 -0.12565047 -0.20361096 0.11163609 -0.25274223 -0.03067433 0.112770565
0.121514685 0.056430355 -0.079575635 0.043094553 0.11084791 0.18113153 0.10203868 0.09551948
0.14037828 -0.11913475 -0.0630765 0.026902515 -0.2441371 -0.1432578 -0.060749453 0.06648568
0.0959415 0.10700624 0.21636933 -0.103780344 0.05629006 -0.15167508 -0.18188943 -0.27270052
-0.1059139 0.18664227 0.17362517 0.08748499 -0.2686327 0.21662176 -0.05247076 0.19356987
0.09634541 0.23428422 -0.072439104 -0.20841967 -0.014342929 0.10698192 0.26835606 0.13735585
0.08881649 0.10628108 -0.07928907 0.1510089 0.16830167 -0.1932619 -0.0101246815 0.27720216
-0.098358326 -0.14081202 0.09247567 0.20038986 0.17633617 -0.010222507 -0.28945193 -0.10786622
-0.039352767 0.2211038 0.17260043 -0.13271803 0.008064683 0.28187314 -0.2558569 0.15407623
0.06150331 -0.19853693 0.08747465 0.120988965 -0.26563594 0.14412194 0.21404982 -0.16287668
0.12888041 0.03401722 -0.10378643 -0.118287794 0.015637068 -0.003132624 0.2641833 0.21531965
0.05476923 0.3413906 0.19477803 0.055459835 -0.026055984 0.18913464 0.053180855 0.21509595
-0.07949917 0.3350287 0.23317954 0.17985514 0.15011981 0.100802734 0.07117125 0.09858876
0.16433945 -0.082781315 -0.013929312 0.16481699 0.12522861 -0.24262615 0.15213029 0.012574599
-0.3810706 0.1067855 -0.25640228 0.18020956 0.09708113 0.18215467 -0.15445976 -0.29294768
-0.09670078 -0.041795813 -0.08099477 0.11297302 -0.063284256 -0.34041184 -0.009235138 0.06367751
0.011861563 0.079992145 -0.12835632 -0.17175564 0.28973252 -0.19701153 -0.11198972 0.017755581
0.10383117 -0.18914764 -0.15119441 0.12459149 0.32878968 0.15297341 0.07583438 -0.042715903

out.bias f4 [5]
00000000: dcd2 8b3d 399f 29bd 7a5d 79bd 312c 213d
00000010: 54ee b8bd
0.068273276 -0.041411612 -0.06088016 0.039348785 -0.090298325

exp_avg_sq f4 [128, 28]
00000000: 8c81 7e40 0b89 e040 0976 4241 db75 6e41
00000010: a223 7541 c34d 2441 9443 e240 5a3e da40
00000020: e56d 1741 8b9f 1d41 71f0 2a41 817c ed40
00000030: 69c8 a440 21d4 9840 7ead b840 4377 c340
00000040: fc33 c840 feb7 0d41 214b 6d41 4746 d440
00000050: ee17 9340 8c3c da40 bf9f 9840 ef63 7e40
00000060: e433 bc40 6dce 6043 ff93 8d3e 45eb b844
00000070: 9eae a141 babb 0842 b727 3d43 07e7 3444
00000080: 4cd9 8044 b7ec 1544 30e8 c343 54a9 9e43
00000090: 1b78 d043 f62b f843 f7a3 3044 3c3b fc43
000000a0: a973 c243 6c1e 9343 ee0d 9b43 db2a 7e43
000000b0: 477a 9543 dd5e cb43 ce92 e143 bba4 e643
000000c0: 1ab4 bd43 0f61 6443 5cd9 7942 87ce a141
000000d0: 9f43 f343 d4b0 2546 691a 2441 7855 7047
000000e0: f6f8 ee40 f5b1 1241 b1a5 3542 fc77 4e43
000000f0: 2f91 7143 3b1d 1643 1b65 1143 f6cb 0d43
00000100: cf55 4943 9440 3843 dbc9 4e43 aa0f 1443
00000110: 36dd 0643 57c1 b742 7bf5 c842 2b28 bf42
00000120: 522c ea42 4b48 3b43 3a17 8043 1c99 8343
00000130: ff91 3a43 b031 e642 55ea f141 5a1d ef40
00000140: 2077 3543 364c 7045 1aa3 6a40 80f2 7146
00000150: 73cf 9941 60fe f541 9b17 1043 884d c443
00000160: 8d46 df43 afb0 8e43 3cca 6243 38c9 5143
00000170: e3f2 a543 3e7e 9e43 85c3 a943 b28c 7a43
00000180: f400 5443 90fe 1843 3277 2243 9caf 0e43
00000190: a5c2 1e43 9a8e 8143 5ab8 a843 3ed7 b043
000001a0: 5415 8b43 b2f9 2b43 c6f3 5342 be2a 9a41
000001b0: 62df 7d43 b036 c545 def7 d940 9562 dd46
000001c0: 4a59 6141 35e2 8f41 dccf d642 bdac b243
000001d0: b366 c743 8c4f 7843 37b6 5f43 6840 5643
000001e0: ce18 a143 32e6 9743 ccc9 a743 ff3b 7643
000001f0: e8dd 5743 976c 1543 92be 1743 1657 0443
00000200: bede 0743 0701 6143 a8c2 a943 3988 bd43
00000210: 95c6 9743 16fb 5543 dad0 8342 e540 6241
00000220: 3bbd 7743 fc5c c145 627e c640 da21 b846
00000230: 7ba3 5b41 7cae 3041 8adc 1142 a5d2 9243
00000240: e35a bd43 ba4f 6543 a314 7443 c544 6643
00000250: e5d4 9d43 6b3a c743 b691 ec43 c01f 8c43
00000260: 1940 5043 2414 ed42 9fff b642 85d6 c442
00000270: 3442 0f43 2ed8 5243 9f8a d543 0f77 ff43
00000280: 8968 e743 368e 9743 47b6 af42 f8f3 5c41
00000290: 8122 8043 7dc6 cd45 f4f3 c340 4056 2d46
000002a0: 1181 3741 96ad c041 218e 5f42 344b 8242
000002b0: 29bd 5442 966b 4742 a06c 5942 feb4 6c42
000002c0: cdd2 b542 8f77 9342 9f8a 8142 330f 5242
000002d0: f4e2 1142 90bf c941 1c25 a341 e472 b541
000002e0: 5983 2942 da00 6342 ef49 a642 d57d cd42
000002f0: f21f f042 5be0 b942 156b 1042 06d6 3741
00000300: dbf6 2542 5b43 bb44 7e35 ef3f 9803 7245
00000310: cd7b fb40 a62b 0542 bb18 3443 b844 e243
00000320: 4d4c 3a44 abfb d643 8b77 2843 9499 c242
00000330: 99f1 2543 ace5 5543 0390 bf43 b67c 8843
00000340: 5344 4143 0a4f 2743 bafe 6343 7579 2d43
00000350: 308d 1c43 2e7d 3e43 5c28 9142 d3a4 3541
00000360: 8faf be40 36f6 a940 f5a4 b140 2ff6 f940
00000370: a722 5b43 2d90 9c45 1c5a 8c40 6b46 4547
00000380: 082c 3041 8150 6441 d6d2 5642 d823 0443
00000390: 0b1b 2f43 c11d ce42 6247 6c42 80e9 3542
000003a0: 094d 8a42 f25d a942 a9eb f342 c4c6 b542
000003b0: d338 7f42 7307 5142 ece9 7442 eea0 3a42
000003c0: bc46 2a42 79f6 5142 5033 4142 4d40 a042
000003d0: 8bb1 d742 38dc ca42 fbef 3742 6070 3041
000003e0: 3f7e 5342 0098 fb44 4bba 0440 cb08 3246
000003f0: 469e 3436 cf3e 0336 8ec5 e735 6083 c035
3.976657 7.016729 12.153817 14.903773 15.321199 10.268985 7.0707493 6.8201113
9.46433 9.851451 10.6837015 7.421448 5.149464 4.7758946 5.7711782 6.1083083
6.2563457 8.85742 14.830842 6.633579 4.596671 6.819891 4.7695003 3.9748495
5.8813343 224.80635 0.27651975 1479.3522 20.210262 34.183327 189.15514 723.6098
1030.7905 599.69867 391.81396 317.32288 416.93832 496.34344 706.56195 504.46277
388.9036 294.23767 310.10883 254.1674 298.9553 406.74112 451.1469 461.28696
379.40704 228.37914 62.462265 20.225843 486.5283 10604.207 10.256448 61525.47
7.4678907 9.168447 45.411808 206.46869 241.56712 150.11418 145.39494 141.79672
201.33519 184.25226 206.7885 148.06119 134.8641 91.87762 100.479454 95.57845
117.08656 187.2824 256.18146 263.19617 186.5703 115.097046 30.23942 7.472333
181.46533 3844.7632 3.666205 15484.625 19.226294 30.749207 144.09221 392.6057
446.55118 285.38034 226.78998 209.78601 331.89755 316.98627 339.5275 250.54959
212.00372 152.99438 162.4656 142.68597 158.76033 259.11407 337.44025 353.68158
278.16663 171.97537 52.98806 19.27087 253.87259 6310.836 6.811507 28337.291
14.084299 17.985453 107.405975 357.34952 398.80234 248.31073 223.71178 214.25159
322.1938 303.7984 335.57654 246.23436 215.86682 149.42418 151.74442 132.34018
135.87009 225.00401 339.52075 379.06424 303.55142 213.9808 65.90791 14.140843
247.73918 6187.623 6.2029276 23568.926 13.727412 11.042599 36.46537 293.64566
378.71005 229.31143 244.08061 230.26863 315.66324 398.4564 473.13837 280.24805
208.25038 118.53934 91.49926 98.41898 143.2586 210.84445 427.08298 510.93015
462.81668 303.11102 87.85601 13.809563 256.26956 6584.811 6.1235294 11093.5625
11.46901 24.084759 55.888798 65.14688 53.184727 49.855064 54.35608 59.17675
90.91172 73.73351 64.770744 52.514843 36.471634 25.218536 20.39312 22.681099
42.37827 56.75083 83.1444 102.745766 120.06239 92.938194 36.104572 11.489752
41.49107 1498.1049 1.86882 3872.2246 7.8588624 33.292625 180.0966 452.53687
745.1922 429.96616 168.46696 97.29996 165.94374 213.89716 383.1251 272.9743
193.26689 167.30875 227.99503 173.47444 156.55151 190.48898 72.57883 11.35274
5.9589305 5.311305 5.5513864 7.8113017 219.13536 5010.022 4.3859997 50502.418
11.01075 14.269654 53.705894 132.14001 175.10564 103.05811 59.06971 45.478027
69.15046 84.68349 121.96027 90.888214 63.805492 52.257275 61.22844 46.657158
42.569077 52.490696 48.30011 80.12559 107.84676 101.430115 45.984356 11.027435
52.873287 2012.75 2.0738704 11394.198 2.6914217e-06 1.955708e-06 1.7268337e-06 1.434335e-06

exp_avg f4 [128, 28]
00000000: 0054 89be 74ca aabe 9afe ac3e 6a5c 78be
00000010: cfdd 673a 0a6f 94be 4966 fdbe a2b7 bebe
00000020: e561 b1be f1fc 19bf 43a7 0bbf 7eb2 92be
00000030: 86b4 c4be bb89 82be 0afd 3c3d 5c9f 06be
00000040: 4b60 fcbe 0f08 42bf 64cc 88be 2958 cbbe
00000050: fac7 97bf dd03 93bf 408e 5dbf 1c99 87be
00000060: e250 493e 2488 24c0 3701 b7bd c425 b9c0
00000070: 29db 34c0 ee05 1dc0 c8c7 cabf 3cdb 8f40
00000080: 2d90 8a3f a1e9 63c1 6a98 e2c0 d829 f4c0
00000090: 0731 2fc1 933f 4fbf b968 dd40 9598 93c0
000000a0: b436 24c1 064a 18c1 9e3f cec0 b7d2 e3c0
000000b0: a2d2 cfc0 d3ac 40c1 418c 31c1 98cf a3c0
000000c0: 5145 bb3f dffb 923f ccc9 8bbf 28ce 37c0
000000d0: 73d0 98c0 b3ce f0c1 f30e 2dc0 36be 03c3
000000e0: 1368 f83f dc51 1540 0fab b43f 56c2 08c0
000000f0: b640 a1bf 404b d640 f254 6540 afb2 a240
00000100: 9b37 f040 f56f 0840 132b 4fc0 e79f 873f
00000110: a5ec 8240 381b 6240 afaf 1740 d162 5440
00000120: 357a 5d40 e553 fd40 f148 ee40 6893 6740
00000130: 659f 7cbf fef9 7dbf 9a83 553f e097 fa3f
00000140: 5fc5 bf3f 93b9 8941 8d10 cb3f 1fd4 8142
00000150: 5ee5 1a40 253c 4e40 31e5 1d40 118e 2fc0
00000160: 9fad 1bbf b1fe 2a41 9256 c940 b04a 0041
00000170: 8023 2641 693e 3840 35dc 39c0 fbca 6c40
00000180: c599 ec40 ce50 e140 1d5d ae40 3a08 df40
00000190: 1fdb 1041 adf5 4541 5550 fa40 c755 3640
000001a0: 7870 11c0 860c 3dbf 372b 2d3f 6d7e 1d40
000001b0: ac3d c03f dc07 ed41 4272 0340 3b90 b642
000001c0: 152a 2240 26a5 5e40 a0ae 3e40 9879 9bbf
000001d0: 0b1c 12bf 4562 1f41 e780 a940 dae7 e840
000001e0: e4fc 2941 d0ed 5e40 7197 12c0 ed91 7640
000001f0: 4eeb e440 5301 cd40 4d1a a140 3ab6 b740
00000200: f928 0141 22be 1c41 171d ef40 1174 6940
00000210: b520 a1bf f687 88bf a71d a53f 7d2d 2540
00000220: 8bdb 2540 84f4 e341 6b49 0540 2039 9542
00000230: b988 ef3e c239 a03e 8ff7 c1bf 9351 46c1
00000240: 41d8 59c1 cc2f bbc0 1a1f cdc0 e587 2ac0
00000250: 8efb 1f40 e9bf bac0 5a42 38c1 1da0 9dc0
00000260: b9e3 8ec0 e367 40c0 a191 5dc0 959a 91c0
00000270: 37f9 9ec0 f90f b8bf 1dc2 ae40 f933 0040
00000280: 330b 4bc0 d28b 2ec0 e574 6fbf 5f33 183f
00000290: 133a bdc0 139c cac1 39ed 003f 5ea6 8cc2
000002a0: b4c2 e63f 0367 2d40 0d24 3d40 cd68 d23f
000002b0: 4d0f 963e d992 823f 2069 df3e 66bc 5040
000002c0: 9576 de40 3ba4 8840 1209 483e 7086 983f
000002d0: 3054 983f e1d5 d33f 1572 a43f 40ee 783f
000002e0: 1f4d 063f f9c2 5b40 bc88 1b40 4cfd b83f
000002f0: 5db3 8e3e da5f 663f 169a d43f 4bd0 e93f
00000300: 4faf 52be 3c18 6341 6459 973f 532e 1f42
00000310: b0e9 0640 a1dd d13f 4c13 3540 bfbd 0140
00000320: 97e1 c13f 3069 5c41 6b63 0c41 b7d1 d540
00000330: 1b1b f240 9ca8 64bf 4d06 87c0 3ca2 7340
00000340: c811 0e41 0c11 ff40 b9a2 c840 b3b8 1241
00000350: eb91 2941 59cd 4841 7806 8a40 89de 2e40
00000360: 8435 0b40 f20c f33f 1afd f73f 5aab 0640
00000370: 8b01 8d40 c6f4 ef41 f855 eb3f cf1a ec42
00000380: 0497 b0bf 324e eabf 893b 10c0 dd50 cd3e
00000390: 04e1 cc3e 5a57 b1c0 3aae edbf 983e 61bf
000003a0: 95ee 60c0 e9b8 eebe 05e3 1440 745d 9abf
000003b0: 5227 6dc0 aacf 4fc0 7c00 03c0 80b2 29c0
000003c0: 5b64 4bc0 c7ec 70c0 3321 57bc 9edc 2940
000003d0: e778 823f 42c5 193f 536c b8be 5c6a b1bf
000003e0: 254a 78bf 00b3 05c1 a465 77bf f11c 5ac2
000003f0: 0400 0000 0400 0000 0400 0000 0400 0000
-0.268219 -0.33357584 0.33787996 -0.24254003 0.0008845003 -0.28990966 -0.494921 -0.37249476
-0.34645 -0.6015158 -0.54552096 -0.28651804 -0.38418978 -0.25495705 0.046139754 -0.13146728
-0.49292216 -0.75793546 -0.26718438 -0.39715698 -1.1857903 -1.1485554 -0.8654518 -0.26484
0.1965976 -2.5708094 -0.089357786 -5.78586 -2.8258765 -2.453487 -1.5842218 4.495512
1.0825249 -14.244538 -7.081105 -7.630108 -10.94947 -0.8095638 6.9190335 -4.6123757
-10.263355 -9.518072 -6.445266 -7.119472 -6.494462 -12.042193 -11.096742 -5.119091
1.4630529 1.1483115 -1.0920959 -2.8719578 -4.7754455 -30.100927 -2.7040374 -131.74301
1.9406761 2.3331213 1.4114703 -2.1368613 -1.2597873 6.696686 3.5833097 5.084312
7.506788 2.1318333 -3.237004 1.0595673 4.0913873 3.5329113 2.3700979 3.3185313
3.460584 7.916491 7.446404 3.618372 -0.98680717 -0.9920958 0.83403933 1.9577599
1.4982108 17.215612 1.5864426 64.9143 2.4202495 3.222421 2.4671137 -2.743046
-0.608118 10.6871805 6.2918177 8.018234 10.383667 2.8788092 -2.9040654 3.699889
7.3937707 7.041114 5.4488664 6.969754 9.053496 12.372479 7.822306 2.8489854
-2.2724895 -0.73847234 0.67644066 2.4608414 1.5018821 29.628838 2.0538487 91.2817
2.5338185 3.4788299 2.9794083 -1.2146482 -0.5707404 9.961492 5.296985 7.278302
10.624241 3.483265 -2.2904932 3.8526566 7.1537237 6.4064116 5.0344605 5.7409945
8.072503 9.796419 7.472301 3.6477091 -1.2588106 -1.0666492 1.2899674 2.5809014
2.5915248 28.494392 2.082606 74.61157 0.46784 0.31294066 -1.5153674 -12.394916
-13.615296 -5.8495846 -6.4100466 -2.6645443 2.4997287 -5.8359265 -11.516199 -4.925795
-4.465298 -3.0063407 -3.4620135 -4.55012 -4.9679217 -1.4379874 5.4611955 2.0031722
-3.1725585 -2.727284 -0.9353774 0.59453386 -5.913339 -25.326208 0.50361973 -70.324936
1.8028169 2.7094123 2.9553254 1.6438233 0.2930855 1.0201064 0.43634892 3.261499
6.9519753 4.2700477 0.1953471 1.1916027 1.1900692 1.6549646 1.2847315 0.9723854
0.5246143 3.4337752 2.4302206 1.44523 0.27871218 0.8999001 1.6609523 1.8266691
-0.20574687 14.193417 1.1824155 39.79524 2.1080132 1.6395761 2.8293028 2.0272062
1.514697 13.775681 8.774272 6.68185 7.565809 -0.8931978 -4.219519 3.806777
8.879341 7.970831 6.2698636 9.170093 10.5981245 12.550134 4.3132896 2.7323325
2.1751413 1.8988326 1.9374115 2.1042085 4.4064384 29.994518 1.838561 118.05236
-1.3796086 -1.8305113 -2.2536337 0.40100756 0.40015423 -5.541913 -1.8568795 -0.87986135
-3.514562 -0.4662545 2.3263562 -1.205977 -3.705525 -3.2470498 -2.0469046 -2.6515198
-3.1780002 -3.7644517 -0.013130474 2.6540904 1.0193146 0.60066617 -0.36020145 -1.3860583
-0.96988136 -8.356201 -0.96639466 -54.528263 6e-45 6e-45 6e-45 6e-45

exp_avg_sq f4 [5, 128]
00000000: 2ec7 b743 7660 8344 3b57 4943 bbea a242
00000010: 49ce 5342 6545 7144 a2db d642 bc51 cf43
00000020: 015d d942 1b7e 6643 c67c a343 8571 e543
00000030: 0e4b 6044 fea1 9642 17dd 8d43 d87f 5c43
00000040: 492f 2d44 037f 8243 ed69 ea43 a7a2 b644
00000050: 6d47 2244 3f6a 1744 d1ff ef42 ff23 2144
00000060: b5ce 0c44 8d4c 6144 9059 9f43 5dcf f743
00000070: c347 3a42 4e86 1a44 6ccb 6244 20c4 4e44
00000080: 87fa 3c43 8e74 3d44 fe6e aa43 343a 9a44
00000090: ffb3 8e44 3f9d 7f44 7ec6 a243 861e 2a42
000000a0: f491 4d44 198a 5c44 0ab5 a942 f90f 8044
000000b0: 8875 5d44 d803 6643 6df9 a643 8df2 c444
000000c0: d6a9 1b44 ae1c e243 a2c5 0344 55ca 9043
000000d0: 4fc9 e443 eb9c af43 1957 a943 9ca4 3d44
000000e0: c534 5244 bb9d 1643 d09e e943 30ce 6644
000000f0: 10e2 bd43 77b7 8344 ac9f f043 65bb 3844
00000100: 863e 8c42 351b ba43 c5c8 1b44 e148 5a44
00000110: fa27 cd43 1678 4d43 5048 0844 c1a8 b742
00000120: e0c7 9a42 9f10 fa42 70ec 8444 f1b9 5043
00000130: a752 8c44 b395 3343 f1b2 b543 9c35 5144
00000140: 81c9 c243 74b0 0c43 aa4b d643 c6cd 1a44
00000150: e60f 9e44 00e3 b542 665f 1744 1032 5c43
00000160: 0695 1e44 c55d 9843 9527 a243 13a7 0545
00000170: c65b fc43 3e40 c343 1a89 2145 40ea 1344
00000180: 4da8 f941 9122 f243 3159 cd43 4530 1243
00000190: 1f18 f343 1af9 e643 90f3 8b43 89a4 9943
000001a0: 1f30 7642 2fc7 3043 2d58 9b43 9ea4 ee44
000001b0: f1c7 7f43 00ee b443 80ae d143 498c 7b43
000001c0: 4bce 5e43 eb49 9b43 d818 c242 1ffb 9344
000001d0: 380d 4a43 5329 9944 b5ed e043 14eb 7c43
000001e0: 377f 8743 109d 6444 68bb 6444 768e 2944
000001f0: 5752 6344 708d 4644 7d59 1544 52f9 2f42
00000200: 6e4c 4843 611d 6244 5f44 0e43 41e0 bc42
00000210: 5a16 4142 339a 1f44 23a9 3243 4cb3 8c43
00000220: ddd0 ae42 df08 3343 f75e b643 08a9 c843
00000230: 0404 3944 89f9 af42 41cb 6943 0e25 3143
00000240: 7a56 1d44 9d3e 8743 5b98 9643 b27a 3144
00000250: 43cc 0544 1dac 2c44 35e1 b442 b09b db43
00000260: fb00 ae43 71a0 4544 179e 6443 c7f2 1d44
00000270: 762f c742 b2cc 3144 f4e3 5344 097b 4644
00000280: 8104 1e43 8691 0444 90ee 7143 dfd2 8b44
00000290: 69ff 6644 cea6 7144 bcc4 3c43 2cbe e842
000002a0: 3e8d 5844 76e7 a743 ba77 a842 ffcd 5d44
000002b0: f741 1044 5007 1243 b3a9 b843 ceeb 8a44
000002c0: ebb4 1544 9bb4 8843 87e5 c443 45e3 5443
000002d0: 164e 8743 152c e143 8d04 8943 2fea 3a44
000002e0: 95b2 0d44 24a3 8c43 90eb a043 5231 5b44
000002f0: 9508 d843 e1bc 7144 5546 f043 1c50 7544
00000300: 418b be42 d035 8b43 8820 b943 8820 4244
00000310: 8630 9443 48fa 2a43 1d58 fe43 a032 3b43
00000320: 79aa ff42 cfae 2f43 02ed 7244 0d44 0c43
00000330: 0b33 5544 54fa 2c43 674e 9b43 a8fa 6b44
00000340: 22db d843 19a0 ec42 274b bc43 ba8e 0644
00000350: 56ca a844 1cc9 4d43 cb18 1544 0ee3 8743
00000360: d655 d843 6788 8843 dddf 8743 11b0 c144
00000370: 4aee e743 21e8 8f43 fa83 1245 dc70 ba43
00000380: e19e 8942 2c21 8b43 cddd ed43 b2c5 ca42
00000390: b63a 9e43 4f8c 8f43 dfa4 8943 6fa9 9f43
000003a0: b215 2842 6d48 ed42 06c5 6a43 9c1c b044
000003b0: f01b 2a43 b267 c643 6421 b443 a426 9143
000003c0: 965e 4b43 7dfe 2443 b614 7842 b8ac 7a44
000003d0: 3840 8f43 5950 6144 b8c4 e343 0e20 7b43
000003e0: f3eb 6643 ff88 8844 846e 4544 bb89 0b44
000003f0: 72da 6b44 439f 3144 0f64 1444 4973 c442
367.5561 1051.0144 201.34074 81.45846 52.95145 965.0843 107.42897 414.63855
108.68165 230.4926 326.9748 458.88687 897.1727 75.31639 283.72726 220.49939
692.73883 260.99228 468.82755 1461.0829 649.116 605.6601 119.99964 644.56244
563.2298 901.1961 318.6997 495.62003 46.57008 618.0985 907.17847 827.06445
188.97862 757.82117 340.86713 1233.8188 1141.6249 1022.457 325.55072 42.529808
822.2805 882.1578 84.85359 1024.4991 885.8364 230.01501 333.94864 1575.5797
622.6537 452.22406 527.088 289.58072 457.57272 351.22592 338.68045 758.572
840.8245 150.61613 467.24072 923.2217 379.7661 1053.7333 481.24744 738.92804
70.122116 372.21255 623.137 873.13873 410.31232 205.46909 545.1299 91.8296
77.39038 125.03246 1063.3887 208.72633 1122.5829 179.58476 363.39798 836.83765
389.57425 140.68927 428.59113 619.2152 1264.4968 90.94336 605.4906 220.19556
634.3285 304.73257 324.30923 2138.4421 504.71698 390.5019 2584.5688 591.66016
31.207178 484.27005 410.6968 146.18855 486.18845 461.9461 279.90283 307.28543
61.546993 176.77806 310.68887 1909.1443 255.78102 361.85938 419.36328 251.54799
222.80583 310.57748 97.04852 1183.8475 202.05164 1225.2914 449.8571 252.91827
270.99387 914.4541 914.9282 678.22595 909.28656 794.20996 597.39825 43.993477
200.29855 904.45905 142.26707 94.437996 48.271828 638.40936 178.66069 281.40076
87.407936 179.03465 364.7419 401.32056 740.06274 87.98737 233.79396 177.14474
629.3512 270.48917 301.19028 709.9171 535.1916 690.6893 90.43986 439.2163
348.00766 790.5069 228.61754 631.7934 99.5927 711.19836 847.56177 793.9224
158.0176 530.2738 241.93188 1118.5897 923.9908 966.6063 188.7685 116.37143
866.2069 335.8083 84.23384 887.2187 577.0307 146.02856 369.32578 1111.3689
598.82684 273.41098 393.79318 212.88777 270.61005 450.3444 274.03555 747.6591
566.79034 281.27454 321.84033 876.7706 432.06705 966.95123 480.54947 981.2517
95.27198 278.4204 370.25415 776.5083 296.3791 170.97766 508.6884 187.19775
127.832954 175.68285 971.70325 140.26582 852.79755 172.97784 310.61252 943.9165
433.71198 118.31269 376.58713 538.2301 1350.323 205.78558 596.3874 271.77386
432.6706 273.06564 271.74893 1549.5021 463.86163 287.8135 2344.2485 372.8817
68.81031 278.25916 475.73282 101.38612 316.45868 287.09616 275.28806 319.3237
42.021187 118.64146 234.76962 1408.894 170.10913 396.81012 360.26086 290.30188
203.36948 164.9941 62.020226 1002.6987 286.5017 901.25543 455.53687 251.12521
230.92168 1092.2811 789.7268 558.15204 943.4132 710.48846 593.5634 98.22517

exp_avg f4 [5, 128]
00000000: b0af b140 e942 19c1 6220 88c0 cd6d 483f
00000010: 9f11 b93f 57bc efc0 e1cd edbf 1798 a740
00000020: 29f7 0d3f 70b8 0041 bd40 35c0 2ddc b7c0
00000030: d2f7 3041 32da a740 1d7c bf3f cbce 7d40
00000040: 00c5 39c1 1808 75bf a09f bf40 175a a141
00000050: 1294 7fc1 aa74 1bc0 6f32 9fbf 9f4b 8240
00000060: fec3 fa3f 09bc 5b40 ad09 18c1 2964 553f
00000070: bbf9 81c0 6f8d a741 eeb8 bd40 7b98 8441
00000080: 2742 9c3f b94c ce3f d990 0a41 8d56 d040
00000090: 3b8e f340 d574 e4c1 5eea 1b41 7201 7ac0
000000a0: 3fa7 c4c1 2273 80c1 84a0 d940 dc9c c541
000000b0: bcd6 1241 abd3 a2c0 855d 70c0 d1ac 58c1
000000c0: 01b3 9d41 e3f6 0841 bad9 2c41 07d3 21c1
000000d0: 436b 60c1 454e fd40 2764 6ac1 181f 0e41
000000e0: 80d7 18c0 c8ab d6c0 47a9 2b41 2f08 f340
000000f0: 19e0 39c1 bc9b 2241 f527 7640 6912 e53f
00000100: db6c 8640 b0cc bbc0 77fa 29c1 366f a8c1
00000110: 0376 0a41 1221 2a41 502c 3b41 1a14 9d3e
00000120: be08 d0c0 3305 8b3f 488a 4f40 5589 1fc1
00000130: ead5 aec1 86bb c840 0b47 8641 9e71 28bf
00000140: e9b0 633f 57db 2c40 e14a e8bf 5c6d 0a41
00000150: 513f c640 dd9d babf f02c 6140 0be6 d940
00000160: 0615 03c0 0347 5e41 16aa 99bf 5fa2 c341
00000170: 9935 6e40 cb01 aabf 0ccf f241 c309 96c1
00000180: b286 3240 182d 2641 a26f 6ac1 ccba 7040
00000190: 24d2 d140 9af8 1541 009b c6c0 4581 c5c0
000001a0: 8282 503f f9b8 3e3f da57 46c0 ccc2 6041
000001b0: a7b0 71c0 5f06 85c0 8f13 22c1 00d5 5c41
000001c0: 9a93 2b40 05b8 093e 0331 12c1 9186 97c1
000001d0: efa1 10c0 9e6d 64c1 83a4 57c1 cd5d 29c1
000001e0: 157a 30c1 5825 c7c1 3cf0 fd3e c2c3 4f40
000001f0: 8926 4d40 040e 1541 0c77 c1c0 4087 dfbd
00000200: fd97 9e3d aa84 1241 30bc 0b40 bfa9 53be
00000210: 4031 01bf 62b9 2041 2cd2 24c0 59bf dec0
00000220: d80c b2bf 0ce5 0c40 3fc6 4640 9e4b f340
00000230: a691 f940 5309 e1c0 2c77 d93f 883c 6bbf
00000240: 39e6 e8c0 2b25 c83f 6224 3640 ae60 f9c0
00000250: f717 79bf 1ccb 55bf 6669 6b3e 44bc 8dbf
00000260: daa3 47c0 7b49 3d41 c4ca 4f40 a29c f8c0
00000270: 4330 0cc0 3d87 17be c927 80bf 12f0 3340
00000280: 9a04 9540 c46a 17c1 426b 063f 1f8e 00c1
00000290: f8a0 05c0 2c33 98c0 b2c0 30c0 1da8 4640
000002a0: 63c3 9340 6f21 6640 b79a 51c0 ec4a 1c40
000002b0: 365d 39c0 f2a0 dd40 9706 dcbf 7676 0541
000002c0: e10e a9c0 5e5f 17c0 5fdb 6240 9829 5ec0
000002d0: a5e0 d340 dccb 5bc0 1e05 fc3f 0f08 79c0
000002e0: ecdf 39c0 3e29 cebe bb60 06c1 566e 2440
000002f0: 4d56 c1c0 ae74 1341 e6bd 1a40 7bf5 3540
00000300: b250 833f 8d47 6940 4943 cd40 f79e 67c0
00000310: b059 9fc0 421f 3bc0 da2f 0b40 2e9c 12c0
00000320: f184 1240 0db7 4abf 8ea6 3fbe e2a0 ba40
00000330: 490b 66c0 52af 6d3f 7228 5dc0 6c0a 2741
00000340: ee36 a2c0 d47b 1f40 556a df3f d526 bc40
00000350: 47f0 b4c0 1a21 77bc 2ad5 0f40 20ec f43f
00000360: b254 7a40 50d9 80be b770 1e40 6f33 b13f
00000370: 90ca 5740 cd69 983c be0b dbc0 081a 0741
00000380: 7809 f8bf 20af 94bf 0526 b9c0 e0b9 7cbf
00000390: a766 34bf 7cae aa40 dc3d b5c0 f210 00bf
000003a0: 2f6b 6b3e 8bd4 e9be 883e 8e3f 7002 80c0
000003b0: 97c5 9fbf 1943 23bf bb87 ac3f 3790 79c0
000003c0: bb7b cf3f 0e83 1e40 1c47 1c40 5407 3b40
000003d0: 4a2d b0c0 e1b8 19c1 5c77 7240 b476 a3c0
000003e0: 6a25 1141 3783 8e3d ef69 a2c0 b08d 5140
000003f0: c0c4 cfc0 0b36 cbc0 2caf 0a3f 023f 763e
5.552696 -9.5788355 -4.253953 0.7829254 1.4458503 -7.4917407 -1.8578454 5.2373157
0.5545526 8.045029 -2.8320763 -5.745627 11.060503 5.245385 1.4959751 3.9657466
-11.610596 -0.95715475 5.9882355 20.16899 -15.97365 -2.4289956 -1.2437266 4.071731
1.9591062 3.4333518 -9.502362 0.8335596 -4.0617347 20.94406 5.9288244 16.574453
1.2207688 1.6117164 8.660363 6.5105653 7.611112 -28.557047 9.744719 -3.9063382
-24.581663 -16.056217 6.800844 24.701591 9.177425 -5.0883384 -3.755708 -13.5421915
19.712404 8.560275 10.803156 -10.11402 -14.026187 7.9158044 -14.649451 8.882591
-2.388153 -6.7084694 10.728827 7.594749 -11.617211 10.163021 3.8461888 1.7896243
4.200788 -5.8687363 -10.623649 -21.054302 8.653811 10.633074 11.6983185 0.306794
-6.501067 1.0860962 3.242815 -9.971028 -21.85445 6.272891 16.784689 -0.65798366
0.8894182 2.7008874 -1.8147851 8.651699 6.195229 -1.4579426 3.5183678 6.8093314
-2.0481582 13.892337 -1.2005031 24.454283 3.7220213 -1.3281797 30.351097 -18.754766
2.7894711 10.386009 -14.652254 3.7614012 6.556902 9.373194 -6.206421 -6.17203
0.8144914 0.74500996 -3.099112 14.047558 -3.776407 -4.1570277 -10.129775 13.802002
2.680884 0.13449104 -9.136966 -18.940706 -2.2598836 -14.276762 -13.477664 -10.585401
-11.029805 -24.893234 0.49597347 3.246323 3.205477 9.315922 -6.045782 -0.10914469
0.07743833 9.157389 2.183361 -0.20670222 -0.50465775 10.045259 -2.5753279 -6.960858
-1.391017 2.20148 3.10585 7.6029806 7.7990294 -7.032388 1.6989493 -0.9188924
-7.2781034 1.5636343 2.8459706 -7.7930517 -0.9730219 -0.83513045 0.22989425 -1.1073079
-3.1193757 11.83044 3.2467508 -7.76912 -2.1904457 -0.14797683 -1.0012141 2.8115277
4.6568117 -9.463566 0.5250741 -8.034698 -2.0879498 -4.7562466 -2.7617612 3.1040108
4.617601 3.5957906 -3.275068 2.4420729 -2.8963141 6.9258966 -1.7189511 8.341421
-5.2830663 -2.3651958 3.5446393 -3.4712887 6.6211724 -3.4343176 1.9689062 -3.8911169
-2.904292 -0.4026584 -8.398616 2.5692344 -6.041785 9.215986 2.4178405 2.843108
1.0259001 3.644992 6.4144635 -3.6190774 -4.979698 -2.9237828 2.1747956 -2.2907825
2.289364 -0.79185563 -0.1871588 5.832139 -3.5944388 0.9284564 -3.4555936 10.440044
-5.0692053 2.4919329 1.7454325 5.87974 -5.6543307 -0.015083576 2.2473855 1.913456
3.9114194 -0.25165796 2.4756296 1.3843821 3.3717384 0.018605137 -6.8451834 8.443855
-1.937789 -1.1615944 -5.785891 -0.9872112 -0.70469135 5.3337994 -5.663801 -0.50025856
0.22990106 -0.4566997 1.1112833 -4.0002975 -1.2482175 -0.6377426 1.3478922 -3.8994272
1.6209635 2.476749 2.4418402 2.9223223 -5.5055285 -9.607636 3.788535 -5.10824
9.071634 0.06958621 -5.0754313 3.274273 -6.4927673 -6.350347 0.5417354 0.24047473
