model/310a.pt (torch_old, 336839 bytes, 24 tensors)

fc1.weight f4 [128, 28]
00000000: 945f c63c b07c 1f3e e758 4abe 2c75 22bd
00000010: c0bb abbe fc6e d6be 1f5e 9ebd c07d 15be
00000020: d936 5ebe 80ad 2a3e e005 d73c 8043 26bf
00000030: d083 84be eb84 d5bd 8204 293e c57b 8e3e
00000040: 3f32 c23e c280 d1bd 4a81 6ebf 6804 0bc0
00000050: 08b0 c9bf 5511 d1bf e693 35bf 9333 183e
00000060: d4fb 423d 7a1c 393c 3cd0 f1bf 11d8 5d3d
00000070: 58d0 303f 1aa6 5f3f 550a 4d3e 3015 063e
00000080: a960 2abe 1b79 b0be 36e3 6e3e becc b93e
00000090: 8cd3 2a3e 7c9e a83e 35fb 393e 7902 91bd
000000a0: d52f 9bbe f40e 97be 0621 4f3c 60aa e9bc
000000b0: a50c fc3d 598b 5e3c d538 90bd ee62 24bb
000000c0: 1059 663e 01ed b73e 6e1a 10be c7e4 183f
000000d0: f3f5 8c3e 0802 e8bc 838b 993f 6825 75bb
000000e0: d1bf 94bf 88d7 8abf adf3 c6be 8df5 ff3d
000000f0: 8da2 84bd daee c3bd a6ab 81bd 1e9b 203d
00000100: 9045 233c 324a 613e cee0 693e 490c 9e3e
00000110: 5bbe 07bd 9dbe 213d 464f 06bd 46e3 f4bd
00000120: 62de 89be 22fc f0be 4837 3abe 5719 93be
00000130: cdae eebc 4a98 00be 38e0 e5be 8a66 a5bf
00000140: 3c8a 613e 3ca5 273e 6e46 b0bf e23d 033d
00000150: b3ef 38bf 499f 34bf b793 afbe 6d6a bcbd
00000160: a8ad 28bd 0ede e1bd d0d5 77be 707a be3d
00000170: 3528 553d 0df0 633e d39b 893e 76cd ad3c
00000180: 0f10 a3bd bcde 93bd a342 42be 4ef5 cdbe
00000190: 4e7d 46be 8152 69be d273 b73e 369d 833d
000001a0: c2b1 da3d c0d7 a3bc ed9d d8be 9417 5ebf
000001b0: 2ed0 5c3e 5d7f e1bd 32a8 7dbf b4d0 86bc
000001c0: ba28 51bf aa6e 3cbf 23ac c2be bf56 a0be
000001d0: d22c 43be cb3e 46bd e676 0bbd 988d bf3d
000001e0: 30f7 e33e aed0 803e 11f9 a4bd 9415 823e
000001f0: dc19 503e 8ae4 663e b32b de3e 064f 323f
00000200: 4ca4 36bf 29bd 6ebf 9d4a 96be a73c 143e
00000210: 6f1d 043d a6e5 673d 428d 073e 2bc8 52bf
00000220: 2c7e 8abe e391 abbe adf2 d8bf 1e54 2cbc
00000230: 7dad 7abf 86f8 adbf 2093 66bf 0514 463e
00000240: db0f 1f3e 63ee af3d 1eb1 b23b 1698 083e
00000250: 72d7 373d 0bed be3d bf39 4c3e e2ec 4b3a
00000260: e227 edbc a361 3abe 659b a53c 1da5 4e3e
00000270: afca e03c d60a 153e e7c3 1f3e a82e a83e
00000280: 527c 28bd 43ca d73d 198d 283d d4c4 8cbf
00000290: c633 973e db8c 353e 99da 97bf 4385 12be
000002a0: 1e6b 6dbf 0992 2d3c 1f5b ffbd c39e 22be
000002b0: 0008 1d3e 578e 92bc ff15 593e dc50 f73d
000002c0: bc4f 5a3e fd4d bd3d 4810 873e 43b9 66bd
000002d0: 778a 72be d7c5 bfbd a6c3 70be c61d 6ebe
000002e0: 8aea 2abe 5e5b c03d a72a fcbc ed22 dfbe
000002f0: f594 83be be68 0c3d 06e8 45bf a437 8cbf
00000300: c47b 1bbe 6363 823c 800f b0bf 287f 50bd
00000310: cf34 56bf 7116 b5be 83d2 0ebe 447a 0abe
00000320: 4c32 38be 1b67 173e 855a bb3c e89c 41bd
00000330: 7b3f ef3d e936 16be 9dae f6bd 9581 66be
00000340: 3daa 7dbe c0ba 713e cbad 883d 5d62 b5be
00000350: 36d1 53be eeb8 5abe caa3 4abe 843d f4be
00000360: 8da7 71bf 2d8e 60bf 4150 42bf fea3 7abf
00000370: 9c16 03bf 9550 1e3d 72e9 87bf f4fb 043e
00000380: 5d4e 983e 5e27 1e3f 428f 43bd df72 ae3c
00000390: ee89 c8bd b7ec 8cbd ec9b c6be 1879 45be
000003a0: 4b75 be3d 15bf 073f 6312 f23c 4cdc d5bd
000003b0: 8618 53be 7ab7 dc3d 5b91 203c 8020 0b3c
000003c0: 3538 babe 2b91 30bf dcf5 62be 7be4 153d
000003d0: 9f49 0b3d d6be 22bd 1149 823d b398 ca3e
000003e0: 8dfe 84bf 3235 313d 80cc a7bd 1e7b 9a3d
000003f0: ce9c 363e 2b34 28be 1307 3bbd deb2 02be
0.024215497 0.15574908 -0.19760476 -0.039662525 -0.3354168 -0.4188155 -0.07732796 -0.14598751
-0.2170061 0.16667747 0.026247919 -0.64946747 -0.25881815 -0.10425743 0.16505626 0.27828804
0.3792896 -0.10229637 -0.9316603 -2.172144 -1.5756845 -1.6333414 -0.709288 0.14863424
0.047603443 0.011298293 -1.8891673 0.054161135 0.6906791 0.87362826 0.20023473 0.1309402
-0.16638435 -0.34467396 0.23328862 0.36289018 0.16682261 0.32933414 0.18162234 -0.0708055
-0.3030993 -0.29503596 0.012642151 -0.028523624 0.12307099 0.013583028 -0.0704209 -0.002508338
0.22494912 0.35923007 -0.14072582 0.59724087 0.27531394 -0.028321281 1.1995701 -0.003740633
-1.1621038 -1.0847025 -0.38857785 0.12498007 -0.064763166 -0.09567042 -0.063315675 0.03921043
0.009965315 0.2200096 0.22839662 0.30868748 -0.03314052 0.039488424 -0.032790445 -0.119574115
-0.26927477 -0.47067362 -0.1818515 -0.2873027 -0.029136086 -0.12558094 -0.44897628 -1.2921917
0.22025388 0.16371626 -1.3771493 0.032041438 -0.7224075 -0.7055555 -0.34292385 -0.091999866
-0.041181237 -0.11028682 -0.24202657 0.09300697 0.052040298 0.22259541 0.26876697 0.021216135
-0.07962047 -0.072202176 -0.18970732 -0.40226215 -0.19383737 -0.22785379 0.3583055 0.0642647
0.10678436 -0.020000339 -0.42307988 -0.8675473 0.21563789 -0.11010621 -0.9908477 -0.01645694
-0.8170277 -0.7360636 -0.38021955 -0.31316182 -0.19060066 -0.048399728 -0.034048937 0.09353179
0.44524527 0.2515921 -0.08055318 0.25407088 0.20322365 0.22548118 0.43392715 0.6965183
-0.7134445 -0.93257385 -0.293538 0.14476262 0.032254633 0.056615494 0.1323748 -0.8233668
-0.27049387 -0.3350974 -1.6949059 -0.010518102 -0.9792097 -1.3591468 -0.90068245 0.19343574
0.15533392 0.085903905 0.005453243 0.13339266 0.0448832 0.09322556 0.19943903 0.0007779134
-0.028949682 -0.18201308 0.0202157 0.20180173 0.027440397 0.14554915 0.15602075 0.32848096
-0.041134186 0.10536625 0.041150186 -1.0997567 0.29531687 0.17729513 -1.1863586 -0.14308648
-0.9274157 0.0105938995 -0.12468552 -0.15880875 0.15335083 -0.017890139 0.21199797 0.120759696
0.21319479 0.09243391 0.2637961 -0.056329023 -0.23685633 -0.09363907 -0.23512134 -0.23253545
-0.16691032 0.09392427 -0.030782057 -0.43581334 -0.25699583 0.034279577 -0.77307165 -1.095448
-0.15183932 0.015916532 -1.375473 -0.050902516 -0.8367433 -0.35368684 -0.13947491 -0.13523203
-0.17987937 0.14785425 0.022870312 -0.047268778 0.1168203 -0.14669384 -0.120450236 -0.22510369
-0.24771972 0.23606396 0.066737734 -0.35426608 -0.20685276 -0.21359608 -0.19789043 -0.47703183
-0.9439629 -0.87716943 -0.7590371 -0.9790648 -0.51206374 0.038651068 -1.0618117 0.12986737
0.29747286 0.6177882 -0.047744043 0.02129501 -0.09791933 -0.06881087 -0.38790834 -0.19284475
0.092997156 0.53025943 0.029549783 -0.10442409 -0.20614824 0.10777183 0.00980028 0.008491635
-0.36371008 -0.6897151 -0.221641 0.03659485 0.034005757 -0.039732777 0.063615926 0.39569625
-1.0390183 0.04326362 -0.08193302 0.07543014 0.17833254 -0.1642615 -0.045661043 -0.12763545

fc1.bias f4 [128]
00000000: 5632 06bc 2a1b 643d af5d 3bbd 2241 bcbd
00000010: 6811 cbbd da57 a13d f92e da3d e5ac b7bc
00000020: 9bbb 39be 0ac8 77bb 65fc 6cbd 4638 4b3d
00000030: 6e63 693d 4c75 0a3e b90c 34ba edca 8ebe
00000040: 4c55 2ebe 9156 36bd 76bb 0abe 6087 2dbe
00000050: 6736 02bd 9e9f 5c3d ae7d ee3e 4a0e fc3d
00000060: be52 92bd b611 d1bd 736b d4bd 46d0 a4bd
00000070: c82d a7bc d511 22be d830 86bd cd7a 8f3d
00000080: e4b1 f6bd 2417 48bd cd2f 843e fc79 67bd
00000090: c76f 1f3e 9240 0fbe 2d54 3abd 7d29 71bd
000000a0: 6717 5abe 108c 863e 3c81 53bd 6ad0 403d
000000b0: 967f 6d3d 11cc 98be f62b 27bd 7e0a e83e
000000c0: 294d fa3d 148c 15bd 5daa e73d a920 0f3d
000000d0: eadc 4fbe f838 47bd bda8 1a3e 225c 34be
000000e0: 73b2 a33d 74a1 253e d796 63be 509b 0a3f
000000f0: e3b9 e13d 0b9a 0fbd 128c 9b3d fd0d f8bd
00000100: 1a14 d83d f8a2 2c3e eb2e e53d 7617 383e
00000110: e2d2 08be 0c71 f13d 722f 44be 08d0 46bd
00000120: 97a3 64be 5e30 90bc 79d3 dd3c 815d 2dbe
00000130: 23e6 e2bb 15ea 10be e383 bdbe f94e c23c
00000140: 0c49 72bd ed36 9fbd 555a 84bc 06ea 85bc
00000150: e764 883e 9973 38bc 4b03 83bd ffff abbd
00000160: 4f5c ea3c 5d3b b7bc 686f 2dbe c287 223c
00000170: e15e b1bc 52c1 87bd 3c12 75bd 3160 41bd
00000180: f8ac 01be 4544 35be 5dce 373f 3025 9a3d
00000190: 9fbd c73e 566f 57bd 8df3 dd3d 808b 2fbe
000001a0: 1407 883d 7220 033d a6bd 063d 7259 4e3e
000001b0: daad 2f3d 940c c3bd e734 013d 4b37 883e
000001c0: 1746 10be 8fd3 003d 1550 cc3c a415 7d3d
000001d0: 221a 29be 40a8 c2bd ec39 323e 51c2 67bd
000001e0: 46dc bdbd bdfd 1dbd c660 4a3c 44eb 82bd
000001f0: 18f4 653d 2f3c a43c 8f4c 1ebe ca98 1abe
-0.008190712 0.05568997 -0.04574364 -0.091921106 -0.09915429 0.078780845 0.106534906 -0.02242131
-0.18137972 -0.0037808442 -0.05785789 0.049614213 0.05697959 0.13521308 -0.0006868351 -0.27889195
-0.17024726 -0.04451615 -0.13548073 -0.16946173 -0.031790163 0.05386316 0.4658026 0.12307413
-0.07144688 -0.10208456 -0.10372057 -0.080475375 -0.020407572 -0.15827115 -0.06552285 0.07005844
-0.12045649 -0.048850194 0.2581772 -0.056512818 0.15569983 -0.13989475 -0.045490433 -0.058877457
-0.2129799 0.26278734 -0.05163692 0.04707376 0.057983004 -0.2984319 -0.04081341 0.45320505
0.122217484 -0.036510542 0.11311791 0.034943257 -0.20299116 -0.048638314 0.15103431 -0.17613271
0.07993021 0.1617487 -0.2222551 0.5414324 0.11021783 -0.035059016 0.07595076 -0.12112043
0.10550709 0.16859043 0.111905895 0.179777 -0.13361695 0.1178914 -0.19158724 -0.048538238
-0.2232803 -0.017601188 0.027078377 -0.169302 -0.006924407 -0.14151795 -0.37014684 0.023719298
-0.059151694 -0.07774148 -0.016156355 -0.016346943 0.26639482 -0.011258029 -0.063971125 -0.08398437
0.02860847 -0.022367174 -0.1693703 0.0099200625 -0.021651687 -0.0662867 -0.059831843 -0.047210876
-0.12663639 -0.17701824 0.7179926 0.07526624 0.39011857 -0.052596413 0.10837469 -0.17143059
0.06641975 0.032013364 0.032895707 0.20151308 0.042890407 -0.095238835 0.031544592 0.26604685
-0.14089237 0.031451758 0.02494053 0.061788216 -0.16513875 -0.095047474 0.17404908 -0.0565818
-0.092705294 -0.03857206 0.012352174 -0.063925296 0.05614099 0.020048229 -0.15458892 -0.15097347

fc2.weight f4 [128, 128]
00000000: 22dc 9fbe 1c2c ecbe 1281 da3d bee1 713d
00000010: d85b 683e 84c5 2cbe a26c f9bd 650d ce3e
00000020: b8f6 1ebe 676e b9be 692b e0bd 30d2 d8be
00000030: d682 473e 32d6 583e 1257 00bf 2e66 09bf
00000040: 49af 03be 5d51 833d 7457 8abe 1c19 26bd
00000050: bf7e 2dbf 084f 2abe c716 8b3e a01a 5a3e
00000060: 38da ae3d de42 07bf 4410 2e3e b09d 9dbe
00000070: 61b6 9e3b 2980 57be 1da7 bbbd 1f2d b23d
00000080: 3545 213d 703e 073f 4bb7 563d 9441 de3e
00000090: 3cf1 853e 4860 64be d0e9 b23e 07bb 21bf
000000a0: 2946 3cbf a270 333e b6d9 813d d1e4 8a3e
000000b0: cf32 0d3d 9551 f5be 573c 193e 3c5c 073d
000000c0: 4415 823e 8900 5ebc 614d 473e ea73 b33e
000000d0: fc4f 273e 7679 0d3f db08 49bf afdf b7be
000000e0: f8f9 07bf 804f 8dbd 19c1 803e 1a94 05bf
000000f0: cb4a fb3c 3020 bebe 9605 1c3d e217 5dbf
00000100: 3373 3f3e 0264 943e 83e0 603e 6daf a53d
00000110: 4a96 5cbd 546e 403d 7e1f cbbe d149 bc3c
00000120: 48b8 33bf 1810 153e a66d 29bf 3b62 24bf
00000130: 7ec2 15bf ec43 2b3e b253 eabd 559b 583e
00000140: fa10 f9be c5eb 2cbf 6d3e 17be 85a4 f5be
00000150: 84c3 563e b0d9 b1be 91bb 38bc 3622 38be
00000160: f012 e7be 71d6 9bbd b80f 09bf b1e1 d63d
00000170: 518a c9be 7f9c 423d b4d9 193e 52d6 0abf
00000180: 5d21 cd3e ac3b abbe 0116 9cbe ddaa d2be
00000190: ee4a d9be 1739 1bbf a4b0 ac3d f0ec 4b3d
000001a0: 45e2 933e 97d5 003e fb60 2e3d be3e 453d
000001b0: f22b 423d ce6b b0be ee4e 8ebd da36 d13d
000001c0: 5cf2 373d 2c84 7bbd 3430 dcbe edd6 40be
000001d0: d5cd 253e 5607 db3e 6ec1 4a3e eb78 4b3f
000001e0: 0bc0 31bf 528b e4be 792b 9a3e 55ad b23e
000001f0: cff7 e0be 27ac d63e 1eaf 08bf 1f63 6abe
00000200: 385d cbbd 07f0 2cbc 7196 c8bd b821 933e
00000210: 8bde 9ebe 2529 8d3e e355 db3c 9b09 d93e
00000220: a7b2 e73d 472d f63e 8d80 7c3d 486b d7bd
00000230: 2601 663d 6343 9f3e 93d8 033e cca4 b3be
00000240: a4cf 8b3d 67a1 2a3d 5fe3 fb3e d285 4d3d
00000250: f1ad bd3d fe65 e0be e69f 38be a31a a5bd
00000260: 762b 44bd f499 d93d bf8e 5ebd 7447 7fbe
00000270: 6bed dd3e a57c ed3e 1d4e 02bf 76b0 bfbd
00000280: 46d2 2b3f 527e b73e 1b81 223e a72f 22be
00000290: 2d81 993e 2e54 7f3e 511f f6be 4f77 12bf
000002a0: 3a54 d33e 9b04 ea3e 2386 b2bc 95d8 eabd
000002b0: faeb 5c3e e8e8 1e3d add6 863e 9203 c33e
000002c0: e2b0 053e 41a8 de3e 6b4d b1bb 6c28 67ba
000002d0: f5ee 2abe 9091 c9be 0b44 503e c36c 4dbf
000002e0: 094d 76bc 5924 043f e02f c0be c064 bbbe
000002f0: 91a4 1e3f 0105 a0be 3473 743e d8fd 6fbe
00000300: a021 4a3e 3f72 893d 5b66 5f3e 47f9 323d
00000310: 4b00 a73d e30e fa3d b698 133f 02f7 e8be
00000320: 51be 8f3e 3d20 a8be bfd0 13be 69b8 373f
00000330: e042 293f 9156 93be 9a33 913d 6f4f 5e3e
00000340: ce56 173f 65ef 963e e458 2c3f d86a b63d
00000350: c927 69be df60 7fbe 4b7b 943d d2bb f5be
00000360: b85b fcbe 7450 d43e 9801 ae3d e70c d13e
00000370: a0a2 0e3d d050 70be e42b 53be db43 bc3e
00000380: 9912 a0be b5a7 63bd 6f5c 263e 11cc d2bd
00000390: 4fa6 123f 6f4a 283f 181d 05be 5415 efbe
000003a0: b339 db3e e8b0 23be fe23 653e fbb8 123f
000003b0: a566 f33d d4d2 a63d 8c3d 933e 85c8 99bd
000003c0: 92de 663f 9e58 87be d648 583e 6494 a23e
000003d0: 5e95 bdbe 75d1 e33d 0ae6 943e d931 90be
000003e0: 2f31 2ebe a7fa f13e 0ccf 873d 116b fdbe
000003f0: 54b1 e93e ed4f 953e 014b 543f bcc6 123d
-0.31222636 -0.46127403 0.106691495 0.059053175 0.22691286 -0.16872221 -0.12178923 0.40244594
-0.15523803 -0.36217043 -0.1094578 -0.4234786 0.19483504 0.21175459 -0.5013286 -0.5367154
-0.12859835 0.06412003 -0.27019846 -0.04055129 -0.67771524 -0.1663171 0.27165815 0.21299219
0.08537716 -0.52836406 0.16998392 -0.3078437 0.0048435186 -0.21044983 -0.09162734 0.087000124
0.03937264 0.5282965 0.052420896 0.43409407 0.2616061 -0.22302353 0.3494401 -0.63176006
-0.73544556 0.17523435 0.06340353 0.27127698 0.034472283 -0.47913805 0.14964424 0.033046946
0.2540685 -0.013549932 0.19463111 0.35049373 0.16339105 0.5526346 -0.7852914 -0.35912845
-0.531158 -0.06899929 0.25147322 -0.5217911 0.030675313 -0.37133932 0.038091265 -0.8636457
0.18696289 0.2898255 0.21960644 0.080901004 -0.053854264 0.046980217 -0.39672464 0.022984417
-0.70203066 0.1455692 -0.66182935 -0.6421239 -0.58499897 0.16725129 -0.11441745 0.21153004
-0.48645765 -0.67547256 -0.14769907 -0.4797708 0.20973021 -0.34736395 -0.011275188 -0.179818
-0.45131636 -0.07609261 -0.5353961 0.10492266 -0.3936334 0.047512528 0.15024453 -0.54233277
0.40064517 -0.33443964 -0.30485538 -0.41145983 -0.4243998 -0.6063399 0.08432129 0.049786508
0.28883567 0.12581478 0.042572957 0.04815554 0.04740519 -0.34457248 -0.069486484 0.1021554
0.044908866 -0.061405346 -0.43005526 -0.18831988 0.161918 0.42779034 0.1980035 0.7948138
-0.6943366 -0.44637543 0.30111292 0.34897867 -0.43939063 0.41928217 -0.5339221 -0.22889374
-0.099298894 -0.010555274 -0.097943194 0.28736663 -0.31029162 0.27570453 0.026774352 0.4239014
0.11313372 0.4808142 0.061646033 -0.10518509 0.05615344 0.311061 0.12875585 -0.35086668
0.06826714 0.04165783 0.49196908 0.05017645 0.09261692 -0.43827814 -0.18029746 -0.08061721
-0.04789301 0.10625067 -0.054335352 -0.24929601 0.43345198 0.4638416 -0.5090044 -0.09359829
0.67117727 0.35838562 0.15869562 -0.1583849 0.29981366 0.24934456 -0.48070768 -0.572133
0.41275197 0.4570664 -0.021792477 -0.11467091 0.21574393 0.038796335 0.2633566 0.3808866
0.13055757 0.43487743 -0.0054108403 -0.0008817974 -0.16692717 -0.39368868 0.20338456 -0.8024408
-0.015033015 0.5161796 -0.37536526 -0.36600304 0.6196986 -0.31253818 0.23872072 -0.23436677
0.1973939 0.06711244 0.2181639 0.04369476 0.08154353 0.12209871 0.57654893 -0.45500952
0.28074887 -0.32837096 -0.14435099 0.7176576 0.6611767 -0.28776982 0.0708992 0.21709989
0.5911683 0.2947952 0.67323136 0.089070976 -0.22769083 -0.24939297 0.07250079 -0.47994858
-0.49288726 0.4146763 0.08496398 0.40830156 0.03482306 -0.23468328 -0.20622212 0.3677052
-0.3126419 -0.05557986 0.16246198 -0.10292829 0.57285017 0.65738577 -0.1299938 -0.4669596
0.4281746 -0.15985453 0.22377011 0.5731351 0.11884812 0.08145681 0.28757894 -0.07508949
0.90183365 -0.26434797 0.21121535 0.31753838 -0.3702802 0.11123935 0.29081756 -0.2816303
-0.1701095 0.47261545 0.06631288 -0.49495748 0.45643103 0.2916254 0.82926947 0.03583406

fc2.bias f4 [128]
00000000: 76a8 aabc 85b3 11bd c03f 30be a08a c1be
00000010: 0254 cebc c427 47be 8787 e03c d358 52be
00000020: ff2a 5bbe ad69 6cbc 489b c4bc a2ae e43d
00000030: 2c47 74be a935 c8be 21da d93d dc12 163e
00000040: 04fe a43e 0c17 d03b f264 1e3e 4f7f 4ebd
00000050: 9783 7b3d aa07 c5bd f766 22bd f405 a2bc
00000060: 16d5 78be 4588 30bd d13d 993c 82f3 6cbc
00000070: 63a1 ec3d 9ca8 093e c9dc 7fbe 8ce7 1abe
00000080: d2cf f73c 0caf 8ebd cbc1 8cbd 8910 09be
00000090: 3bf5 77be dff6 b13e 2e26 2bbe 6514 98be
000000a0: 5afe 633e 6938 713e a8c6 67be 3592 c5be
000000b0: 0ba0 a1be 812e 5a3e 26f2 ea3d 5da0 383d
000000c0: 5e16 6dbe 32ea bf3c 5108 15be b27b babb
000000d0: 4023 73be 6d88 8ebd f2d0 243e 056a 74be
000000e0: 74d1 ae3e 1a17 8d3d c5b6 abbd f4f6 9fbe
000000f0: 7d32 70bd 61ca 0c3d a08a 33bd 889c f93c
00000100: e581 74be bc74 7b3d a77f 643e 0add 21be
00000110: 64a7 5c3d 97cb 98be 2daf 863e f7fc 003c
00000120: 87ee af3e f4fa 813d cb8a 303e 1f62 ac3e
00000130: 132f 1f3c 718c 85bc 495d 30be 91e9 14be
00000140: ddfb c13d e7dc 933e 8260 803e c292 58b9
00000150: eb60 5bbd 66a5 45bd 7bf7 6bbe ed5a fdbd
00000160: 0777 82be cab9 e9be ac0f 7e3e 3843 e43d
00000170: 3409 5bbd a4b3 8cbc 8ed5 61be b6ae 713d
00000180: 050c afbe e012 81bd b137 ac3d 4fb6 4b3d
00000190: 9a55 f73d 6bc5 6b3e 1921 d5bc 6179 16be
000001a0: aea5 b73d 0c3f 9bbe cfe7 32be 6059 2fbe
000001b0: 1cc6 82bd 0c3d a33d 4497 8f3d 72aa dc3c
000001c0: 868b 0c3e 7bb7 35be d0c9 af3c 624d d03d
000001d0: 8b18 4bbe 8e52 20be 0b22 8f3d 316e 06be
000001e0: b00d 0f3e 58b0 3f3e 11a3 93bc b239 7fbe
000001f0: 0109 843e 9803 8cbe fb12 d53c 43a9 4a3e
-0.020832282 -0.035571594 -0.17211819 -0.37801075 -0.025186542 -0.19448763 0.027408374 -0.20541696
-0.2140312 -0.014429492 -0.023999825 0.11166121 -0.23855275 -0.3910344 0.10637308 0.14655632
0.3222505 0.0063504037 0.15468195 -0.05041438 0.06140479 -0.096206024 -0.039648976 -0.01977823
-0.24300036 -0.043098707 0.018706234 -0.014462354 0.115542196 0.13443226 -0.24986567 -0.1512739
0.030250464 -0.06966981 -0.068729006 -0.13385214 -0.24214642 0.3475866 -0.16713783 -0.2970306
0.22264996 0.23556675 -0.22634375 -0.3858811 -0.31567416 0.21306802 0.114719674 0.04507481
-0.23153064 0.023427103 -0.14553954 -0.005691015 -0.23743916 -0.06959615 0.16095331 -0.23868568
0.34144175 0.06889172 -0.0838447 -0.31243098 -0.0586419 0.03437269 -0.043833375 0.030470148
-0.23877676 0.061390623 0.2231432 -0.15806976 0.053870574 -0.29842827 0.26305524 0.0078728115
0.3436167 0.06346694 0.17240445 0.3366861 0.009715813 -0.01630232 -0.17223085 -0.14542224
0.09471867 0.28879473 0.2507363 -0.00020654037 -0.053559225 -0.04825344 -0.23043625 -0.12370858
-0.25481436 -0.45649558 0.24810666 0.111456335 -0.053475574 -0.017175503 -0.22054121 0.059004508
-0.34188858 -0.06302428 0.0840906 0.04973441 0.12076874 0.23024528 -0.026016759 -0.1469474
0.08967148 -0.30321538 -0.1747124 -0.17123938 -0.063854426 0.07970628 0.070112735 0.026936743
0.13725099 -0.17745773 0.021458536 0.101710096 -0.19833581 -0.15656492 0.06988915 -0.13127972
0.13970065 0.18719614 -0.018022092 -0.24924353 0.2578812 -0.27346492 0.026010027 0.1979113

out.weight f4 [5, 128]
00000000: 26c3 313f 68d8 afbe 92c4 06be 24bc e23d
00000010: 8884 22bf 71ac adbe 0002 95bd 2ada d23e
00000020: ba4a 313f c1e6 c13e 688f 063f a2f6 d8be
00000030: 7f9f 233e bea5 1cbe f27a 04bf 252b 08bf
00000040: 5c15 f7be 347c 073f 3c64 1a3f cd30 df3e
00000050: ee45 0cbe d842 943d 11d5 16be 7210 e43e
00000060: 8b95 003f c0d9 bf3e 83ba 81be 9c9e 8bbe
00000070: 8b53 503f c9cf dd3d 0f58 253e cb82 b13e
00000080: f341 fa3e f286 dd3e 52d2 c53e 2701 603e
00000090: cafa b13e a00a afbe d170 0f3e 8737 bd3e
000000a0: ae3d a1bd 4dd6 1bbe f155 483e e89c aa3e
000000b0: b676 573e 3a4a 523d 4392 aabe 48d7 dcbd
000000c0: 388f 873e a44c 0c3f c6f2 de3e 0dbe 93be
000000d0: 3261 05bf 7020 0c3f 5c6a 32be 4529 bd3e
000000e0: 95ad 003f 8fa9 b7be 1367 f93e f62a ba3e
000000f0: 7411 84be 7688 203f 07ad 0c3f f9eb 7d3c
00000100: 8be2 db3e f794 f73c d716 8abe a513 c0be
00000110: 48af fa3e a7e0 503e 736b d93e 0362 ee3e
00000120: 0e3f 3a3f cb63 413f 0116 d43e 8cc3 023d
00000130: 430c 82be f374 343f 9760 173e bb24 063f
00000140: 57d2 76be eebc 133f 6161 083f b5d8 d43e
00000150: 05a8 ae3e 329b 663e 8f30 9b3e 86fd 4a3e
00000160: 2031 2d3e 2c67 223e 8367 37be 9b3c c83e
00000170: 4bff 293f 7f3b efbe c5c2 bf3d e925 cbbe
00000180: eb1d af3c 7685 ac3e a330 01bf 5105 d63e
00000190: 4c09 323f 90e7 cf3e 203d 7bbe 9da8 7fbe
000001a0: 8113 2cbf 4e45 07bf f9c7 47be bfec 943e
000001b0: 74d2 dfbd d2d8 ecbe b875 a6bd 5274 9b3e
000001c0: 0b1e 023f 885c fcbe c60b 80bd 309d 8cbe
000001d0: b052 d63e 0fb6 d6be dae0 a4be edd5 a3be
000001e0: 184a 8e3b 0708 b5bc 2d09 0abe 0c99 9d3e
000001f0: 7a95 1f3f a10d 9e3e 7409 253e d99a 5f3f
00000200: 8269 1f3f aca0 c9be 2c92 20be 9e90 f63c
00000210: 0bcd 5abf 486f 8ebe 5e9d a1be 2b4d e03e
00000220: 91ea 073f 678f cd3e 4609 083f 4d1f 70be
00000230: a1f9 6e3e b30a 5ebe 383e 04bf dbf9 31bf
00000240: e229 d7be 4f7f 273f 433c ef3e b9d1 863e
00000250: 4b9c 36be 28fe a63e 75e8 59be 81a3 863e
00000260: 52ac f13e d866 133f 53cf 04bf 88d2 eabe
00000270: 2673 363f f024 533e 91b1 913e f693 e03e
00000280: 382a 2a3f f847 c43e 8539 be3e f746 a13e
00000290: f214 af3e d527 a4be f8dd a83d 863f a23f
000002a0: 1ad9 03be 11bf e7be 4cc1 213e d95c 743e
000002b0: 8e68 ea3e 715c b73d 0228 82be 3ef7 97bd
000002c0: 3914 9c3e 5d67 d13e f3db d73e f3e8 c0be
000002d0: 540c febe d22c c33e d0ed d9be 6f6d aa3e
000002e0: b574 ee3e 0505 ddbe 9350 be3e e770 9b3e
000002f0: cfa5 f3be 77d3 a43e a45b 1e3f 59c5 6bbe
00000300: 22a9 023f 70f6 14be e543 a0be 3a0c 9bbe
00000310: eead 093f 1d1e 263e 5fd4 133f 8ac4 503f
00000320: c76c 243f 3b9d 553f 2492 c23e 7479 abbc
00000330: 39d9 9cbe b69a fe3e 0ca4 153c 296d b73e
00000340: c446 d1be 87fe 313f d76c 1f3f 40ec 1c3f
00000350: 6264 d13e 92ad c03e cdaa be3e 9ef8 143e
00000360: 3964 123d e937 c43d 9262 74be bdf0 bf3e
00000370: 88d2 c33e 3d0f 67bf 8e3e 883e 05aa babe
00000380: 63ce b7be fad4 de3e 75e5 01bf b9b3 3d3f
00000390: 126b 3f3e f56e b13e 9578 c5be c55d dbbe
000003a0: 1a48 3ebf 3d7e fbbe c811 9ebe 5534 b43e
000003b0: 474a 98be 63be 1ebf bf7d c7bd 17d3 e23e
000003c0: fbe0 c43e 61cf acbe d72a c2be 81dd ccbe
000003d0: 58a4 df3e 3e1b dbbe cc91 66be 03b2 f4bc
000003e0: 44a5 a73d 2d92 a7be 5074 4ebe de1b 8d3e
000003f0: 714f 363f 8441 c83d fe06 223e f7cc c53e
0.694384 -0.34344792 -0.13160923 0.11071041 -0.63483477 -0.33920625 -0.07275772 0.4118207
0.6925465 0.37871364 0.5256257 -0.42375666 0.15978812 -0.152976 -0.517501 -0.53190833
-0.48258483 0.52923894 0.60309196 0.4359192 -0.13698551 0.07239312 -0.14729716 0.44543797
0.50228184 0.37470818 -0.2533761 -0.27269447 0.81377476 0.108306475 0.16146873 0.346701
0.4887844 0.43267018 0.38637024 0.2187544 0.3476165 -0.34187794 0.1400788 0.36956427
-0.078730926 -0.15218468 0.19564034 0.33322835 0.21041378 0.05134032 -0.33314714 -0.10783249
0.26476455 0.54804444 0.43544596 -0.28855935 -0.52101433 0.54736996 -0.17423385 0.3694555
0.50264865 -0.3587155 0.48711452 0.36360902 -0.25794566 0.6270822 0.5495152 0.015498155
0.42946276 0.0302224 -0.2697055 -0.37514988 0.48961854 0.20398198 0.4246479 0.46559152
0.72752464 0.75542897 0.41423038 0.03192477 -0.2539998 0.7049095 0.1478294 0.52399796
-0.24103676 0.5771016 0.5327359 0.41571584 0.34112564 0.2252014 0.30310485 0.19823274
0.16913271 0.1585967 -0.1791058 0.39108738 0.6640517 -0.4672508 0.09363321 -0.3967736
0.02137657 0.33695573 -0.5046484 0.4180093 0.69545436 0.40606356 -0.24535036 -0.24966665
-0.6721726 -0.52840126 -0.19509877 0.29086873 -0.109288126 -0.4625917 -0.08127922 0.30362183
0.5082709 -0.49289346 -0.062522456 -0.27463675 0.4185996 -0.41935775 -0.32202798 -0.3199915
0.0043423288 -0.022098554 -0.13480063 0.30780828 0.6233746 0.30869773 0.16116887 0.87345654
0.6227037 -0.39380395 -0.1568076 0.030098256 -0.8546912 -0.27819276 -0.31565374 0.43808874
0.53092295 0.4014847 0.5313915 -0.2344944 0.23337413 -0.21683769 -0.5165744 -0.69521874
-0.42024142 0.6542863 0.46725664 0.2633188 -0.17833059 0.3261578 -0.21280082 0.2629662
0.47201782 0.575788 -0.5187885 -0.45863748 0.7126945 0.2061956 0.28455785 0.43862885
0.6647067 0.38336158 0.3715326 0.31499454 0.34195668 -0.3206164 0.08245462 1.2675636
-0.12875786 -0.4526296 0.15796393 0.23863544 0.45782894 0.08953179 -0.2542115 -0.074202046
0.3048418 0.40899172 0.42159995 -0.37677726 -0.4961878 0.38120133 -0.4256425 0.33286616
0.46573415 -0.43167892 0.37170848 0.30359575 -0.4758744 0.32192585 0.6185858 -0.23024501
0.51039326 -0.14547133 -0.313018 -0.30282766 0.5378102 0.16222425 0.5774593 0.81549895
0.6422848 0.8344304 0.3800212 -0.020931937 -0.30634478 0.4972741 0.00913335 0.3582547
-0.40874302 0.69529 0.6227545 0.6129799 0.40896899 0.37632424 0.37239686 0.14547965
0.03574011 0.095809765 -0.23865727 0.37488356 0.3824656 -0.90257627 0.26610225 -0.3645784
-0.35899648 0.43521863 -0.5074075 0.7410236 0.18693188 0.34654966 -0.3856856 -0.42844978
-0.7432877 -0.4911975 -0.3087294 0.35196176 -0.2974417 -0.6200926 -0.09740781 0.44301674
0.38452896 -0.33751968 -0.3792331 -0.40012744 0.43680072 -0.42794222 -0.22516555 -0.029870039
0.08185819 -0.3272871 -0.20161557 0.27560323 0.7121497 0.09778121 0.1582298 0.38632938

out.bias f4 [5]
00000000: a96d 19bf 0a5c 343f f962 1c3f aa47 0b3f
00000010: 12a4 a5bf
-0.59932953 0.7045294 0.6108852 0.54406226 -1.2940695

exp_avg_sq f4 [128, 28]
00000000: 9f2c 7d3f 55ef 253f 3828 a23e c537 aa3e
00000010: 3ec3 d83d 5344 c43e 0587 fd40 4e0b 0f41
00000020: 1f74 9840 4edc 3240 d1a0 f73f 8894 da3f
00000030: 0834 d73f aa7c f33f baba 2f40 3da5 a140
00000040: 8356 7341 bee2 0042 a5bf 9f3e 4dda 533d
00000050: 55dc 8a3e c7c8 4a3e d57b 5b3e 6565 7f3f
00000060: 9732 1140 4ca8 b442 3618 583d 61b4 6f44
00000070: 4683 be45 f73f ab45 d5d8 9e45 c9ed 0546
00000080: 1abc 7245 ce93 1245 8bc5 b245 1317 cc45
00000090: 39b0 9845 c952 c845 74d2 dc45 cb71 ef45
000000a0: 3a01 da45 9b65 bb45 242e 9445 7ad3 7e45
000000b0: 1c16 ee45 542d 6946 a1d9 1e45 27c7 dc45
000000c0: f2e2 0246 845d 1d46 c00d 1f46 7bbf be45
000000d0: 99da dd44 2fba ef47 5dfa 4943 70e0 9648
000000e0: 5f21 7b41 f2ab 4742 243c e143 d264 1244
000000f0: b69d 2c44 188e 0c44 1ba5 2f43 e4d4 0743
00000100: 1b82 f442 303a 0643 0150 5b43 9fdd 8e43
00000110: 2a3c 2c44 302a c944 ccf9 9744 152a 7e42
00000120: 2d09 ba41 eb76 8141 bc58 3b41 483b de40
00000130: faed 2541 92a7 1e41 4541 1541 b091 6c41
00000140: 3fab 4a42 8b25 d844 f6bb 9640 28d0 8047
00000150: 6669 b837 2597 a437 42dc 9737 f640 3939
00000160: 52d8 4339 290c c138 69f5 f138 69a6 6c3a
00000170: a729 933b 1d10 883b 1a35 a53a e2e9 183a
00000180: e8a6 d539 416d a739 a0f7 a439 5bed b839
00000190: 840e 053a bb00 603a f83e 2e3b 1c20 db3b
000001a0: 4d53 0c3b 0100 963a f6ad 943a e5d3 fd37
000001b0: 4b4f 603b 5727 803b efdf 9737 606e 603b
000001c0: 6d9d 4446 ebc1 bd46 bba9 ed46 935b f946
000001d0: b77e 0147 a266 9a46 20ee c746 84a3 2347
000001e0: 2fa0 1647 41b3 2b47 d070 f446 52c7 1647
000001f0: 0d44 9247 408a b947 31f5 7147 7f4a c646
00000200: 479b 7945 d219 4245 76b8 8c45 0eb1 1946
00000210: 82f8 2247 05df 3a47 40c3 f746 0aae 4446
00000220: d628 3946 52ef 2948 6149 9544 f1a0 844a
00000230: 8ba6 0744 a4f6 7243 072d 6c43 c0d4 9545
00000240: f360 2445 9930 bd44 0886 bb45 5490 cd45
00000250: 1cde 6645 1ce3 5f45 8adc ba45 1742 b945
00000260: 0855 9845 56d3 8645 cf9c 5145 5a18 6d45
00000270: 1e09 fe45 d745 7946 fb48 1a45 c7d0 be45
00000280: 5d3b 1846 8928 9f46 7d8b 5946 f15d 0944
00000290: 1354 1245 1a7d 0148 d5f8 d242 ea02 7248
000002a0: 93d2 5840 d9ae 7540 b529 bd40 9c88 7841
000002b0: f2eb 1142 239c 8f41 0144 5443 1ef6 6d43
000002c0: 239b fe42 7929 9442 c0cc 6d42 4e58 6142
000002d0: 7a3d 4442 0cd2 5242 4a62 9342 f31f 0443
000002e0: 51b3 c243 f52d 5444 76d8 7e41 566c 0e40
000002f0: 697b ee40 6412 aa40 bd46 8140 f896 6840
00000300: 5f3d 8342 cdce 1a45 54d5 c03f 0dde c946
00000310: ff80 8945 f06c 8246 5ef9 e047 8abe 0148
00000320: a99b 1b48 723f a447 1eda 2147 2de0 0a47
00000330: 6220 f246 6560 0047 dbb4 2447 87d6 8547
00000340: 543a 3048 62ed b348 4724 1e48 2ae9 4a46
00000350: 0cb1 2e46 370f 9046 a056 c244 5cad 9444
00000360: cc07 bd44 fe5f db44 5398 1545 3fa4 8645
00000370: b6ab 5446 e134 cb48 0254 9244 f9fd 684b
00000380: e3e2 aa45 9ac7 b545 2fe6 6c46 0d9e 6d46
00000390: 39b3 4b46 0ba5 e545 1e73 6945 83e7 4545
000003a0: 3627 3e45 8870 c545 f0ba c145 a0b7 0646
000003b0: bd04 8946 4c2d de46 71cd 4546 fb93 e444
000003c0: 1ad9 7944 6496 6744 819e a644 6c6a 5245
000003d0: 78d3 c744 205c 4645 8b1e 9a45 cda7 aa45
000003e0: b97a a244 d646 7e47 f91b 4243 94b8 9b49
000003f0: 958a 901c e10e 521c 207a 391c f40e 1a1c
0.9889621 0.64818317 0.3167131 0.33245674 0.105841145 0.38333377 7.922732 8.94026
4.764175 2.7946963 1.9345952 1.7076578 1.6812754 1.902242 2.745772 5.0514207
15.208621 32.221428 0.312009 0.05172186 0.27121225 0.19803153 0.21433957 0.9976409
2.2687128 90.328705 0.052757464 958.8184 6096.409 5479.9956 5083.104 8571.446
3883.7563 2345.2378 5720.693 6530.8843 4886.028 6410.348 7066.3066 7662.224
6976.1533 5996.7007 4741.7676 4077.2173 7618.7637 14923.332 2541.6018 7064.894
8376.736 10071.379 10179.4375 6103.935 1774.8312 122740.37 201.97798 308995.5
15.695647 49.917915 450.46985 585.5753 690.46423 562.2202 175.64494 135.8316
122.25411 134.2273 219.31252 285.7314 688.94006 1609.3184 1215.8062 63.541096
23.25448 16.183065 11.709164 6.9447365 10.3706 9.915911 9.328435 14.785568
50.667233 1729.1732 4.7104445 65952.31 2.198359e-05 1.9620706e-05 1.8103168e-05 0.00017667175
0.00018677235 9.205222e-05 0.00011537487 0.00090274826 0.0044910493 0.0041523115 0.0012604326 0.0005833191
0.0004075088 0.00031934123 0.00031465013 0.00035272058 0.00050757104 0.0008545031 0.0026587825 0.0066871773
0.0021411956 0.0011444093 0.0011343348 3.0258621e-05 0.003422695 0.0039109397 1.810488e-05 0.0034245476
12583.356 24288.959 30420.865 31917.787 33150.715 19763.316 25591.062 41891.516
38560.184 43955.254 31288.406 38599.32 74888.1 94996.5 61941.19 25381.248
3993.7048 3105.6138 4503.0576 9836.264 41720.508 47839.02 31713.625 12587.51
11850.209 174013.28 1194.2931 4.3459765e+06 542.60223 242.96344 236.17589 4794.5938
2630.0593 1513.5187 6000.754 6578.041 3693.8818 3582.1943 5979.5674 5928.261
4874.629 4314.417 3353.8005 3793.522 8129.1396 15953.46 2468.5613 6106.097
9742.841 20372.268 13922.872 549.46783 2341.2546 132596.4 105.486 247819.66
3.3878524 3.8387969 5.911341 15.533352 36.480415 17.951239 212.26564 237.9614
127.303 74.081 59.44995 56.336235 49.060036 52.705124 73.69197 132.1248
389.4009 848.7181 15.927847 2.2253623 7.4525647 5.314745 4.039885 3.6342144
65.619865 2476.925 1.5065103 25839.025 4400.1245 16694.469 115186.734 132858.16
159342.64 84094.89 41434.117 35552.176 30992.191 32864.395 42164.855 68525.055
180457.31 368491.06 161937.11 12986.291 11180.262 18439.607 1554.707 1189.4175
1512.2437 1754.9998 2393.5203 4308.531 13610.928 416167.03 1170.6252 1.5269369e+07
5468.361 5816.95 15161.546 15207.513 13036.806 7348.6304 3735.1948 3166.4695
3042.4507 6318.0664 6199.367 8621.906 17538.37 28438.648 12659.36 1828.6244
999.3922 926.34985 1332.9532 3366.6514 1598.6084 3173.7578 4931.818 5460.975
1299.8351 65094.836 194.10927 1.2756665e+06 9.564943e-22 6.95024e-22 6.136921e-22 5.097365e-22

exp_avg f4 [128, 28]
00000000: 0400 0000 0400 0000 0400 0000 0400 0000
00000010: 0400 0000 0400 0000 0400 0000 0400 0000
00000020: 0400 0000 0400 0000 0400 0000 0400 0000
00000030: 0400 0000 0400 0000 0400 0000 0400 0000
00000040: 0400 0000 0400 0000 0400 0000 0400 0000
00000050: 0400 0000 0400 0000 0400 0000 0400 0000
00000060: 0400 0080 0400 0000 0400 0000 0400 0000
00000070: 3d32 bec0 ac49 0a40 df25 d940 e99d c2bf
00000080: e960 ffbf 154c 95c0 3ba4 27c2 8066 51c2
00000090: ca05 c8c1 5354 65c1 4e4c c6c0 adf9 80c0
000000a0: d2fe b2c0 2fe0 19c2 fe5d ccc1 0b7b 94c1
000000b0: 56ae 3dc1 de0d 5ac1 85b0 79c1 aa21 63c1
000000c0: 7260 87c1 77b8 dcc1 ad87 06c2 4b77 cbc0
000000d0: 2e9a e941 ffeb 26c2 81d5 16c0 3a9f 5242
000000e0: 0400 0000 0400 0000 0400 0000 0400 0000
000000f0: 0400 0000 0400 0000 0400 0000 0400 0000
00000100: 0400 0000 0400 0000 0400 0000 0400 0000
00000110: 0400 0000 0400 0000 0400 0000 0400 0000
00000120: 0400 0000 0400 0000 0400 0000 0400 0000
00000130: 0400 0000 0400 0000 0400 0000 0400 0000
00000140: 0400 0000 0400 0000 0400 0000 0400 0000
00000150: 0400 0080 0400 0080 0400 0080 0400 0080
00000160: 0400 0080 0400 0080 0400 0080 0400 0080
00000170: 0400 0080 0400 0080 0400 0080 0400 0080
00000180: 0400 0080 0400 0080 0400 0080 0400 0080
00000190: 0400 0080 0400 0080 0400 0080 0400 0080
000001a0: 0400 0080 0400 0080 0400 0000 0400 0080
000001b0: 0400 0080 0400 0080 0400 0080 0400 0080
000001c0: 6953 0841 77c0 1241 3d73 2241 c820 3a41
000001d0: 532b 8941 d03b fd41 fe26 3243 5587 2f43
000001e0: bbc3 a942 3456 7542 d118 4042 582b 3042
000001f0: ad1b 2a42 a036 1143 b242 a542 965a 7742
00000200: 662c 4a42 77d1 3c42 e662 3542 153e 4642
00000210: d4f1 6c42 6ee6 9942 7b13 0143 a575 1241
00000220: 9098 07c3 1bf3 2e43 2d0d 0741 2e04 d7be
00000230: 8c22 0340 b28e 8940 9767 9640 ac96 b340
00000240: 19da 3841 7e3f 9741 ef38 e742 cf60 e742
00000250: 0250 6442 0f24 f341 61ff b341 e75a c041
00000260: 43b4 d241 6688 bc42 25b6 4f42 eb51 1742
00000270: fc26 f841 1180 e841 a511 da41 0acd e141
00000280: 69de 0742 8cf1 3742 8ff1 8842 47cc 2740
00000290: db55 bbc2 d5b9 c142 b04e 8a40 7849 98c1
000002a0: 0400 0000 0400 0000 0400 0000 0400 0000
000002b0: 0400 0000 0400 0000 0400 0000 0400 0000
000002c0: 0400 0000 0400 0000 0400 0000 0400 0000
000002d0: 0400 0000 0400 0000 0400 0000 0400 0000
000002e0: 0400 0000 0400 0000 0400 0000 0400 0000
000002f0: 0400 0000 0400 0000 0400 0000 0400 0000
00000300: 0400 0080 0400 0000 0400 0000 0400 0000
00000310: b147 0200 f6f2 0300 2415 0d00 78e5 0c00
00000320: ac19 0e00 fb7f 0d00 cd9c 0600 ddd5 0500
00000330: 057e 0500 70a9 0500 4a3f 0600 eac4 0700
00000340: 797d 0c00 7d47 1400 06f4 0e00 8d32 0600
00000350: bcea 0200 e904 0200 01aa 0100 7c84 0100
00000360: 6974 0100 c876 0100 22b1 0100 cf69 0200
00000370: 6b8a 0280 2e0e 1500 d577 0100 a9de 8700
00000380: d4ba a8c1 f124 2dc1 c547 d8c0 880a 43c1
00000390: a8fc 23c1 87b0 75c1 ff59 1ec2 4213 04c2
000003a0: 19f3 9ec1 97bb e3c1 877f 91c1 b49f 8fc1
000003b0: 5bd1 6dc1 bba8 f2c1 6f6a 74c1 1c1d acc1
000003c0: acbb 7bc1 5dfc 3ec1 6d88 63c1 25cb 9bc1
000003d0: 8e79 1dc1 2c04 7dc1 8fe9 01c2 aa19 a9c1
000003e0: 210e ce41 0e7d 63c2 504c 39c0 7286 2fc2
000003f0: 0400 0000 0400 0000 0400 0000 0400 0000
6e-45 6e-45 6e-45 6e-45 6e-45 6e-45 6e-45 6e-45
6e-45 6e-45 6e-45 6e-45 6e-45 6e-45 6e-45 6e-45
6e-45 6e-45 6e-45 6e-45 6e-45 6e-45 6e-45 6e-45
-6e-45 6e-45 6e-45 6e-45 -5.9436326 2.1607466 6.785873 -1.520444
-1.995145 -4.6655374 -41.91038 -52.350098 -25.002827 -14.333087 -6.1968145 -4.030478
-5.593606 -38.46893 -25.545895 -18.56008 -11.8550625 -13.628386 -15.605596 -14.195719
-16.922092 -27.59007 -33.632496 -6.358312 29.200283 -41.730465 -2.3567812 52.655495
6e-45 6e-45 6e-45 6e-45 6e-45 6e-45 6e-45 6e-45
6e-45 6e-45 6e-45 6e-45 6e-45 6e-45 6e-45 6e-45
6e-45 6e-45 6e-45 6e-45 6e-45 6e-45 6e-45 6e-45
6e-45 6e-45 6e-45 6e-45 -6e-45 -6e-45 -6e-45 -6e-45
-6e-45 -6e-45 -6e-45 -6e-45 -6e-45 -6e-45 -6e-45 -6e-45
-6e-45 -6e-45 -6e-45 -6e-45 -6e-45 -6e-45 -6e-45 -6e-45
-6e-45 -6e-45 6e-45 -6e-45 -6e-45 -6e-45 -6e-45 -6e-45
8.520364 9.1719885 10.153134 11.633003 17.146154 31.654205 178.15231 175.52864
84.882286 61.334183 48.024235 44.042328 42.527027 145.21338 82.630264 61.838463
50.543358 47.204556 45.34658 49.560627 59.23616 76.95006 129.0761 9.153722
-135.59595 174.94963 8.440717 -0.41995376 2.0489836 4.298669 4.7001452 5.6121426
11.5532465 18.906002 115.6112 115.68908 57.078133 30.392607 22.499697 24.044386
26.338018 94.2664 51.927876 37.829998 31.019035 29.062532 27.258615 28.225117
33.967197 45.985886 68.471794 2.621843 -93.66769 96.86295 4.3221054 -19.035873
6e-45 6e-45 6e-45 6e-45 6e-45 6e-45 6e-45 6e-45
6e-45 6e-45 6e-45 6e-45 6e-45 6e-45 6e-45 6e-45
6e-45 6e-45 6e-45 6e-45 6e-45 6e-45 6e-45 6e-45
-6e-45 6e-45 6e-45 6e-45 2.09389e-40 3.62664e-40 1.201445e-39 1.184344e-39
1.294906e-39 1.239772e-39 6.07262e-40 5.35897e-40 5.04385e-40 5.1996e-40 5.73717e-40 7.13488e-40
1.147037e-39 1.862355e-39 1.373236e-39 5.69147e-40 2.67878e-40 1.85432e-40 1.52821e-40 1.39362e-40
1.33596e-40 1.34446e-40 1.55379e-40 2.21628e-40 -2.33326e-40 1.933632e-39 1.34823e-40 1.2477667e-38
-21.091225 -10.821519 -6.758761 -12.190071 -10.249184 -15.3555975 -39.587887 -33.018806
-19.8687 -28.466597 -18.18727 -17.95298 -14.863612 -30.332388 -15.275985 -21.514214
-15.733318 -11.936612 -14.220807 -19.474192 -9.842176 -15.813519 -32.478085 -21.137531
25.756899 -56.872124 -2.8952827 -43.881294 6e-45 6e-45 6e-45 6e-45

exp_avg_sq f4 [5, 128]
00000000: 159b 2e42 5084 8242 ccff f441 092c 0442
00000010: cce1 c441 255b 3142 ebef 0042 5ed0 c642
00000020: 5c8f 9442 ac71 8542 dbfd 4542 a518 3642
00000030: cacf db41 e8d8 4742 cb8f 8742 1bc3 2b42
00000040: 762f 0c42 6103 1d42 ec22 9542 2c68 0243
00000050: 4f65 2342 5e8b 3141 eb03 de41 e04d a442
00000060: 3dca 9e42 cf77 c341 0f2f fa41 ce0a 0242
00000070: 1593 d541 80bc 8242 bd8b 4b42 8602 9042
00000080: 176a ed42 179c 0243 b17d aa42 cd6f 8742
00000090: 4a6b 6542 b7fc 8042 35fe 4242 6092 0642
000000a0: c9bb d241 9b2c 3742 02d8 8542 e12d 5f42
000000b0: efb9 3f42 b4ed 1942 8dd9 2442 93f3 2d42
000000c0: aa76 d041 fb99 9941 3af1 e642 0b75 c141
000000d0: 43af e640 a641 7141 733f b042 f8bf aa41
000000e0: 866d c641 0817 f041 8b0e 7d42 d2fd 9442
000000f0: 5c27 3f42 ad62 7241 39e5 b842 cb21 9542
00000100: e933 0c42 e8ec 3342 9aa5 8342 d804 0542
00000110: 75c1 8242 1454 d841 7800 bb41 b890 ad41
00000120: 181b f841 5b11 a041 4467 a742 879f 6042
00000130: f173 6542 cd45 6841 e6ad 2e42 c8c2 8042
00000140: 0c3e cd41 f63c e841 b11f 3442 9089 2042
00000150: 2ac3 e542 70ca f541 64ed b342 5c3f 6042
00000160: 7d83 f241 4210 3942 0877 8642 04fb b042
00000170: 38b3 4a42 3a26 1142 6481 9442 a1a3 6841
00000180: be19 b641 a0b5 0142 7d69 d541 fcab b341
00000190: 90dc 0442 9f43 8741 95ec 2842 c687 e941
000001a0: 499d 1542 bc09 8c41 cffa f541 ee33 4a42
000001b0: 7071 0342 90f1 5642 f3e5 3842 3b21 8542
000001c0: 667e 0142 947e 4442 10b0 8842 2068 8e42
000001d0: 5385 a842 74aa 9c42 aa79 8b42 18ef d741
000001e0: 721f 8142 3ef5 e041 d46a 7442 81da 6742
000001f0: 0116 0642 e9aa 1342 5422 c141 e776 5842
00000200: 818e 2e46 eb33 a645 af24 4345 d98e f445
00000210: 945f f444 7a6f 7445 ab8d e445 3da4 4d46
00000220: 6290 0b46 c672 3c46 17f2 b045 66d7 c045
00000230: 4bcb 9e45 cfd2 dc45 c46e 1646 6256 c145
00000240: 4582 4946 3054 4145 2a48 c545 eedd 6a46
00000250: 892f c245 a985 0846 c686 8545 c684 1646
00000260: 2b1b f345 ecb7 4146 4c4d 6645 0002 b245
00000270: 52b6 2545 f9ea 2a46 c33e 4646 0359 a345
00000280: 3c38 1446 1919 e745 1d48 9945 4421 1246
00000290: 7930 fd45 12ef 0346 9d7b e445 e344 7044
000002a0: 3fb5 0b46 b198 dd45 3a27 6d46 e2bb 7146
000002b0: d349 0446 f108 ae45 a9ce c745 be60 4046
000002c0: c50f 2d46 7dc6 8045 b693 3c46 45e9 7645
000002d0: b657 c545 13ed 3e46 fad3 6146 676b c845
000002e0: db69 3545 3023 ad45 8c4a fe45 af90 da45
000002f0: 0119 5946 595e 6146 753f c245 b4ee 7d46
00000300: a762 1e46 dfa4 4346 08dc 3046 ccd9 c745
00000310: 2f01 a945 eb65 8346 78a7 d144 4d44 ac45
00000320: 999c 2f45 f59e c245 8a6d 0f46 520b 3646
00000330: 7fb7 0046 8866 9245 5337 a945 a4fe 3946
00000340: 0206 df45 3208 5645 01d5 f445 e48d 0f46
00000350: 79e8 9446 f9f7 c344 5b5d d145 6c1b 0e46
00000360: 27f1 6c46 2b83 7646 f5d2 fb45 901a 4d46
00000370: 6384 1146 6893 b745 a1ef 8446 a9cb ab45
00000380: db63 b745 d13e a745 9b20 bb45 9c45 2945
00000390: f72d b345 1d89 9345 3205 0a46 b668 ff45
000003a0: 7494 2645 940b 7a45 a4e6 1d46 a48b 8246
000003b0: 22fa 0446 f4bc d645 27fa 4646 2930 7946
000003c0: 19c0 1a45 55d1 1045 9606 1746 65fa 3d46
000003d0: f114 9e46 cedf 1946 008e 1e46 8a98 8545
000003e0: aa01 7b46 b7f4 8046 795b e345 79ef 2646
000003f0: 45d4 b545 548c 1a46 f939 ad45 aaae 1946
43.651447 65.25842 30.6249 33.043003 24.610252 44.33901 32.234295 99.40697
74.28 66.722015 49.497906 45.524067 27.47646 49.961823 67.780846 42.940533
35.04635 39.2533 74.56821 130.40692 40.848934 11.096525 27.751913 82.1521
79.395 24.4335 31.272978 32.51055 26.696817 65.368164 50.886463 72.00493
118.70721 130.60973 85.24549 67.71836 57.354774 64.49358 48.74825 33.642944
26.341692 45.79356 66.92189 55.794804 47.931576 38.482132 41.212452 43.487865
26.057941 19.200186 115.471146 24.18215 7.2088943 15.078527 88.123924 21.343735
24.803478 30.011246 63.264202 74.49574 47.788437 15.149091 92.4477 74.566
35.050694 44.981354 65.82344 33.25473 65.377846 27.041054 23.375229 21.695663
31.01323 20.008474 83.70169 56.15579 57.363224 14.517041 43.669823 64.38043
25.655296 29.029766 45.03095 40.13434 114.88118 30.723846 89.96365 56.061874
30.314203 46.265877 67.23248 88.490265 50.67502 36.28733 74.252716 14.539948
22.76257 32.42737 26.676508 22.458977 33.215393 16.908018 42.231037 29.191296
37.4036 17.504753 30.747465 50.550713 32.86078 53.7359 46.22456 66.5649
32.373436 49.12361 68.34387 71.20337 84.2604 78.33292 69.737625 26.991745
64.56142 28.119747 61.104324 57.963383 33.52149 36.916904 24.141762 54.116116
11171.626 5318.4897 3122.2927 7825.856 1954.9868 3910.9673 7313.7085 13161.06
8932.096 12060.693 5662.261 6170.925 5081.4116 7066.351 9627.691 6186.798
12896.567 3093.2617 6313.0205 15031.482 6213.942 8737.415 4272.8467 9633.193
7779.396 12397.98 3684.831 5696.25 2651.395 10938.743 12687.69 5227.1265
9486.059 7395.137 4905.014 9352.316 8102.059 8443.768 7311.4517 961.07635
8941.312 7091.0864 15177.807 15470.971 8466.456 5569.1177 6393.8325 12312.186
11075.942 4120.811 12068.928 3950.5793 6314.964 12219.269 14452.994 6413.4253
2902.616 5540.3984 8137.3184 6994.0854 13894.251 14423.587 6215.932 16251.676
10136.663 12521.218 11319.008 6395.2246 5408.148 16818.959 1677.2334 5512.5376
2809.7874 6227.8696 9179.385 11650.83 8237.874 4684.8164 5414.9155 11903.66
7136.751 3424.5122 7834.6255 9187.473 19060.236 1567.7491 6699.6694 9094.855
15164.288 15776.792 8058.3696 13126.641 9313.097 5874.426 17015.814 5497.4575
5868.482 5351.852 5988.0757 2708.3506 5733.7456 4721.139 8833.299 8173.089
2665.2783 4000.7236 10105.66 16709.82 8510.533 6871.619 12734.538 15948.04
2476.006 2317.0833 9665.646 12158.599 20234.47 9847.951 10147.5 4275.0674
16064.416 16506.357 7275.434 10683.868 5818.5337 9891.082 5543.2466 9835.666

exp_avg f4 [5, 128]
00000000: b907 c93e efeb aabe 2ae4 49bf 6a93 ff3e
00000010: 70e9 98be 03f6 b2be 8e60 083f 6abc ae3e
00000020: 677b 0d3f 73dd 9f3e d757 a33e 0438 c6be
00000030: 14d4 763f eb3e 0d3e a188 27bf 4c4d 03bf
00000040: 2915 e4bd b274 ab3e cb87 1c3f 3192 b93e
00000050: b169 90be 53c2 03be 8fa3 9bbe 5fe8 8c3e
00000060: a44e 363e aec2 183e f572 1c3c ada1 87be
00000070: 1eec 24be 571c 243f 5fcb 963e fa1f 333f
00000080: 88ec 563e d03a 083f 1d16 24bc 05c3 b03e
00000090: 6ebc de3e 8e05 a0bd 25b6 8fbe 0c77 61be
000000a0: 85f9 ba3e 2f55 4dbd 32b0 173f 4a1f 523f
000000b0: 4114 2d3e 1686 983c 8ecc 3dbe f572 49be
000000c0: c403 133e be6c 7b3e f1f3 243f 5f03 13bf
000000d0: d3b2 a3be 409b a83d 472b bdbd 4ab0 af3e
000000e0: 3378 983e 4355 a53d 3da8 b33e 0b97 6a3f
000000f0: 9b53 0dbf d7b3 163f 9031 2d3f eff2 9abe
00000100: 9963 b13e a65f c13e 60d6 bbbe 152c c6bd
00000110: da52 3b3e cd50 953e e77d 1a3c ded6 823e
00000120: 6d6d 63be 2cf4 6d3d 302d fe3e eafd a9be
00000130: bd24 ccbe 707f 903e 10a8 353f 6cb8 f03e
00000140: d0d5 b4be 2bda ac3e 9b76 c83e 0d09 c43e
00000150: 7700 a03e 23a1 e7be 6b19 3c3f c0b5 883e
00000160: 12eb d83e b92c 733d d01a 1d3e 2823 573e
00000170: 947d 023f f5c7 32bf e6f6 153f f621 863e
00000180: 97ca 4a3d 96e4 06bd a3c0 bebe f0fd bd3d
00000190: 834f ef3e ec79 cf3d 8312 e2be e186 a6bd
000001a0: 7f4b 36bc faeb 67be 11be 47be b132 133f
000001b0: cd23 873e 15db abbe 5999 46bd d73d 283e
000001c0: d8c4 e63d e978 3dbf f02f 27bf cc8c f9be
000001d0: 7114 d63e e180 cbbe 9da0 6a3d 5e12 0d3e
000001e0: a73b 60bf 25f2 be3d 124f 0bbf 45af a83d
000001f0: e016 ae3e d0e6 c43e 8028 ab3e db92 b13e
00000200: 49ba 6ec0 5fc5 8140 9e5b 3240 f341 10c1
00000210: 3086 c340 4d4e 3740 98ed 2341 9252 8ac0
00000220: ef1c 93c0 913d 1dc1 b0f7 0ac1 1b1d d440
00000230: b0f1 eec0 6670 fac0 3a95 bb40 bc0a 4e40
00000240: fdea d640 9f5b 03c0 dfd7 93c0 7a46 02c1
00000250: fe34 f040 1fee bbbf 55eb 7e40 b3fa 01c1
00000260: 8d59 3bc1 5171 43c0 e9ad 1541 314e e140
00000270: 68a4 b2bf 6887 a0c0 da83 6f3f ffbf 36c1
00000280: c0f6 17c1 aada 08c1 3a1c f5c0 dc5f 32c1
00000290: 6ace cac0 f0d1 7841 939e 55c1 7260 0bc0
000002a0: 2c45 ed3f 3eb2 ac40 6d72 fec0 1596 65c1
000002b0: 3949 b7c0 39ea 3641 08e9 c740 36a5 9240
000002c0: d9cb acc0 f96e f0c0 da0f 9cbf cb26 2241
000002d0: 5f84 7740 b070 afc0 fcd7 b940 2de5 06c1
000002e0: d35d 0ac1 a2b4 4a40 aaae c9c0 3a60 1ec1
000002f0: 25b1 0541 4dc7 12c1 05bd 13c1 b183 f440
00000300: 8665 5dc0 a18f c93f 6de1 a340 929f e83f
00000310: 7da9 5fc0 8761 36c1 6c38 36c1 110b e8c0
00000320: b249 8f40 b5ef 30c1 8ff3 8ac0 e3f1 1c3e
00000330: eee4 0941 89f5 adc0 4b91 59c1 ab1d abc0
00000340: eeb9 d13e 01ef fec0 82f0 2dc1 141b d4c0
00000350: 9430 04c1 eb44 f63f d1fe 1bc1 f0e7 f9be
00000360: db34 9c3e 9e7d acc0 1af6 3241 421e 38c1
00000370: a9bb 95c0 0a73 5440 680b 37c1 8388 ad40
00000380: 1eac 69c0 06b2 8fc0 aa63 9140 a19b 16c0
00000390: 5826 15c1 c40f 03c1 5d21 2840 2fb9 1a41
000003a0: f007 1f40 50ca 8e40 80bb 2341 d8bf 69c1
000003b0: c354 2541 32d8 4240 0ae3 3241 8d26 efbc
000003c0: 5732 18c1 01e4 8540 7286 78bf aae6 b940
000003d0: c2bd 5ac0 d460 8540 7ec5 bf40 5400 c840
000003e0: ad32 4741 2841 0140 0fd1 7141 4a2c 51c1
000003f0: a819 95bf ce23 283e 60a9 03c1 a805 3cc0
0.39263704 -0.33383128 -0.78863776 0.49917156 -0.298656 -0.34953317 0.5327233 0.34128124
0.5526642 0.3122364 0.31902954 -0.38714612 0.96417356 0.13793533 -0.65442854 -0.5128982
-0.111368485 0.3348747 0.61144704 0.36244348 -0.28205636 -0.12867098 -0.30398223 0.27521035
0.17803437 0.14918014 0.009548892 -0.26490536 -0.16105697 0.64105743 0.29452035 0.6997067
0.20988667 0.5321474 -0.010015038 0.34523788 0.43503135 -0.078135595 -0.28068653 -0.22018069
0.36518493 -0.050130066 0.5925323 0.82078993 0.16902258 0.018618625 -0.18535063 -0.19672759
0.14356905 0.245532 0.64434725 -0.5742702 -0.3197237 0.082327366 -0.0923677 0.34314185
0.29779205 0.08072903 0.35089293 0.91636723 -0.55205697 0.58868164 0.6765375 -0.3026347
0.346463 0.37768286 -0.36686993 -0.09676377 0.18293324 0.2916321 0.0094294315 0.25554556
-0.22209711 0.05809419 0.4964385 -0.33201534 -0.3987178 0.28222227 0.7095957 0.47015703
-0.35319376 0.337602 0.3915299 0.38288155 0.31250355 -0.45240125 0.73476285 0.26701164
0.42366844 0.059368823 0.1534226 0.21009505 0.50972867 -0.6983636 0.5857986 0.26197785
0.04950961 -0.03293284 -0.37256345 0.0927695 0.4674035 0.101306766 -0.44154748 -0.08131195
-0.011126398 -0.22648612 -0.19506098 0.57499224 0.263945 -0.33565584 -0.048486087 0.1642984
0.11268014 -0.7401262 -0.6530752 -0.48740232 0.4181247 -0.39746764 0.05728208 0.13776538
-0.8759102 0.09323529 -0.54417527 0.08236555 0.34001827 0.38457346 0.33429337 0.34682354
-3.73012 4.055343 2.7868419 -9.016101 6.1101303 2.864154 10.245506 -4.3225794
-4.597282 -9.827531 -8.685471 6.628553 -7.467003 -7.8262205 5.861966 3.2194052
6.716185 -2.052467 -4.6201015 -8.142206 7.506469 -1.4682044 3.9831135 -8.123706
-11.709363 -3.0537913 9.354959 7.040795 -1.3956423 -5.016529 0.93560565 -11.421874
-9.497742 -8.553385 -7.6596956 -11.148403 -6.337697 15.551254 -13.351214 -2.1777616
1.8536735 5.396758 -7.951468 -14.349141 -5.7276883 11.432183 6.247196 4.5826674
-5.3998837 -7.5135465 -1.2192338 10.134471 3.8674543 -5.482506 5.8076153 -8.430951
-8.647906 3.167275 -6.3025713 -9.898493 8.355748 -9.173657 -9.233647 7.6410756
-3.4593215 1.5746957 5.121268 1.8173697 -3.4947197 -11.39881 -11.388775 -7.251351
4.477746 -11.058522 -4.3422313 0.15326647 8.618391 -5.4362226 -13.597972 -5.3473716
0.40962166 -7.9666753 -10.871218 -6.6283054 -8.26186 1.9239782 -9.749711 -0.48809767
0.30509076 -5.390334 11.185083 -11.507387 -4.6791577 3.3195214 -11.440285 5.422914
-3.6511302 -4.4904814 4.543416 -2.3532488 -9.321861 -8.191349 2.6270363 9.670211
2.4848595 4.4621964 10.233276 -14.609337 10.333194 3.0444455 11.180429 -0.029193187
-9.51229 4.1840825 -0.9708015 5.809407 -3.417832 4.16807 5.992858 6.25004
12.449872 2.0196018 15.11354 -13.073313 -1.1648455 0.16419908 -8.228851 -2.9378452
