model/320a.pt (torch_old, 336839 bytes, 24 tensors)

fc1.weight f4 [128, 28]
0	0x3cc65f94	0.024215497
1	0x3e1f7cb0	0.15574908
2	0xbe4a58e7	-0.19760476
3	0xbd22752c	-0.039662525
4	0xbeabbbc0	-0.3354168
5	0xbed66efc	-0.4188155
6	0xbd9e5e1f	-0.07732796
7	0xbe157dc0	-0.14598751
8	0xbe5e36d9	-0.2170061
9	0x3e2aad80	0.16667747
10	0x3cd705e0	0.026247919
11	0xbf264380	-0.64946747
12	0xbe8483d0	-0.25881815
13	0xbdd584eb	-0.10425743
14	0x3e290482	0.16505626
15	0x3e8e7bc5	0.27828804
16	0x3ec2323f	0.3792896
17	0xbdd180c2	-0.10229637
18	0xbf6e814a	-0.9316603
19	0xc00b0468	-2.172144
20	0xbfc9b008	-1.5756845
21	0xbfd11155	-1.6333414
22	0xbf3593e6	-0.709288
23	0x3e183393	0.14863424
24	0x3d42fbd4	0.047603443
25	0x3c391c7a	0.011298293
26	0xbff1d03c	-1.8891673
27	0x3d5dd811	0.054161135
28	0x3f3dcf61	0.7414456
29	0x3f556eca	0.83372176
30	0x3e4e27b4	0.20132333
31	0x3dc95b69	0.09831888
32	0xbe51adc9	-0.2047645
33	0xbec7b7b8	-0.39007354
34	0x3e0ba355	0.13636525
35	0x3eaa832c	0.333032
36	0x3e2b3d0f	0.16722511
37	0x3e96b4e6	0.2943489
38	0x3e2473ea	0.16059843
39	0xbda9b03f	-0.082855694
40	0xbea70699	-0.3262222
41	0xbec06d8b	-0.37583575
42	0x3d095ee3	0.033537757
43	0xbd59dfce	-0.053191952
44	0x3dcefa72	0.101063624
45	0xbb090d6a	-0.0020912536
46	0xbda638ec	-0.08116326
47	0xbc77b4d5	-0.015118797
48	0x3e46d45b	0.19416945
49	0x3ea6001b	0.32421955
50	0xbe492cc1	-0.19645979
51	0x3f23c03e	0.63965213
52	0x3eaae3da	0.33376962
53	0xbcfbc6aa	-0.030734379
54	0x3f9668f5	1.175078
55	0x3d947cb9	0.072503515
56	0xbf920e7f	-1.1410674
57	0xbf89ca09	-1.0764781
58	0xbec5a6d0	-0.3860383
59	0x3e004b0b	0.12528627
60	0xbd81596f	-0.06315886
61	0xbdbef043	-0.0932317
62	0xbd6d47d9	-0.057929847
63	0x3d4c8ad5	0.049937088
64	0x3d15883d	0.03650688
65	0x3e8ff291	0.2811475
66	0x3e8635c6	0.262129
67	0x3eaadd41	0.33371928
68	0xbcab1c45	-0.020887503
69	0x3d3d2dec	0.046186373
70	0xbcd39a89	-0.025830524
71	0xbdbc9048	-0.09207207
72	0xbe6700ae	-0.22558853
73	0xbed59d81	-0.41721728
74	0xbdf3112e	-0.11868511
75	0xbe5f5ef3	-0.21813564
76	0x3d1e1c5d	0.038601268
77	0xbda1053a	-0.07862325
78	0xbecac815	-0.39605775
79	0xbfa2cc18	-1.2718534
80	0x3e88b532	0.2670074
81	0x3e53ac21	0.2067113
82	0xbfad6614	-1.3546777
83	0x3d10bd62	0.03533686
84	0xbf23b2d4	-0.63944745
85	0xbf20d18b	-0.6281974
86	0xbe8b3b09	-0.27193478
87	0xbcd5b65a	-0.026087929
88	0x3d06ab74	0.032878354
89	0xbd35d385	-0.044391174
90	0xbe85fbeb	-0.2616876
91	0x3da9d31a	0.082922176
92	0x3dca1bc1	0.09868575
93	0x3eaf7384	0.3426782
94	0x3ed330cf	0.41248176
95	0x3e3ee679	0.18642606
96	0xbcf448d1	-0.029819878
97	0xbd1df427	-0.03856292
98	0xbe09ac80	-0.1344471
99	0xbea44023	-0.32080182
100	0xbd87b15f	-0.06625628
101	0xbcd39b5d	-0.025830919
102	0x3efb89a0	0.49128437
103	0x3e01a532	0.12660673
104	0x3e217382	0.15766719
105	0x3c665d1c	0.014060285
106	0xbecd0cc6	-0.40048808
107	0xbf482e33	-0.78195494
108	0x3ec551e4	0.3853904
109	0xbd8581f8	-0.0651893
110	0xbf64f620	-0.89438057
111	0x3c5b0e39	0.01337009
112	0xbf5c24fb	-0.8599393
113	0xbf514044	-0.81738687
114	0xbe8eaed2	-0.27867752
115	0xbe766000	-0.24060059
116	0xbdd61d4e	-0.10454808
117	0x3d62b1c7	0.055345323
118	0x3b671e49	0.0035265854
119	0x3d8e96a4	0.06962326
120	0x3f0a5c66	0.5404724
121	0x3e965fc0	0.29369926
122	0xbc89126a	-0.016732413
123	0x3e90a5f9	0.28251627
124	0x3e460dc9	0.19341196
125	0x3e682a5e	0.22672412
126	0x3ef13986	0.471142
127	0x3f50c73c	0.8155401
128	0xbf0b084b	-0.5430953
129	0xbf4ccccf	-0.80000013
130	0xbe3c0b66	-0.18363723
131	0x3e6e32ab	0.23261516
132	0x3dded721	0.10880876
133	0x3d24cd41	0.040234808
134	0x3e1729f5	0.14762099
135	0xbf5dc45a	-0.86627734
136	0xbeaa3c99	-0.33249357
137	0xbe930206	-0.2871248
138	0xbfbfa050	-1.4970798
139	0xbcc7bc2b	-0.024381718
140	0xbf7a33e2	-0.97735417
141	0xbfaf4432	-1.3692687
142	0xbf69dd15	-0.9135297
143	0x3db3626a	0.08759005
144	0x3d7ffe23	0.062498223
145	0x3dfeb969	0.12437708
146	0x3d427367	0.047473338
147	0x3e0cbf41	0.13744833
148	0x3d0c4015	0.0342408
149	0x3dce9596	0.10087125
150	0x3e5f90d8	0.21832597
151	0xbc60107a	-0.013675803
152	0xbd9bb887	-0.07603555
153	0xbe812f0a	-0.252312
154	0xbd473e91	-0.048643652
155	0x3e85e0fd	0.26148215
156	0x3dc1eda2	0.09469153
157	0x3e1354f2	0.14387873
158	0x3e093bc0	0.13401699
159	0x3e7ca490	0.2467215
160	0xbda38ae0	-0.07985473
161	0x3df0744c	0.11740932
162	0x3cc2a648	0.02376093
163	0xbf8d2f86	-1.1030128
164	0x3ebf991b	0.37421498
165	0x3e0aa9e3	0.13541369
166	0xbf9788a0	-1.183857
167	0xbe19c3f6	-0.1501616
168	0xbf6d6b1e	-0.9274157
169	0x3c2d9209	0.0105938995
170	0xbdff5b1f	-0.12468552
171	0xbe229ec3	-0.15880875
172	0x3e1d0800	0.15335083
173	0xbc928e57	-0.017890139
174	0x3e5915ff	0.21199797
175	0x3df750dc	0.120759696
176	0x3e5a4fbc	0.21319479
177	0x3dbd4dfd	0.09243391
178	0x3e871048	0.2637961
179	0xbd66b943	-0.056329023
180	0xbe728a77	-0.23685633
181	0xbdbfc5d7	-0.09363907
182	0xbe70c3a6	-0.23512134
183	0xbe6e1dc6	-0.23253545
184	0xbe2aea8a	-0.16691032
185	0x3dc05b5e	0.09392427
186	0xbcfc2aa7	-0.030782057
187	0xbedf22ed	-0.43581334
188	0xbe8394f5	-0.25699583
189	0x3d0c68be	0.034279577
190	0xbf45e806	-0.77307165
191	0xbf8c37a4	-1.095448
192	0xbe1b7bc4	-0.15183932
193	0x3c826363	0.015916532
194	0xbfb00f80	-1.375473
195	0xbd507f28	-0.050902516
196	0xbf5b3b62	-0.85637486
197	0xbebf5299	-0.37367705
198	0xbe22d0e1	-0.15899993
199	0xbe1e9de4	-0.15489918
200	0xbe47f0e0	-0.1952548
201	0x3e0703f1	0.13185097
202	0x3bb60f8b	0.005556052
203	0xbd84abbf	-0.064780705
204	0x3dca4310	0.098760724
205	0xbe291ad3	-0.16514139
206	0xbe0e8374	-0.13917333
207	0xbe7a42a8	-0.2443949
208	0xbe88ad29	-0.2669461
209	0x3e5b53ea	0.2141873
210	0x3d572176	0.052522145
211	0xbebbe5c3	-0.36698732
212	0xbe61e013	-0.22058134
213	0xbe6414a9	-0.22273506
214	0xbe5dcf90	-0.2166121
215	0xbefdf6f5	-0.49602476
216	0xbf764294	-0.9619534
217	0xbf659b2c	-0.896899
218	0xbf473d28	-0.7782769
219	0xbf7fda35	-0.9994233
220	0xbefab9c0	-0.4896984
221	0x3c90fff7	0.017700179
222	0xbf8a51ca	-1.080621
223	0x3de17048	0.11007744
224	0x3ecf582e	0.40496963
225	0x3ef05ffd	0.46948233
226	0xbdd780cc	-0.10522613
227	0x3bf94c4e	0.007607973
228	0xbdb0c3ae	-0.08631073
229	0xbd9dc8a3	-0.07704284
230	0xbe8ce03a	-0.2751482
231	0x3b9098d2	0.004412749
232	0x3e3288d7	0.17435013
233	0x3ee9cdd8	0.4566486
234	0x3ca08721	0.019595684
235	0xbdbe8196	-0.0930206
236	0xbe3314bf	-0.17488383
237	0x3e1accf3	0.15117244
238	0x3e401e67	0.18761598
239	0xbc937741	-0.0180012
240	0xbee29228	-0.44252133
241	0xbf317d0d	-0.6933144
242	0xbe6e3d6a	-0.23265615
243	0x3d3c0a31	0.045908157
244	0x3da0127f	0.07816028
245	0xbbbeb514	-0.005819926
246	0x3d78159a	0.060567476
247	0x3f01a6de	0.50645244
248	0xbf947dc3	-1.160088
249	0x3d8609be	0.06544827
250	0xbe925ee7	-0.2858803
251	0x3d94c205	0.07263569
252	0x3e369cce	0.17833254
253	0xbe28342b	-0.1642615
254	0xbd3b0713	-0.045661043
255	0xbe02b2de	-0.12763545

fc1.bias f4 [128]
0	0xbc063256	-0.008190712
1	0x3d0e6f04	0.03477384
2	0xbcaa4913	-0.020786798
3	0xbcfa8f0f	-0.030585794
4	0xbd2dd6e0	-0.04244125
5	0x3d552c38	0.052044123
6	0x3dda2ef9	0.106534906
7	0xbd2bd835	-0.041954238
8	0xbe2a9514	-0.16658431
9	0xbb77c80a	-0.0037808442
10	0xbd6cfc65	-0.05785789
11	0x3d3d2ebf	0.04618716
12	0x3d860d98	0.065455616
13	0x3e01de8d	0.12682553
14	0xba340cb9	-0.0006868351
15	0xbe74e0e7	-0.23913918
16	0xbe2e554c	-0.17024726
17	0xbd1189ff	-0.035531994
18	0xbe0abb76	-0.13548073
19	0xbe2d8760	-0.16946173
20	0xbd7842fc	-0.060610756
21	0x3d06bb0d	0.03289323
22	0x3eee7dae	0.4658026
23	0x3df93d16	0.12169854
24	0xbd9252be	-0.07144688
25	0xbe017135	-0.12640841
26	0xbdd46b73	-0.10372057
27	0xbd8dc509	-0.06922347
28	0xbca72dc8	-0.020407572
29	0xbe2211d5	-0.15827115
30	0xbd3af36a	-0.045642294
31	0x3d89091f	0.06691193
32	0xbdf6b1e4	-0.12045649
33	0xbdb9fb13	-0.09081092
34	0x3e6c2ab5	0.23063166
35	0xbd6779fc	-0.056512818
36	0x3e1b576c	0.15170068
37	0xbe0f4092	-0.13989475
38	0xbc994bae	-0.018712845
39	0xbd58fd8f	-0.052976187
40	0xbe48bc9c	-0.19603199
41	0x3e816820	0.25274754
42	0xbd53813c	-0.05163692
43	0x3d3d8605	0.04627039
44	0x3d44570c	0.047934577
45	0xbe855e40	-0.2604847
46	0xbd272bf6	-0.04081341
47	0x3ee80a7e	0.45320505
48	0x3dfa4d29	0.122217484
49	0xbd158c14	-0.036510542
50	0x3e12d90c	0.1434061
51	0x3d0f20a9	0.034943257
52	0xbe4fdcea	-0.20299116
53	0xbd4738f8	-0.048638314
54	0x3e07c47d	0.13258548
55	0xbe487794	-0.19576865
56	0xbbb5eac1	-0.0055516665
57	0x3e81e50d	0.25370064
58	0xbe6396d7	-0.2222551
59	0x3f0b2cd7	0.54365295
60	0x3dbc0ae4	0.09181765
61	0xbd59f888	-0.053215533
62	0x3d9b8c12	0.07595076
63	0xbde4299c	-0.11140749
64	0x3dd8141a	0.10550709
65	0x3e81d866	0.2536041
66	0x3dc1ea86	0.0946856
67	0x3e54729d	0.20746846
68	0xbe08d2e2	-0.13361695
69	0x3df1710c	0.1178914
70	0xbe442f72	-0.19158724
71	0xbdb06cbe	-0.08614491
72	0xbe4bb16a	-0.19891897
73	0xbc90305e	-0.017601188
74	0x3d4eb42b	0.05046479
75	0xbe2d5d81	-0.169302
76	0xbbe2e623	-0.006924407
77	0xbe10ea15	-0.14151795
78	0xbec46c2d	-0.38363782
79	0x3d166b65	0.036723513
80	0xbd72490c	-0.059151694
81	0xbda42e6c	-0.08016667
82	0xbc753746	-0.0149667915
83	0xbdb96c20	-0.09053826
84	0x3e790de7	0.2432171
85	0xbd093df6	-0.033506356
86	0xbd83034b	-0.063971125
87	0xbdba9bac	-0.09111723
88	0x3da919d2	0.08256878
89	0xbcb73b5d	-0.022367174
90	0xbe4fa5a4	-0.2027803
91	0xbd601698	-0.054709047
92	0xbd037315	-0.032092173
93	0xbc8aa123	-0.01692254
94	0xbd75123c	-0.059831843
95	0xbd97edb3	-0.074183844
96	0xbe01acf8	-0.12663639
97	0xbe2a5442	-0.16633704
98	0x3f37ce5d	0.7179926
99	0x3da2e782	0.07954313
100	0x3ec7bd9f	0.39011857
101	0xbd576f56	-0.052596413
102	0x3de40089	0.111329146
103	0xbe2f8b80	-0.17143059
104	0x3d8e911a	0.0696127
105	0x3da76bed	0.08174882
106	0x3c678f5a	0.014133299
107	0x3e4e5972	0.20151308
108	0x3d1c64e3	0.03818215
109	0xbdc30c94	-0.095238835
110	0x3d0134e7	0.031544592
111	0x3e88374b	0.26604685
112	0xbe104617	-0.14089237
113	0x3c87d0c6	0.016579043
114	0x3ccc5015	0.02494053
115	0x3d404d49	0.046948705
116	0xbe291a22	-0.16513875
117	0xbdc2a840	-0.095047474
118	0x3e2d1583	0.16902737
119	0xbd1b500e	-0.037918143
120	0xbd99cdb0	-0.07509935
121	0xbd1dfdbd	-0.03857206
122	0x3c837a3e	0.0160495
123	0xbdadc072	-0.08483972
124	0x3d65f418	0.05614099
125	0x3c8e1186	0.01734234
126	0xbe1e4c8f	-0.15458892
127	0xbe13fd7b	-0.14452164

fc2.weight f4 [128, 128]
0	0xbe9fdc22	-0.31222636
1	0xbecad530	-0.39615774
2	0x3e1bf080	0.15228462
3	0x3d71e1be	0.059053175
4	0x3e8eeca9	0.27914932
5	0xbe2cc584	-0.16872221
6	0xbd85fdfe	-0.06542586
7	0x3ece0d65	0.40244594
8	0xbe1ef6b8	-0.15523803
9	0xbeb96e67	-0.36217043
10	0xbde02b69	-0.1094578
11	0xbeeb00f6	-0.4589917
12	0x3e4782d6	0.19483504
13	0x3e58d632	0.21175459
14	0xbef32ae3	-0.47493657
15	0xbf1cfed7	-0.61326355
16	0xbe3aa01a	-0.18225136
17	0x3d83515d	0.06412003
18	0xbe7429d1	-0.23844077
19	0xbd26191c	-0.04055129
20	0xbf275ea3	-0.6537878
21	0xbe2a4f08	-0.1663171
22	0x3e99db24	0.30050004
23	0x3efcd9f6	0.4938504
24	0x3daeda38	0.08537716
25	0xbf0742de	-0.52836406
26	0x3e1f1561	0.15535499
27	0xbeb864de	-0.36014456
28	0x3b9eb661	0.0048435186
29	0xbe644fa9	-0.22296013
30	0xbdbba71d	-0.09162734
31	0x3db22d1f	0.087000124
32	0x3dbe0961	0.09279133
33	0x3f073e70	0.5282965
34	0x3d56b74b	0.052420896
35	0x3ede4194	0.43409407
36	0x3e85f13c	0.2616061
37	0xbe8ea897	-0.27863
38	0x3eb20c93	0.34775218
39	0xbf21bb07	-0.63176006
40	0xbf35ca3b	-0.71011704
41	0x3e177eea	0.14794508
42	0x3d81d9b6	0.06340353
43	0x3e8ae4d1	0.27127698
44	0x3d0d32cf	0.034472283
45	0xbef55195	-0.47913805
46	0xbc974e76	-0.01847003
47	0xbcbb88cd	-0.02289238
48	0x3e821544	0.2540685
49	0x3c951e16	0.018202823
50	0x3e474d61	0.19463111
51	0x3ec0343e	0.37539858
52	0x3e0df2d2	0.1386216
53	0x3f07f413	0.531068
54	0xbf436a78	-0.76334333
55	0xbeb7dfaf	-0.35912845
56	0xbf02b4bc	-0.5105703
57	0xbd4e8c29	-0.050426636
58	0x3e80c119	0.25147322
59	0xbf05941a	-0.5217911
60	0x3db0587f	0.08610629
61	0xbebe2030	-0.37133932
62	0x3d1c0596	0.038091265
63	0xbf563387	-0.83672374
64	0x3e3f7333	0.18696289
65	0x3ea6bcf6	0.3256604
66	0x3e797968	0.24362719
67	0x3e0976eb	0.1342427
68	0xbd5c964a	-0.053854264
69	0x3d406e54	0.046980217
70	0xbebec0e7	-0.37256548
71	0x3d061137	0.03273126
72	0xbf2d5b9d	-0.67717916
73	0x3ec7449d	0.38919535
74	0xbf237de4	-0.6386397
75	0xbf1ca071	-0.61182314
76	0xbf0fcc68	-0.56171274
77	0x3e6597a1	0.22421123
78	0xbeac1b30	-0.33614492
79	0x3e589b55	0.21153004
80	0xbeeb1f12	-0.45922142
81	0xbf26ffe4	-0.6523421
82	0xbdee0da4	-0.116236955
83	0xbee560f3	-0.4480053
84	0x3e3a8743	0.18215661
85	0xbea3a662	-0.31962878
86	0xbc38bb91	-0.011275188
87	0xbe382236	-0.179818
88	0xbee712f0	-0.45131636
89	0xbd9bd671	-0.07609261
90	0xbf0e9521	-0.556963
91	0x3e0bf807	0.13668834
92	0xbec98a51	-0.3936334
93	0x3cad8da6	0.021185707
94	0x3e19d9b4	0.15024453
95	0xbf03aaa3	-0.51432246
96	0x3ecd215d	0.40064517
97	0xbeab3bac	-0.33443964
98	0xbeb34ab7	-0.3501794
99	0xbed2aadd	-0.41145983
100	0xbeca0598	-0.39457393
101	0xbf1479e1	-0.5799847
102	0x3db2d308	0.08731657
103	0x3d4becf0	0.049786508
104	0x3e939f4d	0.28832474
105	0x3df286a7	0.11842089
106	0x3de4fedb	0.11181422
107	0x3d453ebe	0.04815554
108	0x3d62c40d	0.05536275
109	0xbee2ea86	-0.44319552
110	0xbd23423b	-0.039858084
111	0x3dd136da	0.1021554
112	0x3dcddf55	0.10052363
113	0xbdbb2a8d	-0.09138975
114	0xbeced59e	-0.40397352
115	0xbe25d4d5	-0.1619447
116	0x3e25cdd5	0.161918
117	0x3f0bb2d7	0.5456976
118	0x3e600d90	0.21880174
119	0x3f8beacc	1.0931029
120	0xbf5ada4f	-0.8548936
121	0xbed899a2	-0.42304713
122	0x3eaf0370	0.3418231
123	0x3eb2209c	0.34790504
124	0xbed61b23	-0.4181758
125	0x3ed6ac27	0.41928217
126	0xbf021cd2	-0.50825226
127	0xbe6a631f	-0.22889374
128	0xbdcb5d38	-0.099298894
129	0xbd3c6237	-0.045992102
130	0xbdc5418a	-0.09631641
131	0x3e82e2d6	0.25563687
132	0xbea51ee5	-0.32250133
133	0x3e7db476	0.24775872
134	0xbbfe160d	-0.0077540935
135	0x3ed9099b	0.4239014
136	0x3dcba1e6	0.09942989
137	0x3ef62d47	0.4808142
138	0x3d7c808d	0.061646033
139	0xbe29e2a6	-0.16590366
140	0x3da362e9	0.0797785
141	0x3e95f57d	0.29288855
142	0x3df4163e	0.11918305
143	0xbedd7b4a	-0.43258125
144	0x3c7b4353	0.015335876
145	0x3d2aa167	0.04165783
146	0x3eeba025	0.46020618
147	0x3d4d85d2	0.05017645
148	0x3db9b1c1	0.09067107
149	0xbee8a175	-0.45435682
150	0xbe3ebf7c	-0.18627733
151	0xbe75fd34	-0.2402237
152	0xbd442b76	-0.04789301
153	0x3d1e9c79	0.038723443
154	0xbdc4012a	-0.095705345
155	0xbe870b90	-0.2637601
156	0x3edded6b	0.43345198
157	0x3ef3317a	0.47498685
158	0xbf08dd3d	-0.5346258
159	0xbdbfb076	-0.09359829
160	0x3f2bcc1d	0.6710833
161	0x3eb77e52	0.35838562
162	0x3e22811b	0.15869562
163	0xbe222fa7	-0.1583849
164	0x3e99812d	0.29981366
165	0x3e4ce84b	0.20010488
166	0xbee9fc04	-0.45700085
167	0xbf0a32c4	-0.5398371
168	0x3eccc52d	0.39994183
169	0x3ed93a48	0.42427278
170	0xbcb28623	-0.021792477
171	0xbdb9b0b5	-0.09066907
172	0x3e73c407	0.23805247
173	0xbd0fe3eb	-0.03512947
174	0x3e78ecea	0.24309126
175	0x3ea85972	0.3288074
176	0x3e05b0e2	0.13055757
177	0x3ece653b	0.40311608
178	0xbc73a6bb	-0.014871295
179	0xbb9d933e	-0.0048088124
180	0xbe5a6bd4	-0.21330196
181	0xbecc65b8	-0.39921355
182	0x3e304d6d	0.17217036
183	0xbf454c69	-0.7706972
184	0xbd5238f3	-0.051323842
185	0x3eedd6b2	0.46452862
186	0xbec02fe0	-0.37536526
187	0xbec74dcf	-0.3892655
188	0x3f1b5f67	0.6069245
189	0xbeac7a61	-0.33687118
190	0x3e747334	0.23872072
191	0xbe834715	-0.2564017
192	0x3e4a21a0	0.1973939
193	0x3d610b3d	0.05494236
194	0x3e54d04f	0.20782588
195	0x3d1e2ba9	0.038615856
196	0x3da7004b	0.08154353
197	0x3dfa0ee3	0.12209871
198	0x3f105bc2	0.5639001
199	0xbef84ccd	-0.48496094
200	0x3e8d270d	0.27568856
201	0xbe7be9cb	-0.24600904
202	0xbe1e77c8	-0.1547538
203	0x3f30d587	0.69075817
204	0x3f24d40d	0.64386064
205	0xbe6a0bc3	-0.22856049
206	0x3da2b086	0.079438254
207	0x3e51dc1e	0.20494124
208	0x3f128117	0.57228225
209	0x3e93ebef	0.2889094
210	0x3f26e81b	0.65197915
211	0x3d24084f	0.040046986
212	0xbe6aae8e	-0.2291815
213	0xbe7e3527	-0.24824964
214	0x3d947b4b	0.07250079
215	0xbf081851	-0.53162104
216	0xbf161ca7	-0.5863747
217	0x3ed45074	0.4146763
218	0x3cf6f6ee	0.030147042
219	0x3ec0ca34	0.3765427
220	0x3d0ea2a0	0.03482306
221	0xbe8d2655	-0.27568308
222	0xbe532be4	-0.20622212
223	0x3eb5878f	0.35454985
224	0xbea01299	-0.3126419
225	0xbd896237	-0.06708186
226	0x3de1316f	0.10995757
227	0xbe018161	-0.1264701
228	0x3f0229c6	0.5084499
229	0x3f259890	0.64685917
230	0xbe0854c4	-0.13313586
231	0xbeef1554	-0.4669596
232	0x3ed6edaa	0.41978198
233	0xbe398c0a	-0.18119827
234	0x3e694fff	0.22784422
235	0x3f12b8fb	0.5731351
236	0x3df366a5	0.11884812
237	0x3c898ac1	0.016789796
238	0x3e89d2a0	0.26918507
239	0xbd99c885	-0.07508949
240	0x3f5840ee	0.84474075
241	0xbe9b408b	-0.3032268
242	0x3e4ca717	0.19985615
243	0x3e9333a3	0.28750333
244	0xbebd955e	-0.3702802
245	0x3dcce944	0.100054294
246	0x3e8b9ac3	0.2726651
247	0xbf34efca	-0.7067839
248	0xbdf52b80	-0.119711876
249	0x3ef056f3	0.46941337
250	0x3da71e77	0.081601076
251	0xbef951b8	-0.4869516
252	0x3ee9054d	0.45511857
253	0x3e589d03	0.21153645
254	0x3f4fbaf8	0.81144667
255	0x3a8bd164	0.0010667262

fc2.bias f4 [128]
0	0xbbc451be	-0.0059911897
1	0xbdab4b62	-0.083639875
2	0xbe206a38	-0.15665519
3	0xbec2a88c	-0.38019216
4	0xbcc9fff8	-0.024658188
5	0xbe5c8586	-0.2153531
6	0xbcb2e17a	-0.021836031
7	0xbe4d9497	-0.20076214
8	0xbe609f37	-0.21935736
9	0x3b9ccd73	0.0047852336
10	0xbcd1b545	-0.025599131
11	0x3dd53809	0.104110785
12	0xbe5c4620	-0.21511126
13	0xbec63990	-0.38715792
14	0x3ddffab1	0.109364875
15	0x3ddab70e	0.10679446
16	0x3e978917	0.2959678
17	0x3c2ac49c	0.010422852
18	0x3e1a91b9	0.15094651
19	0xbcef75b2	-0.029230926
20	0x3dbf4e50	0.09341109
21	0xbd93437f	-0.07190608
22	0xbcce948d	-0.025217319
23	0x3d3029f7	0.04300877
24	0xbe6ba27e	-0.23011205
25	0xbc735b0d	-0.014853251
26	0x3d03cd2a	0.03217808
27	0xbc958479	-0.018251644
28	0x3dce030d	0.10059176
29	0x3df2beb2	0.118527785
30	0xbe5fd15b	-0.21857207
31	0xbe183260	-0.14862967
32	0x3c32308a	0.01087583
33	0xbd4e4019	-0.050354097
34	0xbd51b5fb	-0.05119894
35	0xbdea1ead	-0.11431632
36	0xbe78b10a	-0.24286285
37	0x3ea670ed	0.3250803
38	0xbe35d908	-0.17758572
39	0xbeb2ad06	-0.3489763
40	0x3e7eef48	0.24895966
41	0x3e4e7cad	0.20164748
42	0xbe649f75	-0.22326453
43	0xbeb95f3e	-0.36205477
44	0xbe8de0ba	-0.27710515
45	0x3e448bbf	0.19193934
46	0x3daa8b20	0.08327317
47	0x3ce820ce	0.028335955
48	0xbe466bf3	-0.19377117
49	0x3c362ad7	0.011118612
50	0xbe0ccb03	-0.13749318
51	0x3c2c70f7	0.01052498
52	0xbe627b4d	-0.22117348
53	0xbd745598	-0.05965194
54	0x3dd3966d	0.10331426
55	0xbe660cec	-0.22465867
56	0x3ec1d8ea	0.37860805
57	0x3dea2f87	0.11434846
58	0xbd9643ec	-0.07337174
59	0xbe9d02bb	-0.30666146
60	0xbc1999f3	-0.009375083
61	0x3cfcbd02	0.030851845
62	0xbd90477a	-0.07044883
63	0x3ce5743c	0.028009526
64	0xbe6c2f3e	-0.23064896
65	0x3da40e4f	0.08010542
66	0x3e891058	0.26770282
67	0xbe11f1fb	-0.14252464
68	0x3db0ea66	0.08638458
69	0xbe8dd93f	-0.27704808
70	0x3e933bb2	0.2875648
71	0x3cc40802	0.0239296
72	0x3eb012a1	0.34389213
73	0x3dc959d4	0.098315865
74	0x3e604e73	0.21904926
75	0x3ea546db	0.3228062
76	0x3cdbf01b	0.02684789
77	0xbc6fc3a8	-0.01463405
78	0xbe294a9b	-0.16532366
79	0xbe15bfd2	-0.14623955
80	0x3e05a660	0.13051748
81	0x3e9622ff	0.29323575
82	0x3e8fd6d9	0.28093603
83	0xbd026839	-0.031837676
84	0xbce27943	-0.027645713
85	0xbdb9eb9d	-0.09078143
86	0xbe6285f2	-0.22121409
87	0xbde0ef5c	-0.10983154
88	0xbe82a231	-0.25514367
89	0xbee01cf8	-0.437721
90	0x3e65235f	0.22376774
91	0x3d900d9a	0.07033844
92	0xbd7c0289	-0.061525855
93	0x3ba5cd5d	0.0050598816
94	0xbe4660ab	-0.19372813
95	0x3dbe2d45	0.09285978
96	0xbe9f6b47	-0.31136534
97	0xbd2ab703	-0.04167844
98	0x3d871ca3	0.06597259
99	0x3d57d704	0.05269529
100	0x3d7d91ed	0.061906744
101	0x3e86da84	0.2633859
102	0xbd2789b1	-0.040902797
103	0xbe1a472a	-0.1506621
104	0x3d84e859	0.06489629
105	0xbea07e5f	-0.31346413
106	0xbe4bb890	-0.19894624
107	0xbe27c591	-0.1638396
108	0xbdd0106d	-0.10159383
109	0x3db2e18b	0.08734425
110	0x3ce01ed2	0.027358446
111	0x3d5953c4	0.0530584
112	0x3d5c6547	0.053807523
113	0xbe19eca6	-0.1503168
114	0x3d4cc4b3	0.049992274
115	0x3e00066a	0.12502447
116	0xbe3331fe	-0.1749954
117	0xbe3010a8	-0.17193854
118	0x3c856bed	0.016286815
119	0xbdd41f78	-0.10357565
120	0x3e13d5a4	0.14436966
121	0x3e691048	0.22760117
122	0xbc465e19	-0.012107396
123	0xbe86b397	-0.2630889
124	0x3e98b28c	0.2982372
125	0xbe79babf	-0.24387644
126	0x3d89175c	0.066939086
127	0x3e4c750e	0.19966528

out.weight f4 [5, 128]
0	0x3f7c5c2b	0.9857814
1	0xbed7387d	-0.42035285
2	0xbed03d90	-0.40671968
3	0x3eb929ce	0.36164707
4	0xbf84232e	-1.0323236
5	0xbf14b9a2	-0.58095753
6	0xbd4110ef	-0.04713529
7	0x3f34f6bd	0.7068899
8	0x3f83ee12	1.0307028
9	0x3f2c5482	0.6731645
10	0x3f65738b	0.8962943
11	0xbf36f018	-0.71460104
12	0x3ed928f0	0.42414045
13	0xbe5a3573	-0.21309452
14	0xbf44a9dd	-0.7682169
15	0xbf53f97e	-0.8280257
16	0xbf3578ed	-0.70887643
17	0x3f574731	0.84093004
18	0x3f63eb6e	0.8903111
19	0x3f365763	0.7122709
20	0x3d20484c	0.039131448
21	0x3e3e4a6c	0.18583077
22	0xbe9e987b	-0.30975708
23	0x3f38e98d	0.7223137
24	0x3f5933a5	0.8484443
25	0x3f2d953b	0.6780583
26	0xbf0f3951	-0.5594683
27	0xbeea720f	-0.45790145
28	0x3f7b0b24	0.98063874
29	0x3eb5fe1d	0.35545436
30	0x3ed0aec2	0.4075833
31	0x3f2a2d81	0.66475683
32	0x3f42fc61	0.7616635
33	0x3f33ed2d	0.70283777
34	0x3f2d242e	0.6763333
35	0x3f045c15	0.51703006
36	0x3f282c8d	0.6569298
37	0xbf16ab6d	-0.58855325
38	0x3ccb919d	0.024849707
39	0x3f3157f2	0.6927482
40	0x3e397048	0.18109238
41	0xbef615ca	-0.480635
42	0x3e989faf	0.2980933
43	0x3f24486f	0.64173025
44	0x3f13ea5c	0.5777948
45	0x3e3b1649	0.1827022
46	0xbf01468d	-0.50498277
47	0x3de754d2	0.11295475
48	0x3ef5f05b	0.4803494
49	0x3f5caa2d	0.8619717
50	0x3f3ff2dc	0.7497995
51	0xbf07f2de	-0.5310496
52	0xbf469603	-0.7757265
53	0x3f536612	0.8257762
54	0xbe8f88b2	-0.28033978
55	0x3f217c78	0.6308055
56	0x3f4f4db2	0.8097793
57	0xbebf7fcf	-0.37402198
58	0x3f52d2fb	0.8235318
59	0x3f18ee9b	0.59739083
60	0xbf21d2f6	-0.63212526
61	0x3f6db330	0.92851543
62	0x3f6619b9	0.89883
63	0x3cd572e6	0.026055764
64	0x3f39cab7	0.72574943
65	0xbd038e01	-0.032117847
66	0xbf0d4850	-0.55188465
67	0xbf2f5b2e	-0.68498504
68	0x3f5f17e6	0.8714584
69	0x3f05d232	0.5227386
70	0x3f25a6ce	0.6470765
71	0x3f477962	0.7791959
72	0x3f8d350a	1.1031811
73	0x3f82b55d	1.0211598
74	0x3f29e5f2	0.66366494
75	0x3e9b58f1	0.30341294
76	0xbdd723ee	-0.105049
77	0x3f75c5f2	0.96005166
78	0x3edfbbae	0.43697876
79	0x3f5960f4	0.84913564
80	0xbeae7e2c	-0.34080637
81	0x3f5a7bcc	0.8534515
82	0x3f70386b	0.93836087
83	0x3f3d41fa	0.739288
84	0x3f1582d6	0.58402765
85	0x3f236b66	0.6383575
86	0x3ef89846	0.48553675
87	0x3ef7d281	0.4840279
88	0x3f110b78	0.56658125
89	0x3ed6da4c	0.41963422
90	0xbe02ab47	-0.1276065
91	0x3f49d908	0.7884679
92	0x3f810f91	1.0082875
93	0xbf491bfb	-0.7855832
94	0x3ea7efed	0.32800236
95	0xbeeccfeb	-0.4625238
96	0xbe472ad0	-0.19449925
97	0x3f10f2db	0.5662057
98	0xbf324ee1	-0.6965161
99	0x3f37da1f	0.718172
100	0x3f888166	1.0664489
101	0x3f2d8e74	0.6779549
102	0xbeec1dd2	-0.461165
103	0xbf0c4853	-0.5479786
104	0xbf6dbdff	-0.92868036
105	0xbf2e2677	-0.6802744
106	0xbed62fbc	-0.41833293
107	0x3f20584b	0.62634724
108	0xbeaa5f5a	-0.33275872
109	0xbf34d45f	-0.7063655
110	0xbe98631b	-0.2976311
111	0x3f18bfc0	0.5966759
112	0x3f53b691	0.8270045
113	0xbf46333a	-0.77421916
114	0xbdbf7279	-0.09348006
115	0xbf0e276e	-0.55528915
116	0x3f494b16	0.786302
117	0xbf3c5647	-0.7356915
118	0xbe25cf04	-0.16192251
119	0xbf09150a	-0.5354773
120	0x3d557399	0.052112196
121	0x3e73fcdf	0.23826931
122	0xbeaf31bc	-0.34217632
123	0x3f1aab6e	0.6041783
124	0x3f7a5480	0.97785187
125	0x3f24ae01	0.6432801
126	0x3ef9d9cc	0.48798978
127	0x3f9a39fd	1.2048947
128	0x3ede18eb	0.43378386
129	0xbf0c7768	-0.548697
130	0xbe529880	-0.20565987
131	0x3d91daad	0.07121787
132	0xbf286824	-0.65783906
133	0xbe7f0919	-0.24905814
134	0xbf079156	-0.5295614
135	0x3ea7dc09	0.3278506
136	0x3e702df9	0.23455037
137	0x3e9c2b78	0.30501914
138	0x3e84880e	0.2588505
139	0xbe3f37b5	-0.18673594
140	0x3e5a7f28	0.21337569
141	0xbd8f0eba	-0.06985231
142	0xbef06c77	-0.46957752
143	0xbf102685	-0.56308776
144	0xbebfb904	-0.37445843
145	0x3ebd2f92	0.36950356
146	0x3e990daa	0.29893237
147	0x3e1e9800	0.15487671
148	0xbecb6705	-0.39727035
149	0x3ec76176	0.38941544
150	0xbe90f7bf	-0.28314015
151	0x3e4be81e	0.19912764
152	0x3e62d32b	0.22150867
153	0x3ec45001	0.38342288
154	0xbeee7f64	-0.46581566
155	0xbf092fb9	-0.53588444
156	0x3ee69510	0.450356
157	0x3ea13ae2	0.31490237
158	0x3e9bfb4a	0.30465156
159	0x3e662592	0.2247527
160	0x3efc4e7f	0.49278638
161	0x3e926ffd	0.28601065
162	0x3e0e9774	0.13924962
163	0x3eaa2eff	0.3323898
164	0x3e3e7968	0.18601
165	0xbe9c0449	-0.3047202
166	0x3e7ac556	0.2448934
167	0x3f5ad902	0.8548738
168	0xbeca1cda	-0.39475137
169	0xbeaf86f3	-0.34282646
170	0x3e57a436	0.21058735
171	0x3e1bb3ca	0.15205303
172	0x3ea0d360	0.31411266
173	0xbe156b38	-0.14591682
174	0xbea14e3f	-0.3150501
175	0xbe35fa2e	-0.17771217
176	0x3ea60c21	0.3243113
177	0x3e160731	0.14651181
178	0x3e9960db	0.29956707
179	0xbec42d1e	-0.38315672
180	0xbec4e8de	-0.38458914
181	0x3e67c230	0.2263267
182	0xbefe7919	-0.49701765
183	0x3e6e46d4	0.23269206
184	0x3dc55eae	0.09637199
185	0xbf13d96a	-0.5775362
186	0x3e0c7354	0.13715869
187	0x3e9f86e3	0.31157598
188	0xbed41467	-0.41421816
189	0x3d457cd1	0.048214737
190	0x3eb70246	0.35743922
191	0xbee71363	-0.45131978
192	0x3ea58074	0.32324564
193	0xbe6f654d	-0.23378487
194	0xbe84602f	-0.25854632
195	0xbe838685	-0.25688568
196	0x3e6f3d58	0.23363245
197	0x3df02bd9	0.11727113
198	0x3e97a059	0.29614523
199	0x3f28e08b	0.65967625
200	0x3df06b29	0.11739189
201	0x3f2c9c41	0.67425925
202	0x3e4dedc8	0.20110238
203	0xbe92291a	-0.28546983
204	0xbef7e546	-0.4841711
205	0x3e8207a8	0.25396466
206	0xbc797587	-0.015225775
207	0x3e205a58	0.15659463
208	0xbf07e9c9	-0.530911
209	0x3ec9ea7b	0.39436707
210	0x3eacaf1f	0.33727357
211	0x3ed44136	0.41456002
212	0x3ec6b0a2	0.38806635
213	0xbc0a35cd	-0.008435679
214	0x3ec21c07	0.37912008
215	0x3e12da3a	0.1434106
216	0xbddf3b09	-0.10899932
217	0x3d980d3c	0.07424399
218	0xbebde1ac	-0.37086236
219	0x3dc0d480	0.09415531
220	0x3d69d028	0.05708328
221	0xbf475c5c	-0.77875304
222	0x3e90b15d	0.28260317
223	0xbee630de	-0.44959158
224	0xbe43dabc	-0.1912641
225	0x3e8bde0c	0.27317846
226	0xbf08d31f	-0.53447145
227	0x3ed3f8ba	0.414007
228	0xbe30eb9a	-0.17277375
229	0x3dea5bce	0.114432916
230	0xbecec3f2	-0.4038387
231	0xbed48a69	-0.4151185
232	0xbedaa39b	-0.42702946
233	0xbebfc342	-0.37453657
234	0xbec8c0e5	-0.39209667
235	0x3e734ee2	0.2376056
236	0xbed1e28f	-0.40993163
237	0xbf09b4ec	-0.5379169
238	0xbe53f839	-0.20700158
239	0x3eca0a63	0.3946105
240	0x3d10c5b5	0.035344798
241	0xbe586e74	-0.21135885
242	0xbf10677b	-0.564079
243	0xbecd4876	-0.40094346
244	0x3e9efb82	0.3105126
245	0xbe99e3a7	-0.30056497
246	0xbed291b3	-0.41126785
247	0xbd92b680	-0.07163715
248	0xbd7dad4c	-0.061932847
249	0xbf00c938	-0.50307035
250	0xbe797b8b	-0.24363534
251	0x3e279b7a	0.16367903
252	0x3ec2e582	0.38065726
253	0xbd906c51	-0.0705191
254	0x3ad68aac	0.0016368232
255	0x3cf1454e	0.029451992

out.bias f4 [5]
0	0xbf71cd9e	-0.9445437
1	0x3fac7d8a	1.3475811
2	0x3f34845b	0.7051446
3	0x3f641e53	0.8910877
4	0xbfb5c591	-1.4200917

exp_avg_sq f4 [128, 28]
0	0x3e788f98	0.24273527
1	0x3e22e954	0.1590932
2	0x3d9f33c5	0.07773546
3	0x3da71dbb	0.081599675
4	0x3cd4d00a	0.025978107
5	0x3dc0b0d4	0.09408727
6	0x3ff8e866	1.9445922
7	0x400c6ffb	2.1943347
8	0x3f95acef	1.16934
9	0x3f2f99f5	0.68594295
10	0x3ef31dae	0.4748358
11	0x3ed698e9	0.41913536
12	0x3ed34827	0.41265985
13	0x3eef0cd5	0.46689478
14	0x3f2c8705	0.67393523
15	0x3f9eb32e	1.2398431
16	0x406ee769	3.7328742
17	0x40fd12f3	7.908563
18	0x3d9cd664	0.07658079
19	0x3c4ffe09	0.012694844
20	0x3d88548e	0.066567525
21	0x3d4716cc	0.048605725
22	0x3d577bfc	0.052608475
23	0x3e7abe1b	0.24486582
24	0x3f0e8d4b	0.55684346
25	0x41b15d85	22.170664
26	0x3c542845	0.012949054
27	0x436b562b	235.3366
28	0x4746346c	50740.42
29	0x46ca2310	25873.531
30	0x475e6c2d	56940.176
31	0x47825bfe	66743.984
32	0x47a06d1a	82138.2
33	0x48b916c9	379062.28
34	0x4a8a2c86	4.527683e+06
35	0x4a58c83e	3.5517595e+06
36	0x497d67dc	1.03794975e+06
37	0x4901f734	532339.25
38	0x48b05b60	361179.0
39	0x4898372b	311737.34
40	0x4a03cdeb	2.1594828e+06
41	0x4a0faad4	2.353845e+06
42	0x49750a3f	1.00368394e+06
43	0x4906778c	550776.75
44	0x48bbdabf	384725.97
45	0x48a803ad	344093.4
46	0x48a12e74	330099.62
47	0x48c638a2	405957.06
48	0x491493b9	608571.56
49	0x498f1577	1.1721429e+06
50	0x49adb82b	1.4231094e+06
51	0x4746ab35	50859.207
52	0x4a4f816c	3.399771e+06
53	0x4a9bacb3	5.1011455e+06
54	0x462fcbf0	11250.984
55	0x4cac0b1e	9.02003e+07
56	0x40a731d8	5.2248344
57	0x414e93f4	12.911121
58	0x42de4dd6	111.15202
59	0x4310d530	144.83276
60	0x432a200b	170.12517
61	0x430a9403	138.57817
62	0x422f2e99	43.795506
63	0x420b5967	34.837307
64	0x42129dd5	36.654133
65	0x42f64758	123.13934
66	0x4318bdce	152.74142
67	0x42e04064	112.12576
68	0x43391c06	185.10947
69	0x43ca8234	405.0172
70	0x43990cb4	306.09924
71	0x41b70dae	22.88168
72	0x4158e7d6	13.556601
73	0x41618aa9	14.096353
74	0x41a3b79c	20.464653
75	0x41f77853	30.933752
76	0x421b48da	38.821144
77	0x41c9c5b2	25.22153
78	0x41aa2836	21.269634
79	0x409e7baa	4.9525957
80	0x42274e79	41.826633
81	0x4478db32	995.4249
82	0x3fc09056	1.5044048
83	0x467fed7b	16379.37
84	0x431427ec	148.15594
85	0x433e8b06	190.54306
86	0x43962c84	300.34778
87	0x44283574	672.8352
88	0x44baf8c4	1495.7739
89	0x45fa70fd	8014.1235
90	0x475b1874	56088.453
91	0x4698082d	19460.088
92	0x4609c752	8817.83
93	0x45d2975f	6738.9214
94	0x45a2a98d	5205.194
95	0x45700ae8	3840.6816
96	0x475ab01c	55984.11
97	0x467e7ea3	16287.659
98	0x45ec09ae	7553.21
99	0x459c0e16	4993.7607
100	0x457bc63b	4028.3894
101	0x4588607a	4364.0596
102	0x458d7997	4527.1987
103	0x45b65ddc	5835.7324
104	0x460fc822	9202.033
105	0x46950cf5	19078.479
106	0x4370bb31	240.73122
107	0x4306e6c7	134.90147
108	0x472ca087	44192.527
109	0x47688377	59523.465
110	0x42d314ca	105.5406
111	0x4a1412d2	2.4260365e+06
112	0x49808513	1.0528344e+06
113	0x476689c8	59017.78
114	0x46aefd2b	22398.584
115	0x46c6d937	25452.607
116	0x46eec4cf	30562.404
117	0x47635cb4	58204.703
118	0x487bb445	257745.08
119	0x49f58e21	2.0115881e+06
120	0x4a24334a	2.6902585e+06
121	0x4960d450	920901.0
122	0x48a9c5b7	347693.72
123	0x48548472	217617.78
124	0x488d500a	289408.3
125	0x4851b6d7	214747.36
126	0x49d14e9b	1.7146434e+06
127	0x4972d4d8	994637.5
128	0x48cfd7c4	425662.12
129	0x48851cc6	272614.2
130	0x4855cfc2	218943.03
131	0x48509ce3	213619.55
132	0x486fc5ab	245526.67
133	0x48a780ca	343046.3
134	0x48ec6428	484129.25
135	0x498051ab	1.0511894e+06
136	0x49b5a9b2	1.4881822e+06
137	0x4a213ed1	2.6418442e+06
138	0x4646c189	12720.384
139	0x4aef6f58	7.845804e+06
140	0x438ec960	285.57324
141	0x430c19ac	140.10028
142	0x42fe698b	127.20614
143	0x44fdad0a	2029.4075
144	0x44d98009	1740.0011
145	0x44bd00bd	1512.0231
146	0x457e0da4	4064.8525
147	0x45ac7f7e	5519.9365
148	0x45415663	3093.3992
149	0x451d31c9	2515.1116
150	0x4561c56e	3612.3394
151	0x454aabe4	3242.7432
152	0x451bcea7	2492.9158
153	0x4535cd02	2908.813
154	0x4523a632	2618.3872
155	0x450bfecc	2239.9248
156	0x454f1a5e	3313.648
157	0x459710b9	4834.0903
158	0x44dbf412	1759.6272
159	0x45707962	3847.5864
160	0x45daaaad	6997.3345
161	0x4644c7ed	12593.981
162	0x45e61b97	7363.4487
163	0x438f31c9	286.38895
164	0x45266e35	2662.888
165	0x47849506	67882.05
166	0x429c9b78	78.30365
167	0x478a48b8	70801.44
168	0x3f54df06	0.83152807
169	0x3f7134a2	0.94220936
170	0x3fb9b72f	1.4509028
171	0x40740151	3.8125803
172	0x410f432d	8.9539
173	0x408cfe3d	4.406035
174	0x425065eb	52.09953
175	0x4269a013	58.406322
176	0x41f9f777	31.245832
177	0x41917655	18.18278
178	0x41697774	14.591663
179	0x415d3d1d	13.82742
180	0x4140aa0e	12.041517
181	0x414efaa7	12.936194
182	0x4190b2c5	18.08729
183	0x4201b78d	32.42925
184	0x42bf2717	95.57635
185	0x43505030	208.31323
186	0x407a33ae	3.9094043
187	0x3f0bd3ec	0.5462024
188	0x3fea22ee	1.829191
189	0x3fa6f90b	1.3044752
190	0x3f7dd76b	0.99156827
191	0x3f6459f5	0.89199764
192	0x4180d91f	16.106016
193	0x4417fca5	607.9476
194	0x3ebd51b2	0.3697639
195	0x45c6306e	6342.0537
196	0x45280f86	2688.9702
197	0x460f3a68	9166.602
198	0x479a68bd	79057.48
199	0x47a88d6c	86298.84
200	0x478f6b3e	73430.484
201	0x4710fb4a	37115.29
202	0x46a04819	20516.049
203	0x46854c68	17062.203
204	0x46705d28	15383.289
205	0x4683481c	16804.055
206	0x46a661c6	21296.887
207	0x4708ba41	35002.254
208	0x47a77afc	85749.97
209	0x486b1b4b	240749.17
210	0x47b8e0e1	94657.76
211	0x45e34c7f	7273.562
212	0x4585dc2d	4283.522
213	0x45a6b29e	5334.327
214	0x44853b50	1065.8535
215	0x445afc62	875.9435
216	0x445891ad	866.2762
217	0x448c83df	1124.121
218	0x44b4d6e0	1446.7148
219	0x452fd861	2813.5237
220	0x463f109f	12228.155
221	0x49255d36	677331.4
222	0x4443db08	783.42236
223	0x4b20cc46	1.0538054e+07
224	0x4892cd7e	300651.94
225	0x46ee9937	30540.607
226	0x46e0140a	28682.02
227	0x46e91fea	29839.957
228	0x4700df7d	32991.49
229	0x47f00fd2	122911.64
230	0x4984ff58	1.089515e+06
231	0x49950c35	1.2209986e+06
232	0x494fb356	850741.4
233	0x489b9bc7	318686.22
234	0x4823d80c	167776.19
235	0x47fb9281	128805.01
236	0x49341bc2	737724.1
237	0x48fcda66	517843.2
238	0x491eee79	650983.56
239	0x48976fc5	310142.16
240	0x4832f1f9	183239.89
241	0x480a2024	141440.56
242	0x47fb7de4	128763.78
243	0x48127115	149956.33
244	0x484a2a66	207017.6
245	0x48b97f99	379900.78
246	0x48aaf84e	350146.44
247	0x48927ffd	300031.9
248	0x498b29e4	1.1400285e+06
249	0x49ec1948	1.934121e+06
250	0x45addab2	5563.337
251	0x4be91cd4	3.0554536e+07
252	0x1b8de85d	2.3476655e-22
253	0x1b4e3b13	1.7059009e-22
254	0x1b3618dd	1.5062721e-22
255	0x1b17404c	1.2511203e-22

exp_avg f4 [128, 28]
0	0x00000004	6e-45
1	0x00000004	6e-45
2	0x00000004	6e-45
3	0x00000004	6e-45
4	0x00000004	6e-45
5	0x00000004	6e-45
6	0x00000004	6e-45
7	0x00000004	6e-45
8	0x00000004	6e-45
9	0x00000004	6e-45
10	0x00000004	6e-45
11	0x00000004	6e-45
12	0x00000004	6e-45
13	0x00000004	6e-45
14	0x00000004	6e-45
15	0x00000004	6e-45
16	0x00000004	6e-45
17	0x00000004	6e-45
18	0x00000004	6e-45
19	0x00000004	6e-45
20	0x00000004	6e-45
21	0x00000004	6e-45
22	0x00000004	6e-45
23	0x00000004	6e-45
24	0x80000004	-6e-45
25	0x00000004	6e-45
26	0x00000004	6e-45
27	0x00000004	6e-45
28	0x41225a8a	10.147104
29	0xc007b71c	-2.120551
30	0xc0da444f	-6.8208385
31	0xc1729b0c	-15.162853
32	0xc19f4d00	-19.912598
33	0xc288687d	-68.20408
34	0xc324859c	-164.52191
35	0xc296a872	-75.328995
36	0xc209badc	-34.43248
37	0xc1ebb54c	-29.463524
38	0xc2312646	-44.287376
39	0xc2538637	-52.88107
40	0xc341cd27	-193.80138
41	0xc2a5f527	-82.97881
42	0xc0977b05	-4.733767
43	0xc22ba21e	-42.908318
44	0xc2169e84	-37.6548
45	0xc1db8f07	-27.444838
46	0xc22a88d4	-42.63362
47	0xc23c42df	-47.065304
48	0xc29df557	-78.97918
49	0xc2f590d0	-122.78284
50	0x3fd3b606	1.6539924
51	0x413b4e6e	11.706648
52	0x42fc3781	126.108406
53	0xc357958c	-215.58417
54	0xc0ec7c23	-7.3901534
55	0xc4a65fa3	-1330.9886
56	0xbfd967f4	-1.6984849
57	0xbf68d0e0	-0.9094372
58	0xbee0f3ca	-0.43935996
59	0x3f442000	0.7661133
60	0x3ca918c1	0.020641686
61	0xbed7d0e1	-0.4215155
62	0xbf263064	-0.6491759
63	0xbf8c821b	-1.0977205
64	0xc013bfa2	-2.3085713
65	0xc0bc40bc	-5.882902
66	0xc13d2055	-11.820394
67	0xc1138cbe	-9.221861
68	0xc0986a50	-4.7629776
69	0xc0545f16	-3.3183036
70	0xc02f699b	-2.7408206
71	0xc01ff1a1	-2.4991229
72	0xc03a2cf7	-2.9089944
73	0xc052cf2a	-3.2938943
74	0xc0836f3f	-4.10733
75	0xc09f0caa	-4.970296
76	0xc0e52573	-7.1608214
77	0xc0de7f6a	-6.9530535
78	0xc1041887	-8.255988
79	0xbfcb8067	-1.589856
80	0xc0e07ee4	-7.0154896
81	0xc1cd97a9	-25.699053
82	0xbf3174d7	-0.6931891
83	0xc09e5f8a	-4.9491625
84	0xc0012b87	-2.0182817
85	0xc0200e17	-2.50086
86	0xc0a84e83	-5.259584
87	0xc15fa951	-13.978837
88	0xc1530181	-13.187867
89	0x419f8d11	19.94388
90	0x4294d218	74.41034
91	0x421b30f4	38.797806
92	0x4198cd31	19.100191
93	0x3cdf9801	0.02729416
94	0xc18aa036	-17.328228
95	0xc0c3e35a	-6.121503
96	0x427ee092	63.719307
97	0x41efb6ed	29.96432
98	0x418b08d0	17.379303
99	0x41454c07	12.331061
100	0x4103190f	8.193618
101	0xc03a539f	-2.9113538
102	0x3f9e0c17	1.234744
103	0x40fa0dc0	7.8141785
104	0x40c8b2d2	6.2718287
105	0x420f73d2	35.863106
106	0xc05914c1	-3.3918917
107	0xbfff3d18	-1.9940519
108	0xc2a56983	-82.70608
109	0x420781eb	33.876873
110	0xbf303437	-0.68829674
111	0x43d27c71	420.9722
112	0x42ff385f	127.6101
113	0x4260b75b	56.179058
114	0xc18e0aa6	-17.7552
115	0xc109315e	-8.574553
116	0xc1095bb6	-8.58489
117	0xc0e5dfca	-7.183568
118	0x414f4196	12.953512
119	0x42d6efc7	107.468315
120	0x43582e7a	216.18155
121	0x43459549	197.58315
122	0x42934ca1	73.649666
123	0x427155c5	60.33376
124	0x4269e47b	58.473125
125	0x41cbbe83	25.468023
126	0xc327e9c2	-167.91312
127	0x431c6ef5	156.43343
128	0x42c46d50	98.2135
129	0x4298702e	76.2191
130	0x427eb85a	63.68003
131	0x427c50d4	63.078934
132	0x42532c54	52.79329
133	0x42842189	66.0655
134	0x42893dfe	68.62108
135	0x42f7d382	123.9131
136	0xc320b8c2	-160.72171
137	0x433ecb23	190.7935
138	0x408aa1d7	4.332256
139	0x41980308	19.00148
140	0x409ace5d	4.837691
141	0x40402be0	3.002678
142	0x400bd4f0	2.1848717
143	0x3e8efa58	0.27925372
144	0xbec398ba	-0.3820246
145	0x41218d06	10.09693
146	0x40dfe0c9	6.9961896
147	0x41531964	13.193699
148	0x40c9f1ab	6.3107505
149	0xbf94c6af	-1.1623133
150	0x415c81cc	13.781689
151	0x417719aa	15.443766
152	0x4132ee6d	11.183209
153	0x41085053	8.51961
154	0x40d7e029	6.7461133
155	0x40bbcc2a	5.8686724
156	0x40ae4afc	5.4466534
157	0x4025575f	2.5834577
158	0x40cfad4c	6.4899044
159	0x413de2cc	11.86787
160	0x4195ef5a	18.74187
161	0x41fa5d8d	31.29568
162	0x41a18793	20.191198
163	0x4095336c	4.662527
164	0x40933902	4.600709
165	0x42896383	68.69436
166	0x3ff35ff1	1.9013654
167	0x42047800	33.117188
168	0x00000004	6e-45
169	0x00000004	6e-45
170	0x00000004	6e-45
171	0x00000004	6e-45
172	0x00000004	6e-45
173	0x00000004	6e-45
174	0x00000004	6e-45
175	0x00000004	6e-45
176	0x00000004	6e-45
177	0x00000004	6e-45
178	0x00000004	6e-45
179	0x00000004	6e-45
180	0x00000004	6e-45
181	0x00000004	6e-45
182	0x00000004	6e-45
183	0x00000004	6e-45
184	0x00000004	6e-45
185	0x00000004	6e-45
186	0x00000004	6e-45
187	0x00000004	6e-45
188	0x00000004	6e-45
189	0x00000004	6e-45
190	0x00000004	6e-45
191	0x00000004	6e-45
192	0x80000004	-6e-45
193	0x00000004	6e-45
194	0x00000004	6e-45
195	0x00000004	6e-45
196	0x213beb16	6.36692e-19
197	0x21aac555	1.1571881e-18
198	0x22820c54	3.5249624e-18
199	0x2286deb3	3.6556565e-18
200	0x224a9eb7	2.7460128e-18
201	0x2210bd87	1.9615974e-18
202	0x21e8157c	1.5726618e-18
203	0x21d2dbaf	1.4288303e-18
204	0x21cd401d	1.3908311e-18
205	0x21da86cb	1.4807934e-18
206	0x21f6f1b0	1.6733583e-18
207	0x222112a7	2.1829443e-18
208	0x22769fd9	3.342384e-18
209	0x22ecae67	6.4152584e-18
210	0x226d9ed8	3.220358e-18
211	0x2177af69	8.391901e-19
212	0x212bd040	5.821267e-19
213	0x20f95d00	4.2243783e-19
214	0x20ed0291	4.015106e-19
215	0x20db2860	3.712676e-19
216	0x20c9db95	3.4196032e-19
217	0x20f5f307	4.1665436e-19
218	0x21083c20	4.6158167e-19
219	0x21461d3d	6.7123706e-19
220	0xa1e2bfe4	-1.5365149e-18
221	0x235bedf7	1.1922405e-17
222	0x20caabe5	3.4333881e-19
223	0x243d05da	4.09878e-17
224	0x41788d86	15.534552
225	0x4288795b	68.23702
226	0x41b4c3de	22.595638
227	0x41bc8067	23.562696
228	0x41f69c1c	30.826225
229	0x426716f5	57.77242
230	0x42bdc6d7	94.88836
231	0x4121fabc	10.123714
232	0x404cfaf3	3.2028167
233	0x429b1583	77.542015
234	0x428a0e32	69.027725
235	0x42480804	50.007828
236	0x42bca5c4	94.32376
237	0x42593656	54.303062
238	0x429ea934	79.330475
239	0x41d156ad	26.167322
240	0x426dfa52	59.494453
241	0x42494a4b	50.32255
242	0x421f5ddc	39.84166
243	0x421a0038	38.500214
244	0x42216140	40.34497
245	0x4261fd96	56.497643
246	0x41a0958c	20.07302
247	0x417ea17d	15.914426
248	0xc274f2a6	-61.23696
249	0x431216f7	146.0897
250	0x4153cd77	13.237662
251	0x443c99d7	754.40375
252	0x00000004	6e-45
253	0x00000004	6e-45
254	0x00000004	6e-45
255	0x00000004	6e-45

exp_avg_sq f4 [5, 128]
0	0x473eb757	48823.34
1	0x44d6f374	1719.6079
2	0x4462dd65	907.4593
3	0x44857ec0	1067.9609
4	0x46f517ab	31371.834
5	0x4615fe6e	9599.607
6	0x45ea0c86	7489.5654
7	0x4722b1d8	41649.844
8	0x478f12a2	73253.266
9	0x46dd3775	28315.729
10	0x4786baef	68981.87
11	0x46621dda	14471.463
12	0x46875795	17323.791
13	0x45ecc126	7576.1436
14	0x46218098	10336.148
15	0x46992e89	19607.268
16	0x468177e9	16571.955
17	0x479e990c	81202.09
18	0x47083dd6	34877.836
19	0x46960cde	19206.434
20	0x45a15b42	5163.407
21	0x4536a14c	2922.081
22	0x442b1660	684.3496
23	0x465120e8	13384.227
24	0x47604693	57414.574
25	0x4764d7ea	58583.914
26	0x468163b4	16561.852
27	0x4588cc98	4377.574
28	0x46c13774	24731.727
29	0x45e296ae	7250.835
30	0x45a254bf	5194.5933
31	0x47692989	59689.535
32	0x472379c4	41849.766
33	0x469d8478	20162.234
34	0x46ec95c9	30282.893
35	0x4675a5bc	15721.434
36	0x47307d26	45181.15
37	0x4613c3a2	9456.908
38	0x451bec7d	2494.7805
39	0x46ff48cd	32676.4
40	0x468759b9	17324.861
41	0x46884d46	17446.637
42	0x4516698e	2406.5972
43	0x46b5b3cb	23257.896
44	0x47336a40	45930.25
45	0x469cc760	20067.688
46	0x4474ae6b	978.7253
47	0x44cfd726	1662.7234
48	0x45cfc2e1	6648.36
49	0x4732b0e0	45744.875
50	0x46e85aff	29741.498
51	0x46186ae3	9754.722
52	0x466476b3	14621.675
53	0x46df4b8e	28581.777
54	0x451a0cf3	2464.8093
55	0x470b6842	35688.258
56	0x479ec453	81288.65
57	0x451d0371	2512.215
58	0x47774ef3	63310.95
59	0x4681351d	16538.557
60	0x46a8f952	21628.66
61	0x47956ec6	76509.55
62	0x47a2846a	83208.83
63	0x46099c5f	8807.093
64	0x47225ea7	41566.652
65	0x4573d424	3901.2588
66	0x4671be33	15471.55
67	0x46197cc5	9823.192
68	0x47a12167	82498.805
69	0x45d99607	6962.7534
70	0x4753cbf8	54219.97
71	0x46dca801	28244.002
72	0x481ae012	158592.28
73	0x4691f7be	18683.871
74	0x47156215	38242.082
75	0x4688771d	17467.557
76	0x4581eec0	4157.8438
77	0x47256602	42342.008
78	0x459e4e71	5065.805
79	0x4738c981	47305.504
80	0x44ec8773	1892.2328
81	0x476e38d6	60984.836
82	0x47cf31f9	106083.945
83	0x4759ec8e	55788.555
84	0x4669d8c0	14966.1875
85	0x479feaf7	81877.93
86	0x46371c43	11719.065
87	0x45c61d1e	6339.6396
88	0x46d66b9d	27445.807
89	0x457b3469	4019.2756
90	0x449d4f77	1258.4833
91	0x48013557	132309.36
92	0x47d94f48	111262.56
93	0x46c1592b	24748.584
94	0x461e43ac	10128.918
95	0x4478656a	993.5846
96	0x4627253a	10697.307
97	0x469928cd	19604.4
98	0x4551271f	3346.445
99	0x47252a15	42282.082
100	0x47cff3ab	106471.336
101	0x47083373	34867.45
102	0x45b036dc	5638.8574
103	0x46287f8b	10783.886
104	0x47039fa3	33695.637
105	0x462479ce	10526.451
106	0x458811a5	4354.2056
107	0x47176d74	38765.453
108	0x456134ee	3603.308
109	0x4616a077	9640.116
110	0x458af242	4446.282
111	0x4660177a	14341.869
112	0x47453264	50482.39
113	0x463c0f73	12035.862
114	0x45da261e	6980.7646
115	0x45e86e2d	7437.772
116	0x471ed214	40658.08
117	0x47224407	41540.027
118	0x45e0b2ec	7190.365
119	0x44d8b62b	1733.6927
120	0x45c7e21e	6396.2646
121	0x46aba70a	21971.52
122	0x4592f66d	4702.803
123	0x469fb72e	20443.59
124	0x47eaec1b	120280.21
125	0x469f7035	20408.104
126	0x473341db	45889.855
127	0x47a653ff	85159.99
128	0x462d7506	11101.256
129	0x450957bc	2197.4834
130	0x446718cb	924.3874
131	0x4597b21a	4854.2627
132	0x458d8a5f	4529.2964
133	0x453d6f5f	3030.9607
134	0x45c7aa33	6389.275
135	0x46186f21	9755.782
136	0x4694a26b	19025.209
137	0x45e9890c	7473.131
138	0x464ced9a	13115.4
139	0x454ab804	3243.501
140	0x453c89a6	3016.603
141	0x45f3820f	7792.2573
142	0x4569af70	3738.9648
143	0x458cb0ba	4502.091
144	0x46130a97	9410.647
145	0x464bf418	13053.023
146	0x45e4255a	7300.669
147	0x45f3ba72	7799.3057
148	0x45a4eccf	5277.601
149	0x4589e458	4412.543
150	0x44d1977e	1676.7341
151	0x45858e13	4273.7593
152	0x46322036	11400.053
153	0x46471bc8	12742.945
154	0x456ac2e8	3756.1816
155	0x455c8949	3528.5803
156	0x45e4c124	7320.1426
157	0x4574c046	3916.017
158	0x45b46da2	5773.704
159	0x46473152	12748.33
160	0x4626a7ce	10665.951
161	0x45b3ea6a	5757.302
162	0x45fa5d9e	8011.702
163	0x45b3a9e5	5749.237
164	0x463b67b4	11993.926
165	0x45f19a5a	7731.294
166	0x45a6e208	5340.254
167	0x45ca4198	6472.199
168	0x4615fc1f	9599.03
169	0x45b4dc01	5787.5005
170	0x4619c125	9840.286
171	0x461b1375	9924.864
172	0x461a8ea0	9891.656
173	0x45d08b32	6673.3994
174	0x44deae52	1781.4475
175	0x45c4d473	6298.556
176	0x45a47a90	5263.3203
177	0x46069ee9	8615.728
178	0x45ed21c9	7588.223
179	0x44e50d41	1832.4142
180	0x459c4619	5000.762
181	0x45e69f11	7379.8833
182	0x45e6222d	7364.272
183	0x45b4f708	5790.879
184	0x469ca1e1	20048.94
185	0x4572f2b6	3887.1694
186	0x4677bc20	15855.031
187	0x45b22767	5700.9253
188	0x4615eac3	9594.69
189	0x46ad65ea	22194.957
190	0x46958530	19138.594
191	0x4600875c	8225.84
192	0x463ec9df	12210.468
193	0x45f8ddcd	7963.725
194	0x45c3798d	6255.194
195	0x45348f7a	2888.9673
196	0x46573c28	13775.039
197	0x46096bc0	8794.9375
198	0x463c0e91	12035.642
199	0x45c3ac18	6261.5117
200	0x46e46cab	29238.334
201	0x45ca206b	6468.0522
202	0x463ac546	11953.318
203	0x464455f2	12565.486
204	0x45b15b3f	5675.406
205	0x461fbd11	10223.267
206	0x459152d7	4650.355
207	0x466966a7	14937.663
208	0x457ad6bf	4013.4216
209	0x4670a4c3	15401.19
210	0x467d3ac1	16206.688
211	0x46516c63	13403.097
212	0x45d0c9cf	6681.226
213	0x4654f279	13628.618
214	0x45509d34	3337.8252
215	0x454482b2	3144.1685
216	0x46204e87	10259.632
217	0x460aa9a2	8874.408
218	0x45a00fcb	5121.974
219	0x46b60803	23300.006
220	0x46b52e7c	23191.242
221	0x458ae063	4444.0483
222	0x45fad75e	8026.921
223	0x4574fd3a	3919.8267
224	0x45c8ceaa	6425.833
225	0x45dc1f3e	7043.9053
226	0x454451e3	3141.118
227	0x4635c6f4	11633.738
228	0x46c1b670	24795.219
229	0x46100fee	9219.982
230	0x458523db	4260.482
231	0x45972bc2	4837.4697
232	0x4622abcf	10410.952
233	0x456fbddb	3835.866
234	0x4544e987	3150.5955
235	0x4640dd63	12343.347
236	0x45a58273	5296.306
237	0x456c28b4	3778.544
238	0x4590b231	4630.274
239	0x4607a7fb	8681.995
240	0x463c688c	12058.137
241	0x4576efc8	3950.9863
242	0x45b4c311	5784.3833
243	0x45ad4cfa	5545.622
244	0x465e5ad2	14230.705
245	0x460de4b3	9081.175
246	0x460771c2	8668.439
247	0x44b2df6c	1430.9819
248	0x45e15af7	7211.3706
249	0x463b6f1d	11995.778
250	0x459de1d9	5052.231
251	0x45c80050	6400.039
252	0x46b56f37	23223.607
253	0x45b8035f	5888.4214
254	0x460c0b5c	8962.84
255	0x46e467eb	29235.959
