model/330a.pt (torch_old, 336839 bytes, 24 tensors)

fc1.weight f4 [128, 28]
00000000: 945f c63c b07c 1f3e e758 4abe 2c75 22bd
00000010: c0bb abbe fc6e d6be 1f5e 9ebd c07d 15be
00000020: d936 5ebe 80ad 2a3e e005 d73c 8043 26bf
00000030: d083 84be eb84 d5bd 8204 293e c57b 8e3e
00000040: 3f32 c23e c280 d1bd 4a81 6ebf 6804 0bc0
00000050: 08b0 c9bf 5511 d1bf e693 35bf 9333 183e
00000060: d4fb 423d 7a1c 393c 3cd0 f1bf 11d8 5d3d
00000070: a3c8 3d3f 4f70 523f fa3c 443e bb76 be3d
00000080: 0312 40be 7368 ccbe 8ab8 003e a935 a73e
00000090: 2fcf 1e3e 44f2 873e b53c 113e 6d91 c6bd
000000a0: b714 afbe 0441 c4be 7081 ca3c fe62 76bd
000000b0: 39c6 be3d 6e19 25bc 6943 b6bd d1eb 7dbc
000000c0: 8552 433e fb39 9f3e 1319 4bbe a108 243f
000000d0: 3486 af3e ec66 15bd 2706 963f 6bce 603d
000000e0: 69d7 9ebf d03d 95bf 4a3b d3be 14d0 a53d
000000f0: 5dbc a1bd 5ea9 f2bd 91f4 bebd 4907 d63c
00000100: 196a 823d 99e9 af3e 7f6a 343e fc8e 983e
00000110: fcf2 08bd 7cae 353d 3d34 b9bc 5c66 bdbd
00000120: 207f 62be fbc9 c0be 7425 f3bd cd04 49be
00000130: dad3 e93c 5c19 59be 0274 18bf 7c9f b1bf
00000140: adea 833e 75ac 4f3e 843d b8bf 06c3 443c
00000150: f6b9 23bf 8fb1 1abf 536c 58be 1223 c3bd
00000160: 5877 753d b4c1 00bc 1dad a1be d546 ce3d
00000170: 7880 043e 9126 ca3e e910 eb3e 22e9 a03e
00000180: 10a1 af38 efbc 6a38 ae0c babd 82aa 87be
00000190: c325 8b3d 8703 d43d df31 083f bf26 8b3d
000001a0: ee09 273e cdd6 e339 f942 94be cec0 4abf
000001b0: 9db3 e33e 4361 94bd eb27 6dbf 39f1 973c
000001c0: a695 5cbf a87e 69bf a25d 8abe 2e86 7dbe
000001d0: 7f8b dabd 9a43 8a3d f1ce 853c 9fd5 6c3d
000001e0: 8551 0b3f ee3f 943e dede 10bc a6d6 8e3e
000001f0: 45c5 393e 2fd1 543e 5efc ea3e 1b32 533f
00000200: 3960 05bf c919 48bf 138b 2fbe f8f6 753e
00000210: 076c d83d 2119 973c dec3 173e f345 5ebf
00000220: a6dc b4be d60e 98be 7deb babf 55c7 57bd
00000230: 22e0 7fbf 379a b2bf a8df 6abf 80dc b83d
00000240: b49d 343d 318d 09bb 665f 03bd bf8d d43d
00000250: ecb0 943d 4f4f 723e c587 923e 21ad c73c
00000260: 4765 5cbd 453b 6fbe 3341 ecbc 9d67 903e
00000270: 93ae e73d e0ad 323e e587 0c3e 398c 433e
00000280: 3f8b 00be 24bd b33d ecf5 193c 94c0 90bf
00000290: ae79 053f ac00 023e 97ba 99bf 25e9 17be
000002a0: 1e6b 6dbf 0992 2d3c 1f5b ffbd c39e 22be
000002b0: 0008 1d3e 578e 92bc ff15 593e dc50 f73d
000002c0: bc4f 5a3e fd4d bd3d 4810 873e 43b9 66bd
000002d0: 778a 72be d7c5 bfbd a6c3 70be c61d 6ebe
000002e0: 8aea 2abe 5e5b c03d a72a fcbc ed22 dfbe
000002f0: f594 83be be68 0c3d 06e8 45bf a437 8cbf
00000300: c47b 1bbe 6363 823c 800f b0bf 287f 50bd
00000310: 623b 5bbf 9952 bfbe e1d0 22be e49d 1ebe
00000320: e0f0 47be f103 073e 8b0f b63b bfab 84bd
00000330: 1043 ca3d d31a 29be 7483 0ebe a842 7abe
00000340: 29ad 88be ea53 5b3e 7621 573d c3e5 bbbe
00000350: 13e0 61be a914 64be 90cf 5dbe f5f6 fdbe
00000360: 9442 76bf 2c9b 65bf 283d 47bf 35da 7fbf
00000370: c0b9 fabe f7ff 903c ca51 8abf 4870 e13d
00000380: 2b5b d03e dfca ef3e 8183 d0bd 513c e03c
00000390: 03ea aabd 5ffa 8bbd 6bba 8bbe de0a 123c
000003a0: 8495 313e 00f9 e63e 0ad9 df3a fe7e f1bd
000003b0: 8bc2 2bbe 13db 1b3e a96b 3a3e 891d 1ebd
000003c0: 368c e2be 65b1 31bf 6e46 71be dc3d 053d
000003d0: 7ffa a33d 6da1 60bc e5da 5e3d 432d 023f
000003e0: ba52 94bf b19c 683d 2f58 a1be 84cd a03d
000003f0: ce9c 363e 2b34 28be 1307 3bbd deb2 02be
0.024215497 0.15574908 -0.19760476 -0.039662525 -0.3354168 -0.4188155 -0.07732796 -0.14598751
-0.2170061 0.16667747 0.026247919 -0.64946747 -0.25881815 -0.10425743 0.16505626 0.27828804
0.3792896 -0.10229637 -0.9316603 -2.172144 -1.5756845 -1.6333414 -0.709288 0.14863424
0.047603443 0.011298293 -1.8891673 0.054161135 0.7413427 0.8220262 0.19163886 0.0929999
-0.18756871 -0.39923438 0.12570396 0.32658127 0.15508722 0.26552022 0.14183314 -0.096957065
-0.34195492 -0.38330853 0.024719924 -0.060153 0.09315152 -0.010076864 -0.08899576 -0.015498118
0.19074447 0.31098923 -0.19833784 0.64075667 0.34282076 -0.036475107 1.1720628 0.054884356
-1.2409488 -1.1659489 -0.4125617 0.080963284 -0.078972556 -0.118487105 -0.09323991 0.02612652
0.06367893 0.34357908 0.1761875 0.29796588 -0.033434853 0.044355854 -0.022607917 -0.09248039
-0.22118807 -0.376541 -0.11872378 -0.19630738 0.028543402 -0.2120108 -0.59552014 -1.3876796
0.2576498 0.20280631 -1.4393773 0.012009388 -0.6395563 -0.6042718 -0.21135072 -0.095281735
0.05992827 -0.007858682 -0.31577387 0.10072104 0.12939632 0.3948255 0.4591134 0.31427866
8.3746505e-05 5.5965906e-05 -0.0908445 -0.26497275 0.06794312 0.10352235 0.532011 0.067944996
0.16312382 0.00043456853 -0.28957346 -0.79200447 0.44472972 -0.07245114 -0.92639035 0.018547641
-0.86165845 -0.9120889 -0.2702456 -0.24758217 -0.10671138 0.06751175 0.016334029 0.057820912
0.54421264 0.28955024 -0.008842198 0.2789814 0.18141659 0.20782922 0.45895666 0.8249833
-0.5209995 -0.78164345 -0.17142896 0.24019992 0.105674796 0.0184446 0.14820811 -0.86825484
-0.3532459 -0.2969882 -1.4603115 -0.052680332 -0.99951375 -1.3953313 -0.9174752 0.09026432
0.04409571 -0.0020988698 -0.0320734 0.103785984 0.07260308 0.23663066 0.2861921 0.024374546
-0.053807523 -0.23362453 -0.028839683 0.2820405 0.11312594 0.1744914 0.13723715 0.1909646
-0.12553118 0.0877631 0.009397011 -1.130877 0.52138793 0.12695569 -1.2010068 -0.14835031
-0.9274157 0.0105938995 -0.12468552 -0.15880875 0.15335083 -0.017890139 0.21199797 0.120759696
0.21319479 0.09243391 0.2637961 -0.056329023 -0.23685633 -0.09363907 -0.23512134 -0.23253545
-0.16691032 0.09392427 -0.030782057 -0.43581334 -0.25699583 0.034279577 -0.77307165 -1.095448
-0.15183932 0.015916532 -1.375473 -0.050902516 -0.85637486 -0.37367705 -0.15899993 -0.15489918
-0.1952548 0.13185097 0.005556052 -0.064780705 0.098760724 -0.16514139 -0.13917333 -0.2443949
-0.2669461 0.2141873 0.052522145 -0.36698732 -0.22058134 -0.22273506 -0.2166121 -0.49602476
-0.9619534 -0.896899 -0.7782769 -0.9994233 -0.4896984 0.017700179 -1.080621 0.11007744
0.40694556 0.46834466 -0.101813324 0.027372511 -0.083454154 -0.06834864 -0.27290663 0.008913724
0.17342192 0.45111847 0.0017078232 -0.117918 -0.16773431 0.15220289 0.18205132 -0.038602386
-0.44247597 -0.6941131 -0.23562023 0.032529697 0.08006763 -0.013710362 0.054407973 0.50850314
-1.1587746 0.056790058 -0.3151259 0.07851699 0.17833254 -0.1642615 -0.045661043 -0.12763545

fc1.bias f4 [128]
00000000: 5632 06bc 772f c83c f0a8 f5bc f302 0cbb
00000010: bdf3 2bbd 5e21 803d f92e da3d 35d8 2bbd
00000020: c99e 32be 0ac8 77bb 65fc 6cbd ff74 733d
00000030: d44a 903d 2781 023e b90c 34ba 9975 7cbe
00000040: 4c55 2ebe 17c8 0fbd 76bb 0abe 6087 2dbe
00000050: 7c1b 80bd e32a 283d ae7d ee3e 7811 093e
00000060: be52 92bd 4fe6 f0bd 736b d4bd 77e5 7ebd
00000070: c82d a7bc d511 22be fcab 3cbd 071e 8f3d
00000080: e4b1 f6bd 13fb b9bd 28ca 853e fc79 67bd
00000090: 6c57 1b3e 9240 0fbe ad0a f4bc 5a56 7bbd
000000a0: 57e2 46be c1a2 853e 3c81 53bd ad73 543d
000000b0: 4a17 533d 15b8 81be f62b 27bd 7e0a e83e
000000c0: 294d fa3d 148c 15bd c1b9 233e a920 0f3d
000000d0: eadc 4fbe f838 47bd 7446 ff3d 0b40 53be
000000e0: e874 b7bc d1a0 783e d796 63be 6d04 0b3f
000000f0: ed38 b43d d7ed 33bd 128c 9b3d 2751 e2bd
00000100: 1a14 d83d 709a 8a3e 86ea c13d 0bc7 593e
00000110: e2d2 08be 0c71 f13d 722f 44be 8450 b3bd
00000120: b917 5fbe 5e30 90bc 52cf 3e3d 815d 2dbe
00000130: 23e6 e2bb 15ea 10be 2d6c c4be 6bc5 0e3d
00000140: 0c49 72bd ad5c cabd c97d 45bd ba99 d0bd
00000150: e70d 793e 613b c5bc 4b03 83bd f26f c7bd
00000160: 214b aa3d 5d3b b7bc f0f8 4cbe 508d 82bd
00000170: 0fe4 3abd f597 99bc 3c12 75bd b3ed 97bd
00000180: f8ac 01be c1bb 33be 5dce 373f d8fe 903d
00000190: 9fbd c73e 566f 57bd 8702 d43d 808b 2fbe
000001a0: 3584 8f3d 238c 9d3d 87b2 bd3c 7259 4e3e
000001b0: 4af8 423d 940c c3bd e734 013d 4b37 883e
000001c0: 1746 10be 9a74 143c 1550 cc3c 0a0f 473d
000001d0: 221a 29be 40a8 c2bd 4d65 353e 8256 98bd
000001e0: db9f a8bd bdfd 1dbd 5b5c 2f3c c8f3 b6bd
000001f0: 18f4 653d 50ba 9d3c 8f4c 1ebe 2fa0 0ebe
-0.008190712 0.024436696 -0.029987782 -0.0021364063 -0.041980494 0.06256364 0.106534906 -0.041954238
-0.17443384 -0.0037808442 -0.05785789 0.059437748 0.07045522 0.1274458 -0.0006868351 -0.24654235
-0.17024726 -0.03510293 -0.13548073 -0.16946173 -0.06255242 0.041056525 0.4658026 0.1338557
-0.07144688 -0.11762678 -0.10372057 -0.062230553 -0.020407572 -0.15827115 -0.046062455 0.06988149
-0.12045649 -0.09081092 0.26130795 -0.056512818 0.15170068 -0.13989475 -0.029790247 -0.06136165
-0.1942228 0.26100734 -0.05163692 0.05186813 0.051535882 -0.25335756 -0.04081341 0.45320505
0.122217484 -0.036510542 0.15988828 0.034943257 -0.20299116 -0.048638314 0.1246461 -0.20629899
-0.022394612 0.24280097 -0.2222551 0.5430363 0.0879992 -0.043927994 0.07595076 -0.11050635
0.10550709 0.2707095 0.0946856 0.21267335 -0.13361695 0.1178914 -0.19158724 -0.087555915
-0.21786393 -0.017601188 0.046584435 -0.169302 -0.006924407 -0.14151795 -0.38363782 0.03485624
-0.059151694 -0.09880958 -0.04821566 -0.10185571 0.2432171 -0.024076166 -0.063971125 -0.09738149
0.08315111 -0.022367174 -0.20016837 -0.063746095 -0.04562765 -0.018749217 -0.059831843 -0.074183844
-0.12663639 -0.17552091 0.7179926 0.070798576 0.39011857 -0.052596413 0.103520446 -0.17143059
0.07007638 0.076927446 0.023156418 0.20151308 0.04760007 -0.095238835 0.031544592 0.26604685
-0.14089237 0.009061003 0.02494053 0.048598327 -0.16513875 -0.095047474 0.17714424 -0.07438375
-0.08233615 -0.03857206 0.010703172 -0.08933216 0.05614099 0.01925388 -0.15458892 -0.13928293

fc2.weight f4 [128, 128]
00000000: 22dc 9fbe 8e1f c9be 5cb1 023e bee1 713d
00000010: 325d 893e 84c5 2cbe dd56 4cbe 650d ce3e
00000020: b8f6 1ebe 676e b9be 692b e0bd 0077 f0be
00000030: d682 473e 32d6 583e 2512 f7be d2ae 1fbf
00000040: 23ae 44be 5d51 833d d129 74be 1c19 26bd
00000050: 2d13 29bf 084f 2abe d6cf 903e e296 fd3e
00000060: 38da ae3d de42 07bf 59cb 0a3e 3933 dabe
00000070: 61b6 9e3b 24de 6cbe 1da7 bbbd 1f2d b23d
00000080: 6109 be3d 703e 073f 4bb7 563d 9441 de3e
00000090: 3cf1 853e 7ab7 95be 6dbb ae3e 07bb 21bf
000000a0: 1368 37bf 655a 093e b6d9 813d d1e4 8a3e
000000b0: cf32 0d3d ea3f 0bbf afb5 15bd aa0f 01bd
000000c0: 4415 823e 161e 953c 614d 473e e366 b83e
000000d0: f8da 003e e463 cb3e 786a 43bf afdf b7be
000000e0: 4aa3 03bf b3cd 65bd 19c1 803e 1a94 05bf
000000f0: 19d4 a63d 3020 bebe 9605 1c3d 8733 56bf
00000100: 3373 3f3e 25ba a63e e95c 753e b9fb 083e
00000110: 4a96 5cbd 546e 403d 7b9d c0be 957f 013d
00000120: a7bd 35bf 8aaf ca3e 071a 24bf 3104 22bf
00000130: 7e5f 11bf 43e4 623e 46a8 b6be 559b 583e
00000140: 0d0e eebe e326 27bf d525 e9bd f360 e5be
00000150: d392 773e 9b6f a5be 91bb 38bc 3622 38be
00000160: f012 e7be 71d6 9bbd 53f7 11bf 07f8 0b3e
00000170: 518a c9be f798 9d3b b4d9 193e 429f 04bf
00000180: 5d21 cd3e ac3b abbe 3376 b9be ddaa d2be
00000190: 4f38 c9be e703 15bf 08d3 b23d f0ec 4b3d
000001a0: e8bc 813e 7b86 ed3d 131e e43d be3e 453d
000001b0: 0dc4 623d 1e37 e5be 3b42 23bd da36 d13d
000001c0: 55df cd3d 8af4 e0bd e981 d1be b5f8 2bbe
000001d0: d5cd 253e c0dc 0a3f 900d 603e df98 923f
000001e0: e6a1 71bf a154 dbbe 8b3e ae3e 9c20 b23e
000001f0: 905c d7be 27ac d63e 02a6 02bf 1f63 6abe
00000200: 385d cbbd 40b9 4bbd 1791 14bd d6e2 823e
00000210: 1f13 8ebe 76b4 7d3e 49f0 b43c 9b09 d93e
00000220: 329d b03d 472d f63e 8d80 7c3d 1e7a 09be
00000230: e962 a33d f68d 8f3e a610 003e 499a e6be
00000240: 5d85 2e3d 67a1 2a3d 25a0 eb3e d285 4d3d
00000250: 29b9 c73d dc6e f0be baed 20be 4434 53be
00000260: 762b 44bd 0463 9e3c 12e2 39bd ce13 18be
00000270: 6bed dd3e d60d fc3e d7aa 0cbf 76b0 bfbd
00000280: 1dcc 2b3f 527e b73e 1b81 223e a72f 22be
00000290: 2d81 993e c448 853e 79e5 e8be 0ff5 0bbf
000002a0: 603f d03e a83b ed3e 2386 b2bc b5b0 b9bd
000002b0: 07c4 733e 827a 60bd 4c1e 653e 95be bb3e
000002c0: e2b0 053e 3b65 ce3e caf6 febc fbb8 283d
000002d0: 105e 31be 976a 54be baeb 233e 694c 45bf
000002e0: 876d 4bbd deaa ed3e e02f c0be cf4d c7be
000002f0: 3dd6 1d3f 617a acbe 3473 743e b5b2 8bbe
00000300: a021 4a3e de6c 8d3d 6655 573e a672 6d3d
00000310: 4b00 a73d e30e fa3d 3cf2 113f f974 ffbe
00000320: 1354 a73e 4dfd 8cbe 4969 19be ae48 3e3f
00000330: c37f 263f 98f3 68be d493 833d 4b94 403e
00000340: fc47 143f d7ff 953e e0e6 273f 5225 223d
00000350: 6806 a2be b389 7cbe 4b7b 943d 64ab 0bbf
00000360: c28d 1abf 7450 d43e 5ee1 dc3d 34ca c03e
00000370: a0a2 0e3d 9ed1 82be e42b 53be f683 b93e
00000380: 9912 a0be 0599 b4bd 306e 173e b01f 07be
00000390: 83e2 013f 2ee2 263f 19d5 13be 5415 efbe
000003a0: 41e8 e63e 52ff 2ebe 5cb4 6e3e fbb8 123f
000003b0: a566 f33d a5ab 553c a0d2 893e 85c8 99bd
000003c0: ee40 583f 4af1 91be 1608 533e aa78 943e
000003d0: 5e95 bdbe daca dd3d 2ac6 843e e1a4 3bbf
000003e0: 3187 9f3d 6688 f33e 9ba0 a73d b851 f9be
000003f0: 1647 eb3e 08d0 473e 1391 513f 169a 8fbc
-0.31222636 -0.39281887 0.1276297 0.059053175 0.26828915 -0.16872221 -0.1995501 0.40244594
-0.15523803 -0.36217043 -0.1094578 -0.4696579 0.19483504 0.21175459 -0.4825603 -0.6237613
-0.19207053 0.06412003 -0.23844077 -0.04055129 -0.66044885 -0.1663171 0.28283566 0.49529177
0.08537716 -0.52836406 0.13554133 -0.42617205 0.0048435186 -0.23131615 -0.09162734 0.087000124
0.09279133 0.5282965 0.052420896 0.43409407 0.2616061 -0.29241544 0.3412737 -0.63176006
-0.7164318 0.13413389 0.06340353 0.27127698 0.034472283 -0.543944 -0.03655022 -0.03150908
0.2540685 0.018202823 0.19463111 0.36015996 0.1258353 0.39724648 -0.76334333 -0.35912845
-0.51421034 -0.056104373 0.25147322 -0.5217911 0.08145923 -0.37133932 0.038091265 -0.83672374
0.18696289 0.32563892 0.23961224 0.13377275 -0.053854264 0.046980217 -0.37620148 0.031615812
-0.7099251 0.3958705 -0.64102215 -0.63287646 -0.56786335 0.22157387 -0.35675257 0.21153004
-0.46495095 -0.6529371 -0.11384169 -0.4480053 0.24177103 -0.3231171 -0.011275188 -0.179818
-0.45131636 -0.07609261 -0.5701801 0.13668834 -0.3936334 0.0048094946 0.15024453 -0.5180551
0.40064517 -0.33443964 -0.3622299 -0.41145983 -0.39300773 -0.5820908 0.08731657 0.049786508
0.25339437 0.11597916 0.11138549 0.04815554 0.05536275 -0.44768614 -0.039858084 0.1021554
0.10052363 -0.10984142 -0.40919426 -0.16794093 0.161918 0.5424309 0.21880174 1.1452903
-0.9438766 -0.42838004 0.34032091 0.34790504 -0.42062807 0.41928217 -0.5103456 -0.22889374
-0.099298894 -0.049737215 -0.03627118 0.25563687 -0.27748963 0.24775872 0.022087233 0.4239014
0.086237326 0.4808142 0.061646033 -0.1342549 0.0797785 0.28037995 0.12506351 -0.45039585
0.042607654 0.04165783 0.46020618 0.05017645 0.09752113 -0.4695958 -0.15715685 -0.20625407
-0.04789301 0.019334324 -0.045381613 -0.14851305 0.43345198 0.49229306 -0.5494818 -0.09359829
0.6710833 0.35838562 0.15869562 -0.1583849 0.29981366 0.26032078 -0.45487574 -0.54670805
0.4067335 0.46334577 -0.021792477 -0.09066907 0.23805247 -0.054804333 0.22374839 0.3666884
0.13055757 0.40311608 -0.031123538 0.041192036 -0.17321038 -0.20743786 0.16007891 -0.7706972
-0.049665 0.46419424 -0.37536526 -0.3892655 0.61655027 -0.33687118 0.23872072 -0.2728478
0.1973939 0.069055304 0.2102867 0.057970665 0.08154353 0.12209871 0.57010245 -0.4989393
0.3268133 -0.27537003 -0.1498157 0.7432965 0.650387 -0.22749174 0.0642468 0.1880657
0.5792234 0.29296753 0.6558666 0.039586373 -0.31645513 -0.24661903 0.07250079 -0.54558396
-0.60372555 0.4146763 0.10785173 0.3765427 0.03482306 -0.2555055 -0.20622212 0.3623349
-0.3126419 -0.08818249 0.14788127 -0.13195682 0.50736254 0.6518887 -0.14436759 -0.4669596
0.4509907 -0.17089584 0.23310989 0.5731351 0.11884812 0.0130414115 0.26918507 -0.07508949
0.84474075 -0.285044 0.20608553 0.2899831 -0.3702802 0.108297065 0.25932437 -0.7329846
0.077894576 0.47565 0.0818493 -0.4869516 0.45952672 0.19512951 0.8186199 -0.017529529

fc2.bias f4 [128]
00000000: d4d4 d9bc 7417 85bc 8def 1cbe 949e b7be
00000010: 94e0 d4bc 9bd7 48be 9b1e 993d e4e1 64be
00000020: 0a3a 48be a3be 25bc 87a1 57bc 6081 b63d
00000030: 600d 70be d1c2 c4be e0bb 053e cac4 b73d
00000040: 8d0e 9c3e 4a93 e9bc 9555 063e 0567 f8bc
00000050: 284e e03d 67e1 cdbd 8899 f4bc 87da 283d
00000060: 4d24 5dbe 48a2 3abd 7467 0f3d c972 043c
00000070: d036 b93d ef42 093e 6110 7bbe d723 20be
00000080: d7ef 403b 88bb 3cbd 1922 03bd baaf 0cbe
00000090: cc1f 83be 3aa3 ab3e d0b6 46be d16f cabe
000000a0: c7e0 873e 1e11 583e 10a6 56be 906e c4be
000000b0: 6cf4 a3be 7984 5d3e 034b 983d 58a0 213d
000000c0: 1ab7 72be 5c73 333c c34b 25be 1d3a ac3c
000000d0: 0d56 63be 11cd ddbc decc 133e 0a3b 69be
000000e0: 22d7 c13e 60cc 053e 4523 8cbd 6bd4 a7be
000000f0: dc1c 9e3a 38e4 2b3d fc60 98bd 713b a03d
00000100: 8952 77be 9382 a03d 19ff 8a3e 4c65 1abe
00000110: 3640 c03d 8e08 86be 2e06 973e cac8 8e3c
00000120: 635f c73e 00fc b83d 248a 5e3e 494d a93e
00000130: de0f 243d aafb a8bc 35be 2abe 75f5 0abe
00000140: 181e 153e 63a4 993e da90 8c3e fa31 3fbd
00000150: 9e14 0ebd e6c7 99bd 3f8b 8bbe 33f4 dabd
00000160: f81b 3fbe b2b0 d3be 0509 703e c1e8 ad3d
00000170: e345 83bd bbe7 1dbb f780 51be b079 d73d
00000180: ca32 a0be f371 8ebd 79eb 953d bdc1 873c
00000190: dc1f 5f3d fef1 8b3e fc8e 8bbc 2121 1abe
000001a0: c98f a83d b426 acbe 3c2f 3fbe d3f5 2abe
000001b0: a8e5 8bbd 9c1e b03d 449f 953d 95ba f03c
000001c0: 0032 6d3d 6855 1cbe fdc7 873d 6180 0f3e
000001d0: 3486 3cbe ff21 29be 6888 ab3d 76c5 b7bd
000001e0: 9867 d93d b155 7a3e c215 e7bc 2ca3 80be
000001f0: c753 963e 0bff 59be 11b5 9f3d ad15 793e
-0.026590742 -0.016246535 -0.15325756 -0.35863173 -0.025985993 -0.19613497 0.07476541 -0.22351795
-0.1955339 -0.010116252 -0.01316107 0.08911395 -0.23442602 -0.38429883 0.1305995 0.089730814
0.3047985 -0.028512616 0.13118584 -0.030322561 0.10952407 -0.10052758 -0.029858366 0.04122403
-0.21595879 -0.04556492 0.03501077 0.008084008 0.09043658 0.1340444 -0.24517967 -0.15638672
0.002943983 -0.04607728 -0.03201494 -0.1373891 -0.25610197 0.3352297 -0.19405675 -0.39538434
0.2653868 0.2110028 -0.20961785 -0.38365602 -0.32022417 0.21632566 0.07436182 0.039459556
-0.2370266 0.010952797 -0.16142182 0.021023804 -0.22200795 -0.027075322 0.1443362 -0.22776428
0.37859446 0.13066244 -0.06842665 -0.3277925 0.0012063044 0.041965693 -0.07440373 0.078238375
-0.24152578 0.07837405 0.2714775 -0.15077704 0.09387247 -0.26178402 0.29496902 0.017429728
0.38939962 0.0903244 0.21732384 0.33066776 0.040054195 -0.020627815 -0.1667412 -0.13570197
0.14562261 0.3000823 0.27454263 -0.04667852 -0.03468763 -0.07508831 -0.27254674 -0.106911086
-0.18663013 -0.41345745 0.2344094 0.0849166 -0.06409814 -0.002409442 -0.20459352 0.10521257
-0.3128875 -0.06955328 0.073203035 0.016571874 0.054473743 0.27333063 -0.017035954 -0.150517
0.0823055 -0.33623278 -0.18670362 -0.16695337 -0.06830913 0.08599588 0.07305768 0.029385844
0.05790901 -0.15266955 0.066299416 0.14013816 -0.1841057 -0.16516875 0.08375627 -0.089732096
0.10615462 0.24446751 -0.028208617 -0.2512449 0.29360792 -0.21288697 0.077982076 0.24324675

out.weight f4 [5, 128]
00000000: 9e3e 803f 162e b9be b132 e4be 71b3 cc3e
00000010: 3049 86bf 2974 19bf 3598 29bd c215 3c3f
00000020: 26e8 843f fac6 2e3f 18fa 673f 605c 3dbf
00000030: 97c0 e23e a967 59be db6a 41bf b75a 55bf
00000040: 3aec 38bf 957d 573f 16b9 653f 2730 3d3f
00000050: 6052 1b3c a221 403e b76f 98be 92e3 3a3f
00000060: 7646 5b3f a5e2 303f c7a8 0cbf 482b e8be
00000070: 9598 7a3f 7777 bd3e 83b9 db3e 4986 2c3f
00000080: ee7f 463f 4dcd 373f 5577 2d3f a45c 063f
00000090: 4a69 2e3f bb45 19bf 4be1 613d 9a31 353f
000000a0: d4ea 453e 8d32 f3be 8132 a33e 77da 293f
000000b0: 1589 173f 17ce 4a3e 4cad 08bf 20aa 0a3e
000000c0: dd7e 003f a7c2 5a3f 3d41 443f ae9e 0abf
000000d0: 3b0b 45bf 88be 553f 4dd6 78be f102 243f
000000e0: 11e1 4e3f 3237 c8be 6d14 503f 2395 1b3f
000000f0: 1837 24bf 291b 6c3f 7b2f 663f dc99 c43c
00000100: 4eaa 3a3f d007 8bbd 8e39 0cbf 08b0 31bf
00000110: f991 5f3f d352 0a3f 0026 273f 2db9 453f
00000120: 5017 8d3f b16c 833f bee1 283f 9100 943e
00000130: 7ca4 b1bd 77e1 773f d2a1 f13e 7bf1 5a3f
00000140: 5a58 b4be ebdd 573f 8e5e 713f 7281 3f3f
00000150: 3c89 133f 849e 253f af2a 033f 08f7 033f
00000160: cb91 153f 9587 e43e 3e51 09be 40c1 4e3f
00000170: 3572 803f 6114 4bbf 42b1 a93e 665c f3be
00000180: 842d 48be 258f 123f bf53 31bf af1f 383f
00000190: f905 883f bf63 2e3f 513e efbe 931f 12bf
000001a0: 6d12 6fbf 62ed 30bf 8a96 dfbe fb26 223f
000001b0: 437c afbe 0c0d 33bf 565a a6be 1239 1e3f
000001c0: 1bb9 573f 7fb3 46bf c750 babd 826d 0cbf
000001d0: ace4 493f 0ad4 3dbf 1a0f 0cbe cb39 0fbf
000001e0: 79af 153d d66b 6f3e 13d7 b5be 9ba2 213f
000001f0: 6006 793f a927 243f 5844 023f c02d 9b3f
00000200: a69f d33e ba76 26bf 36de 65be 8d8c f13d
00000210: 7205 1fbf b32b 8ebe 6d4e 12bf d437 b73e
00000220: 6632 5d3e d04d 9f3e 647a 7b3e b35e 7dbe
00000230: bce1 983e 12b5 4abd ef53 0ebf e225 0dbf
00000240: 8e8e cfbe 487e b83e 18c7 983e 534c dd3d
00000250: a9bb e2be 542f c43e b467 aebe 895a 763e
00000260: 3e8b 683e 0891 be3e 1733 ffbe 3625 13bf
00000270: 39fb e73e ff7e b03e 6fa3 ac3e f533 8b3e
00000280: 2eeb e93e b9f8 953e 2503 093e c3cb c23e
00000290: 7405 7b3e 2787 adbe fa73 793e ba09 543f
000002a0: 2cff d2be d6ba c3be a6e1 813e 7135 4b3e
000002b0: fdfb aa3e 0814 42be a778 c2be 99c5 64be
000002c0: cdbb b03e ea2c 2f3e 4002 b03e d1ca c4be
000002d0: 440c d6be 459a 883e 2bc2 0bbf c79c 593e
000002e0: 807e 073e b642 23bf c892 293e 4f05 bb3e
000002f0: 03b3 dabe 1bcb 413d e1a7 aa3e 70db 00bf
00000300: ee82 ad3e 5d99 99be 309e 70be c32d 98be
00000310: 1652 683e 5cf3 083e dd5d 943e 628e 2b3f
00000320: c6c0 fc3d d34b 273f 17cc 543e 6168 9dbe
00000330: a5ed 09bf 1e5d 8c3e ff16 1a3d 5859 653e
00000340: 74e1 13bf 4c68 bb3e f3e3 953e 1573 c63e
00000350: 7edb c43e 7a3d f4bc cd59 d43e fcde 503e
00000360: c1ef e8bd 64eb b63d f355 d0be 335f 983d
00000370: f872 6f3d 32ed 4bbf 9dbe a83e 576a f8be
00000380: ee29 49be 0c4e 953e 7ef1 11bf dbf8 cc3e
00000390: 24d2 24be e3ca 163e 4d03 d8be 926f e3be
000003a0: f2f4 dbbe 5e9a c7be 2e73 debe 5926 9a3e
000003b0: 8898 e9be 0e29 11bf d551 76be 1fba c73e
000003c0: 3d45 933d 0c8c 69be 2bf8 24bf 655b e7be
000003d0: d05a 963e e673 92be fc4c e7be 7a27 0fbe
000003e0: ccb8 c0bd 130a 07bf eb81 9cbe 4529 383e
000003f0: d803 bb3e 3924 c7bd 4445 c93c 0ff7 b73c
1.0019109 -0.36167973 -0.44569924 0.39980653 -1.0491085 -0.5994287 -0.04140492 0.734707
1.0383346 0.68272364 0.9061599 -0.7396908 0.4428756 -0.2123095 -0.75553674 -0.83341545
-0.72235453 0.84176 0.89735544 0.739016 0.009480089 0.1876283 -0.29772732 0.73003495
0.8565439 0.6909583 -0.54945034 -0.4534552 0.9788907 0.37005207 0.42914972 0.673924
0.77538955 0.7179764 0.6776021 0.5248511 0.6812941 -0.59872025 0.055146497 0.7077881
0.19327861 -0.47499505 0.3187447 0.66348976 0.59193546 0.1980518 -0.5338943 0.1354146
0.5019358 0.85453266 0.76662046 -0.54148376 -0.7697026 0.8349385 -0.243005 0.6406699
0.80812174 -0.3910461 0.8128117 0.6077444 -0.64146566 0.92228943 0.899162 0.023999147
0.72916114 -0.067885995 -0.5477532 -0.6940923 0.8733211 0.5403263 0.6529236 0.7723568
1.102274 1.0267545 0.65969455 0.28906682 -0.08673951 0.9682841 0.47193772 0.8552472
-0.35223657 0.84322995 0.94284904 0.7480689 0.5763128 0.64695 0.51237005 0.51548815
0.5842559 0.4463469 -0.13409898 0.80763626 1.0034853 -0.7932797 0.3314305 -0.47531432
-0.19548613 0.5724967 -0.6926841 0.71923345 1.0626823 0.6812095 -0.4672723 -0.5707943
-0.9338749 -0.6911222 -0.4366954 0.6334073 -0.34274492 -0.6994178 -0.32490796 0.6180583
0.84266824 -0.7761764 -0.09097438 -0.54854596 0.7886455 -0.7415167 -0.13677636 -0.5594756
0.036544297 0.2338098 -0.3551565 0.6313874 0.9727535 0.64123017 0.50885534 1.2123337
0.4133274 -0.6502491 -0.22448048 0.11794386 -0.62117684 -0.27767715 -0.5715092 0.3578478
0.21601257 0.31114054 0.24558407 -0.24743156 0.29859722 -0.04948909 -0.5559682 -0.5513593
-0.40538448 0.36033845 0.29839396 0.10805573 -0.44283798 0.38317358 -0.34063494 0.24057974
0.22709367 0.37220025 -0.49843666 -0.57478654 0.45308855 0.3447189 0.3371844 0.27188078
0.4568724 0.29291323 0.13380106 0.38046083 0.24513799 -0.33892176 0.24360648 0.8282734
-0.41210306 -0.38228482 0.2536747 0.19844605 0.33395377 -0.18952954 -0.37982675 -0.22341003
0.3451828 0.17106977 0.34376717 -0.38435987 -0.41806233 0.26680198 -0.5459315 0.21251212
0.1323185 -0.6377367 0.16559899 0.36527488 -0.427147 0.047312837 0.33331206 -0.50334835
0.33888954 -0.2999982 -0.23497844 -0.29722413 0.22687563 0.13374084 0.28977862 0.67014134
0.12341456 0.65350074 0.20780979 -0.30743697 -0.5387824 0.27414793 0.037619587 0.22397363
-0.5776589 0.3660301 0.29275474 0.38759676 0.3844871 -0.02981447 0.41474763 0.20397562
-0.113738544 0.08931616 -0.40690574 0.07440033 0.058459252 -0.79658806 0.32957926 -0.4851863
-0.19644901 0.29161108 -0.5700911 0.40033612 -0.16095787 0.14725833 -0.42190018 -0.4442106
-0.42960316 -0.3898496 -0.4344725 0.30107382 -0.45624185 -0.5670327 -0.24054654 0.39009187
0.071909405 -0.2280733 -0.64441174 -0.45186916 0.2936616 -0.28604048 -0.45175922 -0.13979903
-0.09410247 -0.5274975 -0.3056787 0.17984493 0.3652637 -0.09723706 0.024569161 0.022456674

out.bias f4 [5]
00000000: ba48 7dbf b705 af3f 4613 4a3f 7662 6e3f
00000010: 89ca b3bf
-0.98939097 1.3673619 0.7893566 0.9311899 -1.4046184

exp_avg_sq f4 [128, 28]
00000000: daec a23d 8d91 553d b1b4 d03c a214 db3c
00000010: 447e 0b3c 889b fc3c 2127 233f 261b 383f
00000020: 8737 c43e 4b34 663e 285b 1f3e bda9 0c3e
00000030: 6d7d 0a3e f3b0 1c3e b12c 623e 100c d03e
00000040: 7298 9c3f 1de2 2540 149b cd3c 6f55 883b
00000050: cab8 b23c 607f 823c 7e3e 8d3c ed5a a43d
00000060: d4e0 3a3e 4b84 e840 5610 8b3b be41 9a42
00000070: 7a36 ac46 00ba 4046 a9d8 b246 2de4 d646
00000080: c7ad 1e47 36ac 6448 f9d3 154a 0020 cc49
00000090: 2525 f748 3c8e 8a48 2d7a 4648 6c71 2348
000000a0: 920f b249 3758 8c49 572e eb48 17bb 8648
000000b0: 373c 4148 90ea 3248 4c65 3148 61b3 5e48
000000c0: d4d9 a748 6a9d 2449 9847 1649 78d6 ab46
000000d0: 4203 e049 ae1c 244a 8ff2 ad45 749e 6b4c
000000e0: aec7 aa42 cd86 4942 67c4 9542 d676 a442
000000f0: 3f18 b242 4af8 a842 4ff4 8a42 55d2 0843
00000100: 42f6 5744 62a2 eb45 33ba 1446 b4ec 2d45
00000110: c2e7 a944 429e 7644 f9da 4644 895a 2944
00000120: 3e8b 3e44 a943 be44 f1ac 0745 75e0 3245
00000130: aa9f 5545 3e13 f744 aab6 0144 599a b442
00000140: e425 1e45 7ff8 1a47 d1da e441 0909 9246
00000150: e5bf 2645 25a6 e644 d19b 1445 1b80 8145
00000160: ebfd 2146 5d91 fa45 278b b946 f517 a046
00000170: 5520 8f47 7ab6 0b48 698e 0248 5e0c 5247
00000180: 7ba2 2447 f286 a746 cfda 7846 683a 6d46
00000190: 2c27 9146 ccd4 3247 8d4c 5a47 adfa 8547
000001a0: 9f15 a047 f257 4747 f846 6d46 b4e8 2745
000001b0: ef54 6047 685c 2249 911d 7444 adb8 8249
000001c0: 94c9 1349 a65d 1847 daf6 2d46 ba47 4a46
000001d0: 48a2 7546 3174 e546 c7d6 ec47 dca8 8a49
000001e0: 340c bd49 0eff 0349 030a 4448 d049 f047
000001f0: 6bf6 0748 9b2b dc47 6aa0 6949 944b 0f49
00000200: bbed 6f48 abbd 1848 8c71 f347 f2eb eb47
00000210: c296 0448 f964 3748 ec26 8748 d07f 1349
00000220: edd5 4b49 daf0 b649 e6dd e145 9e29 514a
00000230: ef83 b143 013c 5343 cecc 3743 d4a3 5f44
00000240: 4b3b 0a45 4d7a b144 e6db 0b45 3489 7145
00000250: dfbd 3046 3015 df46 2212 aa46 ddad f945
00000260: dcb8 8d45 de66 6345 2b36 4745 5399 4145
00000270: a080 7a45 49af 1346 c017 2d46 fb51 6446
00000280: c2b8 5c46 7730 1546 d18a 6145 8132 b743
00000290: 98f5 f745 3a58 e747 e94e 1843 18c5 5847
000002a0: 0988 8b3e a21a 9e3e b276 f33e 6cf0 9f3f
000002b0: 3bcf 3b40 b6d5 b83f 7e99 8841 9c22 9941
000002c0: c1d8 2341 83b1 be40 0608 9940 2504 9140
000002d0: a592 7c40 5eab 8740 3cb1 bd40 600d 2a41
000002e0: 6c97 fa41 458b 8842 3900 a43f a24e 373e
000002f0: 7578 193f 92e4 da3e f662 a63e b7ad 953e
00000300: bce9 a840 363f 4743 0e30 f83d 68e8 0145
00000310: a151 5c44 bdc3 3b45 246c ca46 aaf6 dc46
00000320: c203 bc46 3110 3e46 dc1e d245 65bf ae45
00000330: 708d 9d45 8c1a ac45 3f1e da45 293e 3346
00000340: d18e db46 3c1b 9a47 a55d f246 0cfd 1445
00000350: ce7b af44 3288 da44 e4a8 ae43 208a 8f43
00000360: 95f4 8d43 4d35 b843 2a12 ed43 2386 6644
00000370: d079 7a45 acc8 5848 cf60 8043 43cc 524a
00000380: 0ba3 e747 2f14 5c46 6785 4146 d7d8 4546
00000390: f109 6b46 1ab1 6747 f3b5 fb48 35ad fc48
000003a0: 440d aa48 9512 0448 461c 8f47 ca10 5c47
000003b0: 3523 b048 e2be 6548 708c 8148 831f 0148
000003c0: 7261 9a47 b587 7247 17d0 5d47 e0cb 8247
000003d0: d811 b847 e979 2c48 6037 1348 a622 e747
000003e0: e8dd f948 0f18 5049 22de 1445 7bf2 664b
000003f0: 9c08 ba1a d72d 871a 55b8 6e1a 4a48 461a
0.07955332 0.05214076 0.025476785 0.026743237 0.008513991 0.030835882 0.6373158 0.71916425
0.38323614 0.22480886 0.15562117 0.13736625 0.13524409 0.15301876 0.22087361 0.40634203
1.2234023 2.5919259 0.025098361 0.004160575 0.02181663 0.015929878 0.017241713 0.08025155
0.18249828 7.266149 0.0042438908 77.1284 22043.238 12334.5 22892.33 27506.088
40621.777 234160.84 2.4547822e+06 1.672192e+06 506153.16 283761.88 203240.7 167365.69
1.4586742e+06 1.1497029e+06 481650.72 275928.72 197872.86 183210.25 181653.19 228045.52
343758.62 674262.6 615545.5 21995.234 1.8351122e+06 2.6888115e+06 5566.32 6.1766096e+07
85.39 50.38164 74.8836 82.2321 89.047356 84.48494 69.477165 136.82161
863.8478 7540.298 9518.55 2782.794 1359.2424 986.4728 795.42145 677.4146
762.17566 1522.1144 2170.8088 2862.0286 3417.979 1976.6013 518.8541 90.30146
2530.3682 39672.496 28.606844 18692.518 2667.9934 1845.192 2377.7385 4144.013
10367.4795 8018.1704 23749.576 20491.979 73280.664 143065.9 133689.64 53772.367
42146.48 21443.473 15926.702 15182.602 18579.586 45780.797 55884.55 68597.35
81963.24 51031.945 15185.742 2686.544 57428.934 665030.5 976.462 1.0708696e+06
605337.25 39005.65 11133.713 12945.932 15720.57 29370.096 121261.555 1.1358995e+06
1.5486785e+06 540656.9 200744.05 123027.625 139225.67 112727.21 956934.6 586937.25
245686.92 156406.67 124643.09 120791.89 135771.03 187795.89 276791.38 604157.0
834910.8 1.4986512e+06 7227.7373 3.4269195e+06 355.03073 211.23439 183.80002 894.5598
2211.7058 1419.8219 2237.7437 3864.5752 11311.468 28554.594 21769.066 7989.733
4535.1074 3638.4292 3187.3855 3097.5828 4008.039 9451.821 11077.9375 14612.495
14126.189 9548.116 3608.676 366.39456 7934.699 118448.45 152.30824 55493.094
0.27252224 0.30879694 0.47551495 1.2495246 2.9345233 1.4440219 17.074947 19.1419
10.240418 5.959169 4.7822294 4.531756 3.9464505 4.239669 5.927885 10.628265
31.323936 68.27201 1.2812568 0.1790109 0.5994943 0.4275251 0.32497376 0.29234096
5.278532 199.24692 0.12118541 2078.5254 881.27545 3004.2336 25910.07 28283.332
24065.879 12164.048 6723.8574 5591.9243 5041.6797 5507.3184 6979.781 11471.54
28103.408 78902.47 31022.822 2383.8154 1403.8689 1748.2561 349.31946 287.0791
283.9108 368.4164 474.1419 922.0959 4007.6133 221986.69 256.75632 3.4537128e+06
118598.086 14085.046 12385.351 12662.21 15042.485 59313.1 515503.6 517481.66
348266.12 135242.33 73272.55 56336.79 360729.66 235259.53 265315.5 132222.05
79042.89 62087.707 56784.09 66967.75 94243.69 176615.64 150749.5 118341.3
511727.25 852352.94 2381.8833 1.5135355e+07 7.6941706e-23 5.590875e-23 4.936615e-23 4.1003835e-23

exp_avg f4 [128, 28]
00000000: 0400 0000 0400 0000 0400 0000 0400 0000
00000010: 0400 0000 0400 0000 0400 0000 0400 0000
00000020: 0400 0000 0400 0000 0400 0000 0400 0000
00000030: 0400 0000 0400 0000 0400 0000 0400 0000
00000040: 0400 0000 0400 0000 0400 0000 0400 0000
00000050: 0400 0000 0400 0000 0400 0000 0400 0000
00000060: 0400 0080 0400 0000 0400 0000 0400 0000
00000070: 072f 90be c66f 4540 bae5 39bf 09f7 a1c0
00000080: 79e3 06c1 bd25 e3c0 dfce 27c1 257e b0c0
00000090: ad71 5dc1 d808 4b41 96e8 0242 1a72 7941
000000a0: a4ef fa40 47e5 5a40 47d6 1540 2a95 0641
000000b0: 0c88 2741 b67f ad40 eebb 0641 6537 7dc0
000000c0: 450e 0dc1 0b65 6841 e1cb 5640 8495 87be
000000d0: 1dcf 6341 3ff6 8a41 0d48 bcbe e610 18c1
000000e0: 91d2 43bf 9842 21bf 00cb 1cbf 0295 31bf
000000f0: b35e 30bf bbf0 48bf abcb 74bf 63fb c8bf
00000100: 6a62 80c0 401f 9bc1 1c09 63c1 f7d4 e4c0
00000110: 77a3 b2c0 cd08 9bc0 6585 91c0 df2e 8dc0
00000120: 4b03 9fc0 4b9f d5c0 4d06 2dc1 56ec 10c1
00000130: 3a58 03c1 cb57 dbc0 a92f 56be 8c2d 64bf
00000140: 3192 03c1 a76c 84c1 80d8 2dbf 5bbb 08c1
00000150: 6576 4b41 7f67 0641 723c 2541 c41c 6641
00000160: be0c 84bf 3ea3 c83f fb5c a841 7afa 8641
00000170: aa42 1b42 2d35 d740 c42e 1ec2 994b fec0
00000180: e94d 98c0 049f a1c0 d685 79c0 d7e0 82c0
00000190: d112 35c1 4cd2 8940 7b25 3a3f 315b 8b41
000001a0: 2534 fd41 1956 9840 f729 bd3f f992 3f41
000001b0: 38c6 15c1 3105 7e42 b37b b740 5280 85bf
000001c0: 9442 df40 b75f af40 1462 9c40 ed6b 8940
000001d0: b4f4 7740 be89 9f40 cb46 f140 65c5 7241
000001e0: 7a96 a141 a5e1 aa40 13c0 b640 79af db40
000001f0: baa1 1941 e4e7 9e41 e57c 9841 4bd2 6d40
00000200: c190 9a3f 6aee 9b3f c2fb ab3f 445d d13f
00000210: 497b eb3f d347 8c41 f865 3841 f8f5 de40
00000220: dd18 9bc0 a5b3 8341 c58c 4e3f dcbd c842
00000230: 0f53 07c0 d0c7 62bf 707a 10bf 2786 7d3f
00000240: 5359 0cc0 cbdd c53e 5ed2 9340 7076 5a40
00000250: bb97 ec40 4262 bdc1 7e76 34c2 9d64 d4c1
00000260: 479e 8ec1 3bf5 5ec1 41ab 3ac1 f459 2bc1
00000270: 8312 2cc1 7b10 eac0 48c8 46c1 810a edc0
00000280: 502e 53c1 2520 08c2 b3fd 45c1 f57b 1ac0
00000290: 9aee 96c1 9e59 30c2 8edd 0dbe e244 11c2
000002a0: 0400 0000 0400 0000 0400 0000 0400 0000
000002b0: 0400 0000 0400 0000 0400 0000 0400 0000
000002c0: 0400 0000 0400 0000 0400 0000 0400 0000
000002d0: 0400 0000 0400 0000 0400 0000 0400 0000
000002e0: 0400 0000 0400 0000 0400 0000 0400 0000
000002f0: 0400 0000 0400 0000 0400 0000 0400 0000
00000300: 0400 0080 0400 0000 0400 0000 0400 0000
00000310: 0400 0000 0400 0000 0400 0000 0400 0000
00000320: 0400 0000 0400 0000 0400 0000 0400 0000
00000330: 0400 0000 0400 0000 0400 0000 0400 0000
00000340: 0400 0000 0400 0000 0400 0000 0400 0000
00000350: 0400 0000 0400 0000 0400 0000 0400 0000
00000360: 0400 0000 0400 0000 0400 0000 0400 0000
00000370: 0400 0080 0400 0000 0400 0000 0400 0000
00000380: 5f70 1b41 2a64 3a41 67a8 f940 3596 4241
00000390: 3566 5641 659f 4841 19a9 0741 3ca2 1d41
000003a0: 7eae c740 50cc 6f41 dc6b 2741 8622 6541
000003b0: bf26 5241 6ace 1841 f6af 2841 ab4b 5841
000003c0: 1955 1c41 782c 1a41 d291 ca40 d4fa 5d41
000003d0: 80eb bc41 570d fb41 1009 5d41 f487 1c41
000003e0: 3835 ccc0 e9b3 b842 33a0 8640 f481 1443
000003f0: 0400 0000 0400 0000 0400 0000 0400 0000
6e-45 6e-45 6e-45 6e-45 6e-45 6e-45 6e-45 6e-45
6e-45 6e-45 6e-45 6e-45 6e-45 6e-45 6e-45 6e-45
6e-45 6e-45 6e-45 6e-45 6e-45 6e-45 6e-45 6e-45
-6e-45 6e-45 6e-45 6e-45 -0.2816088 3.084947 -0.7261616 -5.0614057
-8.430535 -7.0983567 -10.488006 -5.5153985 -13.840253 12.689659 32.727135 15.590357
7.841753 3.420244 2.3412035 8.411417 10.470715 5.4218397 8.420881 -3.956506
-8.815984 14.524669 3.3561938 -0.2648126 14.238065 17.370237 -0.3677372 -9.504126
-0.76493174 -0.6299224 -0.61247253 -0.6936799 -0.688945 -0.78492326 -0.9562327 -1.5701717
-4.0120134 -19.390259 -14.189724 -7.1509967 -5.582454 -4.8448243 -4.5475335 -4.4119716
-4.969152 -6.675695 -10.814038 -9.057699 -8.20904 -6.854467 -0.20916618 -0.89132
-8.223191 -16.553053 -0.6790848 -8.545741 12.716405 8.400268 10.327257 14.382023
-1.0316389 1.5674818 21.0454 16.872303 38.8151 6.725241 -39.54567 -7.946728
-4.7595105 -5.050661 -3.8987937 -4.0899463 -11.317094 4.306921 0.7271344 17.419527
31.650461 4.76051 1.4778432 11.973382 -9.360893 63.50507 5.73385 -1.0429785
6.976877 5.480434 4.8869724 4.2944245 3.8743105 4.985564 7.5398917 15.173192
20.198475 5.3400445 5.7109466 6.86517 9.601984 19.863228 19.060984 3.7159603
1.2075425 1.2182133 1.3436205 1.6356587 1.8396999 17.53507 11.524895 6.9675255
-4.846785 16.462717 0.8068355 100.37082 -2.1144445 -0.8858614 -0.56436825 0.99032825
-2.192952 0.38645777 4.6194296 3.4134789 7.393522 -23.672977 -45.115715 -26.549128
-17.827284 -13.934871 -11.66681 -10.709461 -10.754519 -7.314512 -12.423897 -7.407532
-13.198807 -34.03139 -12.374438 -2.4138157 -18.866505 -44.087517 -0.13854048 -36.31727
6e-45 6e-45 6e-45 6e-45 6e-45 6e-45 6e-45 6e-45
6e-45 6e-45 6e-45 6e-45 6e-45 6e-45 6e-45 6e-45
6e-45 6e-45 6e-45 6e-45 6e-45 6e-45 6e-45 6e-45
-6e-45 6e-45 6e-45 6e-45 6e-45 6e-45 6e-45 6e-45
6e-45 6e-45 6e-45 6e-45 6e-45 6e-45 6e-45 6e-45
6e-45 6e-45 6e-45 6e-45 6e-45 6e-45 6e-45 6e-45
6e-45 6e-45 6e-45 6e-45 -6e-45 6e-45 6e-45 6e-45
9.714934 11.649454 7.801807 12.161672 13.399953 12.538915 8.478784 9.852108
6.2400503 14.987381 10.463833 14.320929 13.1344595 9.550394 10.542959 13.518474
9.770776 9.635857 6.3303003 13.873737 23.61499 31.381514 13.814713 9.783192
-6.3814964 92.35139 4.2070556 148.50763 6e-45 6e-45 6e-45 6e-45

exp_avg_sq f4 [5, 128]
00000000: aca9 9146 c90e 7244 a9ad bf43 29dc d443
00000010: e9c7 3f46 d5d1 8b45 1eda 5b45 324a 8646
00000020: de53 d146 5aea 2b46 a8f2 e146 6f3b b745
00000030: f036 c845 3eed 7545 5879 5c45 f53a ee45
00000040: 3da5 c145 0fa7 fd46 cc12 6446 99b3 0746
00000050: 4608 1045 e842 7f44 3aff 9b43 d293 a745
00000060: fc60 aa46 5362 b646 7c31 b845 daba c444
00000070: 0e38 2e46 9a21 2445 1f83 e744 7c83 ae46
00000080: 96a5 7d46 d477 f545 fbf1 3446 2209 af45
00000090: 387f 9446 10a5 5345 c611 a044 bd48 5b46
000000a0: 7cab 2746 6feb c145 b9e0 9144 008f 0546
000000b0: 8c4f 8246 3ba4 1f46 613f c543 7cb6 4644
000000c0: 804d 1b45 7243 8546 a590 2b46 3111 5d45
000000d0: 1f3b a945 c26c 2746 524c a644 bbae 4846
000000e0: e64a f246 0f4c a344 5f3c b646 b123 c245
000000f0: bde5 f045 896e dd46 2091 ef46 2733 7245
00000100: bf52 6946 c78b cd44 846b b145 d89b 6045
00000110: 90f5 f346 d843 1e45 b52a b346 91f0 2146
00000120: cb63 6f47 550d df45 1e3b 5b46 5b19 f145
00000130: 0261 1145 4816 8246 d405 e844 3f9c 8946
00000140: e6cf 6844 17fd b646 e4cd 1e47 9d9e a946
00000150: df17 a445 671d 0347 6d9b 8a45 162b 0b45
00000160: 24cd 1946 afda b644 a728 0d44 0812 4847
00000170: f6a7 1c47 7d85 1446 0744 5945 1727 0444
00000180: af1c 9d45 d81f ee45 ffe3 a344 0af3 7a46
00000190: be81 1c47 1d18 5546 4068 ff44 1860 8c45
000001a0: 3397 5d46 12ea 7a45 5090 c644 851e 5d46
000001b0: 23f9 9f44 ccd8 5c45 e32e f544 e18e ae45
000001c0: 9b32 9646 4725 9745 6751 4b45 6422 2345
000001d0: 1ead 5e46 4d00 7d46 6828 8245 a4a9 2b44
000001e0: aa95 2d45 eee6 0d46 fb17 d144 b2f2 0146
000001f0: 6e78 2647 42aa e245 c587 8846 b7cd 0647
00000200: cd16 4e46 6e36 2345 1018 b244 4a74 9645
00000210: 2b37 7345 998c 8645 1040 4f45 89e5 2946
00000220: 78c5 7446 1ec2 4546 e2da 6446 2707 8845
00000230: 52e6 b045 fe97 5c45 e66b 7c45 0a6b bd45
00000240: ec3e 9b45 a624 2746 943e 2046 ccfe f645
00000250: c78b 6445 b35d 9645 db73 f644 4f86 b345
00000260: e7ba 4846 93a5 8346 0c3d 9745 fee4 fd44
00000270: da24 e645 3b4d 3e45 323b 6e45 c60e 3546
00000280: 1d8c 8046 28c9 ed45 6303 3b46 c159 ba45
00000290: 3edf 2346 ec09 7b45 2540 1045 9745 aa45
000002a0: dc9a 9345 d574 4b45 b386 bc45 42f4 e445
000002b0: d54c 0a46 f218 6345 6e89 c344 430b 6845
000002c0: 2b81 9745 4410 2646 9032 e145 f7f3 6c45
000002d0: 5e85 9f45 9f49 e645 4851 7945 dffe 0046
000002e0: cccf 5546 c336 1445 e2e6 2546 563c 9045
000002f0: 9326 f245 36e5 7a46 8632 7d46 c017 a845
00000300: 4c57 2f46 1b38 6445 056e a745 30c5 0345
00000310: 1350 5846 3e80 b945 22c5 1146 edd3 7845
00000320: c706 6046 8e92 c245 bcdd 2f46 dbff 9e45
00000330: ab72 4a45 2576 2546 4b11 3145 08ad 5a46
00000340: ff24 4145 2c50 6846 3af0 6246 7baf 5d46
00000350: 47f3 1d46 42d8 0346 c4a9 7045 9727 6945
00000360: dbf6 9445 57ec a645 383a 1745 4fa9 a546
00000370: ee8e 8c46 d1ab cc45 1b09 d945 ac30 5345
00000380: bc15 2f45 061e 3e46 f21e 2745 2aec 2c46
00000390: 4fb2 9346 5001 ff45 8d0e a245 b87c 7345
000003a0: af4b d645 6858 4445 5d45 8445 b26f 1a46
000003b0: 5226 5145 f990 8d45 7192 2145 165d 0646
000003c0: e784 0e46 41e6 9545 5666 4e45 5f5c 4c45
000003d0: 54b8 5546 6c88 e945 7528 8745 5b6b a644
000003e0: d499 3945 5ef3 b745 3681 9245 c423 d045
000003f0: 5990 7e46 07d7 c145 7034 0246 8ccb 8046
18644.836 968.231 383.35672 425.72 12273.978 4474.229 3517.6323 17189.098
26793.934 11002.588 28921.328 5863.429 6406.867 3934.8276 3527.584 7623.3696
6196.655 32467.53 14596.699 8684.899 2304.517 1021.0454 311.99396 5362.4775
21808.492 23345.162 5894.1855 1573.8391 11150.014 2626.1 1852.0975 22337.742
16233.396 7854.9785 11580.495 5601.1416 19007.61 3386.3164 1280.5554 14034.185
10730.871 6205.429 1167.0226 8547.75 16679.773 10217.058 394.49515 794.8513
2484.8438 17057.723 10980.161 3537.0745 5415.39 10715.189 1330.385 12843.683
31013.45 1306.3768 23326.186 6212.4614 7708.7173 28343.268 30664.562 3875.197
14932.687 1644.368 5677.4395 3593.7402 31226.781 2532.2402 22933.354 10364.142
61283.793 7137.6665 14030.779 7715.1694 2326.063 16651.14 1856.1821 17614.123
931.2484 23422.545 40653.89 21711.307 5250.984 33565.402 4435.428 2226.6929
9843.285 1462.8339 564.6352 51218.03 40103.96 9505.372 3476.2517 528.6108
5027.5854 7619.9805 1311.1249 16060.76 40065.742 13638.028 2043.2578 4492.0117
14181.8 4014.6294 1588.5098 14151.63 1279.7855 3533.5498 1961.4652 5585.86
19225.303 4836.6597 3253.0876 2610.1494 14251.279 16192.075 4165.051 686.65063
2777.354 9081.732 1672.7494 8316.674 42616.43 7253.282 17475.885 34509.715
13189.7 2611.4019 1424.752 4814.536 3891.448 4305.5747 3316.004 10873.384
15665.367 12656.529 14646.721 4352.894 5660.79 3529.4995 4038.7437 6061.38
4967.865 10697.162 10255.645 7903.8496 3656.736 4811.7124 1971.6205 5744.7886
12846.726 16850.787 4839.631 2031.156 7364.6064 3044.827 3811.6997 11587.693
16454.057 7609.1445 11968.847 5963.219 10487.811 4016.62 2308.009 5448.6987
4723.3574 3255.302 6032.8374 7326.532 8851.208 3633.559 1564.2947 3712.7039
4848.146 10628.066 7206.3203 3791.2478 5104.671 7369.2026 3989.08 8255.718
13683.949 2371.4226 10617.721 4615.542 7748.822 16057.303 16204.631 5378.9688
11221.824 3651.5066 5357.7524 2108.3242 13844.019 5936.0303 9329.283 3981.2454
14337.694 6226.3193 11255.434 5087.982 3239.1667 10589.536 2833.0808 13995.258
3090.3123 14868.043 14524.057 14187.87 10108.819 8438.064 3850.6104 3730.4744
4766.857 5341.5425 2419.6387 21204.654 17991.465 6549.477 6945.138 3379.042
2801.3584 12167.506 2673.934 11067.041 18905.154 8160.164 5185.819 3895.795
6857.4604 3141.5254 4232.6704 9883.924 3346.395 4530.1216 2585.1526 8599.271
9121.226 4796.7817 3302.396 3269.7732 13678.082 7473.0527 4325.057 1331.3549
2969.6143 5886.421 4688.1514 6660.4707 16292.087 6202.8784 8333.109 16485.773

exp_avg f4 [5, 128]
00000000: d366 8e3f 35ff 41bf 206f 8bbe 0852 0440
00000010: 06b6 89bf df34 afbf 9b95 5cbf a983 c43f
00000020: 33a9 713f e623 8c3f ad76 b63f c52e 95bf
00000030: a42e e63f c6c8 9b3e 60d9 babf 0679 77bf
00000040: cbb2 e7bf 2832 953f cbe2 1e3f e3ce a13f
00000050: c2a3 14c0 4bfc 663f 263e abbe 423c e23f
00000060: e9ad 623f 27df a03f b497 2bbf 5efa 653f
00000070: 5dae 3a3f 3359 cc3f 9cfe 963f 4e1f dd3f
00000080: 061c a83f a531 613f 7f06 253f 8917 013f
00000090: dc0d 8f3f 1e02 1dc0 a49e e53e 7336 e3bd
000000a0: c48d 963f e100 d9bf 5bda f13f 8a8e 2040
000000b0: 9037 6e3f 38a1 683f 7a3d 84bf 897c 073f
000000c0: ebf4 e23e 1849 693f 97a3 ae3f 76c9 3cbf
000000d0: 3eab 4bbf b595 ce3f 9981 a5bf 7b04 b13f
000000e0: 24ae d73f 3c4b 07bf 6b25 0140 349e 0240
000000f0: 4539 e9bf ca44 553f 8adf f23f b0eb 93bd
00000100: b3cd 673f 1ee1 743f f052 80bf 6b2b a7be
00000110: d495 753f f39a e33e 2bac 853f f73d 813f
00000120: 3541 b13f e3df ab3f b241 b63f bf5b fdbe
00000130: 3a7e 433e 9417 933f 87fe 813f 2803 d93f
00000140: 62fd 97bf d2e1 d83e ff16 ba3f d2cf 9a3f
00000150: ff4a 383f 93f5 ec3f 78c8 503e e8c0 393f
00000160: 254e 2340 7cab 6440 cbba 733f 85ee bb3f
00000170: bc06 a83f 39e2 41bf 57be 2d3f db71 6bbe
00000180: e26e 353f f789 493f b23c 96bf 4e5c a03f
00000190: 5d21 f73f ae56 0b3f 5fab b4be 47d9 86bf
000001a0: 7ff4 fbbf 8283 98bf ed62 a7bd dce2 bf3f
000001b0: 785b 9cbe 8f97 75bf f6ca 40bf 3621 6c3f
000001c0: f257 553f 07d4 83bf 121f 99bf 5103 28c0
000001d0: a8fb ff3f 0e8b 6ebf 2b37 84bf 3383 1d3e
000001e0: 6e0f ac3f b359 0240 5cdf fabe bcbc e83f
000001f0: 7d53 d23f ce66 e53e b783 0340 ba39 b23f
00000200: df57 9ec0 3af2 8e41 8715 6c41 42a5 88c0
00000210: a0ed 9e40 1a35 2540 4d01 2041 e353 24c2
00000220: 0bc3 2ac2 9d9e 89c1 5d58 f5c1 ae9d d141
00000230: 438a c8c1 1608 da3f bfe2 1f40 0bbc a741
00000240: e023 4b40 fd94 bebe 808d 80bf 271b ddc1
00000250: 69ae dfbe 2b56 a4c1 7ab3 733e 3617 e0c1
00000260: 9f04 02c2 aea4 ed3f 448c 9441 2063 d640
00000270: 5b19 f8bf cf8d 55c0 6b5f 80c0 bc82 94c0
00000280: 743c 20c2 1f32 97c0 b5e8 edc0 32d9 5dc1
00000290: 12f8 48c2 ab24 5941 954d 883f 0e10 24c0
000002a0: c431 a9bf 2cbf 9341 6607 92c1 1719 f2c1
000002b0: 7504 05c2 fb8d 78be aede 5841 64d8 6940
000002c0: 018b 9dc1 e328 13c1 992d 12c2 a879 a740
000002d0: dc57 bf40 f810 93c0 8653 8841 6ecf 76c1
000002e0: 934c 373f af8a 7641 dace d7c0 0348 adc0
000002f0: b8e2 9141 7ae4 15c2 7ccc 41c1 31bf 5e41
00000300: 6d5e f5c1 8db7 8641 6154 8241 b20d de3f
00000310: 38b2 f2c0 dd83 c3c1 2e9c fc3f 3320 76c1
00000320: 2b19 79bf df5f 9ec1 d947 e1bf 48fc 25c0
00000330: 48f8 e240 f9a3 41c0 eb35 d1bf 1efd f53f
00000340: 4896 5741 5cbc 1ac2 5605 383f dade fdc1
00000350: 2501 863d 3783 75c0 0a95 eabf c6fd 21c1
00000360: d7bf 953f 009b bac1 bfc2 2741 9a85 04c2
00000370: 986e 1dc1 650b 1442 aa6e 4fc1 908c b941
00000380: 79dc 1c40 27c6 a0c1 9e89 c641 88c1 88c1
00000390: cac8 19c2 0ddd a8c1 45ee 8741 4d71 a441
000003a0: d6aa a541 8c3f 7440 2ed1 6f41 97a9 37c0
000003b0: 93de a241 c08f 5141 3a9e d040 f620 d6c0
000003c0: 3537 9cc1 3e97 4c41 d0bd da40 74e6 a541
000003d0: 66c6 2fc2 c943 ab41 34d3 9941 b6ed 4440
000003e0: e5c4 003e 8f24 3941 1cc8 813f e517 b9c1
000003f0: 22a1 aec0 875a 4140 8a6b 47c1 37da 90c0
1.112513 -0.7578004 -0.2723322 2.0675068 -1.0758674 -1.368801 -0.8616578 1.535268
0.943988 1.0948455 1.4254967 -1.1654898 1.7982984 0.30426615 -1.4597588 -0.9666904
-1.8101438 1.1655931 0.6206481 1.2641262 -2.322495 0.9022872 -0.33445853 1.7674639
0.88546616 1.2568101 -0.67028356 0.89835155 0.7292231 1.5964721 1.1796451 1.7275178
1.3133552 0.87966377 0.6446304 0.50426537 1.1176105 -2.4532542 0.44847596 -0.1109437
1.1762013 -1.6953393 1.8894762 2.5087 0.9305353 0.90871 -1.0331261 0.529244
0.44327483 0.9112716 1.3643674 -0.73744905 -0.7955817 1.6139437 -1.2930175 1.3829492
1.6850019 -0.52849174 2.0179088 2.040906 -1.8220602 0.8330809 1.8974469 -0.07222688
0.9054825 0.95656 -1.002531 -0.32650313 0.95931745 0.44454154 1.0443166 1.0097035
1.3848025 1.34277 1.4238799 -0.4948406 0.1909112 1.149157 1.01558 1.6954088
-1.1874201 0.42359787 1.4538268 1.2094672 0.71989435 1.8512443 0.20388973 0.72559977
2.5516446 3.5729666 0.952069 1.4682165 1.3127055 -0.75735813 0.6786856 -0.22992651
0.7087232 0.7872614 -1.1737273 1.2528169 1.9307057 0.5442914 -0.35286996 -1.0535058
-1.9683989 -1.1915133 -0.081731655 1.4991107 -0.30538535 -0.95934385 -0.75309694 0.92238176
0.8333732 -1.0299081 -1.1962607 -2.6252024 1.9998674 -0.9318093 -1.0329336 0.1538208
1.3442209 2.0367248 -0.48998535 1.8182597 1.6431729 0.44804996 2.0549142 1.3923867
-4.9482265 17.868275 14.755256 -4.270173 4.966507 2.581366 10.000318 -41.08192
-42.69047 -17.202448 -30.668146 26.201992 -25.06751 1.7033718 2.4982145 20.966818
3.1740646 -0.37223044 -1.0043182 -27.638258 -0.43687752 -20.542074 0.23798934 -28.011333
-32.504513 1.8565881 18.56849 6.6996 -1.9382738 -3.3367803 -4.0116477 -4.640959
-40.059036 -4.7248683 -7.4346566 -13.865526 -50.242256 13.571452 1.0648676 -2.56348
-1.3218312 18.468346 -18.253613 -30.26225 -33.254353 -0.24272911 13.554365 3.6538324
-19.692873 -9.197482 -36.54453 5.2336006 5.979475 -4.5958214 17.040783 -15.425642
0.7160122 15.408858 -6.7440004 -5.4150405 18.235703 -37.47312 -12.112423 13.921678
-30.671106 16.839624 16.2912 1.734793 -7.584255 -24.439386 1.9735162 -15.382861
-0.9730403 -19.796812 -1.7600051 -2.593523 7.092808 -3.025633 -1.634458 1.921787
13.47419 -38.683945 0.7188314 -31.733814 0.06543187 -3.8361337 -1.8326733 -10.124456
1.169917 -23.325684 10.485045 -33.13047 -9.8395 37.011127 -12.964518 23.193634
2.4509566 -20.096754 24.817196 -17.094498 -38.446083 -21.107935 16.991343 20.555323
20.708416 3.8163786 14.988569 -2.869726 20.358679 13.097595 6.519315 -6.6915236
-19.526957 12.786924 6.8356705 20.737526 -43.94375 21.408098 19.228127 3.0770087
0.1257511 11.571425 1.0139194 -23.136667 -5.4571695 3.0211504 -12.463755 -4.5266376
