model/340a.pt (torch_old, 336839 bytes, 24 tensors)

fc1.weight f4 [128, 28]
00000000: 945f c63c b07c 1f3e e758 4abe 2c75 22bd
00000010: c0bb abbe fc6e d6be 1f5e 9ebd c07d 15be
00000020: d936 5ebe 80ad 2a3e e005 d73c 8043 26bf
00000030: d083 84be eb84 d5bd 8204 293e c57b 8e3e
00000040: 3f32 c23e c280 d1bd 4a81 6ebf 6804 0bc0
00000050: 08b0 c9bf 5511 d1bf e693 35bf 9333 183e
00000060: d4fb 423d 7a1c 393c 3cd0 f1bf 11d8 5d3d
00000070: c612 443f 2b51 513f c867 553e 31fe f03d
00000080: e16a 2dbe 8caa c3be 7ca1 053e 08cc a93e
00000090: 911c 293e 7575 883e 3e21 163e 0c57 84bd
000000a0: 70a9 a9be 82c8 bebe 6bd9 193d 6b28 6bbd
000000b0: 85c3 cc3d 7365 273c 1377 9bbd 2ad9 61bb
000000c0: 1d0f 4f3e 1b6c a53e 5d0d 45be 48b7 2a3f
000000d0: 30b0 b13e 1f38 ffbc f909 973f 706c 773d
000000e0: 9662 9dbf cb0d 94bf fea7 e6be be67 103d
000000f0: 08b5 78b9 7391 853b d41a b43d 2987 10bc
00000100: 63cf 3c3d a82f b53e e753 223e 3364 b33e
00000110: b636 be3c 5b73 e8bc 9a9d 30bd ef18 9ebd
00000120: 59ce 40be 6f4f b2be 6749 f0bd 403d 32be
00000130: 7085 4e3d 976c 73be 6cfa 25bf edc9 b1bf
00000140: a034 873e ca8b 673e b8a0 b2bf ed79 f13d
00000150: 46b9 25bf aa35 16bf 0cbe 83be bd51 28be
00000160: 8552 b03d a9f9 ac3d 9e04 3abe ef85 3a3e
00000170: e10d 1e3e ee2c c93e b62a f33e 71b3 a43e
00000180: cdaa ea3c 1b31 59bd e9ef dfbd d6ae 85be
00000190: 4064 753d a998 043d a116 f93e 97a1 cd3c
000001a0: 0c0a 0c3e 43e1 15bd 30f6 8bbe bcec 4ebf
000001b0: 5771 f03e d3e1 b2bd a4d5 67bf f7d7 313b
000001c0: 97a3 5ebf af7f 6fbf 1e4e 9cbe 6bda 8dbe
000001d0: 525f 06be 8a28 6d3d 0aa1 8f3c 8b62 613d
000001e0: ad42 063f 63c6 833e d670 e6bc 574a 863e
000001f0: 8e33 4e3e 5859 633e eeec e73e 8aeb 503f
00000200: 5e4a 07bf a5e7 4bbf a88d 54be 34bf 443e
00000210: 5659 803d d078 abbc 752b 103e 0358 60bf
00000220: 4f5e a8be 4b5b a1be a75c bebf 5f9a b0bd
00000230: d9f5 83bf d0e8 b5bf 39a1 69bf 0028 bb3d
00000240: 41f7 0a3c 0684 a3bc 1b18 6b3d da36 143e
00000250: 0b86 b73d a52a 723e 0c6c 983e 0fbf bb3c
00000260: a699 24bd 9cdd 95be 713b 27bd acba 9c3e
00000270: b051 ed3d 743c 003e b4d4 c23d 00a7 0f3e
00000280: fc88 31be 6457 233d c784 18bd f21a 96bf
00000290: 566e 093f ce8f ed3d 4703 99bf 779a 2bbe
000002a0: 1e6b 6dbf 0992 2d3c 1f5b ffbd c39e 22be
000002b0: 0008 1d3e 578e 92bc ff15 593e dc50 f73d
000002c0: bc4f 5a3e fd4d bd3d 4810 873e 43b9 66bd
000002d0: 778a 72be d7c5 bfbd a6c3 70be c61d 6ebe
000002e0: 8aea 2abe 5e5b c03d a72a fcbc ed22 dfbe
000002f0: f594 83be be68 0c3d 06e8 45bf a437 8cbf
00000300: c47b 1bbe 6363 823c 800f b0bf 287f 50bd
00000310: 623b 5bbf 9952 bfbe e1d0 22be e49d 1ebe
00000320: e0f0 47be f103 073e 8b0f b63b bfab 84bd
00000330: 1043 ca3d d31a 29be 7483 0ebe a842 7abe
00000340: 29ad 88be ea53 5b3e 7621 573d c3e5 bbbe
00000350: 13e0 61be a914 64be 90cf 5dbe f5f6 fdbe
00000360: 9442 76bf 2c9b 65bf 283d 47bf 35da 7fbf
00000370: c0b9 fabe f7ff 903c ca51 8abf 4870 e13d
00000380: 3b39 cf3e cd4d e53e 9e64 d9bd 9cc5 bfbb
00000390: 4d52 02be 3bff bdbd b54c 90be d586 613c
000003a0: 65aa 3f3e b3f7 eb3e dd17 463b 0021 00be
000003b0: 5e15 29be e0e5 143e fcab 383e f353 59bd
000003c0: d4b8 ebbe d2fa 37bf 8be3 83be c2bd 153d
000003d0: 1644 ac3d 10cc 00bb c446 523d 788e 013f
000003e0: bdfb 92bf ccb5 0c3d a02b b1be 5e94 833d
000003f0: 9415 163e 65bb 48be f591 9ebd 183a 23be
0.024215497 0.15574908 -0.19760476 -0.039662525 -0.3354168 -0.4188155 -0.07732796 -0.14598751
-0.2170061 0.16667747 0.026247919 -0.64946747 -0.25881815 -0.10425743 0.16505626 0.27828804
0.3792896 -0.10229637 -0.9316603 -2.172144 -1.5756845 -1.6333414 -0.709288 0.14863424
0.047603443 0.011298293 -1.8891673 0.054161135 0.76591146 0.8176448 0.2084037 0.11767233
-0.16935302 -0.38216054 0.13049883 0.33163476 0.16514803 0.26652113 0.14661118 -0.064619154
-0.33137083 -0.3726235 0.03756086 -0.057411592 0.0999823 0.0102170585 -0.07591071 -0.0034461715
0.20220609 0.3230904 -0.19243379 0.66685915 0.34704733 -0.03115469 1.1799918 0.06040615
-1.2295711 -1.1566709 -0.45050043 0.035255186 -0.00023718562 0.004076177 0.087941796 -0.008821287
0.046096217 0.3538792 0.15852319 0.35037383 0.023219448 -0.028375318 -0.04311905 -0.077195995
-0.18828715 -0.34826228 -0.117327504 -0.17406178 0.050420225 -0.23771892 -0.6483524 -1.3889748
0.26407337 0.22611919 -1.3955297 0.117908336 -0.6473583 -0.58675635 -0.25730932 -0.1643743
0.08609489 0.084460564 -0.18165824 0.18215154 0.15434982 0.3929209 0.47493523 0.32168153
0.028645897 -0.053025346 -0.10934431 -0.26109952 0.05991006 0.03237215 0.48650077 0.025101466
0.13675708 -0.03659178 -0.27336264 -0.8082998 0.4696147 -0.08734479 -0.90560365 0.0027136782
-0.8696837 -0.93554205 -0.3052835 -0.27705702 -0.131223 0.05789999 0.017532844 0.05502562
0.5244549 0.25737295 -0.028129976 0.26228592 0.20136854 0.2220205 0.4529795 0.81609404
-0.5284785 -0.79650337 -0.20757163 0.19213563 0.062670395 -0.020931631 0.14079078 -0.87634295
-0.32884452 -0.31514964 -1.4872025 -0.08623194 -1.0309402 -1.4211674 -0.9126163 0.09138489
0.0084818015 -0.019960415 0.057396036 0.14474049 0.089611135 0.2364908 0.29769933 0.022918252
-0.040185593 -0.29270637 -0.040828172 0.3061117 0.11587846 0.12523061 0.09513226 0.14028549
-0.17337412 0.039878264 -0.037236 -1.1726973 0.53683984 0.11599694 -1.1954125 -0.16758142
-0.9274157 0.0105938995 -0.12468552 -0.15880875 0.15335083 -0.017890139 0.21199797 0.120759696
0.21319479 0.09243391 0.2637961 -0.056329023 -0.23685633 -0.09363907 -0.23512134 -0.23253545
-0.16691032 0.09392427 -0.030782057 -0.43581334 -0.25699583 0.034279577 -0.77307165 -1.095448
-0.15183932 0.015916532 -1.375473 -0.050902516 -0.85637486 -0.37367705 -0.15899993 -0.15489918
-0.1952548 0.13185097 0.005556052 -0.064780705 0.098760724 -0.16514139 -0.13917333 -0.2443949
-0.2669461 0.2141873 0.052522145 -0.36698732 -0.22058134 -0.22273506 -0.2166121 -0.49602476
-0.9619534 -0.896899 -0.7782769 -0.9994233 -0.4896984 0.017700179 -1.080621 0.11007744
0.4047335 0.4478592 -0.10614894 -0.0058524143 -0.12726708 -0.09277197 -0.28183523 0.013765057
0.18717344 0.46087417 0.0030226626 -0.12512589 -0.16512057 0.14540815 0.18034357 -0.053058576
-0.4603945 -0.71867096 -0.2575954 0.03655792 0.08411424 -0.001965288 0.05133702 0.50608015
-1.1483074 0.034353063 -0.34603596 0.06424783 0.14656669 -0.19602735 -0.07742683 -0.1594013

fc1.bias f4 [128]
00000000: 5632 06bc c2de 0e3d efa3 8cbc 63f7 aebb
00000010: 8f01 75bd 7234 6e3d f92e da3d 35d8 2bbd
00000020: 6af7 3fbe 5d99 11bd 65fc 6cbd 36e3 663d
00000030: b78a 3b3d 3234 ee3d b90c 34ba 2a3c 72be
00000040: 4c55 2ebe 25e8 95bd 76bb 0abe 1522 41be
00000050: 453b 56bd d4a5 103d ae7d ee3e ff9d 0b3e
00000060: be52 92bd 3c1c 07be 736b d4bd b4be a3bd
00000070: c82d a7bc d511 22be 9d77 7fbd ae55 bf3d
00000080: e4b1 f6bd 97b8 b7bd 32f5 703e fc79 67bd
00000090: 1352 193e 9240 0fbe 9999 f83b 28da 51bd
000000a0: 2e38 50be d785 743e 3c81 53bd 1d32 433d
000000b0: ee74 213d 4cb2 85be f62b 27bd 7e0a e83e
000000c0: 294d fa3d 148c 15bd 5b61 173e a920 0f3d
000000d0: eadc 4fbe f838 47bd f922 0e3e 8d77 52be
000000e0: c23a 5bbc 3f77 623e d796 63be c37a 0e3f
000000f0: 48d4 a43d c064 fc3b 128c 9b3d 7745 f0bd
00000100: e3a2 093e 6b1f 723e 86ea c13d dd89 4e3e
00000110: e2d2 08be 0c71 f13d 722f 44be 5633 7fbd
00000120: b63c 5ebe 5e30 90bc 2871 663d 815d 2dbe
00000130: 23e6 e2bb 15ea 10be 79e4 d6be 453c 8d3c
00000140: 0c49 72bd ba22 e0bd c97d 45bd ce32 dfbd
00000150: e6dc 653e d93f 303c 4b03 83bd c533 02be
00000160: 4c5b a83d 5d3b b7bc 96ef 63be 04e3 85bd
00000170: 6ef9 75bd 8d28 4d3c 3c12 75bd b3ed 97bd
00000180: f8ac 01be e0d7 20be 5dce 373f c8e1 363d
00000190: 9fbd c73e 566f 57bd 0b29 c53d ba12 50be
000001a0: 51bb 713d 9694 413d c647 9c3c 674b 583e
000001b0: 76fd 273d 940c c3bd e734 013d 4b37 883e
000001c0: 1746 10be b87c 083d 1550 cc3c 1a23 0b3d
000001d0: 221a 29be 40a8 c2bd 8dda 253e 8256 98bd
000001e0: a3e1 b6bd be22 6a3c 81c3 cbbc d46d cabd
000001f0: 18f4 653d 215a b13c 8f4c 1ebe 3b81 08be
-0.008190712 0.034880407 -0.017168013 -0.0053395494 -0.05981594 0.058155484 0.106534906 -0.041954238
-0.18746725 -0.03554665 -0.05785789 0.05636903 0.045786586 0.11631049 -0.0006868351 -0.23655763
-0.17024726 -0.07319669 -0.13548073 -0.18860658 -0.052302618 0.035314396 0.4658026 0.1363449
-0.07144688 -0.13194364 -0.10372057 -0.07995358 -0.020407572 -0.15827115 -0.06236993 0.09342514
-0.12045649 -0.089707546 0.23531035 -0.056512818 0.14972715 -0.13989475 0.0075866696 -0.05123344
-0.20333931 0.23879181 -0.05163692 0.047655214 0.039418153 -0.26112592 -0.04081341 0.45320505
0.122217484 -0.036510542 0.14783232 0.034943257 -0.20299116 -0.048638314 0.13880529 -0.20553418
-0.013380708 0.22115801 -0.2222551 0.5565607 0.08048302 0.00770244 0.07595076 -0.11731999
0.13441043 0.23644798 0.0946856 0.20169778 -0.13361695 0.1178914 -0.19158724 -0.062304817
-0.21702847 -0.017601188 0.056260258 -0.169302 -0.006924407 -0.14151795 -0.41971186 0.017240653
-0.059151694 -0.109441236 -0.04821566 -0.10898362 0.22447547 0.01075741 -0.063971125 -0.12715061
0.082205385 -0.022367174 -0.22259364 -0.065374404 -0.060052328 0.012521875 -0.059831843 -0.074183844
-0.12663639 -0.1570735 0.7179926 0.044648916 0.39011857 -0.052596413 0.09626969 -0.20319644
0.05901653 0.047260843 0.019077193 0.21122514 0.041013204 -0.095238835 0.031544592 0.26604685
-0.14089237 0.033322066 0.02494053 0.033969022 -0.16513875 -0.095047474 0.16196652 -0.07438375
-0.089297555 0.01429051 -0.024873497 -0.09884229 0.05614099 0.021649422 -0.15458892 -0.13330548

fc2.weight f4 [128, 128]
00000000: 22dc 9fbe 8e1f c9be 0fc1 fe3d 49fe b93d
00000010: 864c 8c3e 84c5 2cbe 215f 74be 650d ce3e
00000020: b8f6 1ebe a304 cabe 692b e0bd 95b1 f1be
00000030: d682 473e 32d6 583e 1be2 f8be 4428 21bf
00000040: 8be4 46be 5d51 833d d129 74be 1c19 26bd
00000050: 6eea 29bf 084f 2abe a1f7 903e ad9d f93e
00000060: 38da ae3d de42 07bf f0e2 013e cae9 e2be
00000070: 61b6 9e3b f9ef 81be 1da7 bbbd 1f2d b23d
00000080: 6109 be3d c2e0 0e3f 4bb7 563d d738 d63e
00000090: 3cf1 853e 97af 98be 4d82 a23e 07bb 21bf
000000a0: 2d06 39bf 17cb 033e b6d9 813d d1e4 8a3e
000000b0: cf32 0d3d 3e23 0abf 50c6 08bd 914c 21bd
000000c0: 4415 823e 161e 953c 614d 473e 6ebc b93e
000000d0: 2929 073e bff6 9d3e 786a 43bf afdf b7be
000000e0: 51f8 02bf b77c 60bd 19c1 803e 1a94 05bf
000000f0: 805a a53d 95ec b8be 9605 1c3d 8733 56bf
00000100: 6358 1f3e c00b ab3e bc96 6e3e d7f0 0d3e
00000110: 4a96 5cbd 546e 403d 5ef9 c3be 2836 a03c
00000120: fdb7 39bf 2be7 bf3e 6a8b 24bf 6b5e 28bf
00000130: d006 12bf 6533 143e a7c6 b9be 559b 583e
00000140: baf8 efbe 3b0e 25bf 0cd9 e6bd f360 e5be
00000150: ca29 8b3e 11e3 afbe 91bb 38bc 3622 38be
00000160: f012 e7be 71d6 9bbd f7f2 15bf 07f8 0b3e
00000170: 518a c9be 7add a83b b4d9 193e 26d6 05bf
00000180: 5d21 cd3e ac3b abbe 0998 bdbe ddaa d2be
00000190: 4f38 c9be 1083 15bf 08d3 b23d f0ec 4b3d
000001a0: 1159 773e ad88 033e 3e59 e43d be3e 453d
000001b0: 0dc4 623d 9bb0 e6be 3b42 23bd da36 d13d
000001c0: 55df cd3d a51a e0bd e52a d6be 14f9 2cbe
000001d0: d5cd 253e bb9f 063f 900d 603e 6b89 923f
000001e0: 0cba 78bf e5f4 debe e9ea f13e 0f3c a23e
000001f0: 7ad6 d2be 27ac d63e 3154 07bf 1f63 6abe
00000200: 385d cbbd 40b9 4bbd e79b 1cbd d6e2 823e
00000210: 33be 99be 76b4 7d3e e481 9a3d 9b09 d93e
00000220: 329d b03d 4e52 f83e 8d80 7c3d 4965 12be
00000230: e962 a33d f68d 8f3e cb4d c03d b2a5 eabe
00000240: 520f 113d 67a1 2a3d 25a0 eb3e d285 4d3d
00000250: e32d 853d dc6e f0be f66c 27be 253d 49be
00000260: 762b 44bd 0463 9e3c f573 66bd 36c1 00be
00000270: 15aa cd3e a46a 173f d7aa 0cbf 76b0 bfbd
00000280: fb7c 2b3f 527e b73e 1b81 223e 87aa 1fbe
00000290: 2d81 993e b941 833e 2a3f f2be 0ff5 0bbf
000002a0: 37fc be3e 0c26 e53e 2386 b2bc b5b0 b9bd
000002b0: 07c4 733e c5bd fcbd bd7a 5c3e 36ee bd3e
000002c0: e2b0 053e 3b65 ce3e caf6 febc 2b12 303d
000002d0: 2420 42be c159 28be 32f5 213e 694c 45bf
000002e0: 95bc 97bd fd0e df3e e02f c0be cf4d c7be
000002f0: 2d98 153f c49f aebe 3473 743e b5b2 8bbe
00000300: a021 4a3e 1f91 6e3d cd22 353e c90f 633d
00000310: 4b00 a73d e30e fa3d 48df 0a3f 2f7b f8be
00000320: b26c a63e fd43 82be b6b9 30be 4eab 3a3f
00000330: f5ff 1d3f ca82 98be bcaa 543d 4b94 403e
00000340: 9ffc 0b3f 5546 863e c0d7 203f 5225 223d
00000350: 68ab bebe 6c05 8abe 4b7b 943d 64ab 0bbf
00000360: c28d 1abf 7450 d43e b5ad ec3d 34ca c03e
00000370: a0a2 0e3d 560b 90be e42b 53be b228 a73e
00000380: 9912 a0be 0599 b4bd d63d 133e 2eb4 24be
00000390: 83e2 013f d5f5 1f3f 2dec 13be 5415 efbe
000003a0: 024d dc3e 1ef0 3ebe 02b4 6f3e fbb8 123f
000003b0: 0f5a b23d 48b6 593c 6e1e 733e 85c8 99bd
000003c0: ee40 583f 9410 9abe 7c98 333e 64bd 843e
000003d0: 5e95 bdbe 6861 ae3d 2ac6 843e 077d 3dbf
000003e0: 5ee6 d43d 7a65 e33e 5dd8 9cbc d88d f9be
000003f0: 9df1 db3e 08d0 473e ccff 4a3f 169a 8fbc
-0.31222636 -0.39281887 0.12439167 0.09081704 0.27402133 -0.16872221 -0.23864414 0.40244594
-0.15523803 -0.39456663 -0.1094578 -0.47205797 0.19483504 0.21175459 -0.48610005 -0.62952065
-0.1942312 0.06412003 -0.23844077 -0.04055129 -0.66373336 -0.1663171 0.28313926 0.4875311
0.08537716 -0.52836406 0.12684226 -0.44318992 0.0048435186 -0.25378397 -0.09162734 0.087000124
0.09279133 0.55811703 0.052420896 0.4184024 0.2616061 -0.29821464 0.31740037 -0.63176006
-0.7227505 0.12870441 0.06340353 0.27127698 0.034472283 -0.53960025 -0.03339225 -0.03937966
0.2540685 0.018202823 0.19463111 0.36276573 0.13199295 0.30852315 -0.76334333 -0.35912845
-0.5116015 -0.054806437 0.25147322 -0.5217911 0.08073902 -0.36117998 0.038091265 -0.83672374
0.1556106 0.33407402 0.23299688 0.13861404 -0.053854264 0.046980217 -0.3827619 0.019557074
-0.7254637 0.37481055 -0.6427523 -0.6576907 -0.57041645 0.1447273 -0.36284372 0.21153004
-0.4686945 -0.6447484 -0.11271867 -0.4480053 0.2718032 -0.34352925 -0.011275188 -0.179818
-0.45131636 -0.07609261 -0.5857386 0.13668834 -0.3936334 0.005153355 0.15024453 -0.5227989
0.40064517 -0.33443964 -0.37030056 -0.41145983 -0.39300773 -0.5840311 0.08731657 0.049786508
0.2415507 0.12845106 0.11149834 0.04815554 0.05536275 -0.45056614 -0.039858084 0.1021554
0.10052363 -0.10942582 -0.418296 -0.16891891 0.161918 0.5258748 0.21880174 1.1448187
-0.97158885 -0.43546215 0.47249535 0.31686446 -0.41179258 0.41928217 -0.5286284 -0.22889374
-0.099298894 -0.049737215 -0.038234618 0.25563687 -0.30027923 0.24775872 0.07544306 0.4239014
0.086237326 0.48500293 0.061646033 -0.1429645 0.0797785 0.28037995 0.09389838 -0.4582954
0.035415 0.04165783 0.46020618 0.05017645 0.06502893 -0.4695958 -0.16350159 -0.19652231
-0.04789301 0.019334324 -0.05626293 -0.12573704 0.40168825 0.59147096 -0.5494818 -0.09359829
0.6698758 0.35838562 0.15869562 -0.15592395 0.29981366 0.2563608 -0.47313815 -0.54670805
0.373018 0.4475559 -0.021792477 -0.09066907 0.23805247 -0.12340883 0.21531196 0.37095803
0.13055757 0.40311608 -0.031123538 0.042986076 -0.18957573 -0.16440488 0.15816191 -0.7706972
-0.07409016 0.43566123 -0.37536526 -0.3892655 0.58435327 -0.34106266 0.23872072 -0.2728478
0.1973939 0.058243867 0.17689057 0.055434976 0.08154353 0.12209871 0.5424695 -0.48531482
0.32504803 -0.25442496 -0.17258343 0.7291764 0.61718684 -0.29787284 0.051920637 0.1880657
0.54682344 0.26225534 0.6282921 0.039586373 -0.37240148 -0.26957262 0.07250079 -0.54558396
-0.60372555 0.4146763 0.115565695 0.3765427 0.03482306 -0.2813365 -0.20622212 0.32648236
-0.3126419 -0.08818249 0.14379057 -0.16084358 0.50736254 0.62484485 -0.14445563 -0.4669596
0.43027502 -0.18646285 0.23408511 0.5731351 0.087085836 0.013288088 0.23742077 -0.07508949
0.84474075 -0.30090773 0.17538637 0.25925744 -0.3702802 0.085146725 0.25932437 -0.740189
0.103955016 0.44413358 -0.019146139 -0.4874103 0.42957774 0.19512951 0.79296565 -0.017529529

fc2.bias f4 [128]
00000000: 8348 30bd ca6a c93b 4a23 36be 8890 c0be
00000010: 409e 13bd ae7a 3ebe 3cbd 8b3d 0c13 67be
00000020: 37f2 48be ae9d b8bc c250 afbc f001 a93d
00000030: e770 81be 72de c2be b509 033e d7a7 303d
00000040: f701 a23e 2bcf 1abd 0dd6 f73d c612 22bd
00000050: 72a9 d43d 099d e9bd 775c 45bd 82f6 253d
00000060: d02a 64be 8359 5bbd 3b84 963a 8b8e cb3b
00000070: b4fc 7b3d eb08 223e cf50 88be 3ecb 22be
00000080: c388 a1bc e54f 58bd 6b6d 36bd c884 10be
00000090: e4b0 88be 3075 b23e c18c 47be b2f3 d0be
000000a0: 2bdd 843e 143f 683e 5664 62be 2d46 c8be
000000b0: 73c8 adbe ece0 813e 5932 7f3d f0b3 273d
000000c0: 060e 85be a328 793b 4565 30be 0204 9c3c
000000d0: dcc8 73be 6fd1 d5bc c488 0e3e 2d9a 7bbe
000000e0: 2232 bc3e b457 fa3d b286 adbd e8fd afbe
000000f0: d1e1 6abc be87 173d cffa b0bd ceb3 c83d
00000100: 3bc0 7dbe e46c 8f3d 8d12 933e 33b6 1ebe
00000110: 2365 a23d 8f37 8fbe dd5b 933e 94a4 273b
00000120: ee5b bd3e 12f0 b03d 635b 513e c5d7 9e3e
00000130: 3820 f73c e182 393d 6357 27be 7e2d 04be
00000140: 91ed 0d3e 99a7 953e 6405 793e 21fd 5cbd
00000150: 764e a6bd d83b 85bd 2ac9 97be 2bad f1bd
00000160: 0c72 45be 3673 dbbe a420 7e3e d6fd b33d
00000170: 8627 73bd 99cb 9ebc 0e73 70be 78dd 9f3d
00000180: d9b2 9fbe 29ac bfbd 00cd 9a3d 2f65 62bc
00000190: 8443 6e3d b209 863e a97f 303b df14 16be
000001a0: 498e e73d 01b5 acbe 276c 3abe 3de3 29be
000001b0: 4c22 a7bd 6a87 b03d db4b 973d 8629 aa3c
000001c0: 4049 6f3d 979e 2abe c50a 803d e5da 053e
000001d0: ad87 2fbe 4f41 29be b51e ae3d a9a9 ebbd
000001e0: 843d 893d d711 773e 6ed8 b23b 6899 84be
000001f0: ad8c 893e a86d 67be 2663 933d 8266 803e
-0.043037903 0.0061467635 -0.17786899 -0.3761027 -0.03603959 -0.18601486 0.06823203 -0.2256586
-0.19623648 -0.022536125 -0.021400813 0.08252323 -0.2528145 -0.38060337 0.12796672 0.043128815
0.31642124 -0.037795227 0.12101374 -0.039568685 0.10383882 -0.11406905 -0.048183884 0.04051829
-0.22281957 -0.053552162 0.00114835 0.006212061 0.061520293 0.15823714 -0.26624152 -0.15897843
-0.019718533 -0.05281057 -0.044537943 -0.14113152 -0.26697457 0.34855032 -0.19487287 -0.40810925
0.25949988 0.22680312 -0.22108588 -0.3911604 -0.33941993 0.25366914 0.062303875 0.040943086
-0.25987262 0.0038018606 -0.17226131 0.01904488 -0.2380709 -0.026100842 0.1391936 -0.24570532
0.36756998 0.12223759 -0.08472957 -0.34373403 -0.014336065 0.03699469 -0.08641588 0.0979992
-0.24780361 0.07003191 0.2872509 -0.15499191 0.079294465 -0.27972075 0.28781024 0.0025580274
0.369842 0.0863954 0.20445018 0.31023994 0.03016673 0.04529083 -0.16341929 -0.12907979
0.13860156 0.2922943 0.24318463 -0.05395234 -0.08120434 -0.06505555 -0.29645663 -0.11800607
-0.19281787 -0.42861336 0.24817139 0.0878865 -0.059363864 -0.019384192 -0.2348139 0.07805914
-0.31191137 -0.09359009 0.07558632 -0.013818069 0.058169857 0.26179272 0.002693156 -0.14656399
0.113064356 -0.33731845 -0.1820532 -0.16590591 -0.081608385 0.08619578 0.07387515 0.020771753
0.058419466 -0.1666206 0.06252054 0.13071783 -0.171416 -0.1652882 0.08501951 -0.115069695
0.06701186 0.24127899 0.0054579293 -0.2589829 0.2686514 -0.22600424 0.071966454 0.25078207

out.weight f4 [5, 128]
00000000: 6bbd 7e3f ae2b a7be cb91 d6be 638a b83e
00000010: deff 84bf ed64 15bf 117c f8bc d1b3 393f
00000020: 3711 843f 8d12 2c3f 2549 663f 5676 38bf
00000030: 6716 d73e 1156 42be f181 3cbf 1be3 50bf
00000040: a7d3 34bf 650d 563f c1bd 633f 0bd9 3a3f
00000050: 5732 b03c 2e08 2c3e c31a 8abe 315a 373f
00000060: 0e59 593f 67f8 2e3f e903 07bf 4fd3 d4be
00000070: d335 783f d8cf b13e 0100 d03e 0e9a 2a3f
00000080: a8d5 433f 5c8d 343f e7ca 2a3f db96 023f
00000090: 94dc 2b3f e675 13bf b5e3 503d 1674 333f
000000a0: 4773 423e e631 eebe 0b0f 9a3e 6117 253f
000000b0: ef71 153f 568f 483e 7e55 00bf f29e 0f3e
000000c0: 4969 fb3e 9aa1 583f af09 413f cb3c 07bf
000000d0: 835d 41bf 34f2 523f a122 5cbe 5505 213f
000000e0: ae59 4d3f 5a30 c1be 4a38 4e3f 9bf4 173f
000000f0: b3bd 1ebf 0e62 6a3f ca5a 643f 09d3 d23c
00000100: 6b29 383f fb5f 70bd 919f 08bf 9123 2ebf
00000110: 6ff4 5d3f 48d9 063f abe4 243f 5d1c 433f
00000120: 0129 8c3f c9d9 813f 070a 263f fbc0 8b3e
00000130: 051c 9dbd 56b7 753f 65c2 e53e 50e2 583f
00000140: 1b42 a3be 8eab 553f c4d8 6f3f 5a92 3d3f
00000150: a524 0f3f 3168 243f acd0 fd3e a38a fc3e
00000160: ae17 133f 5960 d33e a089 e8bd de42 4d3f
00000170: a844 7f3f 1147 47bf af0b a23e 3f58 e3be
00000180: a409 41be f1b6 103f 84a0 27bf 9a3f 363f
00000190: 2201 873f 7d87 2c3f 155b e2be 7371 0dbf
000001a0: f485 6cbf 7718 2dbf 7b9c d2be ee4e 1f3f
000001b0: 0589 a7be 396e 2ebf 1ca1 99be b422 1b3f
000001c0: 908c 553f 5548 42bf bc19 a7bd 4fc2 05bf
000001d0: a6cc 463f f1ac 3abf f36c ffbd e939 0abf
000001e0: 2e22 a83c e480 6e3e e00e a7be e2cd 1e3f
000001f0: da54 773f f930 223f dcad ff3e 6c5d 9a3f
00000200: a259 e03e 64f5 2cbf f9bf 93be 5c89 013e
00000210: 69e5 25bf d211 a1be f3e7 23bf a38a 9e3e
00000220: 7a50 713e 05b3 bb3e f01c 833e c87a 65be
00000230: c917 c63e acc2 1abd 42e2 06bf 869c 0cbf
00000240: fabb debe 8ce1 d33e 6862 bd3e 78e4 ed3d
00000250: 5438 fbbe 7b29 b63e efbc d7be 6f17 973e
00000260: 94d2 833e 6387 b73e 8aeb 11bf a559 28bf
00000270: 8a51 eb3e 4881 b43e 8499 913e 6915 a03e
00000280: 1247 ee3e 08ba 963e ed30 4a3e 2524 ce3e
00000290: d623 893e 333f b1be eaf3 8a3e 7e4c 5c3f
000002a0: 9753 d8be ff98 cdbe 9108 5f3e 0ad7 5e3e
000002b0: 0f45 ac3e f9a8 11be 88f9 bcbe 5c44 54be
000002c0: 6f34 a43e bf5c 4e3e 17f2 ca3e fb8a b7be
000002d0: 14d8 e5be accd c13e da66 11bf 0880 5d3e
000002e0: 421f 023e c8c4 17bf e799 8c3e 0f8f c13e
000002f0: cce3 cbbe 0ff5 163e 14a0 cb3e a2df ffbe
00000300: 3d11 a93e f90b b2be 88af a7be 9b3f 8fbe
00000310: 5767 7f3e d8bb 0a3e 21d3 9a3e ce0c 3e3f
00000320: 9e32 1f3e 6547 293f bf60 793e 2dbc 7fbe
00000330: b2d1 08bf 63f6 a53e ca6d aa3d 6e5f 323e
00000340: efdf 0fbf bcc3 d53e dd11 cd3e 2ade d13e
00000350: a949 a33e f5f0 2a3d a53f ec3e a7ee 6d3e
00000360: 2ac7 95bd 1a58 e03d 3211 f1be b509 0a3e
00000370: 249d df3d 62b0 43bf 5b6a b33e 25d2 05bf
00000380: f10d 8dbe 3fd4 ab3e f681 0cbf 2e29 da3e
00000390: 18a3 c9bd e802 5c3e ecbd e0be 4ff0 e4be
000003a0: af22 06bf 8986 d6be 2c0c dbbe 0498 8f3e
000003b0: 343a eebe b4f0 0ebf c49b 52be bffa e63e
000003c0: 62bf 0e3e 44a4 7cbe 33f4 2ebf b3c4 e0be
000003d0: 3efd 653e b58e a3be 4bc4 f6be 7367 49be
000003e0: 0a6d bbbd f1c3 12bf d3ca c3be a798 2f3e
000003f0: 4439 cd3e f228 b7bd 513c ab3d 742e 103d
0.9950778 -0.32650512 -0.41908106 0.3604308 -1.0390584 -0.58357126 -0.030332597 0.72540003
1.0317754 0.67215806 0.8995536 -0.72055566 0.4200928 -0.18978144 -0.73635775 -0.81596535
-0.70635456 0.8361419 0.88961416 0.7298743 0.021508379 0.16799995 -0.26973543 0.71621996
0.8490151 0.6834778 -0.5274034 -0.41567466 0.9695713 0.34728885 0.40625003 0.6664132
0.7649789 0.705282 0.66715854 0.5101144 0.6713345 -0.57601774 0.05099841 0.7009901
0.18989287 -0.46522444 0.30089602 0.644888 0.58376974 0.19585928 -0.5013045 0.14025477
0.49103764 0.84621584 0.754054 -0.5282714 -0.7553331 0.8240082 -0.21497585 0.6289876
0.80214965 -0.37732202 0.8055464 0.59357613 -0.6200821 0.9155587 0.89201033 0.025735395
0.719382 -0.058685284 -0.5336848 -0.6802302 0.867011 0.52675295 0.6441142 0.76215154
1.0950013 1.0144588 0.6485905 0.2729567 -0.0767136 0.95982873 0.44874874 0.84720325
-0.31886372 0.83464897 0.93690133 0.7405144 0.5591529 0.64221483 0.49573267 0.4932452
0.5745801 0.41284445 -0.11354375 0.80180156 0.99714136 -0.77842814 0.3164954 -0.44403264
-0.18851334 0.56529146 -0.654793 0.711908 1.0547221 0.6739424 -0.44210115 -0.55251235
-0.92391896 -0.67615455 -0.4113501 0.6222981 -0.32721725 -0.68136936 -0.3000573 0.6059983
0.83417606 -0.7589162 -0.08159205 -0.52249616 0.7765602 -0.7292014 -0.12471952 -0.53994614
0.02052411 0.23291355 -0.32628536 0.620329 0.9661385 0.63355976 0.49937332 1.205976
0.43818384 -0.67561936 -0.288574 0.12650055 -0.6480318 -0.31458908 -0.640258 0.30965146
0.23565856 0.3666002 0.25608015 -0.22410119 0.38690022 -0.03778331 -0.5268899 -0.54926336
-0.4350279 0.41383016 0.3698914 0.116158426 -0.49066412 0.35578522 -0.42136332 0.29510066
0.25746596 0.3584548 -0.5700003 -0.65761787 0.45960647 0.35254884 0.28437436 0.31266335
0.46538597 0.29438806 0.19745226 0.4026195 0.26785153 -0.3461853 0.27139217 0.8605422
-0.42251274 -0.4015579 0.21780612 0.21761718 0.33646438 -0.14224614 -0.36909127 -0.20729202
0.32071254 0.20152567 0.39637825 -0.3584822 -0.44891417 0.37852228 -0.56797564 0.21630871
0.12707236 -0.5928464 0.27461168 0.37804458 -0.39822233 0.1474192 0.39770567 -0.49975306
0.33020964 -0.3477476 -0.32751107 -0.27978215 0.24941765 0.13548219 0.30239204 0.7423829
0.15546653 0.66124564 0.24353312 -0.24974127 -0.5344497 0.3241454 0.08321722 0.17419216
-0.5620107 0.41750896 0.4005269 0.4098981 0.31892136 0.0417337 0.46142307 0.2323557
-0.07313378 0.10954304 -0.4708343 0.13480265 0.10918644 -0.76441014 0.3504208 -0.5227378
-0.275497 0.33560368 -0.54885805 0.42609543 -0.09845561 0.21485484 -0.438949 -0.4471459
-0.5239667 -0.41899517 -0.42782724 0.28045666 -0.4652878 -0.55836034 -0.20567232 0.4511318
0.13940194 -0.24672037 -0.6834137 -0.4390007 0.22459885 -0.31944814 -0.48196635 -0.19668369
-0.09151657 -0.5733023 -0.3824068 0.17148076 0.40082753 -0.089433566 0.08361114 0.03520055

out.bias f4 [5]
00000000: 4e53 87bf 32c4 ae3f 5274 6e3f b329 583f
00000010: 54aa b5bf
-1.0572298 1.3653624 0.9314624 0.8443863 -1.4192605

exp_avg_sq f4 [128, 28]
00000000: 3ab3 a23c 0646 553c 066b d03b 36c7 da3b
00000010: f54c 0b3b 5142 fc3b 7aed 223e 1bda 373e
00000020: 2ff2 c33d 0fe3 653d da22 1f3d 0378 0c3d
00000030: 7b4c 0a3d 8779 1c3d badc 613d 79c2 cf3d
00000040: 2161 9c3e 79a7 253f 5a52 cd3b 4125 883a
00000050: a079 b23b 4251 823b 930c 8d3b cc20 a43c
00000060: d09e 3a3d 2a32 e83f 2cdf 8a3a 300b 9a41
00000070: 8dcb cf45 a5f0 8245 d2c2 cf45 f0dc ec45
00000080: 61a6 2946 8780 6847 a05a 1649 159a ce48
00000090: 637d 0148 9952 aa47 ae8c 8447 88fa 5347
000000a0: acb2 b748 2c6d 8f48 8475 f247 e90c 8d47
000000b0: dec9 5047 0358 5347 41e6 4847 336c 7647
000000c0: 49c2 b547 96d6 2948 5d7a 1848 2441 cf45
000000d0: 0bc4 e448 b56e 3749 da44 bf44 be21 6d4b
000000e0: cb57 8443 21f2 8a43 3631 6744 6eb4 ec44
000000f0: ceec 3f45 c07b 5e45 387b 9845 cc86 ad45
00000100: 0c5a f645 810e 5b46 d289 4346 6888 de45
00000110: f9b6 0e46 e729 2746 9212 1046 200f c745
00000120: 5944 4845 3dd4 0d45 68a4 3945 7202 5a45
00000130: 65db 8745 fc0a 3845 97d0 1f44 a0e9 8343
00000140: d2b7 0246 2268 7647 531f 1043 7966 7f48
00000150: 8505 cc45 26fb 8c45 39f0 5245 e308 8845
00000160: acf2 1446 6c30 3d46 1858 5f47 0306 5447
00000170: aada c847 b4b2 3348 f97a 4248 8294 6548
00000180: b9ac 3d48 a262 e247 f2e7 7747 328c 7447
00000190: 4a16 c947 c769 4648 fcb0 e447 007b a347
000001a0: f8fc be47 79c3 7747 cf68 bc46 838f c945
000001b0: 52c5 5b48 fd8d 8a49 6579 fb44 02a9 7249
000001c0: d8de 1348 d36b 1b46 cdd2 3845 f8ae 5545
000001d0: 6327 8245 0863 f245 ccbd fe46 9b75 8c48
000001e0: 3c19 c248 694d 0f48 54c7 4f47 3a79 fa46
000001f0: 5215 1347 d338 0547 7ced 7048 a04f 1548
00000200: 5c61 7447 781c 1c47 3d9d 0147 976f 0047
00000210: 35ff 0e47 67be 4047 2194 8947 5395 1348
00000220: b5d4 5148 e10f c248 3033 f144 a139 5849
00000230: 69cf a744 297f 6c44 2c50 1444 0e6a 4344
00000240: d26b d044 305e 0b45 8cd8 4346 266b 7346
00000250: 1192 a746 1aea 3447 b520 2747 176d 6947
00000260: 6cb9 4247 9868 ae46 c157 5f46 d7cc 8046
00000270: 235e db46 e4c9 4e47 d86d a046 34e9 8f46
00000280: 03dc 9346 aa69 2a46 c91c 8445 49cf a444
00000290: 0196 5547 4769 6648 1f9c d243 4276 1548
000002a0: b956 8b3d c6e2 9d3d a120 f33d f4b7 9f3e
000002b0: de8c 3b3f 5d94 b83e 3869 8840 71ec 9840
000002c0: d79e 2340 2a6e be3f e9d1 983f f0d0 903f
000002d0: 5f39 7c3f 6f7b 873f 316e bd3f 3dd1 2940
000002e0: e33e fa40 f45a 8841 32c6 a33e d50d 373d
000002f0: 1a42 193e 3697 da3d 2b28 a63d c278 953d
00000300: 01ae a83f c5f8 4642 51d8 f73c 6eba 0144
00000310: ba03 5c43 6881 3b44 9924 ca45 7aa8 dc45
00000320: 5dc1 bb45 f9cc 3d45 8fd4 d144 a081 ae44
00000330: c355 9d44 c4dd ab44 26d1 d944 e1fe 3245
00000340: 3041 db45 b2e4 9946 ff07 f245 6cc8 1444
00000350: d33d af43 013b da43 3b6b ae42 6357 8f42
00000360: 74c2 8d42 28f4 b742 5cbe ec42 9b34 6643
00000370: 4621 7a44 f77b 5847 7333 8042 d481 5249
00000380: bc4d 0447 55d6 f645 7846 f345 1312 f045
00000390: 4589 f045 acaf 8e46 6b8b 0048 ed9f 0048
000003a0: 6bcc af47 7296 1147 6026 b546 1ce5 bd46
000003b0: ddb6 3f48 e03a 0d49 ea00 4d48 60c7 a447
000003c0: 0fdb 8d47 4806 2948 5d8d 0249 290a c047
000003d0: b193 0847 2a8c 4647 4562 2547 709c 0447
000003e0: 3d24 e248 98ba 6f49 d64f de44 224a 964a
000003f0: 2df2 f23e 2506 dc3e d4b3 ea3e d103 f13e
0.019860853 0.013017183 0.0063604144 0.00667658 0.0021255587 0.007698335 0.15910903 0.17954294
0.09567677 0.056124743 0.038851596 0.03429414 0.033764344 0.038201835 0.055142142 0.101445146
0.30542853 0.6470867 0.0062659206 0.0010387079 0.0054466277 0.003976972 0.0043044775 0.02003517
0.04556161 1.8140309 0.0010595075 19.255463 6649.444 4190.0806 6648.3525 7579.617
10857.595 59520.527 615850.0 423120.66 132597.55 87205.195 67865.36 54266.53
376213.38 293737.38 124139.03 72217.82 53449.867 54104.01 51430.254 63084.2
93060.57 173914.34 156137.45 6632.1426 468512.34 751339.3 1530.1516 1.554067e+07
264.68588 277.89163 924.7689 1893.6384 3070.8003 3559.7344 4879.4023 5552.8496
7883.256 14019.626 12514.455 7121.051 9133.743 10698.476 9220.643 6369.8906
3204.2717 2269.265 2970.2754 3488.1528 4347.4243 2944.6865 639.2592 263.8252
8365.955 63080.133 144.12236 261529.89 6528.69 4511.3936 3375.014 4353.111
9532.668 12108.105 57176.094 54278.01 102837.33 184010.81 199147.89 235090.03
194226.89 115909.266 63463.945 62604.195 102956.58 203175.11 117089.97 83702.0
97785.94 63427.473 24116.404 6449.939 225045.28 1.1350396e+06 2011.7936 993936.1
151419.38 9946.956 2957.175 3418.9355 4164.9233 7756.379 32606.898 287660.84
397513.88 146741.64 53191.33 32060.613 37653.32 34104.824 246709.94 152894.5
62561.36 39964.47 33181.24 32879.59 36607.207 49342.402 70440.26 151125.3
214866.83 397439.03 1929.5996 885658.06 1342.4816 945.9869 593.2527 781.6571
1667.3694 2229.8867 12534.137 15578.787 21449.033 46314.1 42784.707 59757.09
49849.42 22324.297 14293.938 16486.42 28079.068 52937.89 20534.922 18420.602
18926.006 10906.416 4227.598 1318.4777 54678.004 235941.11 421.2197 153049.03
0.068036504 0.07709269 0.11871458 0.31195033 0.7326182 0.36050692 4.262844 4.7788625
2.5565698 1.4877369 1.193906 1.1313763 0.9852504 1.0584544 1.4799253 2.653396
7.8201766 17.04441 0.3198715 0.044690926 0.14966622 0.106733724 0.0811313 0.07298423
1.3178102 49.74294 0.030254515 518.91296 220.01456 750.022 6468.5747 7061.0596
6008.1704 3036.8108 1678.6425 1396.0508 1258.68 1374.9302 1742.5359 2863.93
7016.1484 19698.348 7744.9995 595.1316 350.483 436.46097 87.209435 71.67068
70.87979 91.97687 118.371796 230.20549 1000.5199 55419.965 64.10049 862237.25
33869.734 7898.7915 7784.8086 7682.2593 7697.1587 18263.836 131629.67 131711.7
90008.836 37270.445 23187.188 24306.555 196315.45 578478.0 209923.66 84366.75
72630.12 173081.12 534741.8 98324.32 34963.69 50828.164 42338.27 33948.438
463137.9 981929.5 1778.4949 4.924689e+06 0.4745039 0.42973438 0.45840323 0.47073224

exp_avg f4 [128, 28]
00000000: 0400 0000 0400 0000 0400 0000 0400 0000
00000010: 0400 0000 0400 0000 0400 0000 0400 0000
00000020: 0400 0000 0400 0000 0400 0000 0400 0000
00000030: 0400 0000 0400 0000 0400 0000 0400 0000
00000040: 0400 0000 0400 0000 0400 0000 0400 0000
00000050: 0400 0000 0400 0000 0400 0000 0400 0000
00000060: 0400 0080 0400 0000 0400 0000 0400 0000
00000070: 4a0b d1c0 3479 10c1 81d6 2dc1 bef9 88c0
00000080: bd9d 7ebf a33a 32c0 b5da a6c0 9ab5 d3c0
00000090: 6c40 25c1 a544 30c1 e1fd 87c1 62d0 9fc1
000000a0: 0f29 7fc1 9cc4 00c1 e945 c3c0 2fb0 06c1
000000b0: b0d9 82c1 808b 5dc1 212a 2fc1 6032 0bc1
000000c0: c1d7 efc0 ba94 11c1 37a4 cdc0 d8d0 d3c0
000000d0: 948f 7dc1 bfee 19c2 e0e4 a0bf b1e9 61c2
000000e0: f6bd af3e c651 2a3f f6c7 4a3f f24d 05c1
000000f0: d67f f7c0 29af 8740 a646 fa40 849f 7c40
00000100: e824 cc3f f6de 1d3f 3b05 6ac0 146a 0740
00000110: eef9 c9c0 5e70 3ec0 0e5f 89c0 e703 0840
00000120: 6607 0840 da4e 1540 c1cc df3f 410e 3040
00000130: 96e9 c240 7ca2 5341 4504 a03e 6f71 fc3e
00000140: 6edf 02bf a5d8 f63f 87c1 053f 72cb 4041
00000150: 77d1 9841 a0cc 4f41 f152 2c41 a15c 3841
00000160: 8cbe 6541 76f1 5841 aa13 7e41 5a14 2a41
00000170: 5c2b f540 1486 c441 9c0a a842 63ae d942
00000180: 3e34 9742 b85a 2842 c093 f141 15eb 3642
00000190: fae0 c342 e535 ab42 22fc 4e42 ef35 0f42
000001a0: 94d0 0742 0675 0042 d68f cd41 fc18 9b41
000001b0: 372d d642 2f81 1a43 4a51 c740 a8d6 4843
000001c0: e752 93be 28f3 83be 4b62 3fbe 11a6 52be
000001d0: 0ec5 87be 8881 efbe a949 99bf 5395 43be
000001e0: f093 0940 338a 4ac0 c3e8 2ec0 654e cfbf
000001f0: 1d67 53c0 c25b 42bf 7a04 40be f7de 61c0
00000200: 6d83 eabe e62e aabd 4b5e d4bc 5241 ac3c
00000210: 4629 283d c5ab a0be f146 94bf df94 72be
00000220: cc01 09c0 ede4 8cc0 13f2 2dbe 1d19 27c0
00000230: 2686 e440 49bd 8440 9efb 3840 66d4 1c40
00000240: fcc9 0e40 29e9 0940 7ed2 1240 fb55 4640
00000250: 8fdf 4040 ea73 0641 2947 1a42 99a3 2b42
00000260: b801 d041 f3f2 7341 e57c 1e41 62bb 8f41
00000270: 8e7b 3742 c09f 0642 039d a641 89e6 5d41
00000280: 8c34 3f41 67a9 2841 58f4 2541 2e48 e840
00000290: 24c6 2e42 b0b7 6242 c2b0 0b40 183e 9042
000002a0: 0400 0000 0400 0000 0400 0000 0400 0000
000002b0: 0400 0000 0400 0000 0400 0000 0400 0000
000002c0: 0400 0000 0400 0000 0400 0000 0400 0000
000002d0: 0400 0000 0400 0000 0400 0000 0400 0000
000002e0: 0400 0000 0400 0000 0400 0000 0400 0000
000002f0: 0400 0000 0400 0000 0400 0000 0400 0000
00000300: 0400 0080 0400 0000 0400 0000 0400 0000
00000310: 0400 0000 0400 0000 0400 0000 0400 0000
00000320: 0400 0000 0400 0000 0400 0000 0400 0000
00000330: 0400 0000 0400 0000 0400 0000 0400 0000
00000340: 0400 0000 0400 0000 0400 0000 0400 0000
00000350: 0400 0000 0400 0000 0400 0000 0400 0000
00000360: 0400 0000 0400 0000 0400 0000 0400 0000
00000370: 0400 0080 0400 0000 0400 0000 0400 0000
00000380: 1900 35c1 184a 6cc1 8b40 8ec1 1cb3 55c1
00000390: 65a3 21c1 dc47 f0bf 19b7 25c0 d573 d1c0
000003a0: c470 52c1 ebfa 88c1 c275 6dc1 e2a8 a3c1
000003b0: 66d4 d7c2 bf2d a8c2 ea1f eec1 5f8a cdc1
000003c0: 1e43 02c2 6a8d 84c2 9ef9 bec2 5f21 d2c1
000003d0: 7e58 aec1 a7bd 8cc1 35b2 2dc1 29cb 39c1
000003e0: 49d2 a142 6d12 e5c2 5868 97c0 fd55 77c3
000003f0: 1334 2203 815c 1a03 676d 1f03 a78e 2103
6e-45 6e-45 6e-45 6e-45 6e-45 6e-45 6e-45 6e-45
6e-45 6e-45 6e-45 6e-45 6e-45 6e-45 6e-45 6e-45
6e-45 6e-45 6e-45 6e-45 6e-45 6e-45 6e-45 6e-45
-6e-45 6e-45 6e-45 6e-45 -6.532628 -9.029591 -10.864869 -4.280486
-0.9945944 -2.784829 -5.2141976 -6.615918 -10.328228 -11.016759 -16.998964 -19.97675
-15.947524 -8.048 -6.102284 -8.418014 -16.356293 -13.846558 -10.947785 -8.699799
-7.495087 -9.09881 -6.4262958 -6.6192436 -15.847553 -38.48315 -1.2569847 -56.478214
0.34324616 0.66531026 0.79211366 -8.33153 -7.734355 4.240132 7.821124 3.947236
1.5948763 0.61668336 -3.6565692 2.1158495 -6.311759 -2.9756083 -4.2928534 2.1252382
2.1254516 2.3329377 1.7484361 2.75087 6.091014 13.227169 0.31253257 0.49305293
-0.51122177 1.9284865 0.52248424 12.049669 19.102278 12.987457 10.770249 11.5226145
14.35902 13.55895 15.879801 10.629969 7.661543 24.565468 84.02072 108.8406
75.602036 42.088593 30.197144 45.729572 97.93941 85.60526 51.746223 35.80267
33.95369 32.11428 25.695232 19.3872 107.08831 154.50462 6.228673 200.8385
-0.28774187 -0.2577145 -0.1868984 -0.20571162 -0.26517528 -0.46778512 -1.1975604 -0.19099931
2.1496544 -3.164685 -2.7329566 -1.6195799 -3.3031685 -0.7592126 -0.18751708 -3.5292337
-0.45803395 -0.083097264 -0.025923869 0.02102724 0.041054986 -0.3138105 -1.158415 -0.23689602
-2.1407347 -4.402945 -0.16986875 -2.6109078 7.1413755 4.148106 2.8903575 2.4504638
2.2310781 2.154856 2.2940974 3.0989978 3.013645 8.403299 38.569492 42.909763
26.00084 15.246814 9.905492 17.966496 45.87066 33.656006 20.826666 13.868783
11.950329 10.541358 10.372154 7.258811 43.693497 56.679382 2.1826634 72.12128
6e-45 6e-45 6e-45 6e-45 6e-45 6e-45 6e-45 6e-45
6e-45 6e-45 6e-45 6e-45 6e-45 6e-45 6e-45 6e-45
6e-45 6e-45 6e-45 6e-45 6e-45 6e-45 6e-45 6e-45
-6e-45 6e-45 6e-45 6e-45 6e-45 6e-45 6e-45 6e-45
6e-45 6e-45 6e-45 6e-45 6e-45 6e-45 6e-45 6e-45
6e-45 6e-45 6e-45 6e-45 6e-45 6e-45 6e-45 6e-45
6e-45 6e-45 6e-45 6e-45 -6e-45 6e-45 6e-45 6e-45
-11.312524 -14.768089 -17.781515 -13.356228 -10.102391 -1.877193 -2.5893004 -6.5453897
-13.152531 -17.122519 -14.841249 -20.457462 -107.91484 -84.08935 -29.765583 -25.692564
-32.565544 -66.2762 -95.48753 -26.266294 -21.79321 -17.592604 -10.856008 -11.6121
80.91071 -114.53599 -4.7314873 -247.33589 4.76673e-37 4.536272e-37 4.685149e-37 4.7477404e-37

exp_avg_sq f4 [5, 128]
00000000: 9f8a 9145 4b30 7943 fd1e c242 10d1 0243
00000010: 92c7 3f45 665f 8c44 f36d 6044 024b 8645
00000020: d824 d145 321e 2c45 78c7 e145 a3ae b844
00000030: e26c ca44 077b 8044 64ab 5d44 fa50 ee44
00000040: ccfc c344 3e72 fd45 66d7 6345 a9f6 0745
00000050: 71bb 1344 f260 8243 fabb a142 4512 a944
00000060: eb4b aa45 a437 b645 4266 b844 75b3 cc43
00000070: 7e79 2e45 1042 2c44 8cfd eb43 2d88 ae45
00000080: 7f85 7d45 d4e7 f544 880e 3545 2acc af44
00000090: e678 9445 842a 5c44 5f70 ab43 db78 5b45
000000a0: 73eb 2845 5d28 c244 b3ba a943 256d 0645
000000b0: 8650 8245 70e0 2345 5f38 cd42 0047 5b43
000000c0: 12bd 1c44 2e26 8545 c4ed 2b45 6d6d 5d44
000000d0: 7854 a944 11ff 2745 3f88 b243 2922 4945
000000e0: a30b f245 bb61 a543 ad4b b645 9d5d c344
000000f0: 68a0 f244 935b dd45 ff6b ef45 0e7a 7844
00000100: d257 6945 eb26 dd43 3078 b144 cbeb 6244
00000110: 17b6 f345 1195 2244 4f0f b345 e8e6 2145
00000120: b657 6f46 9012 df44 6d4c 5b45 77bd f744
00000130: c523 1344 77ff 8145 e2d0 f443 5bbf 8945
00000140: eea9 7343 41dc b645 d69f 1e46 7e7a a945
00000150: e975 a544 f411 0346 44c4 8b44 ae8a 1144
00000160: 11a7 1a45 10ac cc43 cf56 2e43 bfdb 4746
00000170: 9289 1c46 aa9f 1445 ff67 5d44 72f1 0c43
00000180: 2281 a044 f420 ee44 d93c a743 fcda 7a45
00000190: ce6a 1c46 a90c 5545 604c 0144 5b4c 8d44
000001a0: 29e3 5d45 9a29 7b44 a92a ca43 ac9d 5d45
000001b0: f93d a943 e854 5d44 2c23 0344 7df6 ae44
000001c0: 0128 9645 0b3d 9744 03e2 5044 32bc 2544
000001d0: 7ac2 5e45 df28 7d45 2ca4 8544 496d 3243
000001e0: 5e9d 3f44 05f1 0e45 b4c5 df43 605c 0245
000001f0: 0149 2646 674a e344 98a5 8845 25aa 0646
00000200: 56ab a947 4cdb bd46 0a5d 4646 5ec1 3046
00000210: 4225 5146 4cb9 a646 e649 2346 fbbd 3947
00000220: 340f c847 0243 4a47 c216 7547 9519 b946
00000230: a548 a146 ccb5 6645 1a94 2147 8670 4047
00000240: 9ce9 6547 b30f 0747 1285 6547 61a7 5947
00000250: b435 5546 ad74 6e47 44eb 4546 5d94 2547
00000260: 3968 3747 2722 a447 c9ba da46 ede7 df46
00000270: a226 0047 091a db46 c892 0d47 caec 4f47
00000280: e675 8247 4555 5a47 dd01 1e47 c475 1e47
00000290: d02b 1f47 45df 0647 71d4 3746 5837 6946
000002a0: 5237 3646 e8c4 0a47 62bf 0f47 a8b9 1347
000002b0: bbf1 1747 3fbf c844 6000 2447 2324 d346
000002c0: 2db8 fc46 52f7 7c47 e500 4747 1b4c d446
000002d0: 335d 9246 0f7a 6547 c597 f646 4695 3c47
000002e0: d372 3747 ee75 4e46 7ce3 5447 9a1d 2747
000002f0: 8a12 b447 64d6 9a47 8b6b a347 94b6 a646
00000300: 3c16 8147 eb64 ef46 ea93 4247 28d9 7f46
00000310: f24c 9f47 69b1 1f47 f8e3 0047 31f5 3147
00000320: 2967 8f46 eb5f 1047 a29d 5847 fad4 1f46
00000330: 2aed a046 fd63 3647 cf02 d846 bf14 9447
00000340: 82dc b046 94b1 4347 6861 6847 e509 5a47
00000350: d103 a947 244d 9245 e31a 0647 1c9f 0e47
00000360: 7b99 0647 854b e446 29d2 8546 d39e c547
00000370: b0c7 ad47 0f96 dc46 8996 1047 9ff9 2247
00000380: c2ea 9644 6ea5 4c47 cd43 d746 6c4b 3347
00000390: 9c9b 4747 9f7b 6147 fa25 f246 36e2 c646
000003a0: c98f 2047 5e43 d946 f457 0547 e988 4247
000003b0: 060f de46 e943 2547 0a51 a946 667d 5447
000003c0: 40ea 9d46 4eee 8146 67a1 fd46 0c6b 0047
000003d0: c76d a847 cd0c 4347 97e2 2746 36c0 f545
000003e0: 0110 2646 c186 ca46 5c03 ce46 8763 7547
000003f0: 9056 ac47 df25 9147 6fce 4747 821a 9947
4657.3276 249.18864 97.060524 130.81665 3068.4731 1122.9812 897.71796 4297.376
6692.6055 2753.8872 7224.9336 1477.4574 1619.4026 1027.8446 886.678 1906.5305
1567.8999 8110.2803 3645.4624 2175.4163 590.9288 260.7574 80.86714 1352.5709
5449.4897 5830.955 1475.1956 409.402 2791.5933 689.0322 471.98083 5585.022
4056.3435 1967.2446 2896.9082 1406.3801 4751.1123 880.6643 342.8779 3511.5535
2702.7156 1553.2614 339.4586 2150.8215 4170.0654 2622.0273 102.6101 219.27734
626.9542 4260.7725 2750.8604 885.7098 1354.6396 2687.9417 357.06442 3218.135
7745.4546 330.76352 5833.4595 1562.9254 1941.0127 7083.447 7661.4995 993.9071
3733.4888 442.30405 1419.7559 907.68427 7798.761 650.32916 5729.9136 2590.4316
15317.928 1784.5801 3508.7766 1981.9208 588.5589 4159.933 489.6319 4407.9194
243.66379 5851.5317 10151.959 5423.3115 1323.6847 8388.488 1118.1333 582.1669
2474.4417 409.34424 174.3391 12790.937 10018.393 2377.979 885.62494 140.94315
1284.0354 1905.0298 334.47537 4013.6865 10010.701 3408.7913 517.19336 1130.3861
3550.1975 1004.65 404.33328 3545.8545 338.48416 885.32666 524.54956 1399.7028
4805.0005 1209.9076 835.53143 662.94055 3564.1548 4050.5544 1069.1304 178.4269
766.45886 2287.0637 447.54456 2085.7734 10642.251 1818.3251 4372.699 8618.536
86870.67 24301.648 12695.26 11312.342 13385.314 21340.648 10450.475 47549.98
102430.41 51779.008 62742.758 23692.791 20644.322 3691.3623 41364.1 49264.523
58857.61 34575.7 58757.07 55719.38 13645.426 61044.676 12666.816 42388.363
46952.223 84036.305 27997.393 28659.963 32806.633 28045.018 36242.78 53228.79
66795.8 55893.27 40449.863 40565.766 40747.812 34527.27 11765.11 14925.836
11661.83 35524.906 36799.383 37817.656 38897.73 1605.9764 41984.375 27026.068
32348.088 64759.32 50944.895 27174.053 18734.6 58746.06 31563.885 48277.273
46962.824 13213.482 54499.484 42781.6 92197.08 79276.78 83671.086 21339.29
66092.47 30642.459 49811.914 16374.289 81561.89 40881.41 32995.97 45557.19
18355.58 36959.918 55453.633 10229.244 20598.582 46691.99 27649.404 75817.49
22638.254 50097.58 59489.406 55817.895 86535.63 4681.6426 34330.887 36511.11
34457.48 29221.76 17129.08 101181.65 88975.375 28235.03 37014.535 41721.62
1207.3362 52389.43 27553.9 45899.42 51099.61 57723.62 30994.988 25457.105
41103.785 27809.684 34135.953 49800.91 28423.512 42307.91 21672.52 54397.4
20213.125 16631.152 32464.701 32875.047 86235.555 49932.8 10744.647 7864.0264
10628.001 25923.377 26369.68 62819.527 88237.125 74315.74 51150.434 78389.016

exp_avg f4 [5, 128]
00000000: 77d5 f33e a622 213f 7b67 9c3e cbc8 65ba
00000010: 5721 4cbe 68a9 8ebe 1c29 bd3f 785b d03e
00000020: ebd9 01bd b1e1 05be e6e6 0b3f 1d26 8b3f
00000030: c9dd 4a3d 96ea 29c0 0f1f f5be 7b44 4abf
00000040: 2af0 963f 29ff b63e 177f c53e f7a5 abbe
00000050: 211c b1be ad76 d1bc ed09 e2bc 7339 f33d
00000060: 53fc 5cbe 579d c83e afd0 c0bd cc6a 653f
00000070: 6e34 433f 6b53 e1bd 699d 84bd 238e cc3e
00000080: b840 253e 7e99 bb3e c218 a43e f354 a3be
00000090: eacb a239 fbbf 823f c2b3 59bf 7859 273f
000000a0: 9605 133f c1c2 83be 3478 edbd 096f 6fbf
000000b0: 8b04 b5be fca8 b63f 274f 763e c571 ca3d
000000c0: b9de 0dbf dc14 e5bc bdbb df3d 005e 453e
000000d0: 6dcb 11bf e215 9d3c f1df 553f 7c0f d53e
000000e0: 885b b4be 6153 4f3f e040 113f 70f8 8abf
000000f0: 9dc0 973f 0cf4 79be 3a99 fabe cf8b 66bc
00000100: 6b6d a43d 0df4 e9bd 2f24 eebe 9b26 16be
00000110: 13d7 c73d ca61 a8bf 0aee d53e 115c 61bd
00000120: 3a3b d53f 73c5 3dbe d185 113e b525 ec3f
00000130: f71d 323f 64c6 933e aa63 bcbf 3ad9 2bbf
00000140: c335 05bf 089d e63e 724e 8a3e f47c c53d
00000150: 5f7f ba3e d7a8 e93e e8bd 9bbf cfad 2cbe
00000160: 46de 55bf 25d5 8abf a206 c33e 1e63 033e
00000170: cde5 e13e eddd 42bf e137 243e 48d8 443f
00000180: 4bc4 75bf 45c9 ac3e e420 a6be cc8a f73e
00000190: ce7c 6d3e e4d3 923c 3d78 1a3f 0fcc 8dbe
000001a0: 8546 9abf 793a 7bbe 7699 b2be 5135 ca3e
000001b0: 250f 29be 118a a3be 8d06 5cbe 5b6a 7c3e
000001c0: 6169 bc3e 53d0 82bc 3790 e33f f895 1e3f
000001d0: 096b 5abe 60e4 a63e 9d43 debe e639 2f3f
000001e0: 388f 2140 0f28 893f 27f3 4e3d 21a9 2abf
000001f0: 3273 ae3e 647a 093e b8b4 9c3e 935f ca3e
00000200: fff6 0542 ba82 bfc1 4447 0041 8676 0f40
00000210: 9756 38c1 2640 3741 333f c33f 2304 9141
00000220: 0ef4 f941 153d b241 aec1 71be b5e9 bdc1
00000230: 6269 1bc0 7e37 a3c0 dcb3 a0c1 d426 03c2
00000240: 2c1a acc1 3084 05c2 1858 d9c0 e673 c641
00000250: 95ed dac1 77b9 41c1 aef4 8240 c81b 73c1
00000260: b308 dac1 7315 b341 330a cac1 2c9a bac1
00000270: 313f 893f 8902 5c41 4066 7c41 d418 0542
00000280: 5b57 e7c1 4909 9c41 288d 1942 1068 f0c0
00000290: 5385 a441 6170 2dc1 d43d b33e b186 b1bf
000002a0: c0f5 84c0 b36a 9ec0 47a6 7541 9d72 5441
000002b0: b85f 9ac0 1fec cd40 48bc eec1 7fb0 f541
000002c0: 0539 12c1 5e89 c441 b710 f041 a01a 92c1
000002d0: 7bc6 2441 3151 81c1 b6db 3a41 3af4 9fc1
000002e0: 844e 8041 cf20 ccc1 1a2f 42c1 540f bcc1
000002f0: 53e4 b4bf 1170 b5c1 8dfb ef41 dd4b 0fc1
00000300: 4ec6 31c1 59b1 78c0 596f a240 8d73 a0bf
00000310: ce19 b941 6353 68c1 59f3 2040 9938 7a41
00000320: 9f71 a041 6629 be40 c7c2 ca41 ec37 5541
00000330: 535d 9b41 85de 06c2 4ea2 8d41 553b 1bc2
00000340: bf88 94c1 0824 3242 dd9c aac1 d850 d7bf
00000350: ce30 0142 fa1e fcbe 47f8 eac1 1a5f b7bf
00000360: f844 18be 1fad 86c1 2f7c 9ec1 704c 1a42
00000370: caf3 87c1 454b 42c1 7203 6ec1 062b 7741
00000380: 0552 84c0 4953 d7c1 6737 c7c1 ec7a 1541
00000390: 2232 bcc0 7553 8d40 b5e6 e541 86af 1e40
000003a0: 2fc9 6540 0a1c 6d41 f540 2641 d206 bcc0
000003b0: acba 10c0 48bc 8bc1 ec75 1bc1 f7a1 1841
000003c0: 947e 6841 0983 91c0 5435 5041 b370 2241
000003d0: 3721 c941 8118 edc1 5688 f5bf e5dc ba40
000003e0: a345 8541 1c21 38c1 1ba4 94c1 8a11 bfc1
000003f0: 3b34 5342 fcb8 9bc1 d995 c140 3944 2642
0.47623798 0.62943494 0.305477 -0.0008765577 -0.19934593 -0.27863622 1.477817 0.40694785
-0.031701963 -0.13074376 0.546492 1.0871006 0.049527917 -2.654943 -0.47875258 -0.7901074
1.1792042 0.35741547 0.38573524 -0.3352506 -0.34591773 -0.025569284 -0.027592624 0.11876192
-0.21580629 0.3918254 -0.09414803 0.89616084 0.76251876 -0.11002239 -0.06475336 0.39952192
0.1613797 0.36640543 0.3205014 -0.3190075 0.00031050976 1.0214838 -0.85039914 0.65370893
0.574304 -0.25734523 -0.115951926 -0.935288 -0.3535503 1.427032 0.24053632 0.09884981
-0.5541797 -0.027964048 0.1092448 0.1927414 -0.5695103 0.019175474 0.8354483 0.41613376
-0.35226083 0.809866 0.56739616 -1.0857067 1.1855656 -0.24409503 -0.48945028 -0.014071419
0.08028682 -0.11423502 -0.4651198 -0.14663164 0.09757819 -1.3154843 0.41783172 -0.055019442
1.66587 -0.18532352 0.14211203 1.8449007 0.6957697 0.28862298 -1.4717915 -0.67128336
-0.5203516 0.4504168 0.27012974 0.096429735 0.364253 0.45636627 -1.216733 -0.16863178
-0.8354229 -1.0846297 0.38090998 0.12830779 0.44120637 -0.7611988 0.16036941 0.7689252
-0.96002644 0.33747306 -0.3244697 0.4834808 0.2319214 0.017923303 0.6033972 -0.27694747
-1.2052771 -0.24534024 -0.34882706 0.39493802 -0.16509683 -0.31941274 -0.21486874 0.24649946
0.36799148 -0.015968477 1.7778386 0.61947584 -0.21329893 0.3259611 -0.4341096 0.6844772
2.5243664 1.071535 0.050524857 -0.6666432 0.34072262 0.13425595 0.30606627 0.39526042
33.491207 -23.938831 8.017399 2.241609 -11.52114 11.453161 1.5253662 18.12702
31.244167 22.279825 -0.23609039 -23.739115 -2.428307 -5.100524 -20.087822 -32.787918
-21.51278 -33.37909 -6.7920036 24.806591 -27.366007 -12.1077795 4.092368 -15.194283
-27.254248 22.385473 -25.25498 -23.32528 1.072241 13.750619 15.774963 33.274246
-28.917654 19.504534 38.387848 -7.512703 20.5651 -10.839936 0.3500811 -1.386923
-4.154999 -4.950525 15.353095 13.277982 -4.8241844 6.4350734 -29.841934 30.71118
-9.138921 24.567074 30.008162 -18.263 10.298457 -16.164644 11.67864 -19.994251
16.038338 -25.51602 -12.136499 -23.507484 -1.4132179 -22.67972 29.997828 -8.956021
-11.110914 -3.8858244 5.0760922 -1.2535263 23.1376 -14.520358 2.5148528 15.638818
20.05548 5.9425535 25.345106 13.326153 19.420568 -33.717304 17.70425 -38.80794
-18.56677 44.535187 -21.326593 -1.6821547 32.29766 -0.49242383 -29.37123 -1.4325898
-0.1487006 -16.834532 -19.810637 38.574646 -16.994038 -12.143376 -14.875841 15.448004
-4.135012 -26.915667 -24.902052 9.34251 -5.8811197 4.4164376 28.73765 2.479463
3.5904043 14.819345 10.390859 -5.8758326 -2.2613935 -17.466934 -9.7162895 9.539542
14.530903 -4.5472455 13.01302 10.152514 25.141218 -29.636965 -1.9182231 5.8394647
16.659002 -11.508083 -18.58013 -23.883564 52.801006 -19.465324 6.049542 41.566624
