model/370a.pt (torch_old, 336839 bytes, 24 tensors)

fc1.weight f4 [128, 28]
000000 94 5f c6 3c b0 7c 1f 3e e7 58 4a be 2c 75 22 bd
       0.024215497 0.15574908 -0.19760476 -0.039662525
000010 c0 bb ab be fc 6e d6 be 1f 5e 9e bd c0 7d 15 be
       -0.3354168 -0.4188155 -0.07732796 -0.14598751
000020 d9 36 5e be 80 ad 2a 3e e0 05 d7 3c 80 43 26 bf
       -0.2170061 0.16667747 0.026247919 -0.64946747
000030 d0 83 84 be eb 84 d5 bd 82 04 29 3e c5 7b 8e 3e
       -0.25881815 -0.10425743 0.16505626 0.27828804
000040 3f 32 c2 3e c2 80 d1 bd 4a 81 6e bf 68 04 0b c0
       0.3792896 -0.10229637 -0.9316603 -2.172144
000050 08 b0 c9 bf 55 11 d1 bf e6 93 35 bf 93 33 18 3e
       -1.5756845 -1.6333414 -0.709288 0.14863424
000060 d4 fb 42 3d 7a 1c 39 3c 3c d0 f1 bf 11 d8 5d 3d
       0.047603443 0.011298293 -1.8891673 0.054161135
000070 7e c1 3a 3f eb 0d 60 3f bf 03 7a 3e 9b 21 4e 3e
       0.72951496 0.8752124 0.24415492 0.20130007
000080 34 d8 db bd e4 18 bd be 04 e8 12 3e 0b ca af 3e
       -0.10734597 -0.36933053 0.1434632 0.34333834
000090 f3 ae 26 3e 6a 78 80 3e fa de 1c 3e 83 c0 39 bd
       0.16277675 0.2509187 0.15319434 -0.04534961
0000a0 29 e6 ab be 5a 50 bd be 60 78 8b 3d 16 e9 d1 ba
       -0.33574036 -0.36975366 0.06810069 -0.00160149
0000b0 68 40 a7 3d a0 1c 37 3d 5d 87 76 bd 24 93 35 bd
       0.081665814 0.044705033 -0.060187686 -0.044329777
0000c0 38 5b 26 3e cf b9 93 3e 51 dd 38 be 27 7e 1f 3f
       0.16245735 0.28852698 -0.18053176 0.6230187
0000d0 54 53 ba 3e 60 9b 9b bc 7a 80 83 3f 19 25 9a 3d
       0.363917 -0.018994987 1.0273583 0.07526607
0000e0 55 2f b2 bf 71 80 94 bf 98 57 f5 be f0 03 45 3e
       -1.3920695 -1.1601697 -0.4791839 0.19239783
0000f0 16 4a 0f 3e f4 e6 91 3d 40 27 1f 3e bb c0 38 3d
       0.13993105 0.07124129 0.15542316 0.045105677
000100 f9 fe 3d 3d c6 dd 6d 3e 78 10 16 3e d2 f0 f1 3e
       0.04638574 0.23229131 0.1465472 0.47254044
000110 bf 3c e3 3d fc 71 46 36 62 5d a5 3c ef c1 39 bd
       0.11095571 2.9570647e-06 0.02018613 -0.045350965
000120 60 80 b5 be 24 81 22 bf 75 00 e2 be 67 bf 1f bf
       -0.35449505 -0.634783 -0.44140974 -0.6240143
000130 b0 0e 20 be e3 6c 7e be 12 9a 54 bf 84 c8 cb bf
       -0.15630603 -0.24846224 -0.8304759 -1.5920568
000140 24 04 0f 3e 47 b3 10 3e b2 39 d0 bf 72 1e 0e 3e
       0.13966423 0.14130889 -1.6267607 0.13878801
000150 08 4c 33 bf b3 35 1b bf d4 8c 9d be dc e2 88 be
       -0.7003789 -0.60628814 -0.30771506 -0.2673558
000160 fa 7a b3 3c c4 49 6c 3d c9 8b 52 be 40 77 f7 3d
       0.021909226 0.057687536 -0.20561136 0.12083292
000170 3b 7d 0c 3e 1e 3b ce 3e 63 df d8 3e 65 05 a5 3e
       0.13719647 0.40279478 0.4235793 0.32230678
000180 24 cb 05 3d fb b3 6c bd a8 67 b1 bd 0f 92 71 be
       0.032664433 -0.05778883 -0.08662349 -0.23590873
000190 da e7 d0 3c 7e 49 d5 3c 00 9e e1 3e d9 88 a3 bc
       0.02550118 0.02603602 0.44065857 -0.019962715
0001a0 df d2 22 3e 96 96 70 3a 23 ad 9e be eb 55 5d bf
       0.15900753 0.00091777125 -0.30991468 -0.86459225
0001b0 d6 d5 ee 3e a9 c1 b0 bd c3 91 67 bf 6c 9a 6b bc
       0.4664752 -0.08630688 -0.9045679 -0.014380079
0001c0 ad 59 5f bf d4 a4 71 bf a0 db a1 be 5c 86 91 be
       -0.8724621 -0.9439213 -0.31612873 -0.2842282
0001d0 6b 2d 09 be b0 5a 86 3d 2e 26 3d 3d 53 09 81 3d
       -0.13396232 0.06560266 0.04617899 0.063006066
0001e0 1f d1 03 3f 49 7a 71 3e a1 30 33 bd eb db 82 3e
       0.5149097 0.23581804 -0.043747548 0.2555841
0001f0 90 75 78 3e 74 6e 73 3e d4 4c e2 3e d7 2d 4b 3f
       0.24263597 0.23772603 0.4419924 0.7936682
000200 ba eb 0a bf 1e ab 4f bf 3b 34 6d be c9 c9 23 3e
       -0.5426594 -0.8112048 -0.23164456 0.15994944
000210 e1 0b 38 3d e1 5b f9 bc 7e 52 16 3e ad 12 61 bf
       0.044933204 -0.03043932 0.14679906 -0.8791912
000220 8b 0c a0 be 4c 63 aa be d0 2a c0 bf b8 c5 c9 bd
       -0.3125957 -0.33278883 -1.5013065 -0.09852165
000230 1e 12 8a bf ca 5c b4 bf ec 04 6a bf 4a 81 a9 3d
       -1.0786779 -1.4090817 -0.9141376 0.08276613
000240 de c5 80 bc 66 15 21 bd dc 67 45 3d 47 16 ce 3d
       -0.01571935 -0.039327048 0.04819475 0.10062843
000250 86 c4 92 3d 48 f9 59 3e b8 fc 78 3e ab 14 56 3c
       0.0716639 0.212865 0.24315155 0.013066451
000260 35 28 1c bd 80 89 9f be a6 5a f0 bc b3 32 a2 3e
       -0.038124282 -0.31159592 -0.0293401 0.31679305
000270 e6 61 b7 3d 7b 34 0f 3e a5 fd 55 3d fa 9a bb 3d
       0.089542195 0.13984863 0.052243847 0.09160419
000280 ff 9d 5c be ba d2 73 38 88 6e b8 bd 19 e1 9c bf
       -0.21544646 5.813197e-05 -0.09005457 -1.2256194
000290 e9 04 07 3f 88 ea cf 3d 29 84 9a bf de b2 39 be
       0.5274187 0.10152155 -1.2071582 -0.18134639
0002a0 1e 6b 6d bf 09 92 2d 3c 1f 5b ff bd c3 9e 22 be
       -0.9274157 0.0105938995 -0.12468552 -0.15880875
0002b0 00 08 1d 3e 57 8e 92 bc ff 15 59 3e dc 50 f7 3d
       0.15335083 -0.017890139 0.21199797 0.120759696
0002c0 bc 4f 5a 3e fd 4d bd 3d 48 10 87 3e 43 b9 66 bd
       0.21319479 0.09243391 0.2637961 -0.056329023
0002d0 77 8a 72 be d7 c5 bf bd a6 c3 70 be c6 1d 6e be
       -0.23685633 -0.09363907 -0.23512134 -0.23253545
0002e0 8a ea 2a be 5e 5b c0 3d a7 2a fc bc ed 22 df be
       -0.16691032 0.09392427 -0.030782057 -0.43581334
0002f0 f5 94 83 be be 68 0c 3d 06 e8 45 bf a4 37 8c bf
       -0.25699583 0.034279577 -0.77307165 -1.095448
000300 c4 7b 1b be 63 63 82 3c 80 0f b0 bf 28 7f 50 bd
       -0.15183932 0.015916532 -1.375473 -0.050902516
000310 62 3b 5b bf 99 52 bf be e1 d0 22 be e4 9d 1e be
       -0.85637486 -0.37367705 -0.15899993 -0.15489918
000320 e0 f0 47 be f1 03 07 3e 8b 0f b6 3b bf ab 84 bd
       -0.1952548 0.13185097 0.005556052 -0.064780705
000330 10 43 ca 3d d3 1a 29 be 74 83 0e be a8 42 7a be
       0.098760724 -0.16514139 -0.13917333 -0.2443949
000340 29 ad 88 be ea 53 5b 3e 76 21 57 3d c3 e5 bb be
       -0.2669461 0.2141873 0.052522145 -0.36698732
000350 13 e0 61 be a9 14 64 be 90 cf 5d be f5 f6 fd be
       -0.22058134 -0.22273506 -0.2166121 -0.49602476
000360 94 42 76 bf 2c 9b 65 bf 28 3d 47 bf 35 da 7f bf
       -0.9619534 -0.896899 -0.7782769 -0.9994233
000370 c0 b9 fa be f7 ff 90 3c ca 51 8a bf 48 70 e1 3d
       -0.4896984 0.017700179 -1.080621 0.11007744
000380 94 0c cb 3e ce 45 d1 3e 5f b6 5b be 64 67 6b 3c
       0.39658034 0.4087357 -0.21456288 0.014367912
000390 d4 15 8b bd 18 8c 22 be 39 b6 94 be 06 cc 07 bc
       -0.06791273 -0.15873754 -0.29045275 -0.008288389
0003a0 da e4 25 3e ac 5f e5 3e 2f 2d 29 3d 6e f5 c9 bd
       0.16200581 0.44799554 0.041302856 -0.09861265
0003b0 44 f3 20 be a0 67 09 3e 1a cb 30 3e f5 0b 5a bd
       -0.15717798 0.13418436 0.17264977 -0.05323406
0003c0 30 43 e1 be 19 3d 34 bf c1 c2 80 be af e3 d0 3c
       -0.43996572 -0.7040573 -0.25148585 0.025499193
0003d0 83 f8 08 3e e1 1f 52 bd b4 76 73 bd 7e b4 fe 3e
       0.1337605 -0.051299933 -0.059439376 0.4974708
0003e0 1e e9 94 bf ed 68 29 3c 96 64 b8 be f8 93 7e 3d
       -1.1633642 0.010339958 -0.3601424 0.062152833
0003f0 94 15 16 3e 65 bb 48 be f5 91 9e bd 18 3a 23 be
       0.14656669 -0.19602735 -0.07742683 -0.1594013

fc1.bias f4 [128]
000000 56 32 06 bc dd b0 66 3d 45 de b5 ba b1 4a 29 bc
       -0.008190712 0.056321014 -0.0013875446 -0.010332749
000010 bb 4f 90 bd 98 50 1c 3d f9 2e da 3d 35 d8 2b bd
       -0.070464574 0.038162798 0.106534906 -0.041954238
000020 99 ef 44 be 5d 99 11 bd 65 fc 6c bd 6a f7 8c 3d
       -0.19232024 -0.03554665 -0.05785789 0.06883128
000030 8c 5f 08 3d ee 2a f3 3d b9 0c 34 ba 4b 25 7f be
       0.033294246 0.118734226 -0.0006868351 -0.2491657
000040 4c 55 2e be a3 60 cd bd 76 bb 0a be 15 22 41 be
       -0.17024726 -0.100281976 -0.13548073 -0.18860658
000050 45 16 31 bd 76 49 2e ba ae 7d ee 3e 48 99 fe 3d
       -0.04323413 -0.000664852 0.4658026 0.1243158
000060 be 52 92 bd 22 ad 10 be 73 6b d4 bd a8 40 fe bd
       -0.07144688 -0.14128545 -0.10372057 -0.12414676
000070 c8 2d a7 bc 0e 99 42 be 67 13 01 bd 50 62 4a 3d
       -0.020407572 -0.19003698 -0.031512644 0.049410164
000080 e4 b1 f6 bd 3e 51 af bd 6c f4 70 3e fc 79 67 bd
       -0.12045649 -0.085604176 0.2353074 -0.056512818
000090 13 52 19 3e 92 40 0f be d6 1e a1 3c bb 0a a6 bd
       0.14972715 -0.13989475 0.019668024 -0.081075154
0000a0 5a 29 5d be 4b d9 66 3e 3c 81 53 bd 80 a3 22 3d
       -0.21597806 0.22543828 -0.05163692 0.039706707
0000b0 cb 8c 00 3d 38 7f 92 be f6 2b 27 bd 7e 0a e8 3e
       0.03138427 -0.28612685 -0.04081341 0.45320505
0000c0 29 4d fa 3d 14 8c 15 bd ad 1c 0b 3e a9 20 0f 3d
       0.122217484 -0.036510542 0.13585158 0.034943257
0000d0 ea dc 4f be f8 38 47 bd 84 81 15 3e ab 51 44 be
       -0.20299116 -0.048638314 0.14600188 -0.19171779
0000e0 1d ae bf ba b4 84 53 3e d7 96 63 be d4 27 10 3f
       -0.0014624033 0.20656091 -0.2222551 0.5631077
0000f0 48 d4 a4 3d 51 23 3e 3c 12 8c 9b 3d f1 f1 17 be
       0.08048302 0.0116051 0.07595076 -0.14838387
000100 69 98 c7 3d 7f 5a 6c 3e 86 ea c1 3d 6d 34 5c 3e
       0.09745867 0.23081397 0.0946856 0.21504374
000110 e2 d2 08 be 0c 71 f1 3d 72 2f 44 be 43 f2 99 bd
       -0.13361695 0.1178914 -0.19158724 -0.07516911
000120 af 7c 65 be 5e 30 90 bc 6e f3 94 3d 81 5d 2d be
       -0.22410844 -0.017601188 0.07272993 -0.169302
000130 23 e6 e2 bb 15 ea 10 be 79 e4 d6 be 3f 0f ef 3c
       -0.006924407 -0.14151795 -0.41971186 0.029182075
000140 0c 49 72 bd 95 b5 fe bd c9 7d 45 bd bf 9e e9 bd
       -0.059151694 -0.12436978 -0.04821566 -0.114072315
000150 e6 dc 65 3e 91 1f 43 3d 4b 03 83 bd fe c9 22 be
       0.22447547 0.047637526 -0.063971125 -0.15897366
000160 85 d8 94 3d 5d 3b b7 bc 24 2b 7a be 62 94 66 bd
       0.0726786 -0.022367174 -0.2443052 -0.056293853
000170 f8 8b 7e bd a1 49 3e 3d 3c 12 75 bd b3 ed 97 bd
       -0.062145203 0.046456937 -0.059831843 -0.074183844
000180 f8 ac 01 be 37 0a 24 be 5d ce 37 3f f9 c2 92 3d
       -0.12663639 -0.16019522 0.7179926 0.07166094
000190 9f bd c7 3e 56 6f 57 bd 2d c6 e6 3d ba 12 50 be
       0.39011857 -0.052596413 0.11268268 -0.20319644
0001a0 51 bb 71 3d 9b 85 23 3d 89 e6 7a 3c 15 78 4b 3e
       0.05901653 0.039922338 0.015313753 0.19870026
0001b0 8e 57 4f 3d 94 0c c3 bd e7 34 01 3d 4b 37 88 3e
       0.050620608 -0.095238835 0.031544592 0.26604685
0001c0 17 46 10 be 5e b3 ef 3c 15 50 cc 3c c0 45 38 3d
       -0.14089237 0.029260334 0.02494053 0.044988394
0001d0 22 1a 29 be 40 a8 c2 bd 9b 96 10 3e 82 56 98 bd
       -0.16513875 -0.095047474 0.14119951 -0.07438375
0001e0 ba ab e6 bd 8c 73 a3 3d 27 38 5c bc 94 55 c3 bd
       -0.11263223 0.07981023 -0.013441122 -0.09537807
0001f0 18 f4 65 3d 5b c1 90 3c 8f 4c 1e be 37 91 0d be
       0.05614099 0.017670324 -0.15458892 -0.13824926

fc2.weight f4 [128, 128]
000000 22 dc 9f be 8e 1f c9 be 1b 01 ea 3d 49 fe b9 3d
       -0.31222636 -0.39281887 0.11425992 0.09081704
000010 57 81 a0 3e 84 c5 2c be e0 e5 7b be 65 0d ce 3e
       0.31348678 -0.16872221 -0.24599409 0.40244594
000020 b8 f6 1e be a3 04 ca be 69 2b e0 bd 2e 23 ed be
       -0.15523803 -0.39456663 -0.1094578 -0.46315902
000030 d6 82 47 3e 32 d6 58 3e 70 f4 d4 be ec c3 1a bf
       0.19483504 0.21175459 -0.4159274 -0.60455203
000040 c9 82 34 be 5d 51 83 3d d1 29 74 be 1c 19 26 bd
       -0.17628016 0.06412003 -0.23844077 -0.04055129
000050 e0 ad 18 bf 08 4f 2a be ec 92 88 3e d5 2d e6 3e
       -0.5964031 -0.1663171 0.26674592 0.44956842
000060 38 da ae 3d de 42 07 bf f5 ca ff 3d 6d 1a 09 bf
       0.08537716 -0.52836406 0.12489883 -0.5355595
000070 61 b6 9e 3b 9c b1 1d bf 1d a7 bb bd 1f 2d b2 3d
       0.0048435186 -0.61599135 -0.09162734 0.087000124
000080 61 09 be 3d c2 e0 0e 3f 4b b7 56 3d d7 38 d6 3e
       0.09279133 0.55811703 0.052420896 0.4184024
000090 3c f1 85 3e c4 24 93 be 8d 8a bf 3e 51 d0 15 bf
       0.2616061 -0.28738987 0.37410393 -0.5852099
0000a0 97 3f 27 bf aa 59 08 3e b6 d9 81 3d d1 e4 8a 3e
       -0.65331405 0.13315454 0.06340353 0.27127698
0000b0 cf 32 0d 3d 75 39 1c bf 07 73 3c bd 1d 14 0f bd
       0.034472283 -0.6102517 -0.046008136 -0.03493129
0000c0 44 15 82 3e 16 1e 95 3c 61 4d 47 3e fe f2 bf 3e
       0.2540685 0.018202823 0.19463111 0.37490076
0000d0 24 72 12 3e 2f d7 96 3e 78 6a 43 bf af df b7 be
       0.14301354 0.29461047 -0.76334333 -0.35912845
0000e0 03 b1 dc be b5 bc 6f 3c 19 c1 80 3e 1a 94 05 bf
       -0.431038 0.014632394 0.25147322 -0.5217911
0000f0 9b f2 d4 3d cd 69 ce be 96 05 1c 3d 87 33 56 bf
       0.10397836 -0.40315095 0.038091265 -0.83672374
000100 63 58 1f 3e ed ed aa 3e 91 0c a1 3e 0b 25 0e 3e
       0.1556106 0.33384648 0.314549 0.13881318
000110 4a 96 5c bd 54 6e 40 3d 76 28 9f be 26 9f f1 bb
       -0.053854264 0.046980217 -0.31085557 -0.0073737083
000120 f9 5d 2c bf 5e 8b 83 3e 7f 24 12 bf 78 7c 1a bf
       -0.6733089 0.25692266 -0.5708694 -0.60346174
000130 32 3f 01 bf 61 bb f7 3d 26 49 a2 be 55 9b 58 3e
       -0.50487053 0.120962866 -0.31696433 0.21153004
000140 c0 c9 cb be b3 3a 13 bf 9c ad 84 bd f3 60 e5 be
       -0.3980236 -0.5751144 -0.06478426 -0.4480053
000150 13 1d 8b 3e d6 56 8f be 91 bb 38 bc 36 22 38 be
       0.2717062 -0.27995938 -0.011275188 -0.179818
000160 f0 12 e7 be 71 d6 9b bd e6 5c 10 bf 07 f8 0b 3e
       -0.45131636 -0.07609261 -0.5639175 0.13668834
000170 51 8a c9 be d5 15 15 3d b4 d9 19 3e 7f 99 fc be
       -0.3936334 0.036397774 0.15024453 -0.49335858
000180 5d 21 cd 3e ac 3b ab be fb c4 b9 be dd aa d2 be
       0.40064517 -0.33443964 -0.36283097 -0.41145983
000190 4f 38 c9 be 9d f9 03 bf 08 d3 b2 3d f0 ec 4b 3d
       -0.39300773 -0.51552755 0.08731657 0.049786508
0001a0 f9 1d 72 3e 4d 4f 3b 3e 3e 59 e4 3d be 3e 45 3d
       0.23644246 0.1829197 0.11149834 0.04815554
0001b0 0d c4 62 3d 19 ba e3 be 3b 42 23 bd da 36 d1 3d
       0.05536275 -0.4447792 -0.039858084 0.1021554
0001c0 55 df cd 3d ea fa da bd c4 b4 b2 be e3 02 dc bd
       0.10052363 -0.10692389 -0.34903538 -0.10742738
0001d0 d5 cd 25 3e 53 3d 09 3f 90 0d 60 3e ae 1e 92 3f
       0.161918 0.536092 0.21880174 1.1415613
0001e0 d1 6a 7a bf c4 54 ba be 05 83 1c 3f a2 c8 a2 3e
       -0.9781924 -0.36392796 0.6113742 0.31793696
0001f0 ad 69 b9 be 27 ac d6 3e 37 a7 ee be 1f 63 6a be
       -0.36213437 0.41928217 -0.4661195 -0.22889374
000200 38 5d cb bd 40 b9 4b bd 1d ff a6 bc d6 e2 82 3e
       -0.099298894 -0.049737215 -0.02038532 0.25563687
000210 f8 e7 cd be 76 b4 7d 3e 6c c8 95 3d 9b 09 d9 3e
       -0.4021604 0.24775872 0.07313618 0.4239014
000220 32 9d b0 3d 4e 52 f8 3e 8d 80 7c 3d e1 ef 06 be
       0.086237326 0.48500293 0.061646033 -0.13177444
000230 e9 62 a3 3d f6 8d 8f 3e 8d f9 34 3d 86 d5 ff be
       0.0797785 0.28037995 0.044183303 -0.49967593
000240 7e f6 22 3d 67 a1 2a 3d 25 a0 eb 3e d2 85 4d 3d
       0.039785855 0.04165783 0.46020618 0.05017645
000250 d9 bb 5d 3c dc 6e f0 be cb a0 2a be 2b 5a 94 be
       0.013533556 -0.4695958 -0.166629 -0.28975043
000260 76 2b 44 bd 04 63 9e 3c 4c 2d 78 3a ea e3 a4 bc
       -0.04789301 0.019334324 0.0009467199 -0.02012821
000270 15 aa cd 3e 3d ee 7e 3f d7 aa 0c bf 76 b0 bf bd
       0.40168825 0.9958227 -0.5494818 -0.09359829
000280 fb 7c 2b 3f 52 7e b7 3e 1b 81 22 3e 87 aa 1f be
       0.6698758 0.35838562 0.15869562 -0.15592395
000290 2d 81 99 3e db 75 8c 3e b9 8e 02 bf dd 59 09 bf
       0.29981366 0.27433667 -0.5099903 -0.53652745
0002a0 5b bf a5 3e 4e 4b ea 3e 23 86 b2 bc b5 b0 b9 bd
       0.32372555 0.45760578 -0.021792477 -0.09066907
0002b0 07 c4 73 3e 60 06 0d be 6e d9 7a 3e d4 a7 cd 3e
       0.23805247 -0.13771963 0.24497005 0.40167105
0002c0 e2 b0 05 3e 3b 65 ce 3e ca f6 fe bc 04 eb 61 bb
       0.13055757 0.40311608 -0.031123538 -0.0034472356
0002d0 2a cb 72 be 8f 0d 33 be 32 f5 21 3e 69 4c 45 bf
       -0.23710313 -0.17485641 0.15816191 -0.7706972
0002e0 f2 a1 0f be 61 2a c3 3e e0 2f c0 be cf 4d c7 be
       -0.14026621 0.3811827 -0.37536526 -0.3892655
0002f0 ea c4 12 3f 01 96 d3 be 34 73 74 3e b5 b2 8b be
       0.57331717 -0.4132538 0.23872072 -0.2728478
000300 a0 21 4a 3e 36 d8 6d 3d 08 1a f3 3d 09 83 63 3d
       0.1973939 0.058067523 0.118701994 0.055544887
000310 4b 00 a7 3d e3 0e fa 3d 97 da f8 3e ad c3 f7 be
       0.08154353 0.12209871 0.4860427 -0.48391476
000320 e4 d4 89 3e 27 da 71 be 68 22 73 be 53 8d 2b 3f
       0.26920235 -0.23618375 -0.23743594 0.6701252
000330 85 3c 12 3f bf c0 9a be 88 f0 7f bb 4b 94 40 3e
       0.57123595 -0.3022518 -0.003905328 0.1880657
000340 1e 5c fd 3e 39 7d 52 3e 0b 2f 14 3f 52 25 22 3d
       0.49484342 0.20555581 0.5788428 0.039586373
000350 1e bf bd be 84 cc a3 be 4b 7b 94 3d 64 ab 0b bf
       -0.37059873 -0.3199197 0.07250079 -0.54558396
000360 c2 8d 1a bf 74 50 d4 3e 56 e5 e6 3d 34 ca c0 3e
       -0.60372555 0.4146763 0.11274211 0.3765427
000370 a0 a2 0e 3d 05 c5 b1 be e4 2b 53 be 44 75 97 3e
       0.03482306 -0.34720626 -0.20622212 0.29581654
000380 99 12 a0 be 05 99 b4 bd e6 79 3d 3e 2e b4 24 be
       -0.3126419 -0.08818249 0.18503532 -0.16084358
000390 83 e2 01 3f 58 64 10 3f 2d ec 13 be 54 15 ef be
       0.50736254 0.5640311 -0.14445563 -0.4669596
0003a0 0a 81 d4 3e 8e 10 5f be 02 b4 6f 3e fb b8 12 3f
       0.415047 -0.21783659 0.23408511 0.5731351
0003b0 0f 5a b2 3d 67 99 80 3d 6e 1e 73 3e 85 c8 99 bd
       0.087085836 0.06279259 0.23742077 -0.07508949
0003c0 ee 40 58 3f e6 e4 a7 be 52 28 fc 3d 7d a6 54 3e
       0.84474075 -0.32791823 0.12312378 0.20766635
0003d0 5e 95 bd be e2 2d 9e 3d 2a c6 84 3e f0 c6 37 bf
       -0.3702802 0.07723595 0.25932437 -0.7178793
0003e0 92 8c d4 3d 3e ce c8 3e 65 e8 20 be e1 1f fb be
       0.10378374 0.3921985 -0.15713651 -0.4904776
0003f0 2f bd c1 3e 08 d0 47 3e cc ce 3f 3f 16 9a 8f bc
       0.37839648 0.19512951 0.7492492 -0.017529529

fc2.bias f4 [128]
000000 59 52 9f bd ac 16 ab 3d 98 f5 5b be cd 84 ce be
       -0.077793784 0.08353934 -0.21480405 -0.40335694
000010 26 1a a6 bd 7c 57 f9 bd 1b 4c 7e 3d 38 f3 85 be
       -0.08110456 -0.121748894 0.0620843 -0.26162124
000020 b4 97 60 be 72 ed 02 bd d4 cc 8b bd 00 71 9e 3d
       -0.2193287 -0.031964727 -0.06826177 0.07736397
000030 21 65 8d be bc 71 c7 be ec b2 fe 3d 04 05 95 3c
       -0.27616218 -0.3895396 0.124364704 0.018190868
000040 84 e0 b3 3e 8e 3e 85 bd 93 3b ae 3d 80 fd 78 bd
       0.3513223 -0.06506072 0.08507457 -0.06078863
000050 d3 4f d7 3d 6f 28 26 be 68 9b aa bd bb 87 83 3c
       0.10513272 -0.16226362 -0.08330423 0.016055932
000060 02 8c 80 be 26 fd d2 bd ae 6a 6e bc cc e0 0e 3d
       -0.25106817 -0.103021905 -0.014551802 0.03488235
000070 61 80 0e 3d 1b 15 54 3e 4e ba 97 be 4c f3 45 be
       0.0347904 0.20711176 -0.29634327 -0.19331092
000080 c6 b0 02 bd ac 70 a4 bd 04 92 70 bd 9f ab 26 be
       -0.031906866 -0.08029303 -0.058733 -0.16276406
000090 82 b1 93 be 2e 63 c4 3e 5e 72 64 be 67 5d c6 be
       -0.28846365 0.38356918 -0.22309253 -0.38743135
0000a0 66 aa 86 3e d7 db 77 3e c6 d5 82 be 41 fa dd be
       0.2630188 0.24204956 -0.2555372 -0.4335499
0000b0 ef c0 c4 be 46 c2 9a 3e 73 a2 7e 3d 64 74 95 3d
       -0.38428447 0.30226344 0.062166642 0.072975904
0000c0 52 e6 96 be 68 84 02 bd 9f 69 51 be 62 d8 0b bd
       -0.29472595 -0.031864554 -0.20450447 -0.034141906
0000d0 ef 26 94 be 32 ad 81 bd da 5e 22 3e 81 b9 81 be
       -0.28935954 -0.063318625 0.15856495 -0.2533684
0000e0 34 5e b7 3e fd b0 00 3e 54 d2 f4 bd 32 a5 d6 be
       0.3581406 0.12567516 -0.119541794 -0.4192291
0000f0 40 d2 d2 bc de 97 16 3c 50 14 05 be 94 9b 0c 3e
       -0.02573502 0.009191481 -0.1299603 0.13731223
000100 2b 1d 9a be 2b b8 a2 3d 3d 2f 8b 3e 26 5a 29 be
       -0.30100378 0.079452835 0.27184477 -0.16538295
000110 1a 93 2b 3d 75 c6 a4 be b7 77 8f 3e 11 a9 00 3c
       0.041888334 -0.3218266 0.28021023 0.007852809
000120 e8 47 b8 3e 6d 50 a0 3d 72 86 46 3e d0 2f 9a 3e
       0.3599236 0.0782784 0.19387224 0.30114603
000130 08 d5 49 3d b0 58 5f 3d 7f 2f 44 be 2a e5 0f be
       0.049275428 0.05452794 -0.19158743 -0.14052263
000140 5b 29 12 3e 9d 65 8b 3e d3 96 5d 3e cf 4a c4 bd
       0.14273588 0.27225962 0.21639566 -0.09584581
000150 f1 91 da bd 6d cf a5 bd 74 6d a7 be 8c 0d 1d be
       -0.10672367 -0.08096204 -0.32700694 -0.15337199
000160 40 1b 56 be a0 3a ea be 8c b8 93 3e 10 cc 96 3d
       -0.20908833 -0.45747852 0.28851736 0.073631406
000170 6a 61 9a bd 40 ac 72 bd 01 52 85 be 18 79 86 3d
       -0.075381115 -0.0592463 -0.26039127 0.065660655
000180 47 51 b3 be 25 1c e4 bd 16 89 d8 3d 55 0a 62 bd
       -0.35022947 -0.11138181 0.10573022 -0.055185635
000190 50 2b 46 3d 20 ad 81 3e 52 89 d2 3c 21 4b ad bd
       0.04838115 0.25327396 0.025700245 -0.08461595
0001a0 f9 f4 0c 3e c2 d7 92 be f1 b0 10 be de 09 57 be
       0.13765325 -0.28680235 -0.14129998 -0.20999858
0001b0 26 e3 5d bd 32 ff 9c 3d b1 71 e0 3d 89 3e 50 3b
       -0.054171704 0.07665862 0.10959185 0.0031775555
0001c0 cd 39 06 3d 21 a6 39 be aa 3b 85 3d f9 5b f5 3d
       0.032769967 -0.1812978 0.06505521 0.11980433
0001d0 30 b6 3a be b5 61 0b be a1 c9 ed 3d 98 86 d3 bd
       -0.18233562 -0.13611491 0.11610723 -0.10328406
0001e0 fb b7 86 3d fe d3 76 3e b8 bf ec 3d 44 47 82 be
       0.0657806 0.24104306 0.11560005 -0.25444996
0001f0 f2 9b 79 3e b4 ca 4a be d0 76 9e 3d 20 15 7e 3e
       0.24375895 -0.19803888 0.077375054 0.24812746

out.weight f4 [5, 128]
000000 90 b6 73 3f cc 7d a4 bd bd f8 8b be e7 9d 3e 3e
       0.95200443 -0.08031806 -0.2733821 0.18614922
000010 88 dd 79 bf 0e 66 f2 be 3f 23 8e 3d f6 42 29 3f
       -0.97603655 -0.47343487 0.069403164 0.661178
000020 de 75 7a 3f cd fa 1a 3f 80 08 5b 3f ab 51 1a bf
       0.978361 0.6053894 0.85559845 -0.60280865
000030 5c 79 a1 3e 4b c4 0a be ac 3c 1d bf ab ec 3a bf
       0.31537902 -0.13551442 -0.614207 -0.73017377
000040 cb 6a 1d bf a3 ba 4a 3f 13 df 57 3f 27 8c 29 3f
       -0.6149108 0.79191035 0.8432476 0.6622948
000050 c9 be 1d 3e ee e8 1b 3d 86 17 10 be c8 6b 17 3f
       0.1540481 0.038063936 -0.14071473 0.59148836
000060 a3 8c 4e 3f 45 71 21 3f 26 e7 d8 be 50 44 5f be
       0.80683345 0.6306346 -0.42363852 -0.21803403
000070 c9 2e 69 3f b2 e2 6c 3e d4 41 a2 3e 3e 11 1d 3f
       0.91087013 0.23133352 0.31690848 0.61354434
000080 01 d3 31 3f 18 82 1c 3f 0f c7 1a 3f dd 71 d1 3e
       0.6946259 0.6113601 0.6045999 0.40907183
000090 ee ac 1b 3f 91 13 eb be 09 58 b0 3c bf 73 21 3f
       0.60810745 -0.45913365 0.021526353 0.6306724
0000a0 9b f6 5e 3e 3a 79 cf be 21 fe 53 3e f9 40 12 3f
       0.2177376 -0.40522176 0.20702411 0.5713039
0000b0 61 16 09 3f b8 58 44 3e 57 03 97 be e6 30 83 3e
       0.5354977 0.19174469 -0.29494736 0.25623244
0000c0 51 c9 cf 3e b9 2c 4d 3f 4b 69 2e 3f b6 32 f1 be
       0.4058328 0.80146366 0.68129414 -0.47109002
0000d0 3a af 2e bf 53 05 40 3f 8a 4d 45 bd f0 31 0e 3f
       -0.68236125 0.75008124 -0.04816965 0.5554495
0000e0 f3 1a 43 3f 79 ab 50 be bf 3f 40 3f f9 4b 01 3f
       0.76212996 -0.20377912 0.7509727 0.5050655
0000f0 69 c1 05 bf a6 9a 60 3f 71 98 57 3f 58 01 b3 3d
       -0.52248245 0.87735975 0.8421698 0.08740491
000100 89 67 25 3f 1b 9d 5d bc bd e4 e2 be 6e 8a 0e bf
       0.6461111 -0.013526226 -0.44315138 -0.55679977
000110 f3 12 54 3f 9c 25 e2 3e a5 9d 18 3f 92 ca 2f 3f
       0.82841414 0.4416932 0.59615546 0.6866847
000120 1d 62 87 3f b1 c9 65 3f 32 01 17 3f 04 67 77 3e
       1.0576817 0.8976088 0.589862 0.24160391
000130 f2 20 e9 3c 9f b3 66 3f a6 90 b8 3e e2 0d 4a 3f
       0.028458092 0.9011783 0.36047858 0.78927433
000140 64 ac d7 bd 86 80 48 3f 42 07 66 3f 8d 59 30 3f
       -0.10530928 0.7832111 0.89854825 0.68886644
000150 0d 20 e0 3e d4 da 1c 3f 12 b8 ca 3e af 1f cd 3e
       0.43774453 0.61271405 0.3959356 0.40063235
000160 e9 e0 06 3f a1 ed aa 3e f0 52 1a 3c b8 38 45 3f
       0.52686936 0.3338442 0.009419188 0.7703967
000170 11 57 75 3f 7e 63 2f bf b1 66 3b 3e a3 c6 25 be
       0.9583598 -0.6851119 0.18300892 -0.16189055
000180 df d4 f8 bd 4c 16 00 3f 9f d4 dc be 31 93 27 3f
       -0.12149977 0.5003402 -0.43130967 0.6545897
000190 4e 85 82 3f 62 a1 20 3f 14 30 89 be 4c a3 e2 be
       1.0196931 0.6274625 -0.26794493 -0.4426521
0001a0 0a 64 5b bf 4c aa 10 bf b8 83 74 be fb 59 0f 3f
       -0.8569952 -0.5650985 -0.23878372 0.55996674
0001b0 19 e5 19 be 2d a0 10 bf ee 72 4a be 45 69 ff 3e
       -0.150288 -0.5649441 -0.19770405 0.49885002
0001c0 e6 64 4a 3f 94 7a 2c bf cf b3 d8 3c 5e 1a af be
       0.7906021 -0.6737454 0.026452927 -0.34199804
0001d0 db 18 36 3f c7 b7 27 bf 00 dc 37 bd 9e 87 e4 be
       0.71131676 -0.65514797 -0.044887543 -0.44634718
0001e0 ae 7e 0a 3d 26 f4 88 3e cb 2b 15 be b7 26 0a 3f
       0.033812217 0.2674877 -0.14567487 0.53965324
0001f0 79 e2 6c 3f e7 6b 16 3f 82 ee e1 3e 33 72 96 3f
       0.9253307 0.58758396 0.4412728 1.1753601
000200 b1 1e c8 3e 9b 7a 27 bf c6 8e b0 be 3a b0 4d 3e
       0.39085916 -0.65421456 -0.34483927 0.20086756
000210 ce 32 2a bf 3d 4d a5 be 41 90 18 bf b6 d3 96 3e
       -0.6648377 -0.3228549 -0.59595114 0.29458398
000220 9a 19 8b 3e ed 45 b4 3e 3a a9 9c 3e 33 3a 8e be
       0.2716797 0.352096 0.3059786 -0.27778777
000230 f1 d7 a4 3e 62 7d f6 3c c3 c2 f9 be 77 61 11 bf
       0.32196 0.030089084 -0.48781404 -0.56789345
000240 cb b3 d4 be 38 d9 b9 3e 8d f6 c7 3e 05 22 1b 3e
       -0.4154342 0.36298537 0.3905529 0.15149696
000250 1b 60 fd be 7a c9 ac 3e 3d ce d4 be 8f cc ac 3e
       -0.49487385 0.33747464 -0.41563597 0.33749816
000260 a3 3c 67 3e 36 b6 ce 3e c8 f9 1e bf ce 0e 32 bf
       0.22581725 0.4037339 -0.62099886 -0.6955384
000270 2b ee ff 3e f6 4b 9e 3e 71 d3 84 3e 16 3b 84 3e
       0.49986395 0.3091733 0.25942567 0.2582633
000280 f6 3a f0 3e 2c 2e ab 3e 5d c3 25 3e 32 2f c9 3e
       0.46919984 0.33433664 0.16187806 0.3929382
000290 e2 51 ae 3e e1 c6 a2 be 08 c4 87 3e 1f d2 60 3f
       0.34046847 -0.31792358 0.26516747 0.8782062
0002a0 2b 45 b4 be dd 0b c9 be 80 8a 7f 3e 11 7a 71 3e
       -0.3520902 -0.39266863 0.24955177 0.23581721
0002b0 1b 54 be 3e f9 e1 07 be f5 81 c5 be ce 73 51 be
       0.37173542 -0.13269795 -0.38575712 -0.20454332
0002c0 02 da 9e 3e 56 bb 7b 3e 23 66 e2 3e 63 1c c8 be
       0.31025702 0.24583182 0.4421855 -0.39084157
0002d0 17 3a f8 be 7c c9 a1 3e 04 66 16 bf a5 bd 4b 3e
       -0.4848182 0.31599033 -0.58749413 0.19896562
0002e0 bd 4a 2c 3e 56 8b 22 bf a7 9f 92 3e 30 16 d5 3e
       0.16825385 -0.6349386 0.2863743 0.4161849
0002f0 0c d5 c6 be 88 e9 5e 3e 64 b6 d2 3e 94 7d e6 be
       -0.38834417 0.21768773 0.41154778 -0.45017684
000300 c2 6b bc 3e 41 d1 9e be d7 ed a7 be d0 54 ac be
       0.36800963 -0.31019023 -0.32798645 -0.33658457
000310 a7 68 74 3e e6 49 07 3e dc 76 b0 3e 38 57 3d 3f
       0.23868047 0.13211784 0.34465683 0.7396121
000320 0e b4 23 3e 98 0a 2b 3f 28 e9 80 3e 8b 0e 86 be
       0.15986654 0.6681304 0.25177884 -0.2618297
000330 bf 64 09 bf fe 6a 99 3e 2c e9 0b 3e 5e cc 4d 3e
       -0.5366935 0.2996444 0.13663167 0.20097491
000340 35 13 0a bf af 6e f2 3e a4 74 c3 3e d1 93 e5 3e
       -0.5393556 0.4735007 0.38174927 0.44839337
000350 a0 1d 97 3e af 26 00 3e 17 80 e9 3e cb b8 69 3e
       0.2951479 0.12514757 0.45605537 0.22824399
000360 c6 ca 1e 3c b3 59 d6 3d 30 28 e8 be a4 68 4e 3e
       0.0096919 0.104663275 -0.4534316 0.20157105
000370 e4 b6 0e 3e 0b 94 3f bf 87 dd a4 3e 24 de 05 bf
       0.13936955 -0.7483527 0.32200262 -0.52292085
000380 6a 87 1d be fc 65 cb 3e 7d 6f 11 bf 7d 57 df 3e
       -0.15383688 0.39726245 -0.5681074 0.43621436
000390 d3 85 22 bd 7a 5c 81 3e 36 9d ee be 29 cc dc be
       -0.039678406 0.25265867 -0.46604317 -0.43124512
0003a0 02 fa 10 bf 24 11 d6 be 93 10 02 bf 37 ce b7 3e
       -0.5663148 -0.41809952 -0.5080654 0.35899517
0003b0 ce e6 fe be 4b 2c 20 bf e8 88 8b be 5f 0f e6 3e
       -0.49785465 -0.62567586 -0.2725289 0.44933602
0003c0 fe fb 33 3e c4 a0 a4 be df aa 29 bf 34 e1 da be
       0.17576596 -0.32153904 -0.66276354 -0.4274994
0003d0 08 59 73 3e fc e3 ac be 60 67 ff be 51 4e 66 be
       0.23764431 -0.33767688 -0.49883556 -0.22490813
0003e0 f7 90 1c be 4d ff 08 bf 2a 86 bc be 5d 41 50 3e
       -0.15289675 -0.5351456 -0.3682111 0.20337434
0003f0 30 dd b8 3e fb ee b8 bd 7e 59 06 3e e7 f8 3b 3d
       0.36106253 -0.09029957 0.13120076 0.04589167

out.bias f4 [5]
000000 9e 2f 9b bf 04 32 a2 3f e3 f0 9e 3f de 84 de 3e
       -1.2123907 1.2671514 1.2417263 0.43460745
000010 a4 3e a6 bf
       -1.2987866

exp_avg_sq f4 [128, 28]
000000 29 6b b8 3a 24 be 71 3a 31 3d ec 39 6b fb f7 39
       0.0014070022 0.00092217536 0.0004505902 0.00047298832
000010 53 e5 1d 39 5c f7 0e 3a 31 ad 38 3c fc 64 50 3c
       0.00015058117 0.00054537295 0.011271761 0.012719389
000020 1c 1a de 3b 62 49 82 3b 02 61 34 3b 35 38 1f 3b
       0.006778015 0.003976033 0.0027523641 0.0024294977
000030 95 c2 1c 3b ae 5c 31 3b 92 01 80 3b 50 7e eb 3b
       0.002391969 0.0027063298 0.003906437 0.0071866885
000040 1a 41 b1 3c 60 c4 3b 3d b2 ba e8 39 c8 51 9a 38
       0.021637488 0.045841575 0.00044389587 7.358525e-05
000050 92 4c ca 39 93 b6 93 39 a9 e0 9f 39 8d 09 ba 3a
       0.00038585492 0.00028174053 0.00030494228 0.001419352
000060 2d 88 53 3b 6d 98 03 3e d0 68 9d 38 62 9b ae 3f
       0.0032277212 0.12851115 7.505866e-05 1.3641169
000070 e4 bd 94 45 9e eb a2 45 54 0a 5c 46 1a 37 78 46
       4759.7363 5213.452 14082.582 15885.775
000080 59 6d 06 46 2d 93 ec 45 b7 76 34 47 a8 cd ff 46
       8603.337 7570.397 46198.715 32742.828
000090 95 dc 3c 46 85 8d 0b 46 96 d2 58 46 a4 4f 66 46
       12087.1455 8931.38 13876.646 14739.91
0000a0 68 cf 08 47 98 c9 ce 46 13 df 4d 46 73 c1 09 46
       35023.406 26468.797 13175.769 8816.362
0000b0 00 32 bd 45 79 e1 c2 45 97 10 9d 45 59 d2 c4 45
       6054.25 6236.184 5026.0737 6298.2935
0000c0 6c 64 17 46 8d d6 96 46 07 7c a5 46 b5 69 94 45
       9689.105 19307.275 21182.014 4749.2134
0000d0 d1 10 0b 47 f4 26 08 48 fe b0 90 43 81 8f e5 49
       35600.816 139419.81 289.38275 1.8805601e+06
0000e0 f9 2f 0d 46 a1 3c 09 47 c0 fc de 48 ec 9f 10 49
       9035.993 35132.63 456678.0 592382.75
0000f0 a2 49 81 48 17 c7 cc 47 d2 d0 6d 47 93 8d 30 47
       264781.06 104846.18 60880.82 45197.574
000100 b9 f4 22 47 99 26 3f 47 0f a9 59 48 1f 98 5e 48
       41716.723 48934.598 222884.23 227936.48
000110 38 75 22 48 d3 60 06 48 17 cc cd 47 74 7b a7 47
       166356.88 137603.3 105368.18 85750.91
000120 5b 4d 8a 46 28 9c c9 45 92 c4 b3 45 02 fe e0 45
       17702.678 6451.5195 5752.5713 7199.751
000130 d3 14 b3 45 9e 8b e3 45 bd aa 96 45 df a5 09 46
       5730.603 7281.452 4821.3423 8809.468
000140 4c 0f 08 46 dc ac 90 49 47 6b 2e 45 d0 1f bb 4b
       8707.824 1.1851795e+06 2790.7048 2.4526752e+07
000150 82 e2 73 44 93 17 26 44 fa 4f e5 43 b0 f4 1c 44
       975.5392 664.36835 458.62482 627.82324
000160 24 ed ce 44 3f d8 03 45 68 3a c7 45 ee 6a cd 45
       1655.4106 2109.5154 6375.301 6573.366
000170 17 49 1a 46 0a df 83 46 2d 60 bd 46 fa 2f 21 47
       9874.272 16879.52 24240.088 41263.977
000180 6c 64 de 46 62 86 64 46 ce ea 0a 46 e5 fd 24 46
       28466.21 14625.596 8890.701 10559.474
000190 67 53 ba 46 f6 d5 03 47 b4 02 41 46 17 61 04 46
       23849.701 33749.96 12352.676 8472.272
0001a0 71 a1 2b 46 8c d0 f0 45 3c cb 1a 45 0e c9 6f 44
       10984.36 7706.0684 2476.7021 959.1415
0001b0 7d 30 10 47 9b 4c 03 48 4a 21 7a 43 f3 a3 0b 48
       36912.49 134450.42 250.13004 142991.8
0001c0 4c 02 28 46 72 b6 34 44 2e 56 62 43 b5 b4 81 43
       10752.574 722.8507 226.33664 259.41177
0001d0 7a 75 9e 43 a5 66 13 44 54 ac 1c 45 36 64 a4 46
       316.9178 589.6038 2506.7705 21042.105
0001e0 49 fd e5 46 8e d0 3b 46 f1 7e 83 45 8e c4 19 45
       29438.643 12020.139 4207.8677 2460.2847
0001f0 88 3f 43 45 28 9c 59 45 46 f5 97 46 1d 65 41 46
       3123.9707 3481.7598 19450.637 12377.278
000200 78 24 94 45 2d be 3b 45 7b c7 1e 45 68 52 2b 45
       4740.5586 3003.886 2540.4675 2741.1504
000210 d5 7e 2c 45 e1 57 64 45 98 64 9e 45 e0 b1 27 46
       2759.927 3653.4924 5068.574 10732.469
000220 86 f1 7e 46 c4 d2 ff 46 a6 a5 17 43 8a 26 7b 47
       16316.381 32745.383 151.64706 64294.54
000230 8f fb 7f 43 10 62 2a 43 07 84 b3 42 b5 b1 b8 42
       255.98265 170.38306 89.757866 92.347084
000240 77 2f 22 43 5e 15 5d 43 54 84 96 44 8a 3c cb 44
       162.18541 221.08347 1204.1353 1625.8918
000250 15 2c f9 44 fc 77 8d 45 d0 a1 d7 45 16 6c 48 46
       1993.3776 4526.998 6900.2266 12827.021
000260 31 4c 00 46 e9 20 50 45 88 b9 0e 45 24 4e 62 45
       8211.048 3330.057 2283.5957 3620.8838
000270 6e a3 04 46 c3 97 25 46 be 83 27 45 49 92 e4 44
       8488.857 10597.94 2680.234 1828.5714
000280 e2 63 d2 44 9f ca 7e 44 f5 e1 02 44 48 e8 78 43
       1683.1213 1019.16595 523.5306 248.90735
000290 54 96 35 46 28 85 f4 46 80 de 5d 42 82 a3 ec 46
       11621.582 31298.578 55.467285 30289.754
0002a0 4a f0 9d 3b 39 f6 b2 3b 85 ca 09 3c e0 09 b5 3c
       0.0048199045 0.005461481 0.008410101 0.022099435
0002b0 fa 95 54 3d ea 37 d1 3c b5 9e 9a 3e 5a 56 ad 3e
       0.05190084 0.025539357 0.3019921 0.33854944
0002c0 29 76 39 3e a6 d9 d7 3d 30 38 ad 3d ba 25 a4 3d
       0.18111481 0.1053956 0.084579825 0.08015008
0002d0 4b f2 8e 3d 2d 91 99 3d 83 b7 d6 3d 76 7c 40 3e
       0.069798075 0.07498393 0.10484221 0.18797478
0002e0 2e d3 0d 3f 93 8e 9a 3f d8 a2 b9 3c 3d 7d 4f 3b
       0.5540036 1.207476 0.022660658 0.0031660341
0002f0 5d b7 2d 3c fc c4 f7 3b 1e 56 bc 3b b1 6c a9 3b
       0.010602799 0.007561324 0.0057475707 0.0051704277
000300 47 32 bf 3d 4e 88 61 40 f2 76 0c 3b 95 0b 13 42
       0.093357615 3.5239444 0.0021433202 36.76131
000310 34 62 79 41 e4 88 54 42 66 20 e5 43 e4 1c fa 43
       15.586475 53.133682 458.2531 500.2257
000320 9f d1 d4 43 22 23 57 43 17 d7 ed 42 ed cc c5 42
       425.63766 215.13724 118.9201 98.900246
000330 61 56 b2 42 f0 ce c2 42 a8 e4 f6 42 84 e3 4a 43
       89.16871 97.404175 123.446594 202.88873
000340 c5 85 f8 43 a8 6f ae 44 7b 2b 09 44 b9 a4 28 42
       497.04507 1395.4893 548.6794 42.160862
000350 2d a2 c6 41 75 5c f7 41 8f b3 c5 40 b9 79 a2 40
       24.829187 30.920145 6.178169 5.0773587
000360 ca ae a0 40 69 82 d0 40 4d 2c 06 41 c2 77 82 41
       5.0213366 6.515919 8.385816 16.308475
000370 7c c2 8d 42 dc 61 75 45 74 50 91 40 84 9b 6e 47
       70.87985 3926.1162 4.541071 61083.516
000380 29 28 16 46 45 fa dd 45 9f c7 02 46 9a 3a 04 46
       9610.04 7103.2837 8369.905 8462.65
000390 a1 58 bf 45 98 0e 9c 45 cf 9a 3c 46 55 eb 34 46
       6123.0786 4993.824 12070.702 11578.833
0003a0 54 ce 10 46 7f e5 ac 45 c6 e3 ce 45 30 7b 1b 46
       9267.582 5532.687 6620.4717 9950.797
0003b0 7b c9 56 47 da f5 56 48 39 d5 91 47 c7 6c c7 46
       54985.48 220119.4 74666.445 25526.389
0003c0 30 a4 b6 46 3b 52 79 47 5c e3 48 48 cc f3 4f 47
       23378.094 63826.23 205709.44 53235.797
0003d0 2b be 05 46 bf 77 10 46 40 c5 1a 46 2a 42 16 46
       8559.542 9245.937 9905.3125 9616.541
0003e0 f7 4b 07 48 6c 06 d3 48 bb f6 31 44 fe a6 99 49
       138543.86 432179.38 711.85516 1.2587198e+06
0003f0 21 b0 09 3d 0f 65 f9 3c 15 04 05 3d ef 97 08 3d
       0.033615235 0.030443696 0.032474596 0.03334802

exp_avg f4 [128, 28]
000000 04 00 00 00 04 00 00 00 04 00 00 00 04 00 00 00
       6e-45 6e-45 6e-45 6e-45
000010 04 00 00 00 04 00 00 00 04 00 00 00 04 00 00 00
       6e-45 6e-45 6e-45 6e-45
000020 04 00 00 00 04 00 00 00 04 00 00 00 04 00 00 00
       6e-45 6e-45 6e-45 6e-45
000030 04 00 00 00 04 00 00 00 04 00 00 00 04 00 00 00
       6e-45 6e-45 6e-45 6e-45
000040 04 00 00 00 04 00 00 00 04 00 00 00 04 00 00 00
       6e-45 6e-45 6e-45 6e-45
000050 04 00 00 00 04 00 00 00 04 00 00 00 04 00 00 00
       6e-45 6e-45 6e-45 6e-45
000060 04 00 00 80 04 00 00 00 04 00 00 00 04 00 00 00
       -6e-45 6e-45 6e-45 6e-45
000070 67 16 3c 41 83 47 a4 c0 7c 31 43 c0 7a 1d 3c bf
       11.755469 -5.1337295 -3.0498953 -0.7348248
000080 c4 a6 d2 bf 4a f5 a8 3f c1 87 e0 40 ff 53 08 41
       -1.6457143 1.3199856 7.0165715 8.520507
000090 66 f8 f1 40 1c 3b ad 40 1a 74 04 41 32 9b be 40
       7.561572 5.4134655 8.278345 5.9564447
0000a0 9b a3 60 bf b9 10 17 40 04 d8 02 c0 35 cf ac 40
       -0.8774964 2.3603957 -2.0444345 5.400294
0000b0 5c 84 2d 41 96 4a 3e 41 d1 11 99 40 76 a7 a4 3f
       10.844814 11.893209 4.783425 1.2863605
0000c0 ed 6d 74 40 a5 41 83 41 19 2b 83 41 3c 81 3b 41
       3.8192093 16.407053 16.396044 11.719051
0000d0 52 b5 46 bf df 15 13 40 a8 74 4c 40 27 de 0d 42
       -0.7762042 2.29821 3.1946201 35.466946
0000e0 dd a7 6b 3f 35 4c ac 3e 09 82 17 bf a8 97 73 3f
       0.92053014 0.3365189 -0.5918279 0.95153284
0000f0 9f df 38 c0 d9 41 26 c0 aa f0 0d c0 2a 1e 06 c0
       -2.8886487 -2.597769 -2.217814 -2.095591
000100 ac fe 9f bf 91 a6 27 41 39 86 66 40 b2 5d 72 c0
       -1.2499595 10.478166 3.6019423 -3.7869687
000110 c5 4b b9 c0 ee d0 ad c0 4d a7 ea bf 25 f0 d0 bf
       -5.790499 -5.431754 -1.8332306 -1.6323286
000120 6c dd 13 3f d8 e2 e3 3f d7 bc a8 3f 96 eb 99 3f
       0.5775974 1.7803602 1.3182629 1.202502
000130 1e 1e 99 3f 91 4f 87 3f 0b 0e 77 3f b3 f0 74 3f
       1.1962316 1.0571157 0.965058 0.9567978
000140 ff 85 f0 40 d7 7e bd 40 bd 24 8d 3f 4a 4b 39 c1
       7.516357 5.9217334 1.1026837 -11.580881
000150 89 bd b4 bd 8a 4e ff bc 43 41 93 bd ab f4 a4 bc
       -0.088252135 -0.03116538 -0.07190182 -0.020136198
000160 0c f8 53 bf ef 2c b0 be 18 97 a9 3b 75 9e 37 3f
       -0.82800364 -0.34409282 0.0051754825 0.7172616
000170 24 af a1 3f 7f d8 af bf a4 89 22 3e 04 fc b0 bf
       1.2631574 -1.3737944 0.15872818 -1.3826909
000180 57 68 8a bf f4 41 62 bf 8d 42 22 bf 21 fc 64 3f
       -1.0813092 -0.88381886 -0.633828 0.8944722
000190 b4 3a 59 3e d8 61 e5 be e3 0e 4a bf 9d cb 9c bf
       0.212138 -0.4480121 -0.78928965 -1.2249638
0001a0 f7 da 05 c0 90 c6 25 c0 6b 5f 07 be ef fc 13 be
       -2.0914896 -2.5902443 -0.13219993 -0.14451955
0001b0 3b 4a 98 be 6c be ce c0 d7 1a 22 3c 16 c3 19 c1
       -0.29744133 -6.460745 0.009894094 -9.610128
0001c0 64 a1 90 0f 5f 3d 79 0f 2f 97 73 0f 42 9c 68 0f
       1.4261662e-29 1.22884675e-29 1.2009942e-29 1.1468577e-29
0001d0 13 c0 83 0f 40 23 b1 0f dd ca d4 0f 2b 5d 20 10
       1.2991582e-29 1.7467125e-29 2.0982954e-29 3.162621e-29
0001e0 32 0f 16 10 4e 9c 1d 10 fc 20 2e 10 db 74 53 10
       2.959399e-29 3.1083203e-29 3.434086e-29 4.1702435e-29
0001f0 07 14 9a 10 bd a8 1d 11 e8 dc bf 11 df 5c 3c 11
       6.0773147e-29 1.2437113e-28 3.027063e-28 1.4859203e-28
000200 0c a1 cc 10 47 6d e8 10 a2 f5 32 11 37 e0 bf 11
       8.0711944e-29 9.1676233e-29 1.4117416e-28 3.027267e-28
000210 ab 2f 1a 11 1e 5a 29 10 e3 40 d0 0f a5 6a 9a 0f
       1.2163147e-28 3.3398797e-29 2.0535377e-29 1.522665e-29
000220 0c a8 dd 90 8d c8 24 12 21 4c 64 0f 91 82 a4 11
       -8.742805e-29 5.1996473e-28 1.125593e-29 2.5955105e-28
000230 04 00 00 00 04 00 00 00 04 00 00 00 04 00 00 00
       6e-45 6e-45 6e-45 6e-45
000240 04 00 00 00 04 00 00 00 04 00 00 00 04 00 00 00
       6e-45 6e-45 6e-45 6e-45
000250 04 00 00 00 04 00 00 00 04 00 00 00 04 00 00 00
       6e-45 6e-45 6e-45 6e-45
000260 04 00 00 00 04 00 00 00 04 00 00 00 04 00 00 00
       6e-45 6e-45 6e-45 6e-45
000270 04 00 00 00 04 00 00 00 04 00 00 00 04 00 00 00
       6e-45 6e-45 6e-45 6e-45
000280 04 00 00 00 04 00 00 00 04 00 00 00 04 00 00 00
       6e-45 6e-45 6e-45 6e-45
000290 04 00 00 00 04 00 00 00 04 00 00 00 04 00 00 00
       6e-45 6e-45 6e-45 6e-45
0002a0 04 00 00 00 04 00 00 00 04 00 00 00 04 00 00 00
       6e-45 6e-45 6e-45 6e-45
0002b0 04 00 00 00 04 00 00 00 04 00 00 00 04 00 00 00
       6e-45 6e-45 6e-45 6e-45
0002c0 04 00 00 00 04 00 00 00 04 00 00 00 04 00 00 00
       6e-45 6e-45 6e-45 6e-45
0002d0 04 00 00 00 04 00 00 00 04 00 00 00 04 00 00 00
       6e-45 6e-45 6e-45 6e-45
0002e0 04 00 00 00 04 00 00 00 04 00 00 00 04 00 00 00
       6e-45 6e-45 6e-45 6e-45
0002f0 04 00 00 00 04 00 00 00 04 00 00 00 04 00 00 00
       6e-45 6e-45 6e-45 6e-45
000300 04 00 00 80 04 00 00 00 04 00 00 00 04 00 00 00
       -6e-45 6e-45 6e-45 6e-45
000310 04 00 00 00 04 00 00 00 04 00 00 00 04 00 00 00
       6e-45 6e-45 6e-45 6e-45
000320 04 00 00 00 04 00 00 00 04 00 00 00 04 00 00 00
       6e-45 6e-45 6e-45 6e-45
000330 04 00 00 00 04 00 00 00 04 00 00 00 04 00 00 00
       6e-45 6e-45 6e-45 6e-45
000340 04 00 00 00 04 00 00 00 04 00 00 00 04 00 00 00
       6e-45 6e-45 6e-45 6e-45
000350 04 00 00 00 04 00 00 00 04 00 00 00 04 00 00 00
       6e-45 6e-45 6e-45 6e-45
000360 04 00 00 00 04 00 00 00 04 00 00 00 04 00 00 00
       6e-45 6e-45 6e-45 6e-45
000370 04 00 00 80 04 00 00 00 04 00 00 00 04 00 00 00
       -6e-45 6e-45 6e-45 6e-45
000380 ba 32 bc c0 e0 85 d8 c0 2f 4e c8 c0 43 80 1b c0
       -5.881192 -6.766342 -6.259544 -2.4297035
000390 31 6b 3f 41 15 2e 43 41 fe 76 78 40 b2 e4 e7 40
       11.96367 12.1987505 3.8822627 7.246667
0003a0 fd cc 48 3f 1a 0f 92 bf 6b 96 0c c0 9a 7d 2c c1
       0.7843779 -1.1410859 -2.1966808 -10.780664
0003b0 9b dd 44 c1 d0 cf a9 3f 2a cc 15 c1 4c a8 57 40
       -12.304103 1.3266544 -9.362345 3.369647
0003c0 92 71 61 40 8f 2a 21 c0 dd 3a 80 c0 e4 9c fd c0
       3.5225568 -2.5182226 -4.0071855 -7.9254017
0003d0 51 a7 ff c0 30 88 92 41 ef 7d b7 41 b1 cb bd c0
       -7.9891744 18.316498 22.936491 -5.9311147
0003e0 c5 e1 0b bf fd 04 fb c0 06 92 27 40 19 2a 4e 41
       -0.5464137 -7.844359 2.6182876 12.885278
0003f0 04 00 00 00 04 00 00 00 04 00 00 00 04 00 00 00
       6e-45 6e-45 6e-45 6e-45

exp_avg_sq f4 [5, 128]
000000 b4 0b a6 43 e9 52 c0 41 d7 62 01 41 b2 6e 96 41
       332.09143 24.040483 8.086631 18.80405
000010 f3 96 5d 43 ad e3 a5 42 33 68 8c 42 98 16 9b 43
       221.58965 82.94468 70.203514 310.1765
000020 65 60 ef 43 da df 45 43 8d 02 01 44 ad 94 db 42
       478.75308 197.87442 516.03986 109.79038
000030 58 54 f4 42 d1 3c cf 42 a5 c8 83 42 32 aa 09 43
       122.164734 103.61878 65.891884 137.66483
000040 e4 0c ea 42 87 c3 10 44 6d 06 82 43 dc 41 1f 43
       117.02518 579.0551 260.0502 159.25726
000050 2b 80 3a 42 3b 75 aa 41 85 f7 ec 40 86 e4 ca 42
       46.625164 21.307241 7.405215 101.446335
000060 fa 9a c2 43 69 68 d0 43 54 48 d7 42 53 d1 0d 42
       389.21075 416.8157 107.641266 35.45442
000070 a4 4e 4b 43 36 ee 6d 42 58 df 12 42 9a c3 c7 43
       203.30719 59.482628 36.71811 399.52814
000080 d6 f9 91 43 66 ad 0e 43 20 6c 4f 43 a0 d6 d0 42
       291.95184 142.67734 207.42236 104.41919
000090 ba 9d aa 43 0e 1b 96 42 c9 09 0f 42 ae 8d 80 43
       341.23224 75.05284 35.759556 257.10687
0000a0 31 7e 46 43 cf f8 e0 42 db 1f 2e 42 b6 bc 1f 43
       198.49294 112.485954 43.53111 159.73715
0000b0 75 5e 95 43 d4 3d 53 43 77 bb 14 41 4d 9b ae 41
       298.73795 211.24152 9.295768 21.82583
0000c0 f2 d3 41 42 ef 3e 98 43 07 72 47 43 75 e3 81 42
       48.456978 304.49167 199.44542 64.94425
0000d0 32 e6 c4 42 cb 11 43 43 dc c3 05 42 86 22 68 43
       98.4496 195.0695 33.44127 232.13486
0000e0 fe e0 09 44 50 7b de 41 3d 21 d1 43 78 e6 e9 42
       551.5155 27.810211 418.25967 116.950134
0000f0 c2 da 0e 43 88 9c fc 43 c5 9b 08 44 1b 40 9b 42
       142.85452 505.2229 546.4339 77.625206
000100 ac c7 86 43 48 83 2b 42 e9 f3 cd 42 ad 14 8a 42
       269.55994 42.878204 102.97639 69.04038
000110 7b ba 0a 44 ef 5d 54 42 ec 93 cc 43 27 05 3b 43
       554.91376 53.091732 409.15564 187.02013
000120 3a 35 89 44 83 3d 04 43 22 97 7b 43 c3 68 21 43
       1097.6633 132.24028 251.59036 161.40923
000130 54 d0 34 42 44 c4 94 43 f3 c6 33 42 56 b1 9e 43
       45.203445 297.53333 44.944286 317.38544
000140 53 f9 b4 41 e0 fd d0 43 0f 6e 34 44 30 a7 c1 43
       22.62174 417.9834 721.71967 387.30615
000150 3e 24 c7 42 59 1e 16 44 5e 13 a9 42 cb 2f 4b 42
       99.570786 600.4742 84.53783 50.796673
000160 47 48 35 43 5e 12 36 42 df 31 b7 41 5c 9c 63 44
       181.28233 45.517937 22.899351 910.4431
000170 a9 b1 32 44 97 f6 2c 43 91 55 8e 42 30 25 6d 41
       714.77594 172.96324 71.16712 14.821579
000180 08 30 f7 42 b6 dd 08 43 b3 5e e5 41 e9 34 90 43
       123.59381 136.86606 28.67124 288.41336
000190 e9 59 32 44 97 87 74 43 f8 79 27 42 72 58 ab 42
       713.40485 244.52965 41.86911 85.672745
0001a0 07 c2 82 43 4a 24 98 42 69 b5 02 42 47 43 80 43
       261.51584 76.07088 32.67716 256.5256
0001b0 89 ff f7 41 cf fd 83 42 80 bc 41 42 b3 6b cf 42
       30.999773 65.99572 48.434082 103.71035
0001c0 1e 99 ac 43 2b 43 af 42 e3 28 82 42 39 2a 5c 42
       345.19623 87.63119 65.07986 55.041233
0001d0 b9 99 7f 43 6c d6 91 43 99 3a ac 42 88 a7 93 41
       255.60048 291.67517 86.11445 18.456802
0001e0 9d 13 aa 42 69 48 28 43 fa 7b 1e 42 f5 6f 18 43
       85.03831 168.28285 39.62107 152.43733
0001f0 ae 3c 3d 44 b7 fb 05 43 c0 98 9e 43 76 14 19 44
       756.9481 133.98326 317.19336 612.3197
000200 92 7a c2 46 68 af 61 46 d4 ef 69 46 87 04 d7 46
       24893.285 14443.852 14971.957 27522.264
000210 a6 76 21 46 2e 23 9a 46 9e b6 aa 46 8d c9 33 47
       10333.662 19729.59 21851.309 46025.55
000220 b5 7d 19 47 a0 84 04 47 f0 c6 bf 46 7d b6 f9 46
       39293.707 33924.625 24547.469 31963.244
000230 22 cd f8 46 d6 91 a4 46 51 84 a4 46 c5 2d d4 46
       31846.566 21064.918 21058.158 27158.885
000240 ba 37 2d 47 bc 33 98 46 f8 bc 0b 47 79 3c 08 47
       44343.727 19481.867 35772.97 34876.473
000250 dd 11 bf 46 24 39 11 47 a0 36 1c 46 a3 63 01 47
       24456.932 37177.14 9997.656 33123.637
000260 00 ca ed 46 17 14 24 47 f4 4d d1 46 30 54 bf 46
       30437.0 42004.09 26790.977 24490.094
000270 f6 dd 1a 46 92 c6 f1 46 d9 23 bc 46 c4 21 d8 46
       9911.49 30947.285 24081.924 27664.883
000280 72 c9 e0 46 d4 9d 23 47 d4 2d e7 46 2b 07 0c 47
       28772.723 41885.83 29590.914 35847.168
000290 00 74 1c 47 17 0e 15 47 cf a8 df 46 70 93 80 45
       40052.0 38158.09 28628.404 4114.4297
0002a0 76 05 90 46 ba be ba 46 06 de 41 47 72 c2 fe 46
       18434.73 23903.363 49630.023 32609.223
0002b0 fb ce c8 46 48 27 9d 46 23 64 97 46 51 07 fa 46
       25703.49 20115.64 19378.068 32003.658
0002c0 b2 4d b1 46 62 6c fa 46 ce 8a 10 47 17 86 95 46
       22694.848 32054.191 37002.805 19139.045
0002d0 97 fe 9e 46 32 67 37 47 2c 7a c9 46 0f bb 28 47
       20351.295 46951.195 25789.086 43195.06
0002e0 ca 22 c6 46 27 dc 42 46 82 f5 0b 47 cd 2a 20 47
       25361.395 12471.038 35829.508 41002.8
0002f0 85 a7 4e 47 5a d1 0d 47 25 26 31 47 da 29 e2 46
       52903.52 36305.35 45350.145 28948.926
000300 6b b6 c8 46 b3 1d 17 47 4e 4a 02 47 65 ea d9 46
       25691.209 38685.7 33354.305 27893.197
000310 3c 1a 2d 47 91 d1 12 47 8d 3e 3b 46 1d fe a5 46
       44314.234 37585.566 11983.638 21247.057
000320 b8 61 c2 45 2c 32 a0 46 b0 3b fd 46 55 c9 ba 46
       6220.215 20505.086 32413.844 23908.666
000330 2f a8 b1 46 e5 27 03 47 51 cc c1 46 e0 e0 0c 47
       22740.092 33575.895 24806.158 36064.875
000340 74 90 9c 46 19 4d af 46 6b 55 09 47 89 3e 11 47
       20040.227 22438.549 35157.418 37182.535
000350 33 0d 5a 47 6c 40 74 44 92 c5 f0 46 1c 6a 34 47
       55821.2 977.0066 30818.785 46186.11
000360 63 12 c4 46 2e 18 fd 46 28 cc d7 46 5a 06 3d 47
       25097.193 32396.09 27622.078 48390.35
000370 57 2b 57 47 23 6a 8e 46 a2 4e 0d 47 4e b4 ea 46
       55083.34 18229.068 36174.633 30042.152
000380 d2 a7 4f 46 ce 1b 0f 47 ee 6d 9d 46 bf 32 98 46
       13289.955 36635.805 20150.965 19481.373
000390 10 4d 9c 46 5e 35 b7 46 5f 22 9d 46 29 54 a7 46
       20006.531 23450.684 20113.186 21418.08
0003a0 61 74 52 46 e6 b5 35 46 9b 31 d3 46 ee a7 34 47
       13469.095 11629.475 27032.803 46247.93
0003b0 a9 68 fc 46 da c9 c0 46 ff e2 d3 46 fa 63 c2 46
       32308.33 24676.926 27121.498 24881.988
0003c0 80 09 42 46 32 53 7f 46 0f 08 de 46 ba 93 b1 46
       12418.375 16340.799 28420.03 22729.863
0003d0 ef ae 13 47 7a ed ed 46 1f 73 ce 46 bb 48 96 46
       37806.934 30454.738 26425.56 19236.365
0003e0 76 91 ae 46 da 1a cb 46 4c 8e 14 47 c9 7e e3 46
       22344.73 25997.426 38030.297 29119.393
0003f0 67 dc 08 47 4a 42 21 47 42 3c 23 47 e5 b8 02 47
       35036.402 41282.29 41788.258 33464.895
