model/380a.pt (torch_old, 336839 bytes, 24 tensors)

fc1.weight f4 [128, 28]
000000 94 5f c6 3c b0 7c 1f 3e e7 58 4a be 2c 75 22 bd
       0.024215497 0.15574908 -0.19760476 -0.039662525
000010 c0 bb ab be fc 6e d6 be 1f 5e 9e bd c0 7d 15 be
       -0.3354168 -0.4188155 -0.07732796 -0.14598751
000020 d9 36 5e be 80 ad 2a 3e e0 05 d7 3c 80 43 26 bf
       -0.2170061 0.16667747 0.026247919 -0.64946747
000030 d0 83 84 be eb 84 d5 bd 82 04 29 3e c5 7b 8e 3e
       -0.25881815 -0.10425743 0.16505626 0.27828804
000040 3f 32 c2 3e c2 80 d1 bd 4a 81 6e bf 68 04 0b c0
       0.3792896 -0.10229637 -0.9316603 -2.172144
000050 08 b0 c9 bf 55 11 d1 bf e6 93 35 bf 93 33 18 3e
       -1.5756845 -1.6333414 -0.709288 0.14863424
000060 d4 fb 42 3d 7a 1c 39 3c 3c d0 f1 bf 11 d8 5d 3d
       0.047603443 0.011298293 -1.8891673 0.054161135
000070 49 cc 33 3f dc 93 68 3f 08 4f 7b 3e dd d0 4b 3e
       0.7023359 0.90850616 0.24541867 0.19903894
000080 7d 69 cd bd 61 33 c3 be 2f d5 09 3e 5e 8f a7 3e
       -0.10029886 -0.38125136 0.1346023 0.32726568
000090 0c df 1d 3e d9 e9 64 3e 3c 62 e6 3d 64 54 84 bd
       0.15417117 0.22354831 0.112492055 -0.06461409
0000a0 25 49 b3 be 06 05 c6 be f1 fc 86 3d 55 c3 67 bc
       -0.35016742 -0.38675708 0.065912135 -0.014145692
0000b0 94 0b 6d 3d 5e 17 dc 3c 5d 6b cb bd 18 1f c3 bd
       0.05787237 0.026866611 -0.09932587 -0.09527415
0000c0 da f7 fd 3d c2 ad 89 3e d0 eb 33 be 69 65 18 3f
       0.124007896 0.2689038 -0.17570424 0.5952974
0000d0 d6 15 be 3e e9 91 ef bc 91 9d 73 3f 10 c8 8a 3d
       0.37126034 -0.02924438 0.951623 0.0677644
0000e0 3c 76 b3 bf a8 b7 93 bf 52 29 f7 be e1 f4 3a 3e
       -1.4020457 -1.1540422 -0.48273712 0.18257476
0000f0 4a 73 09 3e 67 6f 8b 3d df 44 1d 3e 95 86 33 3d
       0.13422886 0.06808358 0.15358303 0.04382952
000100 c1 44 35 3d 41 43 56 3e b6 67 10 3e 3e e2 f1 3e
       0.044255022 0.20924093 0.14102063 0.47242922
000110 42 04 f0 3d 2a 90 99 3a 72 17 ee 3b 05 4a 57 bd
       0.11719562 0.0011715938 0.0072659785 -0.052560825
000120 b7 a8 bc be 77 5e 27 bf 1a 18 e9 be 65 ca 22 bf
       -0.3684747 -0.65378517 -0.455262 -0.6359008
000130 ca b5 2c be bb 70 84 be 6a 12 58 bf c4 05 cd bf
       -0.16866222 -0.25867257 -0.844031 -1.6017385
000140 16 ee da 3d 16 91 07 3e 79 93 d2 bf 6f 02 09 3e
       0.106899425 0.1323894 -1.6451255 0.13379835
000150 14 7b 30 bf 0f 65 0e bf e7 7a 78 be c7 c3 94 be
       -0.689378 -0.55622953 -0.24265634 -0.29055616
000160 ee 54 02 3c 73 07 9f 3d 89 c5 52 be b9 f7 03 3e
       0.007954819 0.07765093 -0.20583166 0.12887467
000170 49 18 1c 3e 03 e3 d8 3e 75 0d dd 3e 95 ec aa 3e
       0.15243639 0.42360696 0.4317433 0.33383623
000180 4a 6c 61 3d 69 77 96 bc be 7f 95 bd d1 40 74 be
       0.055034913 -0.018367486 -0.072997555 -0.2385285
000190 8b 54 eb 3c 2e d3 2b 3d 3b f8 ff 3e 8e 63 59 3c
       0.028726837 0.041949444 0.49994072 0.013268365
0001a0 c2 c1 42 3e 73 1d 31 3d 8c 5c a0 be 5b 71 5a bf
       0.19019225 0.043240976 -0.31320608 -0.85329217
0001b0 64 2a e8 3e 45 9a 46 bd 89 04 64 bf fd b8 e4 3c
       0.4534484 -0.048486967 -0.8906942 0.02792024
0001c0 a8 96 5f bf 09 c5 72 bf 30 7c a3 be 8d 42 95 be
       -0.8733926 -0.948319 -0.31930685 -0.29152337
0001d0 4d b0 12 be 61 8f 69 3d 2d 37 22 3d 8e 46 6b 3d
       -0.14325066 0.057021502 0.0396034 0.057440333
0001e0 fa 62 02 3f cf 3d 7c 3e fd 82 40 bd da a0 80 3e
       0.50932276 0.24632953 -0.04699992 0.2512272
0001f0 8f f5 74 3e d5 9d 6e 3e b5 77 d8 3e 2c e0 4a 3f
       0.23921798 0.23302396 0.4227883 0.7924831
000200 f0 92 0b bf e2 0a 51 bf 64 f7 76 be fe 90 e9 3d
       -0.54521084 -0.8165723 -0.2411781 0.11404608
000210 f5 68 f0 3c 23 27 f0 bc b9 ec 14 3e 22 4f 61 bf
       0.029346922 -0.029315537 0.14543428 -0.8801137
000220 42 d4 9d be 8e 8b ae be 7a 0b c1 bf 1b c5 c4 bd
       -0.30826002 -0.34090847 -1.5081627 -0.096079074
000230 1e 12 8a bf ca 5c b4 bf ec 04 6a bf 4a 81 a9 3d
       -1.0786779 -1.4090817 -0.9141376 0.08276613
000240 de c5 80 bc 66 15 21 bd dc 67 45 3d 47 16 ce 3d
       -0.01571935 -0.039327048 0.04819475 0.10062843
000250 86 c4 92 3d 48 f9 59 3e b8 fc 78 3e ab 14 56 3c
       0.0716639 0.212865 0.24315155 0.013066451
000260 35 28 1c bd 80 89 9f be a6 5a f0 bc b3 32 a2 3e
       -0.038124282 -0.31159592 -0.0293401 0.31679305
000270 e6 61 b7 3d 7b 34 0f 3e a5 fd 55 3d fa 9a bb 3d
       0.089542195 0.13984863 0.052243847 0.09160419
000280 ff 9d 5c be ba d2 73 38 88 6e b8 bd 19 e1 9c bf
       -0.21544646 5.813197e-05 -0.09005457 -1.2256194
000290 e9 04 07 3f 88 ea cf 3d 29 84 9a bf de b2 39 be
       0.5274187 0.10152155 -1.2071582 -0.18134639
0002a0 1e 6b 6d bf 09 92 2d 3c 1f 5b ff bd c3 9e 22 be
       -0.9274157 0.0105938995 -0.12468552 -0.15880875
0002b0 00 08 1d 3e 57 8e 92 bc ff 15 59 3e dc 50 f7 3d
       0.15335083 -0.017890139 0.21199797 0.120759696
0002c0 bc 4f 5a 3e fd 4d bd 3d 48 10 87 3e 43 b9 66 bd
       0.21319479 0.09243391 0.2637961 -0.056329023
0002d0 77 8a 72 be d7 c5 bf bd a6 c3 70 be c6 1d 6e be
       -0.23685633 -0.09363907 -0.23512134 -0.23253545
0002e0 8a ea 2a be 5e 5b c0 3d a7 2a fc bc ed 22 df be
       -0.16691032 0.09392427 -0.030782057 -0.43581334
0002f0 f5 94 83 be be 68 0c 3d 06 e8 45 bf a4 37 8c bf
       -0.25699583 0.034279577 -0.77307165 -1.095448
000300 c4 7b 1b be 63 63 82 3c 80 0f b0 bf 28 7f 50 bd
       -0.15183932 0.015916532 -1.375473 -0.050902516
000310 62 3b 5b bf 99 52 bf be e1 d0 22 be e4 9d 1e be
       -0.85637486 -0.37367705 -0.15899993 -0.15489918
000320 e0 f0 47 be f1 03 07 3e 8b 0f b6 3b bf ab 84 bd
       -0.1952548 0.13185097 0.005556052 -0.064780705
000330 10 43 ca 3d d3 1a 29 be 74 83 0e be a8 42 7a be
       0.098760724 -0.16514139 -0.13917333 -0.2443949
000340 29 ad 88 be ea 53 5b 3e 76 21 57 3d c3 e5 bb be
       -0.2669461 0.2141873 0.052522145 -0.36698732
000350 13 e0 61 be a9 14 64 be 90 cf 5d be f5 f6 fd be
       -0.22058134 -0.22273506 -0.2166121 -0.49602476
000360 94 42 76 bf 2c 9b 65 bf 28 3d 47 bf 35 da 7f bf
       -0.9619534 -0.896899 -0.7782769 -0.9994233
000370 c0 b9 fa be f7 ff 90 3c ca 51 8a bf 48 70 e1 3d
       -0.4896984 0.017700179 -1.080621 0.11007744
000380 1c c5 ce 3e 92 8b db 3e a7 00 46 be 52 56 41 3c
       0.40384758 0.4287992 -0.19336186 0.0118003655
000390 cf 45 10 be 75 41 5a be 16 51 9e be 3f 20 66 bd
       -0.1408913 -0.21314032 -0.3092124 -0.056183096
0003a0 a7 6f 1f 3e dc ab e6 3e b2 a3 81 3d 76 47 a8 bd
       0.15569936 0.45052993 0.063300505 -0.08216755
0003b0 5e 24 26 be 4e 12 05 3e 02 1e 38 3e 43 e5 64 bd
       -0.1622481 0.12995264 0.17980197 -0.055882704
0003c0 b8 67 e2 be 5d c2 31 bf 0e 5f 7e be 69 a5 c9 3c
       -0.44219756 -0.694372 -0.24840948 0.024615007
0003d0 1d b0 43 3e 01 7c 5e bd af 28 cd bd 0d 32 01 3f
       0.1911015 -0.054317478 -0.100175254 0.50466996
0003e0 fb f8 94 bf c9 a9 56 3c d2 a3 c1 be 6b 15 61 3d
       -1.1638483 0.013102003 -0.37820297 0.054952066
0003f0 94 15 16 3e 65 bb 48 be f5 91 9e bd 18 3a 23 be
       0.14656669 -0.19602735 -0.07742683 -0.1594013

fc1.bias f4 [128]
000000 56 32 06 bc 5b 48 30 3d 26 bc d5 bb 43 86 88 3c
       -0.008190712 0.043037754 -0.006522673 0.016665583
000010 1c 7c 9f bd 98 50 1c 3d f9 2e da 3d 35 d8 2b bd
       -0.07787344 0.038162798 0.106534906 -0.041954238
000020 71 73 41 be 5d 99 11 bd 65 fc 6c bd a1 3b 88 3d
       -0.18891694 -0.03554665 -0.05785789 0.06651998
000030 d1 6b e2 3c 48 5f f5 3d b9 0c 34 ba 44 8d 81 be
       0.027639301 0.11981064 -0.0006868351 -0.2530309
000040 4c 55 2e be a3 60 cd bd 76 bb 0a be 15 22 41 be
       -0.17024726 -0.100281976 -0.13548073 -0.18860658
000050 35 ec 37 bd bf 5c 16 bc ae 7d ee 3e 53 1c 0b 3e
       -0.044903 -0.009177386 0.4658026 0.13585024
000060 be 52 92 bd 97 a0 08 be 73 6b d4 bd 77 f3 fe bd
       -0.07144688 -0.1334251 -0.10372057 -0.12448781
000070 c8 2d a7 bc 0e 99 42 be 81 a2 19 bd 50 62 4a 3d
       -0.020407572 -0.19003698 -0.03750849 0.049410164
000080 e4 b1 f6 bd 3e 51 af bd 6c f4 70 3e fc 79 67 bd
       -0.12045649 -0.085604176 0.2353074 -0.056512818
000090 13 52 19 3e 92 40 0f be a5 6e 3e 3c ba 18 b2 bd
       0.14972715 -0.13989475 0.011623059 -0.086961225
0000a0 36 91 56 be 4b d9 66 3e 3c 81 53 bd f5 77 fd 3c
       -0.20953831 0.22543828 -0.05163692 0.030940989
0000b0 e6 04 b5 3c fa d9 8d be f6 2b 27 bd 7e 0a e8 3e
       0.022097062 -0.27705365 -0.04081341 0.45320505
0000c0 29 4d fa 3d 14 8c 15 bd c7 b2 11 3e a9 20 0f 3d
       0.122217484 -0.036510542 0.14228354 0.034943257
0000d0 ea dc 4f be f8 38 47 bd a7 bd 0e 3e 9c 58 52 be
       -0.20299116 -0.048638314 0.13939534 -0.20541614
0000e0 45 46 2c 3b d6 9d 54 3e d7 96 63 be b4 51 10 3f
       0.0026287 0.20763335 -0.2222551 0.5637467
0000f0 48 d4 a4 3d ec 62 97 3c 12 8c 9b 3d 35 7a 19 be
       0.08048302 0.018479787 0.07595076 -0.14988025
000100 b8 ff b5 3d ef 27 6e 3e 86 ea c1 3d 8b f3 65 3e
       0.08886665 0.23257421 0.0946856 0.22456186
000110 e2 d2 08 be 0c 71 f1 3d 72 2f 44 be 29 22 a0 bd
       -0.13361695 0.1178914 -0.19158724 -0.078190155
000120 c3 1c 72 be 5e 30 90 bc 91 93 a7 3d 81 5d 2d be
       -0.23643784 -0.017601188 0.08182443 -0.169302
000130 23 e6 e2 bb 15 ea 10 be 79 e4 d6 be c2 5f 1d 3d
       -0.006924407 -0.14151795 -0.41971186 0.0384214
000140 0c 49 72 bd 9a cd d0 bd c9 7d 45 bd 45 f9 f1 bd
       -0.059151694 -0.101954654 -0.04821566 -0.118151225
000150 e6 dc 65 3e 44 e4 f2 3c 4b 03 83 bd 5d 5d 2c be
       0.22447547 0.029649861 -0.063971125 -0.1683249
000160 95 e4 9d 3d 5d 3b b7 bc 16 62 82 be 62 94 66 bd
       0.07709614 -0.022367174 -0.2546546 -0.056293853
000170 e0 6e 84 bd a5 42 3d 3d 3c 12 75 bd b3 ed 97 bd
       -0.0646646 0.046206135 -0.059831843 -0.074183844
000180 f8 ac 01 be b8 85 21 be 5d ce 37 3f 46 64 ae 3d
       -0.12663639 -0.15773666 0.7179926 0.085152194
000190 9f bd c7 3e 56 6f 57 bd f6 79 e8 3d ba 12 50 be
       0.39011857 -0.052596413 0.11351387 -0.20319644
0001a0 51 bb 71 3d 2d c9 22 3d 01 eb d7 3c 15 78 4b 3e
       0.05901653 0.039742637 0.026357176 0.19870026
0001b0 21 8a 60 3d 94 0c c3 bd e7 34 01 3d 4b 37 88 3e
       0.05481923 -0.095238835 0.031544592 0.26604685
0001c0 17 46 10 be 36 6f 08 3d 15 50 cc 3c 04 3f 68 3d
       -0.14089237 0.033309184 0.02494053 0.05670072
0001d0 22 1a 29 be 40 a8 c2 bd eb 00 11 3e 82 56 98 bd
       -0.16513875 -0.095047474 0.14160506 -0.07438375
0001e0 54 87 e7 bd 08 6c a5 3d 1a 26 02 bc 5a d4 bb bd
       -0.11305109 0.08077246 -0.007943654 -0.09171362
0001f0 18 f4 65 3d 5a 4b a7 3c 8f 4c 1e be d3 a4 08 be
       0.05614099 0.020421673 -0.15458892 -0.13344125

fc2.weight f4 [128, 128]
000000 22 dc 9f be 8e 1f c9 be 9c c4 e8 3d 49 fe b9 3d
       -0.31222636 -0.39281887 0.11365625 0.09081704
000010 48 78 97 3e 84 c5 2c be e0 e5 7b be 65 0d ce 3e
       0.29583955 -0.16872221 -0.24599409 0.40244594
000020 b8 f6 1e be a3 04 ca be 69 2b e0 bd 69 29 ec be
       -0.15523803 -0.39456663 -0.1094578 -0.46125343
000030 d6 82 47 3e 32 d6 58 3e 70 f4 d4 be ea f8 19 bf
       0.19483504 0.21175459 -0.4159274 -0.6014544
000040 18 18 36 be 5d 51 83 3d d1 29 74 be 1c 19 26 bd
       -0.17782629 0.06412003 -0.23844077 -0.04055129
000050 e0 ad 18 bf 08 4f 2a be bf c8 87 3e 1f bb e8 3e
       -0.5964031 -0.1663171 0.26520345 0.45455262
000060 38 da ae 3d de 42 07 bf 51 64 fc 3d c2 6c 0b bf
       0.08537716 -0.52836406 0.12323821 -0.54462826
000070 61 b6 9e 3b 17 68 1f bf 1d a7 bb bd 1f 2d b2 3d
       0.0048435186 -0.62268203 -0.09162734 0.087000124
000080 61 09 be 3d c2 e0 0e 3f 4b b7 56 3d d7 38 d6 3e
       0.09279133 0.55811703 0.052420896 0.4184024
000090 3c f1 85 3e 5d f5 95 be 8d 8a bf 3e 51 d0 15 bf
       0.2616061 -0.2928876 0.37410393 -0.5852099
0000a0 97 3f 27 bf bb 8a 02 3e b6 d9 81 3d d1 e4 8a 3e
       -0.65331405 0.12748234 0.06340353 0.27127698
0000b0 cf 32 0d 3d 75 39 1c bf 8d 32 4a bd 27 d0 2d bd
       0.034472283 -0.6102517 -0.049364615 -0.042434838
0000c0 44 15 82 3e 16 1e 95 3c 61 4d 47 3e ea ff c0 3e
       0.2540685 0.018202823 0.19463111 0.37695247
0000d0 06 d8 11 3e 4d 08 b0 3e 78 6a 43 bf af df b7 be
       0.14242563 0.34381333 -0.76334333 -0.35912845
0000e0 03 b1 dc be b5 bc 6f 3c 19 c1 80 3e 1a 94 05 bf
       -0.431038 0.014632394 0.25147322 -0.5217911
0000f0 9b f2 d4 3d cd 69 ce be 96 05 1c 3d 87 33 56 bf
       0.10397836 -0.40315095 0.038091265 -0.83672374
000100 63 58 1f 3e ed ed aa 3e 91 0c a1 3e 0b 25 0e 3e
       0.1556106 0.33384648 0.314549 0.13881318
000110 4a 96 5c bd 54 6e 40 3d 76 28 9f be 97 70 cd bc
       -0.053854264 0.046980217 -0.31085557 -0.025078101
000120 d2 49 2d bf 80 a1 82 3e d3 23 12 bf f4 9f 1d bf
       -0.67690766 0.2551384 -0.57085913 -0.61572194
000130 32 3f 01 bf a6 98 02 3e 9c fc a1 be 55 9b 58 3e
       -0.50487053 0.12753543 -0.31638038 0.21153004
000140 c0 c9 cb be 6b 47 13 bf 9c ad 84 bd f3 60 e5 be
       -0.3980236 -0.5753085 -0.06478426 -0.4480053
000150 13 1d 8b 3e 66 db 8e be 91 bb 38 bc 36 22 38 be
       0.2717062 -0.27901763 -0.011275188 -0.179818
000160 f0 12 e7 be 71 d6 9b bd 95 85 11 bf 07 f8 0b 3e
       -0.45131636 -0.07609261 -0.56844455 0.13668834
000170 51 8a c9 be e1 72 17 3d b4 d9 19 3e 7f 99 fc be
       -0.3936334 0.03697479 0.15024453 -0.49335858
000180 5d 21 cd 3e ac 3b ab be 7c 99 ba be dd aa d2 be
       0.40064517 -0.33443964 -0.36445224 -0.41145983
000190 4f 38 c9 be 9d f9 03 bf 08 d3 b2 3d f0 ec 4b 3d
       -0.39300773 -0.51552755 0.08731657 0.049786508
0001a0 52 4b 69 3e 88 23 57 3e 3e 59 e4 3d be 3e 45 3d
       0.22782639 0.21009648 0.11149834 0.04815554
0001b0 0d c4 62 3d 58 60 e7 be 3b 42 23 bd da 36 d1 3d
       0.05536275 -0.45190692 -0.039858084 0.1021554
0001c0 55 df cd 3d b6 55 d8 bd c4 b4 b2 be e3 02 dc bd
       0.10052363 -0.10563223 -0.34903538 -0.10742738
0001d0 d5 cd 25 3e 53 3d 09 3f 90 0d 60 3e 92 dc 91 3f
       0.161918 0.536092 0.21880174 1.1395438
0001e0 dc 69 7a bf c4 54 ba be 3e 6f 1d 3f 87 dc 9f 3e
       -0.9781778 -0.36392796 0.6149787 0.31222937
0001f0 ad 69 b9 be 27 ac d6 3e 37 a7 ee be 1f 63 6a be
       -0.36213437 0.41928217 -0.4661195 -0.22889374
000200 38 5d cb bd 40 b9 4b bd da 84 45 bd d6 e2 82 3e
       -0.099298894 -0.049737215 -0.0482224 0.25563687
000210 3c fb d7 be 76 b4 7d 3e 6c c8 95 3d 9b 09 d9 3e
       -0.42183864 0.24775872 0.07313618 0.4239014
000220 32 9d b0 3d 4e 52 f8 3e 8d 80 7c 3d df 22 02 be
       0.086237326 0.48500293 0.061646033 -0.12708615
000230 e9 62 a3 3d f6 8d 8f 3e 8d f9 34 3d ae f8 00 bf
       0.0797785 0.28037995 0.044183303 -0.50379455
000240 69 b5 07 3d 67 a1 2a 3d 25 a0 eb 3e d2 85 4d 3d
       0.03313199 0.04165783 0.46020618 0.05017645
000250 d9 bb 5d 3c dc 6e f0 be e1 60 3e be d3 46 bd be
       0.013533556 -0.4695958 -0.18591644 -0.36968097
000260 76 2b 44 bd 04 63 9e 3c e9 59 f3 bb 5a 9b e4 bb
       -0.04789301 0.019334324 -0.0074264896 -0.006976527
000270 15 aa cd 3e 8f 16 80 3f d7 aa 0c bf 76 b0 bf bd
       0.40168825 1.0006884 -0.5494818 -0.09359829
000280 fb 7c 2b 3f 52 7e b7 3e 1b 81 22 3e 87 aa 1f be
       0.6698758 0.35838562 0.15869562 -0.15592395
000290 2d 81 99 3e 20 3d 8d 3e b9 8e 02 bf dd 59 09 bf
       0.29981366 0.27585697 -0.5099903 -0.53652745
0002a0 5b bf a5 3e 91 b3 e5 3e 23 86 b2 bc b5 b0 b9 bd
       0.32372555 0.4486356 -0.021792477 -0.09066907
0002b0 07 c4 73 3e 60 06 0d be 44 43 79 3e 98 87 d5 3e
       0.23805247 -0.13771963 0.24342066 0.41705012
0002c0 e2 b0 05 3e 3b 65 ce 3e ca f6 fe bc d1 87 16 bd
       0.13055757 0.40311608 -0.031123538 -0.03675062
0002d0 3b 19 80 be 8b cb 61 be 32 f5 21 3e 69 4c 45 bf
       -0.2501925 -0.22050302 0.15816191 -0.7706972
0002e0 f2 a1 0f be 61 2a c3 3e e0 2f c0 be cf 4d c7 be
       -0.14026621 0.3811827 -0.37536526 -0.3892655
0002f0 ea c4 12 3f 01 96 d3 be 34 73 74 3e b5 b2 8b be
       0.57331717 -0.4132538 0.23872072 -0.2728478
000300 a0 21 4a 3e 36 d8 6d 3d 08 1a f3 3d 09 83 63 3d
       0.1973939 0.058067523 0.118701994 0.055544887
000310 4b 00 a7 3d e3 0e fa 3d 97 da f8 3e 8b 2c f4 be
       0.08154353 0.12209871 0.4860427 -0.47690234
000320 ff 6b 8a 3e c6 fd 65 be a4 2f 73 be 40 5b 2e 3f
       0.2703552 -0.22460088 -0.23748642 0.68107986
000330 85 3c 12 3f f8 12 9b be 8f c1 92 bb 4b 94 40 3e
       0.57123595 -0.3028791 -0.0044786404 0.1880657
000340 1e 5c fd 3e 28 cb 51 3e 0b 2f 14 3f 52 25 22 3d
       0.49484342 0.20487654 0.5788428 0.039586373
000350 1e bf bd be 73 58 a5 be 4b 7b 94 3d 64 ab 0b bf
       -0.37059873 -0.32294044 0.07250079 -0.54558396
000360 c2 8d 1a bf 74 50 d4 3e 97 2f da 3d 34 ca c0 3e
       -0.60372555 0.4146763 0.10653608 0.3765427
000370 a0 a2 0e 3d a9 65 b2 be e4 2b 53 be 44 75 97 3e
       0.03482306 -0.34843186 -0.20622212 0.29581654
000380 99 12 a0 be 05 99 b4 bd 9e ef 41 3e 2e b4 24 be
       -0.3126419 -0.08818249 0.18939063 -0.16084358
000390 83 e2 01 3f 58 64 10 3f 2d ec 13 be 54 15 ef be
       0.50736254 0.5640311 -0.14445563 -0.4669596
0003a0 cd 63 d7 3e 39 db 70 be 02 b4 6f 3e fb b8 12 3f
       0.4206833 -0.23521127 0.23408511 0.5731351
0003b0 0f 5a b2 3d b8 40 d6 3d 6e 1e 73 3e 85 c8 99 bd
       0.087085836 0.10461563 0.23742077 -0.07508949
0003c0 ee 40 58 3f a9 f0 a5 be 52 28 fc 3d 7d a6 54 3e
       0.84474075 -0.32410172 0.12312378 0.20766635
0003d0 5e 95 bd be e2 2d 9e 3d 2a c6 84 3e 5d c5 34 bf
       -0.3702802 0.07723595 0.25932437 -0.7061365
0003e0 87 f3 d3 3d 3e ce c8 3e ea 3d 23 be 1c f2 f3 be
       0.103491835 0.3921985 -0.15941587 -0.47645652
0003f0 2f bd c1 3e 08 d0 47 3e cc ce 3f 3f 16 9a 8f bc
       0.37839648 0.19512951 0.7492492 -0.017529529

fc2.bias f4 [128]
000000 59 07 bc bd 93 27 ab 3d 4f d9 63 be 89 c6 d0 be
       -0.09181089 0.083571576 -0.22250865 -0.4077647
000010 b3 1c af bd d5 a7 f6 bd 27 b8 82 3d 31 d7 8b be
       -0.08550396 -0.1204373 0.063827805 -0.27312616
000020 14 9f 71 be 1e 93 1c bd 1d 09 a4 bd 57 20 a6 3d
       -0.2359584 -0.03822624 -0.08009551 0.08111637
000030 fe 3c 92 be 22 59 d5 be 1c 83 01 3e 3d 93 1e 3b
       -0.28562158 -0.41669565 0.1264767 0.0024196648
000040 6b 9a ba 3e 82 d0 b2 bd 07 f5 7e 3d 97 60 a7 bd
       0.36445937 -0.08731176 0.062245395 -0.0817272
000050 56 1e d6 3d 0f 7b 1e be e8 27 ac bd 9a 75 a4 3c
       0.10455005 -0.1547663 -0.08406049 0.020075608
000060 f5 79 85 be d3 81 e9 bd 46 19 e7 bc 8d da ba 3c
       -0.26069608 -0.11401715 -0.028210294 0.022809291
000070 ca e6 d9 3c d9 d8 54 3e b3 f2 a0 be 04 b8 63 be
       0.026599307 0.20785846 -0.31435165 -0.22238165
000080 45 ce 66 bd 1e 16 d6 bd 8c 8f 82 bd 33 78 2e be
       -0.056349058 -0.10453437 -0.06375036 -0.1703804
000090 7e 1a 9b be 4d f3 c9 3e 68 17 66 be 03 8e c4 be
       -0.3029365 0.39443436 -0.22469866 -0.38389596
0000a0 f9 2f 88 3e 3b c6 80 3e b1 e2 83 be e7 1a e4 be
       0.265991 0.25151238 -0.2575889 -0.44551775
0000b0 dc f8 c7 be 63 62 a3 3e db 9e 39 3d 32 c4 ab 3d
       -0.39057052 0.31911 0.045317512 0.08387031
0000c0 08 56 9a be 7c 32 ff bc d5 a8 63 be 74 7f 21 bd
       -0.30143762 -0.031152003 -0.22232373 -0.03942819
0000d0 c4 b0 98 be 8a f2 9e bd 14 5c 18 3e 67 5d 8c be
       -0.2982236 -0.077611044 0.14878875 -0.2741501
0000e0 3c c3 b6 3e b5 6d 04 3e 7a 7d 11 be 02 d2 dd be
       0.35695827 0.12932475 -0.14208022 -0.43324286
0000f0 97 a6 bb bc 08 da d2 39 1e 89 14 be 8a 70 15 3e
       -0.022906585 0.00040216767 -0.14505431 0.14593711
000100 f1 a7 a0 be 1c 6a c9 3d 20 70 8a 3e 65 09 16 be
       -0.3137813 0.09834692 0.2703867 -0.14652021
000110 9d ec 16 3d c3 07 a7 be 51 5b 8e 3e 3e b6 7a ba
       0.036846746 -0.3262311 0.27804044 -0.00095638994
000120 72 02 c2 3e 74 54 8f 3d 5c 23 42 3e f7 09 ac 3e
       0.3789249 0.0699853 0.18958801 0.33601353
000130 64 47 43 3d 18 2b 4d 3d b4 1d 51 be dd 70 19 be
       0.047675505 0.050089926 -0.20421487 -0.1498446
000140 9b 45 14 3e c0 21 85 3e 5d 88 57 3e 5a 3b ad bd
       0.14479677 0.26002312 0.21048112 -0.08458586
000150 d9 25 d5 bd fc 6f ba bd 51 fc af be 20 0b 24 be
       -0.104076095 -0.091033906 -0.3437219 -0.16019869
000160 77 73 70 be 05 79 f2 be db e0 99 3e 83 a5 50 3d
       -0.23481546 -0.47357956 0.30054364 0.050939094
000170 71 b1 b6 bd da 0f 8e bd 80 73 93 be de 21 87 3d
       -0.08920563 -0.06936617 -0.28799057 0.065982565
000180 99 a0 c4 be d3 3c ef bd 43 4e ec 3d 36 5d 6c bd
       -0.38403776 -0.11681523 0.11538365 -0.05770608
000190 0c 17 21 3d f8 31 81 3e 51 ac 28 3d 19 6d c2 bd
       0.03932862 0.25233436 0.04117996 -0.09493465
0001a0 77 97 16 3e 5a eb 95 be 91 e9 f7 bd 7f 33 57 be
       0.14706217 -0.29281121 -0.12105096 -0.21015738
0001b0 11 a0 10 bd f4 47 a4 3d f1 48 f2 3d 78 ef d8 bb
       -0.0353089 0.080215365 0.11830319 -0.006620344
0001c0 fd 01 b1 3c 98 9a 45 be 36 5f 86 3d 39 9c f9 3d
       0.021607393 -0.19297254 0.06561129 0.12188
0001d0 00 8d 50 be 15 62 05 be 61 12 f5 3d 66 93 cf bd
       -0.20366287 -0.13025697 0.11966396 -0.10135536
0001e0 7c 2c 82 3d 50 be 76 3e 1a db d7 3d 42 3e 8e be
       0.06356141 0.24096036 0.10539837 -0.27781874
0001f0 60 cf 75 3e c5 79 48 be c6 be 9f 3d a2 55 77 3e
       0.24004889 -0.19577701 0.07800059 0.2415376

out.weight f4 [5, 128]
000000 26 ba 6f 3f ee 67 ee bc f8 f1 87 be eb 9c 2f 3e
       0.93643415 -0.029102292 -0.26551795 0.17149703
000010 5b b1 73 bf 75 5d e1 be dd f1 ac 3d cf c0 23 3f
       -0.951925 -0.44016615 0.08444569 0.6396608
000020 96 ae 77 3f bb 69 15 3f a9 71 57 3f 69 53 12 bf
       0.9675077 0.58364457 0.84157807 -0.57158524
000030 39 ce 98 3e 7f 5f af bd f6 f0 14 bf 64 0c 34 bf
       0.29844835 -0.08563136 -0.5818018 -0.70331407
000040 e5 38 15 bf 84 20 45 3f 80 4c 53 3f 88 05 25 3f
       -0.5828994 0.7700274 0.82538605 0.64461565
000050 e8 71 32 3e 5b 57 b9 bc 50 4b fd bd 9a d5 0a 3f
       0.17426264 -0.022624662 -0.1236788 0.5423218
000060 3f 1f 4b 3f b2 4b 1b 3f 17 e5 ca be 26 23 28 be
       0.7934455 0.60662377 -0.39627907 -0.16419658
000070 d8 bd 61 3f 7a ea 5b 3e 20 79 9e 3e 5d 6c 18 3f
       0.88180304 0.21476164 0.30951786 0.5954035
000080 ca 3b 2c 3f fd 34 15 3f aa 4b 15 3f a1 5e c6 3e
       0.6727873 0.5828398 0.5831858 0.3874407
000090 c6 d4 16 3f 4d 79 dc be ff 97 30 3d a1 c1 17 3f
       0.58918417 -0.43061295 0.043113705 0.5927983
0000a0 4e 0d 56 3e ff e7 c7 be 07 c3 69 3e d6 46 10 3f
       0.20903513 -0.39044186 0.22828303 0.5635809
0000b0 3b a3 05 3f 11 ab 2d 3e 91 b4 76 be 38 a4 87 3e
       0.52202195 0.16959788 -0.24092318 0.26492476
0000c0 e3 a1 c7 3e 27 95 49 3f 42 ef 28 3f a1 d9 ef be
       0.38990697 0.78743213 0.6599008 -0.46845725
0000d0 15 7b 29 bf 7d 9a 39 3f f9 56 3b bc 94 aa 09 3f
       -0.66203433 0.72501355 -0.01143431 0.53775907
0000e0 c6 34 3f 3f 98 a0 33 be af b5 3b 3f d7 52 fa 3e
       0.746899 -0.1754173 0.733241 0.48891327
0000f0 6b 42 00 bf 05 aa 5d 3f bb d5 52 3f 19 d8 ce 3d
       -0.50101346 0.86587554 0.82357377 0.10099811
000100 c4 bc 1e 3f ef 2c fa bc 4e 1c da be e9 70 07 bf
       0.62006783 -0.030539004 -0.4259972 -0.5290666
000110 01 84 50 3f d5 51 dd 3e 7e 2c 14 3f 4b af 26 3f
       0.8145142 0.43226495 0.5788039 0.65111226
000120 85 9d 85 3f bd b0 59 3f b0 c3 11 3f d6 e9 5a 3e
       1.0438696 0.85035306 0.5693922 0.21378264
000130 94 73 2a 3d df 19 60 3f 31 20 b8 3e f0 3f 46 3f
       0.04161413 0.87539476 0.3596206 0.7744131
000140 a6 c4 89 bd 03 31 43 3f 95 36 62 3f e7 18 2b 3f
       -0.06726961 0.7624666 0.88364536 0.6683487
000150 53 40 d0 3e 37 d6 16 3f a1 d6 bd 3e 4c c1 cb 3e
       0.40674075 0.58920616 0.3707781 0.3979591
000160 73 41 08 3f bf fa bb 3e 1a 2d 2f 3a c1 37 42 3f
       0.5322487 0.36714742 0.0006682441 0.75866324
000170 ff a9 72 3f ca 08 28 bf 43 32 2d 3e 2c f1 05 be
       0.94790643 -0.6563841 0.16913705 -0.13080281
000180 42 c9 9a bd ed e7 f2 3e b5 5a bc be 09 4e 22 3f
       -0.07557918 0.4744257 -0.36787954 0.6340032
000190 71 42 81 3f eb 52 1d 3f 23 11 4f be fc e7 cd be
       1.0098401 0.6145465 -0.20221381 -0.40216053
0001a0 b0 6a 53 bf e6 cb 09 bf 99 1b 60 be 91 16 0d 3f
       -0.8258467 -0.5382675 -0.21885528 0.5511256
0001b0 e9 1c fe bd ea e8 01 bf c6 19 4a be 42 31 ee 3e
       -0.12407858 -0.50746024 -0.19736394 0.46521956
0001c0 1e 74 48 3f 0a f0 25 bf bb 90 18 3d dd e9 9a be
       0.7830218 -0.64819396 0.0372474 -0.3025655
0001d0 da f7 30 3f 26 a5 20 bf 8e 1c e8 bc 12 c5 ef be
       0.6912819 -0.62751997 -0.028333928 -0.4683004
0001e0 c4 af f4 3b 64 2e 8a 3e c6 c0 00 be 79 bd 01 3f
       0.007467242 0.26988518 -0.12573537 0.5067974
0001f0 a0 5a 69 3f dd 33 15 3f 79 0c d8 3e 99 44 95 3f
       0.9115391 0.5828226 0.42197016 1.1661559
000200 2d ca cb 3e 66 4c 28 bf d5 e1 b0 be 9b 04 4a 3e
       0.39802685 -0.65741575 -0.34547296 0.1972832
000210 14 80 2d bf 4a 04 a5 be 31 5b 18 bf 9b d6 98 3e
       -0.67773557 -0.32229835 -0.5951415 0.2985123
000220 89 50 90 3e a5 7a b8 3e 1d 4c a3 3e e8 f8 90 be
       0.28186443 0.3603107 0.31894007 -0.283149
000230 38 87 a8 3e 97 0a e8 3c 9d b9 fa be e0 a6 12 bf
       0.32915664 0.028325362 -0.48969737 -0.5728588
000240 b5 a5 d3 be 3d 13 c0 3e 42 6e cb 3e 25 e1 1f 3e
       -0.41337362 0.37514678 0.39732558 0.1561323
000250 d1 c2 ff be 15 f7 ad 3e 57 ba d6 be 27 dd ae 3e
       -0.4995332 0.3397757 -0.4193904 0.341531
000260 eb 37 70 3e 86 37 d3 3e 53 50 20 bf 2b c1 33 bf
       0.23458831 0.412533 -0.62622565 -0.70216626
000270 df 93 04 3f af c1 99 3e 9d 42 85 3e ec 74 87 3e
       0.51788133 0.3003058 0.26027384 0.26456392
000280 8c 30 f7 3e 4b 7b ad 3e fe 8d 2d 3e 06 5a cc 3e
       0.48279226 0.33883128 0.16948697 0.39912432
000290 88 ae b5 3e da 90 a3 be a3 ca 86 3e 5a 77 67 3f
       0.3548472 -0.3194645 0.26326475 0.9041649
0002a0 40 23 b2 be 93 d9 cb be 9c 98 72 3e bf d0 6f 3e
       -0.3479252 -0.39814433 0.23691028 0.23419474
0002b0 a0 b0 c0 3e 4f e4 03 be d1 d3 c5 be 48 81 50 be
       0.37634754 -0.12880062 -0.38638166 -0.20361817
0002c0 de 46 a1 3e 01 3e 80 3e 92 a1 e5 3e c0 e4 c9 be
       0.3149938 0.25047305 0.4484983 -0.39432335
0002d0 08 cb fd be 1f 3e a4 3e 5f de 15 bf ea ad 50 3e
       -0.49568963 0.32078645 -0.58542436 0.20378843
0002e0 29 03 34 3e 86 3e 26 bf 95 c7 98 3e 13 fb d4 3e
       0.1757933 -0.64939153 0.2983977 0.41597804
0002f0 4b c1 c7 be dc 30 65 3e 97 2b d6 3e 76 17 e6 be
       -0.39014658 0.2238192 0.4183013 -0.44939774
000300 ba cc bf 3e 9f 45 9d be 06 20 a9 be 87 17 ad be
       0.3746088 -0.3071718 -0.33032244 -0.33807012
000310 73 69 77 3e 3a 25 06 3e 08 0c ba 3e f2 bd 3e 3f
       0.2416132 0.13100138 0.36337304 0.74508584
000320 ef 5b 3a 3e 18 31 2c 3f 4b 5d 82 3e 36 d6 7f be
       0.18199132 0.6726241 0.25461802 -0.24984059
000330 43 74 08 bf a3 f9 9d 3e b7 af 0b 3e db 15 53 3e
       -0.533024 0.3085452 0.13641249 0.20613806
000340 6b 2b 0c bf f5 62 f8 3e 61 05 c7 3e 64 06 e8 3e
       -0.5475375 0.48512998 0.3887129 0.45317376
000350 9f 3e 98 3e 0f fa 4e 3e 52 be e9 3e f5 2e 65 3e
       0.29735276 0.20212577 0.45653015 0.22381194
000360 04 28 11 3c 50 ea bc 3d a5 73 e6 be 9a 63 58 3e
       0.008859638 0.09224379 -0.45010105 0.21131745
000370 c8 ac 17 3e 58 3d 43 bf eb ad a6 3e 91 61 06 bf
       0.14812005 -0.7626548 0.32554564 -0.52492625
000380 d5 e6 18 be bf 23 cf 3e 1a 18 14 bf b3 62 e4 3e
       -0.14931805 0.4045696 -0.57849276 0.44606552
000390 29 72 22 bd 68 6d 85 3e d4 fb f1 be ec 58 db be
       -0.039659653 0.26060033 -0.47262442 -0.4284128
0003a0 2f 0f 15 bf 5d da d8 be a4 a3 01 bf ed 30 b6 3e
       -0.58226293 -0.42354098 -0.5064032 0.35584202
0003b0 c9 d2 fb be 39 e0 21 bf c4 de 8d be 28 6e ec 3e
       -0.49184254 -0.6323276 -0.2770902 0.46177793
0003c0 77 4f 45 3e eb de a7 be 81 fc 2a bf 1e 75 da be
       0.19268595 -0.3278726 -0.6679154 -0.42667478
0003d0 7b 18 7b 3e 8d d1 ae be 3a 78 ff be d1 f7 6c be
       0.24521057 -0.3414425 -0.49896413 -0.2314141
0003e0 81 a8 13 be f5 c5 08 bf 00 bd b9 be d9 fb 5a 3e
       -0.14419748 -0.5342706 -0.36277008 0.21385135
0003f0 fe 40 bc 3e 26 cd b8 bd 07 f2 07 3e f3 a5 50 3d
       0.36768335 -0.09023504 0.1327592 0.05093951

out.bias f4 [5]
000000 03 9e a2 bf 60 e9 9f 3f 14 2e a9 3f 13 26 c1 3e
       -1.2704471 1.2493095 1.3217187 0.3772436
000010 a2 38 a7 bf
       -1.3064158

exp_avg_sq f4 [128, 28]
000000 c0 cf 3d 3a e7 cf f8 39 ae 25 73 39 d9 3b 7f 39
       0.0007240735 0.00047457145 0.00023188323 0.0002434099
000010 59 83 a2 38 9f 25 93 39 aa 13 be 3b 02 7d d6 3b
       7.7492274e-05 0.00028066055 0.005800684 0.006545664
000020 bf 98 64 3b b3 18 06 3b 62 a7 b9 3a 29 e0 a3 3a
       0.0034881083 0.00204615 0.0014164264 0.0012502718
000030 20 58 a1 3a 7c 8c b6 3a d4 bf 03 3b 54 61 72 3b
       0.0012309588 0.0013927366 0.0020103352 0.0036984282
000040 03 70 36 3c 0f 42 c1 3c ef 88 6f 39 0e d5 1e 38
       0.011135104 0.02359107 0.00022843828 3.7868558e-05
000050 f9 36 50 39 64 08 18 39 7e 8d 24 39 41 7a 3f 3a
       0.00019856905 0.00014498975 0.00015692969 0.0007304289
000060 c4 b7 d9 3a 81 71 87 3d 2d 03 22 38 8d b6 33 3f
       0.0016610553 0.06613446 3.8626767e-05 0.70200425
000070 a9 5f 9e 45 fe 24 96 45 77 67 03 46 26 c4 09 46
       5067.9575 4804.624 8409.866 8817.037
000080 02 98 9c 45 4e 82 8a 45 e4 7e be 46 c9 a8 89 46
       5011.001 4432.288 24383.445 17620.393
000090 24 6e df 45 1b a0 ac 45 19 18 10 46 93 b3 24 46
       7149.7676 5524.013 9222.024 10540.894
0000a0 ba 29 a0 46 90 84 6c 46 0f 92 f5 45 0c ea ae 45
       20500.863 15137.141 7858.2573 5597.256
0000b0 79 d8 7c 45 65 e5 86 45 35 71 4d 45 39 56 81 45
       4045.5295 4316.6743 3287.0754 4138.778
0000c0 29 62 d8 45 db 97 68 46 bc 63 8d 46 a7 04 9e 45
       6924.27 14885.964 18097.867 5056.5815
0000d0 30 c7 93 46 61 38 db 47 d5 ab 66 43 76 50 85 49
       18915.594 112240.76 230.67122 1.0921108e+06
0000e0 78 6d a0 45 fd 5f a9 46 24 d9 76 48 02 5d 9a 48
       5133.6836 21679.994 252772.56 316136.06
0000f0 19 fa 08 48 76 c1 5b 47 68 ec 00 47 9a 0e c1 46
       140264.39 56257.46 33004.406 24711.3
000100 d3 24 b3 46 6a 46 d8 46 d5 9d e5 47 b7 03 ef 47
       22930.412 27683.207 117563.664 122375.43
000110 b0 71 c5 47 ca 72 a9 47 cd df 5a 47 54 03 2e 47
       101091.375 86757.58 56031.8 44547.33
000120 eb ca 11 46 24 34 58 45 f5 a9 3f 45 23 ef 6d 45
       9330.7295 3459.2588 3066.6223 3806.946
000130 9f aa 3e 45 f9 c7 72 45 36 42 28 45 d6 d3 9c 45
       3050.6638 3884.4983 2692.1382 5018.4795
000140 d7 7e c7 45 f7 27 30 49 c8 54 bf 44 da f1 50 4b
       6383.855 721535.44 1530.6494 1.3693402e+07
000150 80 4e 15 44 d3 dd 82 44 0d 27 82 44 87 e2 46 44
       597.22656 1046.932 1041.2203 795.5395
000160 d5 61 8a 44 35 b0 a1 44 78 94 5f 45 5c 65 89 45
       1107.0573 1293.5065 3577.2793 4396.67
000170 b0 6f b3 45 a8 65 20 46 02 12 5a 46 69 06 b0 46
       5741.961 10265.414 13956.502 22531.205
000180 4b 28 7a 46 d9 21 34 46 3a 26 b2 45 75 4d c1 45
       16010.073 11528.462 5700.7783 6185.682
000190 24 3d 4b 46 63 56 93 46 32 ee 2d 46 14 fb bc 45
       13007.285 18859.193 11131.549 6047.385
0001a0 7c 27 11 46 88 9e 04 46 12 6f c6 44 fb 37 13 44
       9289.871 8487.633 1587.471 588.8747
0001b0 79 12 9c 46 24 47 bc 47 0a 6b 23 43 3a 03 e5 47
       19977.236 96398.28 163.41812 117254.45
0001c0 5f d3 ad 45 c6 bc c4 43 fe 9f 06 43 21 99 17 43
       5562.4214 393.4748 134.62497 151.59816
0001d0 59 e3 37 43 9b 81 a6 43 5e 57 a8 44 0f fe 2b 46
       183.88808 333.01254 1346.7302 11007.515
0001e0 e2 40 7b 46 6b 43 d3 45 c4 1a 0d 45 cc f5 a3 44
       16080.221 6760.4272 2257.6729 1311.6812
0001f0 82 66 cc 44 de 66 e3 44 4c b9 2d 46 62 31 e8 45
       1635.2034 1819.2146 11118.324 7430.173
000200 65 8d 2c 45 a1 09 d6 44 dd e2 b3 44 6f 01 05 45
       2760.8372 1712.3009 1439.0895 2128.0896
000210 0f 93 27 45 72 69 fd 44 3c 47 26 45 f2 84 ad 45
       2681.1912 2027.2952 2660.4521 5552.618
000220 1a 94 04 46 ed 08 8e 46 f4 a1 be 42 18 d6 03 47
       8485.025 18180.463 95.316315 33750.094
000230 f0 bb 03 43 8c 5d af 42 e8 c3 38 42 4b 18 3e 42
       131.73413 87.68271 46.191315 47.523724
000240 96 ed a6 42 80 8c e3 42 1b eb 1a 44 08 2e 51 44
       83.464035 113.774414 619.6735 836.71924
000250 b4 3a 80 44 10 9b 11 45 0c f0 5d 45 7c 48 ce 45
       1025.8345 2329.6914 3551.003 6601.0605
000260 a7 0c 84 45 09 37 d6 44 f8 e5 92 44 57 ec e8 44
       4225.5815 1713.7198 1175.1865 1863.3856
000270 5b 84 88 45 75 6f aa 45 cb 69 ac 44 71 41 6b 44
       4368.5444 5453.932 1379.306 941.0225
000280 dd 8a 58 44 fe 1e 03 44 bc b5 86 43 d6 17 00 43
       866.16974 524.48425 269.4198 128.09311
000290 b7 e5 ba 45 a1 ab 7b 46 6f 5b e4 41 fc 8e 73 46
       5980.7144 16106.907 28.544645 15587.746
0002a0 ae 8e 22 3b f8 31 38 3b 0c d2 8d 3b 1e 55 3a 3c
       0.0024804282 0.0028105956 0.004328018 0.011372833
0002b0 6d cd da 3c 31 56 57 3c 3d 24 1f 3e fe 67 32 3e
       0.026709283 0.013143108 0.15541168 0.17422482
0002c0 8a e2 be 3d 87 29 5e 3d f0 48 32 3d 8a f2 28 3d
       0.09320553 0.054238822 0.04352659 0.04124693
0002d0 5f 20 13 3d d0 0e 1e 3d f4 fe 5c 3d 71 1d c6 3d
       0.035919543 0.038588345 0.05395408 0.09673584
0002e0 df f8 91 3e a3 13 1f 3f 93 10 3f 3c 8c 8e d5 3a
       0.28510186 0.6213934 0.011661666 0.0016293093
0002f0 e4 cb b2 3b d9 03 7f 3b 09 d8 41 3b 1c 61 2e 3b
       0.0054564346 0.0038912205 0.002957823 0.0026608175
000300 98 c9 44 3d a7 20 e8 3f 74 92 90 3a 6d 58 97 41
       0.048043817 1.8134965 0.0011029975 18.918177
000310 8d 56 00 41 f4 bf da 41 b4 d3 6b 43 a4 b6 80 43
       8.021131 27.343727 235.82697 257.42688
000320 c4 0a 5b 43 a7 6d dd 42 98 cb 74 42 b7 95 4b 42
       219.04205 110.714165 61.198822 50.896206
000330 6e 8d 37 42 5d 81 48 42 e2 1c 7e 42 52 d2 d0 42
       45.888115 50.12633 63.528206 104.41078
000340 52 ca 7f 43 89 89 33 44 65 2e 8d 43 38 93 ad 41
       255.79031 718.149 282.36246 21.696884
000350 31 71 4c 41 21 98 7e 41 8e 7b 4b 40 0a 3a 27 40
       12.777635 15.912141 3.1794162 2.6129174
000360 b0 61 25 40 57 9b 56 40 c3 18 8a 40 77 48 06 41
       2.5840874 3.3532312 4.3155227 8.392692
000370 bb e7 11 42 e3 8e fc 44 4f 90 15 40 b7 95 f5 46
       36.4763 2020.4652 2.336933 31434.857
000380 9f db 54 46 36 34 1b 46 f5 f9 f9 45 0e 4d c7 45
       13622.905 9933.053 7999.2446 6377.632
000390 db 5f 9c 45 14 5d 8a 45 ea 07 f1 45 7b 5d dc 45
       5003.982 4427.635 7712.9893 7051.685
0003a0 66 59 c3 45 1d c8 9d 45 8a 4c c3 45 15 b9 13 46
       6251.175 5049.014 6249.5674 9454.2705
0003b0 94 00 01 47 9e 3d e5 47 28 28 21 47 7e be 6a 46
       33024.58 117371.234 41256.156 15023.623
0003c0 83 e0 52 46 d8 4c 06 47 21 3a d1 47 f4 80 ea 46
       13496.128 34380.844 107124.26 30016.477
0003d0 2f 2a 02 46 d1 fb 33 46 5f 33 39 46 37 c2 54 46
       8330.546 11518.954 11852.843 13616.554
0003e0 d9 69 8d 47 c6 c1 9b 48 16 30 17 44 57 c8 82 49
       72403.695 318990.2 604.75134 1.0713709e+06
0003f0 ee b6 8d 3c 08 58 80 3c da e7 88 3c 7c 96 8c 3c
       0.017299142 0.015666977 0.016712118 0.0171616

exp_avg f4 [128, 28]
000000 04 00 00 00 04 00 00 00 04 00 00 00 04 00 00 00
       6e-45 6e-45 6e-45 6e-45
000010 04 00 00 00 04 00 00 00 04 00 00 00 04 00 00 00
       6e-45 6e-45 6e-45 6e-45
000020 04 00 00 00 04 00 00 00 04 00 00 00 04 00 00 00
       6e-45 6e-45 6e-45 6e-45
000030 04 00 00 00 04 00 00 00 04 00 00 00 04 00 00 00
       6e-45 6e-45 6e-45 6e-45
000040 04 00 00 00 04 00 00 00 04 00 00 00 04 00 00 00
       6e-45 6e-45 6e-45 6e-45
000050 04 00 00 00 04 00 00 00 04 00 00 00 04 00 00 00
       6e-45 6e-45 6e-45 6e-45
000060 04 00 00 80 04 00 00 00 04 00 00 00 04 00 00 00
       -6e-45 6e-45 6e-45 6e-45
000070 d6 2a 77 40 14 a3 83 c1 5b c0 89 c0 7a fe 28 c0
       3.8619895 -16.454628 -4.304731 -2.640532
000080 4e 6a b3 be a9 84 6f 40 43 58 ff bc 01 2e c2 3f
       -0.35042042 3.742472 -0.031170016 1.5170289
000090 5e 60 2c bf eb cf e0 bf b0 20 58 40 88 03 a4 bf
       -0.67334545 -1.7563452 3.376995 -1.2813578
0000a0 41 bb b1 40 2e a2 8e 40 6c 72 24 3f f1 80 9d c0
       5.554108 4.4572973 0.64237094 -4.92199
0000b0 7a 4c c5 c0 5b 7a 68 c1 c6 05 01 3f 9c 0d 57 40
       -6.1655855 -14.529872 0.50399435 3.3602057
0000c0 f3 5d 56 40 db f4 60 40 c4 3c 0a 41 96 c2 7f 40
       3.3494842 3.5149448 8.639835 3.9962516
0000d0 66 55 a4 40 e7 84 38 40 ac 7f 56 bf 98 77 bc 41
       5.1354246 2.8831117 -0.8378856 23.558395
0000e0 38 1b d6 3f dd 1e 53 c0 c6 df f8 be 64 0d 6e 41
       1.6727057 -3.2987587 -0.48608226 14.878269
0000f0 11 8a b9 40 31 a2 b0 3f 6a 55 8b 3e fa da cf be
       5.798104 1.3799497 0.27213603 -0.40596753
000100 b1 d7 e0 3e b7 33 77 41 25 24 f9 40 12 a6 b1 3e
       0.4391456 15.450126 7.785662 0.34697014
000110 bc e3 c6 c0 9f 6a 95 c0 73 bb 7b 40 a5 7f 5d 40
       -6.2152996 -4.6692653 3.933316 3.4609158
000120 ae 04 80 40 c1 5e 56 40 3b 32 08 40 38 13 09 40
       4.0005713 3.3495333 2.1280658 2.141798
000130 cc a5 f3 3f 6a ab d7 3f fe c7 00 40 fc fa d2 3f
       1.9034972 1.6849186 2.0122066 1.6482844
000140 1b 3e 30 41 d1 53 72 41 f5 5f f6 3f aa 41 e4 41
       11.015162 15.145463 1.9248034 28.532063
000150 b3 05 8f 3e cc 97 d5 3f 71 eb b2 40 a4 83 08 41
       0.27934036 1.668695 5.5912404 8.532139
000160 2c e9 14 41 6d f4 e2 40 aa 72 b3 40 3f d9 b2 40
       9.306927 7.092337 5.607747 5.5890193
000170 b6 23 fc 40 86 8a 75 40 ff 3e bd c0 09 52 68 40
       7.8793592 3.8365798 -5.91394 3.630007
000180 5d 23 5f 41 28 17 4c 42 e0 e2 bf 41 3c a8 37 41
       13.946134 51.022614 23.985779 11.478573
000190 a9 74 5a 41 31 95 9e 41 5b ad 2d 42 77 95 8b 41
       13.6534815 19.822847 43.419292 17.44798
0001a0 d5 e1 8c 3f 87 b3 2d c1 82 e1 9a c0 9b 00 91 3e
       1.1006418 -10.85633 -4.840028 0.28320774
0001b0 87 e7 83 c1 a6 ef 9f 42 a1 45 37 40 cc 4e a4 40
       -16.48805 79.96806 2.8636248 5.1346188
0001c0 d3 66 36 3d ac ff 18 3d d6 66 13 3d 92 0f 0b 3d
       0.044531655 0.037353203 0.035986744 0.033950396
0001d0 f9 53 10 3d 5a 22 2b 3d 81 3e 68 3d a3 3c c0 3d
       0.035236333 0.041780807 0.056700233 0.093865655
0001e0 a3 65 75 3e 9b 6e 72 3e d9 c9 a0 3d 25 d0 5a 3d
       0.23964553 0.23675005 0.078509994 0.05342116
0001f0 48 fe 26 3d b1 fe 12 3d a8 89 58 3e 90 70 90 3e
       0.040769845 0.035887424 0.21146262 0.28210878
000200 65 29 1c 3e bf a8 d7 3d 57 f4 b1 3d ed d2 1b 3e
       0.15250166 0.10530233 0.08689182 0.1521718
000210 b4 37 91 3e 6d 14 dd 3d 27 5d 78 3d b7 5f 38 3d
       0.2836281 0.107949115 0.060635712 0.045013156
000220 df ff 88 bd 8e 9f 8d 3e 56 34 0b 3d 7f 23 76 3e
       -0.066894285 0.27660793 0.03398546 0.24036978
000230 04 00 00 00 04 00 00 00 04 00 00 00 04 00 00 00
       6e-45 6e-45 6e-45 6e-45
000240 04 00 00 00 04 00 00 00 04 00 00 00 04 00 00 00
       6e-45 6e-45 6e-45 6e-45
000250 04 00 00 00 04 00 00 00 04 00 00 00 04 00 00 00
       6e-45 6e-45 6e-45 6e-45
000260 04 00 00 00 04 00 00 00 04 00 00 00 04 00 00 00
       6e-45 6e-45 6e-45 6e-45
000270 04 00 00 00 04 00 00 00 04 00 00 00 04 00 00 00
       6e-45 6e-45 6e-45 6e-45
000280 04 00 00 00 04 00 00 00 04 00 00 00 04 00 00 00
       6e-45 6e-45 6e-45 6e-45
000290 04 00 00 00 04 00 00 00 04 00 00 00 04 00 00 00
       6e-45 6e-45 6e-45 6e-45
0002a0 04 00 00 00 04 00 00 00 04 00 00 00 04 00 00 00
       6e-45 6e-45 6e-45 6e-45
0002b0 04 00 00 00 04 00 00 00 04 00 00 00 04 00 00 00
       6e-45 6e-45 6e-45 6e-45
0002c0 04 00 00 00 04 00 00 00 04 00 00 00 04 00 00 00
       6e-45 6e-45 6e-45 6e-45
0002d0 04 00 00 00 04 00 00 00 04 00 00 00 04 00 00 00
       6e-45 6e-45 6e-45 6e-45
0002e0 04 00 00 00 04 00 00 00 04 00 00 00 04 00 00 00
       6e-45 6e-45 6e-45 6e-45
0002f0 04 00 00 00 04 00 00 00 04 00 00 00 04 00 00 00
       6e-45 6e-45 6e-45 6e-45
000300 04 00 00 80 04 00 00 00 04 00 00 00 04 00 00 00
       -6e-45 6e-45 6e-45 6e-45
000310 04 00 00 00 04 00 00 00 04 00 00 00 04 00 00 00
       6e-45 6e-45 6e-45 6e-45
000320 04 00 00 00 04 00 00 00 04 00 00 00 04 00 00 00
       6e-45 6e-45 6e-45 6e-45
000330 04 00 00 00 04 00 00 00 04 00 00 00 04 00 00 00
       6e-45 6e-45 6e-45 6e-45
000340 04 00 00 00 04 00 00 00 04 00 00 00 04 00 00 00
       6e-45 6e-45 6e-45 6e-45
000350 04 00 00 00 04 00 00 00 04 00 00 00 04 00 00 00
       6e-45 6e-45 6e-45 6e-45
000360 04 00 00 00 04 00 00 00 04 00 00 00 04 00 00 00
       6e-45 6e-45 6e-45 6e-45
000370 04 00 00 80 04 00 00 00 04 00 00 00 04 00 00 00
       -6e-45 6e-45 6e-45 6e-45
000380 32 47 34 be db 56 ce bf d9 26 9a 3f be ea 84 40
       -0.17605284 -1.6120256 1.2043105 4.153655
000390 cd 3f 1e 41 24 0f 0d 41 31 8f 12 41 80 31 16 41
       9.890576 8.816196 9.159959 9.387085
0003a0 3d 78 a3 40 2f a2 c1 bf 58 a9 d7 c0 87 7d 00 c1
       5.1084275 -1.512762 -6.739422 -8.030646
0003b0 a4 6c e6 3f 80 5b 47 bf 96 10 ed c0 52 b1 3b c1
       1.8001904 -0.7787399 -7.4082747 -11.730791
0003c0 9e 35 03 c1 43 ff b8 c1 b3 b7 1e c1 20 a6 47 c0
       -8.20059 -23.12464 -9.919848 -3.1195145
0003d0 e9 ec 01 c1 d6 04 70 c1 b7 3e 95 c0 b2 26 64 be
       -8.120339 -15.001181 -4.6639056 -0.22280386
0003e0 94 1e 78 40 8c c1 7b c1 65 cb 9c bf 2a 0c 09 42
       3.8768663 -15.734753 -1.2249571 34.26188
0003f0 04 00 00 00 04 00 00 00 04 00 00 00 04 00 00 00
       6e-45 6e-45 6e-45 6e-45

exp_avg_sq f4 [5, 128]
000000 98 bf 2b 43 b3 78 5c 41 86 fd 93 40 f4 78 71 41
       171.74841 13.779468 4.6246977 15.09203
000010 ce 09 e8 42 14 9b 2e 42 77 03 14 42 68 f7 20 43
       116.01915 43.651443 37.003384 160.96643
000020 a9 a5 77 43 5d 76 cd 42 32 84 85 43 02 a4 65 42
       247.64711 102.73118 267.03278 57.410164
000030 43 2c 80 42 91 21 8a 42 10 81 0b 42 9e 5c 8f 42
       64.08645 69.06556 34.876038 71.68089
000040 93 76 77 42 5e 1a 96 43 3c 69 06 43 66 20 a7 42
       61.865795 300.206 134.41107 83.56328
000050 63 b2 c5 41 4d 3e 3a 41 1f 90 85 40 94 d8 55 42
       24.712103 11.64021 4.173843 53.461502
000060 07 7e 49 43 e8 e6 57 43 79 59 62 42 c2 32 a3 41
       201.4923 215.90198 56.587376 20.399784
000070 04 54 d3 42 85 aa 00 42 48 33 9c 41 bc ce 4e 43
       105.66409 32.166523 19.52504 206.80756
000080 a1 7f 17 43 39 ed 94 42 4d 99 d6 42 39 bd 5b 42
       151.49855 74.463326 107.299416 54.934788
000090 a2 f7 30 43 3e 44 25 42 5a cd ae 41 83 ca 07 43
       176.96732 41.316643 21.85027 135.79106
0000a0 2f 2a cf 42 cf fb 6b 42 fe 37 db 41 6d e1 a6 42
       103.58239 58.995907 27.40234 83.440285
0000b0 93 64 1b 43 39 04 ed 42 4f 8d a7 40 62 53 41 41
       155.39287 118.50825 5.2359996 12.082857
0000c0 4d 2f d0 41 63 8b 1d 43 5f 51 cf 42 74 6d 07 42
       26.023096 157.54448 103.65893 33.856888
0000d0 5c 44 4d 42 9e d6 cb 42 40 a9 93 41 9d c8 f0 42
       51.316757 101.919174 18.457642 120.39182
0000e0 77 5c 8e 43 c0 5c 6f 41 40 f0 58 43 4b 2a 77 42
       284.72238 14.960144 216.93848 61.7913
0000f0 f6 c9 94 42 74 67 82 43 b9 35 8d 43 60 4f 23 42
       74.394455 260.80823 282.4197 40.827515
000100 09 52 0c 43 0c b3 cd 41 da f1 56 42 c3 3f 11 42
       140.32045 25.712425 53.736183 36.312267
000110 51 2a 8f 43 60 e3 ec 41 37 20 54 43 ee ae c4 42
       286.3306 29.611023 212.12584 98.34166
000120 c5 b5 0d 44 9f 3d 8c 42 ec 0d 02 43 18 28 b3 42
       566.84015 70.12035 130.05438 89.57831
000130 bf d5 bf 41 1d 49 1a 43 e7 f0 c9 41 f2 ac 24 43
       23.979368 154.2856 25.242628 164.67557
000140 5f e4 4b 41 fa 30 58 43 08 6a ba 43 78 d0 48 43
       12.743255 216.19131 372.82837 200.81433
000150 ef 9e 51 42 96 c3 9b 43 df 0c 33 42 76 7c df 41
       52.40521 311.528 44.76257 27.935772
000160 9c 8d be 42 db c0 db 41 79 93 58 41 01 08 eb 43
       95.27658 27.469168 13.536004 470.06253
000170 2c 6e b8 43 38 70 b4 42 c6 04 1c 42 44 43 0b 41
       368.86072 90.21918 39.00466 8.703922
000180 ee a3 94 42 4b d2 8e 42 71 9f 84 41 38 a0 15 43
       74.320175 71.41073 16.577852 149.62585
000190 6e 25 b8 43 71 2d fd 42 95 55 b5 41 30 db 36 42
       368.29242 126.58875 22.666788 45.71405
0001a0 c6 fd 09 43 40 9c 22 42 6f 21 8b 41 96 34 05 43
       137.9913 40.652588 17.391325 133.20541
0001b0 7e 59 89 41 9a 7d 0f 42 09 6f dd 41 9b 60 59 42
       17.168697 35.872658 27.679216 54.34434
0001c0 4e f8 32 43 5f 93 36 42 05 00 09 42 2d 0f f0 41
       178.96994 45.643917 34.25002 30.00741
0001d0 aa d6 04 43 ee b1 17 43 d8 f7 35 42 89 85 30 41
       132.83853 151.69504 45.492035 11.032601
0001e0 af f8 55 42 47 bb ae 42 90 bf a8 41 fa 73 a0 42
       53.492855 87.365776 21.093536 80.22652
0001f0 ef 65 c3 43 14 fa 8b 42 5a 21 24 43 af c8 9d 43
       390.79636 69.988434 164.13028 315.56784
000200 39 1c 4a 46 0b 4f f1 45 20 b4 f6 45 02 d2 68 46
       12935.056 7721.8804 7894.5156 14900.502
000210 f7 13 a8 45 16 93 23 46 03 26 38 46 0e f0 bc 46
       5378.4956 10468.771 11785.503 24184.027
000220 a2 81 9f 46 18 be 8a 46 b2 34 49 46 ad f1 84 46
       20416.816 17759.047 12877.174 17016.838
000230 5b e6 84 46 f4 6a 38 46 10 8f 2c 46 98 8e 5c 46
       17011.178 11802.738 11043.766 14115.648
000240 2a cf b4 46 ad 2e 1e 46 f9 b6 90 46 ee 6f 8f 46
       23143.582 10123.669 18523.486 18359.965
000250 d4 c5 4c 46 57 a5 97 46 70 99 a2 45 87 ee 88 46
       13105.457 19410.67 5203.1797 17527.264
000260 5f b8 77 46 49 d4 aa 46 bf e0 5a 46 88 aa 4c 46
       15854.093 21866.143 14008.187 13098.633
000270 fb 68 a1 45 af 48 82 46 11 fa 45 46 63 58 62 46
       5165.1226 16676.342 12670.517 14486.097
000280 6b a3 69 46 1d 61 ab 46 d8 1d 71 46 58 25 94 46
       14952.8545 21936.557 15431.461 18962.672
000290 72 e1 a4 46 17 fd 9d 46 c8 27 6e 46 b7 34 07 45
       21104.723 20222.545 15241.945 2163.2947
0002a0 f9 7a 1d 46 cd 6b 42 46 6f c5 ce 46 b6 16 88 46
       10078.743 12442.95 26466.717 17419.355
0002b0 09 ea 52 46 20 24 39 46 cb c2 1d 46 ff 1a 85 46
       13498.509 11849.031 10096.698 17037.498
0002c0 4e 59 3c 46 44 da 82 46 de b0 97 46 6b 68 1c 46
       12054.326 16749.133 19416.434 10010.1045
0002d0 5a 3d 26 46 cb a5 bf 46 6c 7b 58 46 92 cb b0 46
       10639.338 24530.896 13854.855 22629.785
0002e0 9c cb 4f 46 1a c5 d1 45 1d 1a 93 46 50 c7 a8 46
       13298.902 6712.6377 18829.057 21603.656
0002f0 95 c3 d7 46 ec 2b 95 46 5c fc b8 46 19 93 71 46
       27617.791 19093.96 23678.18 15460.774
000300 7c 20 52 46 12 68 a1 46 42 73 87 46 42 65 67 46
       13448.121 20660.035 17337.629 14809.314
000310 67 69 b3 46 87 81 9c 46 cb 72 c6 45 4f f0 2c 46
       22964.701 20032.764 6350.349 11068.077
000320 ff 01 54 45 78 40 27 46 ca c5 84 46 0d b4 4f 46
       3392.1248 10704.117 16994.895 13293.013
000330 cb 97 3b 46 4f d4 87 46 a6 17 55 46 c0 f6 94 46
       12005.948 17386.154 13637.912 19067.375
000340 bd 9c 25 46 92 de 36 46 7e ee 8e 46 15 3f 97 46
       10599.185 11703.643 18295.246 19359.541
000350 cc 08 e4 46 b6 68 0f 44 b9 ad 7e 46 0c 79 bf 46
       29188.398 573.6361 16299.431 24508.523
000360 49 a3 51 46 c8 95 88 46 5e 75 66 46 a8 17 c6 46
       13416.821 17482.89 14749.342 25355.828
000370 c6 6f e0 46 9f a3 15 46 7d 50 97 46 ff 6e 77 46
       28727.887 9576.905 19368.244 15835.749
000380 9d 39 e8 45 43 5a 95 46 ca 2e 25 46 cc f2 1d 46
       7431.2017 19117.13 10571.697 10108.699
000390 3e 39 25 46 0e 16 42 46 a4 cb 25 46 47 7e 32 46
       10574.311 12421.514 10610.91 11423.569
0003a0 d1 a1 da 45 39 e1 bb 45 d1 80 5f 46 41 0b be 46
       6996.227 6012.153 14304.204 24325.627
0003b0 72 7c 87 46 40 41 48 46 3d 63 67 46 28 46 4c 46
       17342.223 12816.3125 14808.81 13073.539
0003c0 6f e1 d0 45 31 d7 05 46 99 cc 6e 46 42 25 3b 46
       6684.179 8565.798 15283.149 11977.314
0003d0 65 42 9b 46 e4 aa 79 46 fc 72 5f 46 01 eb 20 46
       19873.197 15978.723 14300.746 10298.751
0003e0 9b b6 48 46 05 7d 58 46 79 de 9e 46 ef e4 71 46
       12845.651 13855.255 20335.236 15481.233
0003f0 8f 2c 8e 46 2a aa a8 46 66 89 ac 46 b9 d8 86 46
       18198.28 21589.082 22084.7 17260.361
