model/40a.pt (torch_old, 336838 bytes, 24 tensors)

fc1.weight f4 [128, 28]
0.11547032 0.12651102 -0.05686182 0.02251014 -0.11551396 -0.09701692 -0.13280292 -0.37134022
-0.24463414 -0.22845085 -0.027589215 -0.15418717 -0.084857225 -0.009188894 0.02157237 -0.17755666
0.07742934 0.042691708 0.19723079 -0.16111659 -0.14839342 0.026924893 0.071392186 0.25248882
-0.35894257 0.08550519 -0.19657786 0.06970087 0.7667076 0.41912052 0.029097455 -0.0079021435
0.026965331 -0.20738836 0.12533647 0.10029973 0.010512475 0.011253802 0.037328232 0.059912506
-0.10904175 -0.30489293 -0.023731705 0.09074734 0.15778816 -0.029161507 -0.098900154 -0.013955594
-0.06178246 0.112256825 0.16872223 0.6620434 0.10002408 -0.015306602 0.74010104 0.014665622
-0.4971729 -0.45140147 -0.105998024 0.19521135 -0.13270494 -0.1542895 -0.014908455 0.06845691
0.08118626 0.15354897 0.1609002 0.26788208 0.1348474 0.18698454 0.18698883 -0.049282365
0.030842464 -0.16940689 0.13745758 -0.100593425 0.04707571 -0.124753386 -0.24671167 -0.60668796
0.18362522 0.1783369 -0.71332294 0.13836335 -0.3078115 -0.30380157 -0.15618378 -0.059723668
-0.11752503 -0.028457556 -0.15783891 0.032646734 0.10420992 0.21534759 0.20267919 0.09977379
0.15717395 0.0708845 0.033883393 -0.2636422 -0.116282284 -0.1487823 0.30045322 0.10798118
0.049664777 -0.1210781 -0.2802555 -0.4005731 0.12876217 0.012159794 -0.6126251 0.07208113
-0.49944675 -0.2894046 0.26659015 0.014111338 -0.1396993 -0.07117842 -0.16714369 0.116197884
0.09732665 0.04267376 0.31789416 0.18068305 -0.053279843 0.15706424 0.2256228 0.06960972
-0.34977543 -0.2727565 0.028065292 0.10860591 0.024940735 0.05839234 -0.042097654 -0.47897243
0.26224503 0.16999105 -0.5987492 0.04044666 -0.43123066 -0.6685156 -0.26478884 0.26774272
0.13212498 0.032656714 -0.096887305 0.09268509 0.09163154 0.07425225 0.23529576 0.0112566035
0.106305964 0.009681352 -0.0050596045 0.11615121 0.026480678 0.16992547 0.16102985 0.2615269
-0.18221436 0.08889197 0.07507101 -0.5009742 0.17609423 0.19662583 -0.48963714 -0.10598456
-0.25481611 0.15416522 0.027374694 -0.08510094 0.08023988 -0.21770662 0.23788428 0.20552571
0.24912344 0.15558419 0.28839803 -0.05925678 -0.02604517 0.16831066 -0.05354622 -0.08450476
0.21158652 0.22258797 0.13057254 -0.14555496 0.012264043 0.03172793 -0.013977122 -0.38397765
-0.0573662 -0.0198874 -0.7237189 -0.06676212 -0.58134705 -0.13703515 0.041979793 0.02227532
-0.14245933 0.16880141 0.0040326966 0.027708542 0.1658881 -0.12881932 -0.14037187 -0.14670496
-0.053596698 0.06431198 0.09148495 -0.20750788 -0.053301327 0.04982663 0.0952742 -0.25375926
-0.5945819 -0.49881026 -0.49468884 -0.7149959 -0.15913664 0.024610527 -0.77015287 0.11222542
0.13928385 0.4329523 -0.053398427 0.14176592 0.062368575 0.06196226 -0.11948904 -0.14986424
-0.10288289 0.058646645 -0.06097522 0.09728418 -0.115578614 -0.12072983 -0.027637698 -0.050870642
-0.19568387 -0.11199182 0.0068961224 -0.061110597 0.27032924 -0.0107853515 0.010877528 0.21413845
-0.20252804 -0.034748744 0.5186867 0.16569641 0.17833254 -0.1642615 -0.045661043 -0.12763545
00000000: b47b ec3d 1b8c 013e f1e7 68bd 2f67 b83c
00000010: 9592 ecbd cfb0 c6bd 7dfd 07be 4e20 bebe
00000020: 5f81 7abe 05ef 69be c702 e2bc 3ee3 1dbe
00000030: a0c9 adbd 048d 16bc 8ab8 b03c 6ad1 35be
00000040: 4693 9e3d 80dd 2e3d def6 493e bffb 24be
00000050: 72f4 17be 9891 dc3c 1136 923d 3746 813e
00000060: 52c7 b7be 581d af3d b54b 49be 54bf 8e3d
00000070: f346 443f f796 d63e c95d ee3c fe77 01bc
00000080: 66e6 dc3c 9d5d 54be 3458 003e f269 cd3d
00000090: 843c 2c3c de61 383c 7de5 183d d166 753d
000000a0: 4851 dfbd ed1a 9cbe fe68 c2bc bed9 b93d
000000b0: 3893 213e 1de4 eebc 2a8c cabd 01a6 64bc
000000c0: 9b0f 7dbd e8e6 e53d 85c5 2c3e ad7b 293f
000000d0: 6dd9 cc3d 8bc8 7abc 4377 3d3f 1448 703c
000000e0: 728d febe 181e e7be 7e15 d9bd 7ce5 473e
000000f0: cee3 07be 11fe 1dbe 9842 74bc 2333 8c3d
00000100: fb44 a63d f13b 1d3e 06c3 243e d727 893e
00000110: 7015 0a3e e078 3f3e 007a 3f3e 4edc 49bd
00000120: 56a9 fc3c 0079 2dbe aec1 0c3e ed03 cebd
00000130: 76d2 403d b47e ffbd fca1 7cbe e74f 1bbf
00000140: 4008 3c3e f39d 363e 559c 36bf 1faf 0d3e
00000150: 7899 9dbe e18b 9bbe a4ee 1fbe cea0 74bd
00000160: f7b0 f0bd d21f e9bc 86a0 21be 95b8 053d
00000170: 036c d53d 1484 5c3e 228b 4f3e 3356 cc3d
00000180: 35f2 203e e52b 913d 50c9 0a3d 1cfc 86be
00000190: 6825 eebd 635a 18be 01d5 993e 3d25 dd3d
000001a0: 4b6d 4b3d cbf7 f7bd a67d 8fbe eb17 cdbe
000001b0: 3bda 033e df39 473c 00d5 1cbf 469f 933d
000001c0: 7cb7 ffbe d72c 94be 817e 883e 3e33 673c
000001d0: 550d 0fbe fec5 91bd b727 2bbe 28f9 ed3d
000001e0: 3253 c73d aeca 2e3d 06c3 a23e fa04 393e
000001f0: f73b 5abd 73d5 203e aa09 673e 8a8f 8e3d
00000200: c415 b3be bda6 8bbe 2fe9 e53c c66c de3d
00000210: 8350 cc3c ce2c 6f3d 976e 2cbd e03b f5be
00000220: fb44 863e 2212 2e3e a147 19bf 66ab 253d
00000230: 44ca dcbe d723 2bbf 6792 87be 9315 893e
00000240: c54b 073e 0cc3 053d da6c c6bd aed1 bd3d
00000250: 51a9 bb3d 9011 983d 5ff1 703e 9e6d 383c
00000260: f1b6 d93d 899e 1e3c 0acb a5bb b0e0 ed3d
00000270: 02ee d83c f100 2e3e 02e5 243e dbe6 853e
00000280: 6796 3abe fe0c b63d d4be 993d d83f 00bf
00000290: 0c52 343e 4858 493e b8b1 fabe 6f0e d9bd
000002a0: 4277 82be 7ddd 1d3e e540 e03c 6749 aebd
000002b0: ce54 a43d 7cee 5ebe f097 733e 5575 523e
000002c0: 371a 7f3e 7651 1f3e e8a8 933e 3db7 72bd
000002d0: ae5c d5bc a159 2c3e 4853 5bbd d510 adbd
000002e0: 23aa 583e 1aee 633e cfb4 053e 5c0c 15be
000002f0: 20ef 483c 25f5 013d 4c00 65bc b898 c4be
00000300: d2f8 6abd e7ea a2bc a445 39bf 94ba 88bd
00000310: 29d3 14bf f152 0cbe 01f3 2b3d bb7a b63c
00000320: dce0 11be 47da 2c3e b624 843b 06fd e23c
00000330: 92de 293e 36e9 03be a5bd 0fbe d339 16be
00000340: 3688 5bbd 00b6 833d 765c bb3d f27c 54be
00000350: 7e52 5abd 0217 4c3d 1f1f c33d bcec 81be
00000360: 8536 18bf 0f64 ffbe db47 fdbe f909 37bf
00000370: b7f4 22be 049c c93c bd28 45bf 71d6 e53d
00000380: 6da0 0e3e edab dd3e 4fb8 5abd 162b 113e
00000390: 3176 7f3d 24cc 7d3d abb6 f4bd 0376 19be
000003a0: 44b4 d2bd 7737 703d 27c1 79bd ee3c c73d
000003b0: 7bb4 ecbd 3341 f7bd 7468 e2bc bc5d 50bd
000003c0: 5a61 48be f85b e5bd def8 e13b 1b4f 7abd
000003d0: 9868 8a3e 0bb5 30bc a937 323c 1c47 5b3e
000003e0: 8363 4fbe b354 0ebd a7c8 043f 52ac 293e
000003f0: ce9c 363e 2b34 28be 1307 3bbd deb2 02be

fc1.bias f4 [128]
0.07953821 0.054155868 -0.030167405 -0.0440421 0.032044735 0.055573132 0.11015872 -0.042143457
-0.19465077 -0.0037808442 -0.030620813 0.09076059 0.009602144 0.0960193 0.013451552 -0.16519412
-0.17024726 -0.1102307 -0.13548073 -0.16946173 0.05399049 0.066637516 0.402115 0.1864491
-0.043880757 -0.18944053 -0.10372057 -0.091854125 0.039175108 -0.15827115 -0.14796834 0.102934435
-0.047666997 -0.12385995 0.2425859 -0.056512818 0.0667897 -0.10920899 -0.04851861 -0.03443248
-0.10381109 0.18815765 0.016689472 -0.046846677 0.0006745105 -0.19760321 0.00857614 0.4071266
0.15542664 -0.004748418 0.004103353 0.092771344 -0.20299116 -0.048638314 0.15930785 -0.14382838
0.090435214 0.09463918 -0.1916101 0.60075366 0.038959827 0.0047698608 0.20350495 -0.12540565
0.17357086 0.20741193 0.065247595 0.17238417 -0.09587102 0.22279832 -0.1601292 0.015030513
-0.111143626 -0.017601188 0.048202127 -0.169302 0.10723267 -0.13462639 -0.109516345 -0.0075922785
0.006158687 0.06348109 0.030226702 0.15660913 0.22432083 0.06992888 -0.034420818 -0.06839834
0.06470835 -0.022367174 -0.1261691 0.03438279 0.065478265 0.09831214 -0.059831843 -0.14252222
-0.12663639 -0.14492097 0.6562254 0.07896955 0.37336126 -0.052596413 0.09360904 -0.12247741
0.10380658 0.041892264 -0.035549387 0.24102181 -0.0011196397 -0.095238835 0.09133946 0.21416207
-0.12288497 0.10642644 0.03940938 0.01302161 -0.16513875 -0.07586282 0.046426293 -0.16086876
-0.052569315 -0.0351979 -0.08575452 -0.045282908 0.03493781 -0.024360418 -0.09775123 -0.15508015
00000000: eee4 a23d 8bd2 5d3d a221 f7bc 7d65 34bd
00000010: 5741 033d a7a0 633d e59a e13d 9e9e 2cbd
00000020: 8852 47be 0ac8 77bb 80d8 fabc b0e0 b93d
00000030: 5052 1d3c c4a5 c43d e663 5c3c a628 29be
00000040: 4c55 2ebe a2c0 e1bd 76bb 0abe 6087 2dbe
00000050: 2225 5d3d 4079 883d 04e2 cd3e 83ec 3e3e
00000060: 4fbc 33bd b3fc 41be 736b d4bd 041e bcbd
00000070: 1476 203d d511 22be 0385 17be 4acf d23d
00000080: 783e 43bd 49aa fdbd 7068 783e fc79 67bd
00000090: 0ac9 883d f7a8 dfbd 73bb 46bd 1209 0dbd
000000a0: e99a d4bd 66ac 403e 5cb8 883c 4de2 3fbd
000000b0: a2d1 303a 7f58 4abe f082 0c3c e672 d03e
000000c0: 2928 1f3e 9e98 9bbb 6b75 863b e7fe bd3d
000000d0: eadc 4fbe f838 47bd 9921 233e bf47 13be
000000e0: 1936 b93d 30d2 c13d 7035 44be feca 193f
000000f0: 5794 1f3d 7e4c 9c3b 9a63 503e 576a 00be
00000100: 8fbc 313e cb63 543e 88a0 853d 7a85 303e
00000110: 0658 c4bd 3e25 643e e9f8 23be 8a42 763c
00000120: 459f e3bd 5e30 90bc 986f 453d 815d 2dbe
00000130: cd9c db3d 80db 09be 1b4a e0bd a6c8 f8bb
00000140: d0ce c93b 6002 823d fd9d f73c 255e 203e
00000150: 5cb4 653e df36 8f3d d8fc 0cbd 6e14 8cbd
00000160: d085 843d 5d3b b7bc 7932 01be f8d4 0c3d
00000170: 7819 863d e057 c93d 3c12 75bd 58f1 11be
00000180: f8ac 01be 2a66 14be 63fe 273f caba a13d
00000190: 3529 bf3e 566f 57bd 19b6 bf3d 70d5 fabd
000001a0: 8b98 d43d 3997 2b3d 3c9c 11bd 6cce 763e
000001b0: e0c0 92ba 940c c3bd 2f10 bb3d 4d4d 5b3e
000001c0: 1dab fbbd 1bf6 d93d bb6b 213d 9758 553c
000001d0: 221a 29be f75d 9bbd 7f29 3e3d c8ba 24be
000001e0: ec52 57bd ac2b 10bd 11a0 afbd 927a 39bd
000001f0: f31a 0f3d 808f c7bc cc31 c8bd 55cd 1ebe

fc2.weight f4 [128, 128]
-0.08714043 -0.09066644 0.10463308 -0.023936234 0.13420291 -0.0037621844 0.09853096 0.32943642
-0.061032087 -0.11282141 0.0802065 -0.047492396 0.19120081 0.3258798 -0.058980577 -0.2787288
0.018012423 0.042859584 -0.13021755 0.04989353 -0.28699452 -0.11099467 -0.045272756 0.07320547
0.098311506 -0.2868422 0.20615928 0.124225326 0.079408765 0.26653907 0.037766274 0.10552865
0.18845695 0.35029078 0.1792422 0.19929574 0.30416572 0.1254682 0.18733005 -0.18151034
-0.19213623 -0.06243146 0.070398845 0.23608659 0.031396154 -0.26047567 0.2293578 0.16106309
0.12601778 0.10320097 0.19954282 0.285369 0.0044503743 -0.07865225 -0.1899291 0.0039265635
-0.22073543 -0.0024510971 -0.22655085 -0.4670179 0.21977326 -0.29194883 0.1334573 -0.39077374
0.0957594 0.2815525 0.11595573 0.14583991 0.08601955 0.06074874 -0.037743885 -0.13899809
-0.19214328 0.17310037 -0.21979827 -0.07939653 -0.096131116 0.13588862 0.04958382 0.2646893
-0.013399683 -0.27545047 -0.016689448 -0.17917565 0.25218844 -0.030521538 -0.043011185 0.013854382
-0.1581588 0.19757532 -0.2648276 -0.19085366 -0.19074476 -0.11545337 0.02282417 -0.0018373363
-0.0031998162 -0.14489101 -0.10250364 -0.1217397 -0.3009194 -0.18976714 0.28195032 -0.030661913
0.14661992 0.1618096 0.21829864 0.012352792 0.04195494 -0.086004 0.030955173 -0.014561452
0.11396922 -0.13550659 0.024981575 0.017560836 0.080315195 0.31472185 0.045933 0.091884516
-0.31247428 -0.04879103 0.19199137 -0.07776345 -0.19715095 0.29667208 0.045706566 -0.13917182
0.21512753 -0.03719225 -0.10011708 0.05145078 -0.12783921 0.21535353 0.061195366 0.35168526
0.102419354 -0.01828669 -0.05158563 -0.019371245 0.1226056 0.25213856 0.15809815 -0.29201338
-0.045447607 0.067845084 0.24184115 -0.048115008 0.15508173 -0.12132361 -0.09317233 -0.048456024
-0.014771063 0.24069254 -0.11793677 -0.004945614 0.3787766 0.12886508 -0.16784948 -0.11135867
0.058500297 0.10796469 0.09697368 0.028130356 0.12751745 0.031243976 0.15005742 -0.12256752
0.15112011 0.050500438 -0.060546074 0.08196541 0.25823736 0.10520154 0.18341306 0.2543416
0.014365128 0.1864894 0.24141015 -0.0075119594 -0.008514293 -0.069200166 0.048383273 -0.17391357
0.21242729 0.16324079 -0.011884716 -0.54803044 0.14584072 -0.14237115 0.060618974 -0.016452605
0.043759797 -0.054287147 0.1475034 0.02079643 -0.09010081 0.045681477 0.123001814 -0.08778408
0.25374642 0.05233551 0.15881711 0.2623231 0.13145883 -0.0027879744 -0.042844355 0.15400213
0.16572449 0.35230744 0.31355283 0.23019417 -0.050794046 -0.19626841 0.039092086 -0.019392708
-0.13383006 0.16680454 0.016783528 0.28418362 -0.0725456 -0.10309014 -0.049317624 0.09665807
-0.103483364 -0.0098339 -0.040347613 -0.050708488 0.27890015 0.31355694 -0.070351504 -0.12604712
-0.03660254 -0.12130869 0.14145002 0.21988133 -0.09750472 -0.24145176 0.14811489 -0.14561117
0.33056796 -0.13983887 -0.008992026 0.12822683 -0.23114395 0.10378862 0.21657592 -0.048139565
-0.12756799 0.08620756 0.09518159 -0.0049052252 0.4106051 0.023932364 -0.009688562 0.14061448
00000000: af76 b2bd 54af b9bd de49 d63d ec15 c4bc
00000010: 7d6c 093e fb8e 76bb 9aca c93d e4ab a83e
00000020: c8fc 79bd e90e e7bd 4e43 a43d 6387 42bd
00000030: 25ca 433e b8d9 a63e 9e95 71bd 8bb5 8ebe
00000040: ca8e 933c 888d 2f3d c057 05be 285d 4c3d
00000050: f2f0 92be 2c51 e3bd ed6f 39bd c0ec 953d
00000060: 8b57 c93d fbdc 92be 6b1b 533e d969 fe3d
00000070: 10a1 a23d cf77 883e cfb0 1a3d 681f d83d
00000080: dcfa 403e 5059 b33e 448b 373e 2f14 4c3e
00000090: 9cbb 9b3e bc7a 003e 73d3 3f3e d9dd 39be
000000a0: 5cbf 44be 21b8 7fbd 452d 903d afc0 713e
000000b0: 4199 003d 115d 85be c5dc 6a3e b9ed 243e
000000c0: ce0a 013e 085b d33d f454 4c3e e31b 923e
000000d0: 72d4 913b 6e14 a1bd c67c 42be 67aa 803b
000000e0: 7808 62be 96a2 20bb f2fc 67be f81c efbe
000000f0: 3e0c 613e 517a 95be 08a9 083e 7f13 c8be
00000100: 811d c43d a627 903e 337a ed3d 0f57 153e
00000110: 052b b03d acd3 783d 5599 1abd 8455 0ebe
00000120: 35c1 44be 3941 313e cc12 61be a69a a2bd
00000130: 64e0 c4bd 6326 0b3e 6718 4b3d 5b85 873e
00000140: 588a 5bbc d807 8dbe 4fb8 88bc d279 37be
00000150: d81e 813e 4e08 fabc 7f2c 30bd 7dfd 623c
00000160: 61f4 21be 2f51 4a3e 7c97 87be 246f 43be
00000170: 9852 43be d172 ecbd c1f9 ba3c c7d2 f0ba
00000180: 02b4 51bb 4f5e 14be 6eed d1bd aa52 f9bd
00000190: 1c12 9abe 5152 42be cb5b 903e b12e fbbc
000001a0: 8823 163e 6ab1 253e ae89 5f3e 5d63 4a3c
000001b0: f1d8 2b3d dd22 b0bd b495 fd3c 2893 6ebc
000001c0: b268 e93d 3dc2 0abe 29a6 cc3c bedb 8f3c
000001d0: 4b7c a43d 3923 a13e 3e24 3c3d f32d bc3d
000001e0: a1fc 9fbe 1ad9 47bd 6399 443e 7242 9fbd
000001f0: f0e1 49be 67e5 973e cf36 3b3d 0f83 0ebe
00000200: 644a 5c3e e756 18bd 2f0a cdbd 0ebe 523d
00000210: 48e8 02be a385 5c3e fea7 7a3d 1710 b43e
00000220: 3dc1 d13d f8cd 95bc 744b 53bd 72b0 9ebc
00000230: a518 fb3d 4e18 813e 7be4 213e c782 95be
00000240: 4527 3abd 5df2 8a3d 35a5 773e 3e14 45bd
00000250: bfcd 1e3e 8378 f8bd 22d1 bebd d379 46bd
00000260: 5402 72bc 1b78 763e d588 f1bd d10e a2bb
00000270: 02ef c13e 35f5 033e bce0 2bbe 0410 e4bd
00000280: 029e 6f3d 971c dd3d 239a c63d a271 e63c
00000290: ef93 023e 5ef3 ff3c a7a8 193e ae04 fbbd
000002a0: 3bbf 1a3e 8cd9 4e3d 29ff 77bd 7bdd a73d
000002b0: b037 843e e873 d73d a2d0 3b3e 1039 823e
000002c0: b75b 6b3c 14f7 3e3e 3934 773e e226 f6bb
000002d0: 887f 0bbc d1b8 8dbd 8a2d 463d 6616 32be
000002e0: 8a86 593e 9828 273e 1db8 42bc b94b 0cbf
000002f0: 4557 153e bec9 11be 9a4b 783d 9dc7 86bc
00000300: 793d 333d 335c 5ebd 220b 173e 465d aa3c
00000310: c686 b8bd 801c 3b3d 60e8 fb3d 24c8 b3bd
00000320: 0deb 813e c25d 563d f4a0 223e 374f 863e
00000330: 259d 063e 73b6 36bb 907d 2fbd bcb2 1d3e
00000340: aeb3 293e a461 b43e ff89 a03e 05b8 6b3e
00000350: 6b0d 50bd 96fa 48be 061f 203d 75dd 9ebc
00000360: bf0a 09be cfce 2a3e 9c7d 893c 8480 913e
00000370: ca92 94bd ec20 d3bd 4701 4abd abf4 c53d
00000380: 16ef d3bd 5e1e 21bc 8a43 25bd b4b3 4fbd
00000390: 00cc 8e3e 898a a03e 7314 90bd 7f12 01be
000003a0: 8cec 15bd b170 f8bd 46d8 103e 9228 613e
000003b0: 8eb0 c7bd 213f 77be 6eab 173e 181b 15be
000003c0: 3440 a93e ec31 0fbe 4a53 13bc e54d 033e
000003d0: 00b1 6cbe 218f d43d 14c6 5d3e fe2d 45bd
000003e0: 2fa1 02be 978d b03d 91ee c23d 03bc a0bb
000003f0: d53a d23e ce0d c43c c6bc 1ebc 3efd 0f3e

fc2.bias f4 [128]
0.07153551 0.0186969 -0.059620693 0.03050222 0.027388826 0.014209339 0.050706644 -0.022600442
0.007518903 -0.032219924 0.046271876 -0.022732018 -0.09136298 -0.053129356 0.015522822 0.059398863
0.091417275 0.08990791 0.16419867 -0.012543586 0.09008259 -0.028742077 0.05187609 -0.11446165
-0.10473591 0.0042359307 0.111500636 0.010995817 0.09858199 -0.056529686 -0.0146944495 0.027248288
0.010586011 0.07201951 -0.013799217 -0.02877417 -0.084182724 0.057119664 -0.031281866 -0.02417622
0.16229716 -0.0193407 0.08553455 -0.12698421 -0.115567766 0.004756492 0.03560442 0.0308027
-0.03587045 -0.032633603 0.0030726956 -0.014634979 -0.024907755 -0.09078311 0.11072487 -0.121939294
0.15004003 0.038184438 0.04818724 -0.097987555 -0.014311955 0.036334913 0.07910458 0.025493812
-0.040591404 -0.026406914 0.10981434 0.02732153 0.10020437 -0.06736392 0.042563282 0.048131872
0.14373393 0.034720387 -0.009807327 0.13754846 -0.024717405 0.024077922 -0.03307629 0.013416461
0.04152437 0.108761914 0.06923985 0.0030279711 -0.06458969 -0.011559209 0.023543324 0.044780783
-0.056105476 -0.0024827698 0.03311374 0.116183266 0.08864204 0.0016789598 -0.07503214 0.088003024
-0.07100163 -0.0726556 -0.0031902962 -0.01424986 0.023744132 0.08513207 0.013140571 -0.04015342
-0.11455041 -0.04194737 0.026639199 -0.12202016 0.01964035 0.050898187 0.06307351 0.06359924
0.10439782 -0.08286577 -0.021122048 0.12468125 -0.018250909 0.014380923 0.093051784 0.10036482
0.06699553 0.13352017 -0.022653522 -0.088306196 0.086684905 -0.0870199 0.013178053 0.10792312
00000000: 3681 923d 3e2a 993c d434 74bd cbdf f93c
00000010: 885e e03c 4ace 683c c5b1 4f3d 9024 b9bc
00000020: 2161 f63b 0af9 03bd 9487 3d3d 7f38 babc
00000030: 841c bbbd 2b9e 59bd 6f53 7e3c 394c 733d
00000040: fb38 bb3d a321 b83d b223 283e 9d83 4dbc
00000050: 397d b83d 8174 ebbc 067c 543d df6a eabd
00000060: c87f d6bd 90cd 8a3b 725a e43d cd27 343c
00000070: 5be5 c93d ac8b 67bd fdc0 70bc cd37 df3c
00000080: f370 2d3c f77e 933d 1c16 62bc cfb7 ebbc
00000090: fe67 acbd 4ff6 693d 6a21 00bd 350d c6bc
000000a0: 3a31 263e 6370 9ebc bd2c af3d 2608 02be
000000b0: cbae ecbd 59dc 9b3b f1d5 113d f255 fc3c
000000c0: e5ec 12bd d0aa 05bd 475f 493b 8dc7 6fbc
000000d0: 590b ccbc 7fec b9bd b8c3 e23d 4fbb f9bd
000000e0: 18a4 193e 4967 1c3d fc5f 453d b3ad c8bd
000000f0: b17c 6abc ebd3 143d 9501 a23d 66d8 d03c
00000100: 2c43 26bd 5053 d8bc 57e6 e03d 67d1 df3c
00000110: f337 cd3d 18f6 89bd d656 2e3d ed25 453d
00000120: fd2e 133e f736 0e3d e9ae 20bc 81d9 0c3e
00000130: 287c cabc 103f c53c 017b 07bd b7d0 5b3c
00000140: 7515 2a3d 91be de3d 9fcd 8d3d ed70 463b
00000150: 9947 84bd d662 3dbc eedd c03c 0e6c 373d
00000160: dbce 65bd f7b5 22bb 46a2 073d 7ef1 ed3d
00000170: f589 b53d 8b10 dc3a 73aa 99bd ee3a b43d
00000180: 4d69 91bd 76cc 94bd 4a14 51bb 3f78 69bc
00000190: 0e83 c23c b959 ae3d 8d4b 573c ea77 24bd
000001a0: 6899 eabd 01d1 2bbd 733a da3c b5e5 f9bd
000001b0: cde4 a03c 9e7a 503d af2c 813d 5140 823d
000001c0: 86ce d53d 87b5 a9bd 2508 adbc e258 ff3d
000001d0: ee82 95bc f69d 6b3c ef91 be3d 128c cd3d
000001e0: f434 893d 83b9 083e e193 b9bc e1d9 b4bd
000001f0: db87 b13d 7d37 b2bd c3e8 573c cc06 dd3d

out.weight f4 [5, 128]
0.40112478 -0.20494066 -0.21887974 -0.13364945 -0.2965321 -0.21421504 -0.054386437 0.36062104
0.24694948 0.15359823 0.21789752 -0.16927037 0.12351654 -0.22626425 -0.37799653 -0.21458885
-0.16376068 0.3781925 0.18233044 0.16206469 -0.1261187 0.18711479 -0.1426249 0.22883108
0.27222654 0.25826135 -0.21800989 -0.030846808 0.34455743 -0.08380518 0.07449294 0.14594483
0.26860312 0.17801215 0.2587455 0.07595383 0.17664622 -0.14206721 0.096878946 -0.03966155
-0.036229525 -0.2664911 -0.20780456 0.22176349 0.2578586 0.024849826 -0.14341235 -0.0722185
0.18053123 0.21298532 0.23003936 -0.20678344 -0.26061755 0.154644 -0.21461678 0.07811937
0.20602252 0.057391442 0.32779166 0.18307896 -0.051074754 0.19332202 0.21673226 0.022661032
0.101979576 0.046349134 -0.2082892 -0.034417253 0.26696432 0.039854355 0.20590852 0.1911578
0.4666655 0.13008353 0.16291158 0.073029384 -0.12787266 0.18932015 0.010076851 0.15730469
-0.11188587 0.24512894 0.2528442 0.21149695 0.06995381 -0.086335585 0.21494336 -0.012283674
0.15535443 -0.040491235 -0.09821092 0.15440005 0.17129575 -0.23201033 0.06693385 -0.15675652
-0.036905203 0.28617454 -0.31575105 0.29345563 0.2505823 0.2216692 -0.16681364 -0.17196368
-0.3553602 -0.42277685 -0.08635995 0.17335632 -0.16605397 -0.2780014 -0.065491125 0.09271925
0.16937235 -0.38188195 -0.10133843 -0.23449025 0.18994875 -0.26238716 -0.07591249 0.09142095
0.16718815 0.02142048 -0.07493496 0.09132566 0.18705112 0.22973347 0.110564664 0.21792282
0.17416343 -0.16769746 -0.113604166 0.0122485235 -0.32435483 -0.17559725 -0.09434262 0.109478526
0.1546514 0.17521067 0.3491647 -0.129961 0.065752946 -0.16664353 -0.27777773 -0.31432128
-0.08984663 0.20876713 0.18573868 0.08892096 -0.24657346 0.27302843 -0.108041465 0.18599819
0.13135865 0.21160923 -0.08570351 -0.19635758 -0.004958242 0.11702854 0.2673644 0.1892414
0.1738732 0.14104223 0.017051134 0.1756004 0.22091375 -0.19355801 0.0016958847 0.29108346
-0.11869045 -0.16792184 0.07781923 0.22996452 0.20396334 -0.060669042 -0.27667117 -0.12083946
-0.006241909 0.23231746 0.19591284 -0.1532772 -0.05297801 0.25859743 -0.29867265 0.19076605
0.11082076 -0.2123389 0.089614555 0.1701205 -0.22342288 0.18527442 0.20906451 -0.17339818
0.13313924 -0.00832619 -0.120842226 -0.120199375 0.06572252 0.07892423 0.27237055 0.2522858
0.09258079 0.36066535 0.18747212 0.020586962 -0.085777074 0.24172978 0.10166719 0.21261637
-0.09764156 0.38490704 0.29402086 0.20399739 0.1438744 0.11991008 0.07754523 0.10910689
0.17014149 -0.036601897 -0.05486311 0.1896204 0.13695407 -0.29188603 0.15126325 0.007796217
-0.41652545 0.15092261 -0.2846016 0.2175374 0.1275052 0.1668805 -0.19512741 -0.29952
-0.160314 -0.04933899 -0.10641515 0.13027951 -0.11053307 -0.38871238 -0.017286621 0.13119958
0.014580111 0.035702415 -0.12900305 -0.1575163 0.30638692 -0.16331872 -0.16107804 -0.0017564875
0.0670654 -0.20167789 -0.14799592 0.13951325 0.3372336 0.17280303 0.11462545 -0.051615495
00000000: 3a60 cd3e f7db 51be 0322 60be 67db 08be
00000010: 0ed3 97be 305b 5bbe 50c4 5ebd 52a3 b83e
00000020: 53e0 7c3e db48 1d3e 8720 5f3e 3655 2dbe
00000030: 3df6 fc3d d1b1 67be c388 c1be 2ebd 5bbe
00000040: e1b0 27be 73a2 c13e d5b4 3a3e 49f4 253e
00000050: 4325 01be 059b 3f3e 430c 12be b252 6a3e
00000060: 4761 8b3e d53a 843e fc3d 5fbe 72b2 fcbc
00000070: d569 b03e 0da2 abbd c18f 983d 9072 153e
00000080: 5986 893e d148 363e 4a7a 843e ae8d 9b3d
00000090: bfe2 343e 117a 11be 7868 c63d 2674 22bd
000000a0: 6965 14bd 8571 88be b8ca 54be f815 633e
000000b0: 0b06 843e dd91 cb3c b0da 12be 4be7 93bd
000000c0: 2edd 383e d318 5a3e 708f 6b3e 0abf 53be
000000d0: aa6f 85be ff5a 1e3e 80c4 5bbe 0cfd 9f3d
000000e0: 91f7 523e 4a13 6b3d 4fd4 a73e 0d79 3b3e
000000f0: c333 51bd 35f6 453e 10ef 5d3e a1a3 b93c
00000100: abda d03d 97d8 3d3d c449 55be 1bf9 0cbd
00000110: 8caf 883e 523e 233d afd9 523e dfbe 433e
00000120: c8ee ee3e 9e34 053e 4bd2 263e 6e90 953d
00000130: 0df1 02be 24dd 413e 6019 253c 7b14 213e
00000140: 6b24 e5bd 1503 7b3e cc74 813e a892 583e
00000150: f143 8f3d b6d0 b0bd 1d1a 5c3e 7741 49bc
00000160: 3b15 1f3e 23da 25bd cf22 c9bd 0c1b 1e3e
00000170: 2768 2f3e 1e94 6dbe 9d14 893d c884 20be
00000180: e929 17bd 7885 923e 1faa a1be d13f 963e
00000190: 534c 803e 40fd 623e 32d1 2abe 3f17 30be
000001a0: c6f1 b5be 3576 d8be 7cdd b0bd 5284 313e
000001b0: 0d0a 2abe 3356 8ebe 3620 86bd 97e3 bd3d
000001c0: f26f 2d3e 0886 c3be 868a cfbd 361e 70be
000001d0: ed81 423e 9c57 86be 0278 9bbd e83a bb3d
000001e0: 5f33 2b3e 017a af3c 8077 99bd f308 bb3d
000001f0: 548a 3f3e 403f 6b3e ba6f e23d 2927 5f3e
00000200: e657 323e e2b8 2bbe 4da9 e8bd 08ae 483c
00000210: d611 a6be c4cf 33be b436 c1bd 4736 e03d
00000220: f05c 1e3e 6d6a 333e b7c5 b23e 7f14 05be
00000230: 7ba9 863d 9aa4 2abe e238 8ebe b8ee a0be
00000240: 8301 b8bd 0dc7 553e 4832 3e3e 311c b63d
00000250: c17d 7cbe 62ca 8b3e d844 ddbd 4f76 3e3e
00000260: e282 063e 17b0 583e 5285 afbd f611 49be
00000270: c078 a2bb a9ac ef3d fde3 883e 7fc8 413e
00000280: d10b 323e 606d 103e d2ae 8b3c 97d0 333e
00000290: 3737 623e 1234 46be 7348 de3a e408 953e
000002a0: fb13 f3bd b4f3 2bbe b05f 9f3d d27b 6b3e
000002b0: c4db 503e 1a80 78bd d8a7 8dbe ae7a f7bd
000002c0: ee88 ccbb a1e4 6d3e 609d 483e b3f4 1cbe
000002d0: 78ff 58bd e266 843e 9feb 98be 2d58 433e
000002e0: fff5 e23d 5e6f 59be d687 b73d 1134 2e3e
000002f0: f8c8 64be 94b8 3d3e 0215 563e 4b8f 31be
00000300: a755 083e 926a 08bc 217c f7bd 172b f6bd
00000310: 8799 863d 07a3 a13d 2774 8b3e 9b2b 813e
00000320: ff9a bd3d 21a9 b83e b1f8 3f3e fda5 a83c
00000330: e4ab afbd 0388 773e e336 d03d 1bb8 593e
00000340: 4cf8 c7bd 8912 c53e e789 963e b1e4 503e
00000350: d053 133e 6b93 f53d 09d0 9e3d 6f73 df3d
00000360: 9239 2e3e dfeb 15bd 24b8 60bd da2b 423e
00000370: b03d 0c3e 1672 95be c1e4 1a3e 6977 ff3b
00000380: d342 d5be 758b 1a3e 4db7 91be 20c2 5e3e
00000390: b990 023e b9e2 2a3e 7bcf 47be af5a 99be
000003a0: 5a29 24be ae17 4abd 30f0 d9bd fe67 053e
000003b0: 2a5f e2bd 4f05 c7be ac9c 8dbc 2f59 063e
000003c0: 6be1 6e3c b23c 123d 6019 04be f44b 21be
000003d0: bfde 9c3e 063d 27be a4f1 24be f139 e6ba
000003e0: 9659 893d a684 4ebe 3e8c 17be 90dc 0e3e
000003f0: e2a9 ac3e 47f3 303e bfc0 ea3d c56a 53bd

out.bias f4 [5]
0.0805849 -0.055964842 -0.07357549 0.04465696 -0.16053055
00000000: b209 a53d 643b 65bd bfae 96bd 37ea 363d
00000010: 1f62 24be

exp_avg_sq f4 [128, 28]
70.36537 68.357925 98.097244 136.27531 117.72866 84.78897 70.42399 43.594788
51.97999 62.56016 73.454605 54.072094 49.540936 46.28868 51.625023 47.892075
50.94512 67.57306 87.07022 33.15552 31.953548 48.23151 47.969616 70.504105
43.535774 1907.5997 3.0804863 12382.11 283.43246 422.8691 3213.6228 12798.903
15379.007 11389.846 7745.3604 5917.5737 5710.04 7309.2812 10184.115 8892.822
8200.233 5620.1094 5062.3374 4268.455 5154.401 5897.743 7444.9756 7376.858
5305.4663 2365.7166 500.8658 282.9837 7413.9497 178848.9 165.62341 1.120049e+06
46.247826 64.93027 353.14963 1663.0645 1828.6191 1257.9498 1074.4424 1035.925
1118.333 1240.4279 1402.1409 1087.6642 1102.4572 769.49347 811.9215 805.19574
992.6578 1266.895 1554.757 1265.6201 929.2483 494.05194 99.70065 46.29637
1050.2301 27339.305 25.38439 138517.39 74.71233 110.38796 762.23303 2715.0015
2965.801 2019.9807 1509.0203 1392.3196 1656.3843 1978.8121 2181.842 1737.309
1657.9897 1143.7734 1101.3575 1008.2201 1079.2396 1403.4299 2114.3306 2003.1663
1463.1997 718.8028 150.03444 74.62706 1601.0245 40451.605 39.249542 217487.22
62.361523 84.12208 535.8561 2375.825 2589.523 1759.6133 1525.4235 1331.918
1474.5983 1697.035 1958.9553 1572.8519 1616.4141 1081.8602 1049.8857 940.2936
948.7708 1270.9601 1969.3119 1809.219 1371.8977 742.247 164.92445 62.316418
1437.0646 36754.086 34.161457 183130.22 87.33471 99.24674 512.5929 3429.5403
4440.5674 3050.2136 2092.7122 1770.6586 1829.1449 2609.3552 3537.6384 2532.6643
2183.9568 1384.9053 1111.4567 1076.045 1243.2727 1589.4817 2745.86 2959.377
2340.9314 1185.2466 241.54596 87.845436 2372.6208 52086.44 48.273087 229773.48
45.38656 122.48497 436.36856 630.14606 738.7096 563.17194 635.96655 686.90576
844.4989 820.3255 813.32825 526.17346 468.2326 323.03027 253.19707 316.7015
525.5902 744.3245 1124.8599 1354.9147 1238.3317 613.29553 158.98239 45.645935
534.98236 16170.235 18.401217 45910.082 165.79356 464.9352 3431.8467 10679.79
13021.527 8638.34 4057.279 2395.7285 2647.1445 3918.892 7104.104 5809.586
5083.6387 3919.8643 3561.7903 2501.1448 2488.1238 2151.7466 1055.0898 627.3741
131.42696 112.58751 119.77254 164.71577 4572.634 101345.51 92.43513 1.0140351e+06
25.00858 31.263914 169.51263 694.2471 860.6927 600.4256 326.88812 229.95613
241.11423 366.25137 602.0558 504.88818 413.396 315.66702 292.52634 212.59976
233.32335 245.4851 201.57143 309.68143 465.54443 328.41052 97.08708 25.022429
330.21384 9567.851 8.554404 64715.4 1.5680091e-06 1.1393848e-06 1.0060443e-06 8.356364e-07
00000000: 12bb 8c42 42b7 8842 ca31 c442 7b46 0843
00000010: 1375 eb42 f493 a942 15d9 8c42 1061 2e42
00000020: 82eb 4f42 9b3d 7a42 c2e8 9242 d349 5842
00000030: eb29 4642 9c27 3942 0680 4e42 7c91 3f42
00000040: cec7 4b42 6825 8742 f423 ae42 419f 0442
00000050: dea0 ff41 11ed 4042 e3e0 3f42 1a02 8d42
00000060: a224 2e42 3173 ee44 b026 4540 7178 4146
00000070: 5bb7 8d43 3f6f d343 f7d9 4845 9dfb 4746
00000080: 074c 7046 62f7 3146 e20a f245 97ec b845
00000090: 5270 b245 406a e445 7620 1f46 4af3 0a46
000000a0: ef20 0046 e0a0 af45 b332 9e45 a463 8545
000000b0: 3513 a145 f24d b845 cea7 e845 dd86 e645
000000c0: bbcb a545 77db 1345 d36e fa43 ea7d 8d43
000000d0: 99af e745 3aa8 2e48 989f 2543 88b9 8849
000000e0: c6fd 3842 4cdc 8142 2793 b043 10e2 cf44
000000f0: d093 e444 653e 9d44 284e 8644 9a7d 8144
00000100: a8ca 8b44 b10d 9b44 8244 af44 41f5 8744
00000110: a1ce 8944 955f 4044 fafa 4a44 874c 4944
00000120: 192a 7844 a45c 9e44 3958 c244 d833 9e44
00000130: e44f 6844 a606 f743 bc66 c742 7c2f 3942
00000140: 5d47 8344 9c96 d546 3b13 cb41 5945 0748
00000150: b76c 9542 a3c6 dc42 ea8e 3e44 06b0 2945
00000160: d15c 3945 627f fc44 a6a0 bc44 3a0a ae44
00000170: 4c0c cf44 fd59 f744 795d 0845 e329 d944
00000180: ac3f cf44 c0f8 8e44 71ab 8944 160e 7c44
00000190: abe7 8644 c26d af44 4a25 0445 5265 fa44
000001a0: 64e6 b644 61b3 3344 d108 1643 0e41 9542
000001b0: c920 c844 9b03 1e47 88ff 1c42 ce63 5448
000001c0: 3372 7942 813e a842 caf6 0544 337d 1445
000001d0: 5ed8 2145 a0f3 db44 8dad be44 607d a644
000001e0: 2553 b844 1f21 d444 92de f444 439b c444
000001f0: 400d ca44 873b 8744 583c 8344 ca12 6b44
00000200: 5531 6d44 b9de 9e44 fb29 f644 0227 e244
00000210: ba7c ab44 cf8f 3944 a9ec 2443 0344 7942
00000220: 11a2 b344 1692 0f47 55a5 0842 8ed6 3248
00000230: 5fab ae42 557e c642 f225 0044 a558 5645
00000240: 8ac4 8a45 6ba3 3e45 65cb 0245 1355 dd44
00000250: a3a4 e444 af15 2345 371a 5d45 a14a 1e45
00000260: 4f7f 0845 f81c ad44 9dee 8a44 7181 8644
00000270: ba68 9b44 6aaf c644 c39d 2b45 08f6 3845
00000280: e74e 1245 e427 9444 c48b 7143 ddb0 af42
00000290: ef49 1445 7176 4b47 a417 4142 5f63 6048
000002a0: d68b 3542 4ef8 f442 2d2f da43 5989 1d44
000002b0: 6aad 3844 01cb 0c44 dcfd 1e44 f8b9 2b44
000002c0: ee1f 5344 d514 4d44 0255 4b44 1a8b 0344
000002d0: c61d ea43 e083 a143 7332 7d43 cb59 9e43
000002e0: c665 0344 c514 3a44 849b 8c44 455d a944
000002f0: 9dca 9a44 ea52 1944 7efb 1e43 7095 3642
00000300: dfbe 0544 f1a8 7c46 b135 9341 1556 3347
00000310: 27cb 2543 b577 e843 8c7d 5645 29df 2646
00000320: 1c76 4b46 5cf9 0646 7794 7d45 a8bb 1545
00000330: 5072 2545 46ee 7445 d500 de45 b08c b545
00000340: 1cdd 9e45 d4fd 7445 a59c 5e45 5152 1c45
00000350: fb81 1b45 f27b 0645 e0e2 8344 f1d7 1c44
00000360: 4d6d 0343 ce2c e142 8a8b ef42 3db7 2443
00000370: 12e5 8e45 c1f0 c547 c9de b842 3291 7749
00000380: 9211 c841 7f1c fa41 3c83 2943 d08f 2d44
00000390: 552c 5744 3d1b 1644 ae71 a343 c5f4 6543
000003a0: 3e1d 7143 2d20 b743 9283 1644 b071 fc43
000003b0: b0b2 ce43 61d5 9d43 5f43 9243 8a99 5443
000003c0: c752 6943 307c 7543 4992 4943 39d7 9a43
000003d0: b0c5 e843 8c34 a443 962c c242 ef2d c841
000003e0: 5f1b a543 677f 1546 d7de 0841 66cb 7c47
000003f0: 6274 d235 f7ec 9835 6b07 8735 7f50 6035

exp_avg f4 [128, 28]
4.0166073 2.128476 0.6943677 -1.1192998 1.2012917 4.9486895 6.8082385 3.8546917
1.6890154 0.073746294 -1.9478772 -0.5110209 -1.4026567 -0.460917 0.52088857 0.37727913
1.3601735 2.1645422 -1.6809176 -0.04721243 0.90110964 3.307887 5.8565454 4.0124416
4.0339775 10.926201 1.0152578 23.884623 6.932645 9.020954 29.810772 88.86877
48.87798 14.209854 14.369399 15.141281 17.93463 52.656525 20.325638 13.506787
20.062 23.78486 25.279081 12.896534 15.478192 20.137304 13.257143 10.905012
-3.7336962 3.6830144 6.8624964 6.6092043 27.093586 169.64636 1.9285899 501.51874
-0.6754044 -1.0090572 -5.3658495 -24.834244 -15.886652 -4.632445 -1.6448058 -3.8699558
-4.414435 -14.526497 -8.064175 -6.675023 -3.5614653 -3.537765 -5.3590555 -3.053853
-4.2642784 -5.205955 0.84125507 -1.746398 1.311233 -4.279644 -2.1353865 -0.52926207
-10.601613 -42.738514 -0.09074552 -130.1736 -2.674976 -3.942688 -12.256913 -46.758926
-32.748928 -14.574935 -5.803812 -9.163088 -10.201955 -30.426708 -20.458696 -15.394031
-9.569473 -8.861273 -12.086423 -9.358438 -8.884612 -14.924949 -9.105349 -13.929576
-8.457342 -10.176678 -4.4186707 -2.5259752 -7.535179 -97.190865 -1.7338609 -215.20679
-0.8345374 -1.9136456 -7.856423 -29.245697 -16.366533 -3.1656082 -2.7594545 -5.106908
-5.2980156 -14.994735 -7.738083 -6.834991 -4.814421 -4.5893917 -6.8197927 -3.4904416
-4.8400836 -10.511876 -2.7896225 -1.3062474 3.259417 -2.7300503 -2.0254402 -0.69865954
-10.933029 -51.17981 -0.27546754 -148.51443 -1.0808998 -3.4139023 -14.502883 -54.914143
-31.2862 -2.87229 -6.9961166 -6.84166 -6.0218215 -30.644337 -9.766389 -5.1292577
-8.323492 -9.596895 -15.882966 -5.811703 -3.161611 0.20525335 1.7821807 -2.1647394
5.789323 0.88210297 -1.5435301 -1.0551339 -24.919292 -74.95468 -0.6041042 -250.10687
1.2077025 -1.0254517 -2.0958416 4.7715592 -3.4220521 -3.7238088 -2.4813151 -2.5951214
-0.4317713 -7.8893013 -16.510555 -7.750641 0.80294967 2.2499924 -1.2386111 -1.3267426
-6.9068723 -11.027968 -5.9926047 -1.1335667 2.97587 2.2450018 0.20084012 1.386061
-7.9817243 -21.020924 0.028058125 -89.10453 -3.1518903 -6.635972 -24.427753 -75.35045
-51.668198 -26.372284 -19.012165 -18.659523 -12.007416 -25.834507 -12.192633 -10.979101
-26.024887 -27.554226 -23.219 -11.376362 -5.358702 -14.142775 -4.227039 -2.3900824
-2.1536143 -2.0586262 -2.527846 -2.9176576 -22.35564 -146.81696 -1.8184607 -438.66095
0.4322171 2.0488808 6.36655 16.692822 6.6751823 -0.47547546 -0.4216804 1.5986251
-0.55253214 5.5525637 0.79198587 -0.5215146 2.1982887 3.5670617 3.9839377 1.575478
0.11870621 1.9870536 -1.9112757 -1.886417 -5.594546 -1.6657656 0.56267375 0.39744407
5.048048 17.91579 -0.13656235 92.55447 6e-45 6e-45 6e-45 6e-45
00000000: 0c88 8040 f338 0840 15c2 313f 3745 8fbf
00000010: edc3 993f aa5b 9e40 17dd d940 45b3 7640
00000020: a831 d83f 4c08 973d 0a54 f9bf 44d2 02bf
00000030: 418a b3bf 50fd ebbe f458 053f bb2a c13e
00000040: 2a1a ae3f dc87 0a40 4f28 d7bf d261 41bd
00000050: 1faf 663f 6cb4 5340 d268 bb40 ec65 8040
00000060: 5816 8140 b8d1 2e41 f8f3 813f b513 bf41
00000070: 3ad8 dd40 d455 1041 767c ee41 cfbc b142
00000080: 0d83 4342 905b 6341 0fe9 6541 b042 7241
00000090: 1f7a 8f41 48a0 5242 e89a a241 cd1b 5841
000000a0: fa7e a041 6547 be41 8f3b ca41 3458 4e41
000000b0: ada6 7741 3319 a141 421d 5441 ee7a 2e41
000000c0: e1f4 6ec0 82b6 6b40 9299 db40 9a7e d340
000000d0: aabf d841 78a5 2943 09dc f63f 66c2 fa43
000000e0: 4ee7 2cbf c928 81bf 0ab5 abc0 88ac c6c1
000000f0: ba2f 7ec1 fd3c 94c0 ff88 d2bf 5bad 77c0
00000100: 0d43 8dc0 886c 68c1 dc06 01c1 ca99 d5c0
00000110: 0cef 63c0 be6a 62c0 627d abc0 5472 43c0
00000120: f874 88c0 2f97 a6c0 7e5c 573f f889 dfbf
00000130: 7cd6 a73f d8f2 88c0 2caa 08c0 b87d 07bf
00000140: 35a0 29c1 3df4 2ac2 cad8 b9bd 712c 02c3
00000150: cf32 2bc0 0055 7cc0 511c 44c1 2409 3bc2
00000160: e7fe 02c2 ef32 69c1 d4b8 b9c0 029c 12c1
00000170: 353b 23c1 e669 f3c1 69ab a3c1 f34d 76c1
00000180: 901c 19c1 c6c7 0dc1 fd61 41c1 29bc 15c1
00000190: 5f27 0ec1 97cc 6ec1 82af 11c1 8bdf 5ec1
000001a0: 4651 07c1 acd3 22c1 c065 8dc0 94a9 21c0
000001b0: 3020 f1c0 b961 c2c2 27ef ddbf f034 57c3
000001c0: 3ea4 55bf 57f2 f4bf d167 fbc0 30f7 e9c1
000001d0: a9ee 82c1 5399 4ac0 e79a 30c0 ca6b a3c0
000001e0: 5889 a9c0 6fea 6fc1 609e f7c0 3fb8 dac0
000001f0: bd0f 9ac0 4cdc 92c0 be3b dac0 6563 5fc0
00000200: f7e1 9ac0 a530 28c1 2d89 32c0 1d33 a7bf
00000210: 4a9a 5040 25b9 2ec0 d0a0 01c0 5adb 32bf
00000220: b0ed 2ec1 20b8 4cc2 150a 8dbe b283 14c3
00000230: ed5a 8abf 607d 5ac0 cf0b 68c1 15a8 5bc2
00000240: 234a fac1 99d3 37c0 30e0 dfc0 e1ee dac0
00000250: c3b2 c0c0 9a27 f5c1 2143 1cc1 e122 a4c0
00000260: 062d 05c1 e28c 19c1 a120 7ec1 79f9 b9c0
00000270: d657 4ac0 ef2d 523e 7f1e e43f 178b 0ac0
00000280: 2242 b940 80d1 613f 6592 c5bf a10e 87bf
00000290: b65a c7c1 cce8 95c2 93a6 1abf 5c1b 7ac3
000002a0: ff95 9a3f 0042 83bf 4522 06c0 9db0 9840
000002b0: e702 5bc0 e252 6ec0 decd 1ec0 7816 26c0
000002c0: 2111 ddbe 2875 fcc0 9e15 84c1 4005 f8c0
000002d0: 1c8e 4d3f e0ff 0f40 cf8a 9ebf b4d2 a9bf
000002e0: 1905 ddc0 8f72 30c1 6bc3 bfc0 b718 91bf
000002f0: a774 3e40 1cae 0f40 08a9 4d3e 726a b13f
00000300: 496a ffc0 da2a a8c1 27da e53c 8535 b2c2
00000310: 92b8 49c0 e259 d4c0 0a6c c3c1 6eb3 96c2
00000320: 3cac 4ec2 70fa d2c1 ea18 98c1 b446 95c1
00000330: 601e 40c1 12ad cec1 0615 43c1 66aa 2fc1
00000340: f832 d0c1 0e6f dcc1 83c0 b9c1 9405 36c1
00000350: 7d7a abc0 ce48 62c1 e743 87c0 1cf7 18c0
00000360: d1d4 09c0 88c0 03c0 3bc8 21c0 e7ba 3ac0
00000370: 5ad8 b2c1 24d1 12c3 52c3 e8bf 9a54 dbc3
00000380: 8f4b dd3e dd20 0340 c7ba cb40 e68a 8541
00000390: 189b d540 8571 f3be 7ee6 d7be bf9f cc3f
000003a0: bf72 0dbf 9aae b140 96bf 4a3f fb81 05bf
000003b0: c3b0 0c40 bd4a 6440 d6f8 7e40 43a9 c93f
000003c0: 3e1c f33d c657 fe3f afa4 f4bf 1d76 f1bf
000003d0: 8506 b3c0 cf37 d5bf 630b 103f ca7d cb3e
000003e0: 9c89 a140 8a53 8f41 00d7 0bbe e31b b942
000003f0: 0400 0000 0400 0000 0400 0000 0400 0000

exp_avg_sq f4 [5, 128]
1204.8008 2970.1333 599.62006 222.25084 340.11554 2989.0054 203.83269 2099.8198
356.98993 1612.9171 1658.6794 3120.4604 4267.304 866.5209 2401.0793 887.5261
3141.6423 547.33264 1531.452 5100.634 3112.044 3896.6323 613.1358 3445.8442
2203.7654 2263.0466 549.2251 1359.9475 207.84108 2332.2715 2251.2285 3437.8357
821.53906 3253.5198 1605.1589 3412.8423 4415.9287 4958.904 1381.5577 137.07074
2440.2305 1822.858 680.51495 4460.4688 3364.08 1523.0874 1329.0503 5188.9536
1522.5532 942.6092 2358.6213 1405.3414 1361.4979 1786.6173 2016.94 4435.1597
2837.3062 852.18164 1365.0405 4190.1646 1390.7565 3786.0586 1728.9574 2768.0154
713.6213 1428.9352 2486.943 3622.6614 1753.66 2419.8323 2147.913 349.52777
504.35043 409.16696 3316.302 727.186 4135.811 865.3732 2075.624 3690.6719
1739.3356 519.47955 2376.6333 2232.4314 4830.241 183.45723 2770.745 1737.5765
1642.8741 1457.0688 1853.9541 6892.2603 1828.9198 1243.5541 8833.53 1824.6213
178.32207 2298.6875 2244.135 530.9658 2484.7678 2031.3025 1279.4775 1609.7621
446.0815 380.69937 1327.8016 6934.7344 1517.5978 1468.1492 1654.4905 1638.823
1482.5503 910.6363 741.9824 5211.7217 1549.7688 3525.0154 2662.2268 867.70856
1236.7516 4062.757 4097.6035 2556.4282 2957.8892 3485.5906 2968.5737 111.572754
927.9681 2597.813 526.7357 206.17386 247.82025 2186.263 286.33643 1458.1874
242.22276 1585.9349 1885.2318 2235.9832 3229.697 653.7322 1732.2949 838.7609
2639.372 543.373 1402.8936 3831.7588 2475.5144 2982.345 467.99402 2901.1016
1594.256 1793.338 448.57892 1336.9878 211.18372 2223.4036 1932.1558 3017.5183
651.8526 2463.5771 920.4838 2973.3193 3611.8806 3427.2734 863.05414 199.26892
2669.7815 1268.7921 727.90906 3306.1575 2985.9702 1573.7354 1343.7937 4191.1064
1003.20404 530.18665 1965.7344 1087.0153 1100.2349 1401.9354 1680.4852 3558.061
2439.864 883.9634 1088.9845 3637.8608 1099.2527 3462.0015 1516.5981 2113.2065
638.2639 1231.3314 1412.1675 2925.8076 1407.0905 2386.7705 1748.1633 419.31805
546.19 439.4152 2791.2942 710.7789 3438.5833 762.7487 1751.711 3650.9976
1447.6086 498.7392 2012.977 1545.834 4362.8125 272.31348 2388.3596 1388.8392
1272.589 1481.7904 1502.6353 5738.1807 1712.7302 957.3936 7392.9365 1810.6814
136.42332 1916.7921 1695.3619 394.7609 1542.6106 1444.4218 1363.9502 1800.3793
349.35944 321.1836 1172.4261 4913.1763 1156.6727 1351.5549 1173.9165 1436.7821
1304.49 574.67 636.52216 3924.2114 1277.6805 2971.5786 2592.0623 693.44476
1066.799 3381.2292 3528.676 1912.504 2544.9006 2663.648 2668.9648 152.37427
00000000: a099 9644 22a2 3945 afe7 1544 3740 5e43
00000010: ca0e aa43 16d0 3a45 2bd5 4b43 1e3d 0345
00000020: b67e b243 599d c944 be55 cf44 5e07 4345
00000030: 6f5a 8545 56a1 5844 4511 1645 ace1 5d44
00000040: 475a 4445 4ad5 0844 776e bf44 1265 9f45
00000050: b480 4245 1e8a 7345 b148 1944 825d 5745
00000060: 3fbc 0945 bf70 0d45 684e 0944 52fe a944
00000070: 51d7 4f43 58c4 1145 a8b3 0c45 5fdd 5645
00000080: 8062 4d44 5158 4b45 16a5 c844 7a4d 5545
00000090: 6eff 8945 3bf7 9a45 d9b1 ac44 1c12 0943
000000a0: b083 1845 75db e344 f520 2a44 c063 8b45
000000b0: 4841 5245 cc62 be44 9c21 a644 a127 a245
000000c0: b451 be44 fda6 6b44 f169 1345 edaa af44
000000d0: ef2f aa44 c153 df44 141e fc44 4799 8a45
000000e0: e654 3145 a00b 5544 4ca1 aa44 51f1 8245
000000f0: 35d8 ad44 f0a0 6c45 a31e d844 3f00 2d45
00000100: c367 3244 ed9d b244 176f 1b45 956a 6245
00000110: 1f35 db44 513d 1745 9c3e 0645 8ec3 ae43
00000120: db2c fc43 5f95 cc43 d544 4f45 e7cb 3544
00000130: 7d3e 8145 e357 5844 fcb9 0145 c0aa 6645
00000140: bd6a d944 b1de 0144 228a 1445 e786 0b45
00000150: eef1 9645 0d75 3743 ec2b 2d45 7332 d944
00000160: f95b cd44 3422 b644 88be e744 1562 d745
00000170: 6f9d e444 bb71 9b44 1f06 0a46 e213 e444
00000180: 7352 3243 00ab 0f45 2942 0c45 d0bd 0444
00000190: 494c 1b45 aee9 fd44 48ef 9f44 6338 c944
000001a0: 6f0a df43 8559 be43 a7f9 a544 e0b5 d845
000001b0: 21b3 bd44 c684 b744 b2cf ce44 56da cc44
000001c0: 9c51 b944 b9a8 6344 e07e 3944 c6dd a245
000001d0: 9ab8 c144 3f50 5c45 a163 2645 59ed 5844
000001e0: 0d98 9a44 1dec 7d45 d40c 8045 dac6 1f45
000001f0: 3ade 3845 73d9 5945 2e89 3945 4025 df42
00000200: f5fd 6744 025d 2245 16af 0344 822c 4e43
00000210: fcd1 7743 35a4 0845 102b 8f43 ff45 b644
00000220: 0739 7243 eb3d c644 6ba7 eb44 bbbf 0b45
00000230: 27db 4945 dc6e 2344 7089 d844 b3b0 5144
00000240: f4f5 2445 dfd7 0744 985c af44 247c 6f45
00000250: 3bb8 1a45 8565 3a45 3cff e943 a051 3545
00000260: 3148 c744 d12a e044 1a4a e043 9c1f a744
00000270: 082f 5343 75f6 0a45 fc84 f144 4b98 3c45
00000280: 91f6 2244 3cf9 1945 f71e 6644 1cd5 3945
00000290: 17be 6145 6034 5645 77c3 5744 d844 4743
000002a0: 81dc 2645 5999 9e44 2efa 3544 85a2 4e45
000002b0: 869f 3a45 88b7 c444 66f9 a744 daf8 8245
000002c0: 0fcd 7a44 f28b 0444 80b7 f544 7de0 8744
000002d0: 8487 8944 ef3d af44 870f d244 fa60 5e45
000002e0: d37d 1845 a8fd 5c44 811f 8844 c65d 6345
000002f0: 1668 8944 0660 5845 2493 bd44 4e13 0445
00000300: e490 1f44 9bea 9944 5c85 b044 ecdc 3645
00000310: e5e2 af44 542c 1545 3a85 da44 b6a8 d143
00000320: 298c 0844 25b5 db43 b574 2e45 d9b1 3144
00000330: 55e9 5645 ebaf 3e44 c1f6 da44 f62f 6445
00000340: 7af3 b444 9e5e f943 449f fb44 b03a c144
00000350: 8056 8845 2028 8843 c145 1545 db9a ad44
00000360: d912 9f44 4b39 b944 54d4 bb44 7251 b345
00000370: 5e17 d644 3159 6f44 7e07 e745 ce55 e244
00000380: 5f6c 0843 5999 ef44 95eb d344 6561 c543
00000390: 8ad3 c044 7f8d b444 687e aa44 230c e144
000003a0: 02ae ae43 8097 a043 a38d 9244 6989 9945
000003b0: 8795 9044 c2f1 a844 54bd 9244 0799 b344
000003c0: ae0f a344 e1aa 0f44 6b21 1f44 6243 7545
000003d0: c7b5 9f44 42b9 3945 ff00 2245 775c 2d44
000003e0: 9159 8544 ab53 5345 d18a 5c45 2110 ef44
000003f0: 690e 1f45 5e7a 2645 70cf 2645 d05f 1843

exp_avg f4 [5, 128]
2.80206 16.983793 -4.607788 -9.7690735 3.9471369 8.042577 -3.5220885 4.7875113
2.0332367 -13.41652 -1.8443509 12.905187 -11.729792 -8.1322565 10.210032 3.2366421
9.25914 -12.5649185 -3.094003 40.684658 29.383177 15.6961775 2.352655 -5.642326
-18.092623 0.63414586 -0.78575355 0.554941 4.40734 -27.968273 -23.13171 -28.30325
10.830127 -13.569372 5.1759067 8.696836 -38.4768 23.969252 8.660398 7.456383
31.509264 -5.03594 -23.236526 3.784884 -23.957644 19.322386 16.78236 -22.852396
3.7769935 -19.581148 -14.979531 11.188511 -11.644503 -5.108479 -8.621701 10.56529
-21.492704 13.97748 7.1486707 4.381987 -10.755841 9.666384 -3.3373735 -8.763924
8.446179 -15.422917 -7.4542074 34.31714 16.570383 11.288099 -5.509217 -1.2354472
2.6535635 -3.9793541 1.5636896 6.182524 39.630836 -7.557266 6.4890537 32.263046
15.987518 2.9257295 -6.8660564 2.8927612 5.9919057 6.155418 -21.979631 -17.26171
-16.593155 23.326279 9.123074 1.3898599 -2.9439144 7.461802 -16.073824 -3.9203148
2.878874 17.092184 18.602245 -7.0350075 7.0577645 -12.579755 3.2001994 9.946355
2.5996845 -0.6920569 -0.31432906 -8.429244 -4.432211 7.547927 17.326792 -7.182733
-15.110954 6.9010477 7.3144913 -27.148838 0.20472312 -16.755838 -7.923481 1.0913324
-11.293223 22.866135 0.6714013 -8.058628 -5.4893994 14.062834 -6.842606 0.33727148
-6.09414 20.312544 1.6715276 -5.8512444 3.1316476 7.4177322 8.79523 -7.6292834
-0.058312505 -31.028131 -23.085993 12.213896 15.477905 -1.967447 -1.8230673 19.558681
9.708332 -1.8023064 -7.018496 -16.060226 12.327025 -30.077738 7.552419 -8.308883
-0.7021339 14.469078 8.533427 7.0749135 3.5109375 -7.434775 -29.167253 6.989429
-2.3357635 2.645915 -11.726349 -5.941992 -20.438635 19.34906 -8.419048 7.766849
21.949837 1.5746104 -16.246288 -7.5603514 -14.2484255 -0.8518615 12.668188 17.13401
-10.371941 -2.8573112 3.3788433 -1.4337108 16.275463 -6.6288376 7.869805 6.9698715
-15.614869 -3.0608509 -10.924827 6.678986 14.307362 -14.549174 -1.1678245 -4.3450294
-13.916033 12.4376545 11.573992 13.190929 4.6944146 14.508072 8.019588 -0.25332218
0.13361089 -2.5738828 -7.5082645 7.5528817 31.985546 8.344124 7.64105 6.417109
3.5645137 -15.599077 -1.5342191 3.2555084 9.93884 8.139231 0.9725936 8.781317
-17.685238 -5.091207 16.58212 -6.1165056 2.5087245 6.966484 -5.5659213 1.7467902
3.9586072 -6.1638803 16.752995 -0.84272045 -11.583996 -15.765429 27.835674 7.771947
-4.619729 6.446795 7.6992507 -26.99589 13.368423 -5.9624844 3.2355247 -11.27641
-6.3215637 -6.999976 1.7489151 1.6400553 -15.796645 0.19636942 18.657736 12.183814
12.039097 -3.506451 -35.741463 -16.643816 -17.702585 -21.616331 -33.28533 -2.371075
00000000: f354 3340 cfde 8741 0073 93c0 204e 1cc1
00000010: e49d 7c40 65ae 0041 e669 61c0 4b33 9940
00000020: 8d20 0240 11aa 56c1 b113 ecbf a57b 4e41
00000030: 3aad 3bc1 b91d 02c1 4b5c 2341 2525 4f40
00000040: 7025 1441 e809 49c1 2504 46c0 17bd 2242
00000050: bf10 eb41 8b23 7b41 e691 1640 ef8d b4c0
00000060: b1bd 90c1 6257 223f 2527 49bf 9d10 0e3f
00000070: ee08 8d40 06bf dfc1 be0d b9c1 0e6d e2c1
00000080: 3348 2d41 261c 59c1 07a1 a540 3e26 0b41
00000090: 3ee8 19c2 07c1 bf41 fd90 0a41 b19a ee40
000000a0: f912 fc41 6c26 a1c0 68e4 b9c1 8a3b 7240
000000b0: 41a9 bfc1 3f94 9a41 4642 8641 b5d1 b6c1
000000c0: 43ba 7140 31a6 9cc1 29ac 6fc1 2404 3341
000000d0: e24f 3ac1 a978 a3c0 7df2 09c1 6e0b 2941
000000e0: 0ff1 abc1 c2a3 5f41 e9c1 e440 3d39 8c40
000000f0: ed17 2cc1 82a9 1a41 8797 55c0 0839 0cc1
00000100: 8d23 0741 45c4 76c1 de88 eec0 c044 0942
00000110: 2590 8441 0e9c 3441 814b b0c0 2223 9ebf
00000120: fcd3 2940 bdad 7ec0 fb26 c83f 3dd7 c540
00000130: fa85 1e42 20d5 f1c0 54a6 cf40 5c0d 0142
00000140: e0cc 7f41 273f 3b40 bcb6 dbc0 0023 3940
00000150: b1bd bf40 2ff9 c440 49d6 afc1 fb17 8ac1
00000160: c8be 84c1 389c ba41 1cf8 1141 eee6 b13f
00000170: 1869 3cc0 15c7 ee40 3197 80c1 70e6 7ac0
00000180: 793f 3840 cbbc 8841 66d1 9441 c81e e1c0
00000190: 35d9 e140 ad46 49c1 11d0 4c40 4524 1f41
000001a0: 3b61 2640 a42a 31bf bdef a0be 2fde 06c1
000001b0: acd4 8dc0 9e88 f140 459d 8a41 f3d8 e5c0
000001c0: 78c6 71c1 62d5 dc40 5010 ea40 d230 d9c1
000001d0: f0a2 513e f50b 86c1 288d fdc0 c8b0 8b3f
000001e0: 0bb1 34c1 d8ed b641 f5e0 2b3f 24f0 00c1
000001f0: 29a9 afc0 5e01 6141 a1f6 dac0 d9ae ac3e
00000200: 3203 c3c0 1780 a241 9ef4 d53f 653d bbc0
00000210: ea6c 4840 105e ed40 43b9 0c41 1723 f4c0
00000220: 18d9 6ebd 9d39 f8c1 1db0 b8c1 1e6c 4341
00000230: 80a5 7741 4ed5 fbbf 455a e9bf 2e78 9c41
00000240: 5455 1b41 fab1 e6bf 8597 e0c0 587b 80c1
00000250: 7f3b 4541 359f f0c1 6bad f140 2ff1 04c1
00000260: 0cbf 33bf 5881 6741 eb88 0841 b165 e240
00000270: 33b3 6040 ade9 edc0 8956 e9c1 67a9 df40
00000280: 267d 15c0 ac56 2940 209f 3bc1 cc24 bec0
00000290: 5382 a3c1 e0ca 9a41 6cb4 06c1 078a f840
000002a0: 4499 af41 d58c c93f 66f8 81c1 66ee f1c0
000002b0: 8df9 63c1 9813 5abf e6b0 4a41 7412 8941
000002c0: 78f3 25c1 30de 36c0 f83e 5840 d683 b7bf
000002d0: 2634 8241 701f d4c0 71d5 fb40 3009 df40
000002e0: 81d6 79c1 fbe4 43c0 17cc 2ec1 41ba d540
000002f0: f4ea 6441 6bc9 68c1 467b 95bf 7b0a 8bc0
00000300: 12a8 5ec1 a200 4741 122f 3941 0c0e 5341
00000310: a538 9640 1021 6841 3c50 0041 72b3 81be
00000320: 4bd1 083e 7fba 24c0 b443 f0c0 35b1 f140
00000330: 66e2 ff41 8881 0541 7b83 f440 f558 cd40
00000340: fe20 6440 d295 79c1 4b61 c4bf 405a 5040
00000350: 7d05 1f41 4a3a 0241 e5fb 783f 4680 0c41
00000360: 5e7b 8dc1 2beb a2c0 2fa8 8441 6aba c3c0
00000370: f18e 2040 70ed de40 071c b2c0 d296 df3f
00000380: d259 7d40 823e c5c0 2206 8641 87bc 57bf
00000390: 0c58 39c1 323f 7cc1 76af de41 cab3 f840
000003a0: d2d4 93c0 254c ce40 4360 f640 95f7 d7c1
000003b0: 10e5 5541 accc bec0 d612 4f40 2d6c 34c1
000003c0: 404a cac0 ceff dfc0 73dc df3f 55ed d13f
000003d0: 0fbf 7cc1 1115 493e 0b43 9541 e7f0 4241
000003e0: 24a0 4041 b169 60c0 42f7 0ec2 8926 85c1
000003f0: e59e 8dc1 3fee acc1 2e24 05c2 b1bf 17c0
