model/420a.pt (torch_old, 336839 bytes, 24 tensors)

fc1.weight f4 [128, 28]
00000000: fbd1 0f3d cd21 2b3e c069 3fbe 2844 ebbc
00000010: 564c a6be ba75 d1be 149d 8dbd c3a1 0bbe
00000020: 12fe 54be 9c39 333e ec8d 1a3d c220 22bf
00000030: 0146 78be 5fdf b6bd ba2a 383e a0d3 943e
00000040: 9d13 c83e 3779 e7bd 602f 72bf e8ce 0bc0
00000050: 42c3 c7bf 3727 d0bf 11f6 2cbf d1b7 233e
00000060: d229 193c bc97 ad3c 01ed f1bf 0786 6f3d
00000070: 26e4 293f 9f04 5e3f 8607 c43e 74c9 3d3e
00000080: 18cd 1abe 66fb b2be 2135 0d3e 9981 ac3e
00000090: 42ac d13d c697 073e 6aa1 ab3d 4530 0ebd
000000a0: f127 c6be 1757 debe 93c6 5e3d 046b 9abd
000000b0: e60b 8d3d e284 90bc d362 63be a66e 19be
000000c0: 0c17 153e 21c7 7a3e 450e 56be 36bd 0d3f
000000d0: b253 af3e 041d 9fbd 67ac 653f 271a 0a3c
000000e0: febf b6bf 4986 91bf 7282 d7be 31e5 333e
000000f0: 8b22 7a3d d422 37bb 74a4 e03d 7bde 0dbd
00000100: d643 cdbc 60c9 893d 54ff c43d 2b65 e43e
00000110: f0a5 f53d d9af 54bd 3184 d8bd f7b6 d2bd
00000120: 18e7 d6be 1331 3abf 5ec5 07bf a394 36bf
00000130: 50a8 81be 0c3e a2be 06a3 61bf fb42 d0bf
00000140: ee68 f2bc d745 4d3e 3d49 d9bf 279d bf3d
00000150: 5d4e 11bf 1903 15bf 40fb a4be 6dd1 acbe
00000160: 96c6 17be 40a0 f0bd b119 1fbe 73c1 893d
00000170: 1f1a 4c3e b04c 063f a63c eb3e cfcc bf3e
00000180: b81c 193e 0232 f03b 4874 9cbd 6213 5bbe
00000190: 702c ec3d 7a91 273d 627a 063f 0dee f03d
000001a0: f0b4 d03d d318 943d 6d6d 88be c0c2 3fbf
000001b0: c176 523f 6a49 63bd 7354 6ebf 1731 0a3c
000001c0: 075d 61bf a528 82bf 2875 abbe 67a3 9ebe
000001d0: 141c 28be 5da8 1f3d 0fb0 d03c 924b 433d
000001e0: d876 fc3e b1a3 a73e 1c05 30be 7dae 483e
000001f0: e328 523e f0e4 4e3e ff92 c63e d906 453f
00000200: 8bdb 0cbf 23f0 57bf 4e51 91be 5619 603d
00000210: de1f 91ba d57d 52bd 1db6 e13d 193e 63bf
00000220: 4b48 96be f3f2 b9be 977d c8bf 0706 bdbd
00000230: 5ff3 7fbf 391c aabf bc7f 5fbf b23a 833d
00000240: 9718 35bd 65e4 30be dcde cd3d 049d 4a3e
00000250: 0ebd 4d3e b4d8 993e bebe 9b3e f29f 273d
00000260: 90c2 b33c a54d 7cbe 5d40 2d3d 9f96 c43e
00000270: 6b64 223e 8d80 083e be2e c23d 4857 433e
00000280: 82dd e9bd 2083 8c3d 0abd f3bd 924d 91bf
00000290: dcbf 613f 4d9e eb3d 7fa5 8cbf b1bc a5bd
000002a0: 1e6b 6dbf 0992 2d3c 1f5b ffbd c39e 22be
000002b0: 0008 1d3e 578e 92bc ff15 593e dc50 f73d
000002c0: bc4f 5a3e fd4d bd3d 4810 873e 43b9 66bd
000002d0: 778a 72be d7c5 bfbd a6c3 70be c61d 6ebe
000002e0: 8aea 2abe 5e5b c03d a72a fcbc ed22 dfbe
000002f0: f594 83be be68 0c3d 06e8 45bf a437 8cbf
00000300: c47b 1bbe 6363 823c 800f b0bf 287f 50bd
00000310: 623b 5bbf 9952 bfbe e1d0 22be e49d 1ebe
00000320: e0f0 47be f103 073e 8b0f b63b bfab 84bd
00000330: 1043 ca3d d31a 29be 7483 0ebe a842 7abe
00000340: 29ad 88be ea53 5b3e 7621 573d c3e5 bbbe
00000350: 13e0 61be a914 64be 90cf 5dbe f5f6 fdbe
00000360: 9442 76bf 2c9b 65bf 283d 47bf 35da 7fbf
00000370: c0b9 fabe f7ff 903c ca51 8abf 4870 e13d
00000380: f931 c43e 3708 cb3e 1cbf 1dbe 26cf 8e3c
00000390: 47ce 46bd 095d 43bd 0dda babe e509 70bc
000003a0: 9e40 fd3d b1da c33e 498f 123d e2ab ddbb
000003b0: 1ef3 28be 30d4 cb3d 8fd6 423e faf7 213c
000003c0: 7e79 c7be d64e 27bf 99dc 85be e184 67bc
000003d0: 0dad 643d 98a3 c2bd 1b1d a8bd e966 f73e
000003e0: 8a41 9bbf 8952 debc 0324 f1be b0ee 9a3d
000003f0: 9415 163e 65bb 48be f591 9ebd 183a 23be
0.035112362 0.16712113 -0.18692684 -0.028719023 -0.32480115 -0.4091013 -0.06914726 -0.13635926
-0.20800045 0.17502445 0.037733003 -0.63331234 -0.24245454 -0.089293234 0.17985049 0.29067707
0.39077464 -0.11302417 -0.9460354 -2.1845036 -1.5606463 -1.6261967 -0.6756297 0.15988089
0.00934835 0.021190517 -1.8900453 0.058477428 0.6636375 0.867258 0.3828699 0.1853388
-0.151173 -0.34957427 0.13789798 0.33692625 0.10237934 0.1324149 0.08380397 -0.034714002
-0.38702348 -0.4342582 0.054388594 -0.07539943 0.06887035 -0.017641488 -0.22205667 -0.14983615
0.14559573 0.24490024 -0.20903881 0.5536684 0.34243542 -0.07769206 0.8971619 0.008429087
-1.4277341 -1.1369106 -0.4209171 0.17567898 0.0610681 -0.0027944343 0.10968867 -0.034636002
-0.02505676 0.06727862 0.096190125 0.44608435 0.11994541 -0.051925514 -0.105720885 -0.10288804
-0.41973186 -0.7273113 -0.53035533 -0.7132055 -0.25323725 -0.31687963 -0.8813938 -1.6270441
-0.02959105 0.20046173 -1.6975476 0.09356146 -0.567602 -0.5820785 -0.3222294 -0.3375353
-0.14821848 -0.11749315 -0.15537144 0.06726351 0.1993184 0.52460766 0.4594471 0.37460944
0.14952362 0.00733018 -0.076393664 -0.21394113 0.11531913 0.04091022 0.5253049 0.117641546
0.10190761 0.07231297 -0.26645985 -0.7490654 0.82212454 -0.055489935 -0.9309761 0.0084345555
-0.88032573 -1.0168654 -0.3348782 -0.3098404 -0.16416961 0.038978923 0.025474576 0.04767949
0.4930942 0.32742074 -0.17189449 0.19597812 0.2052341 0.2020452 0.38784024 0.76963574
-0.55022496 -0.84350795 -0.28382343 0.054711662 -0.0011072119 -0.051389534 0.110210635 -0.8876663
-0.2935203 -0.36318168 -1.5663327 -0.09229665 -0.9998073 -1.3289863 -0.8730428 0.064076796
-0.044212904 -0.17274626 0.10052273 0.19786459 0.2009165 0.30048144 0.30418962 0.04092402
0.02194336 -0.24638994 0.04229771 0.38396165 0.15858619 0.13330288 0.094815716 0.19076264
-0.114192024 0.068609476 -0.11901291 -1.1351798 0.8818338 0.11504803 -1.0988005 -0.08092631
-0.9274157 0.0105938995 -0.12468552 -0.15880875 0.15335083 -0.017890139 0.21199797 0.120759696
0.21319479 0.09243391 0.2637961 -0.056329023 -0.23685633 -0.09363907 -0.23512134 -0.23253545
-0.16691032 0.09392427 -0.030782057 -0.43581334 -0.25699583 0.034279577 -0.77307165 -1.095448
-0.15183932 0.015916532 -1.375473 -0.050902516 -0.85637486 -0.37367705 -0.15899993 -0.15489918
-0.1952548 0.13185097 0.005556052 -0.064780705 0.098760724 -0.16514139 -0.13917333 -0.2443949
-0.2669461 0.2141873 0.052522145 -0.36698732 -0.22058134 -0.22273506 -0.2166121 -0.49602476
-0.9619534 -0.896899 -0.7782769 -0.9994233 -0.4896984 0.017700179 -1.080621 0.11007744
0.38319376 0.39654705 -0.15404934 0.01743276 -0.048536565 -0.047696147 -0.36494485 -0.014650797
0.123658404 0.38252786 0.03578118 -0.006764875 -0.16498992 0.09952581 0.1902716 0.009885782
-0.3895988 -0.6535467 -0.26144865 -0.014130802 0.055829097 -0.09503859 -0.082086764 0.48320702
-1.2129376 -0.027138965 -0.47097787 0.07565057 0.14656669 -0.19602735 -0.07742683 -0.1594013

fc1.bias f4 [128]
00000000: 80e6 573b 0003 233c a6f0 0dbd fc52 863d
00000010: 5c7c d8bd bb8d dc3d f92e da3d 35d8 2bbd
00000020: a7fb 53be 5d99 11bd 65fc 6cbd 32ab 7b3d
00000030: 48e9 1839 6d8f 1c3e b0a7 cebc 87ee 8bbe
00000040: 4c55 2ebe a360 cdbd 76bb 0abe 1522 41be
00000050: d8c3 89bd f010 f1bb ae7d ee3e 2e3b dd3d
00000060: be52 92bd f1d0 3dbe 736b d4bd 746c e3bd
00000070: c82d a7bc 0e99 42be 90bf 71bd 2ae3 d73d
00000080: e4b1 f6bd bbca dabd 5db3 913e fc79 67bd
00000090: b193 0d3e 9240 0fbe 3985 06bd 733e f7bd
000000a0: 5554 66be 5199 763e e1ce aabd efe5 18bc
000000b0: 8183 0b3d d6e8 7dbe f62b 27bd 7e0a e83e
000000c0: 294d fa3d 148c 15bd 4cda f53d a920 0f3d
000000d0: eadc 4fbe f838 47bd 5118 023e 66a1 6dbe
000000e0: 84bf 42bc 76fb 083e d796 63be 4291 033f
000000f0: 48d4 a43d 303a 9b3c 128c 9b3d 172e febd
00000100: 33b2 cb3d c490 843e f7ea 833d e4f3 763e
00000110: e2d2 08be 0c71 f13d 722f 44be 587a efbd
00000120: e9ac 7cbe 5e30 90bc cc47 803d 815d 2dbe
00000130: 23e6 e2bb bf6a 15be 79e4 d6be 29da 583c
00000140: 0c49 72bd 1430 03be e32f 7ebd 0193 00be
00000150: e6dc 653e 0fd5 9cbc 4b03 83bd 2444 01be
00000160: 4076 963d 5d3b b7bc 61dd 84be 6294 66bd
00000170: 3c5e 94bd 6e5c b33c 3c12 75bd b3ed 97bd
00000180: f8ac 01be 1f41 38be 5dce 373f 457d de3d
00000190: 9fbd c73e 566f 57bd bd5d de3d ba12 50be
000001a0: 7f40 923d 0570 553d 7363 e03b 1578 4b3e
000001b0: 14e3 5d3d 940c c3bd e734 013d 4b37 883e
000001c0: 1746 10be 0144 0dbc 1550 cc3c dc99 b83d
000001d0: 221a 29be 40a8 c2bd 2593 bf3d 8256 98bd
000001e0: 6b16 f3bd 3f70 9e3c 9cdd 983d a73c 9ebd
000001f0: 18f4 653d 9575 30bc 8f4c 1ebe 1430 14be
0.0032943785 0.009949446 -0.03465333 0.06558797 -0.10570595 0.107692204 0.106534906 -0.041954238
-0.20701467 -0.03554665 -0.05785789 0.06144256 0.00014582754 0.15289088 -0.025226444 -0.2733042
-0.17024726 -0.100281976 -0.13548073 -0.18860658 -0.06726807 -0.0073567554 0.4658026 0.10802303
-0.07144688 -0.18536736 -0.10372057 -0.1110467 -0.020407572 -0.19003698 -0.05902058 0.10541375
-0.12045649 -0.10683199 0.28457156 -0.056512818 0.13825871 -0.13989475 -0.032841895 -0.12072458
-0.22493108 0.24081923 -0.0834024 -0.009332164 0.03406096 -0.24795851 -0.04081341 0.45320505
0.122217484 -0.036510542 0.120045274 0.034943257 -0.20299116 -0.048638314 0.12704588 -0.232061
-0.011886481 0.13377175 -0.2222551 0.5139352 0.08048302 0.018948644 0.07595076 -0.12411135
0.09946098 0.25891697 0.064413 0.24116474 -0.13361695 0.1178914 -0.19158724 -0.11693257
-0.24675335 -0.017601188 0.06263694 -0.169302 -0.006924407 -0.14591502 -0.41971186 0.013235607
-0.059151694 -0.12811309 -0.062057387 -0.12556078 0.22447547 -0.019144563 -0.063971125 -0.1262365
0.07346773 -0.022367174 -0.2595015 -0.056293853 -0.07244536 0.02189466 -0.059831843 -0.074183844
-0.12663639 -0.17993592 0.7179926 0.10863737 0.39011857 -0.052596413 0.10857723 -0.20319644
0.07141208 0.052108783 0.006847793 0.19870026 0.054171637 -0.095238835 0.031544592 0.26604685
-0.14089237 -0.00862217 0.02494053 0.09013721 -0.16513875 -0.095047474 0.093542375 -0.07438375
-0.1186951 0.019340632 0.07464144 -0.07726412 0.05614099 -0.010770221 -0.15458892 -0.14471465

fc2.weight f4 [128, 128]
00000000: 22dc 9fbe 8e1f c9be 212e 0e3e 49fe b93d
00000010: 4cd7 9c3e 84c5 2cbe c55c aebe 650d ce3e
00000020: b8f6 1ebe a304 cabe 692b e0bd b875 ecbe
00000030: d682 473e 32d6 583e 36ef d4be c9d4 13bf
00000040: 775a 43be 5d51 833d d129 74be 1c19 26bd
00000050: e0ad 18bf 084f 2abe d83f 843e 046c ed3e
00000060: 38da ae3d de42 07bf 0e4f 023e 1daf 11bf
00000070: 61b6 9e3b 9478 21bf 1da7 bbbd 1f2d b23d
00000080: 6109 be3d c2e0 0e3f 4bb7 563d d738 d63e
00000090: 3cf1 853e 69df 9cbe 8d8a bf3e 0aa3 14bf
000000a0: 973f 27bf 5313 0c3e b6d9 813d d1e4 8a3e
000000b0: cf32 0d3d c68b 27bf 11ea 1fbe e63b 53bd
000000c0: 4415 823e 161e 953c 614d 473e 13de c43e
000000d0: d853 343e 4803 9d3e 786a 43bf afdf b7be
000000e0: 03b1 dcbe b5bc 6f3c 19c1 803e 1a94 05bf
000000f0: 9bf2 d43d cd69 cebe 9605 1c3d bc1d 4ebf
00000100: 6358 1f3e eded aa3e a411 d03e 0b25 0e3e
00000110: 4a96 5cbd 546e 403d 7628 9fbe 3b67 8ebc
00000120: e218 43bf d532 8e3e d323 12bf 3573 34bf
00000130: 6213 01bf fcc2 103e 62b9 a1be 559b 583e
00000140: c0c9 cbbe f495 14bf 4af9 84bd f360 e5be
00000150: 1730 4b3e 3148 94be 91bb 38bc 3622 38be
00000160: f012 e7be 71d6 9bbd fb69 13bf 07f8 0b3e
00000170: 518a c9be 38bd 5a3d b4d9 193e 7f99 fcbe
00000180: 5d21 cd3e ac3b abbe 6731 bdbe ddaa d2be
00000190: 4f38 c9be 9df9 03bf 08d3 b23d f0ec 4b3d
000001a0: 1302 6a3e b461 6d3e 1fff 3c3d be3e 453d
000001b0: 0dc4 623d c6e1 cfbe 3b42 23bd da36 d13d
000001c0: 55df cd3d d7a7 c3bd 54a3 b5be e302 dcbd
000001d0: d5cd 253e 533d 093f 900d 603e 9287 903f
000001e0: 5768 8fbf c454 babe f35e 4a3f 5e5c 833e
000001f0: ad69 b9be 27ac d63e 37a7 eebe 1f63 6abe
00000200: 385d cbbd 40b9 4bbd 9f98 0dbd d6e2 823e
00000210: 66f0 b8be 76b4 7d3e a123 be3d 9b09 d93e
00000220: 329d b03d 4e52 f83e 8d80 7c3d e29d bebd
00000230: e962 a33d f68d 8f3e 09b9 343d f88b 03bf
00000240: a7fc 243c 67a1 2a3d 25a0 eb3e d285 4d3d
00000250: d9bb 5d3c dc6e f0be e6a0 39be cf50 a5be
00000260: 762b 44bd 0463 9e3c 9da5 8cbc 2c89 ddbc
00000270: 15aa cd3e 407e 7f3f d7aa 0cbf 76b0 bfbd
00000280: fb7c 2b3f 527e b73e 1b81 223e 87aa 1fbe
00000290: 2d81 993e 18f0 783e b98e 02bf fcbc 14bf
000002a0: 5bbf a53e 38b5 ef3e 2386 b2bc b5b0 b9bd
000002b0: 07c4 733e c634 dfbd dd7f 0e3f 1edb d23e
000002c0: e2b0 053e 3b65 ce3e caf6 febc 1466 733d
000002d0: 3379 42be 8ac6 bcbe 32f5 213e 694c 45bf
000002e0: f2a1 0fbe 612a c33e e02f c0be cf4d c7be
000002f0: eac4 123f 0196 d3be 3473 743e b5b2 8bbe
00000300: a021 4a3e 36d8 6d3d 277a b93c 0983 633d
00000310: 4b00 a73d e30e fa3d 97da f83e 53bf cbbe
00000320: 8027 723e 4057 16be e0f1 72be 39b8 2b3f
00000330: 2616 123f 8902 b3be b330 97bb 4b94 403e
00000340: 1e5c fd3e 3034 333e 50ae 143f 5225 223d
00000350: f666 97be 8676 9bbe 4b7b 943d 64ab 0bbf
00000360: c28d 1abf 7450 d43e fd0c 803d 34ca c03e
00000370: a0a2 0e3d f55e 87be e42b 53be 4475 973e
00000380: 9912 a0be 0599 b4bd 0c66 053e 2eb4 24be
00000390: 83e2 013f 5864 103f 2dec 13be 5415 efbe
000003a0: eb28 c83e 3a98 8dbe bd35 1a3f fbb8 123f
000003b0: 0f5a b23d 2b90 753e 6e1e 733e 85c8 99bd
000003c0: ee40 583f c1d0 83be ada4 023e 7da6 543e
000003d0: 5e95 bdbe e22d 9e3d 2ac6 843e c2f0 30bf
000003e0: 1241 123e 3ece c83e 6921 83be d32c d9be
000003f0: 2fbd c13e 08d0 473e ccce 3f3f 169a 8fbc
-0.31222636 -0.39281887 0.13884784 0.09081704 0.30633008 -0.16872221 -0.34055153 0.40244594
-0.15523803 -0.39456663 -0.1094578 -0.46183562 0.19483504 0.21175459 -0.41588753 -0.5774656
-0.19077478 0.06412003 -0.23844077 -0.04055129 -0.5964031 -0.1663171 0.2582996 0.46371472
0.08537716 -0.52836406 0.1272547 -0.56907827 0.0048435186 -0.6307461 -0.09162734 0.087000124
0.09279133 0.55811703 0.052420896 0.4184024 0.2616061 -0.30639198 0.37410393 -0.5806128
-0.65331405 0.13679247 0.06340353 0.27127698 0.034472283 -0.6544765 -0.15616633 -0.051570795
0.2540685 0.018202823 0.19463111 0.3845068 0.17610109 0.30666566 -0.76334333 -0.35912845
-0.431038 0.014632394 0.25147322 -0.5217911 0.10397836 -0.40315095 0.038091265 -0.8051412
0.1556106 0.33384648 0.4063846 0.13881318 -0.053854264 0.046980217 -0.31085557 -0.017383208
-0.76209843 0.27773157 -0.57085913 -0.7048829 -0.504202 0.1413688 -0.31586748 0.21153004
-0.3980236 -0.5804131 -0.064928606 -0.4480053 0.19842564 -0.28961328 -0.011275188 -0.179818
-0.45131636 -0.07609261 -0.5758359 0.13668834 -0.3936334 0.05340311 0.15024453 -0.49335858
0.40064517 -0.33443964 -0.36951753 -0.41145983 -0.39300773 -0.51552755 0.08731657 0.049786508
0.22852354 0.23181802 0.04614174 0.04815554 0.05536275 -0.4060194 -0.039858084 0.1021554
0.10052363 -0.09553497 -0.35476172 -0.10742738 0.161918 0.536092 0.21880174 1.1291373
-1.1203717 -0.36392796 0.7905113 0.25656408 -0.36213437 0.41928217 -0.4661195 -0.22889374
-0.099298894 -0.049737215 -0.03456938 0.25563687 -0.3612091 0.24775872 0.092841394 0.4239014
0.086237326 0.48500293 0.061646033 -0.093074575 0.0797785 0.28037995 0.044121776 -0.5138545
0.010070003 0.04165783 0.46020618 0.05017645 0.013533556 -0.4695958 -0.18127784 -0.32288215
-0.04789301 0.019334324 -0.017168814 -0.027042948 0.40168825 0.9980202 -0.5494818 -0.09359829
0.6698758 0.35838562 0.15869562 -0.15592395 0.29981366 0.24310338 -0.5099903 -0.5810087
0.32372555 0.46817946 -0.021792477 -0.09066907 0.23805247 -0.108987376 0.55663854 0.41182798
0.13055757 0.40311608 -0.031123538 0.05942352 -0.18991546 -0.36870223 0.15816191 -0.7706972
-0.14026621 0.3811827 -0.37536526 -0.3892655 0.57331717 -0.4132538 0.23872072 -0.2728478
0.1973939 0.058067523 0.022641255 0.055544887 0.08154353 0.12209871 0.4860427 -0.39794406
0.2364788 -0.1468172 -0.2372508 0.67077976 0.57065046 -0.34962872 -0.0046139597 0.1880657
0.49484342 0.17500377 0.5807848 0.039586373 -0.2957074 -0.30363864 0.07250079 -0.54558396
-0.60372555 0.4146763 0.06252477 0.3765427 0.03482306 -0.26439634 -0.20622212 0.29581654
-0.3126419 -0.08818249 0.13027209 -0.16084358 0.50736254 0.5640311 -0.14445563 -0.4669596
0.39093718 -0.27655202 0.6023825 0.5731351 0.087085836 0.23980777 0.23742077 -0.07508949
0.84474075 -0.25745204 0.12758131 0.20766635 -0.3702802 0.07723595 0.25932437 -0.6911737
0.14282635 0.3921985 -0.25611427 -0.4241701 0.37839648 0.19512951 0.7492492 -0.017529529

fc2.bias f4 [128]
00000000: db01 c7bd 4f55 0e3d a077 6bbe 8df0 d0be
00000010: 4389 3cbd 2c2a f5bd 8819 b93d 4f27 7fbe
00000020: 6193 5cbe ecd6 01bd 9666 e7bd e236 fe3c
00000030: 5610 8dbe 98f8 ddbe 6689 f93d 4c7f 2e3c
00000040: b44c b93e 90b5 bdbd 5473 9d3d d6b2 60bd
00000050: 9f81 af3d 3250 12be c686 9abd 51e4 14bc
00000060: c558 8bbe ce18 a3bd 923d a0bc 9dea b83d
00000070: 5403 ad3d 541f 3f3e 429d a0be 1cec 66be
00000080: 1f47 a4bc cb69 98bd 0739 6fbd 2c5d 07be
00000090: 3b13 84be 79e0 c83e 9088 53be 96c8 b6be
000000a0: b8cf 903e c181 4a3e d5db 93be 5f26 ecbe
000000b0: 11da cebe d65b be3e c2e6 603d 9508 893d
000000c0: 2139 8abe 77e9 41bd 1968 54be 14b9 24bd
000000d0: f049 87be 816e 89bd 4c78 073e 90c8 91be
000000e0: 73f8 b83e f078 e83d db9b 23be 6211 d5be
000000f0: 85b1 dabc f983 b5bc da33 18be aea4 053e
00000100: 0775 99be 4c27 c03d 6c1a 9c3e 119d 28be
00000110: b840 193d 2be9 9bbe 4503 903e 1fdc 1b3c
00000120: e251 e73e ba63 d23d 8c8d 203e 1f54 b93e
00000130: e8a3 af3c 0a06 25bc b345 83be 8392 03be
00000140: 6846 0f3e 8f21 9c3e e727 3c3e 0bb3 d0bd
00000150: 1e9d e8bd 536f 94bd 1eb5 9abe 7301 4ebe
00000160: 3989 8dbe 6b7b 01bf f155 963e 5b3b b13d
00000170: a105 b1bd 537f 54bd a075 67be d72b 613d
00000180: e9fb ccbe 475d e9bd fe77 be3d 3e97 15bd
00000190: 5d51 63bc 53fc 793e f7d8 073d 6083 b9bd
000001a0: 9371 0b3e faff 9abe 9ea5 a9bd ecab 3abe
000001b0: 9e14 83bd f5f1 e23c 2039 043e bb4c b43c
000001c0: b22d 18bd ba97 35be bef0 c03d f5c5 0c3e
000001d0: 60b6 3bbe ccf8 bfbd 49f2 063e c3a5 20be
000001e0: d09f 2a3e 4c52 6d3e 4544 2f3e 135c 97be
000001f0: 4ad4 803e 5faa 59be e34c 923d d92b 7b3e
-0.09717151 0.034749325 -0.22994852 -0.40808526 -0.04602934 -0.11970934 0.09038073 -0.24917339
-0.21540596 -0.031699106 -0.112988636 0.03103203 -0.27551526 -0.43353724 0.1218441 0.010650467
0.36191332 -0.09263146 0.07688013 -0.05485805 0.08569645 -0.14288405 -0.07545237 -0.009087638
-0.27216163 -0.079637155 -0.019560609 0.09029124 0.084479004 0.18664294 -0.31369978 -0.22551006
-0.020053444 -0.074420534 -0.058403995 -0.13219136 -0.25795922 0.3923376 -0.20657563 -0.3569991
0.28283477 0.1977606 -0.28878656 -0.46123025 -0.40400746 0.3717944 0.054907568 0.0669109
-0.2699671 -0.04734179 -0.20742835 -0.040215567 -0.26423597 -0.0671053 0.13229483 -0.2847333
0.36127052 0.11351192 -0.15977423 -0.41614825 -0.026695976 -0.022157656 -0.1486353 0.13051102
-0.29972097 0.09382495 0.30488908 -0.16466166 0.037415236 -0.3045133 0.28127494 0.00951293
0.4517966 0.102729276 0.15678996 0.36196992 0.021440461 -0.010072241 -0.25639114 -0.12848859
0.13991702 0.30494353 0.18374597 -0.101904 -0.11358093 -0.07247796 -0.30216306 -0.2011774
-0.27643755 -0.50578946 0.29362443 0.08653899 -0.08643652 -0.05187924 -0.22603464 0.05497345
-0.40035942 -0.11394744 0.093002304 -0.03652119 -0.013874379 0.2441266 0.0331659 -0.09058261
0.13617544 -0.3027342 -0.08283542 -0.18229645 -0.06400417 0.027703265 0.12912416 0.022009244
-0.037152953 -0.1773366 0.09420918 0.1374739 -0.1833129 -0.09373626 0.13178362 -0.15688233
0.16662526 0.23175925 0.17115887 -0.29562435 0.25161964 -0.21256398 0.07143571 0.24528445

out.weight f4 [5, 128]
00000000: 4098 5c3f 3fe3 69bc 36a1 67be 2b16 223e
00000010: 1713 42bf 4634 b6be ae63 76bd 3bc2 133f
00000020: c1e7 403f 9521 063f 9857 383f 8c2d debe
00000030: f27d 973e 00c1 4b3d a163 a8be 3799 e4be
00000040: d445 f0be b229 183f 3daf 1a3f d6a8 0c3f
00000050: 0b3a ed3d b8b5 06bd 68d5 3abe 604d df3e
00000060: b4d4 353f 3901 073f 554a c2be 96c1 3fbe
00000070: 0f85 0e3f 3993 523e 5061 933e 29d1 d03e
00000080: 5685 f83e 4d3d fc3e 972d bf3e 463e ae3e
00000090: d452 053f 3cac 8abe f03b 9b3d 6ba8 c13e
000000a0: 6ebd b83d f025 b6be 90d5 833e 6db4 013f
000000b0: 7365 e53e d44a 8c3d 7151 ffbd d6f8 3b3e
000000c0: e716 983e ccf9 203f 45f7 153f 280f d7be
000000d0: 4952 06bf ce76 1e3f 307d 13bd 7071 043f
000000e0: 0d14 2d3f 8e97 24be beaa 253f 89c3 b23e
000000f0: 6bdc e0be 39db 403f 511b 343f bfe1 b73c
00000100: 7536 003f f0d2 37bd 51cd a1be 92e4 f8be
00000110: 6d1d 1e3f 053b e63e 95b7 d53e 376f e13e
00000120: d1d5 3f3f a07a 183f 0396 e93e 48b0 ef3d
00000130: 076c 233d 34ca 4b3f 42b6 b93e 2029 2d3f
00000140: a558 39bd 16a3 163f 717d 3f3f 83c8 143f
00000150: 15b5 9d3e eb08 db3e 2234 ce3e 536f a03e
00000160: 7947 1e3f ddcb cd3e 6b02 2cbd 1fb4 263f
00000170: 9399 5f3f 743d fabe c9cc ee3d 72ba e9bd
00000180: 7466 0ebb ac10 d13e 1f7e f4bd d11a f13e
00000190: c139 6a3f b257 093f d590 fdbd 6009 d1be
000001a0: b112 f1be 924b d6be 7074 f5bd 1321 df3e
000001b0: 38f0 53be 4e3f 72be b20a 4fbe 06f7 c73e
000001c0: c1d6 2a3f e141 07bf dbc7 42bd 51f6 72be
000001d0: 1638 233f f9a2 01bf a88a f2bd 07a8 fbbe
000001e0: d713 27be 093b f33d a19d a7bd cf0b ea3e
000001f0: 088a 473f b864 163f 2097 043f a5b9 7b3f
00000200: 1020 db3e 1c21 23bf a657 b7be c240 313e
00000210: 4eb9 26bf 6dbc 9bbe 4829 04bf 7521 953e
00000220: dd09 a83e 5a9f ab3e ed9f a63e 79a5 93be
00000230: a64c 9b3e 62c4 dcbc dbc7 fbbe 474e 0fbf
00000240: 5c06 c8be e34c de3e fedd cc3e 30b8 243e
00000250: e272 e1be a30e b03e 05b1 dbbe bd8e b13e
00000260: d67c 6f3e e721 dd3e 9395 1cbf 2796 2dbf
00000270: a7ba 0b3f 7802 7f3e 4fdc 8a3e e369 923e
00000280: a8d5 f03e f5f6 ad3e b8ad fb3d 2d41 c53e
00000290: a5b7 b03e 5831 95be bbf7 663e d374 6d3f
000002a0: 49e8 99be 291c bdbe cb4a 623e 944f 583e
000002b0: 05c3 b13e 01f9 c9bc e371 c4be 4de3 6cbe
000002c0: 4931 953e e6f3 923e 08be cf3e 2e5d c5be
000002d0: e134 f1be 8e8a a13e d322 0cbf 4486 433e
000002e0: d24a 663e 64f7 1cbf 396b 9b3e d591 c73e
000002f0: f932 b6be 4c78 623e 6730 d43e 7169 cdbe
00000300: 99b2 bb3e ae3d 75be fdc5 b8be 3a43 96be
00000310: fc02 8c3e 2ba7 c63d c6df be3e 66e7 373f
00000320: d502 8c3e 4fdd 223f f6b9 483e eb3d 26be
00000330: bf35 03bf dd12 9b3e 21f4 f23d bef6 5c3e
00000340: 274a 06bf fe7d e93e f499 ca3e 73cb f03e
00000350: 3917 973e 79b3 a63e 762a de3e db17 653e
00000360: e017 cbbc 45e1 993d acad cfbe f3ba 683e
00000370: 5fe8 103e 1a4c 3fbf 2dfa 9c3e 23a5 f5be
00000380: 9590 6abe ef85 db3e 612b 0fbf 63e8 df3e
00000390: 4a71 10bd 365b 6e3e bb48 f1be 762f cfbe
000003a0: c4b4 27bf a489 d9be 8f06 f4be f5a8 b63e
000003b0: 9685 ebbe e499 21bf e8b7 5cbe 39a2 f43e
000003c0: 9ace 443e 5715 b2be ef06 1cbf eb1c c7be
000003d0: fea5 813e 85dc 9fbe 75bd e0be 8c08 51be
000003e0: 20b1 a7bd 5556 f2be fa6c aebe 9d2c 523e
000003f0: 1717 bb3e ed76 f7bd e24f 0a3e 9797 993d
0.86169815 -0.014275371 -0.22620091 0.15828769 -0.7581038 -0.35586756 -0.060153656 0.5771825
0.7535363 0.5239499 0.7200866 -0.43394125 0.29588276 0.049744606 -0.3288851 -0.44648144
-0.46928275 0.5943862 0.6042364 0.54945123 0.115833364 -0.032888144 -0.1824547 0.4361372
0.71027684 0.5273624 -0.37947336 -0.18726191 0.5567178 0.20563973 0.2878518 0.40784577
0.48539227 0.4926552 0.3733947 0.34031886 0.5207951 -0.2708453 0.075797915 0.37823805
0.09020506 -0.3557582 0.25748873 0.5066593 0.44803962 0.0685021 -0.124667056 0.18356642
0.29704973 0.6288116 0.5858043 -0.4200375 -0.5246931 0.6190003 -0.03600806 0.5173559
0.6760872 -0.16073439 0.64713657 0.34914806 -0.43918166 0.7533451 0.7035418 0.022446511
0.50083095 -0.0448789 -0.31601956 -0.48611885 0.6176365 0.44966903 0.41741624 0.44030163
0.7493563 0.5956211 0.45622262 0.11703545 0.039897945 0.7960541 0.36271864 0.67640877
-0.045250554 0.588426 0.74800783 0.58118457 0.30802217 0.4278024 0.4027415 0.31334934
0.6182781 0.40194598 -0.041994493 0.6511859 0.8734371 -0.4887501 0.116601534 -0.11412515
-0.0021728547 0.40833032 -0.11938118 0.47090772 0.91494375 0.5364944 -0.1238114 -0.40827465
-0.47084573 -0.4185453 -0.11985099 0.4357992 -0.20697105 -0.23656961 -0.20218924 0.3905565
0.6673394 -0.528349 -0.04755388 -0.23726775 0.63757455 -0.506393 -0.11842853 -0.49151632
-0.16316162 0.118764944 -0.08184362 0.45712134 0.77944994 0.58747435 0.517931 0.98330146
0.427979 -0.63722396 -0.35809058 0.1730986 -0.651265 -0.30417195 -0.5162549 0.29127088
0.32820025 0.33520013 0.3254389 -0.28837183 0.30331916 -0.026949111 -0.49175915 -0.55978817
-0.39067352 0.43418035 0.40013117 0.16085887 -0.4403296 0.34386167 -0.42908493 0.34679213
0.23387465 0.43189928 -0.6116573 -0.6780724 0.54581684 0.24903286 0.27121207 0.2859641
0.47038007 0.33977476 0.122889936 0.38526288 0.3451511 -0.2913921 0.22555439 0.92756385
-0.30060032 -0.36935547 0.22098844 0.21124107 0.347191 -0.024654867 -0.3836814 -0.23133583
0.29139164 0.28701705 0.4057467 -0.38547653 -0.47110656 0.3155102 -0.5474064 0.19094187
0.22489479 -0.6131499 0.30355242 0.3897845 -0.35585764 0.22116202 0.41443178 -0.40119508
0.36659697 -0.2394931 -0.36088553 -0.29348165 0.27346027 0.096998535 0.372801 0.7183746
0.2734591 0.6361894 0.19602188 -0.16234557 -0.51253885 0.3028783 0.1186297 0.215785
-0.524569 0.45603937 0.39570582 0.4703022 0.29509905 0.32558802 0.4339177 0.22372381
-0.024791658 0.0751367 -0.4056219 0.22727565 0.14151143 -0.74725497 0.3065962 -0.47977552
-0.22906716 0.4287562 -0.55925566 0.43731984 -0.03526429 0.23276982 -0.471258 -0.40465897
-0.655102 -0.42487824 -0.47661254 0.3567578 -0.46000355 -0.63125443 -0.2155453 0.47780016
0.19219437 -0.34781906 -0.6094808 -0.3888925 0.25321954 -0.3122293 -0.43894544 -0.20413417
-0.08188081 -0.4733149 -0.34067518 0.20524831 0.36541054 -0.1208323 0.13507035 0.074996166

out.bias f4 [5]
00000000: 47f9 adbf f217 a53f 8ea2 ad3f ea7d 4cbd
00000010: 7ea6 84bf
-1.3591698 1.2897933 1.3565233 -0.04992477 -1.0363309

exp_avg_sq f4 [128, 28]
00000000: 4402 df45 d4ea 1645 a4e8 8944 6224 3144
00000010: d22c 0c44 88b9 0244 989e 0744 7154 3144
00000020: 9ce8 8c44 77dc 1e45 258d 1846 7afa 2444
00000030: 99ce 3944 4aa3 7444 0c0e ce44 afe2 7f45
00000040: 258d 1846 44d9 f143 8d2c 6f42 40ef d641
00000050: 9bab 8342 3d9e b941 da58 9743 556a e045
00000060: 46ca 0b40 d5bd a945 7917 9441 ef94 9748
00000070: 7b8b ef45 1614 ab45 80f1 4345 cdc3 0945
00000080: 09d6 cb44 699b a244 5cfa 2445 ffa1 7145
00000090: e3f5 4d45 e128 6445 dc66 9e45 f43a d245
000000a0: bac9 bf45 7c1c 8245 6557 3f45 7c47 1a45
000000b0: c41c 2b45 9a2c 9345 372a 9344 d594 0545
000000c0: 27ed d645 6eba 2046 d341 e245 f1c6 ef45
000000d0: 6cee 7844 b879 9c47 1c4f 3443 3b13 c448
000000e0: fa9d ee42 5bca cc43 b9da 9145 3baa fe45
000000f0: 51d7 af45 0f4b 2645 c802 c144 e3c3 b844
00000100: 7bcb f544 f4c1 8c45 e4b0 f144 118e 0145
00000110: 06f7 4a45 cdd8 aa45 a123 b345 6571 a845
00000120: 8676 0d44 903b 0a43 5dcc b442 4e77 a542
00000130: 458e b942 59a3 c642 417b 9142 79dc eb42
00000140: 9813 a543 740d ef46 f629 4242 f106 0e49
00000150: f7a7 3645 bf99 cd44 447f 0a45 325f 1f45
00000160: 1ffb 2345 2c84 3b45 b0cd 1047 00bc 4747
00000170: 5f19 3647 7986 3947 18be 1747 88a4 0647
00000180: 0565 d746 14e9 9e46 4a2e a446 83d7 ed46
00000190: 3285 2e47 1259 5f47 cbb0 3647 3197 af47
000001a0: a128 ef47 f2da 0d48 31c4 6646 2333 3345
000001b0: 098d 8f45 fab4 6749 ebdc 4c44 1226 a549
000001c0: 1bf2 6042 e3be 8843 ef77 e343 1313 b343
000001d0: 0cfb ab43 4f01 bd43 f24d 0044 ff96 6444
000001e0: 0d48 0c45 e062 1e45 4082 aa43 75dc 9f43
000001f0: f9ac df43 21ba 4444 5bfc 1945 13e9 8645
00000200: 6e7c 8443 5ca5 4542 b875 0842 b50f 1642
00000210: 14f1 6e42 fd82 e342 8594 8542 65f9 5942
00000220: 42d7 b042 300d 2545 0115 0e41 70ee 0948
00000230: 3a25 6f44 1fbd 0744 10b1 4044 c998 5144
00000240: b90e 6f44 97a0 9044 953a 6246 6b28 9c46
00000250: 0b8f 8d46 edef 9346 437f 6b46 be81 4746
00000260: 2e00 1c46 4231 ee45 157a fd45 b0b5 3a46
00000270: b0d7 8146 64a1 a446 87b0 b146 5536 3147
00000280: 7cdc 4947 2a86 3947 4c72 8445 6481 6b44
00000290: cfaa d844 099a b848 8628 9643 c28a fa48
000002a0: 7be9 6c37 3939 8637 b5b0 ce37 f8c7 8738
000002b0: 3871 1f39 c1ea 9c38 1fef 673a 5c01 823a
000002c0: 3f19 0b3a 11e4 a139 c1ea 8139 a139 7639
000002d0: 726c 5639 b45a 6639 680a a139 fe5d 103a
000002e0: cabd d43a f1d6 673b c53a 8b38 ba9e 1b37
000002f0: 1c4a 0238 8dd4 b937 4841 8d37 4a24 7e37
00000300: 5566 8f39 fa26 293c 6eb3 d236 5592 dc3d
00000310: 780a 3b3d 5467 1f3e fed8 ab3f 7a96 bb3f
00000320: de9d 9f3f 135b 213f 0c62 b23e 545a 943e
00000330: 62c1 853e d71b 923e 462c b93e 512b 183f
00000340: 3065 ba3f 5dd4 8240 1bc2 cd3f 63f8 fc3d
00000350: 3efa 943d 3b86 b93d 5847 943c b2b7 733c
00000360: 3107 713c 8062 9c3c 4e43 c93c 72b4 433d
00000370: aca4 543e 2e0a 3841 c8f9 593c 6af5 3243
00000380: 3c11 0b46 6417 f745 3455 9545 96fc 5945
00000390: 26e5 2145 7657 1045 b31d f344 cbae 0b45
000003a0: 58ad 4745 4892 5f45 62b5 8b45 bea8 b545
000003b0: 404b b045 f4e7 9845 a3f8 8645 9b5c 6845
000003c0: d238 5144 ac00 2b44 d971 8444 ad6c 4744
000003d0: 2c7f a844 1dfb 2d45 684f 9845 2d37 0b46
000003e0: eb9a 8e44 9f59 2847 d5ad 3d43 c4fd 1149
000003f0: 1e89 ce38 b30c bb38 0f87 c738 dde4 cc38
7136.283 2414.6768 1103.27 708.5685 560.7003 522.8989 542.478 709.3194
1127.269 2541.779 9763.286 659.9137 743.2281 978.5514 1648.439 4094.1677
9763.286 483.6974 59.793507 26.866821 65.83517 23.202265 302.69415 7181.2915
2.1842208 5431.729 18.511461 310439.47 7665.435 5474.5107 3135.0938 2204.2375
1630.6886 1300.8566 2639.6475 3866.1248 3295.368 3650.555 5068.8574 6727.369
6137.216 4163.5605 3061.4622 2468.4678 2737.7979 4709.575 1177.3192 2137.302
6877.644 10286.607 7240.228 7672.8677 995.72534 80115.44 180.30902 401561.84
119.30855 409.5809 4667.3403 8149.279 5626.9146 2660.6912 1544.0869 1478.1215
1966.3588 4504.244 1933.5278 2072.8792 3247.439 5467.1 5732.4536 5390.1743
565.8519 138.23267 90.39915 82.73302 92.77787 99.31904 72.74073 117.93061
330.15308 30598.727 48.540977 581743.06 2922.4978 1644.8046 2215.954 2549.9497
2623.695 3000.2607 37069.688 51132.0 46617.37 47494.473 38846.094 34468.53
27570.51 20340.54 21015.145 30443.756 44677.195 57177.07 46768.793 89902.38
122449.26 145259.78 14769.048 2867.196 4593.6294 949071.6 819.45184 1.3528982e+06
56.23643 273.4913 454.93698 358.14902 343.9613 378.01022 513.2179 914.3593
2244.5032 2534.1797 341.01758 319.72232 447.35135 786.90826 2463.7722 4317.1343
264.9721 49.411484 34.11496 37.51534 59.735428 113.75584 66.79008 54.49355
88.420425 2640.8242 8.880128 141241.75 956.58167 542.955 770.7666 838.38727
956.23004 1157.0184 14478.6455 19988.209 18119.521 18935.963 15071.815 12768.436
9984.045 7622.157 8111.2603 11949.422 16619.844 21072.695 22744.264 45366.332
51676.484 47494.164 4238.287 942.0217 1733.3378 378064.28 300.3166 513110.06
1.4121058e-05 1.6000691e-05 2.46394e-05 6.474549e-05 0.00015205599 7.482386e-05 0.00088475825 0.0009918618
0.0005306191 0.00030878236 0.00024779703 0.00023481857 0.0002044903 0.00021968299 0.00030716066 0.000550717
0.0016230878 0.0035375918 6.638983e-05 9.275676e-06 3.1063435e-05 2.2152695e-05 1.6838909e-05 1.5148029e-05
0.0002735133 0.010324234 6.279376e-06 0.10770098 0.04566428 0.1556676 1.3425596 1.4655297
1.2470052 0.63029593 0.3484043 0.28975165 0.26124102 0.28536865 0.3616659 0.59441096
1.456213 4.0884233 1.6074861 0.123520635 0.072742924 0.090588056 0.018100426 0.014875339
0.014711187 0.019089937 0.024568226 0.047779508 0.20765942 11.502485 0.013304181 178.95865
8900.309 7906.924 4778.6504 3487.7866 2590.3218 2309.4663 1944.9281 2234.9246
3194.834 3577.1426 4470.673 5813.093 5641.4062 4892.994 4319.0796 3717.7878
836.8878 684.0105 1059.5577 797.69806 1347.9741 2783.6946 4873.926 8909.794
1140.8412 43097.62 189.67903 597980.25 9.8483855e-05 8.91922e-05 9.514216e-05 9.770107e-05

exp_avg f4 [128, 28]
00000000: 8c08 56c2 9408 f9c1 386c a7c1 bc54 87c1
00000010: aab6 6ec1 29e6 63c1 6ae3 65c1 84e1 85c1
00000020: 3693 a8c1 0e04 fac1 66b4 7cc2 0629 8ac1
00000030: 9d44 93c1 2a8c a7c1 9e3f dac1 f066 28c2
00000040: 66b4 7cc2 e702 04c1 75f6 22c0 9ca2 dfbf
00000050: fe30 c8c0 10ae 38c0 6330 5bc1 ac41 57c2
00000060: 468b 7e3f a492 38c2 29a9 10c0 7edc a2c3
00000070: a54d 7b41 f900 3f3f 7464 7540 7cae 9241
00000080: 12fe 9441 c471 5941 0e01 8741 345c 7d41
00000090: e7d9 9141 db7a b341 f243 9241 12ec 8040
000000a0: f301 8740 1e7a 8641 e0dd 8141 31a5 5b41
000000b0: 3a81 3741 838e 5741 7200 f740 e935 ea40
000000c0: 681a 4441 2dd1 2d42 fb01 0f42 6442 7941
000000d0: 9a68 61bf e2a9 9842 4f57 6e40 c4f8 fe42
000000e0: debe bc3c 95a5 6fbf 2700 56c1 222a fdc0
000000f0: a41c 3d40 7648 c4bf be1a 2dc0 1bcc 32c0
00000100: 50e3 4dc0 ae88 ec40 74f0 1141 2032 d93f
00000110: 30ee 02c1 4e43 19c1 e617 07c1 3991 92c0
00000120: 5e68 713f 7c4a 9b3f 1191 553f 0a27 003f
00000130: 53e7 933e abf6 2d3e f78f 6d3e 409d cd3c
00000140: d3a8 5d41 ced4 b1c1 8957 a73e 923f 67c2
00000150: 2566 c8c0 c36e 51c0 4309 fabf 022f 603f
00000160: 6c40 cf3e f01c 4dbf f216 8640 f353 9841
00000170: 6dd9 ffc0 1ee7 0cc1 012a fac0 c297 cdc0
00000180: 28d4 74c1 ca2a 04c1 d691 90c0 38e7 babf
00000190: 4650 c940 ad51 9f3f 13a0 adc1 f66d 9cc1
000001a0: e185 e241 d7fb b4c2 5a55 f2c1 e135 e3c0
000001b0: 4e77 d540 37c8 8cc2 cdfb d2bf 2e2c 2ec3
000001c0: ad46 fd3e 69c4 b23e 241e 273f 6b43 0f3f
000001d0: 7be1 0b3f 479f 173f 6d57 253f 2776 4d3f
000001e0: a3a3 953f ad61 6940 a6a1 2140 8765 8e3f
000001f0: e5d1 a53f 0266 dc3f 2257 3f40 0795 7340
00000200: 5ad8 273f c8cd 0b3f 1933 203f b897 4f3f
00000210: b183 c63f 1524 0140 d42e 653f f4c3 f33e
00000220: 0106 fcbe 9049 2740 734b d83e e870 8d41
00000230: 6c7c dabf 6d34 22bf fafa 063e c6cb 0540
00000240: bea2 4abf 381c febd d3e4 8e40 de7a 6a41
00000250: 8a6b 77bf f7b4 aabf 422c 6b3e 76d4 c63f
00000260: b647 76c0 fc74 13bf a279 bd3f c0fe 5c40
00000270: 2a3c 1b41 010c 1b41 7d34 2fc1 784f 19c1
00000280: 83e4 c641 010e 2cc2 b9a5 17c1 9514 10c0
00000290: ab67 873f f7b5 64c1 a267 41be dc9c 98c2
000002a0: 0400 0000 0400 0000 0400 0000 0400 0000
000002b0: 0400 0000 0400 0000 0400 0000 0400 0000
000002c0: 0400 0000 0400 0000 0400 0000 0400 0000
000002d0: 0400 0000 0400 0000 0400 0000 0400 0000
000002e0: 0400 0000 0400 0000 0400 0000 0400 0000
000002f0: 0400 0000 0400 0000 0400 0000 0400 0000
00000300: 0400 0080 0400 0000 0400 0000 0400 0000
00000310: 0400 0000 0400 0000 0400 0000 0400 0000
00000320: 0400 0000 0400 0000 0400 0000 0400 0000
00000330: 0400 0000 0400 0000 0400 0000 0400 0000
00000340: 0400 0000 0400 0000 0400 0000 0400 0000
00000350: 0400 0000 0400 0000 0400 0000 0400 0000
00000360: 0400 0000 0400 0000 0400 0000 0400 0000
00000370: 0400 0080 0400 0000 0400 0000 0400 0000
00000380: 86c4 f940 e261 073e b522 2ebf c6a0 8440
00000390: fd99 9c40 a7e6 b440 3e8e f740 dcef 2741
000003a0: 98ba 2c41 38cd 7f41 c880 0c41 e3b6 5ec0
000003b0: f592 65c0 ae3b e140 7d08 d940 5d77 7c40
000003c0: c105 9040 f01b 0e40 053c 7340 a12e ab40
000003d0: cc2f 4241 39df 7c41 bdca a141 764f f440
000003e0: de61 9240 62cf 0142 7d1b df3f a60f 3b42
000003f0: 0400 0000 0400 0000 0400 0000 0400 0000
-53.508347 -31.129189 -20.927841 -16.916374 -14.919596 -14.243691 -14.368021 -16.735115
-21.07188 -31.25198 -63.17617 -17.270031 -18.408503 -20.94344 -27.281063 -42.100525
-63.17617 -8.250709 -2.5462925 -1.74715 -6.2559805 -2.885624 -13.699313 -53.814133
0.99431264 -46.143204 -2.2603247 -325.7226 15.706456 0.7461086 3.8342562 18.335197
18.624058 13.590275 16.875515 15.835011 18.231398 22.434988 18.283176 4.028817
4.218988 16.809628 16.233337 13.72783 11.469049 13.472293 7.7188044 7.319081
12.256447 43.454273 35.751934 15.578709 -0.88050234 76.3318 3.724079 127.48587
0.023040231 -0.93612033 -13.375037 -7.911393 2.954873 -1.5334613 -2.7047572 -2.7937076
-3.216999 7.3916845 9.121204 1.6968422 -8.183151 -9.578932 -8.443335 -4.5802274
0.94299877 1.2132106 0.8342448 0.5005957 0.28887424 0.16988628 0.2319945 0.025099397
13.853717 -22.228909 0.32683972 -57.81208 -6.262469 -3.2723854 -1.9534076 0.8757173
0.40478837 -0.8012228 4.190301 19.04099 -7.995291 -8.806425 -7.8176274 -6.424775
-15.301796 -8.260447 -4.5178022 -1.4601812 6.291049 1.24468 -21.703161 -19.553692
28.31537 -90.491875 -30.291676 -7.100327 6.6708136 -70.391045 -1.6483094 -174.17258
0.49467984 0.34915474 0.65280366 0.55962247 0.5464093 0.5922741 0.64586526 0.8025841
1.1690563 3.6465867 2.5254912 1.1124734 1.295468 1.721863 2.9896932 3.805971
0.655645 0.5461087 0.6257797 0.8109088 1.5508939 2.0178273 0.8952458 0.47610438
-0.4922333 2.613865 0.42245063 17.68013 -1.706922 -0.63361245 0.13181677 2.0905623
-0.79154575 -0.12407726 4.4654326 14.654997 -0.96648467 -1.3336476 0.22966102 1.5533588
-3.848127 -0.5760038 1.4802744 3.4530487 9.7021885 9.690431 -10.9503145 -9.581902
24.861578 -43.013676 -9.47796 -2.2512562 1.0578512 -14.294425 -0.18887189 -76.306366
6e-45 6e-45 6e-45 6e-45 6e-45 6e-45 6e-45 6e-45
6e-45 6e-45 6e-45 6e-45 6e-45 6e-45 6e-45 6e-45
6e-45 6e-45 6e-45 6e-45 6e-45 6e-45 6e-45 6e-45
-6e-45 6e-45 6e-45 6e-45 6e-45 6e-45 6e-45 6e-45
6e-45 6e-45 6e-45 6e-45 6e-45 6e-45 6e-45 6e-45
6e-45 6e-45 6e-45 6e-45 6e-45 6e-45 6e-45 6e-45
6e-45 6e-45 6e-45 6e-45 -6e-45 6e-45 6e-45 6e-45
7.8052397 0.13220933 -0.6802171 4.1446257 4.8937974 5.653156 7.7361135 10.496059
10.795555 15.987602 8.781441 -3.4799125 -3.5870945 7.038535 6.782286 3.9447854
4.5007024 2.2204552 3.8005383 5.349442 12.136669 15.804498 20.223993 7.6347
4.5744467 32.452522 1.7430264 46.76528 6e-45 6e-45 6e-45 6e-45

exp_avg_sq f4 [5, 128]
00000000: 0d41 eb43 2712 2543 0896 b342 86f8 f042
00000010: 66b6 1043 9bb8 8943 6267 1443 1d94 d743
00000020: 6751 f843 61a7 fd43 2b2a fd43 9420 9243
00000030: ac67 6c43 9eef 4543 33b6 8243 5c41 6e43
00000040: 0c26 8a43 bfda b343 7580 a843 ea39 8943
00000050: a302 1643 7307 7643 364a c942 63d8 b443
00000060: 33e1 8143 65c3 2244 0ea7 9343 fe0f 7c43
00000070: ef02 9943 423c 2a43 eaf5 0a43 1db9 7c43
00000080: a50f 3244 512b c943 d4fd 9843 b75b 8743
00000090: 6bb9 d043 fa23 aa43 2809 0e43 57e7 3743
000000a0: 6066 3f43 28fb 5b43 ce9e 4d43 7367 6d43
000000b0: 8913 8d43 7c6b a143 7b36 0243 d684 2f43
000000c0: e141 6043 333f 0144 3dae 9e43 4d4c 0143
000000d0: 88a0 4743 c4ba 8043 3cbb 7b43 c2b5 9143
000000e0: db89 f443 b22e d942 2247 1244 b223 ae43
000000f0: 7fe0 9343 9c50 2344 f7ba 2944 18ef 3d43
00000100: 1e1f 9a43 1fc9 1c43 12c1 7343 a899 0a43
00000110: 8aed ee43 79b4 5343 2092 e043 8171 5b43
00000120: f455 b242 349f 6e43 e5e6 c043 1662 0143
00000130: b085 8d42 b381 dc43 75f6 8343 6c91 af43
00000140: fe47 3f43 f42a 1f44 adee eb43 06cb c543
00000150: c255 0c44 bc60 0743 f301 9443 4be0 8a43
00000160: 7031 4b43 f7bd 5643 a199 f242 a825 f543
00000170: 7175 ee43 9c86 9343 9786 b943 5742 0843
00000180: e1d2 1143 c7bc 3644 0ad9 3043 b370 dc43
00000190: 3f2b 8d43 31b9 a643 2907 8143 9a9e 9743
000001a0: 0ea9 4f43 08f6 db42 6d6b 4443 c353 ae43
000001b0: c354 5043 87f7 5143 30e9 1843 335a cf43
000001c0: e438 7d43 780c 8443 bab5 2843 cb24 4a43
000001d0: d688 a643 2589 b443 b547 3343 4793 c342
000001e0: e1af a743 d818 4943 203d 2d43 70e6 9a43
000001f0: 8155 ad43 f19a 3b43 617c 1044 43d0 9a43
00000200: baa4 1743 f714 df42 65ba 8842 c164 0343
00000210: b4a9 b042 0bbd 2043 c653 1343 ef70 9e43
00000220: 12b7 5d43 5425 8c43 2084 3043 4b56 1843
00000230: a03c 8a43 ca45 0d43 8aa2 0a43 4b6e 2d43
00000240: 7787 8643 6aa3 e242 55e0 1a43 f030 0b43
00000250: 92d1 3943 f02f 7043 ce3b 7d42 772a 8743
00000260: 27c9 3b43 f7a9 5843 4300 1143 6dbd 1c43
00000270: 37b4 bd42 ff3d 3e43 d2c1 0743 ba9a 7143
00000280: fc04 6843 4bf3 9243 3532 7e43 7c66 8043
00000290: ca30 5e43 7610 8743 c2ba 1b43 8aad 1342
000002a0: deb6 f742 ff68 1543 3e39 7643 ca81 6c43
000002b0: e46c 5343 674e 7943 3654 d642 fb1f 1f43
000002c0: 9158 3543 9a37 3243 828e 7d43 53eb ed42
000002d0: d4c8 c842 610f 6443 ed50 1d43 041f 8b43
000002e0: 4222 0543 f6ca cf42 e40d 5643 d702 9e43
000002f0: cb5f a943 26b3 9943 382f 8b43 4c2c 4a43
00000300: 4431 6443 1ac2 6b43 7304 5e43 547f 2543
00000310: 74a4 3443 ca6b 3943 c117 c342 8f72 0043
00000320: 04d1 5d42 3608 0f43 794e 6a43 d740 2c43
00000330: a877 0143 7cb2 5343 d50c 0e43 1492 8843
00000340: ca3d 0f43 bf9a 3443 f8b6 1e43 796a 4843
00000350: 5416 8f43 171f bf41 5add 3443 240f 5b43
00000360: b980 2443 f67c 2843 4c53 4043 8b76 6543
00000370: 04c6 ae43 5aaf d542 d35c a143 0fe1 4643
00000380: a70a c242 a0b1 7143 38a5 1643 29cd e342
00000390: fc6c 1543 0c13 3343 6019 df42 fa22 1743
000003a0: 0d96 ba42 c77e 8742 6151 3b43 785d 7843
000003b0: bb36 5d43 98ce f642 47da 1e43 877e 1943
000003c0: e765 0a43 16af cf42 222e 5043 0682 1343
000003d0: 913b 3f43 058c 5c43 52b9 4f43 a728 d442
000003e0: 82f6 1943 7c86 1643 cb25 3643 c99d 0b43
000003f0: b451 5743 193a 8043 110b 9243 f80d 1f43
470.5082 165.0709 89.79303 120.4854 144.7125 275.44223 148.40384 431.15714
496.63596 507.30765 506.32944 292.25452 236.40497 197.936 261.42343 238.25531
276.29724 359.70895 337.00357 274.45245 150.0103 246.0291 100.64494 361.69052
259.75937 651.05304 295.3051 252.06247 306.02292 170.23538 138.9606 252.7231
712.24445 402.3384 305.98303 270.71652 417.44858 340.28107 142.03577 183.90367
191.3999 219.98108 205.62033 237.4041 282.15262 322.83972 130.21281 175.51889
224.25734 516.9875 317.36124 129.29805 199.62708 257.4591 251.73138 291.41998
489.077 108.5912 585.11145 348.27887 295.75388 653.2595 678.9213 189.93396
308.2431 156.78563 243.75418 138.60022 477.85577 211.70497 449.1416 219.44337
89.16788 238.62189 385.80386 129.38315 70.76111 441.01328 263.92545 351.1361
191.28122 636.67114 471.86465 395.58612 561.33997 135.37787 296.01523 277.7523
203.19312 214.74205 121.30006 490.2942 476.9175 295.05164 371.05148 136.25914
145.82375 730.94965 176.84781 440.88046 282.33786 333.4468 258.05594 303.23907
207.66037 109.98053 196.41963 348.6544 208.3311 209.9669 152.91089 414.70468
253.22223 264.0974 168.70987 202.14372 333.06903 361.07144 179.2801 97.78765
335.37405 201.09705 173.23877 309.8003 346.668 187.60524 577.9434 309.62704
151.64346 111.54095 68.36405 131.39357 88.33145 160.73845 147.32724 316.8823
221.71512 280.29163 176.51611 152.33708 276.47363 141.27261 138.63492 173.43083
269.05832 113.31917 154.8763 139.19116 185.81863 240.18726 63.308403 270.33176
187.78575 216.66393 145.00102 156.73994 94.85198 190.24217 135.75711 241.6044
232.01947 293.90073 254.19612 256.80066 222.19058 270.1286 155.72952 36.91947
123.85716 149.41014 246.2236 236.50699 211.42535 249.30626 107.164474 159.12492
181.34596 178.2172 253.55667 118.95962 100.39224 228.06007 157.31612 278.2423
133.13382 103.89641 214.05426 316.0222 338.74838 307.3996 278.3689 202.17303
228.19244 235.75821 222.01738 165.49738 180.6424 185.42105 97.546394 128.4475
55.454117 143.03207 234.30653 172.25328 129.4674 211.6972 142.05013 273.14124
143.24136 180.60448 158.71472 200.41591 286.17444 23.89018 180.86465 219.05914
164.50282 168.48813 192.32538 229.46306 349.547 106.84248 322.7252 198.87914
97.020805 241.69385 150.64539 113.9007 149.42572 179.0744 111.54956 151.13663
93.29307 67.74761 187.31789 248.36511 221.21379 123.4035 158.85265 153.49425
138.39806 103.841965 208.1802 147.5079 191.23268 220.54695 207.7239 106.0794
153.96292 150.52533 182.14763 139.61635 215.31915 256.4539 292.08646 159.05457

exp_avg f4 [5, 128]
00000000: cca2 c040 33c0 43c0 a158 13c0 bad0 7d3f
00000010: 978f 8dc0 3824 97c0 9a0f 0e40 6496 8d40
00000020: e4b1 ac3e b83a dd40 5f0d c540 a5ec 993e
00000030: 4b01 683f c5e5 bc3f 936d 4f3f f96d 17c0
00000040: 2d05 b5c0 8c71 b73c 10e4 0141 d9ee d0bf
00000050: abf1 47c0 de71 9b40 301f d13f 8038 5a3f
00000060: 8705 b940 76cf 0341 0f65 bec0 f560 8b3e
00000070: d152 9440 5e2b 5640 dee6 6c40 f1d9 8840
00000080: e3b7 f040 360a 073e e153 8340 58cb 6440
00000090: 9232 ea3e 2eec 8dc0 3e7b f33f 3202 2040
000000a0: 0949 b4bf 76e9 66c0 b062 6c40 a50a 1e40
000000b0: 1121 8e3f 0f8c e93f 835b 1bc0 544a cdbf
000000c0: ca31 7940 502f c840 bb0d b440 c818 39c0
000000d0: 228f e73f 81a4 d8bf 32bf 09be c94a 8140
000000e0: c6a6 5a40 6256 4ebd 79dc d040 72ba 9d40
000000f0: 06d3 d1c0 7ec7 86bf c2a6 9840 9e93 4fc0
00000100: ccac a740 5d3e 38c0 073e 003f 6ae4 abbf
00000110: 7657 7abf 97f1 2a40 e4cd 67c0 ee9b 3bbf
00000120: e181 0f40 f507 8040 a4df 4740 d480 c1bc
00000130: 3fef 96bf 2cda c93f 0b8d 8b40 17e7 bc3f
00000140: 47bc 72c0 8aa6 1e41 80ef d840 3d92 d23f
00000150: ce60 b240 7137 93be 0571 b740 ea86 9040
00000160: ab40 b73c ef46 47bf d539 5dc0 4450 d540
00000170: 3956 52bf b31c 86c0 cef1 0740 0230 89c0
00000180: f280 133e 868e 6fbf a9b5 8ebd 6db1 0240
00000190: b889 5fbf 3c08 9c40 ed3a d0bf f18a a03f
000001a0: 8c4a f73f 1c68 03bf 36b0 69c0 1510 bc40
000001b0: b254 9ec0 b8b0 62c0 f5cc 8b3f db83 0241
000001c0: 81fb c2be d179 c3be f0f9 dcbf 9005 483e
000001d0: 257e 2dbf eb85 80c0 9836 853f 6247 85bf
000001e0: cfc5 55bf b267 06c0 b548 35be fc42 18c0
000001f0: 967c c540 27e9 9140 578d 7440 45d8 bc40
00000200: a191 88bf 1314 25be 07f6 c53f 17a4 76c0
00000210: 03c8 863f 2165 7f3f 9eea 6c40 7e31 2fc0
00000220: 7764 13c0 7f13 99be 0f68 7dbf 6568 31be
00000230: d4b4 0ac0 dd50 91bd dd58 7840 094b b53f
00000240: 6e59 7cbf 0062 19c0 bafb 57bb d898 efbf
00000250: be76 9740 db4b babf aa9c 343d 285a f1be
00000260: 19f7 e5be 7b71 88c0 5e72 1fbf 6290 eb3f
00000270: 9136 ff3e 6c1e ac3f e870 c6bf c0b2 5dbf
00000280: cdd0 203c fa1e 6ebf dc79 eebf 71e2 fabf
00000290: 289a 42c0 2255 94be 91b4 efbf 07d4 7fbf
000002a0: e081 cebf e9d2 833d 94fe 7ec0 65e2 72c0
000002b0: 7470 a5bf bfd0 0a40 16d7 0240 6dad 8140
000002c0: d5f3 363e e9d4 b63e 7385 14c0 3de5 ef3f
000002d0: 1548 3f3e dd6a 70c0 bc9a 4440 cbfe e5bf
000002e0: e330 fbbf 77a6 b73e 6554 bd3c d54b 083d
000002f0: cb8b 933f 8fd6 9bbf ab33 973f 0d6c a63f
00000300: d07a acbf ff78 043f 9aca 0140 b8be 1c40
00000310: 83e9 41bf 3444 2bc0 6581 16c0 2c07 523f
00000320: 301f 1140 59f3 af3f 5465 d8bf c8dc 26c0
00000330: e853 b33f 8811 9dbf 7aea 52c0 4e10 88c0
00000340: 41d7 083c 5e4a 97bf 3492 b63e 63aa 0ac0
00000350: 989c 1ac0 d0bf 7ebf 521f ebbf b7fb 89c0
00000360: b6e3 be3f cbf8 eebf 8ce8 14c0 127f debf
00000370: a745 93be d586 4a3f a263 02c0 5e38 dd3f
00000380: a828 f5bd 5dd0 adbe 1085 4740 acd5 5abf
00000390: 5680 433d 644d 2340 aef0 0340 9027 2bbe
000003a0: 54c3 223f 2205 223e 3293 0e40 9233 093f
000003b0: b2c5 3640 7c79 54bf 874f ddbf 4680 10c0
000003c0: 15d7 50bf d6bf fa3e d7fc 363e fdb8 5940
000003d0: b5c6 c7bf d2d3 2b40 bf86 b140 133a d43f
000003e0: 2069 c53f 0cfe 2bbe 3cfa 96bf 2172 9fbe
000003f0: 8949 7e3e ddae 6f3f 3712 57bf 037f 79be
6.0198727 -3.058606 -2.3022845 0.99146616 -4.423778 -4.723171 2.2197022 4.424608
0.3372947 6.913418 6.157882 0.30063358 0.9062697 1.475762 0.8102657 -2.3660872
-5.656882 0.02239301 8.118179 -1.632289 -3.1241252 4.85765 1.6337643 0.8524246
5.7819247 8.23815 -5.9498363 0.2722241 4.6351094 3.346397 3.701591 4.276604
7.522447 0.13187489 4.103989 3.574911 0.45741707 -4.4350805 1.9021986 2.500134
-1.4084789 -3.6079993 3.6935234 2.4693997 1.1103841 1.8245867 -2.4274604 -1.6038308
3.893664 6.2557755 5.626676 -2.8921375 1.8090556 -1.6925203 -0.13451841 4.040379
3.416429 -0.05037535 6.526913 4.9290094 -6.5570097 -1.052963 4.770356 -3.2433848
5.2398434 -2.8788064 0.50094646 -1.3429081 -0.97789705 2.6709955 -3.6219416 -0.73284805
2.2423022 4.0009713 3.123025 -0.023621 -1.1791762 1.5769706 4.360967 1.4758023
-3.7927415 9.915659 6.779236 1.6450878 5.574317 -0.28753236 5.7325463 4.516469
0.022369703 -0.7784261 -3.4566548 6.666048 -0.82162815 -4.1910033 2.1241336 -4.2871103
0.14404657 -0.9357685 -0.06968243 2.0420792 -0.8731952 4.876005 -1.6267983 1.2542402
1.9319625 -0.51330733 -3.65138 5.876963 -4.947839 -3.542036 1.0921923 8.157191
-0.38082507 -0.38178876 -1.7263775 0.19533372 -0.67770606 -4.0163474 1.0407286 -1.0412409
-0.83504957 -2.100079 -0.17703517 -2.3790884 6.1714582 4.559711 3.8211267 5.9014
-1.0669442 -0.16120939 1.5465707 -3.8537652 1.0529789 0.99763685 3.70182 -2.7373958
-2.303007 -0.29897687 -0.98986906 -0.1732498 -2.1672869 -0.070955016 3.8804238 1.4163524
-0.9857396 -2.3966064 -0.0032956437 -1.8718519 4.733245 -1.4554399 0.04409472 -0.47139096
-0.44915083 -4.2638526 -0.62283885 1.8403437 0.49846318 1.3446784 -1.5503206 -0.86600876
0.009815407 -0.93016016 -1.8630939 -1.9600354 -3.040659 -0.289712 -1.872698 -0.99932903
-1.6133385 0.06436712 -3.9842882 -3.795068 -1.2924943 2.1689909 2.0443778 4.05242
0.17866452 0.35709313 -2.320645 1.8741833 0.18679841 -3.7565224 3.0719442 -1.7968382
-1.9624294 0.3586919 0.023111532 0.033275444 1.1527036 -1.2174853 1.1812643 1.3001724
-1.3474979 0.51747125 2.0279908 2.4491405 -0.75746936 -2.6760378 -2.3516476 0.82042193
2.2675285 1.3746139 -1.6905923 -2.6072254 1.4009981 -1.2270975 -3.2955613 -4.2519903
0.008352102 -1.181957 0.3565842 -2.1666496 -2.4158077 -0.9951143 -1.8368933 -4.311977
1.4913242 -1.8669676 -2.3266935 -1.7382529 -0.28764078 0.7911199 -2.037331 1.7282827
-0.11970645 -0.3394803 3.1174965 -0.8548229 0.047729813 2.5515985 2.061565 -0.1671431
0.635793 0.1582227 2.227734 0.53594315 2.8558164 -0.8299787 -1.7289895 -2.2578292
-0.8157819 0.48974484 0.17869888 3.4019158 -1.5607516 2.6848035 5.5476985 1.6580223
1.5422707 -0.1679613 -1.1795115 -0.3114176 0.24832739 0.93626195 -0.8401217 -0.24364857
