model/430a.pt (torch_old, 336839 bytes, 24 tensors)

fc1.weight f4 [128, 28]
000000 d8 7b 93 3d 4c 78 91 3e 52 4c 09 be 97 95 12 3b
       0.07201356 0.28412092 -0.1340802 0.0022366995
000010 e9 a7 a1 be 4b fc d5 be b1 36 c7 bd af cd 31 be
       -0.31573418 -0.41794047 -0.097272284 -0.17363618
000020 ca cd 79 be c4 25 f1 3d 0f 12 84 3e e7 02 48 be
       -0.24394909 0.11774781 0.25795028 -0.19532357
000030 4b 58 e1 bd 73 cc d9 3c 0e f4 8a 3e 91 ce a3 3e
       -0.11003169 0.026586747 0.27139324 0.31993535
000040 10 3b e0 3e ff 6d 7a 3d 99 f6 8e bf e6 04 1f c0
       0.4379506 0.061140057 -1.1169006 -2.484674
000050 9a e5 e1 bf 6a cd d7 bf 69 40 9d be 00 ab 4b 3e
       -1.7648194 -1.6859562 -0.30713204 0.1988945
000060 1b ae bf 3e ff 59 a2 bd e4 5f 07 c0 97 a0 69 3d
       0.3743752 -0.07927322 -2.1152277 0.057037916
000070 ea 19 27 3f 5c 4c 53 3f 70 14 af 3e b3 9e de 3d
       0.65273917 0.8253839 0.3419528 0.10870113
000080 c7 de 44 be f3 86 b6 be 55 b7 10 3e 50 45 b1 3e
       -0.19225608 -0.35649833 0.14132436 0.34623194
000090 57 08 8a 3d 92 87 fe 3d 21 90 c9 3d af 12 d3 bc
       0.06739872 0.12428202 0.098419435 -0.025765745
0000a0 ec c5 d3 be e4 50 ee be 8c 62 b2 3d 03 ea a8 39
       -0.4136194 -0.4654609 0.087102026 0.0003221781
0000b0 04 25 15 3e 70 5e 39 3d 13 e7 6a be a2 b7 1c be
       0.14564902 0.04525608 -0.2293971 -0.15304425
0000c0 fa 38 2b 3e 74 45 80 3e 43 18 5d be b0 55 0b 3f
       0.16720954 0.2505299 -0.21591286 0.54427624
0000d0 87 82 cd 3e 4e 24 9f bd 8b fc 5f 3f fe 55 55 bc
       0.40138647 -0.077705964 0.87494725 -0.01302099
0000e0 f5 dc b9 bf 18 13 94 bf c9 e3 e5 be 7b 1b 26 3e
       -1.4520556 -1.1568327 -0.4490035 0.1622142
0000f0 b7 ed 28 3d 70 a6 81 bc 36 45 c4 3d 4b d7 50 bd
       0.041242328 -0.015826434 0.095835134 -0.05098657
000100 e2 ef 23 bd ed 80 7c 3c f7 c4 26 3d de 8d d2 3e
       -0.040023692 0.015411598 0.040715184 0.4112386
000110 03 f9 c2 3d 30 4e 90 bd 5b af dc bd 48 d0 b5 bd
       0.095201515 -0.07046163 -0.10775634 -0.08877617
000120 c0 b3 dd be d3 c5 3e bf db 3c 0d bf ae fd 3a bf
       -0.433012 -0.74520606 -0.55170983 -0.73043334
000130 71 74 8a be ce f0 a9 be 8c 85 67 bf de 5e d3 bf
       -0.27041963 -0.33191532 -0.9043815 -1.6513326
000140 70 9d f6 bd 9b e5 51 3e 02 b7 db bf 9b fd a1 3d
       -0.120417476 0.20497744 -1.7165225 0.079096995
000150 6f 10 13 bf bb f4 15 bf f4 d2 b1 be e7 04 b0 be
       -0.5744695 -0.58576554 -0.34731257 -0.3437874
000160 ed 3c 11 be 3d 84 53 bd 95 9d 23 be 60 da 80 3d
       -0.14183398 -0.051639784 -0.15978082 0.06291652
000170 84 ed 51 3e 23 e5 f8 3e ec 1d d9 3e 38 2a b6 3e
       0.20500761 0.48612317 0.4240564 0.35579085
000180 78 b6 1a 3e 32 cd 1f bc 26 06 e2 bd b6 b4 69 be
       0.15108669 -0.009753512 -0.11036329 -0.22822842
000190 85 94 da 3d 08 cf e3 3c 02 6c 04 3f a3 c5 e0 3d
       0.10672859 0.027808681 0.51727307 0.10975196
0001a0 51 2f 8b 3d d4 73 91 3d fb c6 7c be 02 27 40 bf
       0.06796134 0.071021706 -0.2468528 -0.7505952
0001b0 75 65 65 3f 98 c6 70 bd 05 15 6f bf de be 10 3c
       0.89607936 -0.058783144 -0.9339145 0.008834569
0001c0 a2 59 56 bf 9f a2 85 bf 1a 0b b1 be 4f 56 a4 be
       -0.8373052 -1.0440253 -0.34578782 -0.32097098
0001d0 09 4b 36 be 68 e0 91 3c 29 9d 8c 3c 3d 04 86 3d
       -0.17802061 0.0178072 0.017164784 0.06543777
0001e0 1e ba f6 3e 3d 80 b0 3e 58 f2 41 be 2b 8e 4e 3e
       0.4818887 0.34472838 -0.18940103 0.2017142
0001f0 6a 27 67 3e df 49 82 3e a1 7c c8 3e 4b c0 3e 3f
       0.22573629 0.25446984 0.39157584 0.74512166
000200 b7 8b 13 bf 6f 6b 5d bf 70 1d 85 be c1 c7 a8 3d
       -0.5763506 -0.86492056 -0.25999022 0.08241225
000210 03 e8 2c bd 66 57 fd bb 37 7d 27 3e 11 03 58 bf
       -0.04221345 -0.007731366 0.1635636 -0.8437968
000220 66 8f 99 be b9 10 c0 be a4 48 c8 bf 02 db bd bd
       -0.29992217 -0.37512758 -1.5647168 -0.09270288
000230 82 60 81 bf d7 80 ac bf 0a c4 66 bf 2c 41 14 3d
       -1.0107577 -1.3476819 -0.9014288 0.036194965
000240 1f 55 a6 bd eb 07 89 be 5b a9 8b 3d 06 e9 33 3e
       -0.08121704 -0.26763853 0.06819411 0.1756936
000250 74 2b 4a 3e 35 7c 8b 3e 46 68 8f 3e 01 5b 4e 3c
       0.19743139 0.272432 0.28009242 0.012594939
000260 14 43 b8 3b 91 50 8a be 0d 08 62 3c 0d 4c b3 3e
       0.0056232307 -0.27014592 0.013795865 0.3501896
000270 cb 53 dd 3d 3a ec e2 3d b7 8c 96 3d a7 63 2f 3e
       0.10806998 0.11080213 0.07351058 0.17127858
000280 e5 0d 22 be 4a 36 2f 3d f2 5d 08 be 15 15 92 bf
       -0.15825613 0.042776383 -0.13317087 -1.1412684
000290 38 73 6b 3f 01 67 b9 3d f1 66 8f bf 80 81 a9 bd
       0.91972685 0.090528496 -1.120329 -0.08276653
0002a0 1e 6b 6d bf 09 92 2d 3c 1f 5b ff bd c3 9e 22 be
       -0.9274157 0.0105938995 -0.12468552 -0.15880875
0002b0 00 08 1d 3e 57 8e 92 bc ff 15 59 3e dc 50 f7 3d
       0.15335083 -0.017890139 0.21199797 0.120759696
0002c0 bc 4f 5a 3e fd 4d bd 3d 48 10 87 3e 43 b9 66 bd
       0.21319479 0.09243391 0.2637961 -0.056329023
0002d0 77 8a 72 be d7 c5 bf bd a6 c3 70 be c6 1d 6e be
       -0.23685633 -0.09363907 -0.23512134 -0.23253545
0002e0 8a ea 2a be 5e 5b c0 3d a7 2a fc bc ed 22 df be
       -0.16691032 0.09392427 -0.030782057 -0.43581334
0002f0 f5 94 83 be be 68 0c 3d 06 e8 45 bf a4 37 8c bf
       -0.25699583 0.034279577 -0.77307165 -1.095448
000300 c4 7b 1b be 63 63 82 3c 80 0f b0 bf 28 7f 50 bd
       -0.15183932 0.015916532 -1.375473 -0.050902516
000310 62 3b 5b bf 99 52 bf be e1 d0 22 be e4 9d 1e be
       -0.85637486 -0.37367705 -0.15899993 -0.15489918
000320 e0 f0 47 be f1 03 07 3e 8b 0f b6 3b bf ab 84 bd
       -0.1952548 0.13185097 0.005556052 -0.064780705
000330 10 43 ca 3d d3 1a 29 be 74 83 0e be a8 42 7a be
       0.098760724 -0.16514139 -0.13917333 -0.2443949
000340 29 ad 88 be ea 53 5b 3e 76 21 57 3d c3 e5 bb be
       -0.2669461 0.2141873 0.052522145 -0.36698732
000350 13 e0 61 be a9 14 64 be 90 cf 5d be f5 f6 fd be
       -0.22058134 -0.22273506 -0.2166121 -0.49602476
000360 94 42 76 bf 2c 9b 65 bf 28 3d 47 bf 35 da 7f bf
       -0.9619534 -0.896899 -0.7782769 -0.9994233
000370 c0 b9 fa be f7 ff 90 3c ca 51 8a bf 48 70 e1 3d
       -0.4896984 0.017700179 -1.080621 0.11007744
000380 da 61 ba 3e 95 38 cc 3e 3c a8 62 be 9a 22 48 bd
       0.3640278 0.3988692 -0.22134489 -0.048861124
000390 b5 20 06 bd 6d f8 40 3d 4a 71 8f be a6 c8 a8 bd
       -0.032746036 0.047111917 -0.2801612 -0.08241396
0003a0 c6 72 9a 3d b3 03 c3 3e 30 f9 49 3d a8 e7 e5 b8
       0.075414225 0.3808876 0.04930991 -0.0001096272
0003b0 34 da 39 be d1 69 7d 3d 9e 0a 59 3e ba 65 ee 3d
       -0.18149644 0.061868493 0.21195456 0.116404966
0003c0 98 76 b8 be 81 46 14 bf fb 15 94 be 54 f2 67 bd
       -0.3602798 -0.5792008 -0.2892302 -0.056627586
0003d0 54 d0 86 3d d9 93 db bc b1 22 93 bc 26 b1 ed 3e
       0.06582704 -0.026803898 -0.017960878 0.46424216
0003e0 a6 60 a5 bf 64 d3 d2 bc 68 a2 19 bf a5 60 d9 3c
       -1.292012 -0.025735565 -0.6001344 0.026535342
0003f0 94 15 16 3e 65 bb 48 be f5 91 9e bd 18 3a 23 be
       0.14656669 -0.19602735 -0.07742683 -0.1594013

fc1.bias f4 [128]
000000 82 b1 4e 3d 70 f8 56 3c a1 6a 43 bd 3c 6f 62 3d
       0.050462253 0.013120756 -0.04770911 0.055281863
000010 d9 d7 e1 bd f9 62 a6 3d f9 2e da 3d 35 d8 2b bd
       -0.11027498 0.08124346 0.106534906 -0.041954238
000020 20 a8 6e be 5d 99 11 bd 65 fc 6c bd c8 e0 9d 3d
       -0.23306322 -0.03554665 -0.05785789 0.07708889
000030 c7 b9 dd bc 16 fb 12 3e b0 a7 ce bc 8b f9 75 be
       -0.027066125 0.14353594 -0.025226444 -0.24020974
000040 4c 55 2e be a3 60 cd bd 76 bb 0a be 15 22 41 be
       -0.17024726 -0.100281976 -0.13548073 -0.18860658
000050 f1 6c da bd 38 97 28 3a ae 7d ee 3e ba ed b7 3d
       -0.1066531 0.0006431225 0.4658026 0.089808896
000060 be 52 92 bd 7c 6b 4c be 73 6b d4 bd 5b b6 e8 bd
       -0.07144688 -0.19962877 -0.10372057 -0.113629065
000070 c8 2d a7 bc 0e 99 42 be 50 97 9e bd 9a 95 7a 3d
       -0.020407572 -0.19003698 -0.07743704 0.061177827
000080 e4 b1 f6 bd bb ca da bd a1 1d 90 3e fc 79 67 bd
       -0.12045649 -0.10683199 0.28147605 -0.056512818
000090 b1 93 0d 3e 92 40 0f be e3 b7 4b bd 75 fa dc bd
       0.13825871 -0.13989475 -0.049735915 -0.107899584
0000a0 c2 f0 5f be fa e0 65 3e e1 ce aa bd 02 30 0f b8
       -0.21869186 0.22449103 -0.0834024 -3.4138568e-05
0000b0 07 94 b9 3c 19 15 6b be f6 2b 27 bd 7e 0a e8 3e
       0.022653593 -0.22957267 -0.04081341 0.45320505
0000c0 29 4d fa 3d 14 8c 15 bd f2 ba f4 3d a9 20 0f 3d
       0.122217484 -0.036510542 0.119497195 0.034943257
0000d0 ea dc 4f be f8 38 47 bd e2 ca d8 3d c6 5e 84 be
       -0.20299116 -0.048638314 0.10585572 -0.25853556
0000e0 f2 dc 0f bd 69 46 01 3e d7 96 63 be d3 71 03 3f
       -0.03512282 0.12624516 -0.2222551 0.51345557
0000f0 48 d4 a4 3d 5c 07 f0 3b 12 8c 9b 3d c1 9f 0c be
       0.08048302 0.007325096 0.07595076 -0.13732816
000100 11 b4 e0 3d 09 41 7a 3e f7 ea 83 3d fe 12 53 3e
       0.10971845 0.24438871 0.064413 0.20612714
000110 e2 d2 08 be 0c 71 f1 3d 72 2f 44 be eb c6 de bd
       -0.13361695 0.1178914 -0.19158724 -0.10877784
000120 dc 2d 7f be 5e 30 90 bc 96 4f 65 3c 81 5d 2d be
       -0.24919838 -0.017601188 0.013996026 -0.169302
000130 23 e6 e2 bb bf 6a 15 be 79 e4 d6 be ed 76 13 3d
       -0.006924407 -0.14591502 -0.41971186 0.03600209
000140 0c 49 72 bd 68 87 f5 bd e3 2f 7e bd 49 b3 f3 bd
       -0.059151694 -0.11988717 -0.062057387 -0.1189943
000150 e6 dc 65 3e 57 d4 01 bd 4b 03 83 bd 8b 38 1d be
       0.22447547 -0.031696644 -0.063971125 -0.153536
000160 27 c1 51 3d 5d 3b b7 bc 88 e8 7f be 62 94 66 bd
       0.051209595 -0.022367174 -0.24991047 -0.056293853
000170 5a a3 b5 bd 09 12 8e 3c 3c 12 75 bd b3 ed 97 bd
       -0.088690475 0.017342584 -0.059831843 -0.074183844
000180 f8 ac 01 be 71 4d 50 be 5d ce 37 3f 51 7a 8b 3d
       -0.12663639 -0.20342042 0.7179926 0.068104394
000190 9f bd c7 3e 56 6f 57 bd 99 ae b4 3d ba 12 50 be
       0.39011857 -0.052596413 0.08822364 -0.20319644
0001a0 16 0b 16 3d 85 79 19 3d 73 63 e0 3b bc 52 2b 3e
       0.036631666 0.037469406 0.006847793 0.1673078
0001b0 40 f0 54 3d 94 0c c3 bd e7 34 01 3d 4b 37 88 3e
       0.051986933 -0.095238835 0.031544592 0.26604685
0001c0 17 46 10 be e4 ab 02 3d 15 50 cc 3c 3a cc 8a 3d
       -0.14089237 0.03190221 0.02494053 0.067772344
0001d0 22 1a 29 be 40 a8 c2 bd 44 cd b7 3d 1f b1 ce bd
       -0.16513875 -0.095047474 0.08974698 -0.10092377
0001e0 98 05 23 be b4 d0 03 bc a0 c0 80 3d 6f 59 c7 bd
       -0.15920103 -0.008045364 0.0628674 -0.09733855
0001f0 18 f4 65 3d 3c 69 62 ba 8f 4c 1e be 40 9b 19 be
       0.05614099 -0.0008636897 -0.15458892 -0.1500063

fc2.weight f4 [128, 128]
000000 22 dc 9f be 8e 1f c9 be ab cc 22 3e 49 fe b9 3d
       -0.31222636 -0.39281887 0.15898387 0.09081704
000010 bd 54 a0 3e 84 c5 2c be df 1d ac be 65 0d ce 3e
       0.3131465 -0.16872221 -0.3361654 0.40244594
000020 b8 f6 1e be a3 04 ca be 69 2b e0 bd 99 11 ee be
       -0.15523803 -0.39456663 -0.1094578 -0.464978
000030 d6 82 47 3e ab d1 d1 3e ab 5e c4 be d4 da 0e bf
       0.19483504 0.40980276 -0.38353476 -0.55802655
000040 71 36 23 be 5d 51 83 3d d1 29 74 be 1c 19 26 bd
       -0.15938736 0.06412003 -0.23844077 -0.04055129
000050 e0 ad 18 bf 42 c3 8c bd fc d9 86 3e fd 37 f8 3e
       -0.5964031 -0.0687318 0.26338184 0.48480216
000060 38 da ae 3d de 42 07 bf 7f 1e e8 3d 1e f9 09 bf
       0.08537716 -0.52836406 0.11333942 -0.5389575
000070 61 b6 9e 3b 84 27 21 bf 8a e7 a5 bd 1f 2d b2 3d
       0.0048435186 -0.6295092 -0.08100803 0.087000124
000080 61 09 be 3d c2 e0 0e 3f 4b b7 56 3d f8 11 17 3f
       0.09279133 0.55811703 0.052420896 0.59011793
000090 3c f1 85 3e 9a 31 8a be ba 67 bf 3e 2f ce cb be
       0.2616061 -0.26990968 0.37383825 -0.39805743
0000a0 1f ed 24 bf 15 80 24 3e 1f 5e 83 3c d1 e4 8a 3e
       -0.6442432 0.16064484 0.016036091 0.27127698
0000b0 cf 32 0d 3d bc f2 2a bf a0 ba 60 be 39 65 12 bd
       0.034472283 -0.66776633 -0.21946192 -0.035741065
0000c0 44 15 82 3e 16 1e 95 3c 61 4d 47 3e 69 51 cd 3e
       0.2540685 0.018202823 0.19463111 0.40101174
0000d0 18 a6 25 3e 59 c5 e6 3e 78 6a 43 bf af df b7 be
       0.16176641 0.4507244 -0.76334333 -0.35912845
0000e0 27 11 da be c0 8d 74 3c 19 c1 80 3e f7 44 11 bf
       -0.4259121 0.014926374 0.25147322 -0.56745857
0000f0 03 84 c9 3d cd 69 ce be 96 05 1c 3d bc 1d 4e bf
       0.09839632 -0.40315095 0.038091265 -0.8051412
000100 63 58 1f 3e ed ed aa 3e d1 b2 eb 3e 0b 25 0e 3e
       0.1556106 0.33384648 0.46034864 0.13881318
000110 4a 96 5c bd 0e 01 7f bc 34 2a 9b be e1 d1 b5 bc
       -0.053854264 -0.015564216 -0.30305636 -0.022194805
000120 f0 ce 39 bf 7d 84 96 3e d3 23 12 bf 82 5e 30 bf
       -0.72581387 0.29397956 -0.57085913 -0.6889421
000130 b3 0f f1 be 82 1d 20 3e 13 88 8f be 55 9b 58 3e
       -0.4708229 0.15636256 -0.28033504 0.21153004
000140 a4 d7 c3 be 4e 1f 0f bf 4a f9 84 bd f3 60 e5 be
       -0.38250458 -0.5590714 -0.064928606 -0.4480053
000150 67 11 8d 3e 22 23 90 be 37 22 2f bd 16 be ab bd
       0.2755234 -0.28151804 -0.04275724 -0.083858654
000160 33 69 f5 be 71 d6 9b bd e3 88 0a bf 07 f8 0b 3e
       -0.47931823 -0.07609261 -0.5411512 0.13668834
000170 51 8a c9 be 45 b0 44 3d b4 d9 19 3e 7f 99 fc be
       -0.3936334 0.048019666 0.15024453 -0.49335858
000180 02 b9 90 3e ac 3b ab be 01 ba b5 be dd aa d2 be
       0.2826615 -0.33443964 -0.35493472 -0.41145983
000190 4f 38 c9 be 9d f9 03 bf 08 d3 b2 3d f0 ec 4b 3d
       -0.39300773 -0.51552755 0.08731657 0.049786508
0001a0 0d 22 5d 3e 68 ed 9a 3e 31 82 86 bb 88 b9 78 3e
       0.2159502 0.30259252 -0.0041048755 0.24289525
0001b0 0d c4 62 3d f9 90 c2 be 3b 42 23 bd da 36 d1 3d
       0.05536275 -0.3800123 -0.039858084 0.1021554
0001c0 55 df cd 3d a0 54 b8 bd 83 2f cc be e3 02 dc bd
       0.10052363 -0.09000516 -0.3988 -0.10742738
0001d0 2a da 01 3e 53 3d 09 3f 90 0d 60 3e d3 0b 9c 3f
       0.12680879 0.536092 0.21880174 1.2191108
0001e0 b7 1c 8b bf c4 54 ba be 0c 42 52 3f 59 a7 51 3e
       -1.0868138 -0.36392796 0.8213203 0.20473994
0001f0 ad 69 b9 be 27 ac d6 3e 37 a7 ee be 1f 63 6a be
       -0.36213437 0.41928217 -0.4661195 -0.22889374
000200 38 5d cb bd 40 b9 4b bd 7d ee 45 3c d6 e2 82 3e
       -0.099298894 -0.049737215 0.012080786 0.25563687
000210 6d 16 bb be 76 b4 7d 3e 55 d5 c1 3d 9b 09 d9 3e
       -0.36540547 0.24775872 0.09464518 0.4239014
000220 32 9d b0 3d 4e 52 f8 3e 8d 80 7c 3d e5 3e ed bd
       0.086237326 0.48500293 0.061646033 -0.11584262
000230 e9 62 a3 3d f6 32 42 3e 3a 98 ef 3c b2 8b 09 bf
       0.0797785 0.18964753 0.029247392 -0.53728783
000240 44 b0 a7 3b 67 a1 2a 3d 25 a0 eb 3e d2 85 4d 3d
       0.005117448 0.04165783 0.46020618 0.05017645
000250 d9 bb 5d 3c f6 cd f3 be 1f aa 13 be 9b 22 b5 be
       0.013533556 -0.47618073 -0.14420365 -0.35377964
000260 76 2b 44 bd 04 63 9e 3c c5 8b 21 3a 05 84 37 bd
       -0.04789301 0.019334324 0.000616249 -0.044803638
000270 15 aa cd 3e 64 7a 7f 3f b9 46 15 bf 76 b0 bf bd
       0.40168825 0.9979613 -0.5831104 -0.09359829
000280 fb 7c 2b 3f 52 7e b7 3e 1b 81 22 3e 0f 67 29 be
       0.6698758 0.35838562 0.15869562 -0.1654322
000290 2d 81 99 3e 1d 92 6a 3e 72 81 02 bf 87 0e 65 bf
       0.29981366 0.229073 -0.5097877 -0.8947529
0002a0 e9 f7 a4 3e c5 a2 c4 3e de 7e b4 3c b5 b0 b9 bd
       0.3222039 0.38405433 0.022033151 -0.09066907
0002b0 07 c4 73 3e ab e2 d8 bd fc cd 00 3f 8d e2 dd 3e
       0.23805247 -0.105901085 0.5031431 0.43336907
0002c0 e2 b0 05 3e 3b 65 ce 3e ca f6 fe bc 63 d1 1b 3d
       0.13055757 0.40311608 -0.031123538 0.038041484
0002d0 dd 7e 6e be 4b 61 ae be 32 f5 21 3e 69 4c 45 bf
       -0.23290582 -0.34058604 0.15816191 -0.7706972
0002e0 4e b2 0f be 61 2a c3 3e e0 2f c0 be 95 f2 b7 be
       -0.14032862 0.3811827 -0.37536526 -0.35927263
0002f0 cc 36 11 3f 01 96 d3 be 34 73 74 3e b5 b2 8b be
       0.5672424 -0.4132538 0.23872072 -0.2728478
000300 a0 21 4a 3e 36 d8 6d 3d c7 41 9d bd 09 83 63 3d
       0.1973939 0.058067523 -0.07678562 0.055544887
000310 4b 00 a7 3d 44 28 12 3e 9e 02 f8 3e 5f 56 c2 be
       0.08154353 0.14273173 0.48439497 -0.3795652
000320 46 cf 62 3e ec 9d 2d be e0 f1 72 be 2e fe 1f 3f
       0.22149381 -0.16954774 -0.2372508 0.6249722
000330 15 13 12 3f d5 ff af be 30 d8 5d bd 4b 94 40 3e
       0.57060367 -0.34374872 -0.05416125 0.1880657
000340 c8 5f 03 3f 3d b7 27 3e 50 ae 14 3f 52 25 22 3d
       0.51318026 0.16378494 0.5807848 0.039586373
000350 1a b9 a8 be 84 58 9a be 4b 7b 94 3d 81 7e 1a bf
       -0.3295372 -0.30145657 0.07250079 -0.6034928
000360 c2 8d 1a bf 74 50 d4 3e 29 97 bb 3c 34 ca c0 3e
       -0.60372555 0.4146763 0.022899227 0.3765427
000370 a0 a2 0e 3d ab b8 84 be e4 2b 53 be 44 75 97 3e
       0.03482306 -0.2592214 -0.20622212 0.29581654
000380 a4 2e 90 be 05 99 b4 bd 11 8c 0c 3e 2e b4 24 be
       -0.28160584 -0.08818249 0.13725306 -0.16084358
000390 83 e2 01 3f 58 64 10 3f 2d ec 13 be 54 15 ef be
       0.50736254 0.5640311 -0.14445563 -0.4669596
0003a0 49 ce d0 3e 25 71 99 be 79 9f 14 3f c3 e3 da 3e
       0.40782383 -0.29969135 0.58055836 0.42751893
0003b0 0f 5a b2 3d d5 de 81 3e 6e 1e 73 3e 85 c8 99 bd
       0.087085836 0.2536532 0.23742077 -0.07508949
0003c0 ee 40 58 3f 14 c8 7d be 3f 56 8b 3d 7d a6 54 3e
       0.84474075 -0.24783355 0.068035595 0.20766635
0003d0 ec 38 a0 be e2 2d 9e 3d 2a c6 84 3e f5 8e 2d bf
       -0.31293428 0.07723595 0.25932437 -0.6779626
0003e0 86 3b f5 3d 3e ce c8 3e 70 0e 95 be 1b fb bd be
       0.11974244 0.3921985 -0.29112577 -0.3710564
0003f0 2f bd c1 3e 08 d0 47 3e cc ce 3f 3f 16 9a 8f bc
       0.37839648 0.19512951 0.7492492 -0.017529529

fc2.bias f4 [128]
000000 97 c4 7c bd 81 6b 14 3d 18 7e 67 be e3 7e d9 be
       -0.06171092 0.036235336 -0.22606695 -0.4247962
000010 d4 fa bb bc 6a 0d fd bd 09 e2 ca 3d b4 72 6a be
       -0.022946753 -0.12356074 0.09906394 -0.22895318
000020 91 fa 3b be dd bf af bc 4e 6b a9 bd b7 5b d8 3b
       -0.18357302 -0.021453792 -0.0827242 0.00660273
000030 5b 2f 93 be a5 fa cd be 15 20 be 3d aa 36 d9 bc
       -0.28747067 -0.4023029 0.09283463 -0.026515324
000040 dd 8c b3 3e 77 dc 7f bd 54 cf a9 3d 8c e0 88 bd
       0.35068408 -0.06246611 0.08291498 -0.06683454
000050 7c 72 ca 3d 50 e6 11 be 24 d4 9a bd 98 a2 dc 3c
       0.098851174 -0.14248013 -0.07559994 0.026933
000060 9e 88 81 be 6d 59 68 bd 0b c7 d5 bc e5 8c 85 3d
       -0.25299543 -0.056725908 -0.026095888 0.06521014
000070 c8 23 d4 3d 01 00 32 3e 32 46 97 be 13 c6 54 be
       0.10358387 0.17382814 -0.29545742 -0.20778684
000080 11 75 c5 bb 39 4f 6b bd 20 d0 6a bd ad 87 17 bd
       -0.0060259183 -0.0574486 -0.05732739 -0.036994625
000090 ee 8d 6b be 13 b0 c3 3e 7e 98 6a be c8 8b c0 be
       -0.2300336 0.3822027 -0.22909734 -0.37606645
0000a0 59 e7 83 3e 65 65 4c 3e be d5 94 be 4a 23 ec be
       0.25762442 0.19960554 -0.29069322 -0.46120673
0000b0 7f d9 c5 be 38 64 c4 3e ea 9d 47 3d 3d ab 2d 3d
       -0.386425 0.3835771 0.048734583 0.042399634
0000c0 75 dd 87 be eb 3d 33 bb 75 36 50 be 60 a9 fa bc
       -0.26536146 -0.0027350138 -0.20333274 -0.030598342
0000d0 ec 93 7b be ea 29 53 bd 69 e7 09 3e 30 c6 8f be
       -0.24568146 -0.051553644 0.13467182 -0.28080893
0000e0 d8 25 af 3e e2 ff 99 3d 25 b1 21 be 04 fe cd be
       0.3420856 0.07519509 -0.15790232 -0.4023286
0000f0 ba 22 2a bc f2 6b 80 bc 5f 40 0e be bf f2 10 3e
       -0.010384256 -0.015676472 -0.13891743 0.141551
000100 cc 88 89 be 4a 4d e1 3d 16 d1 92 3e c6 01 30 be
       -0.2686218 0.1100107 0.28675145 -0.17188177
000110 39 54 89 3d 5e e4 a5 be d6 67 8f 3e 9b 7b 25 3c
       0.06705517 -0.32400793 0.28008908 0.010100271
000120 66 55 f6 3e b1 72 01 3e e0 6f 1b 3e a3 f2 b7 3e
       0.4811203 0.12641408 0.15179396 0.35927305
000130 e8 35 0c 3c 9b 3b 8c bc 7f 68 80 be 40 1b 06 be
       0.008557774 -0.017118266 -0.25079724 -0.13096333
000140 5e bf 07 3e 02 c8 96 3e 90 5d 53 3e e7 9f a4 bd
       0.13256595 0.2944947 0.2064116 -0.080383115
000150 99 22 d4 bd 78 09 9a bd 29 0d 8a be 06 a7 65 be
       -0.103581615 -0.07521337 -0.26963165 -0.22426996
000160 44 3d 8a be 4d 55 00 bf 03 3f 96 3e 40 c9 ae 3d
       -0.26999867 -0.5013016 0.2934495 0.08534479
000170 df 27 9d bd 5f 17 74 bd eb ea 5c be 66 8d 14 3d
       -0.076736204 -0.0595926 -0.21573989 0.03626766
000180 19 30 d6 be eb ba ca bd 17 64 7f 3d 66 13 5d bc
       -0.4183357 -0.09898933 0.062351312 -0.0134933945
000190 55 db 95 bc 8d 9e 8b 3e 0e 9f 1f 3d 07 59 b7 bd
       -0.018293062 0.27269402 0.038970046 -0.089525275
0001a0 94 c3 e9 3d 91 e6 94 be 46 1c f1 bd b8 3c f2 bd
       0.11414257 -0.29082158 -0.11772971 -0.118279874
0001b0 60 e6 81 bd dd 9c 13 3d 5d 0a 20 3e 93 d2 15 3d
       -0.06342769 0.03603827 0.15628953 0.036577772
0001c0 1d 3b f0 bc 90 66 1f be a5 85 d6 3d f0 8e ed 3d
       -0.029325062 -0.15566468 0.104747094 0.11599529
0001d0 23 ad 4d be 4b 9d ec bd 90 89 15 3e be e4 df bd
       -0.20085578 -0.11553439 0.14603257 -0.10932301
0001e0 35 f0 18 3e 21 01 5a 3e 70 c9 0c 3e 3b 5e 95 be
       0.14935382 0.21289493 0.13748717 -0.29173455
0001f0 6a 28 83 3e 8e cf 41 be d1 a9 8f 3d 28 65 93 3e
       0.2561677 -0.18926832 0.07014812 0.28788114

out.weight f4 [5, 128]
000000 93 a3 55 3f 7a b6 19 bd a8 c9 8b be e6 06 2c 3e
       0.8345272 -0.03752754 -0.2730229 0.16799507
000010 ba 48 49 bf 2a b4 b5 be 60 a7 fd bd 28 80 03 3f
       -0.78626597 -0.35489017 -0.1238544 0.51367426
000020 48 c7 3d 3f 09 c8 06 3f e1 93 3b 3f 1e 60 eb be
       0.74132204 0.5264898 0.7327252 -0.4597177
000030 45 69 ad 3e c4 fb 72 3d a0 48 ba be 64 90 e6 be
       0.33869377 0.059322134 -0.36383533 -0.45032036
000040 10 a8 f1 be 1b 6b 0d 3f a6 e5 1f 3f 7e 76 16 3f
       -0.47198534 0.55241555 0.6245979 0.58774555
000050 c9 fb bb 3d 67 bb 3d 3c 18 73 86 be 7a e4 ed 3e
       0.091788836 0.011580325 -0.26259685 0.46463376
000060 8d 3c 2e 3f 7a b8 e9 3e ec b7 bb be 39 03 56 be
       0.68061143 0.45648557 -0.3666376 -0.20899667
000070 c2 74 04 3f 45 0b 6a 3e 5f 0d 95 3e 06 46 c6 3e
       0.5174066 0.22855861 0.29111764 0.387253
000080 5a 2d fd 3e 34 d4 ea 3e 82 3e b4 3e a8 45 c8 3e
       0.49448663 0.45865023 0.3520394 0.39115644
000090 d0 a0 dc 3e eb 32 a5 be 2d 58 aa 3d 73 03 a9 3e
       0.4309144 -0.3226541 0.083175994 0.33010444
0000a0 dc 49 a8 3d a6 91 bf be 6f 33 8a 3e d9 c1 fe 3e
       0.082172126 -0.37415808 0.26992366 0.4975727
0000b0 d4 f1 ef 3e dc a9 01 bc 8e 35 2f be 33 3d b2 3d
       0.46864188 -0.007914033 -0.17110273 0.08703079
0000c0 46 39 ac 3e ed 8e 1d 3f db d5 10 3f 04 53 d0 be
       0.33637446 0.6154621 0.5657632 -0.40688336
0000d0 ff 9b fd be 6c 1d 1e 3f 34 17 6b bd 44 43 06 3f
       -0.49533078 0.61763644 -0.057395175 0.5244639
0000e0 bf 96 21 3f e2 ab 30 be 49 0a 22 3f 0e 51 ad 3e
       0.63120645 -0.17253068 0.63296944 0.33850902
0000f0 99 e3 e7 be b3 8a 42 3f d3 77 30 3f de 7e 34 bd
       -0.4529083 0.7599289 0.6893284 -0.044066302
000100 ae ec f3 3e 06 e5 5e bd 90 19 af be 14 a1 e2 be
       0.4764151 -0.054417633 -0.3419919 -0.44263518
000110 e6 34 17 3f 94 ce db 3e 34 d7 bc 3e c9 90 db 3e
       0.5906509 0.42931044 0.36882937 0.428839
000120 5a f5 23 3f 91 e8 15 3f 4f 9c f9 3e dd d3 91 3d
       0.6404625 0.58557993 0.48752066 0.07120488
000130 fb da 1e 3d ad e3 3d 3f 4b ad d0 3e 55 37 2e 3f
       0.038783055 0.7417553 0.40757212 0.6805318
000140 2e d1 19 bd 0e 10 14 3f 67 11 3a 3f ea 19 08 3f
       -0.037553005 0.57837 0.72682804 0.5316454
000150 d4 63 a8 3e d8 a6 e0 3e c6 2f de 3e e8 19 95 3e
       0.32888663 0.43877292 0.43395823 0.29121327
000160 fd d7 16 3f d7 d8 da 3e 85 b1 a8 bd c2 3e 23 3f
       0.5892332 0.4274356 -0.08236984 0.63767636
000170 50 36 54 3f b4 b9 f5 be 58 78 b5 3d 5b 21 08 be
       0.82895374 -0.47993243 0.088608444 -0.13293974
000180 a5 f2 9f 3c b8 85 e8 3e 77 d0 1b be ac 6d ef 3e
       0.019524882 0.4541452 -0.15216242 0.4676336
000190 bc b2 63 3f 59 d7 0f 3f 0e eb ed bd 11 15 dc be
       0.889446 0.5618797 -0.11617099 -0.42984822
0001a0 4a 44 ca be 5b 43 bd be 67 5f 91 bd 26 2c e8 3e
       -0.39505225 -0.3696545 -0.07098275 0.45346183
0001b0 f7 96 6b be b9 e5 8a be 4f 22 33 be 14 b4 c7 3e
       -0.23006807 -0.2712839 -0.17493556 0.39004576
0001c0 38 ff 22 3f 4e 58 f5 be b0 77 c1 bd a5 5f 65 be
       0.6367068 -0.47918934 -0.09446657 -0.22399767
0001d0 9d cc 1a 3f 80 93 f9 be 1e 14 e5 bd a4 fa e4 be
       0.60468465 -0.48745346 -0.11185478 -0.44722474
0001e0 ff 7b 4e be c1 93 9c 3d ad ef b8 bd d6 de f6 3e
       -0.20164488 0.07645369 -0.090300895 0.48216885
0001f0 63 1d 40 3f 85 c9 13 3f 0a 43 04 3f c7 34 6c 3f
       0.7504484 0.5772937 0.51664793 0.9226803
000200 12 64 cd 3e e8 ca 1f bf 17 e9 9b be 49 45 0e 3e
       0.4011541 -0.62418985 -0.3045127 0.13893618
000210 ef 57 30 bf 96 3c bd be 3a 37 fa be e1 a1 8e 3e
       -0.68884176 -0.36960286 -0.4887026 0.2785788
000220 36 fc cd 3e 3d ec ba 3e 54 e5 b9 3e 45 e6 ac be
       0.40231484 0.3650836 0.36307776 -0.33769432
000230 76 25 97 3e e3 35 10 bd 9f 3e e8 be 36 60 1a bf
       0.29520768 -0.03520764 -0.45360276 -0.60303056
000240 70 79 bc be 0a e3 f9 3e d9 38 df 3e 32 37 3d 3e
       -0.368114 0.4880603 0.4359806 0.18478087
000250 a4 e8 de be 01 0f af 3e b1 c5 e0 be 4d 94 b2 3e
       -0.43536866 0.34191135 -0.43900827 0.3487877
000260 6d 16 90 3e 7f 35 ec 3e 02 7d 22 bf d3 14 1d bf
       0.2814211 0.46134564 -0.63471997 -0.613599
000270 18 84 24 3f f4 49 75 3e 52 9b 7f 3e ca a9 ab 3e
       0.6426406 0.23953992 0.24961594 0.33527976
000280 24 b3 f8 3e ed bb b6 3e 3a e7 23 3e 44 8d a9 3e
       0.48574173 0.3569025 0.16006175 0.3311559
000290 5d 89 d7 3e 4a 1a 3b be 0e 6c 24 3e 42 ed 84 3f
       0.42096987 -0.18271747 0.16056845 1.0384905
0002a0 46 6f 72 be d7 ed c3 be ca 3b 60 3e d0 7f 51 3e
       -0.2367526 -0.38267395 0.21897808 0.20458913
0002b0 bb b5 a4 3e b8 d7 6c 3d b3 cf c9 be 03 11 1d be
       0.321699 0.057822913 -0.39416274 -0.1533852
0002c0 41 a7 8f 3e 45 a3 96 3e 12 86 da 3e b6 31 c0 be
       0.28057292 0.2942144 0.42680413 -0.37537926
0002d0 f0 a2 06 bf 60 73 af 3e 2f 30 ee be 0f 57 5b 3e
       -0.5259237 0.34267712 -0.46521136 0.21419929
0002e0 4f 6d 89 3e d8 f9 25 bf 50 df b3 3e 0a 91 ba 3e
       0.26841208 -0.64834356 0.3513131 0.3643878
0002f0 1e 8a d2 be b3 71 42 3e c2 e9 ca 3e 09 1b d0 be
       -0.41121 0.18988685 0.39631468 -0.40645626
000300 c9 f7 be 3e 26 f4 75 be 12 dd c9 be 8b f6 8f be
       0.3729842 -0.24018916 -0.39426476 -0.28117785
000310 4c d5 a1 3e d8 d2 72 3d 67 dd cd 3e 3d 53 33 3f
       0.31608045 0.059283108 0.4020798 0.70048887
000320 8d a5 c3 3e 8b 4a 18 3f c5 98 6c 3e cc 08 e0 bc
       0.38212243 0.59488744 0.23105152 -0.027347945
000330 68 c3 f3 be bb b4 c3 3e aa fd b5 3d 9e 6e 82 3e
       -0.4761002 0.38223824 0.08886273 0.2547502
000340 d5 d9 0d bf a6 db f8 3e e5 59 e5 3e 62 c0 01 3f
       -0.5541051 0.48605078 0.44795147 0.5068418
000350 c6 8b 77 3e 7d f4 db 3e 74 6f b2 3e 30 7e 75 3e
       0.24174413 0.42959967 0.34850657 0.23973918
000360 a0 62 f7 b9 e3 92 eb bc 5e 3f 8f be 82 0c 83 3e
       -0.00047184993 -0.028756564 -0.27978033 0.2559548
000370 6c b3 4b 3e 97 7a 41 bf 03 6c 9f 3e cc 74 f5 be
       0.19892663 -0.7557768 0.31137094 -0.4794067
000380 d2 59 1a be 4a f8 d7 3e db 38 17 bf d0 c4 01 3f
       -0.15073326 0.42181617 -0.5907113 0.5069094
000390 9a eb 2c 3d c9 79 87 3e 64 37 12 bf 9e e2 be be
       0.042216875 0.26460102 -0.5711577 -0.3728227
0003a0 96 7e 3f bf 7a eb d9 be 09 a8 08 bf de 37 ba 3e
       -0.7480253 -0.42562467 -0.533814 0.36370748
0003b0 3c 79 e1 be 96 c3 28 bf 3d 4f 8d be a2 e7 d5 3e
       -0.44037807 -0.6592344 -0.27599517 0.41778284
0003c0 b1 ec 4e 3e 24 b7 b3 be fc 8c 0b bf 01 a9 d5 be
       0.20207478 -0.35100663 -0.54512 -0.41730502
0003d0 4b 38 91 3e 4e 6f aa be 69 1c c0 be ed a0 3f be
       0.2836326 -0.33288044 -0.37521675 -0.18713732
0003e0 d5 80 86 bd 6c 39 d1 be a0 e0 c1 be 52 28 5a 3e
       -0.065675415 -0.40864122 -0.37866688 0.21304443
0003f0 80 96 bc 3e ea 28 8d bd 42 d0 10 3e 55 8e 24 3e
       0.36833572 -0.06892569 0.14141944 0.1606992

out.bias f4 [5]
000000 82 0e ad bf 77 05 af 3f 03 a6 b2 3f b0 10 9d be
       -1.3520052 1.3673543 1.3956913 -0.30676794
000010 a9 52 4a bf
       -0.7903238

exp_avg_sq f4 [128, 28]
000000 d7 a2 a5 48 8f 8f e1 47 50 ef 5f 47 79 83 18 47
       339222.72 115487.12 57327.312 39043.473
000010 a8 d5 fc 46 47 d4 f5 46 69 80 0a 47 9d 49 3c 47
       32362.828 31466.139 35456.41 48201.613
000020 f1 39 a1 47 95 22 47 48 b1 a0 d6 48 87 7f 75 47
       82547.88 203914.33 439557.53 62847.527
000030 f9 a2 07 47 a2 19 41 47 df f8 b9 47 5c 13 8a 48
       34722.973 49433.633 95217.74 282778.88
000040 d7 87 f1 48 52 0f 9b 47 73 a9 07 46 24 dc 6e 45
       494654.72 79390.64 8682.362 3821.7588
000050 02 8b 38 45 53 cf 43 45 88 75 f9 47 8d 7d a5 48
       2952.688 3132.9578 127723.06 338924.4
000060 b0 aa 9c 45 7a 73 cd 48 f3 1c f9 44 bc 8e 93 4b
       5013.336 420763.8 1992.9047 1.9340664e+07
000070 ac 6f 5e 45 76 d7 24 45 34 05 d6 44 9a a8 90 44
       3558.9795 2637.4663 1712.1626 1157.2688
000080 84 b2 60 44 b4 e8 87 44 c7 85 fb 44 d6 7b 4c 45
       898.7893 1087.272 2012.1805 3271.7397
000090 5a 10 11 45 67 af 0d 45 bf 41 2d 45 d0 23 74 45
       2321.022 2266.9626 2772.1091 3906.2383
0000a0 3b f5 5a 45 d9 a4 4a 45 a2 67 3e 45 5f c4 06 45
       3503.327 3242.303 3046.477 2156.2732
0000b0 3c 52 1c 45 65 95 67 45 55 1f 58 44 50 8f b7 44
       2501.1396 3705.3372 864.48956 1468.4785
0000c0 53 59 95 45 64 d3 bd 45 d3 f9 7b 45 05 73 5e 45
       4779.1655 6074.424 4031.614 3559.1887
0000d0 ac 4e 43 44 e5 ca 39 47 f5 4f c3 42 3e fd 71 48
       781.22925 47562.895 97.656166 247796.97
0000e0 c8 6f e7 41 31 ff b7 42 9a 0f 89 44 80 a2 0c 45
       28.92958 91.99842 1096.4875 2250.1562
0000f0 b7 74 c7 44 bc 2c 25 44 0f 98 bd 43 81 88 ae 43
       1595.6473 660.699 379.18796 349.06644
000100 66 b5 e2 43 78 ab 8b 44 35 53 f0 43 82 c7 f4 43
       453.41718 1117.3584 480.65005 489.55865
000110 e4 89 46 44 8e 6c af 44 60 f4 b4 44 0e 69 9c 44
       794.15454 1403.3923 1447.6367 1251.283
000120 8c b1 00 43 d0 56 05 42 fd 61 aa 41 01 cf 94 41
       128.69354 33.334778 21.297846 18.601076
000130 41 cb 9c 41 7e 9e a8 41 c2 f4 90 41 29 de e7 41
       19.599245 21.077389 18.11951 28.983477
000140 20 48 c0 42 f1 a8 0e 46 a0 e9 43 41 7b ce 13 48
       96.14087 9130.235 12.244537 151353.92
000150 c3 9f db 44 ed 5d 76 44 d4 08 e2 44 6a 2f ea 44
       1756.9926 985.4676 1808.2759 1873.4817
000160 78 23 1e 45 6a e8 3f 45 99 aa b7 46 aa 53 f7 46
       2530.2168 3070.526 23509.299 31657.832
000170 22 a2 da 46 ad f9 01 47 7c f5 c4 46 af be b1 46
       27985.066 33273.676 25210.742 22751.342
000180 c7 ab 87 46 7e 25 50 46 c3 c7 6e 46 b8 4f ab 46
       17365.889 13321.373 15281.94 21927.86
000190 a0 00 ba 46 66 a0 e5 46 2e 3a fc 46 c2 a2 68 47
       23808.312 29392.2 32285.09 59554.758
0001a0 c7 06 a1 47 92 a0 a8 47 df d5 12 46 c6 4f d6 44
       82445.555 86337.14 9397.468 1714.4929
0001b0 75 c2 73 45 3d 5b 0e 49 7e 4a 09 44 c9 44 47 49
       3900.1536 583091.8 549.16394 816204.56
0001c0 e4 c1 ae 42 96 e9 37 43 82 2e dd 43 0d d6 af 43
       87.37869 183.91245 442.36334 351.67227
0001d0 39 55 ae 43 41 83 d7 43 95 5d 1a 44 48 d1 db 44
       348.6658 431.02542 617.4622 1758.54
0001e0 95 ff 49 45 62 1b 50 45 57 eb be 43 2d 90 ad 43
       3231.9739 3329.7114 381.8386 347.12637
0001f0 2b 8c 08 44 de ed 02 45 be 95 77 45 38 81 84 45
       546.1901 2094.8667 3961.359 4240.1523
000200 a7 a3 d3 43 9b 62 0f 43 ef 35 69 43 f5 8b c9 44
       423.27853 143.38518 233.21068 1612.3737
000210 f9 f3 85 44 95 84 00 44 d5 53 1c 43 cb 67 a9 42
       1071.6241 514.0716 156.32747 84.70272
000220 88 85 48 43 2b 38 72 45 21 f9 2d 42 e2 8f ef 47
       200.5216 3875.5105 43.49329 122655.766
000230 a2 15 00 44 11 9e 97 43 4e d7 cc 43 00 82 f3 43
       512.338 303.2349 409.68207 487.01562
000240 19 92 3e 44 b3 8a ca 44 5a 51 08 46 c3 ee 2e 46
       762.2828 1620.3344 8724.338 11195.69
000250 5a 52 14 46 71 40 1a 46 2f 58 04 46 35 f7 ea 45
       9492.588 9872.11 8470.046 7518.901
000260 da 68 ad 45 da 7f 84 45 d4 b0 8c 45 e5 80 d5 45
       5549.1064 4239.9814 4502.1035 6832.112
000270 3f 57 11 46 aa 74 28 46 68 8b 51 46 31 01 c8 46
       9301.812 10781.166 13410.852 25600.596
000280 28 4e f3 46 88 13 c5 46 33 11 05 45 0b 84 fb 43
       31143.078 25225.766 2129.075 503.0316
000290 e1 80 ab 44 8c c2 4c 48 a0 57 33 43 b3 75 71 48
       1372.0275 209674.19 179.34229 247254.8
0002a0 58 de 19 36 7f 59 2e 36 81 3d 86 36 65 5f 30 37
       2.2928198e-06 2.5980114e-06 4.000671e-06 1.0512628e-05
0002b0 89 1b cf 37 b3 d3 4b 37 9c a2 16 39 de de 28 39
       2.4689145e-05 1.2149033e-05 0.00014365691 0.00016104753
0002c0 ae ae b4 38 af 49 52 38 80 c1 28 38 c0 ea 1f 38
       8.6156055e-05 5.0136525e-05 4.0234532e-05 3.8127182e-05
0002d0 43 43 0b 38 0c 9c 15 38 f5 2e 51 38 80 86 bb 38
       3.3202825e-05 3.56697e-05 4.9873215e-05 8.9419074e-05
0002e0 84 2b 8a 39 f6 92 16 3a 2a da 34 37 7b 24 ca 35
       0.00026353833 0.0005743945 1.0779631e-05 1.506079e-06
0002f0 4f 3d a9 36 6d 62 71 36 a7 7b 37 36 fe 0e 25 36
       5.0437297e-06 3.596909e-06 2.73411e-06 2.4595643e-06
000300 ea 44 3a 38 70 b8 db 3a 3f d8 88 35 7f 41 8f 3c
       4.4410037e-05 0.0016763341 1.0195726e-06 0.017487286
000310 05 f5 f2 3b c5 0e cf 3c b3 38 5f 3e da aa 73 3e
       0.0074144625 0.025275597 0.21798973 0.23795643
000320 84 55 4f 3e c7 97 d1 3d f3 b5 67 3d f7 b3 40 3d
       0.20247465 0.10234027 0.056570005 0.047046628
000330 d7 bd 2d 3d ae c9 3d 3d b0 87 70 3d e0 a8 c5 3d
       0.042417374 0.046334915 0.05872315 0.09651351
000340 51 1e 72 3e f7 f0 29 3f 8b a2 85 3e 33 4c a4 3c
       0.23644377 0.6638331 0.26100573 0.020055866
000350 98 83 41 3c 87 fc 70 3c 4e 9b 40 3b f0 49 1e 3b
       0.01181116 0.014708645 0.0029389444 0.0024152957
000360 a9 8a 1c 3b c5 22 4b 3b 1e b7 82 3b 06 36 fe 3b
       0.0023886359 0.0030996066 0.0039891144 0.007757905
000370 46 1b 0a 3d ee 0e ef 3f dd 91 0d 3b 4b 75 e8 41
       0.033717416 1.8676431 0.0021601834 29.057272
000380 ba 28 be 45 ca 45 99 45 58 44 48 45 92 0c 12 45
       6085.091 4904.7236 3204.2715 2336.7856
000390 11 bc 34 45 56 07 58 45 91 b9 03 45 f0 cf 06 45
       2891.7542 3456.4585 2107.598 2156.996
0003a0 5d 0c 46 45 bd 74 7d 45 28 2a 95 45 b3 2c 9c 45
       3168.7727 4055.2961 4773.2695 4997.5874
0003b0 3a 5c 84 45 fb 5e 97 45 af 10 b4 45 65 c3 d2 45
       4235.5283 4843.8726 5762.0854 6744.4243
0003c0 a8 94 f6 44 d6 db 57 44 cf 01 5a 44 67 a3 a1 44
       1972.6455 863.43494 872.02826 1293.1063
0003d0 10 17 58 45 d4 af d1 45 62 02 a4 45 c9 76 be 45
       3457.4414 6709.9785 5248.298 6094.848
0003e0 ea 1c a4 44 fe 00 1c 47 47 35 35 43 4b fb 08 49
       1312.9036 39936.992 181.20811 561076.7
0003f0 c0 23 86 37 d4 f7 72 37 8a 96 81 37 ce 12 85 37
       1.5990692e-05 1.4482026e-05 1.5448099e-05 1.5863592e-05

exp_avg f4 [128, 28]
000000 5f 7c 98 c2 c3 13 53 c2 a3 7a 0d c2 07 2b e9 c1
       -76.24291 -52.7693 -35.369762 -29.14601
000010 9e 32 cb c1 4e b0 c6 c1 90 e9 d2 c1 72 f9 f5 c1
       -25.399715 -24.836086 -26.364044 -30.7468
000020 fb 19 25 c2 43 ab 92 c2 56 54 03 c3 51 7d 2c c2
       -41.27537 -73.334496 -131.32944 -43.12238
000030 4b f5 04 c2 80 ec 1c c2 58 3a 58 c2 22 4b bc c2
       -33.239544 -39.230957 -54.056976 -94.14674
000040 3f 27 c7 c2 67 7f 35 c2 09 3a 2d c1 23 1f 9d c0
       -99.57665 -45.374416 -10.826669 -4.910051
000050 cc ae 96 c0 f8 40 49 c1 8e c6 b5 c2 53 39 98 c2
       -4.7088375 -12.5783615 -90.8878 -76.11196
000060 32 3b 72 bf 82 20 82 c2 76 0d 96 c0 e1 17 19 c4
       -0.94621575 -65.06349 -4.689143 -612.3731
000070 15 1e 1d c0 2f 86 1a c0 08 bf e1 bf 02 22 c3 3e
       -2.454961 -2.41444 -1.7636423 0.38111883
000080 d7 29 12 c0 8e 3b a3 c0 10 c0 c0 c0 4b 1b eb c0
       -2.2838037 -5.10102 -6.023445 -7.3470817
000090 23 e6 fa c0 37 5c 1e c1 8e 2b 8c c0 68 cf c2 bc
       -7.840593 -9.897513 -4.3803167 -0.02378054
0000a0 81 13 1f 40 20 35 95 bd e2 87 81 c0 a0 03 00 c1
       2.4855654 -0.072855234 -4.0478373 -8.000885
0000b0 7f 85 5e c0 59 fb d3 c0 dd 13 cf c0 4e 71 22 c0
       -3.476898 -6.624432 -6.4711747 -2.5381656
0000c0 3f 00 52 40 cd e0 03 3f 60 3a 96 40 16 ba 18 c0
       3.281265 0.51514894 4.694626 -2.3863578
0000d0 4a bc 3f c0 28 db 89 40 5d 0d 2c bf 0f 14 55 41
       -2.9958673 4.3080025 -0.6720789 13.317397
0000e0 04 00 00 00 04 00 00 00 04 00 00 00 04 00 00 00
       6e-45 6e-45 6e-45 6e-45
0000f0 04 00 00 00 04 00 00 00 04 00 00 00 04 00 00 00
       6e-45 6e-45 6e-45 6e-45
000100 04 00 00 00 04 00 00 00 04 00 00 00 04 00 00 00
       6e-45 6e-45 6e-45 6e-45
000110 04 00 00 00 04 00 00 00 04 00 00 00 04 00 00 00
       6e-45 6e-45 6e-45 6e-45
000120 04 00 00 00 04 00 00 00 04 00 00 00 04 00 00 00
       6e-45 6e-45 6e-45 6e-45
000130 04 00 00 00 04 00 00 00 04 00 00 00 04 00 00 00
       6e-45 6e-45 6e-45 6e-45
000140 04 00 00 00 04 00 00 00 04 00 00 00 04 00 00 00
       6e-45 6e-45 6e-45 6e-45
000150 14 6e 04 c0 c3 2b 5a 3f c9 90 ad 3f 3e 2b f6 c0
       -2.0692186 0.85223025 1.355981 -7.6927786
000160 b8 48 33 41 b4 30 4c 41 0d 21 81 41 fd 83 88 41
       11.205254 12.76189 16.141138 17.064447
000170 5d ba 17 41 d9 b1 18 41 6b 23 c0 40 57 dd 40 3f
       9.482999 9.54342 6.0043235 0.7533774
000180 20 36 9e c0 e1 f7 35 3f 9d 37 a3 40 5e d8 20 40
       -4.944107 0.7108136 5.1005387 2.513206
000190 5f 6a 9f 40 06 f1 92 41 52 cb b4 41 a0 67 eb 40
       4.9817348 18.367687 22.599277 7.3563995
0001a0 07 13 48 41 bb 47 69 c1 85 e9 9c c1 cd 76 00 c0
       12.504645 -14.580012 -19.614023 -2.007251
0001b0 83 92 7a 3e 92 35 22 c1 1f 51 11 40 5a 57 c3 c2
       0.24469952 -10.138079 2.2705762 -97.67061
0001c0 56 cd cd bf 53 a2 89 bf 4f 1a 65 bf c0 52 44 bf
       -1.6078289 -1.0752662 -0.8949327 -0.76688766
0001d0 db a0 28 bf da e5 27 bf 18 dd f6 be 6c 23 94 3f
       -0.65870446 -0.655851 -0.48215556 1.157331
0001e0 32 bb 96 bf 9c 7f 25 c1 64 09 88 c0 b5 53 55 c0
       -1.1775877 -10.343655 -4.2511463 -3.333234
0001f0 ec 88 7b c0 de 50 40 c0 ab 62 e3 c0 ad d7 b1 bf
       -3.930232 -3.0049357 -7.1057944 -1.3893944
000200 c7 a6 b2 be 53 81 33 bf 9a ad 1d bf 29 0b 5a 3f
       -0.34892866 -0.7011921 -0.6159302 0.8517328
000210 05 19 c0 c0 38 fa e4 c0 6c 00 2b c0 cc 75 c1 bf
       -6.003054 -7.1555443 -2.6719007 -1.5114074
000220 43 49 57 3f 81 a3 81 c0 34 43 15 bf 7f 88 85 c1
       0.84096164 -4.051209 -0.5830567 -16.691648
000230 76 50 40 40 12 59 3b 40 ea 6b 42 40 05 b9 ed 3e
       3.004911 2.9273114 3.0378366 0.4643022
000240 6b 18 34 41 c5 eb 7a 41 78 eb 8a 41 ed 37 67 41
       11.255961 15.682561 17.364975 14.451154
000250 57 71 0c 41 5c 4d 2e 41 4c 94 37 41 fc 16 00 41
       8.777671 10.893887 11.473705 8.005611
000260 a7 6d da 40 54 d7 cc 40 ea a4 e2 40 2c 2c 1c 41
       6.8258853 6.401285 7.082631 9.760784
000270 d4 30 41 41 ae a1 86 41 ab ab 94 41 3c 58 24 41
       12.074421 16.828945 18.583822 10.271542
000280 7e 00 67 41 41 0c 31 41 bf 3c e4 40 c7 43 48 40
       14.43762 11.065492 7.1324153 3.1291368
000290 f4 f2 2a 41 4d a5 26 42 04 05 2f 40 97 6f 12 c1
       10.684315 41.661427 2.7346811 -9.152244
0002a0 04 00 00 00 04 00 00 00 04 00 00 00 04 00 00 00
       6e-45 6e-45 6e-45 6e-45
0002b0 04 00 00 00 04 00 00 00 04 00 00 00 04 00 00 00
       6e-45 6e-45 6e-45 6e-45
0002c0 04 00 00 00 04 00 00 00 04 00 00 00 04 00 00 00
       6e-45 6e-45 6e-45 6e-45
0002d0 04 00 00 00 04 00 00 00 04 00 00 00 04 00 00 00
       6e-45 6e-45 6e-45 6e-45
0002e0 04 00 00 00 04 00 00 00 04 00 00 00 04 00 00 00
       6e-45 6e-45 6e-45 6e-45
0002f0 04 00 00 00 04 00 00 00 04 00 00 00 04 00 00 00
       6e-45 6e-45 6e-45 6e-45
000300 04 00 00 80 04 00 00 00 04 00 00 00 04 00 00 00
       -6e-45 6e-45 6e-45 6e-45
000310 04 00 00 00 04 00 00 00 04 00 00 00 04 00 00 00
       6e-45 6e-45 6e-45 6e-45
000320 04 00 00 00 04 00 00 00 04 00 00 00 04 00 00 00
       6e-45 6e-45 6e-45 6e-45
000330 04 00 00 00 04 00 00 00 04 00 00 00 04 00 00 00
       6e-45 6e-45 6e-45 6e-45
000340 04 00 00 00 04 00 00 00 04 00 00 00 04 00 00 00
       6e-45 6e-45 6e-45 6e-45
000350 04 00 00 00 04 00 00 00 04 00 00 00 04 00 00 00
       6e-45 6e-45 6e-45 6e-45
000360 04 00 00 00 04 00 00 00 04 00 00 00 04 00 00 00
       6e-45 6e-45 6e-45 6e-45
000370 04 00 00 80 04 00 00 00 04 00 00 00 04 00 00 00
       -6e-45 6e-45 6e-45 6e-45
000380 eb ef 11 c1 a5 fe f6 c0 06 0a a5 c0 d7 21 70 c0
       -9.121074 -7.7185845 -5.1574736 -3.7520654
000390 39 15 15 c1 0b 17 50 c1 56 4b f9 c0 7e 69 9f c0
       -9.317681 -13.005626 -7.7904463 -4.9816275
0003a0 d2 dd b2 c0 05 ab 3a c1 c9 b2 df c0 ea 54 7d c1
       -5.5895777 -11.666753 -6.9905744 -15.833231
0003b0 45 61 1f c1 cd 55 82 c0 40 f6 c1 c0 4b eb c7 c1
       -9.961247 -4.0729737 -6.06131 -24.98989
0003c0 99 c0 37 c1 9c 8e a9 c0 fd 80 fd c0 b8 d1 1a c1
       -11.484521 -5.2986584 -7.9219956 -9.676201
0003d0 45 66 ec bf 6d dd 77 c1 6d f7 95 c1 13 dd 11 c1
       -1.846871 -15.491559 -18.745813 -9.116473
0003e0 7c 57 70 40 3a 08 8c c1 02 f0 9e bf a2 7f 70 c2
       3.7553396 -17.504017 -1.2416995 -60.12464
0003f0 04 00 00 00 04 00 00 00 04 00 00 00 04 00 00 00
       6e-45 6e-45 6e-45 6e-45

exp_avg_sq f4 [5, 128]
000000 7d 26 60 43 d8 46 9e 42 94 b2 3f 42 91 5e 8b 42
       224.15034 79.13837 47.924393 69.6847
000010 97 e4 d2 42 05 b5 1d 43 9a ec b5 42 b4 25 50 43
       105.446465 157.7071 90.96211 208.14728
000020 34 0a 98 43 9a 3c 68 43 9f a4 98 43 91 db 05 43
       304.0797 232.23672 305.2861 133.85768
000030 39 4a 1e 43 0d c8 e2 42 64 93 fb 42 7b dc a6 42
       158.28993 113.390724 125.78787 83.430626
000040 75 be 0a 43 1d 75 3c 43 de e4 4f 43 f6 b5 36 43
       138.74397 188.45747 207.89401 182.71078
000050 4f 99 8b 42 57 53 08 43 59 01 7b 42 ec 29 2f 43
       69.79943 136.32555 62.751316 175.16376
000060 7c 0e e3 42 ea 4f b5 43 44 5c 1e 43 40 12 f8 42
       113.52829 362.62433 158.36041 124.035645
000070 1e 10 e2 42 ab 77 c1 42 27 1a 89 42 f6 a3 25 43
       113.03148 96.73373 68.55108 165.64047
000080 e6 a0 a1 43 a5 45 46 43 2b fc e7 42 a0 40 01 43
       323.25702 198.27205 115.992516 129.25244
000090 8a c8 31 43 7a fc 37 43 ef ea 7f 42 1b 84 a2 42
       177.78336 183.98624 63.979427 81.25802
0000a0 33 87 b6 42 91 df b3 42 c9 b6 d9 42 15 89 11 43
       91.26406 89.93665 108.857 145.53548
0000b0 87 e1 22 43 8c be 28 43 66 20 60 42 60 e4 ad 42
       162.88097 168.74432 56.03164 86.946045
0000c0 40 28 df 42 c8 f7 84 43 ad 49 27 43 86 0c 87 42
       111.57861 265.9358 167.2878 67.52446
0000d0 32 16 d6 42 4b e5 1c 43 c3 d7 fa 42 10 86 0c 43
       107.04335 156.89568 125.42141 140.52368
0000e0 8f 30 72 43 c1 96 76 42 b6 53 86 43 d3 4d 19 43
       242.18968 61.64722 268.654 153.304
0000f0 22 14 0e 43 ae f6 a7 43 d8 57 a8 43 6d 51 c6 42
       142.07864 335.9272 336.68628 99.159035
000100 ba be 42 43 a5 0a 95 42 0f 48 d2 42 9f 1f 90 42
       194.74503 74.52079 105.14074 72.06176
000110 a9 ef 6b 43 e0 3c c9 42 14 3e 6b 43 d2 fd ec 42
       235.93617 100.6189 235.2425 118.49574
000120 56 ef 34 42 5c da 11 43 25 f6 62 43 e5 29 b3 42
       45.233727 145.85297 226.9615 89.581825
000130 65 fb 19 42 29 cd 5f 43 52 d2 f2 42 d6 e3 24 43
       38.495502 223.8014 121.41078 164.88998
000140 10 b3 c9 42 75 ef 8e 43 0b 47 83 43 4f 16 81 43
       100.84973 285.87076 262.55502 258.1743
000150 28 af 6a 43 77 6a 6e 42 e6 d6 06 43 21 03 f2 42
       234.6842 59.60397 134.83945 121.00611
000160 5a 0a bd 42 32 06 b0 42 4d 54 81 42 ab 2c 6e 43
       94.52022 88.0121 64.66465 238.17448
000170 a0 b1 59 43 50 68 24 43 00 43 2c 43 42 27 98 42
       217.69385 164.40747 172.26172 76.076675
000180 73 05 af 42 ed 91 a1 43 37 db b5 42 9b a3 4e 43
       87.51064 323.14005 90.928154 206.63908
000190 67 c4 17 43 54 b8 2c 43 67 c2 fe 42 25 d6 2e 43
       151.7672 172.72003 127.37969 174.8365
0001a0 8f bd ba 42 46 cc 4c 42 f5 6b b6 42 1b 5a 25 43
       93.37023 51.199486 91.21085 165.35197
0001b0 25 0e ff 42 6e 23 b1 42 31 f4 e2 42 11 0b 45 43
       127.527626 88.5692 113.47694 197.04323
0001c0 57 e3 22 43 02 24 db 42 ea c1 ab 42 39 63 eb 42
       162.88805 109.57033 85.87874 117.693794
0001d0 01 3e 40 43 66 7c 21 43 c9 fa c7 42 fc f1 74 42
       192.2422 161.48593 99.989815 61.236313
0001e0 6d fb 1f 43 5f 76 a8 42 04 83 b6 42 34 e8 22 43
       159.98213 84.23119 91.25589 162.90704
0001f0 c6 55 53 43 8f 46 de 42 fc 39 93 43 c5 20 e8 42
       211.33505 111.13781 294.453 116.064
000200 cd 28 6a 43 cd c4 84 43 c2 b0 fa 42 e1 21 f0 43
       234.15938 265.5375 125.34523 480.26468
000210 c7 e8 2b 43 29 e2 e4 43 39 a4 e0 43 11 a2 07 44
       171.90929 457.76688 449.283 542.5323
000220 03 17 b0 43 10 45 bf 43 71 50 ec 43 3a c1 0f 44
       352.17978 382.53955 472.62845 575.01917
000230 67 4a fc 43 f3 d8 0c 44 7b 31 81 43 22 89 52 43
       504.58127 563.38983 258.38657 210.53568
000240 03 48 df 43 36 48 72 43 74 53 1f 43 4f d8 a0 43
       446.5626 242.28207 159.32599 321.6899
000250 22 81 c9 43 5a 64 b4 43 6c 6c a4 42 36 49 c9 43
       403.00885 360.784 82.21176 402.57196
000260 71 e2 7c 43 ed ec bf 43 5e 61 aa 43 52 67 eb 43
       252.88454 383.85098 340.76068 470.8072
000270 db c1 2b 42 1c 4a e5 43 2f 54 67 43 38 89 e0 43
       42.939312 458.57898 231.32884 449.07202
000280 da 38 97 43 1a d4 ed 43 07 12 a2 43 aa 55 e1 43
       302.44415 475.65704 324.14084 450.66925
000290 d8 27 02 44 67 6f 1a 44 fc 22 b5 43 db 05 02 42
       520.62256 617.74066 362.27332 32.50572
0002a0 70 b3 df 43 82 15 5c 43 ac 60 f1 43 56 13 07 44
       447.40186 220.08401 482.75525 540.3021
0002b0 3a 3a 9a 43 21 35 43 44 84 74 1c 43 e8 10 95 43
       308.4549 780.83014 156.45514 298.13208
0002c0 2b fe 86 43 6f d5 9f 43 eb 1a dc 43 71 89 3d 43
       269.9857 319.66745 440.2103 189.53688
0002d0 b7 7b 5b 43 36 d6 de 43 0c 66 ef 43 1a 2c f1 43
       219.48326 445.67352 478.79724 482.34454
0002e0 26 c0 e0 43 4c 5c 38 43 b9 e9 e7 43 23 1a 06 44
       449.50116 184.36053 463.82596 536.4084
0002f0 31 71 f7 43 25 ff 18 44 0e 7c 07 44 c4 1f e4 43
       494.8843 611.98663 541.93835 456.24817
000300 d9 64 89 43 fd 51 ee 43 bb 3f 5c 43 ad 10 b6 43
       274.78787 476.64053 220.24895 364.13028
000310 67 c8 4e 43 61 a0 f1 43 33 87 b6 43 20 37 75 43
       206.78282 483.25296 365.05624 245.21533
000320 17 b1 81 42 7b 94 71 43 b5 10 02 44 32 2d 0f 44
       64.84588 241.58 520.26105 572.7062
000330 2e 9e 41 43 97 11 22 43 2a 53 06 44 28 17 00 44
       193.61789 162.06871 537.29944 512.3618
000340 e7 cc 85 43 a3 54 95 43 40 8d c1 43 f1 b0 c6 43
       267.6008 298.66122 387.10352 397.38235
000350 7d 95 0f 44 e3 e3 f0 41 10 17 ca 43 61 de 00 44
       574.33575 30.111273 404.18018 515.4747
000360 2c ab 11 44 15 df fb 43 4d 6e b8 43 14 cd c6 43
       582.67456 503.74283 368.86172 397.60217
000370 bb df dc 43 2a 1e 60 43 d8 0c 18 44 48 cd a7 43
       441.7479 224.11783 608.2007 335.60376
000380 39 1b d0 43 1a 98 a0 43 0f a3 89 43 32 ae 01 43
       416.21268 321.1883 275.2739 129.68045
000390 b6 98 ac 43 a4 47 07 44 0e 31 a4 43 85 ea e7 43
       345.19305 541.1194 328.38324 463.83218
0003a0 31 57 27 42 d2 68 d7 42 8c 36 06 44 e7 89 03 44
       41.835148 107.70473 536.8523 526.1547
0003b0 1c 48 fa 43 7b a4 24 43 42 7e 22 44 f6 15 c3 43
       500.56335 164.6425 649.9728 390.17157
0003c0 69 88 c0 43 f3 02 90 43 cd ab ad 43 8b 60 c9 43
       385.0657 288.02304 347.3422 402.75424
0003d0 47 99 a1 43 aa 92 e3 43 79 bc e0 43 97 cf b0 43
       323.19748 455.1458 449.47244 353.6218
0003e0 5c 36 22 44 fd 68 6a 43 c0 aa db 43 18 54 b9 43
       648.84937 234.41011 439.33398 370.65698
0003f0 3e 37 a1 43 9f 15 7c 43 6d 62 29 44 0d c6 cd 42
       322.43158 252.08446 677.5379 102.88682
