model/450a.pt (torch_old, 336839 bytes, 24 tensors)

fc1.weight f4 [128, 28]
0	0x3d5ed092	0.054398127
1	0x3e90a96e	0.28254265
2	0xbe067b70	-0.13133025
3	0x3ba0834c	0.0048984643
4	0xbea1539d	-0.31509104
5	0xbed553d9	-0.41665533
6	0xbde06e88	-0.10958582
7	0xbe377280	-0.17914772
8	0xbe72f370	-0.23725677
9	0x3e1799ca	0.1480476
10	0x3e9cc672	0.30620152
11	0xbe621c1f	-0.2208104
12	0xbd9c9bcc	-0.076469034
13	0x3d85bd40	0.06530237
14	0x3ea3022a	0.3183759
15	0x3eba7e49	0.36424473
16	0x3ed27e63	0.4111205
17	0xbaad85e1	-0.0013238752
18	0xbf9e4867	-1.2365845
19	0xc0281e7f	-2.6268613
20	0xbff4f060	-1.9135857
21	0xbfe80a81	-1.8128206
22	0xbe6c4ed2	-0.23076943
23	0x3e38e72f	0.1805694
24	0x3eaef9d4	0.3417498
25	0xbdd8ed58	-0.10592145
26	0xc01045f7	-2.2542703
27	0x3d430a4e	0.04761725
28	0x3f535419	0.825502
29	0x3f6520a0	0.89502907
30	0x3eaa5220	0.3326578
31	0x3e6779f8	0.22605121
32	0xbe9b832d	-0.30373517
33	0xbededa79	-0.43526056
34	0x3e50ff4f	0.20409892
35	0x3efd947a	0.4952734
36	0xbd3f5c28	-0.046718746
37	0x3e52947d	0.20564456
38	0xbcc806a3	-0.024417227
39	0xbd04d398	-0.032428354
40	0xbe875293	-0.26430187
41	0xbec31a39	-0.38105944
42	0x3e01d4b4	0.12678796
43	0xbdfb3658	-0.122662246
44	0x3daf23a4	0.0855172
45	0x3cb58c0a	0.022161502
46	0xbe504f3c	-0.20342726
47	0xbdcda0fe	-0.100404724
48	0x3e4ae05b	0.19812147
49	0x3decb332	0.11557616
50	0xbea1263a	-0.31474477
51	0x3f36f12a	0.7146174
52	0x3ef914e6	0.48648757
53	0xbda2cb57	-0.0794894
54	0x3f84ed02	1.0384829
55	0x3d962b08	0.07332426
56	0xbfb9dcf5	-1.4520556
57	0xbf941318	-1.1568327
58	0xbee5e3c9	-0.4490035
59	0x3e261b7b	0.1622142
60	0x3d28edb7	0.041242328
61	0xbc81a670	-0.015826434
62	0x3dc44536	0.095835134
63	0xbd50d74b	-0.05098657
64	0xbd23efe2	-0.040023692
65	0x3c7c80ed	0.015411598
66	0x3d26c4f7	0.040715184
67	0x3ed28dde	0.4112386
68	0x3dc2f903	0.095201515
69	0xbd904e30	-0.07046163
70	0xbddcaf5b	-0.10775634
71	0xbdb5d048	-0.08877617
72	0xbeddb3c0	-0.433012
73	0xbf3ec5d3	-0.74520606
74	0xbf0d3cdb	-0.55170983
75	0xbf3afdae	-0.73043334
76	0xbe8a7471	-0.27041963
77	0xbea9f0ce	-0.33191532
78	0xbf67858c	-0.9043815
79	0xbfd35ede	-1.6513326
80	0xbdf69d70	-0.120417476
81	0x3e51e59b	0.20497744
82	0xbfdbb702	-1.7165225
83	0x3da1fd9b	0.079096995
84	0xbf0de3f2	-0.5542594
85	0xbf3b0515	-0.7305463
86	0xbf14e9b4	-0.581691
87	0xbf149648	-0.5804181
88	0xbdb17784	-0.08665374
89	0xbc97e920	-0.01854378
90	0xbd9fc5a6	-0.0780137
91	0x3dca3c62	0.09874798
92	0x3ea0ade7	0.31382677
93	0x3ede2019	0.43383864
94	0x3efcd930	0.4938445
95	0x3eebc481	0.46048358
96	0x3e57fb07	0.21091853
97	0xbc2c9aed	-0.010534984
98	0xbdff69d3	-0.12471356
99	0xbe10693a	-0.14102641
100	0x3e1578e9	0.14596905
101	0x3d623146	0.055222772
102	0x3f02fbfd	0.51165754
103	0x3dde09b8	0.108416975
104	0x3dee3c93	0.11632647
105	0x3e2ec2a0	0.17066431
106	0xbd018f7f	-0.03163099
107	0xbf3a8786	-0.7286304
108	0x3f8dd97e	1.1081998
109	0xbcb8e38e	-0.022569444
110	0xbf994ada	-1.1975968
111	0xbbe565f1	-0.0070006778
112	0xbf60fdeb	-0.8788745
113	0xbf87d525	-1.0611922
114	0xbeac1a8e	-0.3361401
115	0xbe984c56	-0.2974574
116	0xbe18998f	-0.14902328
117	0x3dad2e24	0.08456066
118	0x3dba3b4d	0.09093342
119	0x3e0a8e78	0.1353091
120	0x3f022ad9	0.5084663
121	0x3ec23803	0.3793336
122	0xbdd6773a	-0.104719594
123	0x3e48f9a0	0.19626474
124	0x3ea58fe2	0.32336336
125	0x3eac0509	0.33597592
126	0x3ecd3c12	0.40084893
127	0x3f16e53d	0.5894354
128	0xbf17b0e8	-0.5925431
129	0xbf4d38c3	-0.80164737
130	0xbe3df984	-0.18552214
131	0x3e142727	0.1446806
132	0x3c8d1ed5	0.017226616
133	0x3cdbc46b	0.026827058
134	0x3d3bae5d	0.045820583
135	0xbf621604	-0.88314843
136	0xbec3bacd	-0.38228455
137	0xbeaec761	-0.3413649
138	0xbfcaf031	-1.5854551
139	0xbdb394e8	-0.08768636
140	0xbf8512d5	-1.0396372
141	0xbfb0147d	-1.3756253
142	0xbf6eadf9	-0.9323421
143	0xbb2f19e2	-0.0026718308
144	0xbe34fbba	-0.17674151
145	0xbeadb74e	-0.33928913
146	0x3d4dbbf6	0.05022808
147	0x3e116583	0.1419888
148	0x3e1e4067	0.15454255
149	0x3e830aaa	0.25594074
150	0x3e88fe51	0.26756528
151	0x3b760322	0.0037538488
152	0xbb945cad	-0.0045276494
153	0xbe90070c	-0.28130376
154	0x3af75715	0.0018870557
155	0x3ead24de	0.3381719
156	0x3dbcad9f	0.09212803
157	0x3dc69220	0.0969584
158	0x3d6f4a52	0.058420487
159	0x3e20e77e	0.15713307
160	0xbe2e216d	-0.17004938
161	0x3d1a634a	0.037692346
162	0xbe1c87c3	-0.15286164
163	0xbf956940	-1.1672745
164	0x3f5b1734	0.8558228
165	0x3da1db31	0.079031356
166	0xbf93c227	-1.1543626
167	0xbda676e9	-0.08128149
168	0xbf6d6b1e	-0.9274157
169	0x3c2d9209	0.0105938995
170	0xbdff5b1f	-0.12468552
171	0xbe229ec3	-0.15880875
172	0x3e1d0800	0.15335083
173	0xbc928e57	-0.017890139
174	0x3e5915ff	0.21199797
175	0x3df750dc	0.120759696
176	0x3e5a4fbc	0.21319479
177	0x3dbd4dfd	0.09243391
178	0x3e871048	0.2637961
179	0xbd66b943	-0.056329023
180	0xbe728a77	-0.23685633
181	0xbdbfc5d7	-0.09363907
182	0xbe70c3a6	-0.23512134
183	0xbe6e1dc6	-0.23253545
184	0xbe2aea8a	-0.16691032
185	0x3dc05b5e	0.09392427
186	0xbcfc2aa7	-0.030782057
187	0xbedf22ed	-0.43581334
188	0xbe8394f5	-0.25699583
189	0x3d0c68be	0.034279577
190	0xbf45e806	-0.77307165
191	0xbf8c37a4	-1.095448
192	0xbe1b7bc4	-0.15183932
193	0x3c826363	0.015916532
194	0xbfb00f80	-1.375473
195	0xbd507f28	-0.050902516
196	0xbf5b3b62	-0.85637486
197	0xbebf5299	-0.37367705
198	0xbe22d0e1	-0.15899993
199	0xbe1e9de4	-0.15489918
200	0xbe47f0e0	-0.1952548
201	0x3e0703f1	0.13185097
202	0x3bb60f8b	0.005556052
203	0xbd84abbf	-0.064780705
204	0x3dca4310	0.098760724
205	0xbe291ad3	-0.16514139
206	0xbe0e8374	-0.13917333
207	0xbe7a42a8	-0.2443949
208	0xbe88ad29	-0.2669461
209	0x3e5b53ea	0.2141873
210	0x3d572176	0.052522145
211	0xbebbe5c3	-0.36698732
212	0xbe61e013	-0.22058134
213	0xbe6414a9	-0.22273506
214	0xbe5dcf90	-0.2166121
215	0xbefdf6f5	-0.49602476
216	0xbf764294	-0.9619534
217	0xbf659b2c	-0.896899
218	0xbf473d28	-0.7782769
219	0xbf7fda35	-0.9994233
220	0xbefab9c0	-0.4896984
221	0x3c90fff7	0.017700179
222	0xbf8a51ca	-1.080621
223	0x3de17048	0.11007744
224	0x3eb9c44c	0.36282575
225	0x3ee36cd9	0.44418982
226	0xbde03149	-0.109469004
227	0x3dcaabeb	0.09896072
228	0x3d95eb93	0.07320323
229	0x3d2445e7	0.040105727
230	0xbef01ac5	-0.46895424
231	0xbe552bb6	-0.20817456
232	0xbda7f312	-0.08200659
233	0x3ea98b4d	0.3311409
234	0x3d960e19	0.07326908
235	0x3d732aa0	0.059366822
236	0xbe62a65a	-0.2213377
237	0x3caa2c73	0.020773148
238	0x3e25ed36	0.1620377
239	0x3d313b48	0.043269426
240	0xbe8b9283	-0.27260217
241	0xbf0ff950	-0.56239796
242	0xbe8c29a3	-0.27375516
243	0xbd65db1f	-0.056117173
244	0x3cd8730a	0.026422042
245	0xbce5e2a7	-0.028062178
246	0x3cdd7152	0.027031574
247	0x3eec0304	0.4609605
248	0xbf9f7a51	-1.2459203
249	0x3d1609f0	0.03663057
250	0xbf17a0cd	-0.5922974
251	0x3d5fa288	0.05459836
252	0x3e161594	0.14656669
253	0xbe48bb65	-0.19602735
254	0xbd9e91f5	-0.07742683
255	0xbe233a18	-0.1594013

fc1.bias f4 [128]
0	0x3d4be083	0.049774658
1	0x3cb2d1cb	0.021828553
2	0xbd436aa1	-0.04770911
3	0x3da04614	0.07825866
4	0xbd94318d	-0.072360136
5	0x3d818374	0.06323901
6	0x3dda2ef9	0.106534906
7	0xbd2bd835	-0.041954238
8	0xbe5f7d4d	-0.21825142
9	0xbd11995d	-0.03554665
10	0xbd6cfc65	-0.05785789
11	0x3dc77b84	0.097403556
12	0xbcb61c77	-0.02223037
13	0x3e05d680	0.13070107
14	0xbccea7b0	-0.025226444
15	0xbe5c0aab	-0.21488445
16	0xbe2e554c	-0.17024726
17	0xbdcd60a3	-0.100281976
18	0xbe0abb76	-0.13548073
19	0xbe412215	-0.18860658
20	0xbdc1449f	-0.094369166
21	0x3c171584	0.009221438
22	0x3eee7dae	0.4658026
23	0x3db99d2f	0.090631835
24	0xbd9252be	-0.07144688
25	0xbe21cb04	-0.158001
26	0xbdd46b73	-0.10372057
27	0xbde3c742	-0.1112199
28	0xbca72dc8	-0.020407572
29	0xbe42990e	-0.19003698
30	0xbda45a04	-0.080249816
31	0x3d006a28	0.03135124
32	0xbdf6b1e4	-0.12045649
33	0xbddacabb	-0.10683199
34	0x3ea69b07	0.3254015
35	0xbd6779fc	-0.056512818
36	0x3e0d93b1	0.13825871
37	0xbe0f4092	-0.13989475
38	0xbd807eab	-0.0627416
39	0xbdd4c1c4	-0.1038852
40	0xbe5930a2	-0.21209958
41	0x3e56dc3b	0.20982449
42	0xbdaacee1	-0.0834024
43	0x3cd6ceac	0.026221596
44	0x3c972d71	0.018454285
45	0xbe79c16d	-0.24390192
46	0xbd272bf6	-0.04081341
47	0x3ee80a7e	0.45320505
48	0x3dfa4d29	0.122217484
49	0xbd158c14	-0.036510542
50	0x3e1f1f8f	0.15539382
51	0x3d0f20a9	0.034943257
52	0xbe4fdcea	-0.20299116
53	0xbd4738f8	-0.048638314
54	0x3de45498	0.111489475
55	0xbe66604b	-0.2249767
56	0xbda9de12	-0.0829431
57	0x3e00e1e9	0.12586178
58	0xbe6396d7	-0.2222551
59	0x3ef334b2	0.4750114
60	0x3da4d448	0.08048302
61	0x3b7d7387	0.0038673596
62	0x3d9b8c12	0.07595076
63	0xbe0eac82	-0.13932994
64	0x3d9a2a0e	0.075275525
65	0x3e74df9e	0.23913428
66	0x3d83eaf7	0.064413
67	0x3e52759e	0.2055268
68	0xbe08d2e2	-0.13361695
69	0x3df1710c	0.1178914
70	0xbe442f72	-0.19158724
71	0xbd845378	-0.06461233
72	0xbe817bc6	-0.25289744
73	0xbc90305e	-0.017601188
74	0xbb153012	-0.0022764248
75	0xbe2d5d81	-0.169302
76	0xbbe2e623	-0.006924407
77	0xbe156abf	-0.14591502
78	0xbed6e479	-0.41971186
79	0x3cdb16bc	0.026744239
80	0xbd72490c	-0.059151694
81	0xbe10e0de	-0.1414828
82	0xbd7e2fe3	-0.062057387
83	0xbe0ec204	-0.13941199
84	0x3e65dce6	0.22447547
85	0xbd01d457	-0.031696644
86	0xbd83034b	-0.063971125
87	0xbe2a7c23	-0.16648917
88	0x3cc935de	0.024561819
89	0xbcb73b5d	-0.022367174
90	0xbe903d2c	-0.2817167
91	0xbd669462	-0.056293853
92	0xbdf2886b	-0.11842426
93	0x3c2373e1	0.009976358
94	0xbd75123c	-0.059831843
95	0xbd97edb3	-0.074183844
96	0xbe01acf8	-0.12663639
97	0xbe4880c3	-0.19580369
98	0x3f37ce5d	0.7179926
99	0x3d56d042	0.052444704
100	0x3ec7bd9f	0.39011857
101	0xbd576f56	-0.052596413
102	0x3dde3dfb	0.108516656
103	0xbe5012ba	-0.20319644
104	0x3d160b16	0.036631666
105	0x3a138236	0.0005627008
106	0x3be06373	0.006847793
107	0x3e2b48b6	0.16726956
108	0x3d51880c	0.051155135
109	0xbdc30c94	-0.095238835
110	0x3d0134e7	0.031544592
111	0x3e88374b	0.26604685
112	0xbe104617	-0.14089237
113	0x3d0dc130	0.034608066
114	0x3ccc5015	0.02494053
115	0x3dbe3ebd	0.0928931
116	0xbe291a22	-0.16513875
117	0xbdc2a840	-0.095047474
118	0x3dfb3e52	0.12267746
119	0x3be91621	0.0071132337
120	0xbe0e8280	-0.1391697
121	0xbc03d0b4	-0.008045364
122	0x3d86e9d1	0.06587566
123	0xbdc7596f	-0.09733855
124	0x3d65f418	0.05614099
125	0xbd28df2b	-0.041228455
126	0xbe1e4c8f	-0.15458892
127	0xbdcd4d61	-0.100245245

fc2.weight f4 [128, 128]
0	0xbe9fdc22	-0.31222636
1	0xbec91f8e	-0.39281887
2	0x3e8a15e8	0.26969838
3	0x3db9fe49	0.09081704
4	0x3ee27e88	0.4423716
5	0xbe2cc584	-0.16872221
6	0xbf280fd3	-0.65649146
7	0x3ece0d65	0.40244594
8	0xbe1ef6b8	-0.15523803
9	0xbeca04a3	-0.39456663
10	0xbde02b69	-0.1094578
11	0xbf1a0fbb	-0.6018025
12	0x3e4782d6	0.19483504
13	0x3ecdd641	0.40202525
14	0xbec35bb0	-0.3815589
15	0xbf0ee159	-0.55812603
16	0xbe94e8d7	-0.29083893
17	0x3d83515d	0.06412003
18	0xbe53a491	-0.20668246
19	0xbc0ff177	-0.008785597
20	0xbf165323	-0.58720607
21	0xbdb1caba	-0.08681245
22	0x3e7936b0	0.24337268
23	0x3eed6f57	0.46374008
24	0x3daeda38	0.08537716
25	0xbf0742de	-0.52836406
26	0x3e095209	0.134102
27	0xbf36cf54	-0.7141011
28	0xbe7d3254	-0.2472623
29	0xbf20ec7a	-0.62860835
30	0xbe26dc5b	-0.16294996
31	0x3ea67840	0.32513618
32	0x3dbe0961	0.09279133
33	0x3f0ee0c2	0.55811703
34	0x3d10dbe5	0.035365958
35	0x3f0b3ec6	0.5439266
36	0x3e85f13c	0.2616061
37	0xbec8c4de	-0.39212698
38	0x3ebf67ba	0.37383825
39	0xbe90000f	-0.28125045
40	0xbf24ed1f	-0.6442432
41	0x3deaed15	0.11471001
42	0x3c868281	0.016419651
43	0x3e981a0b	0.2970737
44	0x3d0d32cf	0.034472283
45	0xbf5c92eb	-0.8616168
46	0xbe6415fc	-0.22274011
47	0xbe3892fa	-0.18024817
48	0x3e821544	0.2540685
49	0x3d4c8436	0.049930774
50	0x3e474d61	0.19463111
51	0x3f000ade	0.5001658
52	0x3e8e819d	0.27833262
53	0x3ef736d3	0.48284015
54	0xbf3baf58	-0.7331443
55	0xbeb7dfaf	-0.35912845
56	0xbec110ac	-0.37708032
57	0x3c748dc0	0.014926374
58	0x3e80c119	0.25147322
59	0xbf1144f7	-0.56745857
60	0x3dfa4a35	0.12221185
61	0xbece69cd	-0.40315095
62	0x3d1c0596	0.038091265
63	0xbf6a45b1	-0.9151259
64	0x3dfdd96b	0.12394985
65	0x3eaaeded	0.33384648
66	0x3eeaa750	0.45830774
67	0x3e2e66b7	0.1703137
68	0xbd5c964a	-0.053854264
69	0xbd1d3b4a	-0.03838662
70	0xbe97f71c	-0.29680717
71	0x3d31dabe	0.0434215
72	0xbf5962c7	-0.8491635
73	0x3eac6c7b	0.33676514
74	0xbf0fd704	-0.5618746
75	0xbf4ec2a7	-0.80765766
76	0xbeef2894	-0.46710646
77	0x3e0e1036	0.13873371
78	0xbea63aa1	-0.32466605
79	0x3e589b55	0.21153004
80	0xbebf8af4	-0.374107
81	0xbf4dae72	-0.8034431
82	0xbce94da2	-0.028479401
83	0xbee560f3	-0.4480053
84	0x3e8d0c61	0.27548507
85	0xbe902322	-0.28151804
86	0xbe74494c	-0.23856086
87	0xbdea4aa0	-0.11440015
88	0xbef56933	-0.47931823
89	0xbd9bd671	-0.07609261
90	0xbf2ce231	-0.6753264
91	0x3e0bf807	0.13668834
92	0xbec98a51	-0.3936334
93	0x3df0e67f	0.11762714
94	0x3e19d9b4	0.15024453
95	0xbefc997f	-0.49335858
96	0x3ecba61f	0.39775178
97	0xbeab3bac	-0.33443964
98	0xbf042618	-0.51620626
99	0xbec26746	-0.37969416
100	0xbec9384f	-0.39300773
101	0xbf03f99d	-0.51552755
102	0xbcb68afd	-0.022283072
103	0x3de20af2	0.11037244
104	0x3e2d7813	0.16940336
105	0x3ed6d8d4	0.41962302
106	0x3d09b1a6	0.033616684
107	0x3e7a0c6b	0.244188
108	0x3d62c40d	0.05536275
109	0xbf06ed89	-0.527062
110	0xbc049587	-0.008092291
111	0x3dd136da	0.1021554
112	0x3e0613c7	0.13093482
113	0xbe11f1a0	-0.14252329
114	0xbed476a2	-0.4149676
115	0xbc8a4627	-0.016879154
116	0x3e0150ef	0.1262853
117	0x3f093d53	0.536092
118	0x3e62fbff	0.22166441
119	0x3faae779	1.335189
120	0xbf953dd9	-1.16595
121	0xbeb7fdb7	-0.35935757
122	0x3f615fd3	0.8803684
123	0x3e4450aa	0.19171396
124	0xbeafcb4a	-0.34334785
125	0x3ed6ac27	0.41928217
126	0xbeeea737	-0.4661195
127	0xbe3a38c1	-0.18185712
128	0xbdcb5d38	-0.099298894
129	0xbd4bb940	-0.049737215
130	0x3d745d4d	0.05965929
131	0x3e82e2d6	0.25563687
132	0xbeaf1a84	-0.34199917
133	0x3e7db476	0.24775872
134	0x3f2689c3	0.6505396
135	0x3ed9099b	0.4239014
136	0x3db09d32	0.086237326
137	0x3ef8524e	0.48500293
138	0x3d7c808d	0.061646033
139	0x3b35629c	0.0027677184
140	0x3da362e9	0.0797785
141	0x3dd21721	0.10258318
142	0x3cee4981	0.029087784
143	0xbf095422	-0.53644
144	0x3cb9291a	0.022602607
145	0x3d2aa167	0.04165783
146	0x3edb6801	0.42852786
147	0x3d4d85d2	0.05017645
148	0x3c0e30e2	0.008678647
149	0xbee96ff6	-0.45593232
150	0xbe20bad3	-0.15696268
151	0xbe8c93b0	-0.27456427
152	0xbd442b76	-0.04789301
153	0x3c9e6304	0.019334324
154	0x3d7073b9	0.05870411
155	0x3e74379a	0.23849335
156	0x3f666d00	0.9001007
157	0x3f7f4a74	0.9972298
158	0xbf0e2391	-0.5552302
159	0xbed88764	-0.42290795
160	0x3f2b7cfb	0.6698758
161	0x3eb77e52	0.35838562
162	0x3e55c323	0.2087522
163	0xbea0e6d4	-0.31426108
164	0x3e99812d	0.29981366
165	0x3e917f83	0.28417596
166	0xbf028172	-0.5097877
167	0xbf71df88	-0.94481707
168	0x3ea4f7e9	0.3222039
169	0x3eb81e26	0.359605
170	0x3ccd9824	0.02509696
171	0xbd8cd85d	-0.068772055
172	0x3e73c407	0.23805247
173	0x3e86511b	0.26233754
174	0x3ef917eb	0.4865106
175	0x3ee53319	0.44765547
176	0x3e05b0e2	0.13055757
177	0x3ebe5a4f	0.37178275
178	0xbcfef6ca	-0.031123538
179	0x3c9e46d0	0.019320875
180	0xbe73eb55	-0.23820241
181	0xbf14a5d8	-0.5806556
182	0x3e21f532	0.15816191
183	0xbf454c69	-0.7706972
184	0xbe04c04a	-0.12963977
185	0x3ec32a61	0.3811827
186	0xbec02fe0	-0.37536526
187	0xbeb7f295	-0.35927263
188	0x3f0c8170	0.54885006
189	0xbed39601	-0.4132538
190	0x3e747334	0.23872072
191	0xbd9ce5ea	-0.0766104
192	0x3e6aa7f4	0.22915632
193	0x3d6dd836	0.058067523
194	0xbdb4aa0b	-0.088214956
195	0x3cc89e63	0.024489587
196	0x3da7004b	0.08154353
197	0x3e29fd24	0.16600472
198	0x3ef68ffd	0.4815673
199	0xbee33221	-0.44374183
200	0x3f16a0a7	0.58838886
201	0xbe52a429	-0.20570435
202	0xbe779c60	-0.24180746
203	0x3f6d78cd	0.9276245
204	0x3f122d0f	0.57100004
205	0xbe904be4	-0.281829
206	0xbd54ca35	-0.051950652
207	0x3e40944b	0.1880657
208	0x3f03ab09	0.51432854
209	0x3f22c5cf	0.6358308
210	0x3f1154e8	0.5677018
211	0x3d222552	0.039586373
212	0xbeaa916e	-0.3331408
213	0xbe9a5884	-0.30145657
214	0x3e08704c	0.13324088
215	0xbf123001	-0.571045
216	0xbf1a8dc2	-0.60372555
217	0x3ed45074	0.4146763
218	0x3daa5357	0.08316677
219	0x3ec0ca34	0.3765427
220	0x3d0ea2a0	0.03482306
221	0xbe7f177a	-0.249113
222	0xbe532be4	-0.20622212
223	0x3e977544	0.29581654
224	0xbe993bd4	-0.29928458
225	0xbdb49905	-0.08818249
226	0x3e1bd48d	0.152178
227	0xbe4509e2	-0.19242051
228	0x3f01e283	0.50736254
229	0x3f106458	0.5640311
230	0xbdc58cee	-0.09646021
231	0xbf043adf	-0.5165233
232	0x3edbea4c	0.42952192
233	0xbe65a90e	-0.2242777
234	0x3f45e2ae	0.7729901
235	0x3e58e5e1	0.21181442
236	0x3db25a0f	0.087085836
237	0x3ea0aef9	0.31383494
238	0x3e731e6e	0.23742077
239	0xbd99c885	-0.07508949
240	0x3f526b4d	0.8219498
241	0xbe80e0a6	-0.25171393
242	0x3d759433	0.059955787
243	0x3e2f32ed	0.1710927
244	0xbea038ec	-0.31293428
245	0x3d9e2de2	0.07723595
246	0x3e7dfad8	0.2480272
247	0xbf479842	-0.779667
248	0x3ebc28dc	0.36749923
249	0x3ec7aa17	0.38996956
250	0xbe8a1e94	-0.26976454
251	0xbeb73a7c	-0.35786808
252	0x3ebc694f	0.36799094
253	0x3e47d008	0.19512951
254	0x3f3fcecc	0.7492492
255	0xbd5b2b5d	-0.05350815

fc2.bias f4 [128]
0	0xbe18fe80	-0.14940834
1	0x3baa5f9b	0.0051993853
2	0xbe3a7d2c	-0.18211812
3	0xbed8bb92	-0.42330605
4	0xbc6ffdc9	-0.014647909
5	0xbdf255d2	-0.11832775
6	0x3debf582	0.11521436
7	0xbe826b51	-0.254725
8	0xbe62112e	-0.22076866
9	0xbd03bfbc	-0.032165274
10	0xbe058b22	-0.13041356
11	0xbbc32c31	-0.0059561958
12	0xbe8b7f4a	-0.2724555
13	0xbed66655	-0.41874948
14	0x3da3a1d5	0.079898514
15	0xbd3da4e9	-0.04629985
16	0x3eb502bf	0.35353658
17	0xbd7ff335	-0.0624878
18	0x3d96fdee	0.07372652
19	0xbde0531e	-0.10953353
20	0xbadde88b	-0.0016930265
21	0xbda66005	-0.08123783
22	0xbd8cb457	-0.068703346
23	0x3cd4a816	0.025959056
24	0xbea1de7c	-0.31615055
25	0xbc8e018c	-0.017334722
26	0xbbdd425d	-0.006752296
27	0x3e0e3db7	0.1389073
28	0x3e9bd1bf	0.3043346
29	0x3e15908f	0.14605926
30	0xbe8111b3	-0.25208816
31	0xbe1568c7	-0.1459075
32	0x3b8ec3b8	0.0043568276
33	0xbd272dc7	-0.04081514
34	0xbda6fba7	-0.081534676
35	0x3c922310	0.017838985
36	0xbe775962	-0.2415519
37	0x3ec2f541	0.3807774
38	0xbe32e634	-0.17470628
39	0xbea484e2	-0.32132632
40	0x3e401a6d	0.1876008
41	0x3e10dee1	0.14147522
42	0xbe936291	-0.28786138
43	0xbf05a0f7	-0.5219874
44	0xbecc2402	-0.39871222
45	0x3ef7dde8	0.4841149
46	0xbc508f70	-0.012729511
47	0x3d5911c6	0.052995466
48	0xbe844bd9	-0.25839117
49	0xbd041eb9	-0.032255862
50	0xbe5f0917	-0.21780811
51	0x3bbf4b58	0.005837839
52	0xbe5cdb5c	-0.21568054
53	0xbd343b2b	-0.04400174
54	0x3dd3236a	0.10309489
55	0xbe916bea	-0.28402644
56	0x3e90815c	0.28223693
57	0x3c9ea493	0.019365584
58	0xbe4c86b5	-0.19973262
59	0xbecdba60	-0.40181255
60	0xbcc380cc	-0.023865126
61	0xbdf1bcc2	-0.11803581
62	0xbe13ebdd	-0.14445443
63	0x3e4cf120	0.20013857
64	0xbe94e573	-0.29081306
65	0x3db2fcd6	0.08739631
66	0x3ea2f2eb	0.31825957
67	0xbe3c526e	-0.1839082
68	0x3d528224	0.051393643
69	0xbeb969bf	-0.3621349
70	0x3e79e23f	0.24402712
71	0x3d3383ed	0.043826986
72	0x3edb5a08	0.42842126
73	0x3dddedce	0.10836373
74	0x3dbe1a99	0.09282417
75	0x3ebd4e08	0.36973596
76	0xbd32d4bf	-0.04365992
77	0xbd9e4ee4	-0.07729891
78	0xbe8e961d	-0.27848902
79	0xbe0a5999	-0.13510741
80	0x3db52ceb	0.08846458
81	0x3ee4ab22	0.44661814
82	0x3de80bef	0.11330401
83	0xbdd290b0	-0.10281503
84	0xbdcb13c3	-0.099158786
85	0xbe11b854	-0.14230472
86	0xbe9fc0cf	-0.3120179
87	0xbe5ace65	-0.21367796
88	0xbea392e0	-0.31947994
89	0xbf111f7d	-0.5668867
90	0x3e938498	0.28812099
91	0x3d1674a6	0.03673234
92	0xbe389b4e	-0.18027994
93	0xbd1d6bb2	-0.038432784
94	0xbe2f8c94	-0.1714347
95	0xbcb57e18	-0.022154853
96	0xbeaee8a3	-0.34161863
97	0xbda35601	-0.07975388
98	0x3d866188	0.06561571
99	0xbc5567a5	-0.013025199
100	0xbe42159d	-0.18953557
101	0x3e53c662	0.20681146
102	0xbcadeb79	-0.021230446
103	0xbdfb0a53	-0.122578286
104	0x3d9ed86c	0.07756123
105	0xbea08d7a	-0.31357938
106	0xbe18e407	-0.14930736
107	0xbdc2cf3b	-0.09512182
108	0xbdb49aa8	-0.08818561
109	0x3d29eb20	0.041484
110	0x3e0f27f7	0.13980089
111	0x3d4da12e	0.05020254
112	0xbdc2dd83	-0.09514906
113	0xbe006a1b	-0.12540476
114	0x3c4b8922	0.012422832
115	0x3d976200	0.07391739
116	0xbe630f6b	-0.2217385
117	0xbd8116d7	-0.063031845
118	0x3d932a35	0.07185785
119	0xbd3b3e62	-0.04571379
120	0x3e3ca91d	0.18423887
121	0x3e08f5db	0.13375036
122	0x3e16936e	0.14704677
123	0xbeab891d	-0.33503047
124	0x3e25fe3a	0.16210261
125	0xbe69d0bf	-0.22833537
126	0xbc0d1418	-0.008610748
127	0x3df002eb	0.117193066

out.weight f4 [5, 128]
0	0x3f91df28	1.1396227
1	0xbea679a4	-0.3251468
2	0xbeceee2e	-0.40416092
3	0x3eecf39b	0.46279606
4	0xbf8d745f	-1.1051139
5	0xbf29cd74	-0.6632912
6	0xbeb3eded	-0.3514246
7	0x3f5475b6	0.8299211
8	0x3f820eff	1.0160826
9	0x3f459d88	0.771935
10	0x3f86cc09	1.0531017
11	0xbf214690	-0.62998295
12	0x3f197993	0.5995113
13	0x3e4afd49	0.19823183
14	0xbf15caa6	-0.5851234
15	0xbf27ab72	-0.6549598
16	0xbf2d6a9b	-0.6774079
17	0x3f564c55	0.83710223
18	0x3f5c20b2	0.8598739
19	0x3f5c39c6	0.86025655
20	0xbd88522a	-0.066562966
21	0x3e1f905e	0.15582415
22	0xbee0dcbc	-0.43918407
23	0x3f39c6b1	0.72568804
24	0x3f73fbdf	0.953062
25	0x3f2df54d	0.67952424
26	0xbf24b1b3	-0.6433365
27	0xbef31d5c	-0.47483337
28	0x3f4a0499	0.78913265
29	0x3ef0f46e	0.47061485
30	0x3ee88cd6	0.4541995
31	0x3f29beb6	0.66306627
32	0x3f5000c2	0.81251156
33	0x3f3bb3f1	0.73321444
34	0x3f13bf8f	0.5771417
35	0x3f2d61d3	0.6772739
36	0x3f3f25de	0.74667156
37	0xbf00f27f	-0.5037002
38	0x3e860037	0.2617204
39	0x3f288b37	0.65837425
40	0xbcad647d	-0.02116608
41	0xbf120ee7	-0.5705399
42	0x3ea88ea4	0.32921326
43	0x3f4e677e	0.80626667
44	0x3f36206c	0.7114322
45	0xbe52d8df	-0.20590542
46	0xbe7f2e6c	-0.24920052
47	0x3e142462	0.14467004
48	0x3f0e3888	0.5555501
49	0x3f65198e	0.8949212
50	0x3f596dc3	0.8493311
51	0xbf1ca288	-0.61185503
52	0xbf3a3eb0	-0.72751904
53	0x3f650dee	0.8947438
54	0xbead5ba2	-0.33858973
55	0x3f3b6be7	0.7321152
56	0x3f77535e	0.96611583
57	0xbec606be	-0.3867702
58	0x3f6a454e	0.91512
59	0x3f261e99	0.6489044
60	0xbf3092d1	-0.68974024
61	0x3f86c3bf	1.0528487
62	0x3f732d7b	0.9499127
63	0xbe4e69f9	-0.20157613
64	0x3f49cccb	0.78828114
65	0xbe754792	-0.23953083
66	0xbf1c37d4	-0.61022687
67	0xbf267b4a	-0.65031874
68	0x3f6b1597	0.9182982
69	0x3f114b58	0.5675559
70	0x3f27b463	0.65509623
71	0x3f3326b5	0.6998094
72	0x3f6004c7	0.8750729
73	0x3f5fd028	0.87426996
74	0x3f4a7b8c	0.7909477
75	0xbd9f84de	-0.07789014
76	0xbe39b5b5	-0.18135722
77	0x3f850a38	1.0393744
78	0x3f2fa4a5	0.686106
79	0x3f623700	0.88365173
80	0xbe798938	-0.24368751
81	0x3f518027	0.8183617
82	0x3f86c001	1.0527345
83	0x3f57b577	0.8426127
84	0x3f1b58a5	0.60682136
85	0x3f28e062	0.6596738
86	0x3f3f3e44	0.74704385
87	0x3efdf3cb	0.49600062
88	0x3f425b2e	0.7592038
89	0x3f18ccf6	0.59687746
90	0xbe68ed89	-0.22746862
91	0x3f6c259f	0.92244905
92	0x3f93d54e	1.154947
93	0xbf51db2c	-0.81975055
94	0x3ea4e49b	0.32205662
95	0xbeb9f7da	-0.36321908
96	0x3e63dd9c	0.22252506
97	0x3f28bbb5	0.6591142
98	0xbecfe712	-0.4060598
99	0x3f3fe621	0.74960524
100	0x3f9b9779	1.2155601
101	0x3f55857e	0.8340682
102	0xbec52a33	-0.38508758
103	0xbf376f65	-0.7165435
104	0xbf1a1c4e	-0.6019944
105	0xbf20f104	-0.6286776
106	0xbeab5fee	-0.33471626
107	0x3f3b6dca	0.732144
108	0xbefca67d	-0.4934577
109	0xbef1d04c	-0.4722923
110	0xbecd7dcf	-0.40135047
111	0x3f2cae51	0.67453486
112	0x3f733277	0.9499888
113	0xbf3e3559	-0.7430015
114	0xbe6bed3c	-0.23039716
115	0xbef1bec2	-0.4721585
116	0x3f5bb81e	0.85827816
117	0xbf4fc25d	-0.8115595
118	0xbeba5632	-0.36393887
119	0xbf21c67f	-0.63193506
120	0xbed063ee	-0.4070124
121	0x3bf1c1a5	0.0073778206
122	0xbe9dc922	-0.30817515
123	0x3f3d5134	0.7395203
124	0x3f857a7a	1.0428002
125	0x3f3a2a2a	0.7272059
126	0x3f4b6f77	0.79466957
127	0x3fa05241	1.2525102
128	0x3f17075a	0.5899559
129	0xbf6a722b	-0.91580456
130	0xbf04c93b	-0.51869553
131	0x3e3ada20	0.1824727
132	0xbf597cd0	-0.84956074
133	0xbf070599	-0.52742916
134	0xbef9431b	-0.4868401
135	0x3efab6df	0.48967645
136	0x3f20e088	0.6284261
137	0x3f13b997	0.5770506
138	0x3f0c788b	0.54871434
139	0xbf124fca	-0.57153
140	0x3eebd462	0.46060473
141	0xbda03dc8	-0.07824284
142	0xbf1dd72c	-0.6165645
143	0xbf4e5e40	-0.80612564
144	0xbf03d7d4	-0.515012
145	0x3f3869e6	0.7203659
146	0x3f3d9a30	0.74063396
147	0x3ebf357d	0.37345496
148	0xbf09e9f8	-0.53872633
149	0x3f078689	0.5293966
150	0xbf16255d	-0.5865076
151	0x3ee28d26	0.44248313
152	0x3f098ae5	0.5372756
153	0x3f327c67	0.6972107
154	0xbf5a68bc	-0.8531606
155	0xbf04f977	-0.51943153
156	0x3f63f1fb	0.8904111
157	0x3ee17eee	0.44042152
158	0x3ee759ba	0.45185643
159	0x3f0fc18f	0.5615472
160	0x3f391b45	0.72307235
161	0x3f06e684	0.5269549
162	0x3ed78d6d	0.42100087
163	0x3efbb334	0.4916016
164	0x3f0bcf8b	0.5461356
165	0xbedd36f0	-0.43205976
166	0x3da20044	0.07910207
167	0x3fa48e59	1.2855941
168	0xbe91d89d	-0.28485575
169	0xbf19c566	-0.6006683
170	0x3ea045a6	0.31303138
171	0x3ea8ec74	0.329929
172	0x3f08e40b	0.53472966
173	0x3e6334c6	0.221881
174	0xbf0aa240	-0.54153824
175	0xbeb91191	-0.36146215
176	0x3efcf639	0.49406603
177	0x3f1dcc16	0.61639535
178	0x3f23d623	0.6399862
179	0xbef39b52	-0.47579437
180	0xbf4eaf4e	-0.80736244
181	0x3f173850	0.590703
182	0xbf190c32	-0.59784234
183	0x3ef38e8a	0.47569686
184	0x3ee77e59	0.45213583
185	0xbf6a95cf	-0.9163484
186	0x3f194a08	0.5987859
187	0x3f086435	0.53277904
188	0xbf036e08	-0.5133977
189	0x3eeec82e	0.466371
190	0x3f1096d5	0.5648015
191	0xbed9c26d	-0.42531148
192	0x3f1375a6	0.5760139
193	0xbe5bc1af	-0.21460603
194	0xbf1639b4	-0.586818
195	0xbed98911	-0.42487386
196	0x3f0844cc	0.53229976
197	0x3e44ca42	0.1921778
198	0x3f1faa3b	0.62369126
199	0x3f5a858c	0.85360026
200	0x3f26eea0	0.6520786
201	0x3f5fb26e	0.8738164
202	0x3ef1b432	0.4720779
203	0x3d06540c	0.032794997
204	0xbf26ed8f	-0.65206236
205	0x3f230a3c	0.6368749
206	0x3d576199	0.05258331
207	0x3ef7dd31	0.48410943
208	0xbf4cf15e	-0.800558
209	0x3f33d2ac	0.70243335
210	0x3f25cd86	0.6476673
211	0x3f22fb0a	0.63664305
212	0x3ee11b6b	0.4396623
213	0x3ed56648	0.41679597
214	0x3efe6bbe	0.49691576
215	0x3ebf29a9	0.37336472
216	0x3e0f91e5	0.14020498
217	0x3d7964d6	0.06088718
218	0xbecb9be6	-0.3976738
219	0x3f139efe	0.5766448
220	0x3ec59e05	0.38597122
221	0xbf6e2fa9	-0.93041474
222	0x3f0d07f5	0.55090266
223	0xbf329555	-0.6975911
224	0xbeb54bc6	-0.35409373
225	0x3f2c09db	0.6720254
226	0xbf5918f3	-0.84803694
227	0x3f58ee5f	0.84738725
228	0x3e8fe844	0.28106892
229	0x3ec5373d	0.38518706
230	0xbf33003b	-0.69922227
231	0xbf2995a4	-0.6624396
232	0xbf8a1089	-1.0786296
233	0xbf2dc194	-0.678735
234	0xbf269796	-0.6507505
235	0x3f061300	0.5237274
236	0xbf1842fb	-0.59477204
237	0xbf64e111	-0.89405924
238	0xbe95c148	-0.29249024
239	0x3f17264d	0.5904282
240	0x3edcc5d9	0.43119696
241	0xbf0b4d83	-0.5441515
242	0xbf3ab768	-0.72936106
243	0xbf16208d	-0.5864342
244	0x3eec8702	0.46196753
245	0xbf12ca65	-0.5734008
246	0xbeeb53d6	-0.459624
247	0xbe3cd817	-0.18441807
248	0x3e14e568	0.14540637
249	0xbf13e2d0	-0.57767963
250	0xbef817e2	-0.4845572
251	0x3ec47b2b	0.3837522
252	0x3f2ac198	0.6670165
253	0x3d9ec845	0.07753042
254	0x3ea4358d	0.32072106
255	0x3eed647e	0.46365732

out.bias f4 [5]
0	0xbfd83c51	-1.6893407
1	0x3fc5fc42	1.5467608
2	0x3fc4217c	1.5322719
3	0xbea2e669	-0.31816414
4	0xbf2d5fcf	-0.6772432

exp_avg_sq f4 [128, 28]
0	0x46f97437	31930.107
1	0x4627f18a	10748.385
2	0x45a8c9b0	5401.211
3	0x456962bc	3734.171
4	0x4541549c	3093.288
5	0x453eb206	3051.1265
6	0x455f46dc	3572.4287
7	0x4596a212	4820.259
8	0x45ffa2f1	8180.3677
9	0x46b05e73	22575.225
10	0x474bc31a	52163.1
11	0x45f256e0	7754.8594
12	0x4579aaed	3994.6829
13	0x45b33f26	5735.8936
14	0x462f848b	11233.136
15	0x470e4edd	36430.863
16	0x474c0248	52226.28
17	0x45c5f859	6335.0435
18	0x444440c4	785.01196
19	0x43af0034	350.0016
20	0x43a4a328	329.27466
21	0x446b54d8	941.3257
22	0x46cdecc1	26358.377
23	0x46fa40b3	32032.35
24	0x440785a5	542.0882
25	0x471a12da	39442.85
26	0x43639375	227.576
27	0x49ea3c77	1.9188629e+06
28	0x469a562d	19755.088
29	0x4607ccc5	8691.192
30	0x45ba924e	5970.288
31	0x45afadd4	5621.7285
32	0x469676c9	19259.393
33	0x4859bf2e	222972.72
34	0x47cebafc	105845.97
35	0x472eec1e	44780.117
36	0x47951a39	76340.445
37	0x476c7f76	60543.46
38	0x47889930	69938.375
39	0x48423722	198876.53
40	0x47dee134	114114.41
41	0x47838c58	67352.69
42	0x4723f0d1	41968.816
43	0x4700e1c3	32993.76
44	0x46eedac7	30573.389
45	0x46fe31fc	32536.992
46	0x47243c36	42044.21
47	0x4787b791	69487.13
48	0x482a982c	174688.69
49	0x49038f85	538872.3
50	0x48ba8a5e	382034.94
51	0x469cbdc9	20062.893
52	0x46039895	8422.1455
53	0x49febbf5	2.0867826e+06
54	0x44d81a97	1728.8309
55	0x4a8154e0	4.237936e+06
56	0x3f93de5d	1.1552235
57	0x406b1dfd	3.6737053
58	0x422f241a	43.785255
59	0x42b3b546	89.85405
60	0x427edf43	63.71803
61	0x41d310e9	26.383257
62	0x4172451f	15.141875
63	0x415f0653	13.939044
64	0x4190d908	18.105972
65	0x42327993	44.618725
66	0x41998c47	19.193495
67	0x419c64d2	19.549229
68	0x41fdb327	31.712477
69	0x426029c7	56.0408
70	0x42673aec	57.80754
71	0x4247ddcd	49.966602
72	0x40a472e6	5.1390257
73	0x3faa62b0	1.3311367
74	0x3f59b88a	0.8504721
75	0x3f3e2733	0.74278563
76	0x3f485b39	0.78264195
77	0x3f5777af	0.84167
78	0x3f393ae3	0.7235548
79	0x3f9424fc	1.1573787
80	0x4075b45a	3.8391328
81	0x43b64bb1	364.59134
82	0x3efa5831	0.4889541
83	0x45bcdf3e	6043.9053
84	0x47496d9b	51565.605
85	0x4675573d	15701.81
86	0x463c7e8c	12063.637
87	0x468a861c	17731.055
88	0x490aa127	567826.44
89	0x4992f243	1.2037844e+06
90	0x4904f9c9	544668.56
91	0x4860550d	229716.2
92	0x4881c99d	265804.9
93	0x484f83b6	212494.84
94	0x492c5de6	706014.4
95	0x49648cef	936142.94
96	0x48d59b17	437464.72
97	0x4866ea1b	236456.42
98	0x48133ae7	150763.61
99	0x47e4111d	116770.23
100	0x47d61320	109606.25
101	0x47e8abfb	119127.96
102	0x48184201	155912.02
103	0x48800396	262172.7
104	0x49275f6e	685558.9
105	0x49ded88c	1.8255535e+06
106	0x498c997c	1.1517915e+06
107	0x474b4778	52039.47
108	0x4724b822	42168.133
109	0x4ac0207c	6.295614e+06
110	0x45d4de71	6811.805
111	0x4b56c98e	1.4076302e+07
112	0x435dc8e5	221.78474
113	0x42fb39f3	125.61318
114	0x42ce245e	103.07103
115	0x42b55e82	90.684586
116	0x42bfdd42	95.932144
117	0x42fffe3b	127.996544
118	0x433c503b	188.3134
119	0x43ed8b87	475.09006
120	0x44f0eae1	1927.34
121	0x4538bee6	2955.9312
122	0x452e65cc	2790.3623
123	0x44c33f95	1561.9869
124	0x44708f68	962.2407
125	0x450222d5	2082.177
126	0x4568a642	3722.391
127	0x453392f4	2873.1846
128	0x4338af77	184.68541
129	0x4321ef8f	161.93578
130	0x437847a2	248.27982
131	0x444f0b83	828.1799
132	0x452092bc	2569.171
133	0x45383374	2947.2158
134	0x44a78075	1340.0143
135	0x435d155a	221.0834
136	0x433e16ed	190.08955
137	0x453b30a1	2995.0393
138	0x424fc256	51.93978
139	0x474551f7	50513.965
140	0x41bb4b35	23.411722
141	0x4168abeb	14.541972
142	0x41983b82	19.029057
143	0x41c8dc09	25.107439
144	0x42a52651	82.57484
145	0x42d8d1b2	108.40956
146	0x43e3e6fe	455.80463
147	0x4414b935	594.89386
148	0x43d7503a	430.62677
149	0x43d29471	421.1597
150	0x43b377d2	358.9361
151	0x439b9cc5	311.22476
152	0x4364a770	228.65405
153	0x432f603f	175.37596
154	0x433a4da1	186.30324
155	0x438cf60e	281.9223
156	0x43c31446	390.1584
157	0x43f651c1	492.6387
158	0x441dc131	631.0186
159	0x448998b3	1100.7719
160	0x44a12c37	1289.3817
161	0x4481e624	1039.1919
162	0x42bbb721	93.85767
163	0x41b85d8b	23.045675
164	0x42e5bcc0	114.86865
165	0x46081eec	8711.73
166	0x4117c6b1	9.486009
167	0x461b4033	9936.05
168	0x33c49e39	9.155742e-08
169	0x33deca1c	1.0374444e-07
170	0x342b895c	1.5975587e-07
171	0x34e16012	4.1979416e-07
172	0x3584530b	9.858935e-07
173	0x35023a8b	4.8513965e-07
174	0x36c07cc6	5.7365714e-06
175	0x36d7c9d9	6.4309975e-06
176	0x3666e1e3	3.4404154e-06
177	0x36065b48	2.0020689e-06
178	0x35d7a44e	1.6066567e-06
179	0x35cc58e2	1.5225053e-06
180	0x35b1f461	1.3258651e-06
181	0x35bf2d36	1.4243767e-06
182	0x3605a6b0	1.991557e-06
183	0x366fa045	3.5707064e-06
184	0x37308f03	1.0523715e-05
185	0x37c068ba	2.293695e-05
186	0x34e71969	4.304559e-07
187	0x338126ff	6.014124e-08
188	0x3458428f	2.0140781e-07
189	0x341a3995	1.4363316e-07
190	0x33ea7617	1.09179545e-07
191	0x33d2eae2	9.821612e-08
192	0x35ee0547	1.7733918e-06
193	0x388c620d	6.6939836e-05
194	0x332edd4f	4.071381e-08
195	0x3a370ea4	0.00069830776
196	0x399b3ac4	0.00029607688
197	0x3a844afe	0.001009315
198	0x3c0e9ebf	0.00870484
199	0x3c1baee3	0.009502145
200	0x3c047815	0.00808527
201	0x3b85e991	0.004086681
202	0x3b140b32	0.002258968
203	0x3af63e48	0.0018786872
204	0x3ade0332	0.0016938208
205	0x3af28482	0.0018502625
206	0x3b19adbf	0.0023449508
207	0x3b7c93b2	0.0038540182
208	0x3c1ab179	0.009441727
209	0x3cd9282c	0.026508413
210	0x3c2ac363	0.01042256
211	0x3a51f1f4	0.0008008771
212	0x39f7478d	0.0004716482
213	0x3a19f855	0.0005873491
214	0x38f61e90	0.00011735887
215	0x38ca4448	9.644829e-05
216	0x38c808cf	9.538384e-05
217	0x3901c97f	0.00012377462
218	0x3927083d	0.0001592943
219	0x39a26b77	0.00030979115
220	0x3ab07a1d	0.0013464127
221	0x3d98bd1a	0.07457943
222	0x38b4e6ff	8.626095e-05
223	0x3f948575	1.1603228
224	0x461a4c65	9875.099
225	0x45f59c79	7859.559
226	0x45afd85b	5627.0444
227	0x4558c45b	3468.2722
228	0x451d51ef	2517.1208
229	0x450bfcba	2239.7954
230	0x44d715f0	1720.6855
231	0x44e0eee0	1799.4648
232	0x4554cd53	3404.8328
233	0x45a04d76	5129.6826
234	0x45ef9e89	7667.817
235	0x45e45da3	7307.7046
236	0x45b63b1d	5831.389
237	0x45ab2469	5476.5513
238	0x4599693a	4909.1533
239	0x453a8a2c	2984.6357
240	0x44e66fbd	1843.4918
241	0x44b3d8b0	1438.7715
242	0x44dda33e	1773.1013
243	0x45335db3	2869.8562
244	0x458a3ab3	4423.3374
245	0x4603f1c9	8444.446
246	0x464eb394	13228.895
247	0x461a69c8	9882.445
248	0x43e8cc39	465.5955
249	0x4793000e	75264.11
250	0x43a3c599	327.54373
251	0x48c45f32	402169.56
252	0x352b6885	6.385456e-07
253	0x351b3c82	5.783005e-07
254	0x35259796	6.1687876e-07
255	0x352a0bc6	6.334707e-07

exp_avg f4 [128, 28]
0	0x00000004	6e-45
1	0x00000004	6e-45
2	0x00000004	6e-45
3	0x00000004	6e-45
4	0x00000004	6e-45
5	0x00000004	6e-45
6	0x00000004	6e-45
7	0x00000004	6e-45
8	0x00000004	6e-45
9	0x00000004	6e-45
10	0x00000004	6e-45
11	0x00000004	6e-45
12	0x00000004	6e-45
13	0x00000004	6e-45
14	0x00000004	6e-45
15	0x00000004	6e-45
16	0x00000004	6e-45
17	0x00000004	6e-45
18	0x00000004	6e-45
19	0x00000004	6e-45
20	0x00000004	6e-45
21	0x00000004	6e-45
22	0x00000004	6e-45
23	0x00000004	6e-45
24	0x80000004	-6e-45
25	0x00000004	6e-45
26	0x00000004	6e-45
27	0x00000004	6e-45
28	0xc1ed27fa	-29.64452
29	0xc173a25f	-15.227141
30	0xc13e817d	-11.906613
31	0xc0a4383e	-5.1318655
32	0xc11922c2	-9.570986
33	0xc32ddd93	-173.86552
34	0xc2c9380a	-100.60945
35	0xc29af964	-77.48709
36	0xc18ee1a9	-17.860186
37	0xc1dfd737	-27.980085
38	0xc25d888d	-55.38335
39	0xc23e3c22	-47.558723
40	0xc23cda04	-47.212906
41	0xc1f0d0d5	-30.101969
42	0xc200f998	-32.243744
43	0xc20277ac	-32.616867
44	0xc1ca9181	-25.321047
45	0xc1efb988	-29.965591
46	0xc21a8baf	-38.63641
47	0xc26ef085	-59.734882
48	0xc2c9dbea	-100.92952
49	0xc312360a	-146.21109
50	0xc240308c	-48.04741
51	0xc1ebb60b	-29.463888
52	0xc0a30a84	-5.0950336
53	0xc39644bb	-300.53696
54	0xc11916c0	-9.568054
55	0xc3561a07	-214.10167
56	0x00000004	6e-45
57	0x00000004	6e-45
58	0x00000004	6e-45
59	0x00000004	6e-45
60	0x00000004	6e-45
61	0x00000004	6e-45
62	0x00000004	6e-45
63	0x00000004	6e-45
64	0x00000004	6e-45
65	0x00000004	6e-45
66	0x00000004	6e-45
67	0x00000004	6e-45
68	0x00000004	6e-45
69	0x00000004	6e-45
70	0x00000004	6e-45
71	0x00000004	6e-45
72	0x00000004	6e-45
73	0x00000004	6e-45
74	0x00000004	6e-45
75	0x00000004	6e-45
76	0x00000004	6e-45
77	0x00000004	6e-45
78	0x00000004	6e-45
79	0x00000004	6e-45
80	0x00000004	6e-45
81	0x00000004	6e-45
82	0x00000004	6e-45
83	0x00000004	6e-45
84	0x4199c02e	19.218838
85	0x41884e60	17.038269
86	0x4176f3a7	15.434485
87	0x41417f6b	12.093608
88	0x41e2a265	28.329294
89	0x4376b0e2	246.69095
90	0x43033ba1	131.23293
91	0x42a30e8d	81.52842
92	0xc2223465	-40.551167
93	0xc0a7238c	-5.223089
94	0x424f764e	51.865532
95	0x42500a6a	52.01017
96	0x4236797c	45.618637
97	0x410c6f0e	8.777113
98	0x41a0fa03	20.122076
99	0x40ccad59	6.3961606
100	0x40fe9ef0	7.9569016
101	0x418b8358	17.439133
102	0x41dbf67f	27.49536
103	0x420602ac	33.50261
104	0x429db060	78.84448
105	0x42b2b849	89.35993
106	0xc298cf57	-76.40496
107	0x41947fb8	18.562363
108	0xc16cfd80	-14.81189
109	0x42f460ee	122.189316
110	0x413f563c	11.958553
111	0x42628fd3	56.640453
112	0x3fd127d3	1.6340278
113	0x3f89d77d	1.0768887
114	0x3f645680	0.8919449
115	0x3f45b4e3	0.77229136
116	0x3f300d10	0.6876993
117	0x3f2d8a8f	0.6778955
118	0x3f206cb0	0.62665844
119	0x3eaa6fc9	0.3328841
120	0x3f689084	0.90845513
121	0x410ef1ec	8.934063
122	0x3fab1029	1.3364307
123	0x3f4d9fbc	0.8032186
124	0x3f16ebab	0.5895335
125	0xbeda4623	-0.42631635
126	0x40b82418	5.754406
127	0x411d4a5e	9.830656
128	0x3fbcde6c	1.4755378
129	0x3f19d366	0.60088193
130	0x3f1eed1d	0.62080556
131	0x3f9a7f1d	1.2070042
132	0x3f6d2153	0.92628974
133	0x40c66c0c	6.2006893
134	0x40470fa2	3.1103292
135	0x3fcbdada	1.5926163
136	0xbf04a1c5	-0.5180934
137	0x4082b3bd	4.0844407
138	0x3f3bb6c1	0.73325735
139	0x420bfabf	34.99487
140	0x00000004	6e-45
141	0x00000004	6e-45
142	0x00000004	6e-45
143	0x80000004	-6e-45
144	0x80000004	-6e-45
145	0x00000004	6e-45
146	0x80000004	-6e-45
147	0x00000004	6e-45
148	0x00000004	6e-45
149	0x00000004	6e-45
150	0x00000004	6e-45
151	0x00000004	6e-45
152	0x00000004	6e-45
153	0x80000004	-6e-45
154	0x80000004	-6e-45
155	0x80000004	-6e-45
156	0x80000004	-6e-45
157	0x80000004	-6e-45
158	0x00000004	6e-45
159	0x00000004	6e-45
160	0x00000004	6e-45
161	0x00000004	6e-45
162	0x00000004	6e-45
163	0x00000004	6e-45
164	0x00000004	6e-45
165	0x00000004	6e-45
166	0x00000004	6e-45
167	0x00000004	6e-45
168	0x00000004	6e-45
169	0x00000004	6e-45
170	0x00000004	6e-45
171	0x00000004	6e-45
172	0x00000004	6e-45
173	0x00000004	6e-45
174	0x00000004	6e-45
175	0x00000004	6e-45
176	0x00000004	6e-45
177	0x00000004	6e-45
178	0x00000004	6e-45
179	0x00000004	6e-45
180	0x00000004	6e-45
181	0x00000004	6e-45
182	0x00000004	6e-45
183	0x00000004	6e-45
184	0x00000004	6e-45
185	0x00000004	6e-45
186	0x00000004	6e-45
187	0x00000004	6e-45
188	0x00000004	6e-45
189	0x00000004	6e-45
190	0x00000004	6e-45
191	0x00000004	6e-45
192	0x80000004	-6e-45
193	0x00000004	6e-45
194	0x00000004	6e-45
195	0x00000004	6e-45
196	0x00000004	6e-45
197	0x00000004	6e-45
198	0x00000004	6e-45
199	0x00000004	6e-45
200	0x00000004	6e-45
201	0x00000004	6e-45
202	0x00000004	6e-45
203	0x00000004	6e-45
204	0x00000004	6e-45
205	0x00000004	6e-45
206	0x00000004	6e-45
207	0x00000004	6e-45
208	0x00000004	6e-45
209	0x00000004	6e-45
210	0x00000004	6e-45
211	0x00000004	6e-45
212	0x00000004	6e-45
213	0x00000004	6e-45
214	0x00000004	6e-45
215	0x00000004	6e-45
216	0x00000004	6e-45
217	0x00000004	6e-45
218	0x00000004	6e-45
219	0x00000004	6e-45
220	0x80000004	-6e-45
221	0x00000004	6e-45
222	0x00000004	6e-45
223	0x00000004	6e-45
224	0xc010545e	-2.2551494
225	0x402e011d	2.718818
226	0x3f2ddab4	0.6791184
227	0x4109e028	8.617226
228	0x4033ded5	2.8104756
229	0x3dcd5fea	0.1002806
230	0xc093de14	-4.620859
231	0xc0a52fc5	-5.1620812
232	0x40578d59	3.3680022
233	0x40bfeb7e	5.9974966
234	0x4182aaee	16.333462
235	0x4142cae6	12.174536
236	0x4118a7a0	9.540924
237	0x414e28ca	12.884958
238	0x40c86de3	6.263414
239	0xbf5efaae	-0.87101257
240	0x409debd8	4.9350395
241	0x40eec802	7.461915
242	0x4086a207	4.2072787
243	0xbfccc42c	-1.5997367
244	0x413e3968	11.889015
245	0x4104cd34	8.300098
246	0x41eddfaa	29.734211
247	0xc0086962	-2.131432
248	0x400e09ce	2.2193484
249	0x4204e801	33.226566
250	0x3f93d0da	1.1548111
251	0xc2987ac4	-76.23978
252	0x00000004	6e-45
253	0x00000004	6e-45
254	0x00000004	6e-45
255	0x00000004	6e-45

exp_avg_sq f4 [5, 128]
0	0x437636f2	246.21463
1	0x421f6da2	39.857063
2	0x422b59c9	42.83768
3	0x429efa32	79.48866
4	0x431c9b83	156.60747
5	0x435e1402	222.07816
6	0x42478498	49.879486
7	0x439c5867	312.69064
8	0x4392e745	293.8068
9	0x431b28c4	155.15924
10	0x43a76717	334.8054
11	0x4295dd9e	74.932846
12	0x4304548b	132.33025
13	0x42239244	40.892838
14	0x427ebbaf	63.683285
15	0x42b01ef8	88.060486
16	0x42abdd27	85.93194
17	0x431a81b4	154.50665
18	0x4311236d	145.13838
19	0x4366bf55	230.74739
20	0x4204950b	33.14555
21	0x421ecc8d	39.699757
22	0x425e6047	55.59402
23	0x42fb55db	125.66769
24	0x430cc4a5	140.76814
25	0x43671ddb	231.11662
26	0x4305bc0d	133.73457
27	0x428c13e6	70.038864
28	0x4292984f	73.29748
29	0x42650ca3	57.26234
30	0x41ebec26	29.490307
31	0x431f9826	159.59433
32	0x437b6e40	251.43066
33	0x433118a3	177.09624
34	0x431726d7	151.15172
35	0x43364a24	182.28961
36	0x434e3da7	206.24083
37	0x42a104a6	80.50908
38	0x4238d977	46.212368
39	0x42660ce6	57.512596
40	0x41c58859	24.691576
41	0x42ea4785	117.13969
42	0x41c86a84	25.05201
43	0x43597a70	217.47827
44	0x42d13e37	104.62151
45	0x429e3619	79.10566
46	0x41bcf050	23.61734
47	0x410910b6	8.56658
48	0x4267f914	57.99324
49	0x4366b9f6	230.72641
50	0x4322d1d5	162.81966
51	0x428ef075	71.46964
52	0x4324e07f	164.87694
53	0x42fd296f	126.580925
54	0x42c18350	96.75647
55	0x42aeb2c5	87.34916
56	0x439fa3b9	319.27908
57	0x42248bdb	41.136578
58	0x4376b7f3	246.71855
59	0x42f5fe1d	122.996315
60	0x43022fc6	130.18661
61	0x43d06f6d	416.8705
62	0x4374dff1	244.87477
63	0x421f3ae1	39.8075
64	0x435683c2	214.51468
65	0x42036296	32.846275
66	0x42d1a34c	104.81894
67	0x424d9428	51.394684
68	0x43940c78	296.0974
69	0x425fe213	55.970776
70	0x43771f40	247.12207
71	0x428f9c3b	71.80514
72	0x41bcdce8	23.607864
73	0x42f81f55	124.061195
74	0x43c0e3a9	385.7786
75	0x42466b31	49.60468
76	0x4211c39d	36.44103
77	0x4341c01d	193.75044
78	0x430a003a	138.00089
79	0x42ecf804	118.484406
80	0x42465650	49.58429
81	0x43207d1b	160.4887
82	0x4391b252	291.39313
83	0x43637f4d	227.49727
84	0x4375b117	245.69176
85	0x4206ece4	33.73134
86	0x430f2361	143.1382
87	0x426773d5	57.863117
88	0x42d5dcda	106.93135
89	0x425bc0e6	54.938377
90	0x41909262	18.071476
91	0x43540954	212.03644
92	0x43e6cfb7	461.62277
93	0x436727ea	231.15591
94	0x42d7e908	107.95514
95	0x425cacc7	55.168728
96	0x428146a1	64.63795
97	0x4315414a	149.25504
98	0x4272580f	60.585995
99	0x430be293	139.88506
100	0x43eb423b	470.51743
101	0x4369f1b5	233.94417
102	0x42967849	75.23493
103	0x4344eeb9	196.93251
104	0x42024052	32.562813
105	0x425c3bd0	55.05841
106	0x42b99faf	92.81188
107	0x433b6ad7	187.41734
108	0x42ca639d	101.19456
109	0x422d13ff	43.269527
110	0x42ba27ac	93.077484
111	0x432446b6	164.27621
112	0x4330e2b2	176.88553
113	0x434220bc	194.12787
114	0x41f99ca6	31.201488
115	0x42b258ab	89.17318
116	0x432cf6a8	172.9635
117	0x4360be9b	224.74455
118	0x4251f46a	52.488686
119	0x42a70450	83.50842
120	0x42bc8b75	94.27238
121	0x4145ca19	12.36184
122	0x4295c1a9	74.87824
123	0x4317b0a6	151.69003
124	0x43a0ae25	321.3605
125	0x42701b28	60.02652
126	0x43a5319d	330.3876
127	0x434dfad3	205.97978
128	0x450c2f22	2242.9458
129	0x43fe9969	509.19852
130	0x43a59beb	331.2181
131	0x43886500	272.78906
132	0x447f4d75	1021.21027
133	0x444f392f	828.8935
134	0x42d06913	104.20522
135	0x44e4719c	1827.5503
136	0x45180352	2432.2075
137	0x44d63d55	1713.9166
138	0x44d4c18f	1702.0487
139	0x4406c47b	539.07
140	0x44898647	1100.1962
141	0x433dc709	189.77748
142	0x440cd4db	563.32587
143	0x4488ec4c	1095.3843
144	0x442d0840	692.1289
145	0x450c074f	2240.4568
146	0x4514e55f	2382.3357
147	0x44b7fc46	1471.8835
148	0x43f07db7	480.98215
149	0x445efd9d	891.9627
150	0x43b95cc1	370.72464
151	0x43c29721	389.1807
152	0x44ceee1f	1655.4413
153	0x451be574	2494.3408
154	0x44827f5e	1043.9802
155	0x42d2c7ba	105.39009
156	0x448e143c	1136.6323
157	0x4434c435	723.06573
158	0x43d837aa	432.43488
159	0x449cf1f7	1255.5614
160	0x4524bfb9	2635.9827
161	0x44b46da9	1443.4269
162	0x44cc95c0	1636.6797
163	0x440fe7c6	575.62146
164	0x444ba4a3	814.57245
165	0x43db231f	438.27438
166	0x42a93439	84.602
167	0x44261c8f	664.4462
168	0x437c3e61	252.24367
169	0x44050a3b	532.15985
170	0x43c724fa	398.28888
171	0x44800e00	1024.4375
172	0x44c2f130	1559.5371
173	0x436709ce	231.0383
174	0x43843932	264.44684
175	0x437eae43	254.68071
176	0x44841c0f	1056.8768
177	0x44f923e5	1993.1217
178	0x4499d402	1230.6252
179	0x43b06cd8	352.85034
180	0x4491e2df	1167.0897
181	0x4474f6bd	979.8553
182	0x43d74797	430.5593
183	0x44b3211f	1433.035
184	0x44e23b39	1809.8507
185	0x43e3c1b7	455.5134
186	0x45158828	2392.5098
187	0x44a00f5b	1280.4799
188	0x43c91748	402.1819
189	0x4521ea15	2590.6301
190	0x45052ca7	2130.7908
191	0x431c0bbc	156.04584
192	0x44d0ba2a	1669.8176
193	0x42f2b867	121.36016
194	0x4423f37d	655.8045
195	0x433679b1	182.47536
196	0x44cc5a35	1634.819
197	0x43d42b71	424.3394
198	0x44c04da6	1538.4265
199	0x43a123e3	322.28036
200	0x443d389b	756.88446
201	0x447dda51	1015.4112
202	0x4493778a	1179.7356
203	0x42d4c1ed	106.37876
204	0x43b42c05	360.3439
205	0x44c53bb2	1577.8655
206	0x4362ba3c	226.72748
207	0x44bccea4	1510.4575
208	0x441192b2	582.2921
209	0x44b7e0d6	1471.0261
210	0x44fc737f	2019.6093
211	0x44e3ed0b	1823.4076
212	0x4483ad97	1053.4247
213	0x42c48fd0	98.28088
214	0x4467d3a1	927.3067
215	0x43c675b4	396.91956
216	0x43bdf8ff	379.94528
217	0x43b66e84	364.8634
218	0x43587c09	216.48451
219	0x4523dd88	2621.8457
220	0x44afeab5	1407.3346
221	0x449695de	1204.6833
222	0x44cbd832	1630.7561
223	0x4412fcc7	587.94965
224	0x43287556	168.45834
225	0x4516b05b	2411.0222
226	0x43ec31cc	472.38904
227	0x45408d31	3080.8245
228	0x44d78a88	1724.3291
229	0x4481de0b	1038.9388
230	0x4408cc81	547.1954
231	0x445438f7	848.8901
232	0x443349f6	717.15564
233	0x43b1bc39	355.4705
234	0x43fafee8	501.99146
235	0x444ea573	826.58514
236	0x43f1742a	482.90753
237	0x43f16d36	482.8532
238	0x436ec5ee	238.77316
239	0x4456af1a	858.73596
240	0x44ba3cf8	1489.9053
241	0x443b5bb5	749.4329
242	0x43da9327	437.14963
243	0x44084db4	545.2141
244	0x4466c16f	923.0224
245	0x444f6c96	829.69666
246	0x4393e92a	295.8216
247	0x42f84713	124.13882
248	0x437e8ee1	254.55812
249	0x435602a7	214.01036
250	0x43a28852	325.065
251	0x4429543c	677.31616
252	0x44d5d47e	1710.6404
253	0x4437a069	734.5064
254	0x448c2000	1121.0
255	0x44d8ae00	1733.4375
