model/510a.pt (torch_old, 336839 bytes, 24 tensors)

fc1.weight f4 [128, 28]
0	0x3cba2e3d	0.022727126
1	0x3e7306f2	0.23733118
2	0xbe3168bc	-0.17325109
3	0xbd080704	-0.033209816
4	0xbeb3cefc	-0.35118854
5	0xbee702de	-0.45119375
6	0xbe1220bf	-0.14270304
7	0xbe57ed86	-0.21086702
8	0xbe890675	-0.2676274
9	0x3df87e88	0.12133509
10	0x3e8ece40	0.2789173
11	0xbe841c4b	-0.25802836
12	0xbde87e88	-0.11352259
13	0x3cf2cc1e	0.029638346
14	0x3e91c975	0.28474012
15	0x3eab0636	0.33403176
16	0x3ec15e22	0.3776713
17	0xbc6bcbbc	-0.014391836
18	0xbfa1a4dd	-1.2628437
19	0xc02a298c	-2.6587858
20	0xbff95602	-1.9479373
21	0xbfec3b43	-1.8455585
22	0xbe81cf26	-0.25353354
23	0x3e186002	0.14880374
24	0x3eb36d19	0.35044172
25	0xbe183ac9	-0.14866175
26	0xc0126bc8	-2.2878284
27	0x3c48b2c6	0.012249654
28	0x3f76efc5	0.9645961
29	0x3f7001fa	0.93753016
30	0x3e2bbba2	0.16770795
31	0x3d540b0d	0.05176835
32	0xbecc19c8	-0.3986342
33	0xbecfdc07	-0.40597555
34	0x3d9b449b	0.07581445
35	0x3ed72170	0.42017698
36	0xbced9641	-0.02900231
37	0x3e337ac7	0.17527305
38	0x3bb30571	0.005463295
39	0xbde531cb	-0.11191138
40	0xbeae4828	-0.34039426
41	0xbf0365bb	-0.51327103
42	0x3c40c6c2	0.011766138
43	0xbe310a82	-0.17289165
44	0x3cda661b	0.026660016
45	0xbdc97fda	-0.09838839
46	0xbe804bb2	-0.2505775
47	0xbd0974d4	-0.03355868
48	0x3e8e6bf4	0.27816737
49	0x3e3a6e69	0.1820618
50	0xbd155f31	-0.036467735
51	0x3f5a62a8	0.8530679
52	0x3f1149b1	0.5675307
53	0xbdec8569	-0.115488835
54	0x3f919794	1.1374383
55	0x3c8bdf8d	0.01707437
56	0xbfbeb8ca	-1.4900143
57	0xbf98ee92	-1.1947806
58	0xbef94a61	-0.4868956
59	0x3dfe714b	0.12423953
60	0x3b55e172	0.0032635597
61	0xbd5c5d77	-0.053800073
62	0x3d6d012a	0.05786244
63	0xbdb62e7c	-0.08895585
64	0xbd9fb622	-0.07798411
65	0xbcb86889	-0.022510784
66	0x3b346327	0.002752492
67	0x3ebf1d4f	0.37327048
68	0x3d6a62dd	0.05722319
69	0xbdde109d	-0.108430125
70	0xbe153835	-0.14572223
71	0xbe01b75f	-0.12667607
72	0xbef12043	-0.47094926
73	0xbf487d13	-0.7831585
74	0xbf16f431	-0.58966357
75	0xbf44b4d8	-0.76838446
76	0xbe9de2ad	-0.30837002
77	0xbebd5fa7	-0.3698704
78	0xbf713d62	-0.9423429
79	0xbfd83ab2	-1.6892912
80	0xbe22345a	-0.15840283
81	0x3e2b079e	0.16702124
82	0xbfe092f2	-1.7544844
83	0x3d28772d	0.04112928
84	0xbf23d36a	-0.6399447
85	0xbf706a7c	-0.9391248
86	0xbf08e7a8	-0.5347848
87	0xbf09cc4e	-0.5382737
88	0xbd439717	-0.047751512
89	0xbd0178b6	-0.03160926
90	0xbd2edb1b	-0.042689424
91	0x3e2e45cd	0.17018814
92	0x3e8ba7e8	0.2727654
93	0x3ed43a1c	0.41450584
94	0x3f0d0cef	0.5509786
95	0x3ed0eec6	0.4080717
96	0x3da54488	0.08069712
97	0xbd947d8a	-0.07250507
98	0xbe36defb	-0.17858498
99	0xbe21c566	-0.15797958
100	0x3db586e3	0.08863618
101	0x3d408e6e	0.04701083
102	0x3f093f68	0.53612375
103	0x3da9ddcf	0.0829426
104	0x3dc7846d	0.09742055
105	0x3e4ee900	0.2020607
106	0xbe80880c	-0.25103796
107	0xbf50cb9b	-0.8156068
108	0x3f8910a7	1.0708207
109	0xbd3ec647	-0.04657581
110	0xbfae6797	-1.3625363
111	0xbe35f161	-0.1776786
112	0xbf4e4710	-0.8057718
113	0xbf8012b7	-1.0005711
114	0xbe99ca1b	-0.30037007
115	0xbe82cd4d	-0.25547257
116	0xbd97e5d2	-0.074168816
117	0x3e0f35f6	0.13985428
118	0x3e1f28cc	0.15542907
119	0x3e8aa24f	0.27076957
120	0x3f07d7ff	0.5306396
121	0x3ea72da6	0.32652014
122	0xbe57b665	-0.21065672
123	0x3ddda5be	0.108226284
124	0x3eca845b	0.39554104
125	0x3f049241	0.51785666
126	0x3f13e65e	0.5777339
127	0x3f3564a7	0.7085671
128	0xbefc4ca6	-0.49277228
129	0xbf47c3ae	-0.7803296
130	0xbe0454bd	-0.1292295
131	0x3e153cc5	0.14573963
132	0x3de2db1b	0.11076947
133	0x3e2c79e8	0.16843379
134	0x3d955477	0.07291501
135	0xbf4cdb0b	-0.80021733
136	0xbea6e332	-0.3259521
137	0xbea69d7f	-0.32542035
138	0xbfc8fb67	-1.5701722
139	0xbc1b1acc	-0.009466838
140	0xbf8d57e0	-1.1042442
141	0xbfb64a1e	-1.4241369
142	0xbf82776b	-1.0192693
143	0x3dcd19a5	0.10014657
144	0xbcd51de9	-0.026015239
145	0xbe234ef3	-0.15948085
146	0x3e34fa9c	0.17673725
147	0x3e68b247	0.22724257
148	0x3e7aa7c9	0.24478067
149	0x3eadcb46	0.33944148
150	0x3e9d3ee9	0.3071206
151	0x3ccae891	0.0247691
152	0x3cb8e9ea	0.022572476
153	0xbe2ec075	-0.17065604
154	0x3dc95a34	0.09831658
155	0x3ed49f52	0.41527802
156	0x3dfcd670	0.12345588
157	0x3e31f790	0.17379594
158	0x3de43316	0.11142556
159	0x3e75015f	0.23926304
160	0xbdb1602f	-0.08660924
161	0x3d8ec7f6	0.06971733
162	0xbe858e36	-0.2608506
163	0xbf9d4a7b	-1.2288355
164	0x3f4ba064	0.7954161
165	0x3e3fa4af	0.18715166
166	0xbf9b73d3	-1.2144722
167	0xbe2f2178	-0.17102611
168	0xbf6d6b1e	-0.9274157
169	0x3c2d9209	0.0105938995
170	0xbdff5b1f	-0.12468552
171	0xbe229ec3	-0.15880875
172	0x3e1d0800	0.15335083
173	0xbc928e57	-0.017890139
174	0x3e5915ff	0.21199797
175	0x3df750dc	0.120759696
176	0x3e5a4fbc	0.21319479
177	0x3dbd4dfd	0.09243391
178	0x3e871048	0.2637961
179	0xbd66b943	-0.056329023
180	0xbe728a77	-0.23685633
181	0xbdbfc5d7	-0.09363907
182	0xbe70c3a6	-0.23512134
183	0xbe6e1dc6	-0.23253545
184	0xbe2aea8a	-0.16691032
185	0x3dc05b5e	0.09392427
186	0xbcfc2aa7	-0.030782057
187	0xbedf22ed	-0.43581334
188	0xbe8394f5	-0.25699583
189	0x3d0c68be	0.034279577
190	0xbf45e806	-0.77307165
191	0xbf8c37a4	-1.095448
192	0xbe1b7bc4	-0.15183932
193	0x3c826363	0.015916532
194	0xbfb00f80	-1.375473
195	0xbd507f28	-0.050902516
196	0xbf3f3bb8	-0.747005
197	0xbe9f92dc	-0.31166732
198	0xbe4ff3d1	-0.20307852
199	0xbd5d4477	-0.05402037
200	0xbe2a9964	-0.16660076
201	0x3e456d4d	0.19279976
202	0x3dd350da	0.103181556
203	0xbb0a16e2	-0.0021070768
204	0x3e156343	0.14588647
205	0xbd131698	-0.03591022
206	0xbd69f903	-0.05712224
207	0xbdf92c24	-0.12166622
208	0xbe3e1ee3	-0.1856647
209	0x3e290401	0.16505434
210	0x3dc670f7	0.09689515
211	0xbe948871	-0.29010347
212	0xbd8c7032	-0.06857337
213	0xbca38cfb	-0.019964686
214	0xbdab9070	-0.08377159
215	0xbed8afcc	-0.42321622
216	0xbf556ba5	-0.8336738
217	0xbf45b95a	-0.7723595
218	0xbf2cf9c5	-0.6756862
219	0xbf62310b	-0.88356084
220	0xbf23db69	-0.6400667
221	0x3dc17f8d	0.094481565
222	0xbf70be30	-0.94040203
223	0x3e362e31	0.17791058
224	0x3ec05fcc	0.37573087
225	0x3ece8871	0.40338472
226	0x3c9ba76c	0.019000731
227	0x3db81711	0.089887746
228	0x3dbbdb1c	0.09172651
229	0x3d2cb8fb	0.0421686
230	0xbee532dd	-0.44765368
231	0xbe2e0ccc	-0.16997069
232	0xbd81bc63	-0.0633476
233	0x3e0c9799	0.13729705
234	0x3df052eb	0.11734565
235	0x3d3f984c	0.0467761
236	0xbe0519e2	-0.12998155
237	0xbc7aad81	-0.015300156
238	0x3debac3a	0.11507459
239	0x3b3ccb12	0.0028807563
240	0xbe6f285f	-0.23355244
241	0xbf00a68f	-0.5025415
242	0xbeaccb8c	-0.33749044
243	0xbe04e7be	-0.12979028
244	0x3d8fe50a	0.070261076
245	0x3dcea481	0.100899704
246	0xbdb79bfc	-0.089652985
247	0x3ef43dbf	0.4770336
248	0xbfa12d36	-1.2591922
249	0x3cb894ff	0.022531984
250	0xbefd81c9	-0.4951308
251	0x3d65cb9b	0.056102376
252	0x3e161594	0.14656669
253	0xbe48bb65	-0.19602735
254	0xbd9e91f5	-0.07742683
255	0xbe233a18	-0.1594013

fc1.bias f4 [128]
0	0xba9f6deb	-0.0012163495
1	0xbd1acf5e	-0.037795417
2	0xbdaf7838	-0.08567852
3	0x3c81bd4f	0.01583734
4	0xbd3b7b2a	-0.045771755
5	0x3d24c69a	0.040228464
6	0x3d4abe6f	0.049498018
7	0xbb42a1ce	-0.0029698494
8	0xbe600103	-0.21875386
9	0xbd11995d	-0.03554665
10	0xbd6cfc65	-0.05785789
11	0x3e19e7f1	0.15029885
12	0xbd1e3bac	-0.038631126
13	0x3e2787a5	0.16360338
14	0xbd6970b3	-0.056992244
15	0xbe832f28	-0.25621915
16	0xbe2e554c	-0.17024726
17	0xbdcd60a3	-0.100281976
18	0xbe0abb76	-0.13548073
19	0xbe412215	-0.18860658
20	0xbdb3a4a4	-0.08771637
21	0xbd76baa7	-0.0602366
22	0x3f07dc88	0.5307088
23	0xb9e77942	-0.00044150098
24	0xbd9252be	-0.07144688
25	0xbe55f709	-0.20895018
26	0xbdd46b73	-0.10372057
27	0xbd084f27	-0.03327861
28	0xbca72dc8	-0.020407572
29	0xbe42990e	-0.19003698
30	0xbdf5be1a	-0.119991496
31	0x3df39238	0.118931234
32	0xbdf6b1e4	-0.12045649
33	0xbddacabb	-0.10683199
34	0x3e82cba2	0.25545985
35	0xbd6779fc	-0.056512818
36	0x3d9c25c8	0.07624394
37	0xbe0f4092	-0.13989475
38	0xbc166d52	-0.009181337
39	0xbe0531e0	-0.13007307
40	0xbe97e922	-0.29670054
41	0x3e2ce439	0.16883935
42	0xbdaacee1	-0.0834024
43	0xbbb99e2d	-0.005664608
44	0x3dca9439	0.098915525
45	0xbe5b5dca	-0.21422496
46	0xbd272bf6	-0.04081341
47	0x3f098d90	0.5373163
48	0x3d6c388b	0.05767111
49	0xbd158c14	-0.036510542
50	0x3dfefab4	0.124501616
51	0xbd01a84a	-0.031654634
52	0xbe4fdcea	-0.20299116
53	0xbd4738f8	-0.048638314
54	0x3e2f7190	0.17133164
55	0xbe59ed17	-0.21281849
56	0xbdc6a6b6	-0.09699766
57	0x3dff768b	0.12473782
58	0xbe6396d7	-0.2222551
59	0x3f0ed57c	0.557945
60	0xb8b3cfe9	-8.5741114e-05
61	0x3cb188dd	0.021671707
62	0x3c7c30b3	0.01539247
63	0xbe28c352	-0.16480759
64	0xbcf0e9fd	-0.02940845
65	0x3e34becd	0.1765091
66	0x3c909c9d	0.017652804
67	0x3d487a5f	0.048944827
68	0xbe08d2e2	-0.13361695
69	0x3d753562	0.059865363
70	0xbe442f72	-0.19158724
71	0xbd983c87	-0.0743342
72	0xbe87a15d	-0.26490298
73	0xbc90305e	-0.017601188
74	0x3da7d1ae	0.0819429
75	0xbe2d5d81	-0.169302
76	0xbbe2e623	-0.006924407
77	0xbe35d0d2	-0.1775544
78	0xbed6e479	-0.41971186
79	0xbc008c92	-0.007846015
80	0xbd72490c	-0.059151694
81	0xbe3111ee	-0.17291996
82	0xbd7e2fe3	-0.062057387
83	0xbe24c246	-0.16089734
84	0x3e12b8cd	0.14328308
85	0xbd01d457	-0.031696644
86	0xbd83034b	-0.063971125
87	0xbde9456a	-0.11390193
88	0x3d785d93	0.060636114
89	0xbcb73b5d	-0.022367174
90	0xbe8137f7	-0.2523801
91	0xbdbf2e63	-0.093350194
92	0xbe257c0b	-0.161606
93	0x3e67ee47	0.2264949
94	0xbd75123c	-0.059831843
95	0xbdcf694e	-0.10127507
96	0xbe01acf8	-0.12663639
97	0xbe15baab	-0.1462199
98	0x3f4a803a	0.7910191
99	0x3d7a3545	0.061085958
100	0x3eb5701f	0.35437104
101	0xbd576f56	-0.052596413
102	0x3dca3458	0.09873265
103	0xbe5012ba	-0.20319644
104	0xbc500e47	-0.0126987165
105	0xbdc7e32d	-0.09760127
106	0xbccb3a5b	-0.0248081
107	0x3df4bec6	0.1195045
108	0x3cab0627	0.020876957
109	0xbdc30c94	-0.095238835
110	0xbaafa303	-0.0013400022
111	0x3ea87e1c	0.32908714
112	0xbe104617	-0.14089237
113	0x3d97e52e	0.074167594
114	0xb992bce6	-0.0002798803
115	0x3cb72292	0.022355352
116	0xbe291a22	-0.16513875
117	0xbdc2a840	-0.095047474
118	0x3d79679c	0.060889825
119	0x3d05cb09	0.032664333
120	0xbe84a88e	-0.25909847
121	0xbc03d0b4	-0.008045364
122	0xbd12f19e	-0.035874955
123	0xbe0c43d1	-0.13697745
124	0x3d10fc86	0.035397075
125	0xbd2d1ad2	-0.042261906
126	0xbe1e4c8f	-0.15458892
127	0xbe2a4ee5	-0.16631658

fc2.weight f4 [128, 128]
0	0xbe9fdc22	-0.31222636
1	0xbeab5fb7	-0.33471462
2	0x3e883249	0.26600865
3	0x3db9fe49	0.09081704
4	0x3eb4d785	0.35320678
5	0xbe0caf2b	-0.13738696
6	0xbf2c43b3	-0.672908
7	0x3ece0d65	0.40244594
8	0xbe1ef6b8	-0.15523803
9	0xbec7de1b	-0.3903664
10	0xbde02b69	-0.1094578
11	0xbf7a2950	-0.9771929
12	0x3e4782d6	0.19483504
13	0x3f248606	0.64267004
14	0xbe949aae	-0.2902426
15	0xbe626e54	-0.221124
16	0xbe703b29	-0.23460068
17	0x3d83515d	0.06412003
18	0xbe318d3a	-0.1733903
19	0xbc0ff177	-0.008785597
20	0xbf156876	-0.5836252
21	0xbdb1caba	-0.08681245
22	0x3e47641b	0.19471781
23	0x3e385539	0.1800126
24	0x3daeda38	0.08537716
25	0xbf0742de	-0.52836406
26	0x3dc4fb8b	0.096182905
27	0xbf22ca0b	-0.63589543
28	0xbea78fc8	-0.32726884
29	0xbf1c10ab	-0.60962933
30	0xbe26dc5b	-0.16294996
31	0x3ed4b490	0.41544008
32	0x3dbe0961	0.09279133
33	0x3f0b1ce3	0.5434095
34	0x3dd8460d	0.10560236
35	0x3edb4977	0.42829487
36	0x3eaddf1a	0.33959275
37	0xbeabbb18	-0.3354118
38	0x3ee2f1e5	0.44325176
39	0x3e1f73ab	0.15571468
40	0xbf32362a	-0.696139
41	0x3e43f6fd	0.19137187
42	0x3c868281	0.016419651
43	0x3e981a0b	0.2970737
44	0x3d0d32cf	0.034472283
45	0xbf5ea6cf	-0.8697328
46	0xbe4e09b3	-0.20120887
47	0xbded6f81	-0.11593533
48	0x3e821544	0.2540685
49	0x3d4c8436	0.049930774
50	0x3e474d61	0.19463111
51	0x3eeaac85	0.45834747
52	0x3e80cbee	0.25155586
53	0x3eb16fb0	0.34655523
54	0xbf2d26d7	-0.6763739
55	0xbeb7dfaf	-0.35912845
56	0xbea147c2	-0.3150006
57	0x3c789fbf	0.015174805
58	0x3e80c119	0.25147322
59	0xbf1144f7	-0.56745857
60	0x3e05eeaa	0.13079324
61	0xbece69cd	-0.40315095
62	0x3d1c0596	0.038091265
63	0xbf84ae7d	-1.036575
64	0x3dfdd96b	0.12394985
65	0x3f251126	0.6447929
66	0x3f72e8d3	0.9488651
67	0x3f153958	0.58290625
68	0xbd5c964a	-0.053854264
69	0xbd1d3b4a	-0.03838662
70	0xbeb3a38c	-0.35085714
71	0xbdaea580	-0.0852766
72	0xbf512a1a	-0.81704867
73	0x3e9721a9	0.29517868
74	0xbef51b6d	-0.47872487
75	0xbf524465	-0.8213561
76	0xbef0bbd0	-0.4701829
77	0x3e0e1036	0.13873371
78	0xbe96d950	-0.2946267
79	0x3e589b55	0.21153004
80	0xbecc56f0	-0.39910078
81	0xbf4fb3c9	-0.81133705
82	0xbd4d419d	-0.0501114
83	0xbee560f3	-0.4480053
84	0x3ea25f82	0.31713492
85	0xbe5b0aad	-0.21390791
86	0xbe74494c	-0.23856086
87	0xbe754b30	-0.23954463
88	0xbef56933	-0.47931823
89	0xbd9bd671	-0.07609261
90	0xbf1a248e	-0.6021203
91	0x3e0bf807	0.13668834
92	0xbec98a51	-0.3936334
93	0xbb63e511	-0.0034773985
94	0x3e19d9b4	0.15024453
95	0xbee96be2	-0.4559012
96	0x3ec3c9f4	0.38240016
97	0xbeab3bac	-0.33443964
98	0xbed8c9f4	-0.42341578
99	0xbeb555f7	-0.35417148
100	0xbec9384f	-0.39300773
101	0xbeeb5e9c	-0.4597062
102	0xbdf22dfd	-0.11825178
103	0x3e248ca9	0.16069283
104	0x3d9fa95d	0.07795975
105	0x3ecf1ea7	0.40453073
106	0xbe914316	-0.28371495
107	0x3e6ce6fa	0.23134986
108	0x3e05176a	0.12997213
109	0xbef92131	-0.48658136
110	0x3dcb668e	0.0993167
111	0x3dd136da	0.1021554
112	0x3e0613c7	0.13093482
113	0xbe4b7e0e	-0.19872305
114	0xbee1a64f	-0.44072196
115	0xbc0d7ce2	-0.008635731
116	0x3e0150ef	0.1262853
117	0x3f14a707	0.58067364
118	0x3e81b722	0.25335032
119	0x3fb5f193	1.4214348
120	0xbf93a365	-1.1534239
121	0xbed6b7ab	-0.41937003
122	0x3fc31220	1.5239906
123	0x3e6b24df	0.22963284
124	0xbeafcb4a	-0.34334785
125	0x3ed6ac27	0.41928217
126	0xbefb1295	-0.49037614
127	0xbe3a38c1	-0.18185712
128	0xbe16061c	-0.14650768
129	0xbda3b036	-0.07992594
130	0x3dbbf56c	0.0917767
131	0x3e5b1bf4	0.21397382
132	0xbe91c8c1	-0.28473476
133	0x3e91c2e9	0.28469017
134	0x3f4514f1	0.7698508
135	0x3ec60903	0.3867875
136	0x3d5f1d89	0.054471526
137	0x3ef85b96	0.48507375
138	0x3d7c808d	0.061646033
139	0x3e11d53e	0.14241502
140	0x3d44a8f8	0.048012704
141	0xbe949d80	-0.29026413
142	0xbc777337	-0.015103153
143	0xbf4ce5ce	-0.80038154
144	0x3d1f1a40	0.038843393
145	0x3d2aa167	0.04165783
146	0x3eeb617c	0.45972812
147	0x3d4d85d2	0.05017645
148	0xbd7fa763	-0.06241549
149	0xbef9b38d	-0.487698
150	0xbe1c3710	-0.1525538
151	0xbe72fbc0	-0.23728848
152	0xbd442b76	-0.04789301
153	0x3c9e6304	0.019334324
154	0x3d8ecc8b	0.06972607
155	0x3e911803	0.28338632
156	0x3f8f4f78	1.1196127
157	0x3f758c9d	0.95917684
158	0xbf0e2391	-0.5552302
159	0xbecbe3cb	-0.3982223
160	0x3f2b7cfb	0.6698758
161	0x3ec43191	0.38319066
162	0x3e66f139	0.22552957
163	0xbe285886	-0.16440019
164	0x3e7357a2	0.23763898
165	0x3e9b141b	0.30288777
166	0xbf26ffa4	-0.65233827
167	0xbfb1684e	-1.3859956
168	0x3e8d71cf	0.27625892
169	0x3ead1d6b	0.33811507
170	0x3ccd9824	0.02509696
171	0xbde144ff	-0.10999488
172	0x3e357dfa	0.17723837
173	0x3e876f84	0.26452267
174	0x3ed6c7ec	0.41949403
175	0x3ecba352	0.3977304
176	0x3db79f98	0.08965987
177	0x3ebe5a4f	0.37178275
178	0xbdd3d510	-0.10343373
179	0x3cb5c2dc	0.022187643
180	0xbe3144e9	-0.17311443
181	0xbeb3d5ed	-0.3512415
182	0x3dae6297	0.08514898
183	0xbf454c69	-0.7706972
184	0xbe254397	-0.16139065
185	0x3e91c1ea	0.28468257
186	0xbec02fe0	-0.37536526
187	0xbecd936d	-0.4015154
188	0x3ef1a7ea	0.4719842
189	0xbef9a529	-0.4875882
190	0x3e4ab5d2	0.19795921
191	0x3d89be5f	0.067257635
192	0x3e51f802	0.20504764
193	0xbe6f07be	-0.23342797
194	0xbf1ea07c	-0.6196363
195	0xbeadd5c4	-0.33952153
196	0x3da7004b	0.08154353
197	0x3e0353e9	0.12824978
198	0x3ecf81ef	0.4052882
199	0xbed6cffe	-0.4195556
200	0x3f34d88f	0.7064294
201	0xbe268ee6	-0.16265449
202	0xbea45092	-0.3209272
203	0x3f834217	1.0254544
204	0x3ef23d8e	0.47312587
205	0xbe904be4	-0.281829
206	0xbdd039cf	-0.10167276
207	0x3e14d976	0.1453608
208	0x3eece17c	0.4626578
209	0x3f430c08	0.76190233
210	0x3f32fc1f	0.69915956
211	0x3d222552	0.039586373
212	0xbebf4a05	-0.3736116
213	0xbe60642e	-0.21913216
214	0x3e08704c	0.13324088
215	0xbf12b9e7	-0.57314914
216	0xbf2d25d9	-0.67635876
217	0x3ed45074	0.4146763
218	0x3e066010	0.13122582
219	0x3eb0869d	0.34477702
220	0x3d0ea2a0	0.03482306
221	0xbe8f318d	-0.27967492
222	0xbe532be4	-0.20622212
223	0x3e8237e0	0.25433254
224	0xbeefd264	-0.46840203
225	0xbdb49905	-0.08818249
226	0x3dea88b1	0.11451853
227	0xbe8939d3	-0.2680193
228	0x3eedad6d	0.46421376
229	0x3f0249e0	0.50893974
230	0x3c416481	0.011803747
231	0xbf156478	-0.5835643
232	0x3eb355dc	0.35026443
233	0xbe0c663f	-0.13710879
234	0x3f8c7a6d	1.0974861
235	0x3e87001a	0.26367265
236	0xbc049911	-0.0080931345
237	0x3e66d0c0	0.2254057
238	0x3e426f7e	0.18987843
239	0xbdef9b9e	-0.116996035
240	0x3f526b4d	0.8219498
241	0xbe6efbef	-0.23338293
242	0xbd87c2f1	-0.06628979
243	0x3db7f115	0.089815296
244	0xbea038ec	-0.31293428
245	0x3d54dd50	0.051968873
246	0x3e31c0fd	0.17358775
247	0xbf653c24	-0.8954489
248	0x3ef22f6b	0.47301802
249	0x3ea980bb	0.33106026
250	0xbf23a055	-0.6391652
251	0xbec6d597	-0.3883483
252	0x3ea42c07	0.3206484
253	0x3e260d5a	0.1621603
254	0x3f3be441	0.7339516
255	0xbdaea418	-0.08527392

fc2.bias f4 [128]
0	0xbe272744	-0.16323572
1	0x3d6541d4	0.05597098
2	0xbe447b0a	-0.1918756
3	0xbea03959	-0.31293753
4	0xbdb24620	-0.087047815
5	0xbd9098ba	-0.0706038
6	0x3dac43aa	0.084113434
7	0xbe8673ef	-0.26260325
8	0xbe5819b5	-0.21103556
9	0xbd06c209	-0.03289989
10	0xbe53b7a6	-0.20675525
11	0x3d82ce71	0.06387032
12	0xbe7cc57b	-0.24684708
13	0xbe05fe5a	-0.13085309
14	0x3dabb07d	0.08383272
15	0x3e0278a6	0.12741336
16	0x3eab75b4	0.33488238
17	0xbe368a1f	-0.17826127
18	0xbbdc6d47	-0.006726894
19	0xbd06101d	-0.03273021
20	0xbc954f2d	-0.01822623
21	0xbd956e45	-0.07296423
22	0xbde6f00d	-0.11276255
23	0x3c4128bd	0.011789498
24	0xbe875202	-0.26429754
25	0xbd001895	-0.031273443
26	0x3db23c20	0.08702874
27	0x3cd74e18	0.026282355
28	0x3e9ed3da	0.31021005
29	0x3df4c9ca	0.11952551
30	0xbe5b356c	-0.21407098
31	0xbe6426c6	-0.22280416
32	0xbd6e0620	-0.05811131
33	0xbd873131	-0.066011794
34	0x3c99e9a2	0.018788163
35	0xbd6fae6c	-0.05851595
36	0xbe60f2b6	-0.21967587
37	0x3ebf67ee	0.3738398
38	0xbe467e81	-0.19384195
39	0xbedca7e2	-0.43096834
40	0x3e3c8f0a	0.1841394
41	0x3dca9720	0.09892106
42	0xbe4be0bf	-0.19909953
43	0xbee6e19e	-0.45094007
44	0xbedcec4e	-0.43149036
45	0x3eda59d9	0.42646673
46	0xbdc401a1	-0.09570623
47	0x3e067ba3	0.13133101
48	0xbe99c0a0	-0.30029774
49	0xbcba4f12	-0.022742782
50	0xbe45eb83	-0.19328122
51	0xbd4c084e	-0.049812607
52	0xbe8433a9	-0.25820664
53	0xbd675e64	-0.056486502
54	0x3d913e1a	0.07091923
55	0xbe9a1fec	-0.3010248
56	0x3daf4a20	0.0855906
57	0xbb308ad6	-0.0026938221
58	0xbe71d8bd	-0.23617835
59	0xbec4bd9b	-0.38425907
60	0xbd6f7f75	-0.058471162
61	0xbdcee600	-0.10102463
62	0xbdf3254b	-0.118723474
63	0x3e6fe02c	0.23425359
64	0xbe8a7afc	-0.27046955
65	0x3e3da087	0.18518268
66	0x3ec87d57	0.39158127
67	0x3d718280	0.058962345
68	0x3c9f98e4	0.019482084
69	0xbe8fd930	-0.28095388
70	0x3e0f9063	0.14019923
71	0x3d6bf0fd	0.05760287
72	0x3ecf8950	0.4053445
73	0x3d0dcaf3	0.034617376
74	0xbb935865	-0.0044966214
75	0x3ec4a36f	0.3840594
76	0xbd49e004	-0.049285904
77	0xbdbe8e1f	-0.09304451
78	0xbe30007a	-0.17187682
79	0xbdb63d63	-0.08898427
80	0x3d90adcd	0.070644
81	0x3ee34e16	0.44395512
82	0x3cfe7054	0.031059422
83	0xbde07220	-0.109592676
84	0xbd58fe09	-0.05297664
85	0xbec3357a	-0.38126737
86	0xbea4188c	-0.32049978
87	0xbb8c435d	-0.0042804913
88	0xbe6204d1	-0.2207215
89	0xbe912112	-0.28345543
90	0x3e85a378	0.2610128
91	0x3d81a398	0.06330031
92	0xbe3111ae	-0.172919
93	0xbd3cee24	-0.046125546
94	0xbe498f5e	-0.19683596
95	0xbc018eb5	-0.007907559
96	0xbec1c180	-0.3784294
97	0xbe14262f	-0.14467691
98	0x3db6ef8d	0.089324094
99	0xbde2a85b	-0.110672675
100	0xbe4d201c	-0.2003178
101	0x3df6a881	0.12043858
102	0x3d67527b	0.056475144
103	0xbe34570e	-0.17611334
104	0x3d181f82	0.037139423
105	0xbec54a33	-0.38533172
106	0xbd8bbb1a	-0.06822796
107	0xbe5ff2fd	-0.21870036
108	0xbde1e75b	-0.11030456
109	0x3d50808b	0.050903838
110	0x3ddf4612	0.10902037
111	0x3d98bd4a	0.07457979
112	0xbe0d68d1	-0.13809516
113	0xbe28f223	-0.16498618
114	0xbd061814	-0.032737806
115	0x3d2e270d	0.04251771
116	0xbe1c4a72	-0.15262774
117	0x3d01dde6	0.03170576
118	0x3d8e5f26	0.06951742
119	0xbd5040ad	-0.05084293
120	0x3e204a9e	0.15653464
121	0x3e54386f	0.20724653
122	0x3eb35cfb	0.35031876
123	0xbe890263	-0.26759633
124	0x3dbbd83d	0.091721036
125	0xbdc26eff	-0.09493827
126	0xbd5d4ee9	-0.054030333
127	0x3d9c9cde	0.076471075

out.weight f4 [5, 128]
0	0x3f61447d	0.8799513
1	0xbd4ebeb8	-0.050474852
2	0xbe57187b	-0.21005432
3	0x3e8a0513	0.26956996
4	0xbf40315f	-0.75075334
5	0xbed274ec	-0.4110483
6	0xbd1be4cf	-0.038060006
7	0x3f0996e6	0.5374588
8	0x3f17699d	0.5914553
9	0x3f069956	0.5257772
10	0x3f42762b	0.7596156
11	0xbe831b44	-0.2560674
12	0x3e982ece	0.2972321
13	0x3dd381dc	0.10327503
14	0xbe91a73f	-0.2844791
15	0xbee15eb3	-0.44017562
16	0xbecf80f5	-0.40528074
17	0x3f1b2c08	0.6061406
18	0x3ef1ed5e	0.4725141
19	0x3f1e1cb1	0.6176253
20	0x3d16a7b6	0.036781035
21	0x3c003bcf	0.0078267595
22	0xbec5061e	-0.3848123
23	0x3ef6e5d3	0.48222217
24	0x3f388005	0.7207034
25	0x3ede8a4f	0.43464896
26	0xbed6a986	-0.4192621
27	0xbe233057	-0.15936409
28	0x3f30022e	0.68753326
29	0x3e3b8c59	0.18315257
30	0x3e034fc6	0.128234
31	0x3ed4fc89	0.4159892
32	0x3f0eff67	0.55858463
33	0x3ee429bd	0.44563094
34	0x3e5f6d40	0.2181902
35	0x3e94cf9e	0.2906465
36	0x3f08445c	0.5322931
37	0xbe7e0122	-0.2480512
38	0x3c76c2d5	0.0150611
39	0x3efbfe4a	0.49217445
40	0x3d293d9b	0.041318517
41	0xbe2be548	-0.16786683
42	0x3e12c38f	0.14332412
43	0x3f0d12cf	0.55106825
44	0x3ee8e4da	0.454871
45	0xbdcc4771	-0.09974564
46	0x3d60490c	0.054757163
47	0x3ea7ad6c	0.32749498
48	0x3e84f4b9	0.2596796
49	0x3f0a3258	0.5398307
50	0x3efeb32e	0.49746078
51	0xbeb789f9	-0.35847452
52	0xbf06cb37	-0.5265383
53	0x3f249d6d	0.6430271
54	0xbd77999c	-0.060449228
55	0x3ef1a6a4	0.4719745
56	0x3f44c8a4	0.76868653
57	0xbe789d64	-0.2427879
58	0x3f1cff5d	0.61327153
59	0x3ef4d216	0.47816533
60	0xbefbef4d	-0.4920601
61	0x3f35f487	0.71076244
62	0x3f295f64	0.6616118
63	0xbda36fb9	-0.07980294
64	0x3f17a39f	0.5923404
65	0xbd3c83cc	-0.04602413
66	0xbe92e293	-0.28688487
67	0xbedf5364	-0.4361831
68	0x3f1241ef	0.57131857
69	0x3ec7bae9	0.3900979
70	0x3ed8f4d0	0.42374277
71	0x3ec646d3	0.3872591
72	0x3f0ecbbf	0.5577964
73	0x3f31994f	0.69374555
74	0x3f14023e	0.5781592
75	0xbc973c68	-0.018461421
76	0xbb02ff0a	-0.001998844
77	0x3f45609b	0.77100533
78	0x3f1869bc	0.5953634
79	0x3f2aa6a7	0.6666054
80	0xbd9920cc	-0.07476959
81	0x3f321b92	0.6957332
82	0x3f45aec9	0.77219826
83	0x3f2870f7	0.6579737
84	0x3ea89c8e	0.32931942
85	0x3f1f3def	0.6220388
86	0x3f07ef72	0.5309974
87	0x3e9c74ea	0.30557948
88	0x3ef9b5be	0.4877147
89	0x3ed0116a	0.40638286
90	0xbd64b5a6	-0.055837296
91	0x3f38ca63	0.7218382
92	0x3f5fefb4	0.8747513
93	0xbef17c55	-0.4716517
94	0x3cd67e42	0.026183251
95	0xbe0751dd	-0.13214822
96	0xbd35846d	-0.044315744
97	0x3edb54b3	0.42838058
98	0xbe1cd804	-0.15316778
99	0x3efecc63	0.4976531
100	0x3f910de0	1.1332359
101	0x3f24cff4	0.6437981
102	0xbd339894	-0.04384668
103	0xbeb5a4be	-0.3547725
104	0xbea85aca	-0.32881767
105	0xbf070866	-0.5274719
106	0xbd7c89b4	-0.06165476
107	0x3ee58de6	0.44834822
108	0xbeb7b1bc	-0.35877788
109	0xbe6a7081	-0.2289448
110	0xbe6582ad	-0.2241313
111	0x3f0baf24	0.5456412
112	0x3f521141	0.8205758
113	0xbf117e2d	-0.56833154
114	0xbd2a22ca	-0.041537084
115	0xbeb6d2fe	-0.3570785
116	0x3f26aeb6	0.6511034
117	0xbf0d50c7	-0.5520138
118	0xbd1616c9	-0.036642823
119	0xbef1ca50	-0.47224665
120	0xbe2822b1	-0.16419484
121	0x3d4f6db5	0.050641734
122	0xbba68123	-0.0050813123
123	0x3ea30d53	0.31846103
124	0x3f48aaa1	0.7838536
125	0x3ef8b19e	0.4857301
126	0x3f15f948	0.585835
127	0x3f7d0078	0.9882884
128	0x3f205903	0.6263582
129	0xbf6d4b8b	-0.92693394
130	0xbf161e52	-0.58640015
131	0x3e7a5847	0.24447738
132	0xbf72823f	-0.9472999
133	0xbef981b2	-0.48731762
134	0xbf01a9e2	-0.50649846
135	0x3f00f1fc	0.5036924
136	0x3f33fb26	0.703051
137	0x3f1bf70b	0.6092383
138	0x3f29ad6e	0.6628026
139	0xbf15920d	-0.5842598
140	0x3ef4ddc3	0.4782544
141	0xbd53f950	-0.051751435
142	0xbf2cd51e	-0.6751269
143	0xbf3cf957	-0.7381796
144	0xbf03849f	-0.5137424
145	0x3f65b32e	0.8972653
146	0x3f47c5b5	0.7803605
147	0x3eabcdd6	0.33555478
148	0xbf0c514f	-0.5481157
149	0x3f0d8b72	0.552909
150	0xbf34be35	-0.7060273
151	0x3ee30d2e	0.44345993
152	0x3f20f9fb	0.6288144
153	0x3f4b0504	0.7930453
154	0xbf643dac	-0.89156604
155	0xbf0b1973	-0.5433571
156	0x3f922e0f	1.1420306
157	0x3ece40b1	0.4028373
158	0x3eee6df2	0.46568257
159	0x3f3a89b5	0.72866374
160	0x3f3e4e55	0.74338275
161	0x3f0ad344	0.54228616
162	0x3edb8b03	0.42879495
163	0x3f0a933e	0.54130924
164	0x3f0cef67	0.550528
165	0xbedd1ff4	-0.4318844
166	0x3d9e23a8	0.07721645
167	0x3fbe8844	1.4885335
168	0xbe98c823	-0.29840192
169	0xbf1bcbb9	-0.6085773
170	0x3ec12126	0.37720603
171	0x3eac6a27	0.33674738
172	0x3f23a527	0.6392388
173	0x3e2d7c43	0.16941933
174	0xbf18d6e2	-0.59702885
175	0xbee5a4b2	-0.44852215
176	0x3f052f2d	0.5202511
177	0x3f417b7d	0.75579053
178	0x3f3f3139	0.7468448
179	0xbef0b6d6	-0.47014493
180	0xbf59488f	-0.8487634
181	0x3f1d7fec	0.6152332
182	0xbf28c1df	-0.65920824
183	0x3f104ef7	0.5637049
184	0x3f1ed022	0.62036335
185	0xbf6e587c	-0.93103766
186	0x3f3c773e	0.7361945
187	0x3f2ac768	0.6671052
188	0xbf1589b7	-0.5841326
189	0x3f164edc	0.5871408
190	0x3f33458b	0.7002799
191	0xbebe65ed	-0.37187138
192	0x3f22a327	0.635302
193	0xbebd74bd	-0.37003127
194	0xbf03ec29	-0.51532227
195	0xbf0371c6	-0.5134548
196	0x3f3002a1	0.6875401
197	0x3e8e0d84	0.27744687
198	0x3f20b823	0.6278097
199	0x3f518b6f	0.81853384
200	0x3f511dba	0.81685984
201	0x3f5d9d0b	0.86567754
202	0x3f00ec40	0.5036049
203	0xbd841e8e	-0.0645114
204	0xbf3d62a0	-0.73978615
205	0x3f2244e5	0.63386375
206	0x3e346edb	0.17620413
207	0x3f0bf0fa	0.54664576
208	0xbf49f538	-0.788898
209	0x3f3f1345	0.7463878
210	0x3f40b153	0.75270575
211	0x3f384713	0.7198345
212	0x3ee5e928	0.44904447
213	0x3ec8a2ed	0.39186803
214	0x3f1e25b9	0.6177631
215	0x3ee8f0c7	0.454962
216	0x3e426eb0	0.18987536
217	0x3ca5f1cb	0.020256897
218	0xbeb9ecd7	-0.36313507
219	0x3f23c06b	0.6396548
220	0x3ee4bd07	0.44675466
221	0xbf846eff	-1.0346373
222	0x3f1f3cbf	0.62202066
223	0xbf3d9af4	-0.74064565
224	0xbe83746d	-0.25674763
225	0x3f426c9a	0.7594696
226	0xbf43cedf	-0.76487535
227	0x3f67d69e	0.90561855
228	0x3ea982ef	0.33107707
229	0x3f009d91	0.5024043
230	0xbf2e4395	-0.6807187
231	0xbf29eef2	-0.66380227
232	0xbf868d78	-1.0511923
233	0xbf34f124	-0.7068045
234	0xbf2d6933	-0.67738646
235	0x3f12feca	0.5742003
236	0xbf163528	-0.5867486
237	0xbf60d149	-0.87819344
238	0xbea20608	-0.31645226
239	0x3f11e09e	0.56983364
240	0x3f189294	0.5959866
241	0xbf1db1c2	-0.6159936
242	0xbf446178	-0.76711226
243	0xbf279fdf	-0.6547832
244	0x3eeb124c	0.45912397
245	0xbf25dba9	-0.647883
246	0xbf030d3f	-0.51192087
247	0xbe7a98d6	-0.24472365
248	0x3dda30c3	0.10653832
249	0xbf2318e4	-0.63709855
250	0xbf136d49	-0.5758863
251	0x3ee6c52a	0.450723
252	0x3f4466b0	0.7671919
253	0x3dc1d0a4	0.09463623
254	0x3ebccd30	0.36875296
255	0x3f0a1b7e	0.539482

out.bias f4 [5]
0	0xc0137ad8	-2.3043728
1	0x3fadca7a	1.3577416
2	0x3feec054	1.8652444
3	0xbdc65efa	-0.09686084
4	0xbf6340d2	-0.8877078

exp_avg_sq f4 [128, 28]
0	0x416540ea	14.328348
1	0x40cd638c	6.4184017
2	0x4015840a	2.336184
3	0x3fa1d1d9	1.2642165
4	0x3f73aa4f	0.95181745
5	0x3f582489	0.8443075
6	0x3f61cbf1	0.88201815
7	0x3f8999ab	1.0750021
8	0x3fd60ef6	1.6723316
9	0x405b96ae	3.4310718
10	0x411172f9	9.0905695
11	0x4199e26c	19.235558
12	0x3ff4d485	1.9127356
13	0x40172e34	2.362195
14	0x40713f9c	3.7695074
15	0x4106fe5e	8.437101
16	0x41b2ea85	22.364511
17	0x3f030e7a	0.51193964
18	0x3df3c09f	0.11901974
19	0x3dd74858	0.10511845
20	0x3e14e1e0	0.1453929
21	0x3ec34296	0.3813674
22	0x40597aa4	3.3981104
23	0x41699cf2	14.600817
24	0x3d667e7d	0.056272972
25	0x414eda48	12.928291
26	0x3daaccc1	0.08339835
27	0x441e9306	634.29724
28	0x470fc07e	36800.492
29	0x4693afc2	18903.879
30	0x4645538e	12628.889
31	0x4629d660	10869.594
32	0x4608ba20	8750.531
33	0x465e1312	14212.768
34	0x48dd7855	453570.66
35	0x485502fd	218123.95
36	0x482d9187	177734.11
37	0x48bfe7d1	393022.53
38	0x48defdf3	456687.6
39	0x4844e3ce	201615.22
40	0x483dee28	194488.62
41	0x48029ece	133755.22
42	0x47bd0aff	96789.99
43	0x47a5738c	84711.09
44	0x47aeba51	89460.63
45	0x47b669f7	93395.93
46	0x4805148e	136274.22
47	0x4878778a	254430.16
48	0x490b2419	569921.56
49	0x49c90377	1.6467029e+06
50	0x4827b06e	171713.72
51	0x47122973	37417.45
52	0x465adb52	14006.83
53	0x4ab3edef	5.8959275e+06
54	0x4595d5e2	4794.7354
55	0x4a35af14	2.976709e+06
56	0x3edfa674	0.4368168
57	0x3f7b7775	0.9822915
58	0x40940b99	4.6264157
59	0x42a2a441	81.32081
60	0x42b456da	90.16963
61	0x41adc015	21.71879
62	0x41390f24	11.566196
63	0x4107f129	8.496377
64	0x40e522bc	7.16049
65	0x40e05811	7.0107503
66	0x41054dcc	8.331493
67	0x41329675	11.161733
68	0x422981d9	42.376804
69	0x420262e6	32.59658
70	0x41e972bf	29.181028
71	0x40b8907c	5.7676373
72	0x3f87b510	1.0602131
73	0x3ecf3ec0	0.40477562
74	0x3e89f3a8	0.26943707
75	0x3e5dd6bc	0.21663946
76	0x3e6343f0	0.22193885
77	0x3e8cd2d3	0.27504596
78	0x3e99ac7a	0.30014402
79	0x3edda15d	0.43287173
80	0x4290958d	72.29209
81	0x42f78171	123.752815
82	0x3e560267	0.20899354
83	0x45519113	3353.0671
84	0x47adae13	88924.15
85	0x471e54e9	40532.91
86	0x46fa5bb9	32045.861
87	0x46fae069	32112.205
88	0x489c2a17	319824.72
89	0x4a10f93b	2.3752468e+06
90	0x49d58a3b	1.7493194e+06
91	0x494c3f8a	836600.6
92	0x491ee830	650883.0
93	0x49952afd	1.2219836e+06
94	0x499ff1b8	1.310263e+06
95	0x49216517	661073.44
96	0x49288607	690272.44
97	0x48ed4308	485912.25
98	0x48af5f34	359161.62
99	0x48b240a4	365061.12
100	0x48ea04ea	479271.3
101	0x48b5b0af	372101.47
102	0x48fb496a	514635.3
103	0x4967f57b	950103.7
104	0x4a10163a	2.3607185e+06
105	0x4ac0f75b	6.3231175e+06
106	0x493245b6	730203.4
107	0x47b1632d	90822.35
108	0x47aa6436	87240.42
109	0x4baa9bab	2.2361942e+07
110	0x46937bf3	18877.975
111	0x4afe8e83	8.3413135e+06
112	0x433394f0	179.58179
113	0x4302ffea	130.99966
114	0x4332be70	178.7439
115	0x4429deb1	679.47955
116	0x4512bc65	2347.7747
117	0x4553edd6	3390.8647
118	0x44e4c46e	1830.1384
119	0x4494c9fb	1190.3119
120	0x44c3f720	1567.7227
121	0x4552505f	3365.0232
122	0x4517ed69	2430.8381
123	0x449e1b84	1264.8599
124	0x44c602c0	1584.0859
125	0x44b95391	1482.6115
126	0x450c190d	2241.5657
127	0x4571e94a	3870.5806
128	0x44af9507	1404.6571
129	0x442b995f	686.3964
130	0x4488167c	1088.7026
131	0x451e84ba	2536.2954
132	0x459edf73	5083.931
133	0x45921f6c	4675.9277
134	0x44b3faa2	1439.8323
135	0x4336e3ab	182.88933
136	0x443d5248	757.28564
137	0x4644988b	12582.136
138	0x4268b9c8	58.181427
139	0x47e79fca	118591.58
140	0x478599a4	68403.28
141	0x46f0a534	30802.602
142	0x46969bfd	19277.994
143	0x471ef57b	40693.48
144	0x489843b4	311837.62
145	0x49e49546	1.8725528e+06
146	0x49a510e6	1.3522208e+06
147	0x491d8ade	645293.9
148	0x48f0d90b	493256.34
149	0x4944335e	803637.9
150	0x4934a76e	739958.9
151	0x48de0a9b	454740.84
152	0x48f0f671	493491.53
153	0x48b23c2c	365025.38
154	0x488111d7	264334.72
155	0x487d2282	259210.03
156	0x4890fe11	296944.53
157	0x4881336e	264603.44
158	0x48b7a1b5	376077.66
159	0x492ebc9d	715721.8
160	0x49dbb8e1	1.7999641e+06
161	0x4a953325	4.8889785e+06
162	0x48f8fccb	509926.34
163	0x4788b8a9	70001.32
164	0x4714cc65	38092.395
165	0x4b874bb0	1.7733472e+07
166	0x465e6e26	14235.537
167	0x4ab684a3	5.9807535e+06
168	0x2cdee2a2	6.334781e-12
169	0x2cfc8d89	7.1779843e-12
170	0x2d42740b	1.105339e-11
171	0x2dff7bd0	2.9045127e-11
172	0x2e960099	6.8213164e-11
173	0x2e13a070	3.3566427e-11
174	0x2fda33d6	3.96908e-10
175	0x2ff49e03	4.4495616e-10
176	0x2f82dd05	2.3803906e-10
177	0x2f184e62	1.3852167e-10
178	0x2ef4735a	1.1116326e-10
179	0x2ee7a5b0	1.0534096e-10
180	0x2ec9ba8e	9.1735605e-11
181	0x2ed8b75d	9.8551146e-11
182	0x2f17819a	1.3779414e-10
183	0x2f87d1b2	2.4705354e-10
184	0x30482565	7.2812717e-10
185	0x30da1d18	1.5869857e-09
186	0x2e02fc88	2.978287e-11
187	0x2c926811	4.1611233e-12
188	0x2d7526c5	1.3935246e-11
189	0x2d2ed40a	9.937837e-12
190	0x2d04e45d	7.554038e-12
191	0x2cef1869	6.7954986e-12
192	0x2f06e8cd	1.2269936e-10
193	0x319f2345	4.6315187e-09
194	0x2c4639d2	2.816959e-12
195	0x334f8321	4.8315204e-08
196	0x42c1c8d0	96.89221
197	0x43b0fbbb	353.96664
198	0x444515be	788.3397
199	0x443dab56	758.6771
200	0x446da553	950.5832
201	0x454b2dc2	3250.8599
202	0x452b6451	2742.2698
203	0x447dfdd2	1015.96594
204	0x448736fc	1081.7183
205	0x442d7f32	693.9874
206	0x44060217	536.03265
207	0x443929eb	740.65497
208	0x44a0d9b2	1286.803
209	0x4455c152	855.0206
210	0x4502845c	2088.2725
211	0x44b63d1a	1457.9094
212	0x44ae9af2	1396.842
213	0x44bdbf1d	1517.9723
214	0x4499237e	1225.1091
215	0x446667dd	921.62286
216	0x42af54a0	87.66528
217	0x4282eb86	65.46001
218	0x427fcdb5	63.950886
219	0x42c11796	96.54607
220	0x457cb9a8	4043.6035
221	0x46009440	8229.0625
222	0x4248b5c9	50.177525
223	0x4871ebe5	247727.58
224	0x46da7c16	27966.043
225	0x469d8ea4	20167.32
226	0x4656b285	13740.63
227	0x46233d4e	10447.326
228	0x45d366ea	6764.8643
229	0x45d7e180	6908.1875
230	0x45bca13a	6036.1533
231	0x4597bfa9	4855.9575
232	0x45c3209f	6244.0776
233	0x46712f3c	15435.809
234	0x46be8f57	24391.67
235	0x46a2bbd4	20829.914
236	0x4680127f	16393.248
237	0x460b96df	8933.718
238	0x45c6d4eb	6362.6147
239	0x4599d783	4922.939
240	0x458427ac	4228.959
241	0x45578c1c	3448.7568
242	0x45729dc8	3881.8613
243	0x45c9e4a2	6460.579
244	0x4635d35b	11636.839
245	0x46474c45	12755.067
246	0x46923a26	18717.074
247	0x46da8c2c	27974.086
248	0x45807e68	4111.801
249	0x4813604d	150913.2
250	0x4436640e	729.56335
251	0x4986d0b4	1.1044065e+06
252	0x2e424ebd	4.4180427e-11
253	0x2e2ff9b1	4.0012164e-11
254	0x2e3bb6f0	4.268136e-11
255	0x2e40c361	4.3829277e-11

exp_avg f4 [128, 28]
0	0x00000004	6e-45
1	0x00000004	6e-45
2	0x00000004	6e-45
3	0x00000004	6e-45
4	0x00000004	6e-45
5	0x00000004	6e-45
6	0x00000004	6e-45
7	0x00000004	6e-45
8	0x00000004	6e-45
9	0x00000004	6e-45
10	0x00000004	6e-45
11	0x00000004	6e-45
12	0x00000004	6e-45
13	0x00000004	6e-45
14	0x00000004	6e-45
15	0x00000004	6e-45
16	0x00000004	6e-45
17	0x00000004	6e-45
18	0x00000004	6e-45
19	0x00000004	6e-45
20	0x00000004	6e-45
21	0x00000004	6e-45
22	0x00000004	6e-45
23	0x00000004	6e-45
24	0x00000004	6e-45
25	0x00000004	6e-45
26	0x00000004	6e-45
27	0x00000004	6e-45
28	0xc1d272c7	-26.306044
29	0xc1af5286	-21.915295
30	0xc11d6f2e	-9.8396435
31	0xbfae6d7c	-1.3627162
32	0xc03d9562	-2.9622426
33	0xc20ddf06	-35.467796
34	0xc3461855	-198.09505
35	0xc2e9ac00	-116.83594
36	0xc2858302	-66.755875
37	0x42580631	54.006046
38	0x426f9639	59.8967
39	0xc15327cd	-13.197217
40	0xc262647a	-56.59812
41	0xc24833b7	-50.050503
42	0xc2129a57	-36.650723
43	0xc2258489	-41.37943
44	0xc2539c2f	-52.902523
45	0xc209cbce	-34.449028
46	0xc2145c77	-37.090298
47	0xc1aeef24	-21.866768
48	0xc26815bb	-58.02122
49	0xc351ffc5	-209.9991
50	0xc2ac4637	-86.13714
51	0xc1db2fb2	-27.398289
52	0xc13b08e5	-11.6896715
53	0xc3c47d6e	-392.97992
54	0xc0c7488d	-6.2276063
55	0xc3465bb5	-198.35823
56	0x00000004	6e-45
57	0x00000004	6e-45
58	0x00000004	6e-45
59	0x00000004	6e-45
60	0x00000004	6e-45
61	0x00000004	6e-45
62	0x00000004	6e-45
63	0x00000004	6e-45
64	0x00000004	6e-45
65	0x00000004	6e-45
66	0x00000004	6e-45
67	0x00000004	6e-45
68	0x00000004	6e-45
69	0x00000004	6e-45
70	0x00000004	6e-45
71	0x00000004	6e-45
72	0x00000004	6e-45
73	0x00000004	6e-45
74	0x00000004	6e-45
75	0x00000004	6e-45
76	0x00000004	6e-45
77	0x00000004	6e-45
78	0x00000004	6e-45
79	0x00000004	6e-45
80	0x00000004	6e-45
81	0x00000004	6e-45
82	0x00000004	6e-45
83	0x00000004	6e-45
84	0xbf7b225b	-0.980993
85	0xc08d1dcd	-4.409888
86	0xc0d04c18	-6.509289
87	0xbf9c963b	-1.2233347
88	0x432535c3	165.21
89	0xc2cb1638	-101.543396
90	0x4320d8fb	160.84758
91	0x42b3e986	89.9561
92	0xbe693a96	-0.22776255
93	0xc34086e7	-192.52696
94	0xc34acae5	-202.79256
95	0xc223d7d2	-40.960762
96	0x41acc0aa	21.594074
97	0x41ce523e	25.790157
98	0x41a087aa	20.066242
99	0x41c86202	25.047855
100	0x42410914	48.258865
101	0x4133ede1	11.245576
102	0x3ff80be2	1.9378626
103	0xc213e207	-36.97073
104	0x426091e1	56.14246
105	0x432f670b	175.40251
106	0x4288f87a	68.485306
107	0x3f14e65f	0.5816402
108	0xc257f291	-53.98688
109	0x43a15780	322.6836
110	0xc0e04e92	-7.009591
111	0xc2fe19a5	-127.05009
112	0xbf0efe3c	-0.5585668
113	0x3f8a6055	1.0810648
114	0x4039ca9c	2.9029913
115	0x4081cbd7	4.056133
116	0x40603527	3.5032442
117	0x40d1a206	6.5510283
118	0x4114183b	9.255916
119	0x4000e8fd	2.0142205
120	0x4130731e	11.028105
121	0xbf3f0dd0	-0.7463045
122	0xc10b7f4e	-8.71858
123	0xc03a034e	-2.9064517
124	0xbfd8d661	-1.6940423
125	0xc079c2ed	-3.9025223
126	0xc0dc0c63	-6.876512
127	0x3ef93929	0.48676422
128	0x3fc2c7cf	1.5217227
129	0x3f4076df	0.7518138
130	0xc048656f	-3.131191
131	0x4116859c	9.407619
132	0xc04fd66c	-3.2474623
133	0xc159014f	-13.5628195
134	0xbfba97f4	-1.4577622
135	0xbf137b3a	-0.57609904
136	0x411e95b4	9.911549
137	0x4024b9f1	2.573849
138	0x3e8403fe	0.25784296
139	0x41d087fe	26.066402
140	0x41bf934b	23.94692
141	0x416a1f40	14.632629
142	0x41a4ebe1	20.615175
143	0x42179116	37.891685
144	0x434efa3c	206.97748
145	0xc27797c9	-61.898228
146	0x43375091	183.31471
147	0x42e467dd	114.20286
148	0x421b2f43	38.796154
149	0xc2dcbe49	-110.37165
150	0xc255c04a	-53.437782
151	0x420422ba	33.033913
152	0x428375fc	65.73044
153	0x426b5546	58.833275
154	0x42460571	49.505314
155	0x424a3d7f	50.560055
156	0x4284ffe5	66.499794
157	0x4234c456	45.191734
158	0x4244e3c5	49.22243
159	0x4249724e	50.361626
160	0x43261c27	166.10997
161	0x4380e210	257.7661
162	0x42e43f5f	114.12377
163	0x41ce4a0f	25.786161
164	0xc1b711d2	-22.883701
165	0x4409c7e0	551.12305
166	0x40a6c2a0	5.211258
167	0x43078cac	135.5495
168	0x00000004	6e-45
169	0x00000004	6e-45
170	0x00000004	6e-45
171	0x00000004	6e-45
172	0x00000004	6e-45
173	0x00000004	6e-45
174	0x00000004	6e-45
175	0x00000004	6e-45
176	0x00000004	6e-45
177	0x00000004	6e-45
178	0x00000004	6e-45
179	0x00000004	6e-45
180	0x00000004	6e-45
181	0x00000004	6e-45
182	0x00000004	6e-45
183	0x00000004	6e-45
184	0x00000004	6e-45
185	0x00000004	6e-45
186	0x00000004	6e-45
187	0x00000004	6e-45
188	0x00000004	6e-45
189	0x00000004	6e-45
190	0x00000004	6e-45
191	0x00000004	6e-45
192	0x80000004	-6e-45
193	0x00000004	6e-45
194	0x00000004	6e-45
195	0x00000004	6e-45
196	0xbfabd0a1	-1.3423043
197	0xbfa8a80a	-1.3176281
198	0xbf7718ff	-0.96522516
199	0xc0990cb8	-4.7828026
200	0xbfeb4907	-1.8381661
201	0xbf554497	-0.83307785
202	0xbf6f21ac	-0.93410754
203	0xbf40ce54	-0.7531483
204	0xc007773c	-2.1166525
205	0xc0b7b232	-5.7405024
206	0xc032ea78	-2.7955608
207	0xbfc25a3b	-1.5183786
208	0xbf7d735e	-0.9900416
209	0xc054e653	-3.3265579
210	0xc0c353df	-6.103988
211	0xc0c7df1d	-6.2459855
212	0xc036c0e9	-2.8555243
213	0xbfd7de95	-1.6864802
214	0xbfaa3862	-1.3298457
215	0xbf95d590	-1.1705799
216	0xbf8b00b5	-1.0859591
217	0xbf889795	-1.0671259
218	0xbf960c52	-1.172251
219	0xbfaf8b6b	-1.3714422
220	0x4106c6f9	8.423577
221	0x3ffc0ef4	1.9692063
222	0xbf871d05	-1.0555731
223	0xc1c356cc	-24.417381
224	0x4000f6cb	2.015063
225	0xc0e8e3cc	-7.277807
226	0xc07ab3df	-3.9172285
227	0xc0297900	-2.6480103
228	0xc11bb779	-9.732293
229	0xc11f4597	-9.95449
230	0xc0ea1002	-7.314454
231	0xc0c5fbea	-6.187001
232	0x3fecc43f	1.849739
233	0x41114396	9.079
234	0x411267be	9.150328
235	0x4101425a	8.078699
236	0xc0167506	-2.3508925
237	0x409b978d	4.86225
238	0x409c3b5b	4.8822455
239	0x4051c680	3.2777405
240	0x40faa6a2	7.832841
241	0xc04a0e57	-3.1571252
242	0x409897d5	4.768534
243	0xbeb7e937	-0.35920116
244	0xc01128c1	-2.2681124
245	0xbfacb698	-1.3493223
246	0x41e72b1b	28.896048
247	0x3ff3187c	1.8991847
248	0x412baf6c	10.730328
249	0xbfc4e8f5	-1.5383593
250	0xc00381a4	-2.0547876
251	0xc18af927	-17.371656
252	0x00000004	6e-45
253	0x00000004	6e-45
254	0x00000004	6e-45
255	0x00000004	6e-45

exp_avg_sq f4 [5, 128]
0	0x4538c08c	2956.0342
1	0x45350b4d	2896.7063
2	0x44876499	1083.1437
3	0x44577f47	861.9887
4	0x45070728	2160.4473
5	0x44c73331	1593.5997
6	0x44bbaf57	1501.4794
7	0x454a87bb	3240.4832
8	0x45963615	4806.7603
9	0x458df704	4542.877
10	0x45663ea8	3683.916
11	0x450ba889	2234.5334
12	0x451eeb46	2542.7046
13	0x438a87cb	277.06088
14	0x45485f56	3205.9585
15	0x451f8c43	2552.7664
16	0x45103909	2307.5647
17	0x458e44b0	4552.586
18	0x458600ce	4288.1006
19	0x459fefb4	5117.963
20	0x44f8393d	1985.7887
21	0x453b1060	2993.0234
22	0x44b16512	1419.1584
23	0x45420682	3104.4067
24	0x45122d2c	2338.8232
25	0x45c69bd8	6355.4805
26	0x453a5e3e	2981.8901
27	0x44872605	1081.1881
28	0x44a3c053	1310.0101
29	0x44e5ecbf	1839.3983
30	0x448818e4	1088.7778
31	0x45507172	3335.0903
32	0x45a14e9a	5161.825
33	0x4562a1ae	3626.105
34	0x456da174	3802.0908
35	0x44aeee73	1399.4515
36	0x44e42797	1825.2372
37	0x45102113	2306.0671
38	0x447b5051	1005.25494
39	0x44fe46df	2034.2147
40	0x4495ea00	1199.3125
41	0x4505ddd0	2141.8633
42	0x4496bce3	1205.9027
43	0x45424f25	3108.9465
44	0x455dd01f	3549.0076
45	0x43321e9d	178.11958
46	0x44a1e7b3	1295.2406
47	0x444b3625	812.846
48	0x451517f9	2385.4983
49	0x458e40f2	4552.118
50	0x458f23cd	4580.475
51	0x449b0f60	1240.4805
52	0x45588dc7	3464.861
53	0x454363ec	3126.245
54	0x44b501b8	1448.0537
55	0x45560ccc	3424.7998
56	0x45a7a54b	5364.6616
57	0x44f9bb79	1997.8585
58	0x4588bfaf	4375.9604
59	0x45154502	2388.313
60	0x44b39d99	1436.9249
61	0x45a4c407	5272.5034
62	0x45dc6f3c	7053.9043
63	0x44720481	968.0704
64	0x456823f1	3714.2463
65	0x444aa75c	810.615
66	0x453e4c39	3044.764
67	0x44adea15	1391.3151
68	0x4598c2eb	4888.3647
69	0x448ebe44	1141.9458
70	0x451b648c	2486.2842
71	0x449e90c5	1268.524
72	0x44273c6d	668.94415
73	0x45865cf1	4299.6177
74	0x456bb2cf	3771.1755
75	0x4445aab6	790.66736
76	0x447733bb	988.8083
77	0x4585b3a9	4278.4575
78	0x443020f6	704.515
79	0x456f87d2	3832.4888
80	0x4556bf33	3435.95
81	0x4561fffa	3615.9985
82	0x456e0a29	3808.635
83	0x453e5680	3045.4062
84	0x455ce73f	3534.453
85	0x432b099c	171.03754
86	0x45118544	2328.329
87	0x44970235	1208.069
88	0x44c2e7a5	1559.2389
89	0x44151855	596.3802
90	0x443faa24	766.65845
91	0x45bbd376	6010.4326
92	0x4514c0c4	2380.0479
93	0x457a26eb	4002.4324
94	0x457cd8ec	4045.5576
95	0x4504485d	2116.5227
96	0x432224a9	162.1432
97	0x45b1d3bf	5690.4683
98	0x44c3a8c0	1565.2734
99	0x45256533	2646.325
100	0x4567a5b2	3706.356
101	0x4502855f	2088.3357
102	0x44ddc052	1774.01
103	0x4526f6e7	2671.4314
104	0x451d3ab8	2515.67
105	0x44cd5554	1642.6665
106	0x448cae93	1125.4554
107	0x454742af	3188.1677
108	0x44b76791	1467.2365
109	0x44d46042	1699.008
110	0x44be292e	1521.2869
111	0x451b6dea	2486.8696
112	0x455c8b7d	3528.718
113	0x44b6d770	1462.7324
114	0x44e48383	1828.1097
115	0x4520492f	2564.574
116	0x450af3ca	2223.2368
117	0x4564d1c2	3661.1099
118	0x44cdbb14	1645.8462
119	0x442d5367	693.30316
120	0x440e69e8	569.6548
121	0x4504f5f9	2127.3733
122	0x44b3bf8a	1437.9856
123	0x4511e997	2334.5994
124	0x456904e1	3728.305
125	0x44df280d	1785.2516
126	0x4539e83c	2974.5146
127	0x4526ba1f	2667.6326
128	0x440bd59f	559.3378
129	0x4381bb6b	259.4642
130	0x42da6822	109.203384
131	0x4386ae8c	269.36365
132	0x4351d51c	209.83246
133	0x4393afbb	295.3729
134	0x43532250	211.13403
135	0x441c45d5	625.0911
136	0x441f6ed9	637.732
137	0x43f1b5ab	483.41928
138	0x43bd3e29	378.48563
139	0x439ebe74	317.4879
140	0x43b45859	360.69022
141	0x434852ce	200.32346
142	0x4374e2f1	244.88649
143	0x437936ed	249.21455
144	0x43a25b69	324.71414
145	0x43de2e49	444.3616
146	0x43e0cfe9	449.6243
147	0x43c758ac	398.69275
148	0x433cf84e	188.96994
149	0x43aa4e28	340.6106
150	0x436545df	229.27293
151	0x4393c099	295.50467
152	0x44008285	514.03937
153	0x440cc8aa	563.1354
154	0x438ee9f3	285.82773
155	0x4321a676	161.65024
156	0x4355bc93	213.73662
157	0x43a4163a	328.17365
158	0x434284e5	194.51912
159	0x43e4e735	457.8063
160	0x441a5001	617.25006
161	0x43be98fe	381.19525
162	0x43b422b7	360.2712
163	0x4342a6b4	194.65118
164	0x43b9c9bb	371.57602
165	0x4398c7ce	305.56097
166	0x4363c1aa	227.7565
167	0x43637380	227.45117
168	0x4331e501	177.89455
169	0x43886ed8	272.86597
170	0x43a3e1c3	327.76376
171	0x43d28399	421.0281
172	0x438c343c	280.40808
173	0x435b042a	219.01627
174	0x43164137	150.25475
175	0x4335c4ba	181.76846
176	0x4394ca98	297.58276
177	0x440447a5	529.11945
178	0x440b3db6	556.96423
179	0x434ef203	206.94536
180	0x438ca495	281.2858
181	0x43d6d769	429.6829
182	0x4377ee30	247.93042
183	0x43fb2310	502.27393
184	0x43e33be6	454.46796
185	0x4381549f	258.6611
186	0x444211dd	776.2791
187	0x44221160	648.2715
188	0x43763f76	246.2479
189	0x440611ae	536.27625
190	0x440a5323	553.299
191	0x43003ef7	128.24596
192	0x43f5dd81	491.7305
193	0x4308e17f	136.88084
194	0x439ddd2a	315.72784
195	0x43585b9d	216.35786
196	0x43fc5aa3	504.7081
197	0x436b9ac2	235.60452
198	0x43c47ae1	392.96
199	0x431f6d08	159.4259
200	0x43000f29	128.05922
201	0x43b5833a	363.0252
202	0x43b514b3	362.1617
203	0x4348276a	200.15396
204	0x430c6bec	140.42157
205	0x434b7605	203.46101
206	0x437e7b49	254.48158
207	0x43ff1f9c	510.24695
208	0x438f263b	286.29868
209	0x438538f9	266.4451
210	0x4403c988	527.1489
211	0x44093730	548.8623
212	0x43a6c45a	333.534
213	0x41cc89e8	25.567337
214	0x43ed3bcd	474.4672
215	0x439bc4bf	311.53708
216	0x43689f06	232.62119
217	0x43a00499	320.03592
218	0x434f0f86	207.06064
219	0x443545a0	725.0879
220	0x43dcf62b	441.9232
221	0x43bfc8bd	383.56827
222	0x440744e3	541.07635
223	0x43861808	268.18774
224	0x4345e7d9	197.90565
225	0x4407aa35	542.6595
226	0x433f7ca2	191.48685
227	0x441504df	596.0761
228	0x440fd846	575.3793
229	0x43b8a320	369.2744
230	0x4310635d	144.38814
231	0x43a08523	321.04013
232	0x438f077f	286.05856
233	0x4309fa86	137.9786
234	0x438f3ba0	286.46582
235	0x44023985	520.89874
236	0x43365d8b	182.3654
237	0x435c667d	220.40034
238	0x43873d9e	270.48138
239	0x43ba5384	372.65247
240	0x43ec270b	472.30502
241	0x433bc73d	187.77827
242	0x4354baad	212.7292
243	0x437f750d	255.45723
244	0x43ab7924	342.9464
245	0x43be399d	380.4501
246	0x43688697	232.52574
247	0x42ed2e84	118.59085
248	0x4366afe6	230.6871
249	0x4341b6e8	193.71448
250	0x4366789f	230.47118
251	0x43abe531	343.79056
252	0x4404b533	530.83124
253	0x43bf8198	383.01245
254	0x43c02dd3	384.358
255	0x43c17680	386.92578
