model/530a.pt (torch_old, 336851 bytes, 24 tensors)

fc1.weight f4 [128, 28]
0	0x3cba2e3d	0.022727126
1	0x3e7306f2	0.23733118
2	0xbe3168bc	-0.17325109
3	0xbd080704	-0.033209816
4	0xbeb3cefc	-0.35118854
5	0xbee702de	-0.45119375
6	0xbe1220bf	-0.14270304
7	0xbe57ed86	-0.21086702
8	0xbe890675	-0.2676274
9	0x3df87e88	0.12133509
10	0x3e8ece40	0.2789173
11	0xbe841c4b	-0.25802836
12	0xbde87e88	-0.11352259
13	0x3cf2cc1e	0.029638346
14	0x3e91c975	0.28474012
15	0x3eab0636	0.33403176
16	0x3ec15e22	0.3776713
17	0xbc6bcbbc	-0.014391836
18	0xbfa1a4dd	-1.2628437
19	0xc02a298c	-2.6587858
20	0xbff95602	-1.9479373
21	0xbfec3b43	-1.8455585
22	0xbe81cf26	-0.25353354
23	0x3e186002	0.14880374
24	0x3eb36d19	0.35044172
25	0xbe183ac9	-0.14866175
26	0xc0126bc8	-2.2878284
27	0x3c48b2c6	0.012249654
28	0x3f5e7015	0.86889774
29	0x3f710893	0.9415371
30	0x3e358f2b	0.17730395
31	0x3b8dc24b	0.00432614
32	0xbeb3fcfd	-0.35153952
33	0xbe987069	-0.29773262
34	0x3c10a73d	0.008828935
35	0x3ec3bb6c	0.3822893
36	0xbd0f0fe3	-0.03492726
37	0x3e3e3e57	0.18578468
38	0xbd1a2a3f	-0.037637945
39	0xbe110b11	-0.14164378
40	0xbec9560e	-0.39323467
41	0xbf101a86	-0.5629047
42	0xbcb49382	-0.022042993
43	0xbe7a0334	-0.24415284
44	0xbdaeda09	-0.08537681
45	0xbe79ebc3	-0.24406342
46	0xbeb88eec	-0.3604654
47	0xbde8e87b	-0.11372467
48	0x3e54e7d3	0.20791559
49	0x3dfe194e	0.1240717
50	0xbe282755	-0.16421254
51	0x3f41fd4f	0.75777143
52	0x3f173d35	0.5907777
53	0xbe2b5968	-0.16733325
54	0x3f90aa40	1.1301956
55	0x3c155eb1	0.0091168145
56	0xbfbeb8ca	-1.4900143
57	0xbf98ee92	-1.1947806
58	0xbef94a61	-0.4868956
59	0x3dfe714b	0.12423953
60	0x3b55e172	0.0032635597
61	0xbd5c5d77	-0.053800073
62	0x3d6d012a	0.05786244
63	0xbdb62e7c	-0.08895585
64	0xbd9fb622	-0.07798411
65	0xbcb86889	-0.022510784
66	0x3b346327	0.002752492
67	0x3ebf1d4f	0.37327048
68	0x3d6a62dd	0.05722319
69	0xbdde109d	-0.108430125
70	0xbe153835	-0.14572223
71	0xbe01b75f	-0.12667607
72	0xbef12043	-0.47094926
73	0xbf487d13	-0.7831585
74	0xbf16f431	-0.58966357
75	0xbf44b4d8	-0.76838446
76	0xbe9de2ad	-0.30837002
77	0xbebd5fa7	-0.3698704
78	0xbf713d62	-0.9423429
79	0xbfd83ab2	-1.6892912
80	0xbe22345a	-0.15840283
81	0x3e2b079e	0.16702124
82	0xbfe092f2	-1.7544844
83	0x3d28772d	0.04112928
84	0xbf378441	-0.7168618
85	0xbf8256ff	-1.0182799
86	0xbf1b179e	-0.6058291
87	0xbf2536ab	-0.6453654
88	0xbd631dc3	-0.055448305
89	0xbdc687df	-0.09693884
90	0xbd1f231a	-0.038851835
91	0x3e0ff249	0.14057268
92	0x3e900e9e	0.28136152
93	0x3eb918ad	0.3615164
94	0x3eeffa71	0.4687076
95	0x3ec64bfa	0.3872984
96	0x3d8d9a73	0.069142245
97	0xbdab1423	-0.0835345
98	0xbe3f60b0	-0.18689227
99	0xbe1959ce	-0.14975664
100	0x3e0949a9	0.13407005
101	0x3d24b613	0.040212702
102	0x3f02a4f1	0.5103293
103	0x3d66c375	0.056338746
104	0x3daff856	0.08592288
105	0x3e387937	0.1801499
106	0xbe4c0e10	-0.1992724
107	0xbf6495d6	-0.8929113
108	0x3f88f237	1.0698918
109	0xbd929aed	-0.07158456
110	0xbfb7824d	-1.433664
111	0xbe09cb43	-0.13456444
112	0xbf1703ba	-0.5899006
113	0xbf57edef	-0.8434743
114	0xbe722060	-0.23645163
115	0xbe88f702	-0.26750952
116	0x3de38a5c	0.11110374
117	0x3e8a2f89	0.2698939
118	0x3e5d262c	0.21596593
119	0x3ea771d0	0.3270402
120	0x3ee88fb9	0.45422152
121	0x3e9b0158	0.30274463
122	0xbe5c3583	-0.21504788
123	0x3e3d7d34	0.18504792
124	0x3f044402	0.5166627
125	0x3f0b309c	0.5437105
126	0x3f1e2344	0.6177256
127	0x3f31a428	0.6939111
128	0xbf019c78	-0.5062938
129	0xbf39635c	-0.72417235
130	0xbb646bb1	-0.0034854228
131	0x3e5410e9	0.20709576
132	0x3e1c6fa5	0.15276964
133	0x3eb09fe8	0.34497
134	0x3e9f56fe	0.31121057
135	0xbf1a766b	-0.6033694
136	0xbe57e5f1	-0.2108381
137	0xbe70bdee	-0.23509952
138	0xbfc0621f	-1.5029944
139	0x3b6da882	0.0036263769
140	0xbf962dfe	-1.1732786
141	0xbfbf2ea0	-1.4936104
142	0xbf926899	-1.1438171
143	0x3dc4703a	0.09591718
144	0xbd230368	-0.03979817
145	0xbe73f21c	-0.23822826
146	0x3e3ab83d	0.18234344
147	0x3e5508d1	0.20804144
148	0x3e7e3e1d	0.24828382
149	0x3ea79347	0.3272955
150	0x3e86c837	0.26324627
151	0x3bfe420e	0.007759339
152	0x3ba6e333	0.005093002
153	0xbe36e5bd	-0.17861076
154	0x3de58259	0.112065025
155	0x3ed0c3ee	0.40774482
156	0x3e0dc55d	0.1384482
157	0x3e299a0b	0.16562669
158	0x3ddfb0fb	0.10922428
159	0x3e807491	0.25088933
160	0xbd9b7270	-0.075901866
161	0x3d0d7f29	0.034545098
162	0xbea89ede	-0.32933706
163	0xbfa5ac85	-1.2943274
164	0x3f28cd68	0.65938425
165	0x3e347d59	0.17625941
166	0xbfa22170	-1.2666454
167	0xbe3c41b0	-0.18384433
168	0xbf6d6b1e	-0.9274157
169	0x3c2d9209	0.0105938995
170	0xbdff5b1f	-0.12468552
171	0xbe229ec3	-0.15880875
172	0x3e1d0800	0.15335083
173	0xbc928e57	-0.017890139
174	0x3e5915ff	0.21199797
175	0x3df750dc	0.120759696
176	0x3e5a4fbc	0.21319479
177	0x3dbd4dfd	0.09243391
178	0x3e871048	0.2637961
179	0xbd66b943	-0.056329023
180	0xbe728a77	-0.23685633
181	0xbdbfc5d7	-0.09363907
182	0xbe70c3a6	-0.23512134
183	0xbe6e1dc6	-0.23253545
184	0xbe2aea8a	-0.16691032
185	0x3dc05b5e	0.09392427
186	0xbcfc2aa7	-0.030782057
187	0xbedf22ed	-0.43581334
188	0xbe8394f5	-0.25699583
189	0x3d0c68be	0.034279577
190	0xbf45e806	-0.77307165
191	0xbf8c37a4	-1.095448
192	0xbe1b7bc4	-0.15183932
193	0x3c826363	0.015916532
194	0xbfb00f80	-1.375473
195	0xbd507f28	-0.050902516
196	0xbf18d008	-0.5969243
197	0xbd88f180	-0.066866875
198	0xbe450552	-0.19240311
199	0xbe08b546	-0.133504
200	0xbe71042d	-0.23536749
201	0x3e3f7f13	0.18700819
202	0x3e10afda	0.14129582
203	0x3cf39950	0.029736191
204	0x3ea6e5dd	0.32597247
205	0x3d3f1def	0.046659406
206	0xbdf9052e	-0.12159191
207	0xbe5243dd	-0.205337
208	0xbe822493	-0.2541853
209	0x3e51ec22	0.20500234
210	0x3e2bbeff	0.16772078
211	0xbeaea4ae	-0.34110016
212	0xbe439f87	-0.19103824
213	0xbec9d294	-0.3941847
214	0xbea3ddb4	-0.32005084
215	0xbf01ad65	-0.50655204
216	0xbf6c7f58	-0.9238181
217	0xbf490134	-0.7851746
218	0xbf32429f	-0.69632906
219	0xbf396edd	-0.7243479
220	0xbf41d0cb	-0.7570922
221	0x3d3c7e41	0.046018843
222	0xbf852d3a	-1.0404427
223	0x3e3a3206	0.18183145
224	0x3ebdc3c3	0.37063417
225	0x3eeb80fa	0.4599684
226	0x3d45d62a	0.048299946
227	0x3d9dc2a8	0.07703143
228	0x3d5bb60a	0.053640403
229	0x3c041a32	0.008062886
230	0xbf0c4486	-0.5479206
231	0xbe903ec2	-0.2817288
232	0xbcee2167	-0.029068662
233	0x3e14a2f6	0.1451529
234	0x3de0c04e	0.10974179
235	0x3d06d905	0.03292181
236	0xbe10df32	-0.14147642
237	0xbdb83f30	-0.08996427
238	0x3e403c74	0.18773061
239	0x3d319c45	0.04336192
240	0xbe451761	-0.192472
241	0xbee4943c	-0.44644344
242	0xbe83fd9d	-0.2577943
243	0xbe024591	-0.1272185
244	0x3d4685fc	0.04846762
245	0x3d024011	0.03179938
246	0xbe451d0c	-0.19249362
247	0x3ef3b3e8	0.47598195
248	0xbfa18d6b	-1.2621282
249	0x3d305395	0.04304846
250	0xbee9998b	-0.45624956
251	0x3dab4982	0.0836363
252	0x3e161594	0.14656669
253	0xbe48bb65	-0.19602735
254	0xbd9e91f5	-0.07742683
255	0xbe233a18	-0.1594013

fc1.bias f4 [128]
0	0xba9f6deb	-0.0012163495
1	0xbdc88712	-0.097913876
2	0xbdaf7838	-0.08567852
3	0xbba9c0d7	-0.005180459
4	0x3b32f1de	0.0027304809
5	0x3ceb9465	0.028757283
6	0x3d4abe6f	0.049498018
7	0x3b963730	0.0045842156
8	0xbe4f3ff6	-0.20239243
9	0xbd11995d	-0.03554665
10	0xbd6cfc65	-0.05785789
11	0x3e1321f0	0.14368415
12	0xbd1e3bac	-0.038631126
13	0x3e07eec7	0.1327468
14	0xbd6970b3	-0.056992244
15	0xbe9388ae	-0.28815216
16	0xbe2e554c	-0.17024726
17	0xbdcd60a3	-0.100281976
18	0xbe0abb76	-0.13548073
19	0xbe412215	-0.18860658
20	0xbd942dbd	-0.072352864
21	0xbd4d82b2	-0.05017347
22	0x3f07dc88	0.5307088
23	0xb9e77942	-0.00044150098
24	0xbd9252be	-0.07144688
25	0xbe55f709	-0.20895018
26	0xbdd46b73	-0.10372057
27	0xbc7ffcec	-0.015624266
28	0xbca72dc8	-0.020407572
29	0xbe42990e	-0.19003698
30	0xbddf5c02	-0.10906221
31	0x3df39238	0.118931234
32	0xbdf6b1e4	-0.12045649
33	0xbddacabb	-0.10683199
34	0x3e7cd826	0.24691829
35	0xbd6779fc	-0.056512818
36	0x3d9c25c8	0.07624394
37	0xbe0f4092	-0.13989475
38	0xbc85e782	-0.016345743
39	0xbde43e78	-0.111447275
40	0xbe97e922	-0.29670054
41	0x3e2ce439	0.16883935
42	0xbdaacee1	-0.0834024
43	0xbbb99e2d	-0.005664608
44	0x3d7683d3	0.06018431
45	0xbe73b10e	-0.2379801
46	0xbd2d0be0	-0.042247653
47	0x3f098d90	0.5373163
48	0x3d6c388b	0.05767111
49	0xbd158c14	-0.036510542
50	0x3de643d1	0.11243404
51	0xbd01a84a	-0.031654634
52	0xbe4fdcea	-0.20299116
53	0xbd4738f8	-0.048638314
54	0x3e272077	0.16320978
55	0xbe69349a	-0.22773972
56	0xbdd02074	-0.1016244
57	0x3e3eda83	0.18638043
58	0xbe6396d7	-0.2222551
59	0x3f0a1d33	0.53950804
60	0xb8b3cfe9	-8.5741114e-05
61	0x3d19db20	0.03756249
62	0x3c7c30b3	0.01539247
63	0xbe634c74	-0.22197133
64	0xbd688379	-0.056766007
65	0x3e2f8123	0.17139105
66	0x3c909c9d	0.017652804
67	0x3d487a5f	0.048944827
68	0xbe08d2e2	-0.13361695
69	0x3d753562	0.059865363
70	0xbe442f72	-0.19158724
71	0xbd90be64	-0.07067564
72	0xbe90b836	-0.28265542
73	0xbc90305e	-0.017601188
74	0x3dee1e2a	0.11626847
75	0xbe2d5d81	-0.169302
76	0xbbe2e623	-0.006924407
77	0xbe35d0d2	-0.1775544
78	0xbed6e479	-0.41971186
79	0xbceb04f8	-0.028688893
80	0xbd72490c	-0.059151694
81	0xbe3111ee	-0.17291996
82	0xbd93d7f1	-0.07218922
83	0xbe24c246	-0.16089734
84	0x3e12b8cd	0.14328308
85	0xbc0728db	-0.008249487
86	0xbd83034b	-0.063971125
87	0xbd8766a1	-0.06611372
88	0x3db56f18	0.0885908
89	0xbcb73b5d	-0.022367174
90	0xbe82bfd9	-0.25536993
91	0xbdbf2e63	-0.093350194
92	0xbe257c0b	-0.161606
93	0x3e84db40	0.25948524
94	0xbd75123c	-0.059831843
95	0xbdcf694e	-0.10127507
96	0xbe01acf8	-0.12663639
97	0xbe2e44be	-0.1701841
98	0x3f4a803a	0.7910191
99	0x3da80ee0	0.08205962
100	0x3eb5701f	0.35437104
101	0xbd576f56	-0.052596413
102	0x3da54420	0.080696344
103	0xbe5012ba	-0.20319644
104	0xbc70a5d3	-0.014687973
105	0xbdd0c442	-0.10193683
106	0xbccb3a5b	-0.0248081
107	0x3df4bec6	0.1195045
108	0x3c2849e6	0.010271525
109	0xbdc30c94	-0.095238835
110	0xbaafa303	-0.0013400022
111	0x3ea87e1c	0.32908714
112	0xbe104617	-0.14089237
113	0x3d800e88	0.062527716
114	0xb992bce6	-0.0002798803
115	0x3cf89434	0.030344106
116	0xbe291a22	-0.16513875
117	0xbdc2a840	-0.095047474
118	0x3d6fbe2f	0.058530983
119	0x3d392cbd	0.04520868
120	0xbe8a82b3	-0.2705284
121	0xbc03d0b4	-0.008045364
122	0xbd997d28	-0.07494575
123	0xbe0c43d1	-0.13697745
124	0x3d10fc86	0.035397075
125	0xbcf2f3ce	-0.02965727
126	0xbe1e4c8f	-0.15458892
127	0xbe344494	-0.17604285

fc2.weight f4 [128, 128]
0	0xbe9fdc22	-0.31222636
1	0xbeab5fb7	-0.33471462
2	0x3e8c3ecc	0.2739166
3	0x3cc75abe	0.024335261
4	0x3ebf963c	0.37419307
5	0xbe5f3e35	-0.21801074
6	0xbf3d0057	-0.73828644
7	0x3ece0d65	0.40244594
8	0xbe1ef6b8	-0.15523803
9	0xbec7de1b	-0.3903664
10	0xbde02b69	-0.1094578
11	0xbf86f712	-1.054415
12	0x3e11e663	0.14248042
13	0x3f324e1d	0.6965044
14	0xbe949aae	-0.2902426
15	0xbe8f4f86	-0.2799036
16	0xbe9c62fa	-0.30544263
17	0x3d83515d	0.06412003
18	0xbe318d3a	-0.1733903
19	0xbc0ff177	-0.008785597
20	0xbf156876	-0.5836252
21	0xbdb1caba	-0.08681245
22	0x3e5aedf6	0.21379837
23	0x3dd25209	0.10269553
24	0x3daeda38	0.08537716
25	0xbf0742de	-0.52836406
26	0x3d224dc4	0.039624944
27	0xbf229dcd	-0.63522035
28	0xbebad2c9	-0.3648894
29	0xbf1c10ab	-0.60962933
30	0x3dd822d3	0.10553517
31	0x3ed4b490	0.41544008
32	0x3dbe0961	0.09279133
33	0x3f0b1ce3	0.5434095
34	0x3dfe670b	0.12421998
35	0x3ef0a4b1	0.4700065
36	0x3ecb1177	0.39661762
37	0xbed174d4	-0.40909445
38	0x3ed7e8bf	0.4216976
39	0x3e1f73ab	0.15571468
40	0xbf32362a	-0.696139
41	0x3e1f12c1	0.15534498
42	0x3da0cd63	0.078516744
43	0x3e981a0b	0.2970737
44	0x3d0d32cf	0.034472283
45	0xbf6aaf19	-0.9167343
46	0xbe4e09b3	-0.20120887
47	0xbe3e1f4d	-0.18566628
48	0x3e821544	0.2540685
49	0x3d4c8436	0.049930774
50	0x3e474d61	0.19463111
51	0x3f002f68	0.50072336
52	0x3e98570f	0.2975392
53	0x3ea7e507	0.32791921
54	0xbf2d26d7	-0.6763739
55	0xbeb7dfaf	-0.35912845
56	0xbea147c2	-0.3150006
57	0x3d38051e	0.044926755
58	0x3e80c119	0.25147322
59	0xbf1144f7	-0.56745857
60	0x3e3d3e07	0.18480693
61	0xbece69cd	-0.40315095
62	0x3d1c0596	0.038091265
63	0xbf910ba3	-1.1331676
64	0x3dfdd96b	0.12394985
65	0x3f1d87b5	0.615352
66	0x3f7cc49d	0.9873751
67	0x3f0c4bc1	0.5480309
68	0xbd5c964a	-0.053854264
69	0xbd1d3b4a	-0.03838662
70	0xbea2a529	-0.31766632
71	0xbe45ad75	-0.1930445
72	0xbf56ff99	-0.8398376
73	0x3ea0d898	0.31415248
74	0xbef51b6d	-0.47872487
75	0xbf641688	-0.8909688
76	0xbee08de0	-0.43858242
77	0x3e0e1036	0.13873371
78	0xbeb90127	-0.36133692
79	0x3e589b55	0.21153004
80	0xbecc56f0	-0.39910078
81	0xbf5cc79a	-0.8624207
82	0xbb840b06	-0.0040296344
83	0xbee560f3	-0.4480053
84	0x3ea5f9c1	0.3241711
85	0xbe5b0aad	-0.21390791
86	0xbe74494c	-0.23856086
87	0xbe1af9c4	-0.1513434
88	0xbef56933	-0.47931823
89	0x3d739cad	0.05947559
90	0xbf2d3741	-0.67662436
91	0x3e0bf807	0.13668834
92	0xbec98a51	-0.3936334
93	0x3d4e4964	0.05036296
94	0x3e19d9b4	0.15024453
95	0xbedadff1	-0.4274898
96	0x3ebb0336	0.36525887
97	0xbeab3bac	-0.33443964
98	0xbf01af9c	-0.50658584
99	0xbeb555f7	-0.35417148
100	0xbec9384f	-0.39300773
101	0xbed7efc0	-0.42175102
102	0xbe7809d0	-0.24222493
103	0x3e248ca9	0.16069283
104	0xbaef934c	-0.0018278151
105	0x3e9a0947	0.30085203
106	0xbeb4a4d0	-0.35281992
107	0x3e6ce6fa	0.23134986
108	0x3e05176a	0.12997213
109	0xbf0e4807	-0.55578655
110	0x3dcb668e	0.0993167
111	0x3dd136da	0.1021554
112	0x3e0613c7	0.13093482
113	0xbe409ed2	-0.18810585
114	0xbee1a64f	-0.44072196
115	0xbc0d7ce2	-0.008635731
116	0x3e0150ef	0.1262853
117	0x3f14a707	0.58067364
118	0x3e1a4bb2	0.15067938
119	0x3fabe9ef	1.3430766
120	0xbf93a43d	-1.1534497
121	0xbed6b7ab	-0.41937003
122	0x3fc19ef0	1.5126629
123	0x3e6b24df	0.22963284
124	0xbeafcb4a	-0.34334785
125	0x3ed6ac27	0.41928217
126	0xbf16eec3	-0.5895807
127	0xbe3a38c1	-0.18185712
128	0xbe16061c	-0.14650768
129	0xbda3b036	-0.07992594
130	0x3dce1fa7	0.10064631
131	0x3e626e60	0.22112417
132	0xbe63fb91	-0.22263934
133	0x3eb84421	0.35989478
134	0x3f5c242f	0.8599271
135	0x3ec60903	0.3867875
136	0x3d5f1d89	0.054471526
137	0x3ef85b96	0.48507375
138	0x3d7c808d	0.061646033
139	0x3e2d1d18	0.1690563
140	0x3d7753a3	0.060382497
141	0xbe800d0a	-0.25009948
142	0xbc777337	-0.015103153
143	0xbf4d1a06	-0.80117834
144	0x3d65e3da	0.0561255
145	0x3d2aa167	0.04165783
146	0x3eeb617c	0.45972812
147	0x3d4d85d2	0.05017645
148	0xbd7fa763	-0.06241549
149	0xbef9b38d	-0.487698
150	0xbe16f4e2	-0.14741853
151	0xbe7f6f9f	-0.24944924
152	0xbd442b76	-0.04789301
153	0x3c9e6304	0.019334324
154	0x3daedfd9	0.08538789
155	0x3e90fd86	0.28318423
156	0x3f97ffcc	1.1874938
157	0x3f758c9d	0.95917684
158	0xbf0c5bbb	-0.5482747
159	0xbecbe3cb	-0.3982223
160	0x3f2b7cfb	0.6698758
161	0x3ec43191	0.38319066
162	0x3e81234d	0.25222245
163	0xbe089478	-0.13337886
164	0x3e7419d4	0.23837978
165	0x3ea17515	0.3153464
166	0xbf22b574	-0.63558125
167	0xbfb1684e	-1.3859956
168	0x3e8d71cf	0.27625892
169	0x3eafa0da	0.34302408
170	0x3e254d6c	0.16142815
171	0xbde144ff	-0.10999488
172	0x3e357dfa	0.17723837
173	0x3e945037	0.2896745
174	0x3ed6c7ec	0.41949403
175	0x3ec9a83c	0.39386165
176	0x3db79f98	0.08965987
177	0x3ebe5a4f	0.37178275
178	0xbdd3d510	-0.10343373
179	0x3d54b0f7	0.05192658
180	0xbe112559	-0.14174403
181	0xbeace531	-0.3376861
182	0x3dae6297	0.08514898
183	0xbf454c69	-0.7706972
184	0xbe254397	-0.16139065
185	0x3e905532	0.2819
186	0xbec02fe0	-0.37536526
187	0xbecd936d	-0.4015154
188	0x3ede6309	0.43434933
189	0xbef9a529	-0.4875882
190	0x3e4ab5d2	0.19795921
191	0x3dff501f	0.12466454
192	0x3e51f802	0.20504764
193	0xbe5d1b0f	-0.21592353
194	0xbf1c143c	-0.60968375
195	0xbe9ad99b	-0.30244145
196	0x3da7004b	0.08154353
197	0x3e0353e9	0.12824978
198	0x3ec57f1f	0.38573548
199	0xbedf2f7a	-0.4359091
200	0x3f48c345	0.7842296
201	0xbe206482	-0.1566334
202	0xbea45092	-0.3209272
203	0x3f88728b	1.0659956
204	0x3ee30524	0.4433986
205	0xbe904be4	-0.281829
206	0x3d6a50ba	0.057205893
207	0x3e14d976	0.1453608
208	0x3eece17c	0.4626578
209	0x3f4ba39e	0.79546535
210	0x3f3164fa	0.69294703
211	0x3d222552	0.039586373
212	0xbebf3490	-0.3734479
213	0xbe475f95	-0.19470055
214	0x3e08704c	0.13324088
215	0xbf03c518	-0.51472616
216	0xbf2d25d9	-0.67635876
217	0x3f15587a	0.5833813
218	0x3e0d4e41	0.13799383
219	0x3eb0869d	0.34477702
220	0x3d0ea2a0	0.03482306
221	0xbe8b0d06	-0.27158374
222	0xbe532be4	-0.20622212
223	0x3e772019	0.24133338
224	0xbee2dc56	-0.44308728
225	0xbdb49905	-0.08818249
226	0x3dd635ac	0.10459456
227	0xbe8939d3	-0.2680193
228	0x3eedad6d	0.46421376
229	0x3eed114e	0.46302265
230	0x3dd8b2df	0.10580992
231	0xbf156478	-0.5835643
232	0x3ee265f1	0.442184
233	0xbdb5e499	-0.08881492
234	0x3f95321f	1.1655921
235	0x3e87001a	0.26367265
236	0xbc3775a5	-0.011197482
237	0x3ea54a41	0.32283214
238	0x3e426f7e	0.18987843
239	0xbdef9b9e	-0.116996035
240	0x3f526b4d	0.8219498
241	0xbe65fa8c	-0.22458857
242	0xbd87c2f1	-0.06628979
243	0x3db7f115	0.089815296
244	0xbea038ec	-0.31293428
245	0x3d54dd50	0.051968873
246	0x3e74d8b8	0.23910797
247	0xbf618699	-0.88096005
248	0x3ef17f75	0.47167554
249	0x3ea980bb	0.33106026
250	0xbf1e4ef9	-0.6183925
251	0xbec6d597	-0.3883483
252	0x3ea42c07	0.3206484
253	0x3e260d5a	0.1621603
254	0x3f46313d	0.7741888
255	0xbdaea418	-0.08527392

fc2.bias f4 [128]
0	0xbe9a2103	-0.3010331
1	0x3d456e18	0.048200697
2	0xbe5c4655	-0.21511205
3	0xbe868323	-0.26271924
4	0xbd38808a	-0.04504446
5	0xbd781dd1	-0.06057531
6	0x3e0b2cd8	0.13591325
7	0xbea89db7	-0.32932827
8	0xbe8b5d64	-0.2721969
9	0xbdb0ad7f	-0.08626842
10	0xbe93b3e3	-0.2884818
11	0x3db5f827	0.08885222
12	0xbe8f1c19	-0.27951124
13	0xbe2ce716	-0.16885027
14	0x3dde3d5f	0.10851549
15	0x3db156bb	0.08659121
16	0x3ebadc69	0.36496285
17	0xbe83f610	-0.25773668
18	0xbd2b0892	-0.04175622
19	0xbd60bba1	-0.054866437
20	0xbd1988a1	-0.037483815
21	0xbcf1699b	-0.029469302
22	0xbe062fa8	-0.13104117
23	0x3da79e9d	0.0818455
24	0xbeca4b6f	-0.39510676
25	0xbd07a4eb	-0.033116262
26	0x3daeb330	0.08530271
27	0x3b9ead7c	0.0048424583
28	0x3e8f8c37	0.28036663
29	0x3e2bcc9f	0.16777276
30	0xbe4593c5	-0.19294651
31	0xbe802df6	-0.25035065
32	0xbde0c7d8	-0.10975617
33	0xbd929b03	-0.071584724
34	0x3d877e3f	0.066158764
35	0xbd8f4263	-0.06995084
36	0xbe6ffb8b	-0.234358
37	0x3eccdde5	0.40013042
38	0xbe51ae04	-0.20476538
39	0xbef2d506	-0.4742815
40	0x3e0ad016	0.13555941
41	0x3e2195de	0.15779826
42	0xbe17e17e	-0.14832112
43	0xbee8e8a6	-0.45489997
44	0xbeee6f75	-0.4656941
45	0x3edd3af2	0.43209034
46	0xbdd33817	-0.10313433
47	0x3e3ce6b4	0.18447381
48	0xbe7152a9	-0.23566689
49	0xbd8ddbfe	-0.06926726
50	0xbe7dd40c	-0.2478792
51	0xbd12c1e6	-0.035829447
52	0xbe77678f	-0.24160598
53	0xbe00abab	-0.12565486
54	0x3d0d1cb0	0.034451187
55	0xbeb19040	-0.34680367
56	0xbd470746	-0.04859092
57	0xbcc51dc6	-0.024062049
58	0xbe8acc1d	-0.2710885
59	0xbed160fe	-0.40894312
60	0xbc8f1d33	-0.017469978
61	0xbe2ce469	-0.16884007
62	0xbe28e623	-0.1649404
63	0x3e752ea8	0.23943579
64	0xbeaae113	-0.33374843
65	0x3e18cc04	0.14921576
66	0x3ec0dfef	0.37670848
67	0x3c5e759b	0.013577844
68	0xbc496a65	-0.012293433
69	0xbe91fe95	-0.28514543
70	0x3dac0a39	0.08400387
71	0x3dfd78af	0.12376534
72	0x3ed69b9d	0.419156
73	0x3c88563f	0.016642688
74	0xbd441161	-0.047868136
75	0x3ebf24d7	0.37332794
76	0xbd68803d	-0.056762923
77	0xbe08e6be	-0.13369271
78	0xbe0efcf7	-0.13963686
79	0xbe55381b	-0.20822184
80	0x3d7ffd57	0.062497463
81	0x3ec32422	0.38113505
82	0xbd8d1255	-0.06888262
83	0xbe4ff1ab	-0.20307033
84	0xbd6bebc0	-0.057597876
85	0xbf198853	-0.5997364
86	0xbebc125a	-0.3673275
87	0x3c356679	0.011071795
88	0xbe9a00de	-0.30078787
89	0xbe6ac120	-0.22925234
90	0x3e90771d	0.28215876
91	0x3cd02c67	0.025411798
92	0xbe81a9e5	-0.25324932
93	0xbc68af2b	-0.01420192
94	0xbdf86f62	-0.121306196
95	0xbd2bed85	-0.041974563
96	0xbec24b17	-0.37947914
97	0xbe2c3d45	-0.16820247
98	0x3d76dd90	0.060269892
99	0xbe61efd2	-0.2206414
100	0xbeba0bd9	-0.36337164
101	0x3dd4254e	0.10358678
102	0x3dd9afdd	0.106292464
103	0xbe041a34	-0.1290062
104	0x3c0b6ee8	0.008510329
105	0xbebd47b1	-0.3696876
106	0xbda37aa6	-0.07982378
107	0xbe7954cb	-0.24348752
108	0xbdd7a1c5	-0.10528902
109	0x3bf7338d	0.007543987
110	0x3dc920d7	0.09820717
111	0x3d486755	0.04892667
112	0xbe52c3b0	-0.20582461
113	0xbe0ea2b9	-0.13929261
114	0xbd48085e	-0.048836105
115	0x3d0b37f6	0.033988915
116	0xbe30fd33	-0.17284088
117	0x3db5be41	0.08874179
118	0x3dd7afc3	0.10531571
119	0xbd5c88dd	-0.05384146
120	0x3e051442	0.12996009
121	0x3e1834e0	0.1486392
122	0x3e9f0484	0.31058133
123	0xbe89a609	-0.26884487
124	0xbbadc978	-0.005303558
125	0xbe1703ce	-0.14747545
126	0x3c8cb3ee	0.01717564
127	0xbd8f9437	-0.070106916

out.weight f4 [5, 128]
0	0x3f6680d0	0.900403
1	0xbe159563	-0.14607768
2	0xbe9c8753	-0.30571994
3	0x3ebd0d3a	0.36924154
4	0xbf460e83	-0.77365893
5	0xbedf187a	-0.43573362
6	0xbe004464	-0.12526089
7	0x3f155f7d	0.5834883
8	0x3efe614c	0.49683607
9	0x3f1aacd4	0.60419965
10	0x3f5980f0	0.8496237
11	0xbea9b3c7	-0.33144972
12	0x3ebbd7df	0.36688134
13	0x3e16bacb	0.14719693
14	0xbec912b6	-0.39272088
15	0xbf05a9a9	-0.52212006
16	0xbecabce7	-0.39597246
17	0x3f2e0477	0.6797556
18	0x3f0cf01c	0.5505388
19	0x3f254a7c	0.6456678
20	0xbd68f53c	-0.0568745
21	0x3e1e669b	0.15468828
22	0xbef3883b	-0.47564873
23	0x3ef8b016	0.48571843
24	0x3f3cf745	0.73814803
25	0x3ed38f5f	0.4132032
26	0xbee9f9fc	-0.45698535
27	0xbe8d0374	-0.27541697
28	0x3f36f862	0.7147275
29	0x3e29f716	0.16598162
30	0x3e99c529	0.30033234
31	0x3ee4b94b	0.44672617
32	0x3f13a9e8	0.5768113
33	0x3ee98c99	0.4561508
34	0x3e8bf18b	0.2733272
35	0x3eb356be	0.35027117
36	0x3f1ebf89	0.6201101
37	0xbeb8bcdc	-0.36081588
38	0x3e313ec1	0.17309095
39	0x3f000430	0.5000639
40	0x3b54fb89	0.003249856
41	0xbe4c9e46	-0.19982252
42	0x3e28cdae	0.1648471
43	0x3f06c734	0.5264771
44	0x3f024348	0.50883913
45	0xbe2d0e5f	-0.16900013
46	0xbe16082d	-0.14651556
47	0x3e8c7516	0.2743308
48	0x3e9157eb	0.2838739
49	0x3f23974c	0.63902736
50	0x3ef3be88	0.476063
51	0xbed44524	-0.41459
52	0xbf0afdce	-0.54293525
53	0x3f2c24b7	0.6724352
54	0xbd93bac6	-0.072133586
55	0x3ef0e180	0.47047043
56	0x3f3d3a13	0.7391674
57	0xbeab2a06	-0.334305
58	0x3f2923f2	0.66070473
59	0x3f158cf8	0.58418226
60	0xbf022201	-0.50833136
61	0x3f31676c	0.69298434
62	0x3f21bac1	0.6317559
63	0xbe16055f	-0.14650486
64	0x3f15631f	0.5835437
65	0xbe30e5e7	-0.17275201
66	0xbeaa02cf	-0.33205268
67	0xbf024753	-0.5089008
68	0x3f1ade2e	0.6049527
69	0x3ecf5222	0.4049235
70	0x3eea10fb	0.4571608
71	0x3f021187	0.50807995
72	0x3f3b18fd	0.73085004
73	0x3f28f189	0.65993553
74	0x3f159295	0.5842679
75	0xbd90f275	-0.07077495
76	0xbd9080bc	-0.07055804
77	0x3f44b260	0.7683468
78	0x3f168c69	0.58808
79	0x3f38baf1	0.7216025
80	0xbe5f7c04	-0.21824652
81	0x3f301ffc	0.68798804
82	0x3f498461	0.7871762
83	0x3f33b1ae	0.7019299
84	0x3ebabb0c	0.3647083
85	0x3f5c616d	0.8608616
86	0x3f1fa4df	0.6236095
87	0x3ed5a50d	0.41727486
88	0x3f08112c	0.531512
89	0x3ee76de2	0.4520102
90	0xbe06cc50	-0.13163877
91	0x3f3d9f70	0.7407141
92	0x3f5ad43d	0.854801
93	0xbf0a5873	-0.5404121
94	0x3d911b3e	0.07085274
95	0xbe58452f	-0.21120141
96	0x3dfa3849	0.12217767
97	0x3ed60da1	0.41807273
98	0xbe59a658	-0.21254861
99	0x3f160e18	0.58615255
100	0x3f8eb8f4	1.1150193
101	0x3f2419dc	0.6410196
102	0xbe3555ad	-0.17708464
103	0xbee08c02	-0.43856817
104	0xbed4000c	-0.41406286
105	0xbf14c9e5	-0.58120567
106	0xbde1ca8f	-0.11024963
107	0x3ed9132e	0.42397445
108	0xbebf736f	-0.37392756
109	0xbe4e4efc	-0.20147318
110	0xbe8bccfd	-0.2730483
111	0x3f0474d3	0.5174076
112	0x3f51da51	0.8197375
113	0xbf172944	-0.5904734
114	0xbdfb46c5	-0.122693576
115	0xbeb9c956	-0.3628642
116	0x3f267d30	0.6503477
117	0xbf0ac69f	-0.5420932
118	0xbc45341f	-0.012036352
119	0xbf20792a	-0.6268488
120	0xbe81824b	-0.25294718
121	0xbc6e6a7a	-0.014551753
122	0xbdd57ccc	-0.10424194
123	0x3edac8af	0.42731234
124	0x3f4632c8	0.77421236
125	0x3f10073a	0.56261027
126	0x3f0c9c6f	0.549262
127	0x3f69691c	0.9117601
128	0x3f3158a8	0.69275904
129	0xbf86fb0b	-1.0545362
130	0xbf2d7fb7	-0.67773
131	0x3e9151ab	0.2838262
132	0xbf982b42	-1.1888201
133	0xbf2290f2	-0.6350242
134	0xbf2ff5a8	-0.68734217
135	0x3f2d8a98	0.677896
136	0x3f586ec1	0.84544
137	0x3f3f2ac4	0.7467463
138	0x3f3822b3	0.71927947
139	0xbf2e6066	-0.6811584
140	0x3f1cdbc8	0.6127286
141	0xbdd0a854	-0.10188356
142	0xbf497719	-0.78697354
143	0xbf58cbdc	-0.84686065
144	0xbf2bb8ab	-0.67078656
145	0x3f80ca70	1.0061779
146	0x3f61f147	0.88258785
147	0x3ee0ba4a	0.43892127
148	0xbf0b907f	-0.5451736
149	0x3f18911f	0.5959644
150	0xbf48dcc7	-0.7846188
151	0x3f0bea5a	0.5465447
152	0x3f4a1c05	0.78949004
153	0x3f627943	0.8846628
154	0xbf7e4e00	-0.9933777
155	0xbf2cb412	-0.67462265
156	0x3f9e15e1	1.2350427
157	0x3f012fca	0.50463545
158	0x3f303ab4	0.68839574
159	0x3f69360f	0.9109811
160	0x3f5685d5	0.8379796
161	0x3f305480	0.68878937
162	0x3f037755	0.5135396
163	0x3f22bb7e	0.6356734
164	0x3f336a45	0.7008403
165	0xbf1084fd	-0.56452924
166	0x3b81d761	0.0039624427
167	0x3fd2b383	1.6461033
168	0xbea1e223	-0.3161784
169	0xbf2ee3b2	-0.68316185
170	0x3f0dab57	0.5533957
171	0x3eff09ae	0.49812073
172	0x3f5bd6dc	0.85874724
173	0x3e5a16d5	0.21297772
174	0xbf3b0201	-0.7304993
175	0xbee25f50	-0.44213343
176	0x3f1d20ea	0.6137835
177	0x3f6b14b6	0.9182848
178	0x3f6affbf	0.9179649
179	0xbf10c211	-0.5654612
180	0xbf76ffef	-0.96484274
181	0x3f4e8b76	0.8068155
182	0xbf571d0e	-0.8402871
183	0x3f39bf67	0.7255768
184	0x3f3bd4d2	0.73371613
185	0xbf80ee17	-1.0072659
186	0x3f637a76	0.88858736
187	0x3f472a25	0.7779868
188	0xbf420e09	-0.75802666
189	0x3f2c2c98	0.67255545
190	0x3f5117b9	0.8167682
191	0xbe855c3e	-0.26046938
192	0x3f321938	0.6956973
193	0xbee4b6a4	-0.44670594
194	0xbf1c5cff	-0.610794
195	0xbf422945	-0.7584422
196	0x3f489153	0.7834675
197	0x3ee6d368	0.45083165
198	0x3f472082	0.7778398
199	0x3f85250d	1.0401932
200	0x3f720bb7	0.94549125
201	0x3f85aebb	1.0443949
202	0x3f1d2d6e	0.61397445
203	0xbc13094d	-0.008974385
204	0xbf6649b0	-0.8995619
205	0x3f3626dc	0.71153045
206	0x3e8babea	0.27279598
207	0x3f2c68fa	0.6734768
208	0xbf70cafd	-0.94059736
209	0x3f5e8faf	0.86937994
210	0x3f570c7e	0.84003437
211	0x3f66005d	0.89844304
212	0x3f0af239	0.5427585
213	0x3f0f15e2	0.55892766
214	0x3f441307	0.76591533
215	0x3f1ce297	0.6128325
216	0x3ed6dfa0	0.41967487
217	0x3e3075f9	0.17232503
218	0xbef0b046	-0.47009486
219	0x3f40a88e	0.75257194
220	0x3f0915a4	0.53548646
221	0xbf914428	-1.1348925
222	0x3f526bae	0.82195556
223	0xbf5c5692	-0.86069596
224	0xbeafdadc	-0.34346664
225	0x3f5db011	0.8659678
226	0xbf76bdbf	-0.9638328
227	0x3f74b1d7	0.9558386
228	0x3ed0125a	0.40639
229	0x3f1c3ecb	0.61033314
230	0xbf41de48	-0.757298
231	0xbf4f7edc	-0.8105295
232	0xbf9a55eb	-1.205747
233	0xbf5d856b	-0.86531705
234	0xbf55120b	-0.83230656
235	0x3f3ba649	0.73300606
236	0xbf35bb38	-0.709888
237	0xbf85819a	-1.0430176
238	0xbedcfc04	-0.43161023
239	0x3f39769e	0.7244662
240	0x3f408a0e	0.75210655
241	0xbf17dbf9	-0.59320027
242	0xbf6ca668	-0.92441416
243	0xbf59e928	-0.85121393
244	0x3f20c71b	0.6280381
245	0xbf52ce93	-0.8234646
246	0xbf2b8ed7	-0.6701483
247	0xbef4c977	-0.47809955
248	0x3d9b8a87	0.07594781
249	0xbf28922e	-0.6584805
250	0xbf3fc9d0	-0.74917316
251	0x3f007d23	0.50190943
252	0x3f71ef73	0.94505996
253	0x3e6df2a8	0.23237097
254	0x3ef5fbd1	0.48043683
255	0x3f0acda4	0.5422003

out.bias f4 [5]
0	0xc02d83f6	-2.7111793
1	0x3f90cf3f	1.1313246
2	0x402566cd	2.5843995
3	0x3db99b41	0.090628155
4	0xbfa66e67	-1.3002442

exp_avg_sq f4 [128, 28]
0	0x3ec486e1	0.38384154
1	0x3e3011bb	0.17194264
2	0x3d802c10	0.06258404
3	0x3d0ab849	0.033867154
4	0x3cd0e1a8	0.025498226
5	0x3cb949bf	0.022618173
6	0x3cc19053	0.02362839
7	0x3cebea42	0.028798226
8	0x3d378042	0.04480005
9	0x3dbc3dd8	0.09191483
10	0x3e795f4b	0.24352758
11	0x3f03eab6	0.51530015
12	0x3d51e163	0.051240336
13	0x3d819952	0.06328072
14	0x3dcecf49	0.1009813
15	0x3e677218	0.22602117
16	0x3f196016	0.5991224
17	0x3c60b21b	0.013714339
18	0x3b50f4f3	0.0031884282
19	0x3b388cff	0.0028160212
20	0x3b7f4226	0.003894934
21	0x3c2762e0	0.010216445
22	0x3dba6f0d	0.091032125
23	0x3ec843a9	0.3911412
24	0x3ac59731	0.0015074966
25	0x3eb15306	0.34633654
26	0x3b126b00	0.002234161
27	0x4187eff4	16.992165
28	0x46afa5a8	22482.828
29	0x46038e36	8419.553
30	0x45a0c0b6	5144.089
31	0x45492293	3218.161
32	0x45015fa2	2069.977
33	0x451a49e8	2468.6191
34	0x46d0559b	26666.803
35	0x465d7c47	14175.069
36	0x469e5bc3	20269.88
37	0x479b9d2f	79674.37
38	0x4794d237	76196.43
39	0x46fea8c7	32596.389
40	0x46c47a1c	25149.055
41	0x46777f1d	15839.778
42	0x462a6aa2	10906.658
43	0x460954a6	8789.162
44	0x46092644	8777.566
45	0x461d4cec	10067.23
46	0x4673a757	15593.835
47	0x46e73423	29594.068
48	0x4756840f	54916.06
49	0x47dd8b47	113430.555
50	0x46cf81fa	26560.988
51	0x46afa5df	22482.936
52	0x4591cd4d	4665.6626
53	0x48ed8a62	486483.06
54	0x444192ef	774.29584
55	0x48fc88a7	517189.22
56	0x3c3fb93b	0.011701877
57	0x3cd791bd	0.02631461
58	0x3dfdd2e1	0.123937376
59	0x400b6c9c	2.178504
60	0x401a9876	2.4155555
61	0x3f14f281	0.5818253
62	0x3e9ea43b	0.30984673
63	0x3e691258	0.22760904
64	0x3e446d2d	0.19182272
65	0x3e405183	0.18781094
66	0x3e648c89	0.22319235
67	0x3e991802	0.2990113
68	0x3f914f5f	1.1352347
69	0x3f5f8bd4	0.87322736
70	0x3f481f86	0.781731
71	0x3e1e3791	0.15450884
72	0x3ce8ab72	0.028402064
73	0x3c31a916	0.010843536
74	0x3bec8491	0.0072179516
75	0x3bbe2bc9	0.0058035594
76	0x3bc2d2c3	0.005945535
77	0x3bf17131	0.00736823
78	0x3c03bc7c	0.008040544
79	0x3c3dfdec	0.011596184
80	0x3ff7e394	1.9366326
81	0x40542c4a	3.3152032
82	0x3bb775a2	0.0055987397
83	0x42b3a689	89.825264
84	0x46db472a	28067.582
85	0x463eda5b	12214.589
86	0x45ffee67	8189.8003
87	0x45f430ae	7814.085
88	0x47774e87	63310.527
89	0x488c079f	286780.97
90	0x483b87f3	192031.8
91	0x48557542	218581.03
92	0x4905627e	546343.9
93	0x491e5901	648592.06
94	0x496be357	966197.44
95	0x4942ef55	798453.3
96	0x488ce6a0	288565.0
97	0x482474dc	168403.44
98	0x47f457a5	125103.29
99	0x488caf59	288122.78
100	0x4981cce3	1.0633244e+06
101	0x492c5b7b	705975.7
102	0x4895e6d1	306998.53
103	0x489ab719	316856.78
104	0x49183205	623392.3
105	0x49cbbcc8	1.669017e+06
106	0x48e775dd	474030.9
107	0x46df7437	28602.107
108	0x486cce21	242488.52
109	0x4a791ec0	4.081584e+06
110	0x45b97910	5935.133
111	0x4a436c6b	3.2018188e+06
112	0x446b87f8	942.1245
113	0x4412ad23	586.70526
114	0x4464208f	912.5087
115	0x44701f31	960.48737
116	0x44e60be0	1840.3711
117	0x453a7cb9	2983.7952
118	0x45145986	2373.5952
119	0x46b0a67b	22611.24
120	0x4749e8e7	51688.902
121	0x46e3e95e	29172.684
122	0x46610bdb	14402.964
123	0x466d075e	15169.842
124	0x45f427d5	7812.979
125	0x45a96d0e	5421.632
126	0x45b6ae4c	5845.787
127	0x4689ba59	17629.174
128	0x46a3fbce	20989.902
129	0x4697d988	19436.766
130	0x4624a4c9	10537.196
131	0x460753ed	8660.981
132	0x462aaf52	10923.83
133	0x465fc3e4	14320.973
134	0x4665e96e	14714.357
135	0x44711096	964.25916
136	0x46c8c32d	25697.588
137	0x479796e3	77613.77
138	0x4369d970	233.84937
139	0x47f40f8a	124959.08
140	0x4675a490	15721.141
141	0x460875c3	8733.44
142	0x45db93a2	7026.454
143	0x466580b3	14688.175
144	0x479bc8be	79761.484
145	0x48877f02	277496.06
146	0x48453bfc	201967.94
147	0x4920a81a	658049.6
148	0x493782f2	751663.1
149	0x4909dfc7	564732.44
150	0x49215559	660821.56
151	0x489a681c	316224.88
152	0x482a8523	174612.55
153	0x47f94404	127624.03
154	0x4859006f	222209.73
155	0x48c9137c	411803.88
156	0x4911220b	594464.7
157	0x488928d5	280902.66
158	0x484d65b6	210326.84
159	0x488b742b	285601.34
160	0x49073126	553746.4
161	0x49808b51	1.0530341e+06
162	0x47b93e28	94844.31
163	0x46773020	15820.031
164	0x48d42b23	434521.1
165	0x4a5a197f	3.5733438e+06
166	0x45ac7e7e	5519.8115
167	0x49a0b01b	1.3163554e+06
168	0x2a3f1156	1.6970222e-13
169	0x2a588006	1.9229071e-13
170	0x2aa6b1cf	2.9610903e-13
171	0x2b5b0333	7.780887e-13
172	0x2c0096d9	1.8273631e-12
173	0x2b7d1af0	8.992104e-13
174	0x2d3b0dd6	1.06327915e-11
175	0x2d51b2a7	1.1919943e-11
176	0x2ce05d7a	6.376841e-12
177	0x2c82906a	3.7108554e-12
178	0x2c518e15	2.9779558e-12
179	0x2c469437	2.8219768e-12
180	0x2c2cee84	2.4575073e-12
181	0x2c39c7bf	2.6400963e-12
182	0x2c81e0de	3.691366e-12
183	0x2ce8dc57	6.6182992e-12
184	0x2dab9320	1.9505786e-11
185	0x2e3afa55	4.2513843e-11
186	0x2b609381	7.978549e-13
187	0x29fb0375	1.1147239e-13
188	0x2ad227d8	3.733114e-13
189	0x2a95df1e	2.6622536e-13
190	0x2a63d7cf	2.0236524e-13
191	0x2a4cf6cb	1.8204463e-13
192	0x2c674d1e	3.2869883e-12
193	0x2f086bad	1.2407382e-10
194	0x29a9edac	7.546337e-14
195	0x30b1e3ce	1.2943191e-09
196	0x446188a3	902.13495
197	0x4638dd5d	11831.341
198	0x467d60cf	16216.202
199	0x45de2e40	7109.7812
200	0x454916b7	3217.4197
201	0x44f1d947	1934.7899
202	0x44b8acc4	1477.3989
203	0x44bcd801	1510.7501
204	0x4587f691	4350.821
205	0x458407ef	4224.9917
206	0x45b1caf0	5689.367
207	0x459fbb09	5111.3794
208	0x4582bef3	4183.8687
209	0x45660584	3680.3447
210	0x450324ef	2098.3083
211	0x4411f04c	583.75464
212	0x43bb8db4	375.10706
213	0x439d7e5e	314.98724
214	0x435da1d3	221.63213
215	0x4328e7a7	168.90489
216	0x42b3486b	89.64144
217	0x42fa3330	125.099976
218	0x436fe1a1	239.88136
219	0x445f8f8a	894.2428
220	0x440fc216	575.0326
221	0x46f1df46	30959.637
222	0x4290da3d	72.42625
223	0x492b239f	700985.94
224	0x469c8277	20033.232
225	0x463469c0	11546.4375
226	0x46117740	9309.8125
227	0x46053476	8525.115
228	0x4601c372	8304.861
229	0x4632cec3	11443.69
230	0x470ae7e6	35559.9
231	0x48f128ec	493895.38
232	0x4925e8c7	679564.44
233	0x4885c184	273932.12
234	0x480e7045	145857.08
235	0x479a34cd	78953.6
236	0x4765fdc9	58877.785
237	0x474245d7	49733.84
238	0x47e2bc12	116088.14
239	0x4883820f	269328.47
240	0x4822ea7c	166825.94
241	0x47e83bb3	118903.4
242	0x47bff580	98283.0
243	0x47b75d8f	93883.12
244	0x47d3cee9	108445.82
245	0x471e3982	40505.508
246	0x46e425a7	29202.826
247	0x469fe183	20464.756
248	0x48c6a546	406826.2
249	0x4954a1e2	870942.1
250	0x452f7a6e	2807.6519
251	0x49255f0a	677360.6
252	0x2ba691e3	1.1835501e-12
253	0x2b96dabe	1.0718854e-12
254	0x2ba0eaee	1.143389e-12
255	0x2ba53f08	1.174145e-12

exp_avg f4 [128, 28]
0	0x00000004	6e-45
1	0x00000004	6e-45
2	0x00000004	6e-45
3	0x00000004	6e-45
4	0x00000004	6e-45
5	0x00000004	6e-45
6	0x00000004	6e-45
7	0x00000004	6e-45
8	0x00000004	6e-45
9	0x00000004	6e-45
10	0x00000004	6e-45
11	0x00000004	6e-45
12	0x00000004	6e-45
13	0x00000004	6e-45
14	0x00000004	6e-45
15	0x00000004	6e-45
16	0x00000004	6e-45
17	0x00000004	6e-45
18	0x00000004	6e-45
19	0x00000004	6e-45
20	0x00000004	6e-45
21	0x00000004	6e-45
22	0x00000004	6e-45
23	0x00000004	6e-45
24	0x00000004	6e-45
25	0x00000004	6e-45
26	0x00000004	6e-45
27	0x00000004	6e-45
28	0x3f79e8c1	0.9762078
29	0xbefdcd90	-0.49570894
30	0x40773d75	3.863126
31	0x40483f43	3.1288612
32	0xc036fd21	-2.8591998
33	0xbf21a811	-0.63147074
34	0x3f0b4482	0.5440141
35	0xc053cdab	-3.309428
36	0xc0374447	-2.8635423
37	0x3ed5fcbe	0.4179439
38	0xc0b2fc8a	-5.5933275
39	0xc0ab028a	-5.34406
40	0xbfe33abe	-1.7752302
41	0xc093817c	-4.609556
42	0xc0e8481f	-7.258804
43	0xbf80485f	-1.0022086
44	0x40116673	2.271878
45	0x406346b3	3.5511901
46	0x40895b8e	4.292426
47	0x406677f2	3.601071
48	0x40c891bd	6.2677903
49	0xbed917cb	-0.42400965
50	0x40b9a1a8	5.8009834
51	0x3f7f450b	0.99714726
52	0xc048376a	-3.1283822
53	0x41ac15c6	21.510632
54	0xbf2733c6	-0.65313375
55	0xc20c7c75	-35.12154
56	0x00000004	6e-45
57	0x00000004	6e-45
58	0x00000004	6e-45
59	0x00000004	6e-45
60	0x00000004	6e-45
61	0x00000004	6e-45
62	0x00000004	6e-45
63	0x00000004	6e-45
64	0x00000004	6e-45
65	0x00000004	6e-45
66	0x00000004	6e-45
67	0x00000004	6e-45
68	0x00000004	6e-45
69	0x00000004	6e-45
70	0x00000004	6e-45
71	0x00000004	6e-45
72	0x00000004	6e-45
73	0x00000004	6e-45
74	0x00000004	6e-45
75	0x00000004	6e-45
76	0x00000004	6e-45
77	0x00000004	6e-45
78	0x00000004	6e-45
79	0x00000004	6e-45
80	0x00000004	6e-45
81	0x00000004	6e-45
82	0x00000004	6e-45
83	0x00000004	6e-45
84	0x408b84a7	4.359943
85	0x4039535c	2.8957129
86	0x3fc93c36	1.57215
87	0x3f982fa6	1.1889541
88	0xbeefbc83	-0.4682351
89	0xbda321a6	-0.07965402
90	0x3f55700f	0.8337411
91	0x3f46c240	0.7764015
92	0x3fdf2ab1	1.7434903
93	0x4015a629	2.3382666
94	0x41d083b6	26.064312
95	0x41da14f7	27.260237
96	0x4107f3d1	8.4970255
97	0x40a5dc9b	5.1831794
98	0x40851c9b	4.159742
99	0xc117eb65	-9.494969
100	0x41acf85d	21.621271
101	0x41ed6b8e	29.677517
102	0x4166a6fb	14.415767
103	0x40d90f2d	6.7831025
104	0x405709de	3.3599772
105	0x41a01bc7	20.013563
106	0x416b0c4b	14.690501
107	0x4098bcf2	4.7730646
108	0xc01a0eb8	-2.4071484
109	0x419a622f	19.297941
110	0x3fab32aa	1.3374836
111	0x42325f99	44.593357
112	0xc035c793	-2.840306
113	0xbfc5cbcb	-1.5452818
114	0x3f58a75f	0.8463039
115	0x4089fa9f	4.3118434
116	0xc08030ad	-4.005942
117	0xc0ff1bea	-7.9721575
118	0xc0b11a28	-5.534443
119	0x3fa700b4	1.304709
120	0x4099a3f7	4.8012652
121	0x40f62ded	7.693106
122	0x4131df63	11.117038
123	0x3f392ac8	0.72330904
124	0xc0e74567	-7.227222
125	0x3f92d72f	1.1471919
126	0x40e47776	7.1395826
127	0x41037478	8.215935
128	0x41271af0	10.444077
129	0x405ce92b	3.4517314
130	0xc0a3ede4	-5.1227894
131	0xc072910b	-3.7901027
132	0x40cc3f6d	6.3827424
133	0x40ff3991	7.975777
134	0xc12fe596	-10.993551
135	0xc0375c49	-2.8650076
136	0xbff1b07a	-1.8881981
137	0x3fc1e90d	1.5149246
138	0x3f27e060	0.65576744
139	0x42489aca	50.15116
140	0xc0ab0adb	-5.345075
141	0xc062b3a9	-3.5422156
142	0xc0839ea4	-4.1131153
143	0xc1128b6b	-9.159038
144	0xc107ee33	-8.495654
145	0xc0cabc86	-6.335513
146	0xc0a4bb02	-5.147828
147	0xc0ac09c3	-5.3761916
148	0xc0c791ce	-6.2365484
149	0xc12e6bbf	-10.901305
150	0xc241ff06	-48.499046
151	0xc20d8abc	-35.385483
152	0xc1a51b11	-20.638216
153	0xc17b15c4	-15.692814
154	0xc1543eeb	-13.265361
155	0xc1edbfbb	-29.718618
156	0xc255c070	-53.437927
157	0xc1ef08d4	-29.87931
158	0xc1a528ee	-20.644985
159	0xc1c2b617	-24.338911
160	0xc219d4cb	-38.457806
161	0xc25e99bd	-55.650135
162	0xc13d79e0	-11.842255
163	0xc0a396b0	-5.1121445
164	0x410843b2	8.516527
165	0xc282e3ee	-65.445175
166	0xc027ae09	-2.6199973
167	0xc23e68ba	-47.602272
168	0x00000004	6e-45
169	0x00000004	6e-45
170	0x00000004	6e-45
171	0x00000004	6e-45
172	0x00000004	6e-45
173	0x00000004	6e-45
174	0x00000004	6e-45
175	0x00000004	6e-45
176	0x00000004	6e-45
177	0x00000004	6e-45
178	0x00000004	6e-45
179	0x00000004	6e-45
180	0x00000004	6e-45
181	0x00000004	6e-45
182	0x00000004	6e-45
183	0x00000004	6e-45
184	0x00000004	6e-45
185	0x00000004	6e-45
186	0x00000004	6e-45
187	0x00000004	6e-45
188	0x00000004	6e-45
189	0x00000004	6e-45
190	0x00000004	6e-45
191	0x00000004	6e-45
192	0x80000004	-6e-45
193	0x00000004	6e-45
194	0x00000004	6e-45
195	0x00000004	6e-45
196	0xbeee63eb	-0.46560606
197	0xc02b8909	-2.680239
198	0x40736c94	3.803502
199	0x3f985b3a	1.190284
200	0x4041a332	3.0255857
201	0x3fbffc23	1.4998821
202	0x3fba2fa9	1.4545795
203	0x40a0e1e1	5.027573
204	0x40bd552e	5.916648
205	0x410e22d3	8.883502
206	0x40e810b4	7.252039
207	0xbfb898cd	-1.4421631
208	0xc019d3c4	-2.4035501
209	0xc09e6325	-4.9496026
210	0xc0b741f2	-5.7268
211	0x404e5dcc	3.224475
212	0xbe5b6d4f	-0.21428417
213	0x4021ae9e	2.5262828
214	0x405aa040	3.416031
215	0x3efbbc02	0.49166876
216	0x3ef493f1	0.4776912
217	0x3f08dc0d	0.5346077
218	0x3e64d6e5	0.22347601
219	0xbf167e58	-0.58786535
220	0x4063faa6	3.5621734
221	0x411afcd3	9.686725
222	0x3ec44543	0.38334092
223	0x414890d7	12.535361
224	0xbf6503e0	-0.8945904
225	0x4063b16c	3.557704
226	0x40e10765	7.0321527
227	0x40e0d443	7.025911
228	0xbe364467	-0.17799531
229	0xc044a3b6	-3.0724921
230	0xbfd0f10f	-1.6323565
231	0xbf656309	-0.8960424
232	0xbe292b38	-0.16520393
233	0x40415776	3.0209632
234	0x401d1539	2.4544203
235	0xc0617cf1	-3.5232508
236	0xbf7c41f7	-0.98538154
237	0xc04c2f69	-3.1903937
238	0xc05ebe31	-3.4803584
239	0xbe6971a2	-0.22797254
240	0x40b09ead	5.5193696
241	0x40ebace5	7.3648553
242	0x41041f84	8.257694
243	0x40305f8d	2.755832
244	0x40fb8118	7.8595085
245	0xbff64d0f	-1.9242266
246	0xc012911a	-2.2901063
247	0xbf6225f0	-0.8833914
248	0xc091e6f6	-4.5594435
249	0x411722f3	9.446033
250	0x3ea0b10f	0.31385085
251	0x3fbf7c2b	1.4959768
252	0x00000004	6e-45
253	0x00000004	6e-45
254	0x00000004	6e-45
255	0x00000004	6e-45

exp_avg_sq f4 [5, 128]
0	0x47039d7a	33693.477
1	0x464cd005	13108.005
2	0x4653d663	13557.597
3	0x46041896	8454.146
4	0x465c0a7c	14082.621
5	0x469f5e48	20399.14
6	0x463f4de8	12243.477
7	0x46d7a334	27601.602
8	0x4693f040	18936.125
9	0x46d5eed6	27383.418
10	0x47081d62	34845.383
11	0x46592ed8	13899.711
12	0x46779556	15845.334
13	0x449d5e6c	1258.9507
14	0x4627aee0	10731.719
15	0x46509f68	13351.852
16	0x46e0bec7	28767.389
17	0x46d30024	27008.07
18	0x46d77987	27580.764
19	0x46860c78	17158.234
20	0x45e564b6	7340.589
21	0x467c7fe2	16159.971
22	0x4647029e	12736.654
23	0x46b3900d	22984.025
24	0x46a387f4	20931.977
25	0x470954c5	35156.77
26	0x46c3f21f	25081.06
27	0x4621882a	10338.041
28	0x46575131	13780.298
29	0x4620c72d	10289.794
30	0x468c1f00	17935.5
31	0x470504a5	34052.645
32	0x47012274	33058.453
33	0x46b7319a	23448.8
34	0x464b14ec	12997.23
35	0x469d9ad3	20173.412
36	0x46ec8617	30275.045
37	0x46fd49e1	32420.94
38	0x4625fa6f	10622.608
39	0x46c031e0	24600.938
40	0x455a3039	3491.014
41	0x46632cee	14539.232
42	0x46107764	9245.848
43	0x46562026	13704.037
44	0x46b89928	23628.578
45	0x447eecff	1019.70306
46	0x46411c37	12359.054
47	0x456ba2f2	3770.184
48	0x46312629	11337.54
49	0x46bdb5a7	24282.826
50	0x4714bda1	38077.63
51	0x4691bd05	18654.51
52	0x46a9f326	21753.574
53	0x46f07b71	30781.72
54	0x4633ebbe	11514.936
55	0x469fedc2	20470.879
56	0x4701f018	33264.094
57	0x4642996e	12454.357
58	0x46e93fb9	29855.861
59	0x46c8e47c	25714.242
60	0x46b92644	23699.133
61	0x46b73643	23451.13
62	0x46be6b1d	24373.557
63	0x44cc1579	1632.671
64	0x46b9fbcc	23805.898
65	0x46002afd	8202.747
66	0x46c30d6d	24966.713
67	0x4699ac9d	19670.307
68	0x46f54342	31393.629
69	0x4687571f	17323.56
70	0x4730670d	45159.05
71	0x46b5f93c	23292.617
72	0x45d592c6	6834.3467
73	0x46c6ca9e	25445.309
74	0x46c18054	24768.164
75	0x461bfe87	9983.632
76	0x45e63511	7366.6333
77	0x46a14f03	20647.506
78	0x459e90ab	5074.0835
79	0x4711f560	37365.375
80	0x463da215	12136.5205
81	0x4734acb6	46252.71
82	0x47232d58	41773.344
83	0x471a294b	39465.293
84	0x468fbe23	18399.068
85	0x4684911d	16968.557
86	0x46dd801c	28352.055
87	0x46a0c4ad	20578.338
88	0x466ebe65	15279.599
89	0x46038e7d	8419.622
90	0x459c4d40	5001.6562
91	0x4708fbcd	35067.8
92	0x46b647ac	23331.836
93	0x46c0b0ac	24664.336
94	0x46a2237c	20753.742
95	0x46199fc2	9831.939
96	0x44db8b21	1756.3478
97	0x46da4852	27940.16
98	0x4660dd8c	14391.387
99	0x46dfab43	28629.63
100	0x46ad6e67	22199.201
101	0x4695a49d	19154.307
102	0x46917b81	18621.752
103	0x46a8fc5e	21630.184
104	0x46b918f3	23692.475
105	0x46a1ea7f	20725.248
106	0x460272b5	8348.677
107	0x46e81fbd	29711.87
108	0x4658fbb5	13886.927
109	0x46a06281	20529.252
110	0x462958cf	10838.202
111	0x46cb68c0	26036.375
112	0x46a39b7c	20941.742
113	0x465c611c	14104.277
114	0x4619695a	9818.338
115	0x46d0bcc4	26718.383
116	0x46839260	16841.188
117	0x46da71f4	27960.977
118	0x464e0a0f	13186.515
119	0x4643aaab	12522.667
120	0x456121b1	3602.1057
121	0x4597ba25	4855.268
122	0x4628c03a	10800.057
123	0x46ba7010	23864.031
124	0x470f790e	36729.055
125	0x464aed95	12987.3955
126	0x46a62fdc	21271.93
127	0x4615e917	9594.272
128	0x42f3ec9f	121.96215
129	0x429701a2	75.50319
130	0x41a3cd40	20.47522
131	0x420c365d	35.05309
132	0x438479ae	264.95062
133	0x42e045e8	112.136536
134	0x41aa8e1f	21.319395
135	0x43aabcd6	341.47528
136	0x43829d44	261.22864
137	0x43472db8	199.17859
138	0x432207f9	162.03114
139	0x42335701	44.834965
140	0x432a9d49	170.6144
141	0x418e2d07	17.771986
142	0x42a358bf	81.67333
143	0x42836cda	65.7126
144	0x43059464	133.57965
145	0x4373c78a	243.77945
146	0x431b2fd6	155.18686
147	0x42fdb917	126.8615
148	0x4141a51c	12.10281
149	0x42545401	53.082035
150	0x42149d68	37.153717
151	0x4290e908	72.45514
152	0x43112b38	145.16882
153	0x4357e5b3	215.89726
154	0x42f4b7b3	122.35879
155	0x41b47008	22.554703
156	0x42d9e9b7	108.956474
157	0x425bc736	54.944542
158	0x42a0bff6	80.37492
159	0x4364678d	228.4045
160	0x43675ec5	231.3702
161	0x42efadd5	119.839516
162	0x428e3ab3	71.11465
163	0x429164e3	72.697044
164	0x4335e2f3	181.88652
165	0x432f68e8	175.40979
166	0x418e134e	17.759426
167	0x4334db71	180.8572
168	0x41874d07	16.912611
169	0x42982097	76.06365
170	0x42821854	65.047516
171	0x43410a3e	193.04001
172	0x4353ac58	211.67322
173	0x41a32d45	20.397104
174	0x4284c52b	66.38509
175	0x41cf2648	25.893692
176	0x425b67ea	54.85148
177	0x43532af6	211.16782
178	0x4381af31	259.36868
179	0x4235f96b	45.493572
180	0x42aafac3	85.48977
181	0x43128ba0	146.54541
182	0x4246a31a	49.65928
183	0x438bae65	279.36246
184	0x43925d00	292.72656
185	0x41c62c4b	24.771627
186	0x43c1d402	387.6563
187	0x4377f1b4	247.94415
188	0x42c3a8a9	97.829414
189	0x434fc782	207.77933
190	0x43173559	151.20839
191	0x41014de7	8.081519
192	0x43218179	161.50575
193	0x4135a05e	11.351652
194	0x43273bd2	167.23367
195	0x4325bb6e	165.73215
196	0x43747821	244.46925
197	0x42ee5111	119.15833
198	0x4366c03b	230.7509
199	0x432f17a6	175.09238
200	0x434cb554	204.70831
201	0x42c836a7	100.10674
202	0x434d9f02	205.62112
203	0x41b9e6ca	23.23769
204	0x41dddad6	27.731853
205	0x42ae90ae	87.28258
206	0x423a4149	46.563755
207	0x43210be5	161.04646
208	0x42a0c240	80.379395
209	0x43985060	304.62793
210	0x439af909	309.9456
211	0x4362c9f3	226.78886
212	0x427962ee	62.34661
213	0x43b126f8	354.30444
214	0x435376e4	211.46442
215	0x42cb9d6a	101.80745
216	0x43256911	165.41042
217	0x4298f928	76.48663
218	0x41a73775	20.902079
219	0x43695d51	233.36452
220	0x43245fdc	164.37445
221	0x43042005	132.12508
222	0x43390c01	185.04689
223	0x427176e2	60.366096
224	0x41509bc7	13.038032
225	0x433a9b5c	186.60687
226	0x42d915b2	108.54237
227	0x430c1c35	140.11018
228	0x4394cd0a	297.60187
229	0x4300959b	128.5844
230	0x424857f0	50.085876
231	0x42d60c8b	107.0245
232	0x434b0627	203.02403
233	0x428d972c	70.79526
234	0x424abcb9	50.6843
235	0x439a26eb	308.30405
236	0x4250b182	52.173347
237	0x4301a036	129.62582
238	0x4241b503	48.42677
239	0x4312c34d	146.7629
240	0x43671091	231.06471
241	0x427142a6	60.315086
242	0x42576fd3	53.859203
243	0x42d95c90	108.680786
244	0x42f2e1be	121.4409
245	0x432a54c9	170.33119
246	0x42164781	37.569828
247	0x42a856da	84.16963
248	0x41647b95	14.280171
249	0x41bd02b4	23.62632
250	0x429c8967	78.268364
251	0x43037fcb	131.49919
252	0x43bc4b96	376.5905
253	0x42be29ae	95.081406
254	0x430acaef	138.79271
255	0x42a149aa	80.643875
