model/550a.pt (torch_old, 336851 bytes, 24 tensors)

fc1.weight f4 [128, 28]
00000000: 3d2e ba3c f206 733e bc68 31be 0407 08bd
00000010: fcce b3be de02 e7be bf20 12be 86ed 57be
00000020: 7506 89be 887e f83d 40ce 8e3e 4b1c 84be
00000030: 887e e8bd 1ecc f23c 75c9 913e 3606 ab3e
00000040: 225e c13e bccb 6bbc dda4 a1bf 8c29 2ac0
00000050: 0256 f9bf 433b ecbf 26cf 81be 0260 183e
00000060: 196d b33e c93a 18be c86b 12c0 c6b2 483c
00000070: 88bc 4f3f 317d 733f c4db 2c3e 0446 a23c
00000080: fb45 8fbe aded 54be e8d3 2a3c 49c8 b73e
00000090: 7456 23bd 9de1 233e 8d39 0ebd 9128 4fbe
000000a0: c338 dfbe 7d6a 1abf 26e8 3ebd 0867 87be
000000b0: f930 b9bd 0087 a3be 23c2 c5be 07e5 0cbe
000000c0: 778a 313e 20fb dc3d 959f 86be 9b8e 333f
000000d0: b3e2 ff3e 9e44 5cbe 3d8f 893f d2e5 943c
000000e0: cab8 bebf 92ee 98bf 614a f9be 4b71 fe3d
000000f0: 72e1 553b 775d 5cbd 2a01 6d3d 7c2e b6bd
00000100: 22b6 9fbd 8968 b8bc 2763 343b 4f1d bf3e
00000110: dd62 6a3d 9d10 debd 3538 15be 5fb7 01be
00000120: 4320 f1be 137d 48bf 31f4 16bf d8b4 44bf
00000130: ade2 9dbe a75f bdbe 623d 71bf b23a d8bf
00000140: 5a34 22be 9e07 2b3e f292 e0bf 2d77 283d
00000150: 155f 38bf 4317 83bf eb25 1cbf d45e 26bf
00000160: 93e1 82bd ce88 cabd 5c8c 36bd 2589 073e
00000170: c0d1 8d3e f79e b73e 2f28 ec3e ae7f c53e
00000180: b072 883d de7b b1bd 755a 43be 427c 19be
00000190: 36bd 083e e604 1d3d e05a 013f 35e0 493d
000001a0: d0f4 9a3d 5e6e 333e 7d80 44be 6d80 65bf
000001b0: b922 893f 80e7 a3bd 834a b8bf 9046 0cbe
000001c0: 42cc 24bf 13c6 5cbf 8ad3 8dbe e05b 8cbe
000001d0: fee7 bd3d 15d6 913e 4c31 6e3e e124 983e
000001e0: 1919 d83e dca7 9a3e 41e4 55be d06a 2a3e
000001f0: 9d27 053f cc9e f53e 5deb 0c3f bdde 283f
00000200: 037b 05bf 8f36 3bbf e740 933c 9f23 583e
00000210: 6e22 0e3e f226 8b3e 42a5 933e daf4 28bf
00000220: 3258 47be 83ad 72be ee63 c5bf d09e 94bc
00000230: 7fe3 99bf 921f c3bf d53d 95bf b624 ca3d
00000240: 6ca3 adbd f301 82be 97d0 1c3e ba1d 433e
00000250: 6f66 6f3e 927a 9f3e f371 803e 443a 42bc
00000260: 676f 9abc f3c6 4ebe 347d c33d 7e8c cb3e
00000270: e8a7 063e ea84 193e 7022 ad3d 1130 5a3e
00000280: 2f2f f1bd d872 693c 0868 b2be cf6a a9bf
00000290: 7309 293f 4268 0b3e e02b a6bf cc07 5cbe
000002a0: 1e6b 6dbf 0992 2d3c 1f5b ffbd c39e 22be
000002b0: 0008 1d3e 578e 92bc ff15 593e dc50 f73d
000002c0: bc4f 5a3e fd4d bd3d 4810 873e 43b9 66bd
000002d0: 778a 72be d7c5 bfbd a6c3 70be c61d 6ebe
000002e0: 8aea 2abe 5e5b c03d a72a fcbc ed22 dfbe
000002f0: f594 83be be68 0c3d 06e8 45bf a437 8cbf
00000300: c47b 1bbe 6363 823c 800f b0bf 287f 50bd
00000310: 0170 29bf 2923 83bd 98e9 9abe 6ae4 82be
00000320: 6761 3fbe 8553 7e3e ff2e 363e 2d1a c53c
00000330: d296 a63e e80f 12bc a395 67be 0a10 29be
00000340: 3deb 74be c7f0 413e cae5 0e3e 8ae0 a8be
00000350: 984e 14be f5db bebe c8b9 b7be 55b3 fdbe
00000360: 73fd 7dbf e767 58bf 3d95 45bf e663 46bf
00000370: 13d8 41bf bb84 0c3d 835a 8dbf 655c 363e
00000380: ad32 b73e cd8c 053f f210 e83d 9295 143e
00000390: b7de ab3d a73b 073d c231 e8be 01fc 84be
000003a0: ae02 7cbc 02a1 0d3e e4e3 2c3e d8f2 f43c
000003b0: 1912 fdbd 75e3 8cbd 0008 523e f9f7 463d
000003c0: 3321 38be 2d3e f2be eb45 83be 8369 d2bd
000003d0: db5b 543d bfb3 143d d799 5cbe 597c ed3e
000003e0: a765 a1bf 5b9d 2a3d aab3 e3be 90e7 ca3d
000003f0: 9415 163e 65bb 48be f591 9ebd 183a 23be
0.022727126 0.23733118 -0.17325109 -0.033209816 -0.35118854 -0.45119375 -0.14270304 -0.21086702
-0.2676274 0.12133509 0.2789173 -0.25802836 -0.11352259 0.029638346 0.28474012 0.33403176
0.3776713 -0.014391836 -1.2628437 -2.6587858 -1.9479373 -1.8455585 -0.25353354 0.14880374
0.35044172 -0.14866175 -2.2878284 0.012249654 0.8114705 0.951129 0.16880709 0.019808777
-0.27983078 -0.20793791 0.010426499 0.35894993 -0.03987737 0.16004033 -0.034722853 -0.20230319
-0.43597993 -0.6031874 -0.046608113 -0.26445794 -0.09042544 -0.31938934 -0.38624677 -0.13759242
0.17337976 0.10790086 -0.26293626 0.70139474 0.49977645 -0.2151055 1.0746838 0.018175993
-1.4900143 -1.1947806 -0.4868956 0.12423953 0.0032635597 -0.053800073 0.05786244 -0.08895585
-0.07798411 -0.022510784 0.002752492 0.37327048 0.05722319 -0.108430125 -0.14572223 -0.12667607
-0.47094926 -0.7831585 -0.58966357 -0.76838446 -0.30837002 -0.3698704 -0.9423429 -1.6892912
-0.15840283 0.16702124 -1.7544844 0.04112928 -0.72020084 -1.0241474 -0.6099536 -0.64988446
-0.06390681 -0.09889375 -0.04456745 0.1323591 0.2769909 0.35863468 0.46124408 0.38573974
0.066625 -0.08666204 -0.19077475 -0.14988807 0.13353428 0.03833475 0.5052929 0.049286086
0.075662255 0.1752257 -0.1918964 -0.8964909 1.0713722 -0.080031395 -1.4397739 -0.13698792
-0.6437417 -0.8623974 -0.27700454 -0.27413845 0.092727646 0.28483644 0.23260993 0.29715636
0.42206648 0.30206192 -0.20887853 0.16642308 0.5201357 0.47972715 0.55046636 0.6596487
-0.52140826 -0.73130125 0.017975284 0.21107338 0.13880321 0.2717815 0.2883702 -0.65998614
-0.19467238 -0.23699002 -1.5421121 -0.018142134 -1.2022551 -1.524401 -1.1659495 0.09870283
-0.08478436 -0.25392112 0.15313946 0.19054309 0.23378919 0.311482 0.25086936 -0.011854712
-0.018851949 -0.2019308 0.09545365 0.39755625 0.13149989 0.14992109 0.08453834 0.21307398
-0.11776578 0.014248572 -0.34844995 -1.323572 0.66030043 0.1361399 -1.298214 -0.2148735
-0.9274157 0.0105938995 -0.12468552 -0.15880875 0.15335083 -0.017890139 0.21199797 0.120759696
0.21319479 0.09243391 0.2637961 -0.056329023 -0.23685633 -0.09363907 -0.23512134 -0.23253545
-0.16691032 0.09392427 -0.030782057 -0.43581334 -0.25699583 0.034279577 -0.77307165 -1.095448
-0.15183932 0.015916532 -1.375473 -0.050902516 -0.6618653 -0.06403191 -0.30256343 -0.2556489
-0.186895 0.24836548 0.17791365 0.024060333 0.32536942 -0.008914925 -0.22615676 -0.16510025
-0.23917861 0.18939506 0.13954845 -0.3298381 -0.14483106 -0.3727719 -0.35883927 -0.49550882
-0.9921486 -0.8453354 -0.77180845 -0.7749618 -0.7572033 0.03430627 -1.1043247 0.17808683
0.3578085 0.5216797 0.11331357 0.14510182 0.08392089 0.033015873 -0.45350462 -0.25973514
-0.015381498 0.13830951 0.16883808 0.029900953 -0.123569675 -0.068793215 0.20510864 0.04857633
-0.17981414 -0.4731306 -0.2563928 -0.10274031 0.051845413 0.03630423 -0.2154306 0.46383932
-1.2609147 0.041653972 -0.4447301 0.09907448 0.14656669 -0.19602735 -0.07742683 -0.1594013

fc1.bias f4 [128]
00000000: eb6d 9fba e959 05be 3878 afbd 0366 26bc
00000010: d0a9 23bc fad0 c03a 6fbe 4a3d af6a c93a
00000020: a6fd 48be 5d99 11bd 65fc 6cbd cc18 123e
00000030: a326 ae3c 455f 093e b370 69bd 918c 95be
00000040: 4c55 2ebe a360 cdbd 76bb 0abe 1522 41be
00000050: cc77 8fbd fc01 0dbd 88dc 073f 4279 e7b9
00000060: be52 92bd 09f7 55be 736b d4bd c755 3abd
00000070: c82d a7bc 0e99 42be a301 ecbd 3892 f33d
00000080: e4b1 f6bd bbca dabd 2594 7f3e fc79 67bd
00000090: c825 9c3d 9240 0fbe 07fa 013d 3e19 dcbd
000000a0: 22e9 97be 39e4 2c3e e1ce aabd 1c49 aa3c
000000b0: d383 763d 20b0 86be e00b 2dbd 908d 093f
000000c0: 8b38 6c3d 148c 15bd f145 d63d 4aa8 01bd
000000d0: eadc 4fbe f838 47bd 4746 323e 6ab6 6abe
000000e0: 0b1c cbbd 02b5 203e d796 63be 08db 0a3f
000000f0: e9cf b3b8 c617 a13c b330 7c3c a4d6 5bbe
00000100: 7983 68bd 2381 2f3e 9d9c 903c 5f7a 483d
00000110: e2d2 08be 6235 753d 722f 44be d5cb 89bd
00000120: 87a4 8bbe 5e30 90bc f4c3 da3d 815d 2dbe
00000130: 23e6 e2bb d2d0 35be 79e4 d6be eebb 04bd
00000140: 0c49 72bd ee11 31be 4455 8bbd 46c2 24be
00000150: cdb8 123e 9a73 67ba 4b03 83bd 7cb0 a3bd
00000160: fda9 ad3d 5d3b b7bc 3026 81be 632e bfbd
00000170: 0b7c 25be bc41 7c3e 3c12 75bd 4e69 cfbd
00000180: f8ac 01be e637 34be 3a80 4a3f fb66 a73d
00000190: 1f70 b53e 566f 57bd aa77 db3d ba12 50be
000001a0: d3a5 70bc 86db fabd 5b3a cbbc c6be f43d
000001b0: 1e6d c33c 940c c3bd 03a3 afba 1c7e a83e
000001c0: 1746 10be 2fd0 873d e6bc 92b9 505b 143c
000001d0: 221a 29be 40a8 c2bd 2fbe 6f3d 26d6 463d
000001e0: 994c 78be b4d0 03bc 287d 99bd d143 0cbe
000001f0: 86fc 103d b6c8 08bd 8f4c 1ebe 4fcc 42be
-0.0012163495 -0.13022579 -0.08567852 -0.010156157 -0.009989217 0.0014710717 0.049498018 0.0015366877
-0.19628009 -0.03554665 -0.05785789 0.14267272 0.021258658 0.13415249 -0.056992244 -0.29208806
-0.17024726 -0.100281976 -0.13548073 -0.18860658 -0.07005271 -0.03442572 0.5307088 -0.00044150098
-0.07144688 -0.20895018 -0.10372057 -0.04549196 -0.020407572 -0.19003698 -0.1152375 0.118931234
-0.12045649 -0.10683199 0.24958856 -0.056512818 0.07624394 -0.13989475 0.031732585 -0.10747002
-0.29670054 0.16883935 -0.0834024 0.020786814 0.06018431 -0.26306248 -0.042247653 0.5373163
0.05767111 -0.036510542 0.10462559 -0.031654634 -0.20299116 -0.048638314 0.17409621 -0.22921148
-0.09917458 0.15694049 -0.2222551 0.54240465 -8.5741114e-05 0.019664656 0.01539247 -0.21468598
-0.056766007 0.17139105 0.017652804 0.048944827 -0.13361695 0.059865363 -0.19158724 -0.06728331
-0.27273962 -0.017601188 0.10681906 -0.169302 -0.006924407 -0.1775544 -0.41971186 -0.032405786
-0.059151694 -0.17291996 -0.068033725 -0.16089734 0.14328308 -0.00088291767 -0.063971125 -0.07992646
0.08479688 -0.022367174 -0.25224447 -0.093350194 -0.161606 0.2463445 -0.059831843 -0.10127507
-0.12663639 -0.17599449 0.7910191 0.08173939 0.35437104 -0.052596413 0.107161835 -0.20319644
-0.014687973 -0.12248902 -0.0248081 0.1195045 0.023855742 -0.095238835 -0.0013400022 0.32908714
-0.14089237 0.06631505 -0.0002798803 0.009054974 -0.16513875 -0.095047474 0.058530983 0.04854407
-0.2424797 -0.008045364 -0.07494575 -0.13697745 0.035397075 -0.033394538 -0.15458892 -0.1902325

fc2.weight f4 [128, 128]
00000000: 22dc 9fbe b75f abbe ad15 8b3e be5a c73c
00000010: 0d31 b93e 318d 4ebe 8925 32bf 650d ce3e
00000020: b8f6 1ebe 1bde c7be 692b e0bd b2e0 86bf
00000030: 63e6 113e 1d4e 323f ae9a 94be eeb4 90be
00000040: 8050 8ebe 5d51 833d 3a8d 31be 77f1 0fbc
00000050: 7668 15bf baca b1bd 602d 563e 0ea1 d33d
00000060: 38da ae3d de42 07bf 8806 f03c cd9d 22bf
00000070: 2d8e babe ab10 1cbf 4657 943d 90b4 d43e
00000080: 6109 be3d e31c 0b3f ba67 fe3d b1a4 f03e
00000090: 7711 cb3e 9404 c4be bfe8 d73e ab73 1f3e
000000a0: 2a36 32bf 3616 3a3e e1da 8a3d 0b1a 983e
000000b0: cf32 0d3d e9d5 5fbf b309 4ebe e930 2bbe
000000c0: 4415 823e 3684 4c3d 614d 473e d1fb 003f
000000d0: 7385 943e 46fc d73e d726 2dbf afdf b7be
000000e0: c247 a1be 1e05 383d 19c1 803e f744 11bf
000000f0: 073e 3d3e cd69 cebe 9605 1c3d 09ad 8abf
00000100: 6bd9 fd3d b587 1d3f 1859 7c3f a46c 083f
00000110: 4a96 5cbd 4a3b 1dbd 29a5 a2be ece7 46be
00000120: cd47 4cbf dedd a53e 6d1b f5be 1c53 62bf
00000130: e08d e0be 3610 0e3e 2701 b9be 559b 583e
00000140: f056 ccbe 9ac7 5cbf 060b 84bb f360 e5be
00000150: c1f9 a53e ad0a 5bbe 4c49 74be c4f9 1abe
00000160: 3369 f5be ad9c 733d 39cf 24bf 07f8 0b3e
00000170: 518a c9be 7ace e53c b4d9 193e f1df dabe
00000180: 3603 bb3e ac3b abbe c3b3 02bf f755 b5be
00000190: 4f38 c9be c0ef d7be c1ba 6bbe a98c 243e
000001a0: 35ad 2ebc 5aee 993e 094e b3be fae6 6c3e
000001b0: 6a17 053e bba4 1fbf 8e66 cb3d da36 d13d
000001c0: c713 063e 787d 48be 4fa6 e1be e27c 0dbc
000001d0: ef50 013e 07a7 143f b24b 1a3e 50e3 ab3f
000001e0: 1bc7 91bf abb7 d6be abb1 be3f df24 6b3e
000001f0: 4acb afbe 27ac d63e c3ee 16bf c138 3abe
00000200: 1c06 16be 36b0 a3bd d64b dc3d 606e 623e
00000210: b9d6 65be def3 dd3e 8bd6 5b3f 0309 c63e
00000220: 891d 5f3d 965b f83e 8d80 7c3d 9acf 253e
00000230: a353 773d 0a0d 80be 3773 77bc 2dea 4bbf
00000240: 0458 803d 67a1 2a3d 7c61 eb3e d285 4d3d
00000250: 63a7 7fbd 8db3 f9be cb23 0abe 0152 94be
00000260: 762b 44bd 0463 9e3c 656f 293d 86fd 903e
00000270: ccff 973f 9d8c 753f 446a e4be cbe3 cbbe
00000280: fb7c 2b3f 9131 c43e cb24 813e 7894 08be
00000290: d419 743e 1c94 a73e 74b5 22bf 4e68 b1bf
000002a0: cf71 8d3e 4bd9 ae3e 5b86 383e ff44 e1bd
000002b0: fa7d 353e f4a6 b33e ecc7 d63e 4ccf c63e
000002c0: 989f b73d 4f5a be3e 10d5 d3bd 9cf6 ba3b
000002d0: dc7a 1bbe 9367 6bbe 9762 ae3d 694c 45bf
000002e0: 9743 25be 3255 903e e02f c0be 6d93 cdbe
000002f0: 0963 de3e 29a5 f9be d2b5 4a3e 91e0 ca3d
00000300: 02f8 513e 0f1b 5dbe f4b1 1bbf d1ca 72be
00000310: 4b00 a73d e953 033e 1f7f c53e 5cab debe
00000320: 1487 463f 5f8f 01be 9250 a4be a34f 883f
00000330: 2405 e33e e44b 90be ba50 6a3d 76d9 143e
00000340: 7ce1 ec3e baa4 4b3f fa64 313f 5225 223d
00000350: 9034 bfbe 955f 47be 4c70 083e 18c5 03bf
00000360: d925 2dbf 7a58 153f cec1 133e 9d86 b03e
00000370: a0a2 0e3d 4d7a 9bbe e42b 53be 1920 773e
00000380: 56dc e2be 0599 b4bd 5746 e73d d339 89be
00000390: 6dad ed3e 4e11 ed3e c445 1f3e 7864 15bf
000003a0: 6cdb d73e 990b b0bd 96c4 943f 1a00 873e
000003b0: a575 37bc 6a71 9f3e 7e6f 423e 9e9b efbd
000003c0: 4d6b 523f 3dca 6ebe f1c2 87bd 15f1 b73d
000003d0: ec38 a0be 50dd 543d b8d8 743e c814 60bf
000003e0: 757f f13e bb80 a93e 2b69 12bf 97d5 c6be
000003f0: 072c a43e 5a0d 263e 3d31 463f 18a4 aebd
-0.31222636 -0.33471462 0.27164975 0.024335261 0.36170235 -0.20171048 -0.69588524 0.40244594
-0.15523803 -0.3903664 -0.1094578 -1.0537322 0.14248042 0.6965044 -0.2902426 -0.28263038
-0.27795792 0.06412003 -0.1733903 -0.008785597 -0.5836252 -0.08681245 0.20915747 0.10333453
0.08537716 -0.52836406 0.02929999 -0.63522035 -0.36436597 -0.60962933 0.072432086 0.41544008
0.09279133 0.5434095 0.12422128 0.4700065 0.39661762 -0.38284743 0.4216976 0.15571468
-0.696139 0.18172535 0.06780029 0.2970737 0.034472283 -0.87435776 -0.20120887 -0.16717876
0.2540685 0.049930774 0.19463111 0.5038424 0.29008064 0.42184657 -0.6763739 -0.35912845
-0.3150006 0.044926755 0.25147322 -0.56745857 0.18480693 -0.40315095 0.038091265 -1.0834056
0.12394985 0.615352 0.98573446 0.5329077 -0.053854264 -0.03838662 -0.31766632 -0.19424409
-0.7979706 0.32395834 -0.47872487 -0.88408065 -0.43858242 0.13873371 -0.36133692 0.21153004
-0.39910078 -0.8624207 -0.0040296344 -0.4480053 0.3241711 -0.21390791 -0.23856086 -0.1513434
-0.47931823 0.05947559 -0.64378697 0.13668834 -0.3936334 0.028052557 0.15024453 -0.4274898
0.36525887 -0.33443964 -0.51055545 -0.35417148 -0.39300773 -0.42175102 -0.2302046 0.16069283
-0.010661413 0.3006466 -0.35020474 0.23134986 0.12997213 -0.62360734 0.0993167 0.1021554
0.13093482 -0.19579113 -0.44072196 -0.008635731 0.1262853 0.58067364 0.15067938 1.3428745
-1.1388887 -0.41937003 1.489797 0.22963284 -0.34334785 0.41928217 -0.5895807 -0.18185712
-0.14650768 -0.07992594 0.10756652 0.22112417 -0.22445191 0.43350118 0.8587424 0.3867875
0.054471526 0.48507375 0.061646033 0.16192475 0.060382497 -0.25009948 -0.015103153 -0.796542
0.06266788 0.04165783 0.45972812 0.05017645 -0.06241549 -0.487698 -0.13490216 -0.28968814
-0.04789301 0.019334324 0.041366 0.28318423 1.1874938 0.95917684 -0.44612324 -0.3982223
0.6698758 0.38319066 0.25223383 -0.13337886 0.23837978 0.32730186 -0.63558125 -1.3859956
0.27625892 0.34150156 0.18020003 -0.10999488 0.17723837 0.35088313 0.41949403 0.3883003
0.08965987 0.37178275 -0.10343373 0.0057056677 -0.15183586 -0.22988729 0.08514898 -0.7706972
-0.16139065 0.2819 -0.37536526 -0.4015154 0.43434933 -0.4875882 0.19795921 0.09906114
0.20504764 -0.21592353 -0.6081841 -0.23710181 0.08154353 0.12824978 0.38573548 -0.43490112
0.7754986 -0.12652348 -0.3209272 1.0649303 0.4433986 -0.281829 0.057205893 0.1453608
0.4626578 0.7954823 0.69294703 0.039586373 -0.3734479 -0.19470055 0.13324088 -0.51472616
-0.67635876 0.5833813 0.144294 0.34477702 0.03482306 -0.30366746 -0.20622212 0.24133338
-0.44308728 -0.08818249 0.11292713 -0.2680193 0.46421376 0.46302265 0.15553957 -0.5835643
0.42159593 -0.08595962 1.1622493 0.26367265 -0.011197482 0.31141216 0.18987843 -0.116996035
0.8219498 -0.23319335 -0.06628979 0.089815296 -0.31293428 0.051968873 0.23910797 -0.8753171
0.47167554 0.33106026 -0.57191724 -0.3883483 0.3206484 0.1621603 0.7741888 -0.08527392

fc2.bias f4 [128]
00000000: 7fff 89be 158a 8d3d b517 43be b019 7bbe
00000010: 8013 7bbc ef1c 4bbd 000f 1c3e 7378 91be
00000020: fb6a 8ebe 907e 8cbd 8eaf 6bbe 1517 863d
00000030: 88f1 81be 85d9 1ebe ebea 023e bf03 c63d
00000040: 8f96 b13e ccff 75be dbe5 d2bc f67a fbbc
00000050: 19df 1bba b04f 28bd 443b f2bd 1c55 dd3d
00000060: eee2 c1be ab64 a1bc a686 da3d bd30 de3b
00000070: 0c00 8c3e dd74 1b3e 07f2 3dbe f2da 74be
00000080: ab53 b2bd 4351 95bd a68b 7b3d cf74 84bd
00000090: 7ecf 4ebe bb3a c53e 4bfe 50be 77ef f8be
000000a0: 325a 163e 3ff6 1a3e 94a9 29be 293b e6be
000000b0: e5b9 e9be 1323 d63e 9af2 93bd 0247 2c3e
000000c0: c6fc 7fbe 31fe 10bd 7c8c 61be 0d6e efbc
000000d0: d77d 69be db44 0cbe daba 5d3d b97a a5be
000000e0: 23e9 693b 16a8 c63a dd17 80be 0c20 c7be
000000f0: ce42 77bc 2d46 0cbe c89c 1ebe 4f61 4d3e
00000100: f6ee a4be add1 1b3e 51c1 ba3e 8eec 3fbb
00000110: 4bd6 043d abed 8fbe e553 cc3d a983 dd3d
00000120: ad53 da3e bb6b f73c 217f bdbc 769d be3e
00000130: 1ee6 34bd e779 e8bd bfa7 08be 31a5 42be
00000140: efec 843d 9488 c33e fab9 e5bc 65e7 38be
00000150: 7e61 4fbd 8a47 06bf 62c3 acbe a494 953c
00000160: 3727 7dbe 993d 67be ebe7 893e 6f6d 323d
00000170: fa9d 49be 037d 37bc 5551 0bbe dab2 c9bc
00000180: 7479 afbe 3f39 35be 7842 883d edd4 67be
00000190: 5de2 a2be 6b8d dc3d 73bb 013e 0750 0ebe
000001a0: bfba 843c b059 babe c50a a7bd 987c 56be
000001b0: 2a75 e0bd 7792 b9bb 582a a53d 1991 653d
000001c0: 35a3 03be d158 15be 454e 1abd 04ca 1b3d
000001d0: ef07 26be 3af0 bc3d b147 d73d 680d 73bd
000001e0: ddfc af3d 0cd8 2a3e efeb 853e 54cc 80be
000001f0: d367 093d 2905 eebd f4c2 9d3c b781 62bd
-0.2695274 0.06911103 -0.19052012 -0.24521518 -0.015324473 -0.04958814 0.15240097 -0.28412208
-0.27815995 -0.068600774 -0.23016188 0.06547371 -0.25379586 -0.15512665 0.12784927 0.09668683
0.3468518 -0.2402336 -0.02574437 -0.03069828 -0.0005946025 -0.04109162 -0.1182771 0.10807249
-0.37868446 -0.019701323 0.106702134 0.0067807124 0.27343786 0.15181299 -0.18549357 -0.23911646
-0.08707365 -0.0729089 0.061412476 -0.06467592 -0.2019634 0.3852137 -0.20409505 -0.48620197
0.14682844 0.15132998 -0.16568595 -0.4496701 -0.4564964 0.41823635 -0.07224007 0.16823962
-0.24998769 -0.035398666 -0.22026247 -0.029227281 -0.2280191 -0.13698141 0.054133274 -0.32320192
0.0035691939 0.0015156295 -0.25018206 -0.38891637 -0.015091611 -0.13698645 -0.15489495 0.20056652
-0.32213563 0.15216704 0.36475614 -0.0029285285 0.03243093 -0.28111014 0.09976939 0.10816128
0.42641965 0.030202737 -0.023131909 0.37229508 -0.04416477 -0.11351376 -0.1334524 -0.19008328
0.06490504 0.38190138 -0.028042782 -0.1805702 -0.050630085 -0.5245291 -0.33742815 0.018259354
-0.2472199 -0.22582091 0.26934752 0.043561395 -0.1968917 -0.011199239 -0.13605244 -0.024621416
-0.3427235 -0.17697619 0.06653303 -0.22639818 -0.31813326 0.10769161 0.12669162 -0.13897716
0.016202329 -0.3639655 -0.08156351 -0.20945966 -0.10959847 -0.005663212 0.08064717 0.05604658
-0.12855227 -0.14584662 -0.0376723 0.038034454 -0.16213964 0.09225507 0.10511721 -0.059338957
0.08593152 0.16683978 0.26156566 -0.2515589 0.03354628 -0.11622078 0.019258 -0.055299487

out.weight f4 [5, 128]
00000000: 73fa 633f 6b23 fbbd a21b 92be f16c a93e
00000010: 3cbc 44bf 9df2 d3be e87c c2bd 607f 103f
00000020: 0e29 fb3e 8be1 153f a152 563f 65b5 99be
00000030: 65e2 b03e e177 533d a2ae babe 871e 02bf
00000040: f493 bfbe a9fa 2c3f ae02 093f dab9 1f3f
00000050: 4b5b 84bc cb18 063e 3d9d e9be e393 f13e
00000060: 9e3c 383f 57c0 cd3e a509 e5be a544 77be
00000070: 82c6 383f b4ab 093e db8b 8e3e daeb de3e
00000080: bec8 0f3f 7d17 e33e 2fab 823e 9b12 ad3e
00000090: 99ce 193f 6125 adbe 82fe fa3d 04c1 fe3e
000000a0: c8c0 463d bb44 3bbe 9c59 ee3d 4514 fb3e
000000b0: a77e fc3e c100 45bd 44cc f8bd 772c a33e
000000c0: 3e88 843e 265d 203f d9d9 ea3e c3cc c6be
000000d0: cce1 08bf 7d24 283f 4047 32bd cd29 e63e
000000e0: 72f6 393f 5b4d a0be 41d8 243f d5b1 103f
000000f0: d0c1 f5be 3b8f 2c3f 7dae 1e3f 5c11 95bd
00000100: 30e8 113f a0b1 12be 21db a3be 8c38 f6be
00000110: b700 173f f963 c43e afb2 e63e c056 013f
00000120: 29ec 403f 3cb5 253f 625b 113f 1b8b 32bc
00000130: eea1 34bd 1207 443f 900a 053f bdcd 333f
00000140: 4824 4bbe 4046 303f 8de7 453f 1a09 303f
00000150: b6c9 b03e c928 5f3f 29a2 183f 80a2 c83e
00000160: bfc1 fd3e 4e28 cd3e 2cb5 a8bd 8f3d 3a3f
00000170: 9495 563f 4e4e 09bf f5b8 4e3d 5d0b 37be
00000180: ba74 1a3d 62e2 cf3e 0b4e 46be 0126 143f
00000190: f905 8b3f 9a4b 1f3f d412 2bbe e490 d9be
000001a0: 28ca d4be 30fc 0fbf da42 84bd 87c0 ce3e
000001b0: 3236 b2be a9eb 45be a9f7 6ebe a679 003f
000001c0: bcbd 4c3f f364 15bf 6f28 afbd acf4 b0be
000001d0: 2e18 223f 447a 07bf 63fa 3f3c cc5c 17bf
000001e0: b620 2fbe 1e57 1b3d 0b0d 82bd b616 d13e
000001f0: 4e4a 443f 8c06 073f 7586 073f df7f 673f
00000200: 3ce8 123f 01e2 77bf 27e6 14bf 4843 573e
00000210: e294 8cbf 9d63 02bf c6a2 13bf 2961 193f
00000220: 036c 473f a0d5 273f 7b55 153f 9772 0fbf
00000230: 5829 093f 68ed d1bd 9c61 2dbf 328a 33bf
00000240: 7944 13bf fc67 663f dc6e 453f c406 9f3e
00000250: de96 c9be 445b ff3e 008a 20bf 498c c93e
00000260: d9e8 313f 2964 473f 8848 61bf c12b edbe
00000270: 2451 8d3f 0cad c83e 700c 1c3f d98a 523f
00000280: 838b 403f a40a 103f 0f62 dc3e 89f2 ef3e
00000290: 0837 1c3f 1d59 e2be 1893 8dbd c1e6 c93f
000002a0: 3d70 93be d0d1 11bf e2e9 fe3e aea1 d43e
000002b0: 77f3 433f fcc3 5b3e fc16 25bf 6e9d bdbe
000002c0: 1006 fc3e 64e0 503f 32c8 5a3f 8c99 f5be
000002d0: 30b5 51bf 8054 353f adb8 3abf 137e 293f
000002e0: 37b0 243f d032 5dbf 2ee8 4a3f 161b 373f
000002f0: 9006 2abf 3840 123f b6f6 313f a6d2 13be
00000300: 4d01 1e3f 0d18 b2be 17e8 07bf d33a 2cbf
00000310: 6ec8 293f b601 bf3e 2d83 2d3f 0bf3 693f
00000320: 5d51 553f 0f5b 703f e866 f73e 2d1a aebd
00000330: 6198 41bf 0486 0a3f 1945 5f3e 1021 113f
00000340: bf6d 5bbf 691b 3d3f 9c60 3f3f ffb2 4e3f
00000350: 225b c83e d444 cb3e 31a1 2f3f 7756 0f3f
00000360: cf89 b73e 8730 c03d 9444 b5be 7e31 233f
00000370: 6fc6 ca3e 9219 82bf 0511 413f 5b76 44bf
00000380: 563a c6be cdeb 473f 4b2d 5cbf 7240 593f
00000390: 4ac6 a03e 7ea3 033f ec5f 1fbf 1f39 33bf
000003a0: bfbb 8cbf d691 46bf c6a0 3bbf 17b7 2e3f
000003b0: d985 13bf 8a51 70bf 5a48 b5be 87cd 1a3f
000003c0: c640 2b3f faad d6be 9419 57bf 9d38 43bf
000003d0: 520d 043f a508 35bf 8684 11bf b0e1 a9be
000003e0: ac7b 083e a687 0fbf 46c2 2abf 6858 c63e
000003f0: 7070 5f3f f682 0f3e 75d0 af3e 705d d93e
0.8905403 -0.12262615 -0.28536707 0.33090928 -0.7684972 -0.41396037 -0.0949648 0.5644436
0.4905476 0.58547276 0.8371983 -0.30021206 0.34547725 0.051627997 -0.3646136 -0.5082783
-0.37417567 0.6756998 0.53519714 0.6239296 -0.016156813 0.13095395 -0.45627776 0.4718314
0.71967494 0.40185806 -0.4473392 -0.2414728 0.721779 0.13444406 0.27841076 0.43539315
0.56165683 0.44353858 0.25521228 0.33803257 0.6008087 -0.3381758 0.12255575 0.49756634
0.048523694 -0.18287937 0.116381854 0.49038902 0.49315378 -0.048096422 -0.121483356 0.3186986
0.25885195 0.62642133 0.4586933 -0.38828096 -0.5346954 0.65680677 -0.04352498 0.44953766
0.7264167 -0.31309018 0.6439248 0.5652135 -0.4799943 0.6740605 0.61985 -0.07278702
0.56994915 -0.14325571 -0.3200312 -0.48090017 0.58985466 0.38357523 0.450582 0.50522995
0.7536035 0.64729667 0.56780064 -0.010897423 -0.04409974 0.7657329 0.5196924 0.70235807
-0.19838059 0.68857193 0.77306443 0.6876389 0.34528893 0.8717161 0.59622437 0.39186478
0.4956188 0.40069813 -0.08237681 0.7275018 0.8382199 -0.5363511 0.050469358 -0.17875428
0.037708975 0.40602404 -0.19365709 0.5787049 1.0861198 0.62224734 -0.16706401 -0.42493355
-0.41560483 -0.5624418 -0.064580634 0.40381262 -0.34806973 -0.19328178 -0.23336662 0.5018562
0.7997701 -0.5835716 -0.08552634 -0.3456167 0.63318145 -0.5292094 0.011717412 -0.5912597
-0.17102322 0.03792488 -0.06350144 0.4083764 0.7667588 0.52744365 0.5293954 0.9042949
0.5738561 -0.9682923 -0.58163685 0.2102176 -1.0982935 -0.5093325 -0.5767025 0.5991388
0.7789919 0.6556034 0.5833356 -0.56034225 0.5357871 -0.1025036 -0.67727065 -0.70132744
-0.57526356 0.9000242 0.77122283 0.3105985 -0.39372915 0.49874318 -0.6271057 0.39364842
0.6949592 0.7788721 -0.880013 -0.46322444 1.1040387 0.39194524 0.6095648 0.82243115
0.7521288 0.56266236 0.43043563 0.46864727 0.6102147 -0.44208613 -0.069128215 1.5773546
-0.2879657 -0.56960773 0.49787813 0.41529602 0.7654337 0.21461481 -0.64488196 -0.37034172
0.49223375 0.8159239 0.85461724 -0.4796871 -0.81917095 0.7083206 -0.7293804 0.66208
0.6433138 -0.8640566 0.7926053 0.71525705 -0.66416264 0.5712924 0.69517076 -0.14435825
0.61720735 -0.34783974 -0.53088516 -0.6727726 0.66321456 0.37305993 0.67778283 0.9138648
0.83327276 0.93888944 0.483207 -0.085010864 -0.75623137 0.5411074 0.21803702 0.56691074
-0.85714334 0.7386995 0.7475679 0.80741876 0.3913203 0.3970095 0.68605334 0.5599131
0.35847327 0.09384256 -0.35403883 0.63747394 0.39604518 -1.0164053 0.75416595 -0.76743096
-0.38716382 0.7809418 -0.8600661 0.8486396 0.31401283 0.51421344 -0.6225574 -0.70009035
-1.0994796 -0.7756628 -0.73292196 0.6824812 -0.5762611 -0.9387442 -0.35406762 0.6046986
0.6689571 -0.4192961 -0.84023404 -0.7625826 0.51582825 -0.70716316 -0.5684284 -0.33179998
0.13328427 -0.5606636 -0.6670269 0.38739324 0.8728094 0.14014801 0.34338728 0.424541

out.bias f4 [5]
00000000: 3143 28c0 29a0 8b3f b055 1b40 ff39 873e
00000010: 1d23 b5bf
-2.629101 1.0908252 2.427105 0.26411435 -1.4151341

exp_avg_sq f4 [128, 28]
00000000: 9f8f 823c 75f0 e93b c44c 2a3b 6250 b83a
00000010: b4c4 8a3a 2030 763a 9497 803a 52ba 9c3a
00000020: 7ad0 f33a c51c 7a3b efaa 253c 7346 af3c
00000030: 7f6e 0b3b 0c32 2c3b 6164 893b 33c2 193c
00000040: 53c9 cb3c 4046 153a 81d1 0a39 6f35 f538
00000050: 0094 2939 1367 de39 03b6 773b 160b 853c
00000060: 6a44 8338 499b 6b3c f28a c238 0f9e 343f
00000070: dec2 b245 2dba 0445 78a7 9c44 13b4 2744
00000080: 6694 c343 7ce8 e043 c4d0 be44 678a 6a44
00000090: b1b3 9b44 48a5 7c45 2107 8745 9183 4845
000000a0: 3edc 4445 d376 e744 1869 8044 6a75 3144
000000b0: d13a 1a44 777a 2044 4b31 5a44 db90 bd44
000000c0: 4024 2d45 ac64 ae45 10b2 7c45 57dc b245
000000d0: 712e a743 688f 1247 f955 9842 f710 d747
000000e0: 41bd fe39 1236 8f3a fe9f a83b 0840 b93d
000000f0: 6768 cd3d 37e7 c53c 99c8 523c c5d6 1a3c
00000100: 737e 023c a587 ff3b 9cd5 173c a969 4b3c
00000110: 0212 413d b782 143d 27f3 043d 4038 d23b
00000120: 6192 9a3a dc0d ec39 c720 9d39 03ad 7c39
00000130: d06d 8139 4966 a039 1909 af39 4f70 fc39
00000140: ccae a43d 7ef4 0c3e 23c2 7339 ceb2 6e40
00000150: f2c8 9644 66a8 0244 f4b7 ae43 d8ee a543
00000160: ec03 2845 18ac 3a46 cefe fa45 499f 0f46
00000170: 0bf8 b146 fd4c d346 54b8 2147 4d55 0847
00000180: dbaf 4246 fbd5 e145 5d44 a745 581d 3f46
00000190: 1ca2 3547 edd0 f046 d4b4 4e46 d0ed 5346
000001a0: 1fbf d246 ccfa 8c47 d412 a246 bab8 9944
000001b0: 8edb 1d46 1457 2a48 b0ef 7c43 fe06 0848
000001c0: e9e1 2943 1153 0c43 109a 8b43 70f5 4c44
000001d0: 004b f845 1708 8645 c255 c044 9ab7 ef44
000001e0: 51ae 3845 fdde de44 420d e844 9699 a745
000001f0: a16f 1445 a747 d444 1df1 ae44 77f8 be44
00000200: a67e cf44 e94e de44 ed04 a644 4942 c144
00000210: ff48 8644 a51d 7a44 7133 8244 8bd0 2e43
00000220: 0c26 9644 2959 8046 8a0d 4f42 bce8 9148
00000230: 4e5d 2e44 52a7 c243 57d0 9c43 7641 5144
00000240: 8bea 7945 b378 3946 6ecd 0946 6152 d946
00000250: 3ef5 f646 005d ba46 1a87 e046 9b5d 5a46
00000260: ac11 f045 b42c ae45 8d9f 1346 8674 8946
00000270: e236 cb46 c0c1 3f46 009a 1546 159f 5a46
00000280: 6f02 cc46 0fd0 3547 1bea 7e45 4050 2f44
00000290: 2d5f 8d46 e332 2148 94c0 7743 0afa 6947
000002a0: 17de fd27 79d4 0f28 e27b 5d28 9d7f 1129
000002b0: 90da aa29 e125 2829 ea88 f82a 7c4f 0b2b
000002c0: fb0d 952a 5b7a 2d2a 3837 0b2a 99ec 032a
000002d0: 50c5 e529 aed7 f629 3191 2c2a edb2 9a2a
000002e0: cef7 632b ea6e f82b e231 1529 2bc2 a627
000002f0: 5d9d 8b28 9e21 4728 8d5d 1728 6f2a 0828
00000300: 9ba9 192a 6442 b52c cac7 6127 ae5b 6c2e
00000310: f124 8644 41fc 7f45 1e51 e545 b841 8646
00000320: 843e 6948 7360 ef47 fa1d 1e47 e03d b246
00000330: 80b5 8446 c7d7 6846 a5fd 8c46 0aee 0248
00000340: 61e6 5247 4a0d fb46 03e0 bc46 d0a8 a646
00000350: 9956 a946 7866 cf46 f30c 9446 19f2 6d45
00000360: 2657 2a44 ef41 2844 3b58 3f44 b855 8e44
00000370: 7829 1e45 de2e ad48 75db 2544 3121 024b
00000380: d3cb f045 0195 8245 6ed7 5245 4376 2e45
00000390: d731 a245 335d 5e45 2a37 4845 7694 a946
000003a0: f45f e746 4bf8 5146 0158 1946 2ab8 0f46
000003b0: d479 dd45 f94d 9145 20ec c945 9ce8 3e46
000003c0: 4b45 f045 0918 b445 493c 9a45 6bfd 9b45
000003d0: 29a5 ba45 7226 7a45 c600 bf45 a67d f145
000003e0: d91d 8646 6850 9147 8a38 7943 5c7a ba48
000003f0: 5451 5d29 f86f 4829 07cf 5529 358f 5b29
0.015937624 0.0071392604 0.0025985697 0.0014062042 0.0010587187 0.00093913265 0.0009810799 0.0011957383
0.001860156 0.003816412 0.0101115545 0.021395897 0.0021275578 0.0026274947 0.0041928743 0.00938468
0.024876272 0.0005694367 0.00013238752 0.00011692463 0.0001617223 0.00042419936 0.0037797696 0.016240638
6.25931e-05 0.014380285 9.2765215e-05 0.7055368 5720.3584 2123.636 1253.2334 670.81366
391.15936 449.81628 1526.5239 938.16254 1245.6154 4042.33 4320.891 3208.223
3149.7651 1851.7133 1027.2842 709.8346 616.919 641.9135 872.7702 1516.5267
2770.2656 5580.584 4043.129 5723.5425 334.36282 37519.406 76.167915 110113.93
0.0004858766 0.0010926148 0.0051460257 0.09045416 0.10029679 0.024158103 0.012865209 0.009450619
0.007964718 0.0077981525 0.009267237 0.012415328 0.047136314 0.036257472 0.03245845 0.006415397
0.0011792892 0.00045023754 0.00029969795 0.00024097045 0.00024686614 0.00030593787 0.0003338538 0.00048148862
0.08041152 0.13765141 0.00023246607 3.7296634 1206.2795 522.6312 349.43713 331.86597
2688.245 11947.023 8031.8506 9191.821 22780.021 27046.494 41400.33 34901.3
12459.964 7226.7476 5352.5454 12231.336 46498.11 30824.463 13229.207 13563.453
26975.56 72181.59 20745.414 1229.7727 10102.889 174428.31 252.93628 139291.97
169.88246 140.32448 279.2036 819.83496 7945.375 4289.011 1538.6799 1917.7375
2954.8948 1782.9684 1856.4143 5363.198 2374.9768 1698.2391 1399.5348 1527.7645
1659.9578 1778.466 1328.1539 1546.0714 1074.2811 1000.4632 1041.6075 174.81462
1201.189 16428.58 51.76322 298821.88 697.4579 389.3072 313.62766 837.0228
3998.659 11870.175 8819.357 27817.19 31610.621 23854.5 28739.55 13975.401
7682.209 5573.588 9447.888 17594.262 26011.441 12272.4375 9574.5 13991.7705
26113.217 46544.06 4078.6316 701.2539 18095.588 165067.55 247.75226 59898.04
7.0462397e-15 7.984167e-15 1.2294827e-14 3.2307155e-14 7.587431e-14 3.733635e-14 4.4148653e-13 4.9493027e-13
2.6477418e-13 1.5407937e-13 1.2364838e-13 1.1717224e-13 1.0203871e-13 1.0962009e-13 1.5327042e-13 2.748005e-13
8.09905e-13 1.7652245e-12 3.3127913e-14 4.6284773e-15 1.5500345e-14 1.1054009e-14 8.4024694e-15 7.558718e-15
1.3647974e-13 5.1517002e-12 3.1333328e-15 5.3741615e-11 1073.1544 4095.7659 7338.1396 17184.86
238842.06 122560.9 40477.977 22814.938 16986.75 14901.944 18046.822 134072.16
53990.38 32134.645 24176.006 21332.406 21675.299 26547.234 18950.475 3807.131
681.3617 673.0302 765.3786 1138.6787 2530.5918 354678.94 663.429 8.528177e+06
7705.478 4178.6255 3373.4644 2791.3914 5190.23 3557.825 3203.4478 21706.23
29615.977 13438.073 9814.001 9198.041 7087.2285 4649.7466 6461.5156 12218.152
7688.6616 5763.0044 4935.5356 4991.6772 5972.645 4002.4028 6112.0967 7727.706
17166.924 74400.81 249.22086 381906.88 4.91424e-14 4.450604e-14 4.747507e-14 4.875198e-14

exp_avg f4 [128, 28]
00000000: 0400 0000 0400 0000 0400 0000 0400 0000
00000010: 0400 0000 0400 0000 0400 0000 0400 0000
00000020: 0400 0000 0400 0000 0400 0000 0400 0000
00000030: 0400 0000 0400 0000 0400 0000 0400 0000
00000040: 0400 0000 0400 0000 0400 0000 0400 0000
00000050: 0400 0000 0400 0000 0400 0000 0400 0000
00000060: 0400 0000 0400 0000 0400 0000 0400 0000
00000070: 62f2 ad40 5045 e53f a034 4440 045b 0540
00000080: 5570 3e3f 703e 48bf c818 fabe 8781 5b3f
00000090: 4f8f a23f 3531 0b40 f7ee 4140 cd77 9540
000000a0: 0ba4 6140 48f5 7140 2afe 1940 74b9 0140
000000b0: 4638 c03f 5454 913f eeea 7a3f a127 973f
000000c0: 17cd bc3f 46ae 1040 4a57 5640 e7d1 ac40
000000d0: a26a 93be b4f3 df40 289c b93e cf36 b041
000000e0: 0400 0000 0400 0000 0400 0000 0400 0000
000000f0: 0400 0000 0400 0000 0400 0000 0400 0000
00000100: 0400 0000 0400 0000 0400 0000 0400 0000
00000110: 0400 0000 0400 0000 0400 0000 0400 0000
00000120: 0400 0000 0400 0000 0400 0000 0400 0000
00000130: 0400 0000 0400 0000 0400 0000 0400 0000
00000140: 0400 0000 0400 0000 0400 0000 0400 0000
00000150: aa60 8d3d 847b a93d a8ba 953d c87c 9a3d
00000160: 4dda a13d 84fe b53d 8724 633f 1aae 2f3f
00000170: 15ad 063f d082 533e 94be 4d3e 7437 a23e
00000180: f199 393e 691f 553e aac3 643e c2f4 6e3e
00000190: 0de4 7d3e 2cf7 a83e 9dfd e83e 5a24 523f
000001a0: dd90 e73f d0da 37be 19eb 9ebd c58c 923d
000001b0: ea02 c7bd b163 2240 ca44 9f3d ff64 583f
000001c0: 97af cc3f 2e22 353f 8c7b cf3e 1fc2 a63e
000001d0: 2cd7 463f 0e3b 463f 43ed d0be a2ea 9fbf
000001e0: 3143 073e 9795 c33e 104f f43f 90e3 cc3f
000001f0: 27a2 163f ce3f ab3f 2fbb a33f 6f98 853f
00000200: fcc3 083d 6b1c dcbd c963 643f 4ce3 d9bf
00000210: 8fd6 81bf 8586 4740 3dca 6340 be8c c93f
00000220: cf55 6e3e edbc 9bbf aec8 c83e 88f3 f840
00000230: 14d9 a83f e324 953f a3c7 8b3f 44c5 513f
00000240: aa1c 0b41 f224 bf40 5ce6 a040 ee21 8d40
00000250: 9613 8940 8d6d 9140 07b5 9b40 0806 6640
00000260: 28a1 3940 b737 2d40 20fe 2c40 55a7 3a40
00000270: a655 5440 2aa8 8e40 bc8b e740 3256 7d41
00000280: 63b5 c940 3fb0 2340 0e35 cb3f 645c 9e3f
00000290: edb5 eabf 8d44 e941 b7aa 8d3f ed32 1141
000002a0: 0400 0000 0400 0000 0400 0000 0400 0000
000002b0: 0400 0000 0400 0000 0400 0000 0400 0000
000002c0: 0400 0000 0400 0000 0400 0000 0400 0000
000002d0: 0400 0000 0400 0000 0400 0000 0400 0000
000002e0: 0400 0000 0400 0000 0400 0000 0400 0000
000002f0: 0400 0000 0400 0000 0400 0000 0400 0000
00000300: 0400 0080 0400 0000 0400 0000 0400 0000
00000310: 224c 1000 1a9c 3000 b41f 5c00 4757 3d00
00000320: b3f0 2600 52dc 1d00 5349 1900 fcfa 1700
00000330: d3d7 1800 2b8f 1b00 7fa3 2000 b443 3f00
00000340: cdee 3700 a967 3500 7c77 1900 9336 0d00
00000350: c3ae 0800 419d 0700 4ded 0600 e359 0600
00000360: 1eea 0600 8de6 0700 0a77 0a00 cca6 1000
00000370: a351 0c80 9edf 7200 aa77 0600 7749 9201
00000380: c8ff af40 8e3b c63e 4cc1 fc3f 0e4b 0840
00000390: f866 e73f 78b2 6fbf c61c 03bf 85ee c63f
000003a0: b431 0640 59bd a63e 8092 a73c 84fc cc40
000003b0: 342d c740 c877 b440 b969 9040 701d 3140
000003c0: 8265 db3e 8f1b b9be a2bf b23f b341 df3f
000003d0: a970 8140 a618 9d3d 1137 a840 7880 af40
000003e0: 54df c9be 8fc8 1641 5963 2b3d 5b95 3c42
000003f0: 0400 0000 0400 0000 0400 0000 0400 0000
6e-45 6e-45 6e-45 6e-45 6e-45 6e-45 6e-45 6e-45
6e-45 6e-45 6e-45 6e-45 6e-45 6e-45 6e-45 6e-45
6e-45 6e-45 6e-45 6e-45 6e-45 6e-45 6e-45 6e-45
6e-45 6e-45 6e-45 6e-45 5.4358377 1.7911777 3.065712 2.0836802
0.74390155 -0.7822027 -0.48847032 0.8574452 1.2699984 2.1748784 3.0302103 4.670874
3.5256374 3.7805958 2.406138 2.0269442 1.5017173 1.135386 0.98014724 1.1808969
1.4750088 2.2606368 3.3490777 5.400623 -0.28792292 6.998499 0.3625195 22.026762
6e-45 6e-45 6e-45 6e-45 6e-45 6e-45 6e-45 6e-45
6e-45 6e-45 6e-45 6e-45 6e-45 6e-45 6e-45 6e-45
6e-45 6e-45 6e-45 6e-45 6e-45 6e-45 6e-45 6e-45
6e-45 6e-45 6e-45 6e-45 0.06903203 0.08275512 0.073109925 0.075433314
0.07902966 0.08886436 0.8872761 0.6862503 0.5260785 0.2065537 0.20092231 0.31682932
0.1812513 0.20812763 0.22340265 0.23335555 0.24794026 0.33001077 0.45505992 0.8208672
1.8091084 -0.17954564 -0.07759685 0.07155756 -0.09717353 2.5373347 0.07776792 0.8452911
1.5991086 0.7075528 0.40523946 0.32569978 0.77672076 0.7743386 -0.40806016 -1.2493479
0.13209225 0.38200065 1.9086628 1.6006947 0.58841175 1.3378847 1.2791499 1.0437144
0.03339003 -0.10747608 0.8921476 -1.702249 -1.0143603 3.1175854 3.5592186 1.5746076
0.23274921 -1.216703 0.39215606 7.779728 1.3191247 1.1651882 1.0920299 0.8194163
8.694498 5.97326 5.02812 4.410392 4.283641 4.544623 4.865848 3.594118
2.9004612 2.7065256 2.7030106 2.9164631 3.3177276 4.458028 7.2358074 15.833544
6.303392 2.5576322 1.5875566 1.2371945 -1.8336769 29.158472 1.1067723 9.074933
6e-45 6e-45 6e-45 6e-45 6e-45 6e-45 6e-45 6e-45
6e-45 6e-45 6e-45 6e-45 6e-45 6e-45 6e-45 6e-45
6e-45 6e-45 6e-45 6e-45 6e-45 6e-45 6e-45 6e-45
-6e-45 6e-45 6e-45 6e-45 1.496679e-39 4.464103e-39 8.460239e-39 5.633274e-39
3.576095e-39 2.742265e-39 2.322191e-39 2.202253e-39 2.281475e-39 2.530917e-39 2.997387e-39 5.809924e-39
5.136618e-39 4.904468e-39 2.33875e-39 1.213439e-39 7.97377e-40 6.9926e-40 6.3614e-40 5.83258e-40
6.34998e-40 7.25555e-40 9.61058e-40 1.529203e-39 -1.131312e-39 1.0549465e-38 5.9394e-40 5.3737347e-38
5.4999733 0.38717312 1.974649 2.129581 1.8078299 -0.93631697 -0.5121578 1.554154
2.0967836 0.32566336 0.020455599 6.4058247 6.224268 5.6396217 4.5129056 2.7674217
0.42850882 -0.36153838 1.3964732 1.7441925 4.0450025 0.07670717 5.256722 5.484432
-0.39428198 9.4239645 0.041842792 47.145855 6e-45 6e-45 6e-45 6e-45

exp_avg_sq f4 [5, 128]
00000000: d67e b044 abe7 0b44 6bb7 1044 24de bb43
00000010: 8d2b 1444 1086 5944 ac6b 0444 46f9 9044
00000020: dd8e 4544 25ef 9044 811a b744 c4f1 1844
00000030: 5dc4 2b44 007c a542 584b e743 dda2 0d44
00000040: 31a0 9844 0016 8e44 6cf4 9044 68a8 3744
00000050: f77d a443 e62e 2c44 c606 0744 2be5 7144
00000060: 17d4 5e44 8c0b b944 5457 8344 280e e343
00000070: ddf3 1044 1507 e443 e411 4044 7712 b344
00000080: 2342 ae44 418f 7744 6627 0b44 4076 5444
00000090: cd71 9f44 dfdb ad44 7bc7 f143 e855 8044
000000a0: cd4c 2343 5af5 1944 b5cc d243 b0f2 1744
000000b0: 3214 7944 44ce b042 4e61 0444 80b8 2c43
000000c0: 5476 f243 2f43 8144 fb0d c844 09fa 4644
000000d0: e835 6444 e751 a244 9515 f843 dcfe 5a44
000000e0: 799d ae44 80e7 0444 c881 9e44 396c 8844
000000f0: a06f 8044 bc1b 7a44 cb7a 8044 ca9f b642
00000100: 0534 7c44 34ad b443 373d 8344 3136 5344
00000110: 514b a444 9f1c 3844 86d2 ec44 0d08 7344
00000120: 023a 9243 91d6 8544 1e1e 8344 c004 eb43
00000130: 7b01 a143 00b1 5744 0373 7143 c94a c744
00000140: 28ac 0144 a656 f144 f51d db44 fd05 cf44
00000150: 052d 4344 e70e 3444 e5a1 9744 8666 5b44
00000160: e59f 2744 5d22 c343 d440 6a43 9fba b844
00000170: 2701 7644 7bea 8044 3808 5d44 4b49 d843
00000180: 591f c742 1717 9344 112a 1944 70a8 9644
00000190: b99b 6f44 9b12 4c44 6a43 4344 d53e 6544
000001a0: 1cd6 7644 2663 5b44 aa1c bf43 ab00 9e44
000001b0: a2e7 1444 dc94 5644 0a00 f543 e994 8944
000001c0: 9781 5c44 27ce 1444 8877 d843 9e3b 8d44
000001d0: eb7c 3244 754d 9344 e6c2 0d44 56f8 0844
000001e0: 3332 4343 0247 6343 54d7 f743 c9ab 7b44
000001f0: dd13 c044 39ee 0d44 dee4 6144 6e25 ca43
00000200: efb1 aa40 c794 4e40 31db 903f 331c d33f
00000210: 9ce4 3241 3b26 9e40 ef9d 8c3f e132 6741
00000220: a47f 2f41 aa74 0841 90e3 e640 753e 0140
00000230: 970f e740 f48d 793f 8e74 6240 f5c7 3940
00000240: af04 ba40 56e4 2541 8a63 d440 5694 be40
00000250: 7557 193f 7b0a 1540 8456 e23f 1637 5d40
00000260: 3774 c840 ca49 1341 f4bb a940 b69b 943f
00000270: 4bfa 9440 0376 2040 7148 5f40 88c8 1a41
00000280: 003a 1d41 4333 a740 5d8a 4440 666a 5640
00000290: e339 fb40 20e6 f440 f8d9 6c3f 7fb1 f340
000002a0: ea64 563f 55f0 5140 b120 3d40 3c78 0641
000002b0: 4729 1141 8364 873f 4fca 3540 85d3 973f
000002c0: a272 1e40 90eb 1141 bfa0 2e41 abd6 0e40
000002d0: 2964 7040 57f4 ca40 4f5e 0b40 0832 3c41
000002e0: 8525 4841 dd3f 8f3f 295e 8341 6b31 2841
000002f0: 0352 8740 fb1c 0f41 141c d040 ef5b 113f
00000300: 379d da40 897f 183f cd85 e440 e599 e340
00000310: 563b 2a41 5415 a640 6ada 1c41 4420 f140
00000320: 0795 0d41 1422 8840 d098 1241 30cb ed3f
00000330: cab7 a43f 7e36 8040 5906 1540 e8b8 dc40
00000340: d26a 5b40 0a10 5241 f6f4 5241 99bd 1941
00000350: c673 3e40 9bbb 8041 49de 0f41 f5cb 8a40
00000360: 5997 e140 9ce7 5d40 9871 813f cfd8 2041
00000370: 16f5 ec40 1a84 b540 433e fa40 56b6 2940
00000380: 555c 463f 6413 fd40 250b 9440 3705 c140
00000390: 717d 5441 ec0b b340 edb3 0e40 1f1b 9340
000003a0: 96fa 0941 63ad 4240 cc28 1140 c398 4f41
000003b0: 93e3 1640 da6e b240 2a7f 0b40 4a85 ce40
000003c0: 6cfa 1d41 53f5 3940 7eba 1740 e18f 9540
000003d0: d51a ad40 a19e ea40 51b6 d93f da1a 8540
000003e0: f95f 493f 8af2 8b3f 9784 5b40 e5bb ba40
000003f0: 8e2f 7d41 551b 8c40 e480 c840 fa58 7240
1411.9636 559.6198 578.8659 375.73547 592.6805 870.0947 529.6824 1159.7898
790.23224 1159.4733 1464.8282 611.7776 687.0682 82.74219 462.58862 566.54474
1221.006 1136.6875 1159.6382 734.63135 328.9841 688.7328 540.10583 967.58075
891.3139 1480.3608 1050.729 454.1106 579.81036 456.05533 768.27954 1432.577
1394.0668 990.23834 556.6156 849.84766 1275.5563 1390.871 483.55844 1026.6846
163.3 615.8336 421.59927 607.792 996.31555 88.40286 529.5204 172.7207
484.92444 1034.0995 1600.4369 795.9068 912.8423 1298.5594 496.1686 875.9822
1396.921 531.6172 1268.0557 1091.382 1027.4883 1000.43335 1027.8373 91.31209
1008.8128 361.35315 1049.913 844.84674 1314.3536 736.4472 1894.5789 972.1258
292.4532 1070.7052 1048.9412 470.0371 322.01157 862.7656 241.44926 1594.337
518.68994 1930.7078 1752.9362 1656.1871 780.7034 720.23285 1213.0592 877.6019
670.49835 390.26846 234.25323 1477.8319 984.018 1031.3275 884.1284 432.5726
99.561226 1176.7216 612.6573 1205.2637 958.43317 816.2907 781.05334 916.98175
987.34546 877.5492 382.22394 1264.0209 595.61926 858.3259 490.0003 1100.6534
882.02484 595.2211 432.93384 1129.863 713.95184 1178.4205 567.0453 547.88025
195.19609 227.27737 495.68225 1006.68414 1536.6207 567.7222 903.57605 404.29242
5.3342204 3.2278306 1.1316892 1.6492981 11.180813 4.942167 1.0985698 14.449922
10.968662 8.528482 7.2152786 2.019437 7.220653 0.9748223 3.538364 2.9028294
5.8130717 10.368246 6.637151 5.9556074 0.59899074 2.3287647 1.7682652 3.4564872
6.2641864 9.205515 5.3041935 1.1610019 4.6555533 2.5072029 3.4887965 9.673958
9.82666 5.2250075 3.070945 3.350244 7.8508162 7.6530914 0.92520094 7.615417
0.8374773 3.2802937 2.9551203 8.404354 9.072577 1.0577549 2.840473 1.1861426
2.4757466 9.12001 10.914245 2.2318523 3.7561133 6.3423266 2.1776311 11.762215
12.50916 1.1191365 16.420977 10.512065 4.228761 8.944575 6.5034275 0.56780905
6.8316913 0.59569603 7.141333 7.112536 10.639486 5.1901035 9.803324 7.5351887
8.848884 4.25416 9.162308 1.8577633 1.2868588 4.006652 2.3285124 6.8975716
3.4283948 13.128916 13.184805 9.6087885 2.9758162 16.091604 8.991769 4.337397
7.049725 3.4672613 1.0112791 10.052932 7.4049177 5.6723757 7.8201003 2.651754
0.7748464 7.908617 4.6263604 6.0318866 13.280625 5.5952053 2.2297318 4.5970607
8.623678 3.0418327 2.268115 12.974795 2.35764 5.5760317 2.1796365 6.4537706
9.873638 2.9055984 2.3707576 4.6738133 5.4095254 7.331864 1.7008764 4.159528
0.7866207 1.0933392 3.4299676 5.8354363 15.82411 4.3783364 6.2657337 3.7866807

exp_avg f4 [5, 128]
00000000: f567 353d c06b d1bb 0093 8cb9 9e43 0f3e
00000010: 367f 9cbd bddb c9bd a04d ebbb fe9a 0f3e
00000020: 9f13 853d d33b ca3d 26b5 373e 1bb0 d5bd
00000030: 7ec1 8c3d 761b 9c3d 5709 35bc 8e14 9bbd
00000040: ef2b 10be 34f9 223e 3164 723d e811 e83d
00000050: 47f5 03bd e83c 293e 4239 39bd d5c9 e03d
00000060: 42b1 833d 74a4 373d 9caa 63bd 93c7 b93c
00000070: 1cde ac3d 4a56 af3d b1a7 f23b e279 9a3d
00000080: aefa 5e3d 2037 a83d 4051 a13d 7f12 a13d
00000090: 85e3 fa3c 4a05 9fbd de3f da3c 54ae f53c
000000a0: 6ba8 b4bc f571 eabd 90db 2e3d c981 813e
000000b0: 5ab5 6b3d 206d 1fbe baa6 75bd ff0b b5bc
000000c0: 8ddb cf3d 1c57 023e ab1f 233e 456e 143d
000000d0: 0af4 17bd bdf2 9f3d b01a fbbc 3b14 b73d
000000e0: 31b8 053d 4ada 35bd 1b27 423e 968e d23d
000000f0: a4b6 a9bd e50b b93d 2aae e83d 083f 9bbc
00000100: 6f49 6a3d 3fc4 41bd febc 6ebd 198f c2bd
00000110: 6526 923d 7951 0b3e 2fca 643d 3eb5 a23d
00000120: 6c52 403d 829c 093d 4b54 fb3d 3fe8 6c3d
00000130: 9210 02bd d174 e03d 3f8e 9b3d eff5 ab3d
00000140: 27a0 8fbb 4344 123e 0c6c b93d c3aa f23d
00000150: c862 de3d 9a4a 883d 0f56 983d 9a05 5a3d
00000160: db26 bd3d 50ad a83d 140f 30be f9b0 fc3d
00000170: 3349 fb3d 08b0 94bd 4172 233d a07d dabc
00000180: 9f89 c73d c2c2 9a3d bc85 97bd 8a29 553d
00000190: cc5a 0b3e b3bf f23d a1c7 0abd 708d c9bd
000001a0: 3ca1 28bd ea92 e33b 8d9b 70bd 6396 8a3d
000001b0: afea d6bc 9acc 1bbd 0240 55bd ea31 5e3d
000001c0: bb84 a63d c3d0 89bd 02b7 2b3c 93b1 4abd
000001d0: 2d7b fd3c 971f 40bd eed4 c7bc b2c3 483c
000001e0: c20a fdbc b034 e5bb ff0a eabc af15 0d3e
000001f0: 3e36 773d 8430 c93d b4ad f03d 9802 c53d
00000200: 40dc d93d ebde 9bbd 8d83 a0bd b5b7 1f3e
00000210: dfc8 5abd fed7 98bd 58fe 85bd cc99 813d
00000220: 60c0 ba3d f323 9f3d dae5 713d be7f babd
00000230: d9ca 313e 0c4c 783d c5d5 a2bc b276 0dbd
00000240: 7501 38be 087e e93d 7aa4 203d a4b1 4c3d
00000250: 4318 e7bd 7507 ce3d 9e4b e4bd af50 d83d
00000260: 10c3 1a3e 4874 f33c 7555 9fbc 3a75 b0bd
00000270: 97c2 473b 18f5 e63d 98e7 4e3e e77a d83d
00000280: a976 ee3c 0fe5 223d 5b8c a73d 8a75 ec3d
00000290: 8883 443d daec 62be 741a 063e 2369 eb3c
000002a0: ebe4 76be e0d4 e3bd 040e 543e e065 4a3e
000002b0: b7bc f43d efa7 6ebe 28fa c5bd bc07 bebd
000002c0: e456 0c3e 2a13 f43d 088e 003e fa41 babd
000002d0: 5602 01be c584 383e e3c9 05be 21ca a13d
000002e0: 8d8e 873d 483f ddbd 8aba 693d 9084 083e
000002f0: 2767 0fbe 38e6 a63d 821f a53d 2c6b f2bd
00000300: f30a 003d 2e2a ffbd bc3b a4bd e91a 55be
00000310: 98e6 52bb 64de 363e b4c0 0b3e 49ab f03d
00000320: 9d6e 07be a904 043d 9e7f 163d c9c8 42be
00000330: cc95 10be 10a0 043d f4ff cd3d 9676 ed3d
00000340: b68d 66bd aace 0c3d 0aa1 ae3d 29f9 ea3d
00000350: 0e19 613e 3618 263e 7808 053e 2f35 ee3d
00000360: e8c5 ab3d c747 c53d 7f04 8abe 6e20 fa3d
00000370: aa8f cb3d 2957 63bd 1ae8 ee3d c5c6 2bbe
00000380: a728 233e 3951 9e3d 8cd1 9bbd fa60 3e3d
00000390: 27a7 093e 3f60 0b3e 0a96 d5bd 0050 dfbd
000003a0: 3729 41bd d489 0cbe f8df fdbd 3978 dd3d
000003b0: 6551 0ebe f86b 33be 0779 62be 14ab 1d3e
000003c0: 313f 58bc e8c6 a8bd 5403 3ebe 3b18 0abe
000003d0: c78b 083e 1586 f0bd 0e82 c2bd 2cb9 5ebe
000003e0: 1a9a 4dbe 1c8d f6bd 3602 2ebd 5400 f63d
000003f0: 40f6 a83d 05b8 dd3d 08d6 1cbd ad01 4f3c
0.044288594 -0.0063910186 -0.00026812404 0.13990638 -0.07641451 -0.09856365 -0.0071808845 0.14023969
0.06497883 0.09874692 0.17940196 -0.1043398 0.06872843 0.07622425 -0.01104959 -0.0757228
-0.1407926 0.15915376 0.05917758 0.1133154 -0.032216337 0.1652714 -0.04522062 0.109759964
0.064302936 0.04483457 -0.055582628 0.022678172 0.084408015 0.0856138 0.0074052443 0.075427786
0.054438286 0.08213639 0.07876825 0.07864856 0.030626068 -0.07764681 0.026641782 0.029990353
-0.022052964 -0.11447517 0.04268986 0.2529433 0.057545997 -0.15568972 -0.059973456 -0.022100447
0.10149298 0.12728542 0.15930049 0.036237974 -0.03709797 0.078099705 -0.030652374 0.089394055
0.03264636 -0.04439763 0.1896023 0.10281102 -0.08286789 0.09035472 0.11361344 -0.018950954
0.057198938 -0.047306295 -0.058285706 -0.0949995 0.071362294 0.13605298 0.05585688 0.079447255
0.046953604 0.033596523 0.12271937 0.057838675 -0.031754084 0.10959781 0.07595491 0.083965175
-0.0043831053 0.14283852 0.090538114 0.118489765 0.10858685 0.06654854 0.074382894 0.053228
0.09235927 0.08236182 -0.17193252 0.12338442 0.12269821 -0.07260138 0.039903883 -0.02667123
0.09743046 0.07556678 -0.07398555 0.052041568 0.13608855 0.1185297 -0.033881787 -0.0984143
-0.04116939 0.0069450038 -0.058742095 0.06766965 -0.026234953 -0.03803692 -0.052062996 0.05424682
0.08130785 -0.06729271 0.010480644 -0.049485754 0.030942524 -0.046905126 -0.024393525 0.012253689
-0.030888919 -0.006994806 -0.028569696 0.13777803 0.060354464 0.09823707 0.11751881 0.09619635
0.106377125 -0.076108776 -0.07837591 0.15597422 -0.05341422 -0.07463072 -0.06542653 0.063281626
0.09118724 0.07770529 0.059057094 -0.09106396 0.17362536 0.0606194 -0.019877324 -0.034537025
-0.17969306 0.11400992 0.039219357 0.0499741 -0.112839244 0.10060016 -0.11147235 0.10562264
0.15113473 0.029718533 -0.019449929 -0.08616109 0.0030480975 0.11277217 0.20205534 0.10570317
0.029109316 0.03976923 0.081810676 0.11545856 0.047977 -0.22160664 0.13096029 0.028736657
-0.24110763 -0.11124587 0.20708472 0.19765425 0.11950057 -0.23306249 -0.09666854 -0.09278819
0.13705021 0.11917718 0.1255418 -0.09094615 -0.12598547 0.18019398 -0.13065295 0.07899881
0.06618986 -0.108030856 0.057062663 0.13331819 -0.14004193 0.081493795 0.0806265 -0.11836848
0.031260442 -0.12459217 -0.08019206 -0.20811047 -0.0032180902 0.17858273 0.13647729 0.1175142
-0.1322579 0.032231007 0.0367428 -0.19021906 -0.14119643 0.03237921 0.10058585 0.11594884
-0.05628749 0.034376778 0.085268095 0.11473305 0.21982214 0.16220173 0.12991512 0.11631238
0.08387357 0.09632831 -0.26956555 0.12213217 0.09939511 -0.055503044 0.116653636 -0.16775043
0.15933476 0.07730336 -0.07608327 0.046479203 0.1344267 0.13610934 -0.10429008 -0.10903931
-0.047158446 -0.13724452 -0.12396234 0.10813946 -0.13898237 -0.17521656 -0.22116481 0.15397292
-0.01319866 -0.08241063 -0.18555957 -0.13485806 0.13334571 -0.11744324 -0.09497462 -0.21750325
-0.20078316 -0.12038633 -0.042482577 0.12011781 0.082500935 0.108261146 -0.038290054 0.012634677

exp_avg_sq f4 [5]
00000000: 02e9 8a3f f463 873f 70be f940 9720 1c40
00000010: 9d2c 023e
1.0852358 1.0577378 7.804497 2.4394891 0.12712331

exp_avg f4 [5]
00000000: 8887 ffbd 98e5 ffbd 04e7 cf3e c0d8 cebd
00000010: cf4a 0f3d
-0.124770224 -0.124949634 0.40605938 -0.100999355 0.034983452
