model/560a.pt (torch_old, 336851 bytes, 24 tensors)

fc1.weight f4 [128, 28]
0	0x3cba2e3d	0.022727126
1	0x3e7306f2	0.23733118
2	0xbe3168bc	-0.17325109
3	0xbd080704	-0.033209816
4	0xbeb3cefc	-0.35118854
5	0xbee702de	-0.45119375
6	0xbe1220bf	-0.14270304
7	0xbe57ed86	-0.21086702
8	0xbe890675	-0.2676274
9	0x3df87e88	0.12133509
10	0x3e8ece40	0.2789173
11	0xbe841c4b	-0.25802836
12	0xbde87e88	-0.11352259
13	0x3cf2cc1e	0.029638346
14	0x3e91c975	0.28474012
15	0x3eab0636	0.33403176
16	0x3ec15e22	0.3776713
17	0xbc6bcbbc	-0.014391836
18	0xbfa1a4dd	-1.2628437
19	0xc02a298c	-2.6587858
20	0xbff95602	-1.9479373
21	0xbfec3b43	-1.8455585
22	0xbe81cf26	-0.25353354
23	0x3e186002	0.14880374
24	0x3eb36d19	0.35044172
25	0xbe183ac9	-0.14866175
26	0xc0126bc8	-2.2878284
27	0x3c48b2c6	0.012249654
28	0x3f5089c9	0.81460243
29	0x3f6f602b	0.93506116
30	0x3e1513bb	0.14558308
31	0x3d10df02	0.035368927
32	0xbe803967	-0.25043795
33	0xbe4e822f	-0.20166849
34	0x3ca7143b	0.020395389
35	0x3ebc9615	0.36833254
36	0xbbf3f3bb	-0.0074448264
37	0x3e37988c	0.17929286
38	0xbb48e2c1	-0.0030652734
39	0xbe2fa772	-0.17153719
40	0xbec8b324	-0.39199173
41	0xbf206caf	-0.6266584
42	0xbd7043c0	-0.05865836
43	0xbe82c6de	-0.2554235
44	0xbdbe8179	-0.09302039
45	0xbeb51e05	-0.35374466
46	0xbed3db69	-0.41378334
47	0xbe19d04a	-0.15020862
48	0x3e230e01	0.15923311
49	0x3de17cbd	0.1101012
50	0xbe6c64ae	-0.23085281
51	0x3f345f7a	0.70458186
52	0x3f111866	0.56677854
53	0xbe5c3c42	-0.21507362
54	0x3f8a7af2	1.081877
55	0xbbba630d	-0.0056880773
56	0xbfbeb8ca	-1.4900143
57	0xbf98ee92	-1.1947806
58	0xbef94a61	-0.4868956
59	0x3dfe714b	0.12423953
60	0x3b55e172	0.0032635597
61	0xbd5c5d77	-0.053800073
62	0x3d6d012a	0.05786244
63	0xbdb62e7c	-0.08895585
64	0xbd9fb622	-0.07798411
65	0xbcb86889	-0.022510784
66	0x3b346327	0.002752492
67	0x3ebf1d4f	0.37327048
68	0x3d6a62dd	0.05722319
69	0xbdde109d	-0.108430125
70	0xbe153835	-0.14572223
71	0xbe01b75f	-0.12667607
72	0xbef12043	-0.47094926
73	0xbf487d13	-0.7831585
74	0xbf16f431	-0.58966357
75	0xbf44b4d8	-0.76838446
76	0xbe9de2ad	-0.30837002
77	0xbebd5fa7	-0.3698704
78	0xbf713d62	-0.9423429
79	0xbfd83ab2	-1.6892912
80	0xbe22345a	-0.15840283
81	0x3e2b079e	0.16702124
82	0xbfe092f2	-1.7544844
83	0x3d28772d	0.04112928
84	0xbf3a3450	-0.7273607
85	0xbf840f52	-1.0317175
86	0xbf207e05	-0.6269229
87	0xbf2e6323	-0.6812002
88	0xbdb41755	-0.08793513
89	0xbdfe9206	-0.124301955
90	0xbd0caaa0	-0.03434241
91	0x3e0b65e4	0.13613087
92	0x3e7e63d6	0.24842772
93	0x3ea7c29a	0.32765657
94	0x3eee2306	0.46511096
95	0x3ed2e8b4	0.41193163
96	0x3da641c7	0.08118015
97	0xbd9514fd	-0.07279394
98	0xbe343acc	-0.17600554
99	0xbe0e50ea	-0.13898054
100	0x3e0cbf18	0.13744771
101	0x3d36e4b9	0.04465172
102	0x3f046f62	0.51732457
103	0x3d803316	0.06259744
104	0x3dd4e8e8	0.10395986
105	0x3e4a7f84	0.19775206
106	0xbe33f3b9	-0.17573442
107	0xbf66acc1	-0.9010735
108	0x3f884ff2	1.0649397
109	0xbd5b9ecb	-0.053618234
110	0xbfbb5778	-1.4636068
111	0xbdc609b0	-0.096698165
112	0xbf254c17	-0.6456923
113	0xbf585d30	-0.8451719
114	0xbe8cb4fd	-0.27481833
115	0xbe8e73d0	-0.27822733
116	0x3da41509	0.08011825
117	0x3e8b2474	0.2717625
118	0x3e625025	0.22100885
119	0x3e882e69	0.26597908
120	0x3ee6b293	0.45058116
121	0x3eb9138b	0.36147723
122	0xbe3c5311	-0.18391062
123	0x3e1a4978	0.15067089
124	0x3f073756	0.5281881
125	0x3ee61f1c	0.4494561
126	0x3f086d32	0.5329162
127	0x3f2747e0	0.6534405
128	0xbf03507b	-0.5129468
129	0xbf384adc	-0.71989226
130	0x3ce74300	0.02823019
131	0x3e5cfb07	0.21580134
132	0x3dc6f857	0.09715336
133	0x3e8bf60b	0.27336153
134	0x3ec48d47	0.38389036
135	0xbf2a67ba	-0.66564524
136	0xbe387084	-0.18011671
137	0xbe560b1a	-0.20902672
138	0xbfc395e3	-1.5280117
139	0xbd04d3b4	-0.03242846
140	0xbf9a1b1c	-1.2039523
141	0xbfc325e2	-1.5245936
142	0xbf95330b	-1.1656202
143	0x3e444612	0.19167355
144	0xbdcaf8ed	-0.0991076
145	0xbe8436d1	-0.25823072
146	0x3e1913ce	0.14948961
147	0x3e41cc09	0.1892549
148	0x3e6ea9e4	0.23306996
149	0x3e9f0bad	0.31063595
150	0x3e7db61d	0.24776502
151	0xbc6f3720	-0.014600545
152	0xbca91a9e	-0.020642575
153	0xbe50dd61	-0.2039695
154	0x3dc0b021	0.09408594
155	0x3ecb3a6f	0.3969302
156	0x3e06bc14	0.13157684
157	0x3e1b07df	0.15139721
158	0x3dc87c2e	0.097893104
159	0x3e533e65	0.2062927
160	0xbdfdbf84	-0.12390044
161	0x3c5867f7	0.013208381
162	0xbeb2ecff	-0.3494644
163	0xbfa971d0	-1.3237858
164	0x3f28bc3b	0.65912217
165	0x3e08d5ac	0.1336276
166	0xbfa63b56	-1.2986858
167	0xbe5e09b3	-0.21683387
168	0xbf6d6b1e	-0.9274157
169	0x3c2d9209	0.0105938995
170	0xbdff5b1f	-0.12468552
171	0xbe229ec3	-0.15880875
172	0x3e1d0800	0.15335083
173	0xbc928e57	-0.017890139
174	0x3e5915ff	0.21199797
175	0x3df750dc	0.120759696
176	0x3e5a4fbc	0.21319479
177	0x3dbd4dfd	0.09243391
178	0x3e871048	0.2637961
179	0xbd66b943	-0.056329023
180	0xbe728a77	-0.23685633
181	0xbdbfc5d7	-0.09363907
182	0xbe70c3a6	-0.23512134
183	0xbe6e1dc6	-0.23253545
184	0xbe2aea8a	-0.16691032
185	0x3dc05b5e	0.09392427
186	0xbcfc2aa7	-0.030782057
187	0xbedf22ed	-0.43581334
188	0xbe8394f5	-0.25699583
189	0x3d0c68be	0.034279577
190	0xbf45e806	-0.77307165
191	0xbf8c37a4	-1.095448
192	0xbe1b7bc4	-0.15183932
193	0x3c826363	0.015916532
194	0xbfb00f80	-1.375473
195	0xbd507f28	-0.050902516
196	0xbf1f578b	-0.62242955
197	0xbbeacbf6	-0.0071654273
198	0xbe91cdf8	-0.28477454
199	0xbe7f99b0	-0.24960971
200	0xbe3d5ca0	-0.18492365
201	0x3e80b239	0.25135973
202	0x3e3b74bf	0.18306254
203	0x3d02b7f2	0.031913705
204	0x3eae767a	0.34074765
205	0x3b10b301	0.002207935
206	0xbe4d82a3	-0.20069365
207	0xbe240a6c	-0.160196
208	0xbe6ea9df	-0.23306988
209	0x3e41ad65	0.18913801
210	0x3e012632	0.12612227
211	0xbeadf31c	-0.3397454
212	0xbe1297f4	-0.14315778
213	0xbebf004d	-0.37304917
214	0xbeb7d526	-0.35904807
215	0xbefd62f8	-0.4948957
216	0xbf7d6c75	-0.9899362
217	0xbf57c30b	-0.84281987
218	0xbf42ff2b	-0.76170605
219	0xbf3cd559	-0.7376304
220	0xbf47641c	-0.7788713
221	0x3d2a1b5a	0.04152999
222	0xbf8d6b95	-1.1048456
223	0x3e3c02dd	0.18360467
224	0x3eb19d4e	0.34690326
225	0x3f13aaf5	0.57682735
226	0x3e09715c	0.1342215
227	0x3ddb51e9	0.107089825
228	0x3dc535f7	0.096294336
229	0x3b8c0964	0.0042735804
230	0xbeeb7971	-0.4599109
231	0xbe7d9145	-0.24762447
232	0xbcba1eac	-0.022719704
233	0x3e073d43	0.13206963
234	0x3e3439e8	0.17600214
235	0x3d6e5cda	0.05819402
236	0xbdef360b	-0.1168023
237	0xbdd0bfdf	-0.101928465
238	0x3e3b35d7	0.18282257
239	0x3d4ea323	0.050448548
240	0xbe31835c	-0.17335266
241	0xbee77d54	-0.45212805
242	0xbe2e8ab5	-0.170451
243	0xbe11fc17	-0.14256321
244	0x3ca1b03a	0.019737352
245	0x3bbc3463	0.0057435497
246	0xbe5b973b	-0.21444409
247	0x3ee7a512	0.45243126
248	0xbfa12f22	-1.2592509
249	0x3d9561dc	0.07294056
250	0xbf0739bd	-0.52822477
251	0x3dba7eef	0.09106242
252	0x3e161594	0.14656669
253	0xbe48bb65	-0.19602735
254	0xbd9e91f5	-0.07742683
255	0xbe233a18	-0.1594013

fc1.bias f4 [128]
0	0xba9f6deb	-0.0012163495
1	0xbdff4d35	-0.12465898
2	0xbdaf7838	-0.08567852
3	0x39486578	0.00019111286
4	0x3ba521b1	0.0050394167
5	0xb9bf2808	-0.00036460184
6	0x3d4abe6f	0.049498018
7	0x3c1a54c3	0.009419623
8	0xbe497129	-0.19672073
9	0xbd11995d	-0.03554665
10	0xbd6cfc65	-0.05785789
11	0x3e17d814	0.14828521
12	0x3cad6828	0.02116783
13	0x3e095f45	0.13415249
14	0xbd6970b3	-0.056992244
15	0xbe976b87	-0.29574224
16	0xbe2e554c	-0.17024726
17	0xbdcd60a3	-0.100281976
18	0xbe0abb76	-0.13548073
19	0xbe412215	-0.18860658
20	0xbdad039f	-0.08447956
21	0xbce751b8	-0.028237209
22	0x3f07dc88	0.5307088
23	0xb9e77942	-0.00044150098
24	0xbd9252be	-0.07144688
25	0xbe55f709	-0.20895018
26	0xbdd46b73	-0.10372057
27	0xbd49b511	-0.049244944
28	0xbca72dc8	-0.020407572
29	0xbe42990e	-0.19003698
30	0xbdcdd3c9	-0.100501604
31	0x3df39238	0.118931234
32	0xbdf6b1e4	-0.12045649
33	0xbddacabb	-0.10683199
34	0x3e7f9425	0.24958856
35	0xbd6779fc	-0.056512818
36	0x3d9c25c8	0.07624394
37	0xbe0f4092	-0.13989475
38	0x3cf44dd9	0.029822277
39	0xbdd60ffd	-0.10452268
40	0xbe97e922	-0.29670054
41	0x3e2ce439	0.16883935
42	0xbdaacee1	-0.0834024
43	0x3c89b651	0.016810568
44	0x3d7683d3	0.06018431
45	0xbe7663ba	-0.2406148
46	0xbd2d0be0	-0.042247653
47	0x3f098d90	0.5373163
48	0x3d6c388b	0.05767111
49	0xbd158c14	-0.036510542
50	0x3dd5ea13	0.10445037
51	0xbd01a84a	-0.031654634
52	0xbe4fdcea	-0.20299116
53	0xbd4738f8	-0.048638314
54	0x3e34476a	0.17605367
55	0xbe85a638	-0.26103377
56	0xbdd71cbc	-0.105035275
57	0x3e12cdef	0.1433637
58	0xbe6396d7	-0.2222551
59	0x3f0afac0	0.54288864
60	0xb8b3cfe9	-8.5741114e-05
61	0x3b735fdf	0.0037136
62	0x3c7c30b3	0.01539247
63	0xbe524361	-0.20533516
64	0xbd688379	-0.056766007
65	0x3e2f8123	0.17139105
66	0x3c909c9d	0.017652804
67	0x3d487a5f	0.048944827
68	0xbe08d2e2	-0.13361695
69	0x3d753562	0.059865363
70	0xbe442f72	-0.19158724
71	0xbd813395	-0.063086666
72	0xbe88ae8c	-0.2669567
73	0xbc90305e	-0.017601188
74	0x3ddb19b3	0.10698261
75	0xbe2d5d81	-0.169302
76	0xbbe2e623	-0.006924407
77	0xbe35d0d2	-0.1775544
78	0xbed6e479	-0.41971186
79	0xbd04bbee	-0.032405786
80	0xbd72490c	-0.059151694
81	0xbe3111ee	-0.17291996
82	0xbd8b5544	-0.068033725
83	0xbe24c246	-0.16089734
84	0x3e12b8cd	0.14328308
85	0x3c1b7ab1	0.009489701
86	0xbd83034b	-0.063971125
87	0xbdaf1d31	-0.0855049
88	0x3db1f58f	0.08689415
89	0xbcb73b5d	-0.022367174
90	0xbe82b152	-0.2552591
91	0xbdbf2e63	-0.093350194
92	0xbe257c0b	-0.161606
93	0x3e75455a	0.23952237
94	0xbd75123c	-0.059831843
95	0xbdcf694e	-0.10127507
96	0xbe01acf8	-0.12663639
97	0xbe396e06	-0.18108377
98	0x3f4a803a	0.7910191
99	0x3d993b4b	0.07482012
100	0x3eb5701f	0.35437104
101	0xbd576f56	-0.052596413
102	0x3dbeb1b0	0.09311235
103	0xbe5012ba	-0.20319644
104	0xbc70a5d3	-0.014687973
105	0xbdd1417c	-0.10217568
106	0xbccb3a5b	-0.0248081
107	0x3df4bec6	0.1195045
108	0x3cc36d1e	0.023855742
109	0xbdc30c94	-0.095238835
110	0xbaafa303	-0.0013400022
111	0x3ea87e1c	0.32908714
112	0xbe104617	-0.14089237
113	0x3d81aada	0.063314155
114	0xb992bce6	-0.0002798803
115	0x3c471630	0.012151286
116	0xbe291a22	-0.16513875
117	0xbdc2a840	-0.095047474
118	0x3d76d1a3	0.06025852
119	0x3d36ea2f	0.04465693
120	0xbe8393b6	-0.25698632
121	0xbc03d0b4	-0.008045364
122	0xbd997d28	-0.07494575
123	0xbe0c43d1	-0.13697745
124	0x3d10fc86	0.035397075
125	0xbd08c8b6	-0.033394538
126	0xbe1e4c8f	-0.15458892
127	0xbe482fe7	-0.19549523

fc2.weight f4 [128, 128]
0	0xbe9fdc22	-0.31222636
1	0xbeab5fb7	-0.33471462
2	0x3e8fe06b	0.28100905
3	0x3cc75abe	0.024335261
4	0x3ebed6de	0.37273306
5	0xbe4e8d31	-0.20171048
6	0xbf322113	-0.6958172
7	0x3ece0d65	0.40244594
8	0xbe1ef6b8	-0.15523803
9	0xbec7de1b	-0.3903664
10	0xbde02b69	-0.1094578
11	0xbf885f01	-1.0653993
12	0x3e11e663	0.14248042
13	0x3f324e1d	0.6965044
14	0xbe949aae	-0.2902426
15	0xbe8fc9d5	-0.28083673
16	0xbe8ee2d8	-0.27907443
17	0x3d83515d	0.06412003
18	0xbe318d3a	-0.1733903
19	0xbc0ff177	-0.008785597
20	0xbf156876	-0.5836252
21	0xbdb1caba	-0.08681245
22	0x3e63596d	0.22202082
23	0x3e0f2cfc	0.13982004
24	0x3daeda38	0.08537716
25	0xbf0742de	-0.52836406
26	0x3d1fb35e	0.038989417
27	0xbf229dcd	-0.63522035
28	0xbeba8e2d	-0.36436597
29	0xbf1c10ab	-0.60962933
30	0x3db685c6	0.08912234
31	0x3ed4b490	0.41544008
32	0x3dbe0961	0.09279133
33	0x3f0b1ce3	0.5434095
34	0x3dfe87ad	0.12428222
35	0x3ef0a4b1	0.4700065
36	0x3ecb1177	0.39661762
37	0xbec4e29a	-0.38454133
38	0x3ed7e8bf	0.4216976
39	0x3e1f73ab	0.15571468
40	0xbf32362a	-0.696139
41	0x3e3bd3e4	0.18342549
42	0x3d86f961	0.06590534
43	0x3e981a0b	0.2970737
44	0x3d0d32cf	0.034472283
45	0xbf5e7ced	-0.8690937
46	0xbe4e09b3	-0.20120887
47	0xbe2fb1d4	-0.1715768
48	0x3e821544	0.2540685
49	0x3d4c8436	0.049930774
50	0x3e474d61	0.19463111
51	0x3f03f487	0.51544994
52	0x3e97ae5b	0.2962521
53	0x3ea0c0bc	0.31397045
54	0xbf2d26d7	-0.6763739
55	0xbeb7dfaf	-0.35912845
56	0xbea147c2	-0.3150006
57	0x3d38051e	0.044926755
58	0x3e80c119	0.25147322
59	0xbf1144f7	-0.56745857
60	0x3e3d3e07	0.18480693
61	0xbece69cd	-0.40315095
62	0x3d1c0596	0.038091265
63	0xbf8aad09	-1.0834056
64	0x3dfdd96b	0.12394985
65	0x3f1d87b5	0.615352
66	0x3f7c5918	0.98573446
67	0x3f086ca4	0.5329077
68	0xbd5c964a	-0.053854264
69	0xbd1d3b4a	-0.03838662
70	0xbea2a529	-0.31766632
71	0xbe3fdff9	-0.18737783
72	0xbf4bd74e	-0.79625404
73	0x3eb064b8	0.34451842
74	0xbef51b6d	-0.47872487
75	0xbf624f19	-0.88401943
76	0xbee08de0	-0.43858242
77	0x3e0e1036	0.13873371
78	0xbeb90127	-0.36133692
79	0x3e589b55	0.21153004
80	0xbecc56f0	-0.39910078
81	0xbf5cc79a	-0.8624207
82	0xbb840b06	-0.0040296344
83	0xbee560f3	-0.4480053
84	0x3ea01fc2	0.3127423
85	0xbe5b0aad	-0.21390791
86	0xbe74494c	-0.23856086
87	0xbe1af9c4	-0.1513434
88	0xbef56933	-0.47931823
89	0x3d739cad	0.05947559
90	0xbf26b2f1	-0.6511679
91	0x3e0bf807	0.13668834
92	0xbec98a51	-0.3936334
93	0x3d378eb3	0.044813823
94	0x3e19d9b4	0.15024453
95	0xbedadff1	-0.4274898
96	0x3ebb0336	0.36525887
97	0xbeab3bac	-0.33443964
98	0xbf0a3995	-0.53994113
99	0xbeb555f7	-0.35417148
100	0xbec9384f	-0.39300773
101	0xbed7efc0	-0.42175102
102	0xbe6bbac1	-0.2302046
103	0x3e248ca9	0.16069283
104	0xbb492bd3	-0.0030696287
105	0x3e99d64a	0.30046302
106	0xbeb34e09	-0.35020474
107	0x3e6ce6fa	0.23134986
108	0x3e05176a	0.12997213
109	0xbf1c2f31	-0.6100951
110	0x3dcb668e	0.0993167
111	0x3dd136da	0.1021554
112	0x3e0613c7	0.13093482
113	0xbe3a654c	-0.18202704
114	0xbee1a64f	-0.44072196
115	0xbc0d7ce2	-0.008635731
116	0x3e0150ef	0.1262853
117	0x3f14a707	0.58067364
118	0x3e1a4bb2	0.15067938
119	0x3fabe2e5	1.3428618
120	0xbf91c71b	-1.1388887
121	0xbed6b7ab	-0.41937003
122	0x3fbeb1ab	1.489797
123	0x3e6b24df	0.22963284
124	0xbeafcb4a	-0.34334785
125	0x3ed6ac27	0.41928217
126	0xbf16eec3	-0.5895807
127	0xbe3a38c1	-0.18185712
128	0xbe16061c	-0.14650768
129	0xbda3b036	-0.07992594
130	0x3dbfb0cb	0.093598925
131	0x3e626e60	0.22112417
132	0xbe6ca130	-0.23108363
133	0x3eddf3de	0.43350118
134	0x3f5bd38a	0.8586966
135	0x3ec60903	0.3867875
136	0x3d5f1d89	0.054471526
137	0x3ef85b96	0.48507375
138	0x3d7c808d	0.061646033
139	0x3e34ff9a	0.1767563
140	0x3d7753a3	0.060382497
141	0xbe800d0a	-0.25009948
142	0xbc777337	-0.015103153
143	0xbf4a3ca7	-0.789988
144	0x3d691a83	0.05691005
145	0x3d2aa167	0.04165783
146	0x3eeb617c	0.45972812
147	0x3d4d85d2	0.05017645
148	0xbd7fa763	-0.06241549
149	0xbef9b38d	-0.487698
150	0xbe0e23ab	-0.13880794
151	0xbe85e23c	-0.26149166
152	0xbd442b76	-0.04789301
153	0x3c9e6304	0.019334324
154	0x3c6f9218	0.014622234
155	0x3e90fd86	0.28318423
156	0x3f97ffcc	1.1874938
157	0x3f758c9d	0.95917684
158	0xbede29d5	-0.4339129
159	0xbecbe3cb	-0.3982223
160	0x3f2b7cfb	0.6698758
161	0x3ec43191	0.38319066
162	0x3e810bb4	0.2520424
163	0xbe089478	-0.13337886
164	0x3e7419d4	0.23837978
165	0x3ea68ab1	0.32527688
166	0xbf22b574	-0.63558125
167	0xbfb1684e	-1.3859956
168	0x3e8d71cf	0.27625892
169	0x3eac3105	0.3363115
170	0x3e3d9db4	0.1851719
171	0xbde144ff	-0.10999488
172	0x3e357dfa	0.17723837
173	0x3eaef19e	0.34168714
174	0x3ed6c7ec	0.41949403
175	0x3ec3519c	0.381482
176	0x3db79f98	0.08965987
177	0x3ebe5a4f	0.37178275
178	0xbdd3d510	-0.10343373
179	0xbb86d59f	-0.004114821
180	0xbe259c2a	-0.16172853
181	0xbd8cf0b7	-0.0688185
182	0x3dae6297	0.08514898
183	0xbf454c69	-0.7706972
184	0xbe254397	-0.16139065
185	0x3e905532	0.2819
186	0xbec02fe0	-0.37536526
187	0xbecd936d	-0.4015154
188	0x3ede6309	0.43434933
189	0xbef9a529	-0.4875882
190	0x3e4ab5d2	0.19795921
191	0x3dcae091	0.09906114
192	0x3e51f802	0.20504764
193	0xbe5d1b0f	-0.21592353
194	0xbf1bb1f4	-0.6081841
195	0xbe72cad1	-0.23710181
196	0x3da7004b	0.08154353
197	0x3e0353e9	0.12824978
198	0x3ec57f1f	0.38573548
199	0xbedbc96d	-0.42927113
200	0x3f45f559	0.77327496
201	0xbdefed9a	-0.11715241
202	0xbea45092	-0.3209272
203	0x3f884a1e	1.0647619
204	0x3ee30524	0.4433986
205	0xbe904be4	-0.281829
206	0x3d6a50ba	0.057205893
207	0x3e14d976	0.1453608
208	0x3eece17c	0.4626578
209	0x3f4ba4ba	0.7954823
210	0x3f3164fa	0.69294703
211	0x3d222552	0.039586373
212	0xbebc7c7b	-0.3681372
213	0xbe475f95	-0.19470055
214	0x3e08704c	0.13324088
215	0xbf03c518	-0.51472616
216	0xbf2d25d9	-0.67635876
217	0x3f15587a	0.5833813
218	0x3e03f329	0.12885727
219	0x3eb0869d	0.34477702
220	0x3d0ea2a0	0.03482306
221	0xbea01146	-0.3126318
222	0xbe532be4	-0.20622212
223	0x3e772019	0.24133338
224	0xbee2dc56	-0.44308728
225	0xbdb49905	-0.08818249
226	0x3def0ae8	0.11672002
227	0xbe8939d3	-0.2680193
228	0x3eedad6d	0.46421376
229	0x3eed114e	0.46302265
230	0x3e1f45c4	0.15553957
231	0xbf156478	-0.5835643
232	0x3ed418a3	0.41425046
233	0xbdae948f	-0.08524429
234	0x3f94c496	1.1622493
235	0x3e87001a	0.26367265
236	0xbc3775a5	-0.011197482
237	0x3ea296a3	0.31755552
238	0x3e426f7e	0.18987843
239	0xbdef9b9e	-0.116996035
240	0x3f526b4d	0.8219498
241	0xbe797b58	-0.24363458
242	0xbd87c2f1	-0.06628979
243	0x3db7f115	0.089815296
244	0xbea038ec	-0.31293428
245	0x3d54dd50	0.051968873
246	0x3e74d8b8	0.23910797
247	0xbf6014c8	-0.8753171
248	0x3ef17f75	0.47167554
249	0x3ea980bb	0.33106026
250	0xbf12692b	-0.57191724
251	0xbec6d597	-0.3883483
252	0x3ea42c07	0.3206484
253	0x3e260d5a	0.1621603
254	0x3f46313d	0.7741888
255	0xbdaea418	-0.08527392

fc2.bias f4 [128]
0	0xbe894d00	-0.2681656
1	0x3d89891f	0.06715607
2	0xbe4899f1	-0.19589974
3	0xbe78ea6f	-0.2430818
4	0xbc92851e	-0.01788574
5	0xbd495b34	-0.049159244
6	0x3e16c4d4	0.14723521
7	0xbe910d1e	-0.2833032
8	0xbe915bd6	-0.28390378
9	0xbd906252	-0.07050003
10	0xbe6d2651	-0.23159148
11	0x3dd0baa5	0.101918496
12	0xbe83f528	-0.25772977
13	0xbe1f7886	-0.1557332
14	0x3e025b0e	0.12730047
15	0x3dd0c8e0	0.10194564
16	0x3eb1ad1b	0.34702381
17	0xbe79e9d3	-0.24405603
18	0xbd145bbd	-0.0362203
19	0xbce49be9	-0.027906375
20	0x3b3150cb	0.0027056213
21	0xbd438996	-0.047738634
22	0xbdf565b6	-0.119822904
23	0x3e09b897	0.13449322
24	0xbecb1e4a	-0.39671546
25	0xbca277fb	-0.019832602
26	0x3dd8fc50	0.10595
27	0x3bd8d35b	0.0066169924
28	0x3e887d81	0.26658252
29	0x3e152cb8	0.1456784
30	0xbe279489	-0.16365255
31	0xbe6909bf	-0.22757624
32	0xbdb1c889	-0.08680827
33	0xbda68659	-0.081310935
34	0x3d45af85	0.04826309
35	0xbd869bdc	-0.065726966
36	0xbe5121d8	-0.20423067
37	0x3ec57f93	0.38573894
38	0xbe51635c	-0.20448059
39	0xbef4a0c7	-0.47778913
40	0x3e1709e4	0.14749867
41	0x3e1ba456	0.15199408
42	0xbe3e521b	-0.18586008
43	0xbee40da3	-0.44541654
44	0xbee94b46	-0.45565242
45	0x3ed2b915	0.4115683
46	0xbd7843be	-0.06061148
47	0x3e2bc22d	0.16773291
48	0xbe810ae4	-0.2520362
49	0xbd09edfc	-0.033674225
50	0xbe5f4104	-0.21802145
51	0xbcd26878	-0.02568458
52	0xbe6bcfff	-0.23028563
53	0xbe10dee1	-0.14147522
54	0x3d674ca5	0.05646958
55	0xbea78c2b	-0.32724127
56	0x3b4729e0	0.003038995
57	0x3be8ba63	0.007102297
58	0xbe7cd2f3	-0.24689846
59	0xbec6a3ce	-0.38796848
60	0xbc4394dd	-0.011937347
61	0xbe0934a6	-0.1339899
62	0xbe22d6c5	-0.1590224
63	0x3e4f601f	0.20251511
64	0xbea4566a	-0.3209718
65	0x3e1d47b6	0.15359387
66	0x3ebb6c0f	0.3660588
67	0xbb1ed9cd	-0.0024238706
68	0x3cb55d7e	0.022139307
69	0xbe8ccd50	-0.2750039
70	0x3dd4c12d	0.10388408
71	0x3dda69a4	0.106646806
72	0x3ed06a13	0.40705928
73	0x3cd125aa	0.025530655
74	0xbc77b6e1	-0.015119285
75	0x3ebb45ba	0.36576635
76	0xbd3dd245	-0.046343107
77	0xbdd4fed9	-0.10400171
78	0xbe0718a5	-0.13192995
79	0xbe56146f	-0.20906232
80	0x3d9a99cf	0.07548868
81	0x3ec35315	0.38149324
82	0xbd05a6fe	-0.03262996
83	0xbe423b56	-0.18967947
84	0xbd132c88	-0.03593114
85	0xbf0ab41d	-0.5418108
86	0xbead65d7	-0.3386676
87	0x3c24cb95	0.010058303
88	0xbe74ca72	-0.23905352
89	0xbe688c01	-0.22709657
90	0x3e8ab4c2	0.27091032
91	0x3d35d482	0.044392116
92	0xbe3c1e4f	-0.18370937
93	0xbc0d5c20	-0.008627921
94	0xbe0fd998	-0.14047849
95	0xbcad19e1	-0.021130504
96	0xbeab5bd3	-0.33468494
97	0xbe31b53e	-0.17354295
98	0x3dbad560	0.09122729
99	0xbe75c533	-0.24001007
100	0xbeb222f4	-0.34792292
101	0x3dd51576	0.10404484
102	0x3e022e17	0.12712894
103	0xbe103f46	-0.14086637
104	0x3c8e9712	0.01740602
105	0xbeb511ba	-0.35365087
106	0xbda61d1b	-0.0811102
107	0xbe609ffb	-0.21936028
108	0xbdd6da6a	-0.10490878
109	0x3b896742	0.0041932175
110	0x3d9ab651	0.07554305
111	0x3d741539	0.059590552
112	0xbde19c5c	-0.11016151
113	0xbe15b8bc	-0.14621252
114	0xbd2209d5	-0.039560158
115	0x3d2b3831	0.041801635
116	0xbe269d34	-0.16270906
117	0x3daff184	0.08590987
118	0x3de33d4a	0.11095674
119	0xbd7f34f2	-0.062306352
120	0x3da80e54	0.08205858
121	0x3e34d8fc	0.17660898
122	0x3e8533e5	0.26016155
123	0xbe78fc35	-0.2431496
124	0x3d0cd806	0.034385704
125	0xbdf28f79	-0.118437715
126	0x3cacee86	0.02110983
127	0xbd9cd26f	-0.076573245

out.weight f4 [5, 128]
0	0x3f66301c	0.8991716
1	0xbe091013	-0.13385038
2	0xbe95e556	-0.29276532
3	0x3eae04fc	0.33988178
4	0xbf48aa02	-0.7838441
5	0xbed7b870	-0.42132902
6	0xbde59134	-0.11209336
7	0x3f12c3f9	0.5733028
8	0x3efeb153	0.49744663
9	0x3f17be68	0.5927491
10	0x3f5850cb	0.8449828
11	0xbe9d5ec1	-0.30736354
12	0x3eb7eac2	0.35921293
13	0x3db33c10	0.087516904
14	0xbec07819	-0.37591627
15	0xbf052999	-0.520166
16	0xbec5c8ab	-0.3862966
17	0x3f2f4337	0.68461937
18	0x3f0a7366	0.54082334
19	0x3f22a840	0.6353798
20	0xbcc880dd	-0.02447551
21	0x3e10b981	0.14133264
22	0xbeebe791	-0.4607511
23	0x3ef647db	0.48101696
24	0x3f3a3186	0.72731817
25	0x3ed03b51	0.40670255
26	0xbee980a0	-0.45605946
27	0xbe83641c	-0.25662315
28	0x3f39acb4	0.7252915
29	0x3e15efe3	0.14642291
30	0x3e92eb27	0.28695032
31	0x3ee0bed6	0.43895596
32	0x3f10ed4e	0.566121
33	0x3ee715ee	0.4513392
34	0x3e877fcd	0.26464692
35	0x3eb2c98c	0.34919393
36	0x3f1c2918	0.61000204
37	0xbeb133ba	-0.34609777
38	0x3e089f14	0.13341933
39	0x3f00ab02	0.5026094
40	0x3c98dfca	0.018661398
41	0xbe462401	-0.19349672
42	0x3e0b05a4	0.1357637
43	0x3efd72c6	0.49501628
44	0x3eff7ee1	0.49901488
45	0xbda7dae9	-0.08196051
46	0xbe001fec	-0.12512177
47	0x3e9dc8a1	0.3081713
48	0x3e8b6bfc	0.27230823
49	0x3f22681a	0.63440096
50	0x3eee420b	0.46534762
51	0xbecb5269	-0.3971131
52	0xbf0b1b4e	-0.5433854
53	0x3f2c1ed4	0.6723454
54	0xbd870f5d	-0.06594727
55	0x3eec1c7b	0.4611548
56	0x3f3bf37d	0.7341841
57	0xbea5e069	-0.32397774
58	0x3f27b59f	0.65511507
59	0x3f14beb2	0.5810348
60	0xbef8de25	-0.48606983
61	0x3f2f5bc5	0.68499404
62	0x3f1fe390	0.6245661
63	0xbdc07d4b	-0.09398898
64	0x3f13f8cf	0.57801527
65	0xbe1f3990	-0.15549302
66	0xbea7bd67	-0.3276169
67	0xbeffa30d	-0.49929085
68	0x3f19169b	0.5980012
69	0x3ec64c05	0.38729873
70	0x3eea49a1	0.457593
71	0x3f034d33	0.5128967
72	0x3f3ca4c4	0.7368891
73	0x3f2776c2	0.65415585
74	0x3f12882f	0.5723905
75	0xbd0f4860	-0.03498113
76	0xbd88609f	-0.06659054
77	0x3f452f66	0.7702545
78	0x3f0b1490	0.5432825
79	0x3f36af57	0.713613
80	0xbe575252	-0.21027496
81	0x3f313111	0.69215494
82	0x3f4813fc	0.78155494
83	0x3f318cee	0.69355667
84	0x3eb67a99	0.3564041
85	0x3f60daba	0.8783375
86	0x3f1b0f85	0.60570556
87	0x3ecbc3a5	0.39797702
88	0x3f02620a	0.50930846
89	0x3ed24240	0.4106617
90	0xbdbec3ca	-0.093146876
91	0x3f3bae29	0.7331262
92	0x3f57c260	0.8428097
93	0xbf0a8b76	-0.5411905
94	0x3d83988a	0.06425579
95	0xbe46c76e	-0.19412014
96	0x3d7196b0	0.058981597
97	0x3ed22f80	0.41051865
98	0xbe4dbdd4	-0.20091945
99	0x3f1628b1	0.5865584
100	0x3f8d0cb1	1.1019498
101	0x3f215366	0.6301788
102	0xbe350d60	-0.17680883
103	0xbedbea54	-0.42952216
104	0xbed63430	-0.4183669
105	0xbf1209de	-0.57046306
106	0xbd9d6c56	-0.07686679
107	0x3ed2f2d5	0.4120089
108	0xbebb22ec	-0.3655008
109	0xbe4beaa7	-0.19913732
110	0xbe818c51	-0.25302365
111	0x3f02e52b	0.5113093
112	0x3f4e3a67	0.80557865
113	0xbf177060	-0.59155846
114	0xbdbf409c	-0.09338495
115	0xbeb2f8d1	-0.34955457
116	0x3f23df4c	0.640126
117	0xbf09c797	-0.53820175
118	0xba7cbebb	-0.0009641458
119	0xbf1c4fee	-0.61059463
120	0xbe4738ae	-0.19455215
121	0x3cb4dea9	0.022078829
122	0xbdac953b	-0.08426901
123	0x3ed5c17e	0.41749185
124	0x3f4672cc	0.77518916
125	0x3f086da8	0.5329232
126	0x3f0914c5	0.53547317
127	0x3f694f23	0.9113638
128	0x3ee051f3	0.43812522
129	0xbf5d7b7a	-0.86516535
130	0xbf01b8d7	-0.5067267
131	0x3e191dfc	0.14952844
132	0xbf80abd8	-1.0052443
133	0xbec71c7f	-0.38888928
134	0xbeed57ad	-0.46355954
135	0x3f034c4a	0.5128828
136	0x3f34a7b0	0.7056837
137	0x3f12e0ae	0.57374084
138	0x3ee4e0f2	0.4470287
139	0xbed6f9bb	-0.41987404
140	0x3ee91b79	0.45528772
141	0xbe378fb0	-0.17925906
142	0xbf148cda	-0.5802742
143	0xbf164084	-0.58692193
144	0xbef4d0d3	-0.4781557
145	0x3f49a18d	0.7876213
146	0x3f2c62de	0.6733836
147	0x3e69a240	0.228158
148	0xbe7ea6f2	-0.24868372
149	0x3ec71db1	0.3888984
150	0xbf07b0f8	-0.5300441
151	0x3e8cf484	0.275303
152	0x3f1a61be	0.6030539
153	0x3f2c4458	0.67291784
154	0xbf46f88a	-0.7772299
155	0xbe9046b4	-0.28178942
156	0x3f7dd785	0.9915698
157	0x3ea5aebd	0.32359877
158	0x3f03dc2a	0.5150782
159	0x3f3aa558	0.72908545
160	0x3f2a34af	0.6648664
161	0x3ee254f8	0.4420545
162	0x3ea569a0	0.32307148
163	0x3ea34823	0.31890973
164	0x3f068002	0.52539074
165	0xbeb3a55f	-0.35087106
166	0xbe6de38c	-0.23231333
167	0x3fbc9167	1.4731873
168	0xbe39086e	-0.18069622
169	0xbee1c5ee	-0.4409632
170	0x3ee21ed2	0.4416414
171	0x3eb3902d	0.35070935
172	0x3f301eb9	0.6879688
173	0x3e94f18f	0.29090545
174	0xbf11949d	-0.5686739
175	0xbeb0d220	-0.34535313
176	0x3ece7534	0.40323794
177	0x3f39d439	0.7258945
178	0x3f48c311	0.7842265
179	0xbeb98f9b	-0.36242375
180	0xbf331f58	-0.699697
181	0x3f1954bf	0.5989494
182	0xbf1601f3	-0.58596724
183	0x3f1c56c4	0.61069894
184	0x3f03f7b7	0.5154986
185	0xbf363728	-0.7117791
186	0x3f303867	0.68836063
187	0x3f2684d7	0.6504645
188	0xbf087cd7	-0.5331549
189	0x3ef6d80d	0.4821171
190	0x3f1254b5	0.571605
191	0xbd3166dc	-0.043310985
192	0x3f03d53c	0.51497245
193	0xbe71fc01	-0.23631288
194	0xbee9eefe	-0.4569015
195	0xbf16b52a	-0.58870184
196	0x3f0b3ad7	0.5438666
197	0x3ea04966	0.31306
198	0x3f120680	0.5704117
199	0x3f49f8b1	0.788951
200	0x3f492046	0.7856487
201	0x3f52f68b	0.82407445
202	0x3ec6538c	0.38735616
203	0xbd4e0776	-0.050300084
204	0xbf150211	-0.5820628
205	0x3ed57963	0.41694173
206	0x3e28badf	0.16477536
207	0x3ee3d0a5	0.4449512
208	0xbf420ec9	-0.7580381
209	0x3f25c7c6	0.64757955
210	0x3f26ea6e	0.6520146
211	0x3f3917ce	0.7230195
212	0x3e950bca	0.29110557
213	0x3e94f190	0.29090548
214	0x3f1c1657	0.6097159
215	0x3ef80be4	0.48446572
216	0x3e863401	0.2621155
217	0xba4848b2	-0.0007640227
218	0xbe8fe6b5	-0.28105703
219	0x3f0b3d5e	0.54390514
220	0x3e98121f	0.29701325
221	0xbf65d453	-0.89777106
222	0x3f2d8dfe	0.6779479
223	0xbf250b26	-0.64470136
224	0xbed7b99b	-0.42133793
225	0x3f322bb7	0.69597954
226	0xbf428323	-0.7598135
227	0x3f3a5be8	0.7279649
228	0x3e1ac0fa	0.15112677
229	0x3edc3eed	0.4301676
230	0xbf00862f	-0.5020475
231	0xbf0fc489	-0.56159264
232	0xbf8013ce	-1.0006044
233	0xbf2aef47	-0.6677136
234	0xbf211354	-0.6292012
235	0x3f20a746	0.6275524
236	0xbee3c541	-0.4448643
237	0xbf5cf6aa	-0.8631388
238	0xbe827de3	-0.2548667
239	0x3efdf42b	0.49600348
240	0x3f187c6b	0.59564847
241	0xbe9f8667	-0.31157228
242	0xbf3d27f0	-0.73889065
243	0xbf27d620	-0.65561104
244	0x3ee0b5e6	0.43888777
245	0xbf1bf5a8	-0.60921717
246	0xbee16f3a	-0.44030172
247	0xbe854fd7	-0.26037475
248	0x3e6d7450	0.23188901
249	0xbef6b1c6	-0.48182505
250	0xbf103a10	-0.56338596
251	0x3e9ac8d9	0.3023136
252	0x3f49a51f	0.7876758
253	0x3d910591	0.0708114
254	0x3e651455	0.22371037
255	0x3ea555f8	0.3229215

out.bias f4 [5]
0	0xc0351ede	-2.830009
1	0x3f9b718c	1.2144027
2	0x401582fa	2.3361192
3	0x3eb8db19	0.36104658
4	0xbfb6a91b	-1.4270357

exp_avg_sq f4 [128, 28]
0	0x3b70f1cc	0.0036765216
1	0x3ad7dcd9	0.0016469016
2	0x3a1d23e8	0.0005994425
3	0x39aa126c	0.00032438652
4	0x39800bb3	0.0002442278
5	0x39632a24	0.00021664106
6	0x396d4fa0	0.00022631744
7	0x39909df7	0.00027583513
8	0x39e0f974	0.00042910466
9	0x3a66c933	0.0008803785
10	0x3b18ddc2	0.0023325537
11	0x3ba1bb42	0.004935653
12	0x3a00a854	0.00049078953
13	0x3a1ee3b8	0.00060611544
14	0x3a7d8d21	0.0009672214
15	0x3b0de097	0.0021648759
16	0x3bbc0a23	0.005738513
17	0x3909bd59	0.00013135876
18	0x38001778	3.0539435e-05
19	0x37e242d3	2.6972417e-05
20	0x381c7978	3.7306425e-05
21	0x38cd3796	9.7855154e-05
22	0x3a6491e4	0.0008719249
23	0x3b75869e	0.0037464271
24	0x37723f87	1.4439115e-05
25	0x3b596699	0.0033172725
26	0x37b3829d	2.1399284e-05
27	0x3e26a932	0.1627548
28	0x4544adaa	3146.854
29	0x449ba488	1245.1416
30	0x442f683a	701.62854
31	0x43b6b70d	365.43008
32	0x434758d6	199.34702
33	0x4362ad01	226.6758
34	0x43f81361	496.1514
35	0x43a6459a	332.54376
36	0x43d92313	434.27402
37	0x449d3fbf	1257.9921
38	0x44bbaea1	1501.4572
39	0x44c272f9	1555.5929
40	0x44ca9854	1620.7603
41	0x445407ef	848.12396
42	0x43d92cb4	434.34924
43	0x438f4d70	286.60498
44	0x436d20cc	237.12811
45	0x436c9363	236.57573
46	0x438cd422	281.6573
47	0x43dff52c	447.9154
48	0x4446e7b6	795.6205
49	0x44c3baf9	1565.8429
50	0x44ef0f2d	1912.4742
51	0x4544be42	3147.891
52	0x42e95ded	116.68345
53	0x46645e41	14615.563
54	0x4213688f	36.852108
55	0x475d6a7c	56682.484
56	0x38eb0e1c	0.00011208301
57	0x39842529	0.00025204688
58	0x3a9b9845	0.0011870941
59	0x3caaef77	0.020866139
60	0x3cbd892f	0.023136703
61	0x3bb69c66	0.0055728434
62	0x3b427f19	0.0029677807
63	0x3b0edfd0	0.0021800883
64	0x3af0d22e	0.0018373185
65	0x3aebc8e7	0.0017988951
66	0x3b0c1a12	0.0021377844
67	0x3b3bb1dd	0.002863995
68	0x3c3226c7	0.010873503
69	0x3c0908f5	0.008363952
70	0x3bf55a80	0.007487595
71	0x3ac1f9c3	0.0014799166
72	0x398ea0be	0.00027204113
73	0x38d9d06c	0.00010386188
74	0x3890fc93	6.913501e-05
75	0x386926a1	5.5587505e-05
76	0x386edb02	5.694759e-05
77	0x38940158	7.05744e-05
78	0x38a1829e	7.7014076e-05
79	0x38e8eeb0	0.00011107081
80	0x3c97f521	0.018549504
81	0x3d021035	0.031753737
82	0x3860ec39	5.362576e-05
83	0x3f5c4106	0.8603672
84	0x43d2be98	421.489
85	0x4330a212	176.63309
86	0x42ea13a2	117.038345
87	0x42d615ef	107.04284
88	0x442bf46b	687.81903
89	0x45320f5f	2848.9607
90	0x44f79c01	1980.8751
91	0x450cd48a	2253.2837
92	0x45b9ca3c	5945.2793
93	0x45e95f89	7467.942
94	0x462cab0e	11050.764
95	0x46145780	9493.875
96	0x4578e5b1	3982.3557
97	0x450f3759	2291.4592
98	0x44d013bc	1664.6167
99	0x4546d4e8	3181.3066
100	0x462d0d3e	11075.311
101	0x45eb19c5	7523.221
102	0x45624a24	3620.6338
103	0x4582646a	4172.552
104	0x460f8f47	9187.819
105	0x46c2f238	24953.11
106	0x45ca2041	6468.0317
107	0x43d61084	428.12903
108	0x45146728	2374.4473
109	0x47859ed1	68413.63
110	0x42a4622c	82.19174
111	0x47307aa2	45178.633
112	0x4281f5fd	64.980446
113	0x4238e7eb	46.226482
114	0x429adce4	77.43143
115	0x434bbc7e	203.7363
116	0x44e8a2a6	1861.0828
117	0x448083b4	1028.1157
118	0x43c2bf9a	389.4969
119	0x43ef744b	478.90854
120	0x4436e98f	731.64935
121	0x43f104d5	482.03775
122	0x4406cabe	539.16785
123	0x44ad8a75	1388.3268
124	0x4423f7ad	655.86993
125	0x43f0515f	480.6357
126	0x43bb6181	374.76175
127	0x43be8919	381.07108
128	0x43c8cc2c	401.5951
129	0x43d7eba4	431.84094
130	0x43ac52a0	344.6455
131	0x43da1536	436.1657
132	0x43d39b06	423.21112
133	0x4408e2f2	547.546
134	0x43cbc949	407.57254
135	0x42843b73	66.11611
136	0x438e72f3	284.89804
137	0x459ea198	5076.199
138	0x416ef5d2	14.935015
139	0x478ab963	71026.77
140	0x4325bcc5	165.73738
141	0x42bbf8e2	93.9861
142	0x4298cad3	76.39614
143	0x43aa544f	340.65866
144	0x44866110	1075.0332
145	0x453030ce	2819.0503
146	0x4502e490	2094.2852
147	0x45ca13d8	6466.4805
148	0x45e575d4	7342.7285
149	0x45adb77d	5558.936
150	0x45d0a653	6676.7905
151	0x454b3924	3251.5713
152	0x44e01314	1792.5962
153	0x44a2f557	1303.6669
154	0x45096410	2198.254
155	0x457f2606	4082.3765
156	0x45bc9fdb	6035.982
157	0x4535bc0a	2907.7524
158	0x451fedfc	2558.874
159	0x456bce5f	3772.8982
160	0x45be512f	6090.148
161	0x4627fd0a	10751.26
162	0x446ce739	947.61285
163	0x4326757c	166.45892
164	0x4582eb46	4189.409
165	0x471dc66d	40390.426
166	0x42742522	61.036263
167	0x465aa404	13993.004
168	0x26ea4045	1.6254432e-15
169	0x2704b750	1.8418054e-15
170	0x274c5ea4	2.8361992e-15
171	0x2806416e	7.452682e-15
172	0x289da6d4	1.7502852e-14
173	0x281b27a1	8.612822e-15
174	0x29e5548a	1.0184308e-13
175	0x2a008bbd	1.1417165e-13
176	0x2989897a	6.1078706e-14
177	0x292012b3	3.5543356e-14
178	0x29007552	2.852347e-14
179	0x28f375ec	2.702956e-14
180	0x28d40427	2.3538529e-14
181	0x28e3c4ae	2.5287359e-14
182	0x291f3b7c	3.5356687e-14
183	0x298ebebc	6.339154e-14
184	0x2a525a43	1.8683063e-13
185	0x2ae53c8a	4.072058e-13
186	0x2809aa92	7.642014e-15
187	0x2699df5b	1.0677048e-15
188	0x2780d393	3.5756526e-15
189	0x2737be75	2.5499599e-15
190	0x270bab45	1.938297e-15
191	0x26fb49c0	1.7436614e-15
192	0x290dc9f9	3.1483473e-14
193	0x2ba740d7	1.188406e-12
194	0x26505584	7.228039e-16
195	0x2d5a1826	1.2397227e-11
196	0x43f95c0f	498.7192
197	0x4580384a	4103.036
198	0x45a7b4d3	5366.603
199	0x45aadc8c	5467.5684
200	0x4759d350	55763.312
201	0x46e04256	28705.168
202	0x46172f99	9675.899
203	0x45ae96e4	5586.8613
204	0x4597fd7f	4863.687
205	0x4591e105	4668.1274
206	0x45afac32	5621.5244
207	0x46faadb0	32086.844
208	0x46533c9d	13519.153
209	0x45f85c85	7947.565
210	0x45b82407	5892.5034
211	0x45a0b81c	5143.0137
212	0x459d59d7	5035.23
213	0x45bfdaea	6139.3643
214	0x4588fea8	4383.832
215	0x445eab38	890.6753
216	0x432bad92	171.67801
217	0x432fffae	175.99875
218	0x435d19f4	221.10138
219	0x43fd2d5c	506.35437
220	0x442c14b1	688.3233
221	0x47ace4e0	88521.75
222	0x4323b1cf	163.69456
223	0x4a0102c3	2.1137128e+06
224	0x45fd6967	8109.1753
225	0x45b03447	5638.5347
226	0x459c8989	5009.192
227	0x45537c16	3383.7554
228	0x453ccfce	3020.9878
229	0x450eb117	2283.068
230	0x44ed4046	1898.0085
231	0x45b5ef73	5821.931
232	0x45f44783	7816.939
233	0x45a2f9b1	5215.2114
234	0x45b64d24	5833.6426
235	0x45cd05d6	6560.7295
236	0x45ae716c	5582.1777
237	0x453ff174	3071.0908
238	0x4525035c	2640.21
239	0x4565febe	3679.9214
240	0x451c0a21	2496.633
241	0x45138cab	2360.7917
242	0x4531f799	2847.4749
243	0x4501f081	2079.0315
244	0x45256a75	2646.6536
245	0x45543786	3395.4702
246	0x45bb18ad	5987.0845
247	0x45fd8583	8112.689
248	0x45811e40	4131.7812
249	0x47585b2f	55387.184
250	0x43400e1d	192.05513
251	0x48ae7fec	357375.38
252	0x284c376a	1.1336291e-14
253	0x2838f303	1.0266747e-14
254	0x28454991	1.0951649e-14
255	0x284a97f4	1.1246202e-14

exp_avg f4 [128, 28]
0	0x00000004	6e-45
1	0x00000004	6e-45
2	0x00000004	6e-45
3	0x00000004	6e-45
4	0x00000004	6e-45
5	0x00000004	6e-45
6	0x00000004	6e-45
7	0x00000004	6e-45
8	0x00000004	6e-45
9	0x00000004	6e-45
10	0x00000004	6e-45
11	0x00000004	6e-45
12	0x00000004	6e-45
13	0x00000004	6e-45
14	0x00000004	6e-45
15	0x00000004	6e-45
16	0x00000004	6e-45
17	0x00000004	6e-45
18	0x00000004	6e-45
19	0x00000004	6e-45
20	0x00000004	6e-45
21	0x00000004	6e-45
22	0x00000004	6e-45
23	0x00000004	6e-45
24	0x00000004	6e-45
25	0x00000004	6e-45
26	0x00000004	6e-45
27	0x00000004	6e-45
28	0xc087fecf	-4.2498546
29	0xc00bb52e	-2.1829333
30	0xc02b4161	-2.6758654
31	0xc03cd342	-2.9503942
32	0xc0036ae7	-2.0533998
33	0xc027d170	-2.622158
34	0xc065831f	-3.586128
35	0xc00d539b	-2.2082279
36	0xbfcca953	-1.5989174
37	0xbfd719aa	-1.6804707
38	0xc00a01ee	-2.1563678
39	0xc043cc4a	-3.0593438
40	0xc088e581	-4.2780156
41	0xc0472f5a	-3.112265
42	0xbfa76118	-1.3076506
43	0xbf913b22	-1.1346171
44	0xbfa8913c	-1.3169322
45	0xbefcac56	-0.49350232
46	0xbf047cfd	-0.51753217
47	0xbf25537b	-0.64580506
48	0xbf572bf8	-0.84051466
49	0xbf92a55a	-1.1456711
50	0xbfb96e48	-1.448678
51	0xc0884203	-4.258058
52	0xbf0e528d	-0.5559471
53	0xc0e43a27	-7.1320987
54	0xbf4355ea	-0.7630297
55	0xc1b2d53f	-22.354124
56	0x00000004	6e-45
57	0x00000004	6e-45
58	0x00000004	6e-45
59	0x00000004	6e-45
60	0x00000004	6e-45
61	0x00000004	6e-45
62	0x00000004	6e-45
63	0x00000004	6e-45
64	0x00000004	6e-45
65	0x00000004	6e-45
66	0x00000004	6e-45
67	0x00000004	6e-45
68	0x00000004	6e-45
69	0x00000004	6e-45
70	0x00000004	6e-45
71	0x00000004	6e-45
72	0x00000004	6e-45
73	0x00000004	6e-45
74	0x00000004	6e-45
75	0x00000004	6e-45
76	0x00000004	6e-45
77	0x00000004	6e-45
78	0x00000004	6e-45
79	0x00000004	6e-45
80	0x00000004	6e-45
81	0x00000004	6e-45
82	0x00000004	6e-45
83	0x00000004	6e-45
84	0xc05775f3	-3.366574
85	0xbf902c3f	-1.1263503
86	0xbf444d67	-0.76680607
87	0xbea311b5	-0.31849447
88	0x3f98f850	1.1950779
89	0xbca4d024	-0.02011878
90	0xc00ab091	-2.1670268
91	0x3ef8fcfc	0.48630512
92	0xbf98a20a	-1.192445
93	0xc084a857	-4.1455493
94	0xc0f73454	-7.7251377
95	0xc0b41541	-5.6275945
96	0xc080b898	-4.0225334
97	0xc0276e0e	-2.6160922
98	0xc0054754	-2.0824785
99	0xbfe7a7c1	-1.809807
100	0xbfd2978f	-1.6452502
101	0xbfe284df	-1.7696799
102	0xbfedd5a1	-1.8580819
103	0xc0129319	-2.2902281
104	0xc02bb4b4	-2.6829042
105	0xc08c58f8	-4.3858604
106	0xc14598a7	-12.349769
107	0xc05d8353	-3.4611404
108	0xc01ac399	-2.4181883
109	0xc14f9368	-12.973488
110	0xbf217b1c	-0.63078475
111	0xc18347e0	-16.410095
112	0x3fc91002	1.570801
113	0x3fb1b314	1.3882775
114	0x3fd262c9	1.6436397
115	0x3fff267f	1.9933623
116	0x4095f1e1	4.685776
117	0x4118ce66	9.55039
118	0x40d08f84	6.517519
119	0x4079dd36	3.9041266
120	0x402a784b	2.663592
121	0x403a17e5	2.9077084
122	0x40235f7d	2.5527031
123	0x410b72f5	8.715566
124	0x40c29325	6.080462
125	0x4088c142	4.273591
126	0x405bd003	3.434571
127	0x40228f55	2.5399983
128	0x40027472	2.0383573
129	0x3ffd76a1	1.9801828
130	0x40088214	2.1329393
131	0x4042cc0c	3.043704
132	0x409c5169	4.884938
133	0x40e90ad1	7.2825704
134	0x41018a86	8.096319
135	0x3fcdfe26	1.6093185
136	0x3faa4315	1.3301722
137	0x413d0d10	11.815689
138	0x3f714692	0.94248307
139	0x41890e00	17.131836
140	0xbdebe30a	-0.11517914
141	0xbdd8f7b6	-0.10594122
142	0xbe03ce44	-0.12871653
143	0xbf01afda	-0.50658953
144	0xbecf5d01	-0.40500644
145	0xbeb54249	-0.35402134
146	0xbea7c445	-0.3276693
147	0xbe9f93dc	-0.31167495
148	0xbeaf940d	-0.3429264
149	0xbea7cda1	-0.3277407
150	0xbe5cf785	-0.21578796
151	0xbe44069e	-0.1914315
152	0xbe2f4a29	-0.17118134
153	0xbe325037	-0.17413412
154	0xbe4ee81d	-0.20205732
155	0xbe72edd1	-0.23723532
156	0xbeadca66	-0.3394348
157	0xbf18aca7	-0.59638447
158	0xbfc22608	-1.5167856
159	0xbd4fab1e	-0.0507003
160	0xbe5c1417	-0.21492039
161	0xbe1f85d6	-0.15578398
162	0xbe02ab87	-0.12760745
163	0xbde6a36a	-0.112616375
164	0x3e843ce1	0.25827697
165	0xc0148cd0	-2.3210945
166	0xbdeee4f8	-0.11664766
167	0x3d0d9a84	0.034571186
168	0x00000004	6e-45
169	0x00000004	6e-45
170	0x00000004	6e-45
171	0x00000004	6e-45
172	0x00000004	6e-45
173	0x00000004	6e-45
174	0x00000004	6e-45
175	0x00000004	6e-45
176	0x00000004	6e-45
177	0x00000004	6e-45
178	0x00000004	6e-45
179	0x00000004	6e-45
180	0x00000004	6e-45
181	0x00000004	6e-45
182	0x00000004	6e-45
183	0x00000004	6e-45
184	0x00000004	6e-45
185	0x00000004	6e-45
186	0x00000004	6e-45
187	0x00000004	6e-45
188	0x00000004	6e-45
189	0x00000004	6e-45
190	0x00000004	6e-45
191	0x00000004	6e-45
192	0x80000004	-6e-45
193	0x00000004	6e-45
194	0x00000004	6e-45
195	0x00000004	6e-45
196	0x416c55fe	14.770994
197	0x42300ade	44.010612
198	0x42c2e6a3	97.45046
199	0x4282a9f5	65.33195
200	0x421c2823	39.039196
201	0x41ed707b	29.679922
202	0x41d07249	26.055803
203	0x41c01959	24.012377
204	0x41ef88f9	29.941881
205	0x4260b03a	56.172096
206	0x42221d81	40.528812
207	0x422b88b2	42.88349
208	0x4220289c	40.039658
209	0x4219ab8d	38.41753
210	0x4219bae2	38.432503
211	0x41f74394	30.907997
212	0x40f2b13e	7.584136
213	0x40cf51a4	6.478716
214	0x40bc75e9	5.8893933
215	0x40aa342f	5.31887
216	0x40bbc1d8	5.8674126
217	0x40d5a015	6.6757913
218	0x410d96aa	8.849283
219	0x416af025	14.683629
220	0xc0c49f5a	-6.144452
221	0x42e9fa90	116.98938
222	0x40acc437	5.398952
223	0x440dcca1	567.1973
224	0xc1abc0e2	-21.469181
225	0xbfaaafd7	-1.3334912
226	0x41304f30	11.019333
227	0x409a1e92	4.8162317
228	0xc093a379	-4.613705
229	0xc0aa5b9f	-5.323684
230	0xc0d82dd7	-6.7555957
231	0xc00edd84	-2.2322702
232	0x3e26254b	0.16225164
233	0x40db9afe	6.86267
234	0xbeec3223	-0.46132
235	0xc10f16f2	-8.943102
236	0xc1499e6a	-12.601175
237	0xc1212162	-10.07065
238	0xc0517de5	-3.273309
239	0xbf785682	-0.97007
240	0xbf4c6374	-0.79839253
241	0x407ec137	3.980543
242	0x40aecd70	5.462578
243	0xc1004996	-8.017965
244	0xc1190dd5	-9.565877
245	0xc134e905	-11.30689
246	0xc1a987ff	-21.191404
247	0xc1ac40ab	-21.531576
248	0xc0ea6aff	-7.325561
249	0xc1b9869e	-23.190731
250	0xbfb432f2	-1.4078047
251	0x41dcb4d9	27.588305
252	0x00000004	6e-45
253	0x00000004	6e-45
254	0x00000004	6e-45
255	0x00000004	6e-45

exp_avg_sq f4 [5, 128]
0	0x43a3df0c	327.74255
1	0x4302cf4d	130.80977
2	0x4306ee25	134.93025
3	0x42b7abb8	91.83539
4	0x430ae816	138.90659
5	0x434c16e8	204.08948
6	0x42fc4b73	126.14736
7	0x43882ab1	272.33353
8	0x433865ee	184.39816
9	0x43878c1e	271.09467
10	0x43aabf52	341.4947
11	0x4311b7bb	145.7177
12	0x43254e6d	165.30635
13	0x41d28a99	26.317675
14	0x42dc4f81	110.15528
15	0x4305666d	133.4001
16	0x438ffe01	287.9844
17	0x4384647a	264.78497
18	0x43867384	268.90247
19	0x432e5599	174.33437
20	0x429db74d	78.85801
21	0x4321d63d	161.83687
22	0x42fc2f98	126.09296
23	0x4363877c	227.52924
24	0x43508e7c	208.55658
25	0x43ac90b3	345.13046
26	0x43746998	244.41248
27	0x42db93c4	109.788605
28	0x43060a47	134.04015
29	0x42d93873	108.61025
30	0x43351230	181.07104
31	0x43a70ab0	334.0835
32	0x43a1c33c	323.52527
33	0x4366f368	230.9508
34	0x43030184	131.00592
35	0x4347791b	199.47307
36	0x4394d9a3	297.7003
37	0x43a3b9ef	327.4526
38	0x42e98dcb	116.77694
39	0x436d462b	237.2741
40	0x42283032	42.047066
41	0x43118997	145.53746
42	0x42cd6e03	102.71487
43	0x43101d16	144.11362
44	0x436796bf	231.58885
45	0x41e3222b	28.391684
46	0x42f6d1f7	123.41009
47	0x422336bd	40.803455
48	0x42e53358	114.60028
49	0x437130ba	241.19034
50	0x43ba3bc9	372.46707
51	0x433c6b36	188.4188
52	0x4354d803	212.8438
53	0x4398365f	304.42477
54	0x42efc720	119.888916
55	0x434e7b25	206.48103
56	0x43a2c419	325.532
57	0x42fa73a9	125.2259
58	0x43940c59	296.09647
59	0x43812252	258.26813
60	0x4371a58a	241.64664
61	0x4369f1a8	233.94397
62	0x436f7452	239.45438
63	0x41cf8883	25.941656
64	0x436bc89f	235.78368
65	0x42ad81cb	86.7535
66	0x43756f3d	245.43452
67	0x434ac7ce	202.78049
68	0x43996f58	306.86987
69	0x432e0a2f	174.03978
70	0x43dc5c2b	440.72006
71	0x43628292	226.51004
72	0x42893696	68.60661
73	0x437941c0	249.25684
74	0x4375bbd1	245.73366
75	0x42e7aeda	115.84151
76	0x429a5dcf	77.18322
77	0x434802fd	200.01167
78	0x4275860e	61.380913
79	0x43baddab	373.73178
80	0x42f4330d	122.09971
81	0x43df5c53	446.72128
82	0x43cbd73d	407.68155
83	0x43c0b0ac	385.38025
84	0x43390989	185.03725
85	0x43273b54	167.23175
86	0x438dc30f	283.5239
87	0x434f6b50	207.41919
88	0x4322c40f	162.76585
89	0x42be40aa	95.1263
90	0x42664ac7	57.573025
91	0x43abb887	343.44162
92	0x4365fd71	229.99
93	0x436ef1e7	238.94493
94	0x4350ff2e	208.9968
95	0x42d02a98	104.08319
96	0x41f08038	30.062607
97	0x438893b8	273.15405
98	0x430ef4ae	142.95578
99	0x438bee42	279.8614
100	0x43668cd0	230.55005
101	0x43401917	192.098
102	0x43378af3	183.54277
103	0x43574bb8	215.29578
104	0x43645cd8	228.36267
105	0x434dad88	205.67786
106	0x42b75f63	91.6863
107	0x43948269	297.01883
108	0x430cd30e	140.82443
109	0x4346ede0	198.9292
110	0x42f03bba	120.11665
111	0x43808add	257.08487
112	0x434d99f9	205.60146
113	0x430bb8a7	139.7213
114	0x42cfb70c	103.85751
115	0x43840d1d	264.10245
116	0x4327b643	167.71196
117	0x4389dd68	275.72974
118	0x430932d3	137.19853
119	0x43052c6f	133.17357
120	0x42542085	53.031757
121	0x425aafec	54.6718
122	0x42f1feb2	120.99745
123	0x436ca971	236.66188
124	0x43b30e91	358.1138
125	0x43076ed4	135.43292
126	0x43533e55	211.24348
127	0x42bc00b8	94.0014
128	0x3fb4c6c2	1.4123156
129	0x3f51c802	0.8194581
130	0x3ef90ec0	0.48644066
131	0x3f3775e0	0.7166424
132	0x402d279e	2.705543
133	0x3fa67077	1.3003072
134	0x3efe6e28	0.49693418
135	0x4062eb79	3.545622
136	0x40296b89	2.6471884
137	0x400a5254	2.161275
138	0x40016d24	2.0222864
139	0x3f42e6ba	0.7613331
140	0x3ff82cf6	1.9388721
141	0x3f4f2007	0.80908245
142	0x3f6b15a6	0.9182991
143	0x3f46dc66	0.7768005
144	0x3fbed08a	1.4907391
145	0x402510a0	2.5791397
146	0x3fcf0fa9	1.6176654
147	0x3fce9d6c	1.6141791
148	0x3e6f2c15	0.2335666
149	0x3f1fbe56	0.62399805
150	0x3f159fa5	0.58446723
151	0x3f824045	1.0175864
152	0x3fcbd5a1	1.5924569
153	0x4010b2bf	2.2609098
154	0x3faeaf99	1.3647338
155	0x3f0487bd	0.5176962
156	0x3f99c29d	1.2012516
157	0x3f495bf4	0.78655934
158	0x3f76a18a	0.9634024
159	0x401c1c41	2.4392245
160	0x401a9ced	2.415828
161	0x3fac2b4c	1.3450713
162	0x3f5902b6	0.8476976
163	0x3f73651f	0.95076174
164	0x4000a0ef	2.0098226
165	0x3ffc7f9a	1.9726441
166	0x3f09e6e6	0.5386795
167	0x3fef3806	1.8688972
168	0x3efefd73	0.4980274
169	0x3f62053a	0.88289225
170	0x3fa3e6e1	1.2804834
171	0x40075b83	2.1149604
172	0x400e0771	2.2192042
173	0x3f69693b	0.91176194
174	0x3f42bb10	0.76066685
175	0x3ec49a40	0.38398933
176	0x3f2ce1fb	0.6753232
177	0x4011f7a6	2.2807403
178	0x402a15b3	2.6575744
179	0x3f365d74	0.7123635
180	0x3f7acfb2	0.9797317
181	0x3fd31df2	1.6493514
182	0x3f3669dc	0.7125528
183	0x4039dbe8	2.904047
184	0x4051401b	3.2695377
185	0x3ebae461	0.36502364
186	0x408145d0	4.039772
187	0x402897a9	2.6342566
188	0x3f953d45	1.1659323
189	0x400f414f	2.2383611
190	0x3fd4cf00	1.6625671
191	0x3eca92a5	0.39565006
192	0x3fdc916f	1.7231883
193	0x3ebb81a6	0.3662235
194	0x3fe59a60	1.7937737
195	0x3fead973	1.834761
196	0x402a9b06	2.6657119
197	0x3fba1f16	1.4540737
198	0x401c4f71	2.4423487
199	0x3ff0634c	1.8780303
200	0x401421d7	2.3145654
201	0x3f873d18	1.0565519
202	0x401a1d6b	2.4080455
203	0x3faf6c20	1.3704872
204	0x3ee97792	0.45599037
205	0x3f92269d	1.1418034
206	0x3f8733ef	1.0562724
207	0x3ff0a842	1.8801348
208	0x3f62d11b	0.8860032
209	0x404a922d	3.1651719
210	0x404e1813	3.2202194
211	0x4015eb33	2.3424804
212	0x3f6ee986	0.9332508
213	0x4089467f	4.2898555
214	0x400f0923	2.2349327
215	0x3f959062	1.1684687
216	0x3ffa8825	1.9572798
217	0x3f9860f9	1.1904594
218	0x3efd68ea	0.49494106
219	0x4021fefb	2.5311878
220	0x400165bf	2.021835
221	0x3fc584dd	1.5431172
222	0x400093bb	2.0090168
223	0x3f519c5b	0.81879205
224	0x3f050983	0.5196764
225	0x3ff8c881	1.9436189
226	0x3f906c4d	1.1283051
227	0x3fc11d93	1.508715
228	0x407dbc9f	3.9646375
229	0x3fba8cdf	1.457424
230	0x3f28c73f	0.65929025
231	0x3fa4356e	1.2828805
232	0x4006d301	2.1066287
233	0x3f4db523	0.8035452
234	0x3f432e9d	0.76243
235	0x404f2466	3.2365966
236	0x3f306665	0.6890624
237	0x3fb9f085	1.4526526
238	0x3f4ded83	0.8044054
239	0x3fd84c61	1.6898309
240	0x4025bb05	2.5895398
241	0x3f56b6cb	0.8387267
242	0x3f535cf2	0.825637
243	0x3fa24439	1.267707
244	0x3fb4ec92	1.4134696
245	0x3ff317c2	1.8991625
246	0x3f16d288	0.58914995
247	0x3fa48660	1.2853508
248	0x3f464213	0.7744457
249	0x3ed76b0e	0.42073864
250	0x3f987f5b	1.1913866
251	0x3fbefe52	1.4921362
252	0x4071ee77	3.7801797
253	0x3fa77fa9	1.3085834
254	0x3fcd5f85	1.6044775
255	0x3f7af28b	0.9802634
