model/590a.pt (torch_old, 336851 bytes, 24 tensors)

fc1.weight f4 [128, 28]
0	0x3cba2e3d	0.022727126
1	0x3e7306f2	0.23733118
2	0xbe3168bc	-0.17325109
3	0xbd080704	-0.033209816
4	0xbeb3cefc	-0.35118854
5	0xbee702de	-0.45119375
6	0xbe1220bf	-0.14270304
7	0xbe57ed86	-0.21086702
8	0xbe890675	-0.2676274
9	0x3df87e88	0.12133509
10	0x3e8ece40	0.2789173
11	0xbe841c4b	-0.25802836
12	0xbde87e88	-0.11352259
13	0x3cf2cc1e	0.029638346
14	0x3e91c975	0.28474012
15	0x3eab0636	0.33403176
16	0x3ec15e22	0.3776713
17	0xbc6bcbbc	-0.014391836
18	0xbfa1a4dd	-1.2628437
19	0xc02a298c	-2.6587858
20	0xbff95602	-1.9479373
21	0xbfec3b43	-1.8455585
22	0xbe81cf26	-0.25353354
23	0x3e186002	0.14880374
24	0x3eb36d19	0.35044172
25	0xbe183ac9	-0.14866175
26	0xc0126bc8	-2.2878284
27	0x3c48b2c6	0.012249654
28	0x3f581a5a	0.8441521
29	0x3f6d05c1	0.92586905
30	0x3e11ef9b	0.14251558
31	0xbb59c1e5	-0.0033227142
32	0xbe854858	-0.26031756
33	0xbe592527	-0.21205579
34	0xbe0ab425	-0.13545282
35	0x3e5bd513	0.21468
36	0x3b2f366c	0.0026735319
37	0x3e7107db	0.23538153
38	0x3d333df6	0.043760262
39	0xbe4a5825	-0.19760187
40	0xbeaf9c91	-0.34299138
41	0xbf099e03	-0.5375673
42	0xbdda0255	-0.10644976
43	0xbe58cce3	-0.21171908
44	0x3d6f10e0	0.058365703
45	0xbf0503fa	-0.5195919
46	0xbef2b588	-0.47404122
47	0xbd7426a3	-0.05960716
48	0x3dd781d3	0.10522809
49	0x3dee087c	0.11622712
50	0xbe0c4942	-0.1369982
51	0x3f3c20aa	0.7348734
52	0x3f242588	0.6411977
53	0xbe46984e	-0.19394037
54	0x3f869cb5	1.0516573
55	0x3c90b494	0.017664231
56	0xbfbeb8ca	-1.4900143
57	0xbf98ee92	-1.1947806
58	0xbef94a61	-0.4868956
59	0x3dfe714b	0.12423953
60	0x3b55e172	0.0032635597
61	0xbd5c5d77	-0.053800073
62	0x3d6d012a	0.05786244
63	0xbdb62e7c	-0.08895585
64	0xbd9fb622	-0.07798411
65	0xbcb86889	-0.022510784
66	0x3b346327	0.002752492
67	0x3ebf1d4f	0.37327048
68	0x3d6a62dd	0.05722319
69	0xbdde109d	-0.108430125
70	0xbe153835	-0.14572223
71	0xbe01b75f	-0.12667607
72	0xbef12043	-0.47094926
73	0xbf487d13	-0.7831585
74	0xbf16f431	-0.58966357
75	0xbf44b4d8	-0.76838446
76	0xbe9de2ad	-0.30837002
77	0xbebd5fa7	-0.3698704
78	0xbf713d62	-0.9423429
79	0xbfd83ab2	-1.6892912
80	0xbe22345a	-0.15840283
81	0x3e2b079e	0.16702124
82	0xbfe092f2	-1.7544844
83	0x3d28772d	0.04112928
84	0xbf463755	-0.7742818
85	0xbf8df096	-1.1089046
86	0xbf40facc	-0.75382686
87	0xbf52d7b9	-0.82360417
88	0xbe0b27e2	-0.13589433
89	0xbdcf1d0f	-0.10112964
90	0xbca16d7c	-0.019705527
91	0x3e222ba9	0.15836968
92	0x3e8d8074	0.27637064
93	0x3ea7e0e7	0.32788774
94	0x3ee594e0	0.44840145
95	0x3ed96927	0.42463037
96	0x3dd2db55	0.102957405
97	0xbdc57c7b	-0.096428834
98	0xbe3d243d	-0.18470855
99	0xbe153d30	-0.14574122
100	0x3df787a9	0.12086422
101	0x3d616f32	0.055037685
102	0x3f095ea2	0.53660023
103	0x3d511d17	0.051053133
104	0x3da2ee00	0.07955551
105	0x3e2d176f	0.1690347
106	0xbe67ae6f	-0.22625135
107	0xbf73e3c2	-0.95269406
108	0x3f84cbbe	1.0374677
109	0xbd9c6443	-0.07636311
110	0xbfc46d62	-1.5345881
111	0xbd22e058	-0.039764732
112	0xbf4052e6	-0.7512649
113	0xbf874179	-1.0566856
114	0xbea32cbe	-0.31870073
115	0xbe87dc31	-0.2653518
116	0x3d7d182a	0.061790623
117	0x3eaffc99	0.34372404
118	0x3e9ffa79	0.31245783
119	0x3e9e2bec	0.30892885
120	0x3edf33f0	0.43594313
121	0x3ea6717a	0.3250845
122	0xbe232a6c	-0.15934151
123	0x3e1df7a9	0.15426506
124	0x3f05d132	0.5227233
125	0x3ec65c3d	0.38742247
126	0x3f048896	0.51770914
127	0x3f0cb7df	0.54968065
128	0xbf02f8b7	-0.5116076
129	0xbf3cccd8	-0.73750067
130	0x3cb3774e	0.021907475
131	0x3ddf0a19	0.10890598
132	0xbcdb6c89	-0.026785152
133	0x3e51a98d	0.20474835
134	0x3ea5707d	0.32312384
135	0xbf4821e4	-0.78176713
136	0x3a784134	0.0009470165
137	0xbeb8dce1	-0.36106017
138	0xbfd2c544	-1.6466451
139	0x3c58db8e	0.01323594
140	0xbf9a147c	-1.2037501
141	0xbfc242a2	-1.5176585
142	0xbfa0e733	-1.2570556
143	0x3e607f27	0.21923505
144	0xbcc5b7a1	-0.024135413
145	0xbe25217d	-0.16126056
146	0x3e4ad40b	0.1980745
147	0x3e565384	0.20930296
148	0x3e873c5e	0.26413244
149	0x3ea5ef9b	0.32409367
150	0x3e6cca55	0.23124059
151	0x3d3b36c2	0.045706518
152	0x3d195848	0.037437707
153	0xbe6c3d40	-0.2307024
154	0x3dd2ca01	0.102924354
155	0x3ecd6852	0.40118653
156	0x3df9ad10	0.12191212
157	0x3e2ec3fe	0.17066953
158	0x3df75349	0.12076432
159	0x3e5140a2	0.20434812
160	0xbddd86ce	-0.108167276
161	0x3dab6ade	0.08369993
162	0xbea4b409	-0.32168606
163	0xbfa9e873	-1.3274063
164	0x3f1e51db	0.6184365
165	0x3e1c2059	0.15246715
166	0xbfa3927f	-1.2779082
167	0xbe3fdfee	-0.18737766
168	0xbf6d6b1e	-0.9274157
169	0x3c2d9209	0.0105938995
170	0xbdff5b1f	-0.12468552
171	0xbe229ec3	-0.15880875
172	0x3e1d0800	0.15335083
173	0xbc928e57	-0.017890139
174	0x3e5915ff	0.21199797
175	0x3df750dc	0.120759696
176	0x3e5a4fbc	0.21319479
177	0x3dbd4dfd	0.09243391
178	0x3e871048	0.2637961
179	0xbd66b943	-0.056329023
180	0xbe728a77	-0.23685633
181	0xbdbfc5d7	-0.09363907
182	0xbe70c3a6	-0.23512134
183	0xbe6e1dc6	-0.23253545
184	0xbe2aea8a	-0.16691032
185	0x3dc05b5e	0.09392427
186	0xbcfc2aa7	-0.030782057
187	0xbedf22ed	-0.43581334
188	0xbe8394f5	-0.25699583
189	0x3d0c68be	0.034279577
190	0xbf45e806	-0.77307165
191	0xbf8c37a4	-1.095448
192	0xbe1b7bc4	-0.15183932
193	0x3c826363	0.015916532
194	0xbfb00f80	-1.375473
195	0xbd507f28	-0.050902516
196	0xbf17ca91	-0.59293467
197	0x3e6f02db	0.23340933
198	0xbd24d0ce	-0.040238194
199	0xbda33a75	-0.07970134
200	0xbe1d5f7a	-0.15368453
201	0x3e7a69cc	0.24454421
202	0x3e295144	0.16534907
203	0xbdbb08d2	-0.09132542
204	0x3ea372f9	0.31923655
205	0xbc6b8292	-0.014374392
206	0x3d8e4796	0.06947248
207	0xbda2699c	-0.079303
208	0xbe08af34	-0.13348085
209	0xbbd71d34	-0.0065647606
210	0xbe12434e	-0.14283487
211	0xbef7c7d9	-0.4839466
212	0xbd9f24bf	-0.07770681
213	0xbe68f901	-0.22751237
214	0xbe1d3ff6	-0.1535643
215	0xbf633479	-0.8875194
216	0xbfad9542	-1.3561175
217	0xbf8bbe47	-1.0917443
218	0xbf767c00	-0.9628296
219	0xbf364356	-0.71196496
220	0xbf51fc4d	-0.82025605
221	0x3e15431a	0.14576378
222	0xbfb4e907	-1.4133614
223	0x3e1ec190	0.15503526
224	0x3eb463d1	0.35232404
225	0x3f0d9021	0.5529805
226	0x3e46c439	0.1941079
227	0x3e7a0842	0.24417213
228	0x3e434333	0.19068603
229	0x3d5dcee8	0.0541524
230	0xbeeac165	-0.45850673
231	0xbe3d817c	-0.18506426
232	0x3cdb4499	0.026766108
233	0x3e44b018	0.192078
234	0x3e80a70a	0.2512744
235	0x3dd8b246	0.10580878
236	0xbdf0ccc7	-0.11757808
237	0xbd97ecfc	-0.07418248
238	0x3e823bcc	0.25436246
239	0x3d00dcdd	0.03146063
240	0x3d035cb2	0.032070823
241	0xbee9b44f	-0.45645377
242	0xbe3df28f	-0.1854956
243	0xbdea7622	-0.11448313
244	0xbc27a254	-0.010231573
245	0x3a187202	0.00058153283
246	0xbe502830	-0.2032783
247	0x3eeaaa12	0.45832878
248	0xbf9683ea	-1.1759007
249	0x3e05f86b	0.13083045
250	0xbf29cbdf	-0.6632671
251	0x3dbdbde4	0.092647344
252	0x3e161594	0.14656669
253	0xbe48bb65	-0.19602735
254	0xbd9e91f5	-0.07742683
255	0xbe233a18	-0.1594013

fc1.bias f4 [128]
0	0xba9f6deb	-0.0012163495
1	0xbe0c65b6	-0.13710675
2	0xbdaf7838	-0.08567852
3	0xbb1e97c2	-0.0024199341
4	0xbd75c5c0	-0.060003042
5	0x3cc85b9b	0.024457743
6	0x3d4abe6f	0.049498018
7	0x3d9c9fb1	0.07647646
8	0xbe2c3e50	-0.16820645
9	0xbd11995d	-0.03554665
10	0xbd6cfc65	-0.05785789
11	0x3ddee652	0.10883774
12	0x3d3c69fc	0.045999512
13	0x3e0f7584	0.14009672
14	0xbd6970b3	-0.056992244
15	0xbea60c95	-0.32431474
16	0xbe2e554c	-0.17024726
17	0xbdcd60a3	-0.100281976
18	0xbe0abb76	-0.13548073
19	0xbe412215	-0.18860658
20	0xbe022a06	-0.12711343
21	0xbcc9db1a	-0.024640609
22	0x3f07dc88	0.5307088
23	0x3cd6363a	0.026148904
24	0xbd9252be	-0.07144688
25	0xbe55f709	-0.20895018
26	0xbdd46b73	-0.10372057
27	0xbd522f66	-0.051314734
28	0xbd55b3c0	-0.052173376
29	0xbe42990e	-0.19003698
30	0xbc0d9f1f	-0.008643894
31	0x3df39238	0.118931234
32	0xbdf6b1e4	-0.12045649
33	0xbe0dec96	-0.13859782
34	0x3e9073ad	0.28213254
35	0xbd6779fc	-0.056512818
36	0x3d9c25c8	0.07624394
37	0xbe0f4092	-0.13989475
38	0x3ca0ea7e	0.019643065
39	0xbdf8af9c	-0.1214287
40	0xbe97e922	-0.29670054
41	0x3e2ce439	0.16883935
42	0xbdaacee1	-0.0834024
43	0xbca0332f	-0.019555656
44	0x3cfe6fe9	0.031059222
45	0xbe66f48f	-0.22554229
46	0xbd2d0be0	-0.042247653
47	0x3f098d90	0.5373163
48	0x3d6c388b	0.05767111
49	0xbd158c14	-0.036510542
50	0x3de1d037	0.11026042
51	0xbd01a84a	-0.031654634
52	0xbe4fdcea	-0.20299116
53	0xbd4738f8	-0.048638314
54	0x3e5240f2	0.20532587
55	0xbe68ffdf	-0.22753857
56	0xbdfcae23	-0.123379014
57	0x3e08cf03	0.13360219
58	0xbe6396d7	-0.2222551
59	0x3f0f97da	0.5609108
60	0xb8b3cfe9	-8.5741114e-05
61	0x3d493428	0.049122006
62	0x3c7c30b3	0.01539247
63	0xbe757797	-0.23971401
64	0xbd688379	-0.056766007
65	0x3e5b453e	0.21413133
66	0x3c909c9d	0.017652804
67	0x3d487a5f	0.048944827
68	0xbe08d2e2	-0.13361695
69	0x3d753562	0.059865363
70	0xbe442f72	-0.19158724
71	0xbd96a190	-0.07355034
72	0xbe6f02d4	-0.23340923
73	0xbc90305e	-0.017601188
74	0x3db5b993	0.08873286
75	0xbe2d5d81	-0.169302
76	0xbbe2e623	-0.006924407
77	0xbe35d0d2	-0.1775544
78	0xbed6e479	-0.41971186
79	0xbc479bd5	-0.012183149
80	0xbd72490c	-0.059151694
81	0xbe3111ee	-0.17291996
82	0xbd8b5544	-0.068033725
83	0xbe24c246	-0.16089734
84	0x3e12b8cd	0.14328308
85	0x3d774762	0.06037081
86	0xbd83034b	-0.063971125
87	0xbddd465d	-0.10804436
88	0x3b5a9e69	0.003335858
89	0xbcb73b5d	-0.022367174
90	0xbe826391	-0.25466588
91	0xbdbf2e63	-0.093350194
92	0xbe460345	-0.19337185
93	0x3e378a7c	0.17923921
94	0xbd75123c	-0.059831843
95	0xbdcf694e	-0.10127507
96	0xbe01acf8	-0.12663639
97	0xbde4ab4f	-0.11165487
98	0x3f4a803a	0.7910191
99	0x3dfe893d	0.1242852
100	0x3eb5701f	0.35437104
101	0xbd576f56	-0.052596413
102	0x3d02c746	0.031928323
103	0xbe5012ba	-0.20319644
104	0xbc70a5d3	-0.014687973
105	0xbdbbe67c	-0.09174821
106	0xbccb3a5b	-0.0248081
107	0x3df4bec6	0.1195045
108	0x3ce60d15	0.02808241
109	0xbdc30c94	-0.095238835
110	0xbaafa303	-0.0013400022
111	0x3ea87e1c	0.32908714
112	0xbe104617	-0.14089237
113	0x3dcd855d	0.10035203
114	0xb992bce6	-0.0002798803
115	0x3cd74b65	0.026281068
116	0xbe291a22	-0.16513875
117	0xbdc2a840	-0.095047474
118	0x3ceefece	0.029174235
119	0xbc8f88d3	-0.017521298
120	0xbe78716e	-0.2426202
121	0xbd231109	-0.039811168
122	0xbd997d28	-0.07494575
123	0xbe0c43d1	-0.13697745
124	0x3d10fc86	0.035397075
125	0xbd08c8b6	-0.033394538
126	0xbe1e4c8f	-0.15458892
127	0xbe6dc766	-0.23220596

fc2.weight f4 [128, 128]
0	0xbe9fdc22	-0.31222636
1	0xbeab5fb7	-0.33471462
2	0x3e9d7115	0.30750337
3	0x3cc75abe	0.024335261
4	0x3ec99b19	0.39376143
5	0xbe46691a	-0.1937603
6	0xbf20afc8	-0.6276822
7	0x3ece0d65	0.40244594
8	0xbe1ef6b8	-0.15523803
9	0xbec7de1b	-0.3903664
10	0xbe154dd7	-0.14580475
11	0xbf8db39d	-1.1070439
12	0x3e11e663	0.14248042
13	0x3f324e1d	0.6965044
14	0xbe949aae	-0.2902426
15	0xbea4e3a5	-0.3220493
16	0xbea12dca	-0.31480247
17	0x3dc45fc6	0.0958858
18	0xbe318d3a	-0.1733903
19	0xbc0ff177	-0.008785597
20	0xbf0d46ae	-0.55185974
21	0xbdb1caba	-0.08681245
22	0x3e735a7c	0.23764986
23	0x3dbf4fb3	0.09341373
24	0x3daeda38	0.08537716
25	0xbf0742de	-0.52836406
26	0x3d200882	0.039070614
27	0xbf14279f	-0.57872957
28	0xbea6d42b	-0.32583746
29	0xbf1c10ab	-0.60962933
30	0x3e9793c7	0.29604933
31	0x3ed4b490	0.41544008
32	0x3dbe0961	0.09279133
33	0x3ef11f6b	0.47094283
34	0x3dc573c9	0.09641225
35	0x3eb7eb8e	0.359219
36	0x3eb81481	0.35953143
37	0xbeda4183	-0.42628106
38	0x3ecfeb56	0.40609235
39	0x3e1f73ab	0.15571468
40	0xbf32362a	-0.696139
41	0x3e1c676e	0.1527383
42	0x3d8ca307	0.068670325
43	0x3e87d674	0.26530802
44	0x3d0d32cf	0.034472283
45	0xbf5938d8	-0.8485236
46	0xbe4e09b3	-0.20120887
47	0xbe3bee9b	-0.1835274
48	0x3e821544	0.2540685
49	0x3d4c8436	0.049930774
50	0x3e474d61	0.19463111
51	0x3f0f3088	0.5593343
52	0x3e9d9472	0.30777317
53	0x3eac9a93	0.3371168
54	0xbf2d26d7	-0.6763739
55	0xbeb728ea	-0.35773402
56	0xbe83b5f6	-0.25724763
57	0x3d38051e	0.044926755
58	0x3e80c119	0.25147322
59	0xbf1144f7	-0.56745857
60	0x3e573084	0.21014601
61	0xbece69cd	-0.40315095
62	0x3c8361f9	0.016037928
63	0xbf836780	-1.0265961
64	0x3dfdd96b	0.12394985
65	0x3f154d2a	0.5832087
66	0x3f74f14e	0.956807
67	0x3f13964a	0.576512
68	0xbd38401e	-0.044983022
69	0xbd1d3b4a	-0.03838662
70	0xbe92672e	-0.28594345
71	0xbe57802d	-0.21044989
72	0xbf468907	-0.7755284
73	0x3ecead71	0.403667
74	0xbee4d7d6	-0.4469592
75	0xbf6bd6ff	-0.92124933
76	0xbee08de0	-0.43858242
77	0xbb97b0f4	-0.0046292488
78	0xbeccf661	-0.40031722
79	0x3e589b55	0.21153004
80	0xbecc56f0	-0.39910078
81	0xbf60288e	-0.8756188
82	0x3c3f87c9	0.011690089
83	0xbee560f3	-0.4480053
84	0x3e432d99	0.19060363
85	0xbe6586c8	-0.22414696
86	0xbe74494c	-0.23856086
87	0xbe438722	-0.19094518
88	0xbef56933	-0.47931823
89	0x3c112e14	0.008861084
90	0xbf332490	-0.69977665
91	0x3e0bf807	0.13668834
92	0xbecc2bbc	-0.39877117
93	0x3da6eeb9	0.081510015
94	0x3e19d9b4	0.15024453
95	0xbedadff1	-0.4274898
96	0x3eaae226	0.33375663
97	0xbeab3bac	-0.33443964
98	0xbf15f9a3	-0.5858404
99	0xbeb555f7	-0.35417148
100	0xbeb8f4b7	-0.36124203
101	0xbec7f4a3	-0.3905383
102	0xbe476a85	-0.19474228
103	0x3e248ca9	0.16069283
104	0xbd247a73	-0.04015584
105	0x3e938bb8	0.28817534
106	0xbea084fa	-0.31351453
107	0x3e305f8f	0.17223953
108	0x3e05176a	0.12997213
109	0xbf165b96	-0.587335
110	0x3dcb668e	0.0993167
111	0x3dd136da	0.1021554
112	0x3e0613c7	0.13093482
113	0xbe0fb40c	-0.14033526
114	0xbee1a64f	-0.44072196
115	0xbc0d7ce2	-0.008635731
116	0x3d8089fe	0.0627632
117	0x3f14a707	0.58067364
118	0x3e1a4bb2	0.15067938
119	0x3fa462ef	1.2842692
120	0xbf93e45a	-1.1554062
121	0xbed6b7ab	-0.41937003
122	0x3fbeb1ab	1.489797
123	0x3e65793a	0.22409526
124	0xbeaaf9db	-0.3339375
125	0x3ed6ac27	0.41928217
126	0xbf180e57	-0.5939688
127	0xbe3a38c1	-0.18185712
128	0xbe16061c	-0.14650768
129	0xbda3b036	-0.07992594
130	0x3dc67429	0.096901245
131	0x3e626e60	0.22112417
132	0xbe707f8c	-0.23486155
133	0x3ec67a3c	0.38765132
134	0x3f4a917f	0.7912826
135	0x3ed49d88	0.41526437
136	0x3d5f1d89	0.054471526
137	0x3ef85b96	0.48507375
138	0xbd275e1a	-0.040861227
139	0x3de89f87	0.113585524
140	0x3d7753a3	0.060382497
141	0xbe800d0a	-0.25009948
142	0xbc777337	-0.015103153
143	0xbf58c3e7	-0.84673923
144	0x3cede41b	0.029039433
145	0x3d965f20	0.073423624
146	0x3eeb617c	0.45972812
147	0x3d4d85d2	0.05017645
148	0xbcfc6ea7	-0.030814482
149	0xbef9b38d	-0.487698
150	0xbe0685da	-0.13136998
151	0xbe8944cb	-0.26810297
152	0xbd442b76	-0.04789301
153	0x3c9e6304	0.019334324
154	0xbb1471c2	-0.0022650813
155	0x3eb7c60b	0.35893282
156	0x3f91eec0	1.1400986
157	0x3f758c9d	0.95917684
158	0xbf0566f5	-0.52110225
159	0xbecbe3cb	-0.3982223
160	0x3f2b7cfb	0.6698758
161	0x3ee2fe3c	0.4433459
162	0x3e88b0cf	0.26697394
163	0xbc82c8b7	-0.015964849
164	0x3e7baf22	0.24578527
165	0x3e91ab42	0.28450972
166	0xbf22b574	-0.63558125
167	0xbfb1684e	-1.3859956
168	0x3e8d71cf	0.27625892
169	0x3eab6cae	0.33481354
170	0x3e3d2f4c	0.18475074
171	0xbde144ff	-0.10999488
172	0x3e357dfa	0.17723837
173	0x3eae86f3	0.34087333
174	0x3ed6c7ec	0.41949403
175	0x3eb275ee	0.34855598
176	0x3db79f98	0.08965987
177	0x3ebe5a4f	0.37178275
178	0xbdd3d510	-0.10343373
179	0xbc344966	-0.011003828
180	0xbe1c0902	-0.15237811
181	0x3cc37e4c	0.023863934
182	0x3dae6297	0.08514898
183	0xbf3f37ab	-0.7469432
184	0xbe04e434	-0.12977678
185	0x3e905532	0.2819
186	0xbec02fe0	-0.37536526
187	0xbecd936d	-0.4015154
188	0x3ede8ed3	0.4346834
189	0xbef9a529	-0.4875882
190	0x3e6ae831	0.22940136
191	0x3df7b920	0.12095857
192	0x3e7274a4	0.23677307
193	0xbe561e08	-0.20909894
194	0xbf1bb1f4	-0.6081841
195	0xbeb82618	-0.35966563
196	0x3de80eb5	0.1133093
197	0x3e0353e9	0.12824978
198	0x3ed476f9	0.4149702
199	0xbeca201e	-0.39477628
200	0x3f3d6cf9	0.73994404
201	0xbe1e7220	-0.15473223
202	0xbe961539	-0.29313067
203	0x3f804aea	1.0022862
204	0x3ee30524	0.4433986
205	0xbe45d45a	-0.19319287
206	0x39e943d2	0.00044491753
207	0x3e14d976	0.1453608
208	0x3eece17c	0.4626578
209	0x3f3e856c	0.74422336
210	0x3f31cb59	0.6945091
211	0x3d222552	0.039586373
212	0xbea2d461	-0.31802657
213	0xbe26d944	-0.16293818
214	0x3e08704c	0.13324088
215	0xbefba58c	-0.4914974
216	0xbf2d25d9	-0.67635876
217	0x3f0ef761	0.5584622
218	0x3dac5b71	0.084158786
219	0x3eb0869d	0.34477702
220	0x3db7f1c7	0.08981662
221	0xbeab1289	-0.3341258
222	0xbe532be4	-0.20622212
223	0x3e772019	0.24133338
224	0xbec9220a	-0.39283782
225	0xbdb49905	-0.08818249
226	0x3d1d3c48	0.038387567
227	0xbe8939d3	-0.2680193
228	0x3ef0e7cb	0.47051844
229	0x3ef8b01e	0.48571867
230	0x3dcca606	0.09992604
231	0xbf156478	-0.5835643
232	0x3ee2d51e	0.4430322
233	0xbd4267c3	-0.047462236
234	0x3f9007aa	1.1252339
235	0x3e87defe	0.26537317
236	0xbc3775a5	-0.011197482
237	0x3e94af06	0.29039782
238	0x3e426f7e	0.18987843
239	0xbdef9b9e	-0.116996035
240	0x3f526b4d	0.8219498
241	0xbe869a08	-0.26289392
242	0xbd87c2f1	-0.06628979
243	0x3db7f115	0.089815296
244	0xbe8673bb	-0.2626017
245	0x3d54dd50	0.051968873
246	0x3e74d8b8	0.23910797
247	0xbf65bce5	-0.89741355
248	0x3efcd2fe	0.49379724
249	0x3ea980bb	0.33106026
250	0xbf12692b	-0.57191724
251	0xbec33159	-0.38123587
252	0x3eb469ae	0.35236877
253	0x3e260d5a	0.1621603
254	0x3f2956df	0.6614818
255	0xbdb1b151	-0.086763985

fc2.bias f4 [128]
0	0xbeaa8633	-0.3330551
1	0x3e029a3b	0.12754147
2	0xbe55b07b	-0.20868103
3	0xbe4e3c96	-0.20140299
4	0xbd387581	-0.045033935
5	0xbd2f99ce	-0.04287129
6	0x3e18bf4d	0.14916725
7	0xbea452d1	-0.32094434
8	0xbeb079c0	-0.34467888
9	0xbe1baf34	-0.15203553
10	0xbe8eff4c	-0.2792915
11	0x3e018bbc	0.1265096
12	0xbe6ebad6	-0.2331346
13	0xbd87c669	-0.066296406
14	0x3e271a27	0.1631857
15	0x3d97ca52	0.074116364
16	0x3ec082e7	0.3759987
17	0xbe9a9bad	-0.30196896
18	0xbdedf115	-0.116182484
19	0xbd788f3d	-0.060683478
20	0xbbe22ba0	-0.006902173
21	0xbdb0afe2	-0.08627297
22	0xbe0b4f90	-0.1360457
23	0x3e0bf543	0.13667779
24	0xbef87594	-0.48527205
25	0xbda2facc	-0.07957992
26	0x3e12f358	0.14350641
27	0xbd71235f	-0.058871623
28	0x3e9d64eb	0.30741057
29	0x3e0d0def	0.13774846
30	0xbe537a81	-0.206522
31	0xbe8884ff	-0.26663968
32	0xbe0f6caf	-0.14006303
33	0xbe25a75f	-0.16177128
34	0xbd06f6e6	-0.032950304
35	0xbe0d0efa	-0.13775244
36	0xbe911601	-0.283371
37	0x3ed5d043	0.41760454
38	0xbe22aa00	-0.15885162
39	0xbf02d94f	-0.51112837
40	0x3e45acbe	0.19304177
41	0x3e0ff0aa	0.1405665
42	0xbe2369de	-0.15958354
43	0xbef8cb65	-0.48592678
44	0xbf044ab6	-0.516765
45	0x3e8ff10e	0.28113598
46	0x3cd3710a	0.025810737
47	0x3e65b88e	0.22433683
48	0xbe996537	-0.29960033
49	0xbd8dc206	-0.06921773
50	0xbe95a672	-0.2922855
51	0xbac9823d	-0.0015373897
52	0xbe839e42	-0.2570668
53	0xbe0362f0	-0.1283071
54	0x3dccff3c	0.100096196
55	0xbeb3b3da	-0.35098153
56	0xbd6707a0	-0.056403756
57	0x3db389d7	0.08766525
58	0xbe9ac835	-0.3023087
59	0xbecf227e	-0.40456003
60	0xbc5ced6b	-0.013484339
61	0xbe5540e6	-0.20825538
62	0xbe674698	-0.22585523
63	0x3e254376	0.16139016
64	0xbec20d9a	-0.37901002
65	0x3de73b0c	0.11290559
66	0x3eae1bb4	0.3400551
67	0xbd075eda	-0.033049442
68	0xbcdf4b86	-0.027257692
69	0xbe9b32c9	-0.30312183
70	0x3d7958e8	0.060875803
71	0x3dc8e299	0.09808845
72	0x3ed0871c	0.4072808
73	0xbd24681b	-0.040138345
74	0xbda65edf	-0.08123564
75	0x3eadad53	0.33921298
76	0xbcc46f91	-0.02397898
77	0xbe0fa0ab	-0.14026134
78	0xbde14b2e	-0.110006675
79	0xbe864a9d	-0.262288
80	0x3deadbdd	0.11467717
81	0x3edc1c5f	0.42990395
82	0xbdd1e285	-0.10248283
83	0xbe47de03	-0.19518284
84	0xbdfaea06	-0.12251668
85	0xbf1db577	-0.6160502
86	0xbead86a4	-0.33891785
87	0xbd3aa38b	-0.045566123
88	0xbe74a477	-0.23890863
89	0xbe375e61	-0.17907096
90	0x3e9941ea	0.299331
91	0x3c1419c1	0.009039343
92	0xbe64584c	-0.22299308
93	0x3c043978	0.008070342
94	0xbe385dfd	-0.18004604
95	0x3cfdc2da	0.030976702
96	0xbe358a55	-0.1772855
97	0xbe55c788	-0.20876896
98	0x3dabbb59	0.08385343
99	0xbe99637f	-0.29958722
100	0xbed1bf63	-0.4096633
101	0x3d40c3c9	0.047061715
102	0x3df1d94f	0.118090264
103	0xbdea1794	-0.114302784
104	0x3bd0ce53	0.006372252
105	0xbe9d7fc9	-0.30761555
106	0xbe1d1da7	-0.15343343
107	0xbe9139e3	-0.28364477
108	0xbd8bb00a	-0.06820686
109	0x3cca291c	0.024677806
110	0x3d470ee2	0.048598178
111	0x3c764fe6	0.015033698
112	0xbdbdb5be	-0.0926318
113	0xbe023bfb	-0.12718193
114	0xbcc89584	-0.024485357
115	0x3dc48a59	0.095967
116	0xbe513b8a	-0.20432869
117	0x3dc62c66	0.09676437
118	0x3db0a5ed	0.08625398
119	0xbe0972d0	-0.13422704
120	0x3dedd3da	0.11612673
121	0x3e61cb21	0.22050144
122	0x3e8503e6	0.25979537
123	0xbe946922	-0.2898646
124	0xbc5b0459	-0.013367736
125	0xbde722b9	-0.1128592
126	0x3d3cb278	0.04606864
127	0xbe53fc0a	-0.20701614

out.weight f4 [5, 128]
0	0x3f730f20	0.94944954
1	0xbe30b692	-0.17257145
2	0xbe9cefdf	-0.30651757
3	0x3ebb73d3	0.36611804
4	0xbf44e22a	-0.769076
5	0xbef123ac	-0.47097528
6	0xbe02f59a	-0.12789002
7	0x3f1485e8	0.58016825
8	0x3ee7f782	0.4530602
9	0x3f141286	0.57840765
10	0x3f4bc1f4	0.79592824
11	0xbeb8c386	-0.36086673
12	0x3eacc65b	0.33745083
13	0x3d7f8ea2	0.062391885
14	0xbec69cde	-0.38791555
15	0xbf138065	-0.5761779
16	0xbeceffe8	-0.40429616
17	0x3f36e8ab	0.71448773
18	0x3f02feda	0.5117012
19	0x3f23693d	0.63832456
20	0xbcd7a251	-0.026322516
21	0x3e3c6926	0.18399486
22	0xbedeb0ae	-0.4349417
23	0x3ef98d1d	0.48740473
24	0x3f3efde5	0.7460616
25	0x3ecf58af	0.40497348
26	0xbef3cf2d	-0.47619
27	0xbe87ba5d	-0.2650937
28	0x3f39f270	0.72635555
29	0x3dfe47e9	0.124160595
30	0x3eb52e88	0.35387063
31	0x3eedd69a	0.4645279
32	0x3f16ab31	0.5885497
33	0x3ee4a7de	0.44659323
34	0x3e7592b3	0.23981743
35	0x3ebfcd7f	0.3746147
36	0x3f2036e3	0.6258375
37	0xbebeab38	-0.37240005
38	0x3dd9bb81	0.10631467
39	0x3f03f284	0.51541924
40	0xbc92fcd3	-0.017942822
41	0xbe2bd4fe	-0.16780469
42	0x3e0af405	0.13569649
43	0x3f0aa201	0.5415345
44	0x3efcab6d	0.49349537
45	0xbe1d0dd4	-0.15337306
46	0xbe2846c9	-0.16433252
47	0x3e8994e0	0.26871395
48	0x3ea3f3e4	0.3202201
49	0x3f2f745a	0.68536913
50	0x3f08cb2f	0.53435034
51	0xbec11b07	-0.37715933
52	0xbf108080	-0.56446075
53	0x3f30c103	0.6904451
54	0xbdebbb90	-0.11510384
55	0x3ee3b3a3	0.4447299
56	0x3f3accc7	0.72968715
57	0xbea0acb6	-0.31381768
58	0x3f23cd88	0.6398549
59	0x3f17d7e2	0.59313786
60	0xbef5cade	-0.48006338
61	0x3f20ac6d	0.627631
62	0x3f1e0f00	0.6174164
63	0xbe00e869	-0.12588657
64	0x3f071482	0.5276567
65	0xbe2fad04	-0.17155844
66	0xbeb9c488	-0.36282754
67	0xbeffc8fa	-0.4995802
68	0x3f231eaa	0.63718665
69	0x3ecae0d2	0.3962465
70	0x3effe970	0.49982786
71	0x3f0295ec	0.5101001
72	0x3f361633	0.71127623
73	0x3f28be66	0.65915525
74	0x3f1141b9	0.5674091
75	0xbdb9d7c8	-0.0907436
76	0xbdf5e144	-0.12005857
77	0x3f3f4401	0.7471314
78	0x3f0a987c	0.5413892
79	0x3f2c3180	0.6726303
80	0xbe8da983	-0.2766839
81	0x3f2b769b	0.6697785
82	0x3f4ad494	0.7923062
83	0x3f3f180c	0.7464607
84	0x3ec9d9f0	0.39424086
85	0x3f677206	0.9040836
86	0x3f11f123	0.5700857
87	0x3ef8c703	0.48589334
88	0x3f0ab72f	0.54185766
89	0x3eaf3af8	0.34224677
90	0xbe21923d	-0.15778442
91	0x3f43a5ac	0.7642467
92	0x3f579071	0.84204775
93	0xbf11bfc8	-0.5693326
94	0x3daa1d30	0.08306348
95	0xbe8a6b16	-0.27034825
96	0x3e270a17	0.16312443
97	0x3edcfcdf	0.43161675
98	0xbe3e007b	-0.18554871
99	0x3f19a41a	0.60016024
100	0x3f8a75a0	1.0817146
101	0x3f25a7e5	0.6470931
102	0xbe704e3a	-0.23467341
103	0xbed84392	-0.42239052
104	0xbec99ffa	-0.39379865
105	0xbf220639	-0.63290745
106	0xbdbc585a	-0.09196539
107	0x3eca2df6	0.3948819
108	0xbed489c5	-0.4151136
109	0xbe626b05	-0.22111137
110	0xbe8618b6	-0.26190728
111	0x3f0f7833	0.56042784
112	0x3f5112a0	0.81669044
113	0xbf1ca144	-0.6118357
114	0xbda8fcc5	-0.08251337
115	0xbebeb114	-0.37244475
116	0x3f2a93fc	0.66632056
117	0xbf105fb7	-0.5639605
118	0xbca1ffb5	-0.01977525
119	0xbf0f4d59	-0.559774
120	0xbe20dde1	-0.1570964
121	0xbccaf5aa	-0.024775345
122	0xbdc6d1ae	-0.09707962
123	0x3ecd46fe	0.40093225
124	0x3f494d40	0.786335
125	0x3f04c8a3	0.5186865
126	0x3f0ff06f	0.5622625
127	0x3f5c41bb	0.86037797
128	0x3ece0b38	0.40242934
129	0xbf336018	-0.700685
130	0xbef45bf4	-0.47726405
131	0x3d8c2873	0.068436526
132	0xbf6abd7a	-0.9169537
133	0xbe830811	-0.25592092
134	0xbeba6e3b	-0.36412224
135	0x3ee243ec	0.44192445
136	0x3f1f40b0	0.6220808
137	0x3ece55e4	0.40299904
138	0x3eb7204b	0.35766825
139	0xbe7d9640	-0.24764347
140	0x3e9de2aa	0.30836993
141	0xbe31a0ac	-0.17346448
142	0xbf16f069	-0.58960587
143	0xbedf8114	-0.43653166
144	0xbed5c591	-0.41752294
145	0x3f3773f7	0.71661323
146	0x3f07f200	0.5310364
147	0x3e8826bd	0.26592055
148	0xbdd918e7	-0.10600453
149	0x3ea26a14	0.31721556
150	0xbf0fd30e	-0.5618142
151	0x3e734bd5	0.23759396
152	0x3f03988e	0.51404655
153	0x3f177a4b	0.5917098
154	0xbf46c157	-0.77638763
155	0xbe507f15	-0.20360978
156	0x3f690299	0.9101959
157	0x3e944380	0.28957748
158	0x3ea24468	0.31692815
159	0x3f2677e5	0.65026695
160	0x3f0b47a1	0.5440617
161	0x3ead09d1	0.33796552
162	0x3e93ef83	0.2889367
163	0x3e9f86fd	0.31157675
164	0x3ee87b99	0.45406798
165	0xbe66b534	-0.22530061
166	0xbe7f0c78	-0.249071
167	0x3fabc3d2	1.3419135
168	0xbd7b6b5b	-0.06138168
169	0xbeb5e914	-0.35529387
170	0x3eb51246	0.35365504
171	0x3e41189f	0.18857048
172	0x3f0eba6a	0.55753195
173	0x3e912198	0.28345942
174	0xbefe1271	-0.49623445
175	0xbe228c58	-0.1587385
176	0x3ebeaf1a	0.37242967
177	0x3f0cc1b6	0.5498308
178	0x3f31c037	0.6943392
179	0xbe5a1a23	-0.21299033
180	0xbf1bf8c6	-0.60926473
181	0x3ed3832f	0.41311023
182	0xbecc5538	-0.39908767
183	0x3f0a3cbd	0.5399893
184	0x3ee798a8	0.45233655
185	0xbf11c1be	-0.5693625
186	0x3f2732b7	0.6531176
187	0x3effca70	0.49959135
188	0xbeae43bb	-0.3403605
189	0x3efd16b7	0.49431393
190	0x3f06987c	0.5257642
191	0xb9b33dc0	-0.00034187548
192	0x3f01f57a	0.5076519
193	0xbe143aa4	-0.14475495
194	0xbea26b62	-0.31722552
195	0xbefb34e9	-0.49063805
196	0x3ee2e27c	0.4431342
197	0x3e46b7a1	0.19405986
198	0x3ee1adb6	0.44077843
199	0x3f18d297	0.59696335
200	0x3f487315	0.783006
201	0x3f354dca	0.7082182
202	0x3ea60bd2	0.32430893
203	0xbd81011e	-0.06299041
204	0xbeb04c90	-0.34433413
205	0x3eab1eeb	0.33422026
206	0x3d955bb2	0.0729288
207	0x3e9a19dd	0.30097857
208	0xbf14bb83	-0.5809862
209	0x3ef6409b	0.48096165
210	0x3f1a7076	0.6032785
211	0x3f1da06d	0.61572915
212	0x3e3332a1	0.17499782
213	0x3eb80114	0.35938323
214	0x3ed7b1bf	0.42127797
215	0x3ed2628c	0.4109081
216	0x3e60d6d4	0.2195695
217	0xbd812cfc	-0.06307408
218	0xbe83e699	-0.2576187
219	0x3ed5f816	0.41790837
220	0x3e3434a7	0.1759821
221	0xbf5221d6	-0.8208288
222	0x3f16c4f9	0.58894306
223	0xbed100a4	-0.408208
224	0xbeedbcfb	-0.46433243
225	0x3f16676b	0.58751553
226	0xbf2a25e8	-0.6646409
227	0x3f322f89	0.6960378
228	0x3e36eaab	0.17862956
229	0x3ea2ccaf	0.31796786
230	0xbed909b4	-0.42390215
231	0xbeed9f3f	-0.46410558
232	0xbf697b5b	-0.9120385
233	0xbef69c33	-0.48166046
234	0xbee0d1cf	-0.4391007
235	0x3f07e227	0.53079456
236	0xbeaf1b98	-0.3420074
237	0xbf4e8a20	-0.8067951
238	0xbe4f7802	-0.20260623
239	0x3ec5adb6	0.38609093
240	0x3edba745	0.42901054
241	0xbeccd01a	-0.4000252
242	0xbf2abcf1	-0.6669455
243	0xbf038a69	-0.5138307
244	0x3eaed510	0.3414693
245	0xbef66cca	-0.48129874
246	0xbe786a1c	-0.24259228
247	0xbea43fcf	-0.32079932
248	0x3e9f4596	0.31107777
249	0xbef0c93d	-0.47028533
250	0xbee8f066	-0.4549591
251	0x3e965b45	0.29366508
252	0x3f23e63a	0.6402317
253	0x3d8edeeb	0.06976112
254	0x3d9d76da	0.07688685
255	0x3eb05383	0.34438714

out.bias f4 [5]
0	0xc02eef7b	-2.7333667
1	0x3f6f39cd	0.9344757
2	0x400e63dd	2.2248452
3	0x3ed6f823	0.41986188
4	0xbfe7a7c2	-1.8098071

exp_avg_sq f4 [128, 28]
0	0x3896434b	7.165092e-05
1	0x38069ec5	3.2095955e-05
2	0x3743ff8e	1.1682407e-05
3	0x36d4209b	6.321888e-06
4	0x369fb550	4.759677e-06
5	0x368dab2f	4.222056e-06
6	0x3693ff21	4.4106423e-06
7	0x36b460d8	5.375692e-06
8	0x370c4d93	8.362712e-06
9	0x378fed47	1.715742e-05
10	0x383eaaa6	4.545846e-05
11	0x38c9b943	9.6189346e-05
12	0x372078e0	9.564887e-06
13	0x37462def	1.1812414e-05
14	0x379e1fe7	1.8849923e-05
15	0x3830f5df	4.2190655e-05
16	0x38ea89b2	0.00011183637
17	0x362bccd9	2.5600223e-06
18	0x351fc414	5.9517447e-07
19	0x350d1af7	5.256583e-07
20	0x35432adb	7.2705524e-07
21	0x35fff699	1.907075e-06
22	0x378e8b9b	1.6992728e-05
23	0x38991e9f	7.301312e-05
24	0x34971370	2.8140084e-07
25	0x3887944d	6.464925e-05
26	0x34dfe639	4.1704496e-07
27	0x3b4fdf4c	0.0031718789
28	0x4634bf6f	11567.858
29	0x45dc16b1	7042.8364
30	0x456b0443	3760.2664
31	0x44dd3919	1769.7843
32	0x447b7051	1005.75494
33	0x448b0c34	1112.3813
34	0x4478a4aa	994.5729
35	0x4459359b	868.8376
36	0x449e2cdd	1265.402
37	0x44de5c6f	1778.8885
38	0x45388ac6	2952.6733
39	0x458f58bc	4587.092
40	0x4595e327	4796.394
41	0x453c4079	3012.0295
42	0x44b2bc1c	1429.8784
43	0x44780811	992.12604
44	0x44705589	961.3365
45	0x441f0bc6	636.18396
46	0x44185c9b	609.44696
47	0x4453b644	846.8479
48	0x44881ba3	1088.8636
49	0x45009fbf	2057.9841
50	0x45e2311c	7238.1387
51	0x4634ce37	11571.554
52	0x43a227b2	324.31012
53	0x47575773	55127.45
54	0x4333875a	179.52872
55	0x489e8ba7	324701.22
56	0x36129706	2.1843603e-06
57	0x36a4d27e	4.9120854e-06
58	0x37c21219	2.313503e-05
59	0x39d53463	0.00040665557
60	0x39ec674c	0.0004509039
61	0x38e3c448	0.00010860764
62	0x38729763	5.7838286e-05
63	0x38323435	4.248713e-05
64	0x38162f71	3.580697e-05
65	0x38130b65	3.5058143e-05
66	0x382ebf00	4.1662715e-05
67	0x386a1b68	5.581547e-05
68	0x395e3464	0.00021191087
69	0x392aebae	0.00016300261
70	0x3919031c	0.00014592375
71	0x37f1f11f	2.884172e-05
72	0x36b1e57e	5.3017275e-06
73	0x3607d661	2.0241353e-06
74	0x35b4d6b9	1.3473538e-06
75	0x359166e1	1.0833284e-06
76	0x3594f5a6	1.1098352e-06
77	0x35b89a8b	1.3754046e-06
78	0x35c972e3	1.5009103e-06
79	0x36114422	2.1646342e-06
80	0x39bd8885	0.00036150604
81	0x3a22398c	0.0006188385
82	0x358c4540	1.0450967e-06
83	0x3c895beb	0.016767463
84	0x45f5b7d0	7862.9766
85	0x45cbafc1	6517.969
86	0x45fcd169	8090.1763
87	0x4625a465	10601.099
88	0x46cc965c	26187.18
89	0x48120d03	149556.05
90	0x481f74b9	163282.89
91	0x49831f68	1.074157e+06
92	0x496bbb9d	965561.8
93	0x48674ecf	236859.23
94	0x488402f0	270359.5
95	0x491d1fcb	643580.7
96	0x49aa18bf	1.3934319e+06
97	0x4949b347	826164.44
98	0x47793636	63798.21
99	0x479ba225	79684.29
100	0x47f5d4d2	125865.64
101	0x489176cd	297910.4
102	0x49732c87	996040.44
103	0x491ad9ef	634270.94
104	0x47a5a800	84816.0
105	0x47e3a920	116562.25
106	0x476bad7c	60333.484
107	0x45f96108	7980.129
108	0x483c7797	192990.36
109	0x49771b12	1.0121451e+06
110	0x45b83a80	5895.3125
111	0x4a649885	3.7453132e+06
112	0x43cb4c3c	406.59558
113	0x4396191e	300.19623
114	0x443c5ca4	753.4475
115	0x4484d0d8	1062.5264
116	0x44e94970	1866.2949
117	0x4631213f	11336.312
118	0x4607f802	8702.002
119	0x464a7026	12956.037
120	0x4636a505	11689.255
121	0x454a4515	3236.3176
122	0x458c048c	4480.5684
123	0x4679200c	15944.012
124	0x468888f6	17476.48
125	0x463e0818	12162.023
126	0x452fe955	2814.5833
127	0x44cc42aa	1634.0833
128	0x44c3865c	1564.1987
129	0x45328f99	2856.9749
130	0x461de2f4	10104.738
131	0x460b6d53	8923.331
132	0x458f94c2	4594.5947
133	0x46129da6	9383.412
134	0x45ac6915	5517.1353
135	0x43cda949	411.32254
136	0x450ffce3	2303.8054
137	0x47029877	33432.465
138	0x4309ce70	137.8064
139	0x48a45319	336536.78
140	0x458e7884	4559.0645
141	0x4568d9d9	3725.6155
142	0x4594ccbe	4761.593
143	0x46037bf0	8414.984
144	0x461b1ad6	9926.709
145	0x47181dee	38941.93
146	0x478d8512	72458.14
147	0x491bbd2d	637906.8
148	0x49084494	558153.25
149	0x48029066	133697.6
150	0x480e29a5	145574.58
151	0x48a1223c	330001.88
152	0x4943ca50	801957.0
153	0x48ea00e3	479239.1
154	0x47053ba7	34107.652
155	0x472ba699	43942.598
156	0x478b9710	71470.125
157	0x48290e82	173114.03
158	0x490dc990	580761.0
159	0x48b45023	369281.1
160	0x472fabed	44971.926
161	0x4712333a	37427.227
162	0x46d78caf	27590.342
163	0x458fc123	4600.142
164	0x47dc9978	112946.94
165	0x490509bc	544923.75
166	0x455b0fb7	3504.9822
167	0x4856b187	219846.11
168	0x24121689	3.167779e-17
169	0x242588a1	3.58944e-17
170	0x247ee7f4	5.5273942e-17
171	0x25277439	1.4524319e-16
172	0x25c4a2b4	3.4110832e-16
173	0x25418598	1.6785345e-16
174	0x270f04fa	1.9847934e-15
175	0x2720551a	2.2250594e-15
176	0x26ab8c02	1.1903458e-15
177	0x2647a7ea	6.926956e-16
178	0x26203928	5.558861e-16
179	0x2617d4dd	5.267713e-16
180	0x260438b4	4.5873547e-16
181	0x260e0ba3	4.928192e-16
182	0x26469b8c	6.8905855e-16
183	0x26b20ae7	1.2354186e-15
184	0x27832f21	3.64109e-15
185	0x280ef60c	7.935936e-15
186	0x252bb551	1.4893318e-16
187	0x23bfec15	2.0808246e-17
188	0x24a0aed2	6.9685096e-17
189	0x24652e12	4.9695483e-17
190	0x242e34dc	3.777501e-17
191	0x241cb6ae	3.3981843e-17
192	0x2630d9a0	6.1357203e-16
193	0x28d09c87	2.3160522e-14
194	0x2381ece8	1.4086542e-17
195	0x2a88031e	2.4160616e-13
196	0x461d8644	10081.566
197	0x47b3d970	92082.875
198	0x482516b1	169050.77
199	0x47f7c5ab	126859.336
200	0x4734d745	46295.27
201	0x46c231d9	24856.924
202	0x468cb4c2	18010.379
203	0x468cdbfb	18029.99
204	0x46e6dc50	29550.156
205	0x470642c2	34370.758
206	0x475969a2	55657.633
207	0x477cf521	64757.13
208	0x47942a19	75860.195
209	0x477579ad	62841.676
210	0x46d4f578	27258.734
211	0x46765c6c	15767.105
212	0x45d8a167	6932.1753
213	0x45eacba4	7513.455
214	0x461f1120	10180.281
215	0x4488d2da	1094.5891
216	0x447874a0	993.82227
217	0x44a09753	1284.7289
218	0x451172ff	2327.1873
219	0x461f6f6d	10203.856
220	0x463c40ca	12048.197
221	0x48f6b1cf	505230.47
222	0x444c9f54	818.4895
223	0x4af6e1ab	8.0898135e+06
224	0x47501b11	53275.066
225	0x471eb2cf	40626.81
226	0x4727367f	42806.496
227	0x4705863f	34182.246
228	0x469f806a	20416.207
229	0x465beac3	14074.69
230	0x46174e32	9683.549
231	0x460b5bf3	8918.987
232	0x46386f73	11803.862
233	0x466dba2f	15214.546
234	0x46d15d9a	26798.8
235	0x4709d59c	35285.61
236	0x470e8bfd	36491.99
237	0x46e1b29e	28889.309
238	0x4687d6e2	17387.441
239	0x4624a84d	10538.075
240	0x45e1f2ef	7230.3667
241	0x45ad69f4	5549.244
242	0x45d577dd	6830.983
243	0x46167ae7	9630.726
244	0x465e4a85	14226.63
245	0x46b7ed70	23542.719
246	0x471fb97a	40889.477
247	0x475030db	53296.855
248	0x454d8eba	3288.9204
249	0x48d14ef5	428663.66
250	0x44ae7f9f	1395.9882
251	0x4a3e9dde	3.1230635e+06
252	0x257eb729	2.2093045e-16
253	0x2566aeed	2.0008587e-16
254	0x2576129e	2.1343407e-16
255	0x257cb0d3	2.1917426e-16

exp_avg f4 [128, 28]
0	0x00000004	6e-45
1	0x00000004	6e-45
2	0x00000004	6e-45
3	0x00000004	6e-45
4	0x00000004	6e-45
5	0x00000004	6e-45
6	0x00000004	6e-45
7	0x00000004	6e-45
8	0x00000004	6e-45
9	0x00000004	6e-45
10	0x00000004	6e-45
11	0x00000004	6e-45
12	0x00000004	6e-45
13	0x00000004	6e-45
14	0x00000004	6e-45
15	0x00000004	6e-45
16	0x00000004	6e-45
17	0x00000004	6e-45
18	0x00000004	6e-45
19	0x00000004	6e-45
20	0x00000004	6e-45
21	0x00000004	6e-45
22	0x00000004	6e-45
23	0x00000004	6e-45
24	0x00000004	6e-45
25	0x00000004	6e-45
26	0x00000004	6e-45
27	0x00000004	6e-45
28	0x41ab8600	21.44043
29	0x41b54208	22.657242
30	0x415b6bf4	13.713856
31	0x409d01ae	4.906455
32	0x408f19b7	4.471889
33	0x409b9feb	4.863271
34	0x3e6289d4	0.2212289
35	0x40714a3b	3.7701557
36	0x40ca2ce3	6.3179793
37	0x4116b0a5	9.418126
38	0x411bd6ba	9.7399235
39	0x411b2ffe	9.699217
40	0x414ade53	12.679278
41	0x417a0d6c	15.628277
42	0x4112312a	9.137003
43	0x40db5780	6.854431
44	0x40f2b1fb	7.584226
45	0x40ead19b	7.3380866
46	0x40c1d498	6.0572014
47	0x40e226ba	7.0672274
48	0x40ead6fa	7.3387423
49	0x4114eccf	9.307815
50	0x419329fb	18.395498
51	0x41abfcca	21.498432
52	0xbf9ece49	-1.2406703
53	0x4281d436	64.914474
54	0x40574ef4	3.364194
55	0x42d18c67	104.77422
56	0x00000004	6e-45
57	0x00000004	6e-45
58	0x00000004	6e-45
59	0x00000004	6e-45
60	0x00000004	6e-45
61	0x00000004	6e-45
62	0x00000004	6e-45
63	0x00000004	6e-45
64	0x00000004	6e-45
65	0x00000004	6e-45
66	0x00000004	6e-45
67	0x00000004	6e-45
68	0x00000004	6e-45
69	0x00000004	6e-45
70	0x00000004	6e-45
71	0x00000004	6e-45
72	0x00000004	6e-45
73	0x00000004	6e-45
74	0x00000004	6e-45
75	0x00000004	6e-45
76	0x00000004	6e-45
77	0x00000004	6e-45
78	0x00000004	6e-45
79	0x00000004	6e-45
80	0x00000004	6e-45
81	0x00000004	6e-45
82	0x00000004	6e-45
83	0x00000004	6e-45
84	0xc0821866	-4.0654783
85	0xc036e3a6	-2.8576446
86	0xc017b3c7	-2.3703477
87	0xc07dd14c	-3.9658995
88	0xc0943cf8	-4.6324425
89	0xc1303d39	-11.014947
90	0xc10c6dd3	-8.776813
91	0xc1024bbb	-8.143489
92	0xc0cdd84c	-6.4326534
93	0xc0fcd2fd	-7.9007554
94	0xc116a8fe	-9.416258
95	0xc04ea6be	-3.2289271
96	0xc00a1976	-2.157804
97	0xbfdb1026	-1.7114303
98	0xbfc5616b	-1.5420355
99	0xbfc6e7f1	-1.5539533
100	0xbfde6876	-1.7375629
101	0xc01931f4	-2.393674
102	0xc0734adc	-3.801444
103	0xc08e9ec5	-4.456881
104	0xc095408a	-4.6641283
105	0xc12375dc	-10.216274
106	0xc1009480	-8.036255
107	0xc080bbfb	-4.022947
108	0xc11d36e8	-9.825905
109	0xc178e4db	-15.555873
110	0xbfad63b9	-1.3546058
111	0xc23b2510	-46.786194
112	0xc0363845	-2.8471844
113	0xc0459a00	-3.0875244
114	0xc10343fc	-8.204098
115	0xc114209c	-9.257961
116	0xc1236c00	-10.213867
117	0xc176c946	-15.424139
118	0xc12e8fdc	-10.910122
119	0xc0e7f1d4	-7.24827
120	0xc0d26cb0	-6.5757675
121	0xc0cd620d	-6.418219
122	0xc0d4f84f	-6.655311
123	0xc0fea754	-7.957926
124	0xc15d67d4	-13.837849
125	0xc14cf42c	-12.809612
126	0xc15372e0	-13.215546
127	0xc10e8d0b	-8.909434
128	0xc0ab6530	-5.356102
129	0xc0980011	-4.750008
130	0xc0868e58	-4.204876
131	0xc0aae7d0	-5.3407974
132	0xc0db436e	-6.851981
133	0xc0880451	-4.250527
134	0xc051adc1	-3.27623
135	0xc0373aef	-2.862972
136	0xbff3d5e7	-1.9049653
137	0xc1d5ce67	-26.725782
138	0xbfd4ebb8	-1.6634436
139	0xc30dac6c	-141.67352
140	0xbf290f10	-0.6603861
141	0xbf0f6a09	-0.5602117
142	0xbf13919b	-0.5764405
143	0xc04abdf3	-3.1678436
144	0xc01a274e	-2.408649
145	0x3ed746e4	0.42046273
146	0xc0511b47	-3.2672899
147	0xc0926b65	-4.5756097
148	0xbfb5113d	-1.4145886
149	0xbf3fafb3	-0.7487747
150	0xbebb07d1	-0.365294
151	0xbeb042fb	-0.34426102
152	0xbf2d898a	-0.6778799
153	0xbf035ae1	-0.51310545
154	0xbefdea6f	-0.4959292
155	0xbf1925fa	-0.5982357
156	0xbf3c769d	-0.7361849
157	0xbfa34b17	-1.2757291
158	0xc0276c61	-2.61599
159	0xbfb2974a	-1.395242
160	0x3e3028ae	0.17203018
161	0xc097e622	-4.7468424
162	0xbf6e5842	-0.9310342
163	0xbf2273d3	-0.63457984
164	0xc0359769	-2.8373663
165	0xc06b4506	-3.6760879
166	0xbf08ef39	-0.53490025
167	0xc0adfc96	-5.4370832
168	0x00000004	6e-45
169	0x00000004	6e-45
170	0x00000004	6e-45
171	0x00000004	6e-45
172	0x00000004	6e-45
173	0x00000004	6e-45
174	0x00000004	6e-45
175	0x00000004	6e-45
176	0x00000004	6e-45
177	0x00000004	6e-45
178	0x00000004	6e-45
179	0x00000004	6e-45
180	0x00000004	6e-45
181	0x00000004	6e-45
182	0x00000004	6e-45
183	0x00000004	6e-45
184	0x00000004	6e-45
185	0x00000004	6e-45
186	0x00000004	6e-45
187	0x00000004	6e-45
188	0x00000004	6e-45
189	0x00000004	6e-45
190	0x00000004	6e-45
191	0x00000004	6e-45
192	0x80000004	-6e-45
193	0x00000004	6e-45
194	0x00000004	6e-45
195	0x00000004	6e-45
196	0x41e221ff	28.2666
197	0x42ac3fa8	86.12433
198	0x40ddc935	6.9308114
199	0xc1442386	-12.258673
200	0xc0b5ed9f	-5.6852565
201	0xbf9d6a52	-1.2298071
202	0x3ed97e41	0.42479137
203	0x40fa76f2	7.8270197
204	0x41f21826	30.261791
205	0xc24f7f21	-51.87415
206	0x3ff999be	1.9500043
207	0x41a719b8	20.887558
208	0x410edfa7	8.929603
209	0x415f7c04	13.967777
210	0xc19c32f3	-19.524878
211	0xc1c15016	-24.164104
212	0xbfb0739d	-1.3785282
213	0x40dc1418	6.877453
214	0x4194a926	18.582592
215	0x40c72b13	6.224008
216	0x409551cd	4.6662354
217	0x40bf71ed	5.982657
218	0x41173ad2	9.45186
219	0x41e434bb	28.525747
220	0xc19795f9	-18.948229
221	0x429b10dd	77.532936
222	0x40625c67	3.5368898
223	0x433b17cb	187.09294
224	0x42634a36	56.82247
225	0x42717632	60.365425
226	0x41dcdae4	27.60688
227	0x41a56a49	20.676897
228	0x41cfce78	25.975815
229	0x41a5f5a8	20.74495
230	0x40a898d0	5.268654
231	0x41905c4c	18.045067
232	0x41c72710	24.894073
233	0xbfd6eaf6	-1.6790454
234	0x420c895a	35.134132
235	0x423c30f6	47.047813
236	0x422f2b27	43.79214
237	0x421f940b	39.894573
238	0x417acc57	15.674888
239	0x412b5eed	10.710675
240	0x41962030	18.765717
241	0x41a2b763	20.339544
242	0x41a5dcdf	20.732847
243	0x41ad9b73	21.700903
244	0x42156035	37.343952
245	0x42406455	48.09798
246	0x426810bc	58.016342
247	0x42638ad1	56.885563
248	0x3f2aceed	0.66721994
249	0x431a5eff	154.37108
250	0x411bad7b	9.729854
251	0x437bf596	251.95932
252	0x00000004	6e-45
253	0x00000004	6e-45
254	0x00000004	6e-45
255	0x00000004	6e-45

exp_avg_sq f4 [5, 128]
0	0x41fe456d	31.7839
1	0x41ae5cfa	21.795399
2	0x41983c59	19.029467
3	0x41c1e0e2	24.234806
4	0x41a3cf19	20.476122
5	0x41f9b8a8	31.215164
6	0x41a0cffa	20.101551
7	0x42214216	40.314537
8	0x41d3a425	26.455149
9	0x41cf626d	25.92306
10	0x4216fbf4	37.746048
11	0x41fe3825	31.777414
12	0x41ae75a2	21.807438
13	0x410ed595	8.927144
14	0x41f9da0f	31.231474
15	0x41c68b35	24.817972
16	0x41fcf295	31.618448
17	0x41caea5b	25.364431
18	0x41e9069b	29.128225
19	0x42094004	34.312515
20	0x41967005	18.804697
21	0x41a35b14	20.419472
22	0x41ccb094	25.58622
23	0x41f30b3a	30.380482
24	0x419a349d	19.27569
25	0x4226c38d	41.690968
26	0x41e61f21	28.7652
27	0x4197bf4d	18.968409
28	0x412cf578	10.809929
29	0x41a97260	21.180847
30	0x41a9fe54	21.249184
31	0x4221fbaa	40.495766
32	0x41ed6119	29.672411
33	0x41e0e175	28.110086
34	0x420420e7	33.03213
35	0x41ecfcf1	29.623507
36	0x41e0b445	28.088022
37	0x42021992	32.52497
38	0x41880845	17.004038
39	0x417f1791	15.9432535
40	0x4195c6bf	18.722044
41	0x41b2016b	22.250692
42	0x41939626	18.448315
43	0x41dda576	27.705791
44	0x41c42bd3	24.521399
45	0x4196ac1e	18.834042
46	0x416b3853	14.701251
47	0x4054b9ab	3.3238323
48	0x41dbee96	27.491497
49	0x41ee2d43	29.7721
50	0x41fe2ded	31.772425
51	0x41922553	18.268225
52	0x420e91d1	35.6424
53	0x4205bcfd	33.43456
54	0x41ee0ee7	29.757277
55	0x420c2f53	35.046215
56	0x423e9b75	47.651814
57	0x41928efe	18.31982
58	0x425be159	54.970066
59	0x41e27687	28.307875
60	0x41c558c8	24.66835
61	0x423cf003	47.234386
62	0x421082df	36.127804
63	0x416c6763	14.775241
64	0x424285ef	48.630795
65	0x41d7f6cc	26.995506
66	0x41ed74a7	29.68196
67	0x41cafb35	25.37266
68	0x421f471e	39.81945
69	0x41a1551b	20.166555
70	0x420b67da	34.851418
71	0x4187115f	16.883482
72	0x4019e2ba	2.4044633
73	0x41af5350	21.91568
74	0x4221121b	40.26768
75	0x41bcb5c2	23.588749
76	0x41a95ed8	21.17131
77	0x41b272a9	22.305986
78	0x413890b7	11.535331
79	0x422e7f38	43.624237
80	0x41ae3f2e	21.78085
81	0x41fe8dff	31.819334
82	0x4239949d	46.39513
83	0x42082a34	34.041214
84	0x421120c1	36.281986
85	0x41013502	8.075441
86	0x4207c40c	33.941452
87	0x41de57d4	27.792885
88	0x41ed5549	29.666643
89	0x41628ecb	14.159862
90	0x411f00fe	9.937742
91	0x423360ef	44.84466
92	0x42007163	32.11073
93	0x41e65b87	28.794691
94	0x41ff5396	31.915813
95	0x41ac651d	21.549372
96	0x410df669	8.872659
97	0x42150c2a	37.26188
98	0x41393fb7	11.578055
99	0x41fb7ec1	31.436892
100	0x4238354b	46.052044
101	0x41ad6f35	21.6793
102	0x419c5747	19.542616
103	0x4204131a	33.018654
104	0x41867fc5	16.812387
105	0x4196a3c8	18.829971
106	0x417e995f	15.912444
107	0x41e8aaa2	29.083317
108	0x41a04051	20.031404
109	0x41922155	18.266275
110	0x42057a4e	33.36944
111	0x41c48467	24.56465
112	0x421430ec	37.047775
113	0x421129d5	36.29085
114	0x41c00f07	24.007338
115	0x41fe22e6	31.76704
116	0x41a33666	20.401562
117	0x421555e0	37.333862
118	0x41e3fd85	28.498789
119	0x41b27b0c	22.310081
120	0x41a9b585	21.213633
121	0x41b2e034	22.359474
122	0x4205e2c2	33.471443
123	0x4210acf7	36.16891
124	0x41f71001	30.882814
125	0x41d4d3d5	26.603434
126	0x41ffa700	31.956543
127	0x41482906	12.5100155
128	0x469b4997	19876.795
129	0x460249ed	8338.481
130	0x4638ec4d	11835.075
131	0x46197f43	9823.815
132	0x4649bfde	12911.967
133	0x466d8a31	15202.548
134	0x46162221	9608.532
135	0x46b6334f	23321.654
136	0x4687b399	17369.799
137	0x46a66a55	21301.166
138	0x46e0fde7	28798.951
139	0x4650e00f	13368.015
140	0x4656fc8d	13759.138
141	0x456b9a8a	3769.6587
142	0x469e2a3e	20245.121
143	0x460492c0	8484.6875
144	0x469952e2	19625.441
145	0x46ba70c9	23864.393
146	0x46870636	17283.105
147	0x46b6796e	23356.715
148	0x461abb0f	9902.765
149	0x467c117c	16132.371
150	0x4699fbe9	19709.955
151	0x4698bb09	19549.518
152	0x464f8aab	13282.667
153	0x46f3b6bf	31195.373
154	0x4692fa9f	18813.31
155	0x461cd9c8	10038.445
156	0x4615891a	9570.275
157	0x463e6123	12184.284
158	0x46503558	13325.336
159	0x46b27411	22842.033
160	0x46da98ca	27980.395
161	0x46907ad9	18493.424
162	0x469d0b2c	20101.586
163	0x4689e417	17650.045
164	0x4678d7cc	15925.949
165	0x46739661	15589.595
166	0x46074650	8657.578
167	0x461f15ba	10181.432
168	0x45899969	4403.1763
169	0x467a76dc	16029.715
170	0x4602a6cc	8361.699
171	0x465c0f95	14083.8955
172	0x4666f764	14781.848
173	0x459462d3	4748.353
174	0x45f7dff2	7931.993
175	0x44e69fa4	1844.9888
176	0x4665224f	14664.577
177	0x469f791f	20412.56
178	0x4691e584	18674.758
179	0x4640b5f4	12333.488
180	0x4695bca7	19166.326
181	0x4684082a	16900.082
182	0x46145565	9493.349
183	0x4680c59c	16482.805
184	0x4701e0fc	33248.984
185	0x460a11b4	8836.426
186	0x46ea720c	30009.023
187	0x46a12673	20627.225
188	0x46625aff	14486.749
189	0x46d52d01	27286.502
190	0x46a944c9	21666.393
191	0x458b4bc5	4457.471
192	0x46e44a52	29221.16
193	0x462076a6	10269.662
194	0x4646b5a0	12717.406
195	0x46677c34	14815.051
196	0x46b0be5c	22623.18
197	0x464699a2	12710.408
198	0x46fc8570	32322.719
199	0x461a1882	9862.127
200	0x45148c49	2376.7678
201	0x468a05b6	17666.855
202	0x46b4dc06	23150.012
203	0x45eb20f7	7524.1206
204	0x460c7381	8988.876
205	0x46443de0	12559.469
206	0x45f75468	7914.551
207	0x46a3e4f6	20978.48
208	0x4614f749	9533.821
209	0x46b02b6c	22549.71
210	0x46cdc13b	26336.615
211	0x46b9347d	23706.244
212	0x465cb1f2	14124.486
213	0x45e872b1	7438.3364
214	0x4686428d	17185.275
215	0x464cc596	13105.396
216	0x466f6dd2	15323.455
217	0x45ec61ff	7564.2495
218	0x45ac8bbb	5521.4663
219	0x46ff4ecc	32679.398
220	0x46a1796e	20668.715
221	0x4685c933	17124.6
222	0x468d23e5	18065.947
223	0x460ab339	8876.806
224	0x44e6f519	1847.6593
225	0x46b919d7	23692.92
226	0x45e1f317	7230.386
227	0x46c88948	25668.64
228	0x46baeec6	23927.387
229	0x468b895c	17860.68
230	0x463b0622	11969.533
231	0x46b7e5b3	23538.85
232	0x46789f05	15911.755
233	0x4655f15d	13692.341
234	0x45df3ee7	7143.863
235	0x469d4962	20132.691
236	0x4614af57	9515.835
237	0x46797970	15966.359
238	0x463d8134	12128.301
239	0x468c5b28	17965.578
240	0x465fe6ca	14329.697
241	0x469e6188	20272.766
242	0x46124074	9360.113
243	0x4672dae8	15542.727
244	0x464bd6b7	13045.679
245	0x46925ef2	18735.473
246	0x4624d15a	10548.338
247	0x4612ef4d	9403.825
248	0x4608e013	8760.019
249	0x4622acad	10411.169
250	0x461dbaf0	10094.734
251	0x469729f9	19348.986
252	0x46c7e072	25584.223
253	0x467416b0	15621.672
254	0x4691a77a	18643.738
255	0x463b2119	11976.274
