model/600a.pt (torch_old, 336851 bytes, 24 tensors)

fc1.weight f4 [128, 28]
0	0x3cba2e3d	0.022727126
1	0x3e7306f2	0.23733118
2	0xbe3168bc	-0.17325109
3	0xbd080704	-0.033209816
4	0xbeb3cefc	-0.35118854
5	0xbee702de	-0.45119375
6	0xbe1220bf	-0.14270304
7	0xbe57ed86	-0.21086702
8	0xbe890675	-0.2676274
9	0x3df87e88	0.12133509
10	0x3e8ece40	0.2789173
11	0xbe841c4b	-0.25802836
12	0xbde87e88	-0.11352259
13	0x3cf2cc1e	0.029638346
14	0x3e91c975	0.28474012
15	0x3eab0636	0.33403176
16	0x3ec15e22	0.3776713
17	0xbc6bcbbc	-0.014391836
18	0xbfa1a4dd	-1.2628437
19	0xc02a298c	-2.6587858
20	0xbff95602	-1.9479373
21	0xbfec3b43	-1.8455585
22	0xbe81cf26	-0.25353354
23	0x3e186002	0.14880374
24	0x3eb36d19	0.35044172
25	0xbe183ac9	-0.14866175
26	0xc0126bc8	-2.2878284
27	0x3c48b2c6	0.012249654
28	0x3f592b4a	0.8483168
29	0x3f6df9fd	0.92959577
30	0x3e1d703d	0.15374847
31	0x3d19c006	0.037536643
32	0xbe82119b	-0.25404057
33	0xbe921adc	-0.28536117
34	0xbe374f44	-0.17901331
35	0x3e520ae5	0.20511968
36	0x3cb4ba2e	0.022061434
37	0x3e508ee7	0.20367013
38	0x3d4a2a22	0.049356587
39	0xbe03723a	-0.12836543
40	0xbeb09793	-0.34490642
41	0xbf0d0b84	-0.55095696
42	0xbe01832f	-0.12647699
43	0xbe5ed208	-0.21759808
44	0x3d2d84c7	0.042362954
45	0xbf0b9422	-0.5452291
46	0xbf041b38	-0.5160403
47	0xbda96a8d	-0.08272276
48	0x3dfb5451	0.122719415
49	0x3dd42ca4	0.10360077
50	0xbe1b2b64	-0.15153271
51	0x3f3d372a	0.739123
52	0x3f1623d3	0.58648413
53	0xbe568ba3	-0.20951705
54	0x3f81165c	1.0084949
55	0x3c2c65b0	0.010522291
56	0xbfbeb8ca	-1.4900143
57	0xbf98ee92	-1.1947806
58	0xbef94a61	-0.4868956
59	0x3dfe714b	0.12423953
60	0x3b55e172	0.0032635597
61	0xbd5c5d77	-0.053800073
62	0x3d6d012a	0.05786244
63	0xbdb62e7c	-0.08895585
64	0xbd9fb622	-0.07798411
65	0xbcb86889	-0.022510784
66	0x3b346327	0.002752492
67	0x3ebf1d4f	0.37327048
68	0x3d6a62dd	0.05722319
69	0xbdde109d	-0.108430125
70	0xbe153835	-0.14572223
71	0xbe01b75f	-0.12667607
72	0xbef12043	-0.47094926
73	0xbf487d13	-0.7831585
74	0xbf16f431	-0.58966357
75	0xbf44b4d8	-0.76838446
76	0xbe9de2ad	-0.30837002
77	0xbebd5fa7	-0.3698704
78	0xbf713d62	-0.9423429
79	0xbfd83ab2	-1.6892912
80	0xbe22345a	-0.15840283
81	0x3e2b079e	0.16702124
82	0xbfe092f2	-1.7544844
83	0x3d28772d	0.04112928
84	0xbf4375e3	-0.76351756
85	0xbf8cf115	-1.1011072
86	0xbf3f8240	-0.7480812
87	0xbf50b36b	-0.8152377
88	0xbe015b9a	-0.126326
89	0xbdbdff15	-0.09277169
90	0xbc61c14f	-0.0137789985
91	0x3e235c25	0.15953119
92	0x3e8dff31	0.27733758
93	0x3ea92a0e	0.33039898
94	0x3ee78641	0.45219615
95	0x3ed977b8	0.4247415
96	0x3dd27b0a	0.10277374
97	0xbdc62361	-0.09674717
98	0xbe3f0ec8	-0.18657982
99	0xbe1581da	-0.14600316
100	0x3df70718	0.120619
101	0x3d6169c1	0.055032495
102	0x3f09647c	0.5366895
103	0x3d4f5678	0.050619572
104	0x3d9e9fbe	0.07745312
105	0x3e323daf	0.17406343
106	0xbe5f55d3	-0.21810083
107	0xbf7127cb	-0.94201344
108	0x3f8599e0	1.0437584
109	0xbd9bd762	-0.076094404
110	0xbfc4090d	-1.5315262
111	0xbd0b70cd	-0.034043122
112	0xbf45e6e3	-0.7730543
113	0xbf865392	-1.0494254
114	0xbe8ff5fd	-0.28117362
115	0xbe64f907	-0.22360621
116	0x3d56fc6d	0.052486826
117	0x3ead2900	0.33820343
118	0x3e99fd6f	0.30076167
119	0x3e9a8f0d	0.30187264
120	0x3edeabb9	0.4349039
121	0x3ea33e4b	0.31883463
122	0xbe2bdac2	-0.16782668
123	0x3e08d475	0.13362296
124	0x3f03dd75	0.5150979
125	0x3ec5f420	0.38662815
126	0x3f01898d	0.5060051
127	0x3f072272	0.52786934
128	0xbf019d29	-0.5063043
129	0xbf406ace	-0.7516297
130	0x3c0679a3	0.008207711
131	0x3dc8ab2b	0.09798273
132	0xbd024cb2	-0.031811424
133	0x3e459670	0.19295669
134	0x3e9cffab	0.3066381
135	0xbf4d757d	-0.802574
136	0x3cfa67a4	0.030566998
137	0xbebe59d8	-0.3717792
138	0xbfd443aa	-1.658315
139	0x3c6b5e25	0.0143657075
140	0xbf9a3477	-1.2047261
141	0xbfc1dd46	-1.5145652
142	0xbf9f0e71	-1.2426282
143	0x3e8e526f	0.27797267
144	0x3c9f48ba	0.019443858
145	0xbe2744bc	-0.16334814
146	0x3e50e9c2	0.20401672
147	0x3e56b208	0.20966351
148	0x3e8717f5	0.26385465
149	0x3ea5a3b9	0.32351473
150	0x3e6c08f3	0.23050289
151	0x3d3a5d59	0.04549918
152	0x3d183853	0.03716309
153	0xbe6c4639	-0.23073663
154	0x3dd34090	0.10315049
155	0x3ecdd8fa	0.40204602
156	0x3dfc61d3	0.12323346
157	0x3e3048bb	0.17215244
158	0x3dfaabc3	0.12239792
159	0x3e554e36	0.20830616
160	0xbdcd4424	-0.100227624
161	0x3d9b91b4	0.0759615
162	0xbea68c09	-0.32528713
163	0xbfaa064a	-1.3283169
164	0x3f1e816f	0.6191625
165	0x3e1d8e54	0.15386325
166	0xbfa3230d	-1.2745072
167	0xbe43d58b	-0.19124429
168	0xbf6d6b1e	-0.9274157
169	0x3c2d9209	0.0105938995
170	0xbdff5b1f	-0.12468552
171	0xbe229ec3	-0.15880875
172	0x3e1d0800	0.15335083
173	0xbc928e57	-0.017890139
174	0x3e5915ff	0.21199797
175	0x3df750dc	0.120759696
176	0x3e5a4fbc	0.21319479
177	0x3dbd4dfd	0.09243391
178	0x3e871048	0.2637961
179	0xbd66b943	-0.056329023
180	0xbe728a77	-0.23685633
181	0xbdbfc5d7	-0.09363907
182	0xbe70c3a6	-0.23512134
183	0xbe6e1dc6	-0.23253545
184	0xbe2aea8a	-0.16691032
185	0x3dc05b5e	0.09392427
186	0xbcfc2aa7	-0.030782057
187	0xbedf22ed	-0.43581334
188	0xbe8394f5	-0.25699583
189	0x3d0c68be	0.034279577
190	0xbf45e806	-0.77307165
191	0xbf8c37a4	-1.095448
192	0xbe1b7bc4	-0.15183932
193	0x3c826363	0.015916532
194	0xbfb00f80	-1.375473
195	0xbd507f28	-0.050902516
196	0xbf1365e0	-0.57577324
197	0x3e5cf706	0.21578607
198	0xbd35b2c5	-0.04435994
199	0xbd3ecec3	-0.046583902
200	0xbe372045	-0.17883404
201	0x3e35de77	0.17760645
202	0x3da96935	0.0827202
203	0xbdb25b88	-0.087088645
204	0x3ebc01a6	0.36720008
205	0x3d67ddb3	0.056607913
206	0x3e095467	0.13411103
207	0xbdda89ce	-0.106708154
208	0xbe26d005	-0.1629029
209	0x3c424eff	0.011859654
210	0xbdfd52f4	-0.12369338
211	0xbef7c494	-0.48392165
212	0xbd995a4f	-0.07487928
213	0xbe2b32ee	-0.16718647
214	0xbe71d668	-0.23616946
215	0xbf6cda1f	-0.92520326
216	0xbfafa901	-1.3723451
217	0xbf8f1dbe	-1.1180952
218	0xbf7e3979	-0.99306446
219	0xbf317ef7	-0.6933436
220	0xbf6c99f0	-0.9242239
221	0x3ddbd33e	0.107336506
222	0xbfb83e59	-1.4394027
223	0x3e13aa9e	0.14420554
224	0x3eb30005	0.34960952
225	0x3f09bad5	0.5380071
226	0x3e4d3379	0.20039167
227	0x3e89ae36	0.26890725
228	0x3e3a15de	0.18172404
229	0x3d167bb1	0.036739055
230	0xbeea0f5d	-0.45714846
231	0xbe2d7a53	-0.16941194
232	0x3cea3098	0.028587624
233	0x3e5604b2	0.20900229
234	0x3e82c1ce	0.25538486
235	0x3dea9195	0.11453549
236	0xbdf3b046	-0.11898856
237	0xbd791c01	-0.060817722
238	0x3e8adc80	0.27121353
239	0x3c928c7b	0.017889252
240	0x3d5c2f42	0.053756006
241	0xbecf66bb	-0.40508065
242	0xbe394bca	-0.18095317
243	0xbd52271e	-0.051306836
244	0x3c20a1f5	0.009804239
245	0xbcc9fe51	-0.0246574
246	0xbe513aa7	-0.2043253
247	0x3ee96ba5	0.4558994
248	0xbf9ff31c	-1.2496066
249	0x3e11bbac	0.14231747
250	0xbf29e682	-0.6636735
251	0x3dc6e851	0.097122796
252	0x3e161594	0.14656669
253	0xbe48bb65	-0.19602735
254	0xbd9e91f5	-0.07742683
255	0xbe233a18	-0.1594013

fc1.bias f4 [128]
0	0xba9f6deb	-0.0012163495
1	0xbe098b33	-0.13432007
2	0xbdaf7838	-0.08567852
3	0xbaae43a9	-0.0013295311
4	0xbd87928b	-0.06619748
5	0x3ccffefd	0.025390143
6	0x3d4abe6f	0.049498018
7	0x3d9f95f3	0.077922724
8	0xbe20a6cc	-0.15688628
9	0xbd11995d	-0.03554665
10	0xbd6cfc65	-0.05785789
11	0x3ddca835	0.107742704
12	0x3d447a09	0.047967944
13	0x3e0f7584	0.14009672
14	0xbd6970b3	-0.056992244
15	0xbea98731	-0.33110955
16	0xbe2e554c	-0.17024726
17	0xbdcd60a3	-0.100281976
18	0xbe0abb76	-0.13548073
19	0xbe412215	-0.18860658
20	0xbdf12945	-0.1177545
21	0xbc9caa7c	-0.019124262
22	0x3f07dc88	0.5307088
23	0x3d74d85d	0.059776653
24	0xbd9252be	-0.07144688
25	0xbe55f709	-0.20895018
26	0xbdd46b73	-0.10372057
27	0xbd11867b	-0.03552864
28	0xbd55b3c0	-0.052173376
29	0xbe42990e	-0.19003698
30	0xba9b6496	-0.0011855538
31	0x3df39238	0.118931234
32	0xbdf6b1e4	-0.12045649
33	0xbe0dec96	-0.13859782
34	0x3e8e53f2	0.2779842
35	0xbd6779fc	-0.056512818
36	0x3d9c25c8	0.07624394
37	0xbe0f4092	-0.13989475
38	0x3c962a57	0.018330736
39	0xbe037eed	-0.12841387
40	0xbe97e922	-0.29670054
41	0x3e2ce439	0.16883935
42	0xbdaacee1	-0.0834024
43	0x3cb8d9a2	0.022564713
44	0x3cfe6fe9	0.031059222
45	0xbe7124a9	-0.23549141
46	0xbd2d0be0	-0.042247653
47	0x3f098d90	0.5373163
48	0x3d6c388b	0.05767111
49	0xbd158c14	-0.036510542
50	0x3de4b2a5	0.11166886
51	0xbd01a84a	-0.031654634
52	0xbe4fdcea	-0.20299116
53	0xbd4738f8	-0.048638314
54	0x3e526116	0.20544848
55	0xbe650b3c	-0.22367567
56	0xbdec2896	-0.11531179
57	0x3e02b7ed	0.12765475
58	0xbe6396d7	-0.2222551
59	0x3f116ffd	0.56811506
60	0xb8b3cfe9	-8.5741114e-05
61	0x3d435294	0.047686175
62	0x3c7c30b3	0.01539247
63	0xbe8462c1	-0.25856593
64	0xbd688379	-0.056766007
65	0x3e5b453e	0.21413133
66	0x3c909c9d	0.017652804
67	0x3d487a5f	0.048944827
68	0xbe08d2e2	-0.13361695
69	0x3d753562	0.059865363
70	0xbe442f72	-0.19158724
71	0xbd8ff67e	-0.070294365
72	0xbe77f653	-0.24215059
73	0xbc90305e	-0.017601188
74	0x3dc8efa2	0.09811331
75	0xbe2d5d81	-0.169302
76	0xbbe2e623	-0.006924407
77	0xbe35d0d2	-0.1775544
78	0xbed6e479	-0.41971186
79	0xbc7a284f	-0.015268399
80	0xbd72490c	-0.059151694
81	0xbe3111ee	-0.17291996
82	0xbc45dda3	-0.012076768
83	0xbe24c246	-0.16089734
84	0x3e12b8cd	0.14328308
85	0x3d9ad473	0.07560053
86	0xbd83034b	-0.063971125
87	0xbddd465d	-0.10804436
88	0x3a6ca4e1	0.00090272544
89	0xbcb73b5d	-0.022367174
90	0xbe826391	-0.25466588
91	0xbdbf2e63	-0.093350194
92	0xbe460345	-0.19337185
93	0x3e2f5951	0.17123915
94	0xbd75123c	-0.059831843
95	0xbdcf694e	-0.10127507
96	0xbe01acf8	-0.12663639
97	0xbdeabe89	-0.11462123
98	0x3f4a803a	0.7910191
99	0x3df4bf9f	0.11950611
100	0x3eb5701f	0.35437104
101	0xbd576f56	-0.052596413
102	0x3c5149dc	0.012773957
103	0xbe5012ba	-0.20319644
104	0xbc70a5d3	-0.014687973
105	0xbdb85626	-0.090008065
106	0xbccb3a5b	-0.0248081
107	0x3df4bec6	0.1195045
108	0x3ce60d15	0.02808241
109	0xbdc30c94	-0.095238835
110	0xbaafa303	-0.0013400022
111	0x3ea87e1c	0.32908714
112	0xbe104617	-0.14089237
113	0x3dbc32d8	0.09189385
114	0xb992bce6	-0.0002798803
115	0x3d0542d3	0.03253443
116	0xbe291a22	-0.16513875
117	0xbdc2a840	-0.095047474
118	0x3ce3674f	0.027759222
119	0xbd205d24	-0.039151326
120	0xbe76f8a7	-0.24118291
121	0xbd231109	-0.039811168
122	0xbd997d28	-0.07494575
123	0xbe0c43d1	-0.13697745
124	0x3d10fc86	0.035397075
125	0xbd08c8b6	-0.033394538
126	0xbe1e4c8f	-0.15458892
127	0xbe6dc766	-0.23220596

fc2.weight f4 [128, 128]
0	0xbe9fdc22	-0.31222636
1	0xbeab5fb7	-0.33471462
2	0x3e92524f	0.2857842
3	0x3cc75abe	0.024335261
4	0x3ec0ccd1	0.37656263
5	0xbe46691a	-0.1937603
6	0xbf226b2e	-0.63444793
7	0x3ece0d65	0.40244594
8	0xbe1ef6b8	-0.15523803
9	0xbec7de1b	-0.3903664
10	0xbe154dd7	-0.14580475
11	0xbf8f0bf3	-1.1175522
12	0x3e11e663	0.14248042
13	0x3f324e1d	0.6965044
14	0xbe949aae	-0.2902426
15	0xbea58d1a	-0.32334214
16	0xbe9cdce1	-0.30637267
17	0x3dc45fc6	0.0958858
18	0xbe318d3a	-0.1733903
19	0xbc0ff177	-0.008785597
20	0xbf0d46ae	-0.55185974
21	0xbdb1caba	-0.08681245
22	0x3e5debe4	0.21672016
23	0x3da672dc	0.081273764
24	0x3daeda38	0.08537716
25	0xbf0742de	-0.52836406
26	0x3c1ca90c	0.009561788
27	0xbf14279f	-0.57872957
28	0xbea67cdb	-0.32517132
29	0xbf1c10ab	-0.60962933
30	0x3e8c6194	0.27418196
31	0x3ed4b490	0.41544008
32	0x3dbe0961	0.09279133
33	0x3ef11f6b	0.47094283
34	0x3dc573c9	0.09641225
35	0x3eb7eb8e	0.359219
36	0x3eb81481	0.35953143
37	0xbed6eefb	-0.41979203
38	0x3ecfeb56	0.40609235
39	0x3e1f73ab	0.15571468
40	0xbf32362a	-0.696139
41	0x3e2039a3	0.15646987
42	0x3d8cf24c	0.06882152
43	0x3e87d674	0.26530802
44	0x3d0d32cf	0.034472283
45	0xbf5938d8	-0.8485236
46	0xbe4e09b3	-0.20120887
47	0xbe392550	-0.1808064
48	0x3e821544	0.2540685
49	0x3d4c8436	0.049930774
50	0x3e474d61	0.19463111
51	0x3f0970fc	0.53688025
52	0x3e95b393	0.29238567
53	0x3e9b6eaf	0.30357882
54	0xbf2d26d7	-0.6763739
55	0xbeb728ea	-0.35773402
56	0xbe83b5f6	-0.25724763
57	0x3d38051e	0.044926755
58	0x3e80c119	0.25147322
59	0xbf1144f7	-0.56745857
60	0x3e6b1d80	0.22960472
61	0xbece69cd	-0.40315095
62	0x3c8361f9	0.016037928
63	0xbf836780	-1.0265961
64	0x3dfdd96b	0.12394985
65	0x3f154d2a	0.5832087
66	0x3f74f14e	0.956807
67	0x3f21f8eb	0.63270444
68	0xbd38401e	-0.044983022
69	0xbd1d3b4a	-0.03838662
70	0xbe92672e	-0.28594345
71	0xbe58dd4b	-0.21178167
72	0xbf46514b	-0.77467793
73	0x3ecd24fe	0.40067285
74	0xbee4d7d6	-0.4469592
75	0xbf6bd6ff	-0.92124933
76	0xbee08de0	-0.43858242
77	0xbb97b0f4	-0.0046292488
78	0xbeccf661	-0.40031722
79	0x3e589b55	0.21153004
80	0xbecc56f0	-0.39910078
81	0xbf60197a	-0.87538874
82	0x3c3f87c9	0.011690089
83	0xbee560f3	-0.4480053
84	0x3e432d99	0.19060363
85	0xbe6586c8	-0.22414696
86	0xbe74494c	-0.23856086
87	0xbe438722	-0.19094518
88	0xbef56933	-0.47931823
89	0x3c57143a	0.013127381
90	0xbf320caa	-0.69550574
91	0x3e0bf807	0.13668834
92	0xbecc2bbc	-0.39877117
93	0x3d8021f1	0.06256474
94	0x3e19d9b4	0.15024453
95	0xbedadff1	-0.4274898
96	0x3eaae226	0.33375663
97	0xbeab3bac	-0.33443964
98	0xbf175716	-0.5911726
99	0xbeb555f7	-0.35417148
100	0xbeb8f4b7	-0.36124203
101	0xbec7f4a3	-0.3905383
102	0xbe476a85	-0.19474228
103	0x3e248ca9	0.16069283
104	0xbd18f7e8	-0.037345797
105	0x3e938bb8	0.28817534
106	0xbea084fa	-0.31351453
107	0x3e305f8f	0.17223953
108	0x3e05176a	0.12997213
109	0xbf172800	-0.5904541
110	0x3dcb668e	0.0993167
111	0x3dd136da	0.1021554
112	0x3e0613c7	0.13093482
113	0xbe2cebfb	-0.16886894
114	0xbee1a64f	-0.44072196
115	0xbc0d7ce2	-0.008635731
116	0x3d8089fe	0.0627632
117	0x3f14a707	0.58067364
118	0x3e1a4bb2	0.15067938
119	0x3fa462ef	1.2842692
120	0xbf93e45a	-1.1554062
121	0xbed6b7ab	-0.41937003
122	0x3fbeb1ab	1.489797
123	0x3e65793a	0.22409526
124	0xbeaaf9db	-0.3339375
125	0x3ed6ac27	0.41928217
126	0xbf1721f8	-0.5903621
127	0xbe3a38c1	-0.18185712
128	0xbe16061c	-0.14650768
129	0xbda3b036	-0.07992594
130	0x3db2f9ed	0.08739076
131	0x3e626e60	0.22112417
132	0xbe78035b	-0.2422003
133	0x3ec67a3c	0.38765132
134	0x3f458af8	0.77165174
135	0x3ed49d88	0.41526437
136	0x3d5f1d89	0.054471526
137	0x3ef85b96	0.48507375
138	0xbd275e1a	-0.040861227
139	0x3e00cf95	0.12579186
140	0x3d7753a3	0.060382497
141	0xbe800d0a	-0.25009948
142	0xbc777337	-0.015103153
143	0xbf580bd2	-0.84393036
144	0x3d0d150b	0.034443896
145	0x3d965f20	0.073423624
146	0x3eeb617c	0.45972812
147	0x3d4d85d2	0.05017645
148	0xbcfc6ea7	-0.030814482
149	0xbef9b38d	-0.487698
150	0xbe0b813a	-0.13623515
151	0xbe83e21b	-0.25758442
152	0xbd442b76	-0.04789301
153	0x3c9e6304	0.019334324
154	0xbcab3993	-0.020901477
155	0x3eb7c60b	0.35893282
156	0x3f91268d	1.133989
157	0x3f758c9d	0.95917684
158	0xbefe9b1d	-0.49727717
159	0xbecbe3cb	-0.3982223
160	0x3f2b7cfb	0.6698758
161	0x3ee2fe3c	0.4433459
162	0x3e88b0cf	0.26697394
163	0xbc82c8b7	-0.015964849
164	0x3e7baf22	0.24578527
165	0x3e95ba8c	0.29243886
166	0xbf22b574	-0.63558125
167	0xbfad5d0d	-1.3544022
168	0x3e8d71cf	0.27625892
169	0x3ea92688	0.3303721
170	0x3e3d311a	0.18475762
171	0xbde144ff	-0.10999488
172	0x3e357dfa	0.17723837
173	0x3eae54e0	0.3404913
174	0x3ed6c7ec	0.41949403
175	0x3eb53e1f	0.35398957
176	0x3db79f98	0.08965987
177	0x3ebe5a4f	0.37178275
178	0xbdd3d510	-0.10343373
179	0xbd2fa145	-0.042878408
180	0xbe27e9b2	-0.16397741
181	0x3d323f9d	0.043517698
182	0x3dae6297	0.08514898
183	0xbf3f37ab	-0.7469432
184	0xbe04e434	-0.12977678
185	0x3e905532	0.2819
186	0xbec02fe0	-0.37536526
187	0xbecd936d	-0.4015154
188	0x3ed6b412	0.41934258
189	0xbef9a529	-0.4875882
190	0x3e6ae831	0.22940136
191	0x3df7b920	0.12095857
192	0x3e7274a4	0.23677307
193	0xbe561e08	-0.20909894
194	0xbf1bb1f4	-0.6081841
195	0xbecd3d2d	-0.40085736
196	0x3de80eb5	0.1133093
197	0x3e0353e9	0.12824978
198	0x3ed476f9	0.4149702
199	0xbeca7473	-0.3954197
200	0x3f3d08af	0.73841375
201	0xbe0dedb1	-0.13860203
202	0xbe961539	-0.29313067
203	0x3f804aea	1.0022862
204	0x3ee30524	0.4433986
205	0xbe45d45a	-0.19319287
206	0x39e943d2	0.00044491753
207	0x3e14d976	0.1453608
208	0x3eece17c	0.4626578
209	0x3f3e7b30	0.7440672
210	0x3f31cb59	0.6945091
211	0x3d222552	0.039586373
212	0xbea2d461	-0.31802657
213	0xbe26d944	-0.16293818
214	0x3e08704c	0.13324088
215	0xbefba58c	-0.4914974
216	0xbf2d25d9	-0.67635876
217	0x3f094040	0.5361366
218	0x3db87336	0.0900635
219	0x3eb0869d	0.34477702
220	0x3db7f1c7	0.08981662
221	0xbeae59f2	-0.34052998
222	0xbe532be4	-0.20622212
223	0x3e772019	0.24133338
224	0xbec9220a	-0.39283782
225	0xbdb49905	-0.08818249
226	0x3d3b798d	0.045770217
227	0xbe8939d3	-0.2680193
228	0x3ef0e7cb	0.47051844
229	0x3ef8b01e	0.48571867
230	0x3dcca606	0.09992604
231	0xbf156478	-0.5835643
232	0x3ee7e5a4	0.4529239
233	0xbd4267c3	-0.047462236
234	0x3f9007aa	1.1252339
235	0x3e87defe	0.26537317
236	0xbc3775a5	-0.011197482
237	0x3e95a976	0.2923085
238	0x3e426f7e	0.18987843
239	0xbdef9b9e	-0.116996035
240	0x3f526b4d	0.8219498
241	0xbe8a0a71	-0.2696109
242	0xbd87c2f1	-0.06628979
243	0x3db7f115	0.089815296
244	0xbe8673bb	-0.2626017
245	0x3d54dd50	0.051968873
246	0x3e74d8b8	0.23910797
247	0xbf65bce5	-0.89741355
248	0x3efcd2fe	0.49379724
249	0x3ea980bb	0.33106026
250	0xbf12692b	-0.57191724
251	0xbec33159	-0.38123587
252	0x3eb469ae	0.35236877
253	0x3e260d5a	0.1621603
254	0x3f2891d5	0.6584752
255	0xbdb1b151	-0.086763985

fc2.bias f4 [128]
0	0xbeae51db	-0.34046826
1	0x3e0a1fe7	0.13488732
2	0xbe54d5c9	-0.20784678
3	0xbe5b532f	-0.21418451
4	0xbd4fae9d	-0.050703634
5	0xbd355ac5	-0.044276018
6	0x3e26aa3a	0.16275874
7	0xbea984b3	-0.33109054
8	0xbeae2c70	-0.34018278
9	0xbe1d8212	-0.15381649
10	0xbe8f55bf	-0.27995107
11	0x3e02afee	0.12762424
12	0xbe8139d1	-0.25239423
13	0xbd7cfaa9	-0.061762486
14	0x3e1b348a	0.15156761
15	0x3d4e0690	0.050299227
16	0x3ec2118e	0.37904018
17	0xbe9d98ad	-0.30780545
18	0xbdf027f9	-0.11726374
19	0xbd6fe0e6	-0.05856409
20	0xbc187dfd	-0.009307382
21	0xbdda710f	-0.106660955
22	0xbe14d3c9	-0.14533915
23	0x3e13f3ed	0.14448519
24	0xbeff1c04	-0.49826062
25	0xbdc72595	-0.09723965
26	0x3e138344	0.14405543
27	0xbd80ff2d	-0.06298671
28	0x3e96a609	0.2942355
29	0x3e0685d7	0.13136993
30	0xbe5e1fca	-0.21691814
31	0xbe808bdd	-0.25106707
32	0xbe1c675f	-0.15273808
33	0xbe2941c6	-0.16528997
34	0xbd368b3c	-0.044566378
35	0xbdfb6dad	-0.12276778
36	0xbe991614	-0.29899657
37	0x3ed73d25	0.42038837
38	0xbe2ea705	-0.170559
39	0xbf08557b	-0.5325543
40	0x3e53a517	0.20668446
41	0x3e11a046	0.14221296
42	0xbe2448d5	-0.16043408
43	0xbefbe2a6	-0.49196357
44	0xbf023800	-0.508667
45	0x3e865ae3	0.26241216
46	0x3cf770e3	0.030205196
47	0x3e68cd2a	0.22734514
48	0xbe98616b	-0.29761824
49	0xbd7b6cd1	-0.061383072
50	0xbe921e10	-0.2853856
51	0x3b7bb583	0.003840775
52	0xbe830680	-0.25590897
53	0xbe057f9b	-0.13036959
54	0x3dc22b3f	0.09480905
55	0xbeb7a338	-0.35866714
56	0xbd677a6d	-0.05651324
57	0x3dab8469	0.083748646
58	0xbe96e83c	-0.29474056
59	0xbed05547	-0.4069006
60	0xba724959	-0.0009242497
61	0xbe472948	-0.19449341
62	0xbe724634	-0.23659593
63	0x3e1c2b45	0.15250881
64	0xbebe9e21	-0.37230018
65	0x3df1be9d	0.11803935
66	0x3eafb3fe	0.3431701
67	0xbcb182f5	-0.02166889
68	0xbd1f7af1	-0.038935605
69	0xbe9a1270	-0.30092192
70	0x3d554717	0.05206975
71	0x3dc26003	0.09490969
72	0x3ec94fa7	0.39318582
73	0xbd50009b	-0.050781827
74	0xbda5daf0	-0.080984
75	0x3eadc714	0.33940947
76	0xbc9e0a05	-0.019291887
77	0xbe122dbb	-0.14275257
78	0xbde442d5	-0.1114556
79	0xbe820678	-0.2539556
80	0x3dee1d23	0.11626651
81	0x3ed5e7ae	0.4177832
82	0xbdd1e290	-0.102482915
83	0xbe46cf09	-0.19414915
84	0xbdf6ae88	-0.12045008
85	0xbf1bde52	-0.6088611
86	0xbeb1ee5e	-0.34752172
87	0xbd6b3e33	-0.057432365
88	0xbe811ddd	-0.25218096
89	0xbe449058	-0.19195688
90	0x3e9a2f91	0.30114415
91	0x3b3f6415	0.002920394
92	0xbe6707e1	-0.225616
93	0xba6b4e8a	-0.0008976242
94	0xbe45665d	-0.1927733
95	0x3d1b9f30	0.03799361
96	0xbe30371d	-0.17208524
97	0xbe4f8fce	-0.20269701
98	0x3da24787	0.07923799
99	0xbe8f4eb8	-0.27989745
100	0xbed68202	-0.41896063
101	0x3d277a74	0.040888265
102	0x3df1d7fa	0.118087724
103	0xbdd5e589	-0.10444171
104	0x3c4cd36c	0.012501579
105	0xbe9a12ed	-0.30092564
106	0xbe1e631c	-0.15467495
107	0xbe907ccc	-0.28220212
108	0xbd859bbd	-0.06523845
109	0x3d1de7c3	0.038551103
110	0x3d474730	0.048651874
111	0xbafcae63	-0.0019278046
112	0xbdd69af3	-0.10478773
113	0xbe0c9807	-0.13729869
114	0xbcb9131e	-0.022592124
115	0x3de11224	0.10989788
116	0xbe5664bc	-0.20936865
117	0x3de44399	0.11145706
118	0x3dbd609d	0.09246943
119	0xbe09cbfb	-0.13456719
120	0x3dea4926	0.11439733
121	0x3e5de00b	0.21667497
122	0x3e83d785	0.25750366
123	0xbe9469f7	-0.28987095
124	0xbbaff7fb	-0.0053701377
125	0xbe056365	-0.13026197
126	0x3d2c0ea5	0.042006154
127	0xbe5cee87	-0.21575366

out.weight f4 [5, 128]
0	0x3f6c06ff	0.92198175
1	0xbe248cfa	-0.16069403
2	0xbe906dd0	-0.2820878
3	0x3ea6b918	0.3256309
4	0xbf3e455e	-0.74324596
5	0xbeec7b57	-0.4618785
6	0xbdebf4b2	-0.11521281
7	0x3f0c617b	0.54836243
8	0x3edb4e9d	0.42833415
9	0x3f0e0989	0.554833
10	0x3f47c268	0.78031015
11	0xbeaf8f8d	-0.34289208
12	0x3ea421ad	0.32056943
13	0x3cf5deaf	0.03001341
14	0xbebd6a50	-0.36995173
15	0xbf0f257a	-0.5591656
16	0xbec555b5	-0.38541952
17	0x3f367427	0.71270984
18	0x3ef90f1c	0.4864434
19	0x3f1e8d42	0.6193429
20	0xbc273431	-0.0102053145
21	0x3e2b4b07	0.1672784
22	0xbed19940	-0.40937233
23	0x3ef4aff2	0.47790486
24	0x3f34e1ca	0.70657027
25	0x3ec4d16e	0.38441032
26	0xbeef67e0	-0.46758938
27	0xbe7854c7	-0.2425109
28	0x3f3294d9	0.69758373
29	0x3deab394	0.11460033
30	0x3ea77580	0.32706833
31	0x3ee0b2df	0.43886468
32	0x3f0f154a	0.5589186
33	0x3edc960b	0.43083224
34	0x3e61faf8	0.22068393
35	0x3eb6c6e5	0.3569862
36	0x3f193ef8	0.5986171
37	0xbeaf5526	-0.3424465
38	0x3d9b5e4b	0.07586344
39	0x3f01c374	0.5068886
40	0xbb56c2be	-0.0032769884
41	0xbe0d88a8	-0.13821661
42	0x3dcfbd5c	0.10143539
43	0x3f0470ef	0.51734823
44	0x3ef48676	0.47758836
45	0xbdff16d2	-0.124555245
46	0xbe16b88d	-0.14718838
47	0x3e933c97	0.28757164
48	0x3e9a63f7	0.30154392
49	0x3f2ad4ca	0.6673094
50	0x3f039b5c	0.51408935
51	0xbeb0b08c	-0.34509695
52	0xbf0cc523	-0.54988307
53	0x3f2c364b	0.67270344
54	0xbdbbb1e7	-0.091647916
55	0x3ed789ed	0.42097417
56	0x3f3337fc	0.700073
57	0xbe94676d	-0.28985158
58	0x3f199ecf	0.6000795
59	0x3f0dcf8e	0.5539483
60	0xbee7e389	-0.45290783
61	0x3f1a31c8	0.6023221
62	0x3f1c1e2b	0.6098353
63	0xbddcf1b9	-0.107882924
64	0x3f0073f4	0.5017693
65	0xbe1ae74d	-0.15127297
66	0xbeb084ee	-0.34476417
67	0xbeed0e07	-0.46299765
68	0x3f1eeae6	0.62077177
69	0x3ec0fc2e	0.37692398
70	0x3ef2175c	0.47283447
71	0x3f005737	0.5013308
72	0x3f3bfaab	0.73429364
73	0x3f251d15	0.644975
74	0x3f0b649b	0.54450387
75	0xbd7625e6	-0.060094737
76	0xbdd3620d	-0.10321436
77	0x3f3e8a74	0.7443001
78	0x3f04de0b	0.5190131
79	0x3f2519e8	0.64492655
80	0xbe8bcd31	-0.27304986
81	0x3f2a3522	0.66487324
82	0x3f44cf14	0.76878476
83	0x3f396c7d	0.72431165
84	0x3ec02dcd	0.37534943
85	0x3f603482	0.8758012
86	0x3f0e91a1	0.5569096
87	0x3ee7db5f	0.45284554
88	0x3f097441	0.53693014
89	0x3e9c97e2	0.30584627
90	0xbdd36a21	-0.10322977
91	0x3f43797a	0.76357234
92	0x3f531782	0.82457745
93	0xbf10275b	-0.5631005
94	0x3d74fbc5	0.05981042
95	0xbe81835c	-0.25295532
96	0x3e1b7719	0.15182151
97	0x3ed4d797	0.41570732
98	0xbe2fe735	-0.17178042
99	0x3f0e6dc7	0.55636257
100	0x3f8747e0	1.056881
101	0x3f19e682	0.6011735
102	0xbe60bcd8	-0.21947038
103	0xbec91d78	-0.39280295
104	0xbeb78ec8	-0.3585112
105	0xbf1bcec9	-0.60862404
106	0xbd7c82ce	-0.061648183
107	0x3ebf622d	0.3737959
108	0xbec8b9a4	-0.39204133
109	0xbe4d08eb	-0.20022933
110	0xbe7ff9dd	-0.24997659
111	0x3f0b8a30	0.5450773
112	0x3f50cb8c	0.8156059
113	0xbf19053f	-0.5977363
114	0xbd81d788	-0.063399374
115	0xbeb57142	-0.3543797
116	0x3f24a92b	0.6432063
117	0xbf0c5e8b	-0.5483176
118	0xbb2fa764	-0.0026802653
119	0xbf09dc6d	-0.5385197
120	0xbe103cc1	-0.14085676
121	0x3a8f7eb8	0.0010947799
122	0xbd935ac9	-0.0719505
123	0x3ec30e5d	0.38096896
124	0x3f43121a	0.76199496
125	0x3efc38ca	0.49262077
126	0x3f09ba62	0.5380002
127	0x3f52dd11	0.8236857
128	0x3ecab057	0.39587662
129	0xbf34363a	-0.70395243
130	0xbeef5580	-0.4674492
131	0x3d82717a	0.063693
132	0xbf6a1007	-0.91430706
133	0xbe7a3b17	-0.24436603
134	0xbebdbd2c	-0.3705839
135	0x3ee05e60	0.43822002
136	0x3f1e347e	0.61798847
137	0x3ec8efc0	0.39245415
138	0x3eb631a0	0.35584736
139	0xbe5fef39	-0.218686
140	0x3e99db40	0.30050087
141	0xbe1592f3	-0.14606838
142	0xbf122dd9	-0.5710121
143	0xbed94199	-0.4243286
144	0xbed53a22	-0.41645914
145	0x3f37163d	0.7151831
146	0x3f052774	0.52013326
147	0x3e82af67	0.25524446
148	0xbdc1b237	-0.0945782
149	0x3ea073b1	0.31338266
150	0xbf0dac1a	-0.5534073
151	0x3e5c31e8	0.21503413
152	0x3f0322a1	0.51224715
153	0x3f177d64	0.59175706
154	0xbf44ea7a	-0.7692028
155	0xbe41b3cd	-0.18916245
156	0x3f69f972	0.9139625
157	0x3e950265	0.2910339
158	0x3ea12138	0.31470656
159	0x3f20707c	0.6267164
160	0x3f0a1d91	0.53951365
161	0x3eae5702	0.34050757
162	0x3e90c9d2	0.28278977
163	0x3e987a24	0.29780686
164	0x3ee869dc	0.45393264
165	0xbe5da35b	-0.21644346
166	0xbe643830	-0.22287059
167	0x3fab40ec	1.3379188
168	0xbdaf3ade	-0.0855615
169	0xbeb3f322	-0.35146433
170	0x3eb03ffa	0.3442381
171	0x3e43df73	0.19128208
172	0x3f0c61ad	0.5483654
173	0x3e7b0a63	0.24515681
174	0xbefd30c7	-0.49451277
175	0xbe2861ea	-0.16443601
176	0x3ec05795	0.3756682
177	0x3f09ae3b	0.5378148
178	0x3f2cc554	0.674886
179	0xbe5bbc66	-0.21458587
180	0xbf1b0469	-0.60553604
181	0x3ed25d68	0.41086888
182	0xbec79d72	-0.3898731
183	0x3f08be54	0.5341542
184	0x3ee01bd7	0.4377124
185	0xbf0edfdf	-0.5581035
186	0x3f22fdd5	0.63668567
187	0x3ef0b7d2	0.47015244
188	0xbeb036f7	-0.34416935
189	0x3ef0444b	0.46927103
190	0x3f049372	0.51787484
191	0xbc82b4e2	-0.015955392
192	0x3efb876c	0.49126756
193	0xbe1d1c99	-0.1534294
194	0xbe9dd200	-0.3082428
195	0xbef41142	-0.47669417
196	0x3ee21370	0.44155455
197	0x3e3e921b	0.18610422
198	0x3edcc7aa	0.43121082
199	0x3f185e2f	0.5951871
200	0x3f457e26	0.7714561
201	0x3f3317b1	0.69958025
202	0x3ea5d1d5	0.32386652
203	0xbd929972	-0.071581736
204	0xbeaa440a	-0.33255035
205	0x3ea9396e	0.33051628
206	0x3d9c833d	0.07642219
207	0x3e97757f	0.2958183
208	0xbf0f7dcb	-0.5605132
209	0x3ef3853c	0.47562587
210	0x3f167778	0.58776045
211	0x3f19fa58	0.6014762
212	0x3e2ac976	0.16678414
213	0x3eb5e707	0.35527822
214	0x3ed2ed31	0.41196588
215	0x3ed12325	0.40847126
216	0x3e5e783e	0.21725556
217	0xbd3f1ef4	-0.04666038
218	0xbe862a92	-0.26204354
219	0x3ed43574	0.41447031
220	0x3e286629	0.16445221
221	0xbf50e9ce	-0.8160676
222	0x3f12e47c	0.5737989
223	0xbec8ab26	-0.39193076
224	0xbed14f6e	-0.40880913
225	0x3f139a9b	0.57657784
226	0xbf29d6f8	-0.6634364
227	0x3f2f110c	0.68385386
228	0x3e2a62d1	0.16639258
229	0x3e9dd8a3	0.30829343
230	0xbed0bc31	-0.4076858
231	0xbee7ab4b	-0.45247874
232	0xbf69115c	-0.91042113
233	0xbeefd556	-0.4684245
234	0xbede3be4	-0.43405068
235	0x3f0585c4	0.52157235
236	0xbeaddcf1	-0.33957627
237	0xbf48c537	-0.78425926
238	0xbe37b9db	-0.17941992
239	0x3ecadc61	0.3962126
240	0x3ed77b69	0.42086342
241	0xbec989bf	-0.39362904
242	0xbf24fdfb	-0.64450043
243	0xbf043467	-0.5164246
244	0x3eb2955d	0.3487958
245	0xbef06cc1	-0.46957973
246	0xbe688286	-0.2270604
247	0xbe9ec57f	-0.31010053
248	0x3e82d1e0	0.25550747
249	0xbeeb68f2	-0.45978504
250	0xbed432ac	-0.4144491
251	0x3e96efce	0.2947983
252	0x3f205225	0.6262534
253	0x3da6c3b8	0.08142799
254	0x3da3c5de	0.079967245
255	0x3eac7987	0.33686468

out.bias f4 [5]
0	0xc032ced1	-2.793873
1	0x3f6594db	0.8968026
2	0x400f77e8	2.2416935
3	0x3ec15b05	0.37764755
4	0xbfed3f14	-1.8534875

exp_avg_sq f4 [128, 28]
0	0x37b69051	2.1763293e-05
1	0x37238efd	9.748849e-06
2	0x366e217d	3.5484256e-06
3	0x3600dd0b	1.920215e-06
4	0x35c20a25	1.4457079e-06
5	0x35ac1f4d	1.2824108e-06
6	0x35b3cf71	1.3396913e-06
7	0x35db2721	1.632816e-06
8	0x362a768a	2.5400973e-06
9	0x36aeddab	5.2114096e-06
10	0x3767a740	1.3807614e-05
11	0x37f5165d	2.921669e-05
12	0x3642f7be	2.9052458e-06
13	0x3670c7de	3.5879125e-06
14	0x36c01d9e	5.725494e-06
15	0x37570024	1.2815031e-05
16	0x380e7a3c	3.3969278e-05
17	0x3550bb24	7.7758364e-07
18	0x34421c1d	1.8077885e-07
19	0x342b7027	1.5966417e-07
20	0x346d1f10	2.2083645e-07
21	0x351b7e41	5.7925723e-07
22	0x36ad2fea	5.1613797e-06
23	0x37ba08de	2.2177057e-05
24	0x33b78d3f	8.547294e-08
25	0x37a4b957	1.9636629e-05
26	0x340803c4	1.2667357e-07
27	0x3a7c8ec7	0.00096343126
28	0x4617eafc	9722.746
29	0x45da9e41	6995.7817
30	0x45797345	3991.2043
31	0x44e3aa1a	1821.3157
32	0x44816b2b	1035.349
33	0x44ad7677	1387.702
34	0x44ad3bec	1385.8726
35	0x443690a1	730.2598
36	0x44a68074	1332.0142
37	0x44de5614	1778.69
38	0x452f57a4	2805.4775
39	0x4593be5c	4727.795
40	0x4596dc6d	4827.553
41	0x452c2e9d	2754.9133
42	0x4492c1c1	1174.0548
43	0x44407e9d	769.97833
44	0x4429cdb2	679.214
45	0x4409805b	550.00555
46	0x4402ba72	522.9132
47	0x443ecdc0	763.21484
48	0x447d2700	1012.6094
49	0x44d7b5cd	1725.6813
50	0x45bf72f0	6126.367
51	0x4617e9ab	9722.417
52	0x43a9becd	339.49063
53	0x472f2a32	44842.195
54	0x430b1701	139.08986
55	0x48823f0e	266744.44
56	0x353219fa	6.634797e-07
57	0x35c840c6	1.4920013e-06
58	0x36ebc9fe	7.0270607e-06
59	0x39018496	0.00012351791
60	0x390f9c61	0.00013695798
61	0x380a5d37	3.2988577e-05
62	0x37935eaa	1.7567847e-05
63	0x375882ea	1.2905084e-05
64	0x37367842	1.0876045e-05
65	0x3732a75a	1.0648591e-05
66	0x37544f69	1.2654674e-05
67	0x378e373f	1.6953445e-05
68	0x3886fc39	6.436598e-05
69	0x384fa981	4.951051e-05
70	0x3839e76b	4.4322962e-05
71	0x3712f9b0	8.760413e-06
72	0x35d82344	1.6103518e-06
73	0x35250997	6.1481245e-07
74	0x34dbb64e	4.0924573e-07
75	0x34b0a873	3.2905118e-07
76	0x34b4fafe	3.3710234e-07
77	0x34e0496a	4.1776667e-07
78	0x34f4c0be	4.558878e-07
79	0x35307e3c	6.5748804e-07
80	0x38e646aa	0.00010980417
81	0x394518e5	0.00018796658
82	0x34aa6c6b	3.1743852e-07
83	0x3ba6e2d7	0.0050929594
84	0x45165745	2405.4543
85	0x44f881cf	1988.0565
86	0x4519eebb	2462.9207
87	0x4549e86e	3230.5269
88	0x45f9d402	7994.501
89	0x47320291	45570.566
90	0x474212b1	49682.69
91	0x489f5894	326340.62
92	0x488f3cad	293349.4
93	0x478cb73e	72046.484
94	0x47a09dc5	82235.54
95	0x483eeee7	195515.61
96	0x48ceabfb	423263.84
97	0x487512a6	250954.6
98	0x46977f66	19391.7
99	0x46bd2d0e	24214.527
100	0x4715638f	38243.56
101	0x47b0c541	90506.51
102	0x4893be07	302576.22
103	0x483c3b50	192749.25
104	0x46cb3033	26008.1
105	0x470b14c0	35604.75
106	0x468fb6a6	18395.324
107	0x45188a2c	2440.6357
108	0x47655108	58705.03
109	0x48969e37	308465.72
110	0x44e01438	1792.6318
111	0x498b34a2	1.1403722e+06
112	0x430a5b6b	138.3571
113	0x42e2e338	113.44379
114	0x43cdecf3	411.85117
115	0x440823fe	544.5624
116	0x44722711	968.6104
117	0x458689d2	4305.2275
118	0x453d4699	3028.4124
119	0x4581181b	4131.013
120	0x45644d27	3652.822
121	0x4491294f	1161.2909
122	0x44b8c3fc	1478.1245
123	0x45a4ddde	5275.7334
124	0x45b8548d	5898.569
125	0x457984cb	3992.2996
126	0x4483ac0c	1053.3765
127	0x441e54d9	633.32574
128	0x440c83f5	562.0618
129	0x446f85ff	958.0937
130	0x4549668d	3222.4094
131	0x453497b4	2889.4814
132	0x44c3b7b1	1565.7404
133	0x45352996	2898.599
134	0x44d5af0d	1709.4703
135	0x430bd889	139.84584
136	0x443b29a0	748.6504
137	0x463ac00d	11952.013
138	0x42462c02	49.542976
139	0x480e6620	145816.5
140	0x44af7e0c	1403.939
141	0x448f8fcd	1148.4938
142	0x44bc9ace	1508.8376
143	0x457a1897	4001.5369
144	0x455fc035	3580.013
145	0x463d6318	12120.773
146	0x46ae7774	22331.727
147	0x483d8564	194069.56
148	0x4825c929	169764.64
149	0x471f7550	40821.312
150	0x472da025	44448.145
151	0x47c45523	100522.27
152	0x486e17bc	243806.94
153	0x480e4d8d	145718.2
154	0x4623e054	10488.082
155	0x46528cd0	13475.203
156	0x46aaca98	21861.297
157	0x474e42c6	52802.773
158	0x482cae47	176825.11
159	0x47de0cc3	113689.52
160	0x4680dbb4	16493.852
161	0x4641b7be	12397.936
162	0x4603c549	8433.321
163	0x44b10f2c	1416.4741
164	0x4706137d	34323.49
165	0x482ccb24	176940.56
166	0x448661e2	1075.0588
167	0x47850b51	68118.63
168	0x23317de7	9.62185e-18
169	0x23491e03	1.0902587e-17
170	0x239ad9c7	1.6788946e-17
171	0x244b7369	4.4116364e-17
172	0x24eee7be	1.03608633e-16
173	0x246b1f3d	5.0983962e-17
174	0x262dc36d	6.0286284e-16
175	0x2642cc52	6.7584177e-16
176	0x25d06c4b	3.615563e-16
177	0x2572931c	2.1039997e-16
178	0x2542aa6c	1.6884559e-16
179	0x2538784f	1.6000218e-16
180	0x2520a4f9	1.3933683e-16
181	0x252c9472	1.4968917e-16
182	0x25714d09	2.0929518e-16
183	0x25d850b5	3.7524716e-16
184	0x269f625b	1.1059501e-15
185	0x272db146	2.4104673e-15
186	0x24509e8a	4.5237098e-17
187	0x22e92db4	6.3203167e-18
188	0x23c33949	2.1166204e-17
189	0x238b38f7	1.5094536e-17
190	0x2353a78d	1.1473813e-17
191	0x233e66b7	1.0321671e-17
192	0x2556ddd2	1.8636697e-16
193	0x27fd748b	7.0347962e-15
194	0x229ddad1	4.2786616e-18
195	0x29a53fe9	7.3385586e-14
196	0x4604c0a7	8496.163
197	0x478d5661	72364.76
198	0x47ea7009	120032.07
199	0x47b85821	94384.26
200	0x47128cd8	37516.844
201	0x46b67ad0	23357.406
202	0x46ae66fe	22323.496
203	0x463d79ea	12126.479
204	0x46b00b1b	22533.553
205	0x46e8675d	29747.682
206	0x4735c8b4	46536.703
207	0x4749be9b	51646.605
208	0x4758a4a3	55460.637
209	0x47227ebd	41598.74
210	0x46884091	17440.283
211	0x46151a61	9542.595
212	0x45954d9b	4777.7007
213	0x458418c3	4227.095
214	0x458e84e9	4560.614
215	0x443dcdd7	759.21625
216	0x4431bec5	710.9808
217	0x446c3ad0	944.91895
218	0x44df73e6	1787.6218
219	0x46064f8f	8595.89
220	0x46030e0d	8387.513
221	0x489ad702	317112.06
222	0x4411e985	583.64874
223	0x4aaf9301	5.7532165e+06
224	0x4720288a	41000.54
225	0x46f82be9	31765.955
226	0x470555cf	34133.81
227	0x46da6a6d	27957.213
228	0x46870452	17282.16
229	0x4641f2a6	12412.662
230	0x460bb646	8941.568
231	0x45bdb91d	6071.139
232	0x4605a536	8553.303
233	0x4647f667	12797.601
234	0x46b9408a	23712.27
235	0x46ef7944	30652.633
236	0x46edace3	30422.443
237	0x46aedb19	22381.549
238	0x463b58e8	11990.227
239	0x45ea75cd	7502.725
240	0x45a07dbf	5135.7183
241	0x4585f3e8	4286.4883
242	0x459a829e	4944.327
243	0x45e03373	7174.431
244	0x461e92cf	10148.702
245	0x4687cda8	17382.828
246	0x470407b0	33799.688
247	0x4720324e	41010.305
248	0x453fce69	3068.9006
249	0x4893d991	302796.53
250	0x447752eb	989.2956
251	0x4a04849f	2.1711758e+06
252	0x249abc28	6.71056e-17
253	0x248c22d2	6.077431e-17
254	0x24957c0d	6.48286e-17
255	0x2499814c	6.657221e-17

exp_avg f4 [128, 28]
0	0x00000004	6e-45
1	0x00000004	6e-45
2	0x00000004	6e-45
3	0x00000004	6e-45
4	0x00000004	6e-45
5	0x00000004	6e-45
6	0x00000004	6e-45
7	0x00000004	6e-45
8	0x00000004	6e-45
9	0x00000004	6e-45
10	0x00000004	6e-45
11	0x00000004	6e-45
12	0x00000004	6e-45
13	0x00000004	6e-45
14	0x00000004	6e-45
15	0x00000004	6e-45
16	0x00000004	6e-45
17	0x00000004	6e-45
18	0x00000004	6e-45
19	0x00000004	6e-45
20	0x00000004	6e-45
21	0x00000004	6e-45
22	0x00000004	6e-45
23	0x00000004	6e-45
24	0x00000004	6e-45
25	0x00000004	6e-45
26	0x00000004	6e-45
27	0x00000004	6e-45
28	0x41981efe	19.015133
29	0x4135828d	11.344373
30	0x3fcafddd	1.5858723
31	0x40a3daa3	5.120439
32	0x40c4d557	6.1510425
33	0x412c8c63	10.784274
34	0x40da7e46	6.827914
35	0x408faa11	4.48951
36	0x411cea64	9.807224
37	0x41206269	10.024026
38	0x40aafb01	5.34314
39	0x3f81be22	1.0136149
40	0x412a700c	10.652355
41	0x412aa284	10.664677
42	0x405af525	3.4212124
43	0x3ecaf396	0.39638966
44	0xbfc87f56	-1.566386
45	0xc0a09829	-5.018574
46	0x3f84ff3c	1.0390391
47	0x3f562d79	0.83663136
48	0xc0b87b89	-5.76508
49	0xc0864637	-4.196071
50	0x417f1720	15.943146
51	0x4196be88	18.843033
52	0x40220438	2.5315075
53	0x42069a5e	33.65075
54	0x405f8824	3.4926844
55	0x42c2abce	97.335556
56	0x00000004	6e-45
57	0x00000004	6e-45
58	0x00000004	6e-45
59	0x00000004	6e-45
60	0x00000004	6e-45
61	0x00000004	6e-45
62	0x00000004	6e-45
63	0x00000004	6e-45
64	0x00000004	6e-45
65	0x00000004	6e-45
66	0x00000004	6e-45
67	0x00000004	6e-45
68	0x00000004	6e-45
69	0x00000004	6e-45
70	0x00000004	6e-45
71	0x00000004	6e-45
72	0x00000004	6e-45
73	0x00000004	6e-45
74	0x00000004	6e-45
75	0x00000004	6e-45
76	0x00000004	6e-45
77	0x00000004	6e-45
78	0x00000004	6e-45
79	0x00000004	6e-45
80	0x00000004	6e-45
81	0x00000004	6e-45
82	0x00000004	6e-45
83	0x00000004	6e-45
84	0x3ba01459	0.004885238
85	0x3b5ba565	0.003351533
86	0x3b2c018a	0.0026246035
87	0x3b1c240d	0.00238252
88	0x3b142fcf	0.0022611504
89	0x3b1fff5c	0.002441368
90	0x3b340d79	0.002747385
91	0x3b60fc02	0.0034329896
92	0x3bacbd32	0.0052715773
93	0x3c497df1	0.012298093
94	0x3cfa9e2a	0.030592997
95	0x3c6ff217	0.014645121
96	0x3c541bce	0.012946082
97	0x3c89fff3	0.016845679
98	0x3ce00be9	0.02734943
99	0x3ba1cc25	0.004937666
100	0x3baf1cfa	0.0053440304
101	0x3bbe9aea	0.005816807
102	0x3bdc5996	0.0067245467
103	0x3c14b7cc	0.009077024
104	0x3c848102	0.016174797
105	0x3cbe2cfa	0.023214806
106	0x3c2914bc	0.010319885
107	0x3b9b374c	0.0047368165
108	0xbb9aaaba	-0.004720059
109	0x3ca3f9c7	0.020016564
110	0x3b14f047	0.0022726224
111	0x3d0f35cf	0.034963425
112	0xbf464507	-0.7744908
113	0xbf59a4db	-0.85017174
114	0xc038c3cc	-2.8869505
115	0xc08ef8c3	-4.4678664
116	0xc0804e81	-4.009583
117	0x3f4de46c	0.8042667
118	0xbe85cd8a	-0.26133376
119	0xc031bd76	-2.7771888
120	0xc0619436	-3.524671
121	0xc06cdf8a	-3.7011437
122	0xbfd194ab	-1.6373495
123	0xbfdefe5a	-1.7421372
124	0x3ee506ca	0.44731742
125	0xc038c9b3	-2.8873107
126	0xc07e27eb	-3.9711864
127	0xc067efd5	-3.6240132
128	0xbf72ab6b	-0.94792813
129	0x3d3ba740	0.0458138
130	0x3f875424	1.0572553
131	0xbfbe2bbb	-1.4857095
132	0xbf5e4088	-0.86817217
133	0xbfd0c79e	-1.6310918
134	0xbf3ed927	-0.745501
135	0xbf49a0ea	-0.7876116
136	0xbf1e8691	-0.6192408
137	0xc0b13b9a	-5.5385256
138	0xbeed8987	-0.46393988
139	0xc18f23a8	-17.89241
140	0xbe9b3f45	-0.30321708
141	0xbf004377	-0.50102943
142	0xbfa51781	-1.2897798
143	0xc0894f15	-4.2909036
144	0xbfe98c9a	-1.8246033
145	0xbfa2327e	-1.2671659
146	0xbf8ae29f	-1.0850409
147	0xbf7194b0	-0.94367504
148	0xbf63588e	-0.88807
149	0xbf7af4ac	-0.9802959
150	0xbf845fc0	-1.034172
151	0xbf952f52	-1.1655066
152	0xbf73eafa	-0.9528042
153	0xbf75419f	-0.95803255
154	0xbf401bd2	-0.7504245
155	0xbf58c538	-0.8467593
156	0xbf84af27	-1.0365952
157	0xbfa40ccd	-1.2816406
158	0xbff863f0	-1.9405499
159	0xc090e8af	-4.5284038
160	0xc0894f15	-4.2909036
161	0xbf00dddc	-0.5033853
162	0xbea9419f	-0.33057877
163	0xbe8e87a6	-0.27837867
164	0x3eba9e56	0.36448926
165	0xc1039455	-8.223714
166	0xbea0e3a9	-0.3142369
167	0x2ae24c06	4.0198416e-13
168	0x00000004	6e-45
169	0x00000004	6e-45
170	0x00000004	6e-45
171	0x00000004	6e-45
172	0x00000004	6e-45
173	0x00000004	6e-45
174	0x00000004	6e-45
175	0x00000004	6e-45
176	0x00000004	6e-45
177	0x00000004	6e-45
178	0x00000004	6e-45
179	0x00000004	6e-45
180	0x00000004	6e-45
181	0x00000004	6e-45
182	0x00000004	6e-45
183	0x00000004	6e-45
184	0x00000004	6e-45
185	0x00000004	6e-45
186	0x00000004	6e-45
187	0x00000004	6e-45
188	0x00000004	6e-45
189	0x00000004	6e-45
190	0x00000004	6e-45
191	0x00000004	6e-45
192	0x80000004	-6e-45
193	0x00000004	6e-45
194	0x00000004	6e-45
195	0x00000004	6e-45
196	0x410ef8f5	8.935781
197	0x426cbfde	59.18737
198	0xbf99530d	-1.197847
199	0xc2249f7a	-41.15574
200	0xc148c485	-12.547978
201	0x4097c163	4.742357
202	0x4194a76f	18.581755
203	0xc03d9c8e	-2.9626803
204	0x40b50fd7	5.6581836
205	0xc183233c	-16.392204
206	0xc1dc75c6	-27.557507
207	0x40239780	2.5561218
208	0x4186540d	16.79104
209	0x41a0ef34	20.116798
210	0xc0574ccf	-3.364063
211	0xc10d30f6	-8.824453
212	0xc0adc470	-5.430229
213	0x3fd5dcd6	1.6708019
214	0x4196be5e	18.842953
215	0x4032eb9f	2.7956312
216	0x3f9f8ade	1.2464254
217	0x3ff8c538	1.9435186
218	0x4033772e	2.8041492
219	0x411022ff	9.008544
220	0xc0d0d0da	-6.5254946
221	0x41b37382	22.4314
222	0x3ecfb7ab	0.40569815
223	0x40898fcc	4.2988033
224	0x421c9033	39.14082
225	0x420d048f	35.25445
226	0xc13a876d	-11.658063
227	0xc15a0b3b	-13.627742
228	0x400e3658	2.2220669
229	0x418281af	16.313322
230	0x40c6c1f9	6.2111783
231	0x411df6b0	9.872726
232	0x41c0949f	24.072569
233	0x411c0279	9.750604
234	0x40941ba5	4.6283746
235	0x40cf89a3	6.4855514
236	0x415467ab	13.27531
237	0x41cbc9c9	25.473528
238	0x41570df0	13.440903
239	0xc08abe9f	-4.335769
240	0xc0d889b7	-6.766811
241	0xc16a5143	-14.644839
242	0xc075ee85	-3.842683
243	0xc124001c	-10.250027
244	0xc16505dd	-14.313931
245	0xbf6e340f	-0.93048185
246	0x41f5b0c7	30.711317
247	0x421c3954	39.055984
248	0xc0de6594	-6.9498997
249	0x4121c3a4	10.110264
250	0x40b59c74	5.6753483
251	0x4289b121	68.845955
252	0x00000004	6e-45
253	0x00000004	6e-45
254	0x00000004	6e-45
255	0x00000004	6e-45

exp_avg_sq f4 [5, 128]
0	0x412aa120	10.664337
1	0x40e2635c	7.074629
2	0x40ce5dc3	6.4489455
3	0x40ff998b	7.987493
4	0x40d94423	6.7895675
5	0x41229486	10.161261
6	0x40d1eea8	6.560383
7	0x415fc96b	13.986674
8	0x410ad9e5	8.678197
9	0x410ee63b	8.931209
10	0x416142f9	14.078851
11	0x412603a3	10.375888
12	0x40e5f835	7.1865487
13	0x4050867e	3.2582088
14	0x4120de0c	10.054211
15	0x4101534b	8.082835
16	0x411db237	9.8560095
17	0x4119e31f	9.6179495
18	0x411f2736	9.947073
19	0x41396e18	11.589378
20	0x40c19b67	6.05022
21	0x40de0812	6.938485
22	0x410905a1	8.563874
23	0x411b0ff0	9.691391
24	0x40d48f16	6.6424665
25	0x41633385	14.200078
26	0x4117dc12	9.491228
27	0x40c4c2e4	6.1487904
28	0x40803394	4.006296
29	0x40d60b5a	6.6888857
30	0x40eb59ac	7.3546963
31	0x414b6fa3	12.714755
32	0x4123cdbd	10.237729
33	0x4116a203	9.414554
34	0x412f9fed	10.976544
35	0x411c4141	9.765931
36	0x411ffe7f	9.999633
37	0x412b5d70	10.710312
38	0x40b27c60	5.5776825
39	0x40bf9e0d	5.9880433
40	0x40bea230	5.9572983
41	0x40eae2ef	7.340202
42	0x40ceee49	6.4665875
43	0x41111b2f	9.069137
44	0x410244dd	8.141812
45	0x40c1fdf5	6.0622506
46	0x4096d18a	4.7130785
47	0x3f9487a7	1.1603898
48	0x4112411d	9.140897
49	0x411d2df3	9.823718
50	0x4128ed2c	10.557903
51	0x40c5bdb7	6.1794086
52	0x41370d9c	11.440823
53	0x4133666b	11.212504
54	0x4125c848	10.361397
55	0x41390387	11.563361
56	0x418428be	16.519894
57	0x40d3d2d9	6.6194882
58	0x4197532a	18.915607
59	0x4119556b	9.583354
60	0x4108b75a	8.544764
61	0x417457cc	15.271435
62	0x413b7a6c	11.717388
63	0x409d3a62	4.913377
64	0x4182c883	16.347906
65	0x410f239d	8.946195
66	0x41163857	9.388755
67	0x41114f43	9.081851
68	0x4158033e	13.500792
69	0x40ded19e	6.963088
70	0x4155d637	13.364799
71	0x40b24b80	5.5717163
72	0x3f8c03b9	1.0938636
73	0x40e03ebb	7.0076575
74	0x415a909f	13.660308
75	0x40f60cff	7.6890864
76	0x40dc60f4	6.886835
77	0x40e60581	7.188172
78	0x40811663	4.0339828
79	0x416e607f	14.898559
80	0x40dd58e8	6.917103
81	0x41266423	10.399447
82	0x417bdfda	15.742151
83	0x41357be0	11.342743
84	0x413f270e	11.947035
85	0x40866842	4.200227
86	0x4141c68e	12.110975
87	0x410fa746	8.978338
88	0x412465f5	10.274892
89	0x40a26d3b	5.075834
90	0x4064cd9f	3.57505
91	0x416d4264	14.828709
92	0x412c7587	10.778693
93	0x41222717	10.134543
94	0x41294a13	10.580585
95	0x40df4acf	6.977882
96	0x403692fd	2.8527215
97	0x413db386	11.856329
98	0x4067b14c	3.6201963
99	0x4135cc2b	11.362346
100	0x418345ce	16.409084
101	0x40f483b0	7.641075
102	0x40d0d89f	6.526443
103	0x412c6cde	10.776579
104	0x40b0a8af	5.5205913
105	0x40cf4aa0	6.4778595
106	0x40ae966e	5.455863
107	0x411e2c55	9.885823
108	0x40d4158d	6.6276307
109	0x40b792b9	5.7366605
110	0x412f2113	10.945575
111	0x410209f0	8.127426
112	0x414c14cc	12.755077
113	0x41470915	12.439717
114	0x4101f1e8	8.121559
115	0x4129d2f0	10.613998
116	0x40d26de0	6.5759125
117	0x413be883	11.744266
118	0x4117b2cb	9.481151
119	0x40f607a8	7.6884346
120	0x40d55133	6.666162
121	0x40e44b7a	7.1342134
122	0x412bf24c	10.7466545
123	0x413badd0	11.729935
124	0x41300501	11.001222
125	0x410ea922	8.916292
126	0x412d3443	10.825259
127	0x408daffc	4.4277325
128	0x45cf2af6	6629.37
129	0x453074b1	2823.2932
130	0x45814f33	4137.9
131	0x4580278b	4100.943
132	0x45863b5c	4295.42
133	0x45a65d61	5323.6724
134	0x456fe3dc	3838.2412
135	0x45fe9a7f	8147.312
136	0x45af858c	5616.6934
137	0x45eb3534	7526.6504
138	0x4619c7c5	9841.942
139	0x45a22f9f	5189.9526
140	0x459afb5b	4959.4194
141	0x44fc66d0	2019.2129
142	0x45db324c	7014.287
143	0x453e4886	3044.5327
144	0x45d05a54	6667.291
145	0x45f0b3df	7702.484
146	0x45aed2f6	5594.37
147	0x46007807	8222.007
148	0x4561e954	3614.583
149	0x45a9eebe	5437.843
150	0x45d096c2	6674.8447
151	0x45d69d4c	6867.662
152	0x458eb062	4566.048
153	0x461db010	10092.016
154	0x45c23f1a	6215.8877
155	0x456fe5a4	3838.3525
156	0x453af213	2991.1296
157	0x45905d09	4619.6294
158	0x45942a2a	4741.2705
159	0x45f01fb6	7683.964
160	0x460e3095	9100.1455
161	0x45c23d03	6215.6265
162	0x45cfb625	6646.768
163	0x45c3adb9	6261.7153
164	0x45b49188	5778.1914
165	0x45bb9e58	6003.793
166	0x454938bf	3219.5466
167	0x45472d5c	3186.835
168	0x44fd81d8	2028.0576
169	0x45a7e405	5372.5024
170	0x454ac3bc	3244.2334
171	0x45a5d5fd	5306.7485
172	0x4598acaf	4885.5854
173	0x4535ef30	2910.9492
174	0x45329277	2857.154
175	0x4436f794	731.8684
176	0x459b6506	4972.628
177	0x45d5b99a	6839.2
178	0x45c66d8a	6349.6924
179	0x458c861b	4496.763
180	0x45c9bedf	6455.859
181	0x45b755c0	5866.7188
182	0x456b1aa2	3761.6646
183	0x45b9c532	5944.6494
184	0x462bf0db	11004.214
185	0x454c658d	3270.347
186	0x461cf99b	10046.401
187	0x45e26b72	7245.4307
188	0x45a1bfea	5175.9893
189	0x46155a89	9558.634
190	0x45e86a21	7437.266
191	0x45001e57	2049.8962
192	0x46193fa8	9807.914
193	0x457d89c3	4056.61
194	0x45877d00	4335.625
195	0x45ad7438	5550.5273
196	0x45eb49bf	7529.2183
197	0x4591ecf6	4669.62
198	0x4623c9da	10482.463
199	0x4545d21e	3165.1323
200	0x4440692a	769.6432
201	0x45b190e3	5682.111
202	0x45fc9f2a	8083.8955
203	0x456f9bfb	3833.7488
204	0x454c2d54	3266.833
205	0x457c4f04	4036.9385
206	0x4553eaba	3390.6704
207	0x45e9ed6d	7485.678
208	0x45594689	3476.4084
209	0x45dfac10	7157.508
210	0x46088387	8736.882
211	0x45f5b26d	7862.303
212	0x459fedc0	5117.7188
213	0x45193e39	2451.889
214	0x45bdc5cc	6072.7246
215	0x4599910c	4914.131
216	0x45bea283	6100.314
217	0x4541c7f0	3100.496
218	0x450a8c54	2216.7705
219	0x462d3f6a	11087.854
220	0x45db2856	7013.042
221	0x45aefbd9	5599.481
222	0x45c84550	6408.664
223	0x4557e4ab	3454.2917
224	0x448330c0	1049.5234
225	0x45ec23ff	7556.4995
226	0x451e13c7	2529.236
227	0x460040d6	8208.209
228	0x4605b6c8	8557.695
229	0x45c401d2	6272.2275
230	0x458040bc	4104.092
231	0x45fc0226	8064.2686
232	0x459ce3db	5020.482
233	0x45916cc7	4653.597
234	0x4539af7b	2970.9675
235	0x45d73e41	6887.7817
236	0x45652af2	3666.684
237	0x45a261c5	5196.221
238	0x459b22c1	4964.344
239	0x45bc30c4	6022.0957
240	0x459d9be1	5043.485
241	0x45d5cc05	6841.5024
242	0x45661a15	3681.6301
243	0x45ab177f	5474.937
244	0x458d7aed	4527.3657
245	0x45c82e33	6405.775
246	0x458218d0	4163.1016
247	0x457a2c72	4002.7778
248	0x457fe1ef	4094.1208
249	0x457242df	3876.1794
250	0x45852c85	4261.565
251	0x45d03c2b	6663.521
252	0x460184fc	8289.246
253	0x45a99502	5426.626
254	0x45cad775	6490.932
255	0x457602ed	3936.1829
