model/90a.pt (torch_old, 336838 bytes, 24 tensors)

fc1.weight f4 [128, 28]
000000 a6 24 7c 3c 8b 47 59 3e 08 9b 9c be 27 31 2a be
       0.015389597 0.21218698 -0.3058703 -0.16620313
000010 03 71 27 be 9b 98 de bd ba f3 27 be ca 79 a4 be
       -0.16351704 -0.10868951 -0.16401568 -0.32124168
000020 74 3f 1d be 5f 9d 18 be d9 1f 98 bd f7 f0 96 be
       -0.15356237 -0.14903782 -0.074279495 -0.29480717
000030 1c 36 85 be 24 3e 2f be 55 cf 48 3d 23 65 aa bd
       -0.26017845 -0.17113549 0.049025852 -0.083200715
000040 0d 36 85 3e cc 9a 6f 3e e3 02 36 3d fd b3 fb be
       0.260178 0.23398894 0.044436347 -0.49160758
000050 90 c7 c1 be 83 ca 96 be e8 9a b2 be b3 f7 1a 3e
       -0.37847567 -0.2945138 -0.3488381 0.15133552
000060 b4 35 ed be 5a 9b 34 3c 89 3c 00 bf 47 ed 4f 3d
       -0.46330035 0.011023367 -0.5009237 0.050763395
000070 f4 a0 6f 3f 3d cf 03 3f 50 a2 e8 3c a3 b5 16 bd
       0.9360497 0.51488096 0.02839771 -0.036794316
000080 26 51 e3 bb f5 4d 95 be 52 8f 06 3e 5e 00 f5 3d
       -0.006937164 -0.2916104 0.1314061 0.11962961
000090 93 5c 4b bd d7 d0 21 b9 dc 4f cc 3b f8 cc 9a 3c
       -0.049648833 -0.00015431955 0.006235106 0.018896565
0000a0 b6 0e 1f be fe a6 90 be b2 a1 81 3c b1 7a a0 3d
       -0.15532956 -0.28252405 0.015824173 0.078359015
0000b0 21 31 46 3e fd 41 48 3c 45 1d 0d be f9 32 c7 bd
       0.19354679 0.012222764 -0.13780697 -0.09726519
0000c0 06 9b c9 bd 47 98 ca 3d 71 4d f2 3d 1e aa 57 3f
       -0.098440215 0.09892326 0.11831177 0.84243953
0000d0 6a 90 20 3e 6f 53 65 bd 4e 44 73 3f 89 00 20 bc
       0.1568009 -0.05598777 0.950261 -0.009765753
0000e0 db 9d 40 bf ec c8 1b bf b2 02 ed bd 5a 06 1f 3e
       -0.7524087 -0.6085346 -0.1157278 0.15529767
0000f0 15 3c b6 bd 34 69 1d be a3 29 fd bc 55 f3 64 3d
       -0.088981785 -0.15372163 -0.030903643 0.055896122
000100 2e 08 bf 3d e9 ba 39 3e 96 c1 1f 3e 01 08 83 3e
       0.09327732 0.18137707 0.15601191 0.25592044
000110 4a ee ed 3d 45 3d f0 3d c4 2b b5 3d b7 65 8e bd
       0.11617716 0.11730436 0.08846238 -0.06952994
000120 e6 2e 42 bc f3 ec 77 be 6f c1 a8 3d d9 e7 f4 bd
       -0.011852002 -0.24211483 0.082400195 -0.11958284
000130 3d 14 a4 3d 9c 3e e1 bd 04 b2 9c be 8d 5b 62 bf
       0.08011673 -0.1099827 -0.30604565 -0.88420945
000140 d1 4f 59 3e 7a ab 2f 3e 4a c4 7c bf a9 3e ea 3d
       0.21221854 0.17155257 -0.98737013 0.11437733
000150 ca e8 ea be 97 55 f5 be c7 c0 86 be d9 49 fd bd
       -0.4588073 -0.47916862 -0.26318952 -0.12367601
000160 c4 1d a8 bd 67 6b 64 bc a1 82 28 be b2 7f 90 3d
       -0.08208802 -0.013941622 -0.16456081 0.07055606
000170 c6 70 f9 3d 43 e6 7c 3e c7 f9 77 3e 96 8a cd 3d
       0.12179713 0.24697213 0.24216376 0.10036199
000180 b3 b8 f4 3d 75 ba 40 bc f7 23 8b bd 34 7c b0 be
       0.11949291 -0.011763205 -0.06793969 -0.3446976
000190 00 9b 1a be ff 25 4b be 84 f9 98 3e ce 9d d7 3d
       -0.1509819 -0.19838713 0.29877865 0.10528146
0001a0 58 a0 d8 3d 8e c8 17 bd 3b e2 64 be f1 98 14 bf
       0.10577458 -0.0370565 -0.22351925 -0.5804587
0001b0 a3 34 ea 3d 45 ba 34 3c 7f 9d 4d bf 44 32 cd 3d
       0.11435821 0.011030738 -0.80318445 0.10019353
0001c0 bd c3 38 bf 92 09 f4 be 91 67 87 3e 5d c1 b8 bc
       -0.7217367 -0.47663552 0.26446202 -0.02255314
0001d0 ed 08 dd bd ee 0c 1a bd 32 86 28 be 90 4d e6 3d
       -0.10792718 -0.037609987 -0.16457441 0.112452626
0001e0 93 fd db 3d b0 57 35 3d d1 9f a1 3e 17 85 33 3e
       0.10741725 0.04427308 0.31567243 0.17531238
0001f0 98 6b 1c bd a3 ed bf 3d 76 15 13 3e fe b8 54 3d
       -0.038188547 0.093714975 0.14363655 0.051934235
000200 f1 72 bb be a3 58 b3 be d2 c3 6c bb 9f fd cd 3d
       -0.3661113 -0.35028562 -0.003612746 0.1005814
000210 2e 6e 6c 3d fe 9b b1 3d 55 a0 2f bd 8f af 38 bf
       0.057722263 0.08672331 -0.042877514 -0.7214288
000220 f9 5a 82 3e 1d 32 36 3e d3 a4 56 bf a5 4a 21 3d
       0.25460032 0.17792554 -0.8384525 0.039377827
000230 99 e9 1f bf 51 cb 63 bf bd fd a8 be 29 73 91 3e
       -0.62465817 -0.8898211 -0.33006087 0.28408173
000240 7d ca 4e 3e 0b b3 e4 3d cd 88 b6 bd c1 09 bf 3d
       0.2019443 0.11166962 -0.089128114 0.09328032
000250 3e 4b d1 3d 7b e4 a3 3d 7a 42 61 3e ab b6 69 bb
       0.102194294 0.080025636 0.21998015 -0.0035661857
000260 49 46 f5 3d 41 a1 36 bd 2d 2d 31 bb 9b b6 ae 3d
       0.119762965 -0.044587377 -0.0027034984 0.08530923
000270 97 51 6c bc 45 17 c9 3d c2 3b 04 3e 09 fd 85 3e
       -0.014423749 0.098188914 0.12913421 0.26169613
000280 60 8e 0a be 39 f9 04 3e 21 88 07 3e 32 c5 35 bf
       -0.13530874 0.12985696 0.13235523 -0.7100402
000290 dc ab 0a 3e 81 cc 48 3e 8d ec 3c bf be a7 99 bd
       0.13542122 0.19609262 -0.7379845 -0.075026974
0002a0 34 da f4 be 71 04 45 3e 23 cc 5e 3d d6 78 3e 3c
       -0.47822726 0.19239976 0.0543939 0.011625489
0002b0 1b c2 10 3e 42 01 06 bd b6 0d 9b 3e 38 c5 56 3e
       0.14136545 -0.032716043 0.30283898 0.2097367
0002c0 c0 8e 66 3e 9f 11 1d 3e 06 a2 88 3e c7 2b 95 bd
       0.22515392 0.15338753 0.26686114 -0.072837405
0002d0 b1 b3 0c bd a0 5c 12 3e 19 72 f8 bc 78 e0 28 be
       -0.034351055 0.14293146 -0.030327844 -0.16491878
0002e0 c4 ac a5 3d a7 3e 87 3e 12 a7 f8 3d 90 4c 3d be
       0.08089593 0.26414987 0.12141241 -0.18486238
0002f0 53 7e fb 3c c5 0e 23 3d 2f fb b3 bd a3 42 22 bf
       0.030699885 0.039809007 -0.08788144 -0.6338293
000300 50 ea 08 be 92 6c 91 bc 27 76 84 bf 05 f8 be bc
       -0.13370633 -0.017751966 -1.0348557 -0.023311624
000310 c1 c8 2b bf ab dd 8a bd ab fa 5f 3b b9 0f 7c bb
       -0.671032 -0.06780561 0.003417651 -0.003846152
000320 72 e9 13 be f6 6a 17 3e 21 9d 83 3d 27 6d 32 3c
       -0.14444521 0.14786896 0.06426454 0.010890282
000330 8c c4 52 3e 03 e6 20 be 3a 50 da bd 02 b7 49 be
       0.20582789 -0.15712743 -0.10659833 -0.19698718
000340 de 02 6a bd ad 01 f7 3c a0 ed 06 3d fb af 73 be
       -0.05713164 0.030152166 0.03294146 -0.237976
000350 d4 0c c9 bd 4d 2f 2f bd 7f 53 04 be fa 47 bf be
       -0.098169 -0.04276972 -0.12922476 -0.373596
000360 a4 c5 4c bf 32 71 3b bf cd aa 29 bf 5e 33 4e bf
       -0.79989076 -0.732196 -0.66276246 -0.8054713
000370 a2 77 8c be cf 3e 07 3d b9 84 74 bf 08 0b c5 3d
       -0.27435023 0.033018883 -0.9551502 0.09621245
000380 94 e3 88 3e 24 e0 1b 3f ad 2c 14 be 96 af 25 3e
       0.26736128 0.60888886 -0.14470167 0.16180262
000390 f9 c4 e3 3c 91 6c f7 3c 99 62 0c be 0b 86 4f be
       0.027803885 0.030203136 -0.13709487 -0.20265977
0003a0 6f d9 7a bd c8 bf db 3d 35 ce 9c bd b3 11 ac 3d
       -0.061242517 0.10729939 -0.07656518 0.08401813
0003b0 3e 07 00 be 07 d8 16 be e4 73 15 3b 00 e0 57 bd
       -0.12502763 -0.14730845 0.0022804672 -0.052703857
0003c0 8a 5e 19 be ac 8c a8 bc db d4 9a 3d 60 29 9e bd
       -0.1497747 -0.02057489 0.0756013 -0.077227354
0003d0 a0 7a 86 3e 55 c5 79 bd ab e9 25 3c 60 69 b5 3e
       0.2626543 -0.060979206 0.010126512 0.35431957
0003e0 1c 00 bd be 4e 42 8d bd 7d 94 38 3f 58 c2 19 3e
       -0.36914146 -0.06897412 0.72101575 0.15015543
0003f0 ce 9c 36 3e 2b 34 28 be 13 07 3b bd de b2 02 be
       0.17833254 -0.1642615 -0.045661043 -0.12763545

fc1.bias f4 [128]
000000 d1 c1 e4 3c d0 cc 25 ba 9a 75 9d bc d9 3f a5 bc
       0.02792445 -0.000632477 -0.019221116 -0.020172046
000010 36 c2 75 3d 51 0f b2 3d af 0a 0a 3e 04 43 37 bd
       0.059999667 0.086943276 0.13480638 -0.044741645
000020 d9 e0 74 be 0a c8 77 bb 65 fc 6c bd cb 7a c3 3d
       -0.23913898 -0.0037808442 -0.05785789 0.09544905
000030 32 ba 39 3d 20 7c fd 3d bc 20 60 3c 88 ac 2c be
       0.045343585 0.123771906 0.0136796795 -0.1686269
000040 4c 55 2e be f8 0c b7 bd 76 bb 0a be 60 87 2d be
       -0.17024726 -0.089380205 -0.13548073 -0.16946173
000050 59 fc 41 3d f1 78 4b 3d 77 3b f0 3e 66 9d 4b 3e
       0.047359798 0.049675886 0.46920368 0.19884261
000060 be 52 92 bd 33 32 5d be 73 6b d4 bd 20 bb dc bd
       -0.07144688 -0.2160118 -0.10372057 -0.10777879
000070 6b 70 a1 3d d5 11 22 be de ca 1d be 2e da c8 3d
       0.0788277 -0.15827115 -0.15409419 0.098072395
000080 78 3e 43 bd 3e d8 d9 bd ad 88 8b 3e fc 79 67 bd
       -0.047666997 -0.10636948 0.27252713 -0.056512818
000090 30 b8 b4 3d 92 40 0f be 22 22 7c bd 16 58 9f bd
       0.088241935 -0.13989475 -0.06155599 -0.07780473
0000a0 bc a9 07 be 35 bf 55 3e a8 23 91 3c 73 20 05 bd
       -0.13248342 0.20873721 0.017717198 -0.03250165
0000b0 a8 f2 cc b8 21 5b 7a be 85 33 e0 3c b7 0c f8 3e
       -9.772676e-05 -0.24448825 0.027368316 0.484472
0000c0 cc 37 2d 3e 9e 98 9b bb f1 1b 1d 3d 3e fc d4 3d
       0.16915816 -0.004748418 0.038356725 0.10399674
0000d0 ea dc 4f be f8 38 47 bd 8d 13 03 3e 14 71 33 be
       -0.20299116 -0.048638314 0.12800427 -0.17523605
0000e0 b2 13 12 3d 9b fb 30 3e 70 35 44 be 1d 4f 0c 3f
       0.035663314 0.1728348 -0.1916101 0.5480822
0000f0 81 95 54 3d d2 b8 11 bd 8f 4e 58 3e c8 0d 2d be
       0.05190039 -0.03557665 0.21123718 -0.16899788
000100 fb 9c 4a 3e a0 f3 5b 3e 1a 51 9f 3d 50 7f 54 3e
       0.19786446 0.21479654 0.07779141 0.20751691
000110 47 ec a4 bd c5 a9 81 3e 72 2f 44 be 4d 49 a7 bc
       -0.08052879 0.25324836 -0.19158724 -0.020420695
000120 cc f4 3c be 5e 30 90 bc cc d2 eb 3c 81 5d 2d be
       -0.18452758 -0.017601188 0.02878704 -0.169302
000130 e6 5c 94 3d c9 c8 ed bd 5f 8d db bd 24 2a d9 3c
       0.072442815 -0.11610562 -0.10720324 0.026509352
000140 f4 df 36 3d b3 0c 38 3c 4a e7 70 3d 8d a4 b5 3d
       0.044647172 0.0112334965 0.058814324 0.08869276
000150 6e 0c 78 3e 5a c2 58 3d d8 fc 0c bd fb 4c de bd
       0.24223492 0.052919723 -0.034420818 -0.108545266
000160 a2 b0 0e 3d 5d 3b b7 bc 79 e5 07 be 60 45 0b 3d
       0.03483642 -0.022367174 -0.1327113 0.034001708
000170 2a 58 b0 3c 8e 27 d5 3c 3c 12 75 bd 6b 51 d6 bd
       0.021526415 0.026019838 -0.059831843 -0.10464748
000180 f8 ac 01 be 87 28 2a be 7a dd 40 3f c4 93 a2 3d
       -0.12663639 -0.16617022 0.75337946 0.0793834
000190 9f bd c7 3e 56 6f 57 bd 4c 40 b4 3d ef b5 c5 bd
       0.39011857 -0.052596413 0.08801326 -0.09653842
0001a0 2e e0 f4 3d 22 dc 6b 3d d3 f1 c4 3b ef 49 82 3e
       0.119568214 0.057582982 0.006010273 0.25447032
0001b0 17 c1 e9 bc 94 0c c3 bd 87 d2 d2 3d f7 18 8d 3e
       -0.028534455 -0.095238835 0.10294061 0.2755811
0001c0 1d ab fb bd e1 2e a7 3d f2 15 60 3d 75 a2 96 bb
       -0.12288497 0.08163238 0.05470843 -0.004597003
0001d0 22 1a 29 be 37 cd 47 bd b6 54 b6 3d 6d a2 e3 bd
       -0.16513875 -0.048779693 0.08902876 -0.11114965
0001e0 a3 d3 82 bd 3b 0a f1 bc a2 60 1c bd fa 02 42 3d
       -0.06388023 -0.029423824 -0.038178094 0.04736612
0001f0 18 f4 65 3d e2 c8 18 bc fd 35 db bd b8 8d 13 be
       0.05614099 -0.009325238 -0.10703657 -0.1440953

fc2.weight f4 [128, 128]
000000 59 ed 9e be 60 be 85 be 3b 31 de 3d 48 4d 81 bd
       -0.31040457 -0.26121807 0.10849234 -0.06313568
000010 5b 39 54 3e bc 37 6a 3d d9 63 03 3c b7 82 e0 3e
       0.20725004 0.05718206 0.008019411 0.43849728
000020 a1 30 c4 bd f8 2b ab be 01 77 0c bd 48 05 dd bd
       -0.09579588 -0.33431983 -0.03429318 -0.10792023
000030 22 ab 41 3e 78 bb af 3e 25 2b 4d bd aa fa af be
       0.18912938 0.34322715 -0.050089974 -0.3437093
000040 fb df d2 bc 46 f4 9b 3c 47 c1 80 be f3 6c 34 bd
       -0.025741568 0.019037377 -0.2514746 -0.044049215
000050 c7 2c b5 be 05 7e 85 bd f0 0e 19 bd 21 89 4a 3e
       -0.35385725 -0.06518177 -0.03736776 0.19778873
000060 92 9e d8 3d e6 2d 98 be 58 0b 19 3e 19 b6 2f 3e
       0.1057712 -0.29722518 0.14945734 0.17159308
000070 00 15 2a 3d cf 77 88 3e dd ce 2d 3d e0 ba 1e 3e
       0.041523933 0.26653907 0.04243361 0.15500975
000080 e1 97 27 bd d7 02 1c 3f ca 77 60 3e f3 83 6d 3e
       -0.040916327 0.60941833 0.21920696 0.23194866
000090 88 65 bb 3e 61 e5 09 3d ed 06 96 3e 8e 51 66 be
       0.366009 0.03366602 0.2930216 -0.22492048
0000a0 4f cf af be 7d 0e 3b bd b6 fe 06 3e b7 ad 87 3e
       -0.3433785 -0.045668114 0.13183102 0.2649972
0000b0 13 5c d3 bc 75 4a 94 be 7f 30 93 3e e6 5d 0f 3e
       -0.02580074 -0.28963056 0.28747937 0.14000663
0000c0 f4 f4 2b 3e 18 99 e2 bd c6 e2 95 3e cb 9c 85 3e
       0.16792661 -0.110643566 0.29274577 0.26096186
0000d0 cc 82 a8 bb 34 c7 4b bd 86 f3 92 be f7 73 df 3a
       -0.0051425453 -0.04975052 -0.2870142 0.001704811
0000e0 41 77 6a be bc 78 4d 3d 4e 8e 41 be 49 ee 12 bf
       -0.22897054 0.05016397 -0.18901941 -0.57394844
0000f0 39 46 76 3e a8 86 9a be 54 4b 0d 3e fe 76 06 bf
       0.24050225 -0.3018086 0.13798267 -0.5252532
000100 52 85 25 3e 50 b8 c2 3e 05 ca a6 3e b9 d2 e2 3d
       0.16164139 0.38031244 0.32576004 0.110753484
000110 e1 4e b6 bb d3 89 27 3e aa 78 26 be 38 b9 0a 3c
       -0.0055636023 0.1636117 -0.16256967 0.008467011
000120 03 ad 7a be 0c dc ed 3d 72 a8 80 be b3 f4 29 be
       -0.24480061 0.11614236 -0.25128514 -0.16597252
000130 07 1d 02 be 48 78 1e 3e d0 c6 71 bc 3e 6c 99 3e
       -0.12706386 0.15475571 -0.014756873 0.29965395
000140 ed d8 60 bd ec 68 c4 be 99 1a a5 3d ed 10 c2 be
       -0.054894377 -0.383613 0.08061714 -0.37903538
000150 c6 81 8f 3e c6 89 d8 ba 7f 2c 30 bd ae 66 87 bd
       0.28028697 -0.0016520552 -0.043011185 -0.066113815
000160 12 05 4a be 2f 51 4a 3e 32 36 b0 be 83 09 c8 bd
       -0.19728497 0.19757532 -0.34416348 -0.09767439
000170 1a 74 b1 be c6 3e 03 be c1 f9 ba 3c 6b 95 7a bd
       -0.3465889 -0.12816915 0.02282417 -0.061177652
000180 d4 cc 12 3e db e0 7c be 26 55 07 be 79 d2 85 be
       0.14335948 -0.2469515 -0.13216075 -0.2613714
000190 e9 d9 c6 be 00 63 a4 be 09 24 89 3e 46 fb 35 3d
       -0.38838127 -0.3210678 0.26785305 0.044429086
0001a0 a7 7d 26 3e a9 4e cf 3d 93 fe 87 3e fe 3d 5d 3e
       0.1625887 0.10122425 0.26561412 0.2160568
0001b0 39 de 11 3e cb f2 96 bd be 20 5e bd d6 75 be 3c
       0.14244927 -0.07370528 -0.054230444 0.023249548
0001c0 dd db 0c be 70 7b 0d be 4e 50 20 bb ae 77 7c 3d
       -0.13755746 -0.13816619 -0.0024461928 0.061637573
0001d0 ba 73 8e 3d 3b 61 05 3f e6 11 10 3e 1f 48 2b 3e
       0.06955667 0.52101487 0.14069328 0.16726731
0001e0 2f c7 13 bf f8 c4 4e bd 0c 2b 9b 3e ec bb 7a bd
       -0.57725805 -0.050480813 0.3030628 -0.061214373
0001f0 ea 68 8f be 31 2f dd 3e d8 29 e0 3c 0d b4 2c be
       -0.2800973 0.43200067 0.027363703 -0.16865559
000200 d4 12 82 3d 6e ec 09 bd 0f 08 f8 bd e1 0a 25 3e
       0.063512474 -0.033672743 -0.12110912 0.16117431
000210 c9 9c fd bd 7e 88 86 3e a7 ea 9b 3d 13 d6 de 3e
       -0.1238342 0.2627601 0.07613116 0.435227
000220 b7 40 54 3d ca 60 06 3e 68 33 12 3d ce 82 00 bd
       0.05181953 0.1312286 0.035693556 -0.031374745
000230 2b 98 9e 3d 63 4e ab 3e 8d 3d 66 3e c7 10 af be
       0.077438675 0.33458242 0.22484417 -0.34192488
000240 b8 45 96 bd 62 e8 99 3d ce e4 c6 3e e9 18 6b 3d
       -0.073375165 0.07515027 0.3884644 0.057396803
000250 c2 ff 2c 3e ce f4 ca bd 4a 82 10 be c2 b6 f4 bc
       0.16894439 -0.09909974 -0.14112201 -0.029872302
000260 5c 5c 39 bd 47 8c b1 3e 2a dc 19 be 22 a3 62 bd
       -0.045254096 0.34677336 -0.15025392 -0.055331357
000270 23 a5 dc 3e 35 f5 03 3e 42 27 5a be 23 9d 76 bd
       0.4309474 0.12886508 -0.21304038 -0.06020845
000280 48 de 47 3e 63 37 91 3e 58 2f 44 3e 22 e5 db bd
       0.19518387 0.2836257 0.19158685 -0.10737063
000290 69 f5 62 3e d5 d6 84 3d c1 35 41 3e 9e 37 38 be
       0.22163929 0.064862885 0.18868162 -0.17989966
0002a0 f2 64 4f 3e b9 a7 e5 3d 0c 0c ce bd 4b cc 17 3e
       0.20253351 0.11213631 -0.100608915 0.14824025
0002b0 9c a4 2e 3e 85 74 d1 3d 63 2c 2a 3e a1 33 7d 3e
       0.17054981 0.102273025 0.16618495 0.24726726
0002c0 25 33 d4 3d 6e 85 a6 3e 82 06 3d 3e 1c 36 be 3c
       0.103613175 0.32523674 0.18459514 0.02321916
0002d0 c5 e2 80 bc b8 e2 35 be 6c 86 3d bc b7 d8 31 be
       -0.015733132 -0.17762268 -0.011567693 -0.17367826
0002e0 4d 42 83 3e 56 86 c8 3e 85 85 75 bb 30 8e 17 bf
       0.2563652 0.3916499 -0.0037463617 -0.59201336
0002f0 0b a4 d8 3e 5d d1 24 be d9 ce 2a 3e af dd 54 bd
       0.42312655 -0.16095491 0.16680469 -0.051969226
000300 a6 d2 e5 3d 1f 48 cd 3c 0b cb 85 3e f7 83 91 3d
       0.112218186 0.025058804 0.26131472 0.071052484
000310 2f 8a 97 3d 49 6c c8 3d 88 42 8d 3e 23 73 ba bd
       0.07399403 0.09786279 0.27589822 -0.09103992
000320 db e1 85 3e e8 88 37 bc ab af 2f 3e 7c 0a ac 3e
       0.26148877 -0.011202075 0.17156856 0.3360175
000330 23 79 f0 3d 1b 95 b2 bd 1a 2d 9f bd 4d 2b 42 3e
       0.11741855 -0.08719846 -0.07772274 0.1896183
000340 b8 0a 82 3e 87 f0 ac 3e 5b 89 cf 3e d6 a3 4b 3e
       0.25398803 0.33777258 0.4053448 0.19886717
000350 78 ba b4 bd 31 ec 23 be 06 1f 20 3d 47 a2 f5 bd
       -0.088246286 -0.16008069 0.039092086 -0.119938426
000360 e0 a7 3b be cf ce 2a 3e ae 77 44 3d f7 31 dd 3e
       -0.18325758 0.16680454 0.047965698 0.43202183
000370 d3 e3 e9 bc ff ae 42 be 47 01 4a bd 36 a4 a3 3e
       -0.028551018 -0.19012068 -0.049317624 0.3196122
000380 3b d9 44 be ab 79 a2 bc 74 58 5a bd c7 73 39 bd
       -0.19223492 -0.019833406 -0.05330701 -0.04527643
000390 a8 4f db 3e 1a 9f fe 3e 82 78 ec bd 2c 58 14 be
       0.4283421 0.4973076 -0.115464225 -0.1448676
0003a0 4d 85 df 3d c8 b7 fd bd 22 a8 83 3e c1 19 cc 3e
       0.10914097 -0.12388569 0.25714213 0.398634
0003b0 d1 00 4d bd d7 5b 6f be 03 f1 72 3e 58 8b 12 be
       -0.050049607 -0.23374878 0.23724751 -0.14310968
0003c0 8d b8 0a 3f b7 f7 02 be ca 1f e4 3c 34 52 0e 3e
       0.5418785 -0.12789808 0.02784719 0.13898546
0003d0 65 56 a2 be 2e 08 4d 3e 9e 6a 86 3e 9a 8a 2c bd
       -0.3170654 0.20022652 0.26253217 -0.04212437
0003e0 7a 99 0e be a4 90 e4 3d 58 c5 19 3e c2 e5 f4 3c
       -0.13925734 0.111604005 0.15016687 0.029894713
0003f0 bb 68 07 3f 26 0e e4 3d 61 64 ee 3c 7c d8 14 3e
       0.5289418 0.11135511 0.029100599 0.14535707

fc2.bias f4 [128]
000000 4a 31 f4 3d eb 6d 81 3d 32 3d 99 bd 1a e7 17 3c
       0.11923464 0.06319793 -0.07482375 0.0092714075
000010 45 14 66 3b 49 45 43 3d 46 2f a7 3d e9 b9 ba bd
       0.0035107296 0.047673497 0.081633136 -0.09117491
000020 05 1e bb bd 54 8d 92 3c 21 ee 9b 3d b8 20 39 3d
       -0.09136585 0.017889656 0.07613779 0.04519722
000030 6c a0 cc bd 57 d1 e0 bc 2c 3f 4e 3d 85 e9 45 3d
       -0.099915355 -0.027443571 0.050353214 0.048318405
000040 fe bb 0b 3e 27 eb 7b 3d c6 62 57 3e f6 2c 45 3b
       0.13645932 0.061503556 0.21033773 0.0030086613
000050 98 56 b4 3d 00 fb 8d bc 88 6b 00 3b a8 c6 b5 bd
       0.08805579 -0.0173316 0.0019595344 -0.08875781
000060 cb b9 28 be af 5d 89 bc 3e d3 45 3d da f8 38 bb
       -0.16477124 -0.016768305 0.04829716 -0.00282245
000070 2c 28 cc 3d df 17 cd bd b7 d1 36 bd b1 02 95 bc
       0.099686 -0.10014319 -0.044633593 -0.01818976
000080 77 28 a5 3c 11 0f 0c 3d 78 fa 9c 3c 0d 54 2c bc
       0.020160897 0.034194056 0.019162402 -0.010518086
000090 bd 61 60 bd 0f a9 01 3e 31 e4 3d bd 7b 83 c7 bd
       -0.05478071 0.12662147 -0.0463602 -0.09741875
0000a0 d5 51 52 3e 26 f0 c6 3c 0c 7e bf 3c 77 4c 44 be
       0.20539029 0.024284434 0.023375534 -0.19169794
0000b0 e9 11 20 be 64 6c aa 3d 4e 84 b8 3d d2 66 38 3d
       -0.15631832 0.08321455 0.0900961 0.045019932
0000c0 81 c1 2f bd d2 8f 00 bd ed 96 87 bd 44 5c bc bd
       -0.04290915 -0.031387158 -0.06620584 -0.09197286
0000d0 2c 88 d5 bd fe 4a 9a bd 73 7e 2e 3e 85 20 2e be
       -0.10426363 -0.07533835 0.17040424 -0.17004593
0000e0 da 10 09 3e 63 58 04 3d 3c 66 f2 bb 2e 3e 0a be
       0.13385335 0.032310855 -0.007397441 -0.13500282
0000f0 04 dc 14 bd 44 76 56 3d 3d dc fc 3d 12 fd 14 3d
       -0.036342636 0.05235888 0.123466946 0.03637416
000100 99 61 6b bd f0 36 80 bd 61 49 a7 3d 98 8b 38 bd
       -0.057466123 -0.062604785 0.08168293 -0.045055002
000110 46 da 1c 3e 9c 95 01 be 16 27 9d 3d c7 f3 cb 3c
       0.1531764 -0.12654728 0.07673471 0.024896516
000120 5f 90 4e 3e aa ae 1a 3d 94 13 32 3d 4a 40 4f 3e
       0.2017226 0.03776423 0.043475702 0.20239368
000130 cf 8c 14 3d 78 fe 60 bd d4 28 87 bd 4c bc b4 bc
       0.036267098 -0.05493018 -0.06599584 -0.022062443
000140 7c 08 a0 3d df c8 26 3e 2f 16 fc 3d 07 65 b9 3c
       0.07814118 0.16287564 0.12308919 0.022631181
000150 53 ff 95 bd ef b8 ad bd 4c cc 30 bb 47 61 ec bc
       -0.0732409 -0.08482539 -0.002697724 -0.02885498
000160 79 15 ca bd 8e c5 27 bc 15 0c b8 3d b6 2f 14 3e
       -0.09867377 -0.010239972 0.089866795 0.14471325
000170 ec ed a0 3d 05 74 f8 bc 3d 98 8d bd 26 59 01 3e
       0.0785788 -0.03032876 -0.06913803 0.12631664
000180 3a ca 51 bd 92 ff 87 bd e1 5a d1 3c 6f a9 34 3c
       -0.05121825 -0.06640543 0.02555603 0.011026724
000190 4f 63 60 3d 40 58 f4 3d bc 76 0a 3d e5 4e 23 bd
       0.054782208 0.11930895 0.03380464 -0.03987016
0001a0 98 6b a7 bd 06 96 a3 bd 9c 4d 5f bd 1a 2c 2a be
       -0.08174819 -0.07987599 -0.054517373 -0.16618386
0001b0 7c a7 36 ba d9 0e 90 3d ad 72 ca 3d 0f cb b5 3d
       -0.0006967706 0.07034082 0.09885154 0.08876621
0001c0 93 ed f9 3d eb b9 fd bd be 86 f1 3a c0 57 1a 3e
       0.12203517 -0.12388977 0.0018426997 0.15072536
0001d0 d1 c3 91 bd 99 76 73 bd c8 0d d8 3d a4 d0 f7 bc
       -0.07117427 -0.059439275 0.105495036 -0.030250855
0001e0 e3 6f bc 3d 4a b7 2e 3e a3 37 a2 bd 41 1f b4 bd
       0.09201028 0.17062107 -0.07920768 -0.08795024
0001f0 bf b2 87 3d 85 ee 1b be 19 e7 01 3e 93 dc 09 3e
       0.0662589 -0.15227707 0.12685813 0.13463049

out.weight f4 [5, 128]
000000 07 0a 06 3f 63 60 68 be 27 5d 5c be 9c 65 9f bd
       0.5235905 -0.22693019 -0.2151991 -0.07783052
000010 4e 7b 9c be 7a dc 6d be 4f 17 c1 bd 9a 1e ce 3e
       -0.30562824 -0.23228636 -0.09428274 0.40257722
000020 0e ea ca 3e 01 51 80 3e de b1 d5 3e 9c 77 74 be
       0.39631695 0.250618 0.41737264 -0.23873752
000030 18 dd 54 3e 8d cf f3 bd be ab e3 be 31 b9 a9 be
       0.20787466 -0.119048215 -0.44466966 -0.33149102
000040 2f 0a 6e be 33 37 18 3f 0b b1 cc 3e a9 cd 90 3e
       -0.23246072 0.5945923 0.39978823 0.28281906
000050 c5 51 3b be 29 a2 77 3e b3 04 8d be 17 7a 82 3e
       -0.18292911 0.24182953 -0.27542648 0.25483772
000060 26 68 c5 3e c5 bc dc 3e 13 b7 b2 be 31 e6 fc bd
       0.3855602 0.4311277 -0.349053 -0.12348593
000070 96 43 17 3f c6 9d a2 3d 64 64 06 3e 56 fc 71 3e
       0.590875 0.07940249 0.13124233 0.23631415
000080 25 03 ec 3e 3b fd 96 3e a4 e6 da 3e 7f 69 c7 3d
       0.4609615 0.29490075 0.4275409 0.09736919
000090 b7 40 65 3e 7c ff 70 be 70 39 54 3d a2 89 89 3e
       0.22387968 -0.2353496 0.05181259 0.26862818
0000a0 1a 72 9e bd e6 72 bd be 6c 9f f2 bd 72 ac 8d 3e
       -0.07736607 -0.37001723 -0.118468136 0.27670628
0000b0 90 dd 8a 3e 17 c4 01 3d 02 5c 5c be 0c 2e f6 bd
       0.27122164 0.031681146 -0.21519473 -0.120205015
0000c0 86 c3 8a 3e 8b 66 a9 3e 56 b8 81 3e d9 22 82 be
       0.27102298 0.33086047 0.2533595 -0.25417212
0000d0 ca 44 b2 be e2 d9 54 3e f8 e3 76 be 0f 95 87 3e
       -0.34818107 0.2078624 -0.241104 0.2648091
0000e0 f3 10 b7 3e f8 dd 20 bd 57 d7 dd 3e 78 a3 71 3e
       0.3575512 -0.039274186 0.43328354 0.23597515
0000f0 36 db 19 be 92 92 a0 3e 11 86 b8 3e 8e 1d 96 bd
       -0.15025029 0.31361824 0.36039785 -0.07329856
000100 5c 99 95 3e 5e a1 73 bc fd 8e 9a be b1 d0 80 bd
       0.29218566 -0.014870016 -0.30187216 -0.06289805
000110 66 f3 e2 3e 0a 44 3f 3e e6 69 aa 3e 07 c9 c0 3e
       0.44326323 0.18678299 0.3328392 0.37653372
000120 e9 d5 15 3f 2e 64 a5 3e 38 08 9b 3e d5 75 af 3d
       0.58529526 0.32302994 0.30279708 0.085673966
000130 16 3c 82 be 3e a5 b1 3e d8 89 c7 3d bb 6f 81 3e
       -0.25436467 0.34696382 0.097430885 0.25280556
000140 1f 69 25 be e1 05 d9 3e 15 80 ba 3e 90 b9 9f 3e
       -0.16153382 0.42387298 0.36425844 0.3119626
000150 dc cf 4b 3e 1e 0a 3b 3e bb d4 a7 3e aa f4 bb 3d
       0.19903511 0.18265578 0.32779488 0.09177525
000160 61 a9 44 3e 5a e2 9b 3d c7 e7 2e be 3a 6e 67 3e
       0.19205238 0.076115325 -0.17080604 0.22600642
000170 8e 67 a4 3e 7b e0 c4 be 97 47 00 3e 65 8d 69 be
       0.32110256 -0.38452515 0.1252731 -0.22807844
000180 cc 8f c5 bd 6b 76 bc 3e 92 c9 cf be 37 a2 fe 3e
       -0.09646568 0.36809096 -0.40583473 0.49733135
000190 26 3c b4 3e a4 b7 c5 3e 12 40 7a be f6 9d 62 be
       0.3520214 0.3861667 -0.24438503 -0.2213057
0001a0 cd 1c 02 bf e6 6b 15 bf 6f 44 71 be fd 33 35 3e
       -0.50825197 -0.58367765 -0.23561262 0.17695613
0001b0 93 67 53 be 19 c7 ba be d2 ac 14 be ec 46 57 3e
       -0.20644979 -0.36480024 -0.1451905 0.21023148
0001c0 61 c1 9a 3e 37 74 ef be 45 6f 42 be 64 37 84 be
       0.3022566 -0.46768352 -0.18987758 -0.2582351
0001d0 c0 ce 94 3e b7 f2 a6 be 74 88 f2 bd 0b cc 5e bd
       0.29063988 -0.32607052 -0.118424326 -0.05439381
0001e0 04 59 f4 3d 25 01 92 bd f5 2a 15 be 16 56 07 3e
       0.11931041 -0.071291246 -0.14567168 0.13216433
0001f0 9c c0 9e 3e b7 29 9f 3e c0 4d 74 3e 30 28 f6 3e
       0.31006324 0.31086513 0.23857784 0.48077536
000200 c2 8e 7c 3e 08 3a 78 be 6b ea 4a be 41 fb 77 3d
       0.24663833 -0.24240887 -0.19815986 0.06054235
000210 f3 7a 07 bf a8 2a 85 be be f0 82 be 52 71 5e 3e
       -0.5292198 -0.26009107 -0.25574297 0.21722916
000220 d6 eb 96 3e b9 86 64 3e fa a2 a6 3e be e1 45 be
       0.29476804 0.22317018 0.32546216 -0.19324395
000230 09 9b fa 3d ad 53 0e be f7 9c 6d be 6a 4f e7 be
       0.12236602 -0.13899107 -0.23204409 -0.45177776
000240 4d 16 54 be 3c 98 83 3e 0b ae 58 3e 3f bd 15 3e
       -0.20711632 0.25702083 0.21160142 0.14622973
000250 74 76 9f be a9 ea 98 3e ab c2 2b be 16 a6 7b 3e
       -0.3114506 0.29866531 -0.16773479 0.24575076
000260 cd 8c 39 3e 49 f7 8c 3e c9 f8 8e be 04 36 a9 be
       0.18120117 0.27532414 -0.27924183 -0.33049023
000270 c9 d3 5b 3e 47 b2 51 3e 4a 50 8c 3e 33 61 85 3e
       0.21467508 0.20478164 0.27405006 0.2605072
000280 b7 dc 92 3e 9a 65 4a 3e f1 4a 35 3e 42 a8 3b 3e
       0.28684017 0.1976532 0.17704369 0.18325904
000290 ff e4 88 3e 08 51 23 be 61 42 8f 3d 09 2e 21 3f
       0.2673721 -0.1594888 0.06995083 0.6296087
0002a0 95 a3 4f be 5b c9 4f be 20 5a 04 3e 8b 89 93 3e
       -0.20277245 -0.20291655 0.12925005 0.28815874
0002b0 0e 37 86 3e 75 da 92 bd 76 7e 89 be 65 8a 6d be
       0.26213878 -0.071705736 -0.26854295 -0.23197325
0002c0 2b 38 08 3e 74 48 84 3e 33 46 7d 3e 32 0a 82 be
       0.13302676 0.25836527 0.2473381 -0.25398403
0002d0 e2 54 2e be 87 b9 b7 3e 3e bc a0 be fc 36 6c 3e
       -0.17024568 0.35883734 -0.31393617 0.2306785
0002e0 18 1e 41 3e 2c 42 8f be 7c 10 1d 3e 79 c5 67 3e
       0.18859136 -0.27980173 0.1533832 0.22633924
0002f0 a1 74 cf be eb a2 8c 3e b0 89 92 3e 60 54 5c be
       -0.40518668 0.27468047 0.28620672 -0.21516562
000300 62 00 81 3e 94 68 5f bd 51 79 63 be cd 2f 31 be
       0.25195605 -0.054543093 -0.22214247 -0.17303391
000310 dd 5b 71 3e 2e a3 f8 3d 49 a8 8e 3e 71 00 b5 3e
       0.235702 0.12140499 0.27862766 0.353519
000320 e7 c6 ac 3d 21 31 01 3f 60 46 45 3e 54 af 2b 3d
       0.08436375 0.5046559 0.19265127 0.041915253
000330 95 78 6e be b9 60 9b 3e 16 bd f5 3d d4 4b 90 3e
       -0.23288186 0.3034723 0.11998956 0.28182852
000340 21 02 7f be e2 81 e5 3e 8c 1e bb 3e 34 7c a6 3e
       -0.24903156 0.44825655 0.36546743 0.32516634
000350 79 a7 46 3e a2 9f bb bd f3 12 fa 3d 2a 10 42 3e
       0.19399823 -0.09161307 0.122106455 0.18951479
000360 5a 37 38 3e af 1c c4 3c 9f 60 0b be ee ad 68 3e
       0.17989865 0.023939459 -0.13611077 0.22722599
000370 60 5d 55 3e 07 be b7 be 45 41 0a 3e 3f cf 4e be
       0.20836401 -0.35887167 0.13501461 -0.20196246
000380 28 98 04 bf af 0e 41 3e 26 4e a4 be b1 ee c5 3e
       -0.5179467 0.18853258 -0.32090873 0.3865867
000390 5e 3c 17 3e a9 a5 7b 3e 06 a3 79 be 1c f4 c1 be
       0.14769122 0.24574913 -0.24378595 -0.37881553
0003a0 78 c0 9a be c4 93 18 be 3c 7b 28 be d9 ef 61 3e
       -0.30224967 -0.14900118 -0.1645326 0.22064151
0003b0 f3 6f 15 be f3 2c d0 be 31 97 06 be 44 12 80 3e
       -0.14593486 -0.40659294 -0.13143612 0.25013936
0003c0 7a e7 ad 3d a3 08 e6 bd fc 86 71 be d8 ea 87 be
       0.08491416 -0.11232116 -0.23586649 -0.2654636
0003d0 74 7d b4 3e b4 62 97 be e3 0c 0b be a2 08 04 be
       0.35251963 -0.29567492 -0.13579135 -0.12893918
0003e0 71 e4 62 3d d4 ec 88 be 2c dc 28 be eb 7c 40 3e
       0.05539364 -0.26743186 -0.16490239 0.18797652
0003f0 b4 57 b9 3e 39 e0 65 3e 14 9f 61 3e 73 66 d3 bc
       0.36199725 0.22448815 0.2203334 -0.025805688

out.bias f4 [5]
000000 31 69 ac bd 2b 14 c4 be 33 32 36 3e 94 3d 8e 3b
       -0.08418501 -0.38296637 0.17792587 0.004340837
000010 c2 0b ef be
       -0.46688658

exp_avg_sq f4 [128, 28]
000000 89 93 69 44 7d 8b 3f 45 f4 74 25 45 3a f7 fd 45
       934.30524 3064.718 2647.3096 8126.9033
000010 bb 60 38 46 7e 88 0c 46 fd 8f f6 45 4e 16 b4 45
       11800.183 8994.123 7889.9985 5762.788
000020 6d 8f 8e 45 43 31 67 45 b7 59 90 45 d2 89 28 46
       4561.928 3699.0789 4619.2144 10786.455
000030 17 86 92 45 f9 ef bc 45 f9 cb 0c 46 a5 d1 2b 46
       4688.761 6045.9966 9010.993 10996.411
000040 18 22 95 46 4f ed b0 46 40 18 32 46 7a 42 89 44
       19089.047 22646.654 11398.0625 1098.0774
000050 e7 c0 be 43 08 18 83 43 53 c7 78 43 54 1b 68 44
       381.50705 262.18774 248.77861 928.427
000060 0d 9e dd 45 d0 9c 36 48 57 23 1c 43 0d 73 a6 49
       7091.7563 186995.25 156.13805 1.3635536e+06
000070 6c 1c 86 46 bc 8c c6 46 39 23 55 48 93 03 63 49
       17166.21 25414.367 218252.89 929849.2
000080 3e 79 69 49 cd 2d 02 49 fc 98 d0 48 5c 8c 91 48
       956307.9 533212.8 427207.88 298082.88
000090 20 40 7b 48 63 7a ae 48 62 72 02 49 27 57 cd 48
       257280.5 357331.1 534310.1 420537.22
0000a0 b9 75 b5 48 53 20 95 48 96 9d 8b 48 fd 26 90 48
       371629.78 305410.6 285932.7 295223.9
0000b0 29 81 86 48 a3 f5 5a 48 9d d5 8b 48 18 b9 a4 48
       275465.28 224214.55 286380.9 337352.75
0000c0 3c 44 d1 48 de 9f c0 48 ca f1 0b 47 5c d2 86 46
       428577.88 394494.94 35825.79 17257.18
0000d0 cc 45 a5 48 d9 20 15 4b eb 67 07 46 42 bf 4b 4c
       338478.38 9.773273e+06 8665.9795 5.341108e+07
0000e0 ec e3 f4 44 28 3a 19 45 c9 6b 8a 46 95 a3 8a 47
       1959.1226 2451.6348 17717.893 70983.164
0000f0 4f 7b ac 47 f8 d1 51 47 ae b4 3b 47 2d 85 0e 47
       88310.62 53713.97 48052.68 36485.176
000100 64 cb 09 47 87 c0 22 47 67 df 5a 47 d1 dc 7c 47
       35275.39 41664.527 56031.402 64732.816
000110 6a 9a 47 47 84 ee 21 47 78 07 13 47 1e 65 ed 46
       51098.414 41454.516 37639.47 30386.559
000120 03 71 ee 46 fd 61 1e 47 bd b9 5f 47 e1 38 a9 47
       30520.506 40545.99 57273.74 86641.76
000130 d9 5d ea 47 1c f0 45 47 20 90 8b 45 1f 3d f4 44
       119995.695 50672.11 4466.0156 1953.91
000140 67 a8 07 47 d5 d6 a0 49 25 b9 76 44 52 5a 95 4a
       34728.402 1.3175946e+06 986.8929 4.893993e+06
000150 a5 01 05 46 a4 d4 2b 46 20 ce 8f 47 78 47 9a 48
       8512.411 10997.16 73628.25 315963.75
000160 c3 21 c0 48 57 6e 55 48 59 3e 21 48 6f 95 fa 47
       393486.1 218553.36 165113.39 128298.87
000170 c4 29 04 48 88 60 30 48 69 18 61 48 4d 59 66 48
       135335.06 180610.12 230497.64 235877.2
000180 3d 08 2f 48 84 ea 15 48 3a a6 02 48 b9 f7 d1 47
       179232.95 153514.06 133784.9 107503.445
000190 42 da b1 47 46 81 d2 47 53 cf 39 48 9e 8a 9c 48
       91060.516 107778.55 190269.3 320596.94
0001a0 f3 2d ce 48 ff 3c 2c 48 9c c8 8a 46 e3 c0 03 46
       422255.6 176371.98 17764.305 8432.222
0001b0 88 a3 ec 47 1e fa 96 4a ce ee 86 45 f2 0c af 4b
       121159.06 4.947215e+06 4317.8506 2.2944228e+07
0001c0 58 32 57 45 98 86 79 45 ca 19 e6 46 37 c3 00 48
       3443.1465 3992.412 29452.895 131852.86
0001d0 07 e6 18 48 8f 92 a9 47 62 d7 87 47 33 3d 50 47
       156568.11 86821.12 69550.766 53309.2
0001e0 a3 31 4f 47 e1 d8 7f 47 b1 c1 b4 47 58 07 bd 47
       53041.637 65496.88 92547.38 96782.69
0001f0 7c a1 9c 47 05 6d 85 47 60 6a 69 47 17 dd 2b 47
       80194.97 68314.04 59754.375 43997.09
000200 4f af 0a 47 ec 06 21 47 6c 7b 97 47 7a 84 06 48
       35503.31 41222.92 77558.84 137745.9
000210 4f 7b 41 48 99 4d cb 47 90 d2 12 46 7f 9c 56 45
       198125.23 104091.195 9396.641 3433.781
000220 ef b7 49 47 a2 2e ff 49 5f 68 cb 44 76 f3 fb 4a
       51639.934 2.0904522e+06 1627.2616 8.255931e+06
000230 d1 2f f6 45 70 4a 0e 46 a8 af 6f 47 fd 1d a3 48
       7877.977 9106.609 61359.656 334063.9
000240 14 11 bc 48 12 71 60 48 04 5c 2e 48 5c 0e fd 47
       385160.62 229828.28 178544.06 129564.72
000250 e6 a4 f3 47 c0 68 20 48 9d 69 56 48 b9 ba 58 48
       124745.8 164259.0 219558.45 221930.89
000260 73 26 20 48 fa c7 0a 48 42 b5 01 48 49 99 e4 47
       163993.8 142111.9 132821.03 117042.57
000270 cf 09 d7 47 c9 07 03 48 29 91 38 48 09 d1 8c 48
       110099.62 134175.14 188996.64 288392.28
000280 9a 33 b4 48 23 bd 26 48 70 66 94 46 7d 5a f6 45
       369052.8 170740.55 18995.219 7883.311
000290 51 19 02 48 d6 64 90 4a 0b 92 81 45 88 3f 91 4b
       133221.27 4.731499e+06 4146.2554 1.9037968e+07
0002a0 73 ed da 45 0a f5 b5 46 63 46 ba 47 72 fb 54 48
       7005.681 23290.52 95372.77 218093.78
0002b0 32 04 62 48 24 4b 16 48 f0 a5 f8 47 89 c4 a9 47
       231440.78 153900.56 127307.875 86921.07
0002c0 03 e6 af 47 a7 26 fa 47 ca 83 f4 47 6f 13 ee 47
       90060.02 128077.305 125191.58 121894.87
0002d0 3b 1d b3 47 27 dc a1 47 38 08 9e 47 bc 17 a1 47
       91706.46 82872.305 80912.44 82479.47
0002e0 63 24 a6 47 10 c7 b5 47 e5 83 e8 47 51 19 1d 48
       85064.77 93070.125 119047.79 160869.27
0002f0 9f 54 3c 48 26 67 b2 47 39 67 6f 46 8c c3 d9 45
       192850.48 91342.3 15321.806 6968.4434
000300 2f b2 a4 47 bd 7f 36 4a 57 c9 50 45 be d8 4a 4b
       84324.37 2.9900632e+06 3340.5837 1.3293758e+07
000310 9d 87 c2 45 d2 46 9d 46 a9 a6 2d 48 f0 9a 18 49
       6224.9517 20131.41 177818.64 625071.0
000320 76 77 11 49 e0 32 b4 48 0d 14 3c 48 1a 71 d6 47
       595831.4 369047.0 192592.2 109794.2
000330 96 4c c6 47 2a f6 b5 47 b8 18 1a 48 0a f1 48 48
       101529.17 93164.33 157794.88 205764.16
000340 78 3e 3f 48 bb f9 63 48 6b d6 52 48 dc 90 13 48
       195833.88 233446.92 215897.67 151107.44
000350 a4 4f ad 47 24 57 50 47 1e 04 1b 47 9d be d3 46
       88735.28 53335.14 39684.117 27103.307
000360 c9 b9 83 45 f0 66 6f 45 39 e6 81 45 45 6a c1 45
       4215.223 3830.4336 4156.778 6189.2837
000370 7a 33 44 48 74 cc 7c 4a ca 38 44 45 6e 77 24 4c
       200909.9 4.141853e+06 3139.5493 4.311391e+07
000380 78 fa d7 43 a1 bd 16 44 e5 3f 4c 45 c2 19 25 46
       431.9568 602.96295 3267.9934 10566.439
000390 a1 06 21 46 0b 5c a3 45 3b 02 4a 45 f4 ef 6b 45
       10305.657 5227.5054 3232.1394 3774.997
0003a0 54 2f 8e 45 63 51 d9 45 78 72 03 46 11 3b 16 46
       4549.916 6954.1733 8412.617 9614.767
0003b0 45 52 dd 45 a3 ab d0 45 a5 f6 9e 45 40 92 53 45
       7082.2837 6677.4546 5086.8306 3385.1406
0003c0 b0 98 51 45 26 de 97 45 f8 7f 87 45 d4 c1 15 46
       3353.543 4859.7686 4335.996 9584.457
0003d0 ab e3 c7 46 79 49 78 46 13 80 a5 44 bb 07 d7 43
       25585.834 15890.368 1324.0023 430.0604
0003e0 ad b9 af 45 65 60 34 48 4b 8e 14 43 11 df 18 49
       5623.2095 184705.58 148.55583 626161.06
0003f0 80 a4 02 34 88 dc bd 33 7b a4 a7 33 13 3f 8b 33
       1.2167038e-07 8.841113e-08 7.806462e-08 6.484165e-08

exp_avg f4 [128, 28]
000000 7a 39 63 40 e3 8a 51 40 c2 34 f1 40 bc 27 f6 40
       3.550383 3.274102 7.53769 7.6923504
000010 0b a8 e5 40 10 42 fb 40 a1 5b 15 41 7d 56 11 41
       7.176763 7.8518143 9.33487 9.083615
000020 62 a5 eb 40 b5 a6 c6 40 34 d5 cd 40 65 0c 09 41
       7.3639383 6.20785 6.432276 8.565526
000030 7f af be 40 3e e2 c3 40 7b 7e 00 41 5e 31 52 41
       5.958923 6.1213675 8.030879 13.137053
000040 9f 54 a8 41 71 05 8e 41 4b fa 25 41 65 26 72 40
       21.041319 17.752657 10.373607 3.7835934
000050 e8 b3 26 40 88 50 10 40 81 7d 22 40 8d 77 61 40
       2.6047306 2.2549152 2.5389102 3.5229218
000060 41 1d 2b c1 16 53 55 42 b6 f9 fb 3f 5a 48 37 43
       -10.694642 53.33114 1.9685581 183.28262
000070 53 ba 0e 40 8c af 42 c1 08 30 87 c2 e8 70 29 c3
       2.2301223 -12.167858 -67.59381 -169.44104
000080 ac 52 ef c2 6d 90 3a 40 3f ff ac 40 0a 19 ae 41
       -119.66147 2.915065 5.406158 21.762226
000090 9e 23 6b 42 83 fd 3b 42 bf b8 4a c2 f8 31 9f c1
       58.784782 46.99757 -50.680416 -19.899399
0000a0 3d 3b ae 40 33 8b 55 3f 6a 12 8b 40 c3 6b 01 42
       5.444731 0.83415526 4.345998 32.355236
0000b0 25 31 83 42 df cf ab 42 3c 6e 85 42 a2 29 9d 42
       65.595985 85.906 66.7153 78.581314
0000c0 aa 8f a0 42 34 09 1b 43 f8 d2 8e 41 a3 a1 df 3f
       80.280594 155.03595 17.853012 1.7471203
0000d0 94 56 c5 c2 b1 49 d1 42 fd 00 a5 3f 6f ca 45 c4
       -98.6691 104.64393 1.2890927 -791.163
0000e0 9b 2e 1f c0 78 9f f5 bf 9d 59 5b c1 76 a6 74 c1
       -2.4872196 -1.9189291 -13.709378 -15.29064
0000f0 62 2e 7c c0 4e 46 c4 3f 7a 7e d2 40 c1 a5 8b 41
       -3.940331 1.5333955 6.577939 17.455935
000100 a3 7e d5 3e 2d db 6e c1 41 1f b7 c0 c5 b2 32 c1
       0.4169818 -14.92851 -5.722565 -11.168645
000110 c2 16 58 c1 b1 e8 dd bf 16 27 8e c1 58 21 0b c1
       -13.505556 -1.7336637 -17.769085 -8.695641
000120 c5 25 1e c1 21 27 cf c0 d2 cb ea 3f b0 1c 5d 41
       -9.884221 -6.4735265 1.8343451 13.819504
000130 90 f4 df 41 39 2b 74 c2 92 09 47 c1 7f 1b 0e c0
       27.994415 -61.04221 -12.4398365 -2.2204282
000140 98 53 2c 3f eb 6b b7 c1 74 cb c6 3d 8e e9 c6 c2
       0.67315054 -22.927694 0.09706774 -99.45616
000150 f8 1b 9f 3f 41 54 57 41 6c 44 85 42 04 c9 bf 42
       1.243041 13.45807 66.63364 95.89261
000160 7e 0f 9a 42 16 79 4d 42 2b 1c 7c 42 95 6b 73 42
       77.03026 51.368248 63.027508 60.85506
000170 2e ac 39 41 60 27 42 3f 84 86 40 42 e8 5b fd 41
       11.604536 0.7584133 48.131363 31.669876
000180 41 fa 3c 40 c3 0a 17 42 54 08 fb 41 60 58 da 41
       2.9527743 37.76051 31.379066 27.293152
000190 72 c6 91 41 a8 8c 47 41 a1 80 c8 bf da c7 0a 40
       18.221897 12.47184 -1.5664254 2.168448
0001a0 ef cb 60 42 eb 7a ef c2 09 a9 b6 c1 9f 4a 05 40
       56.199154 -119.740074 -22.832537 2.0826795
0001b0 0e 2a 97 42 01 16 3a 43 0c 9c 40 40 79 e2 09 44
       75.58214 186.08595 3.0095243 551.53864
0001c0 b8 38 c0 3f f0 7a 4f 40 f4 8c c5 40 67 58 53 41
       1.5017309 3.2418785 6.173456 13.209083
0001d0 76 dc c4 41 58 b6 3a 41 ab 90 14 41 25 01 aa 41
       24.607647 11.6695175 9.285319 21.250559
0001e0 0b 9d 33 be 39 f9 12 c1 4c 09 85 41 7d d8 2b 41
       -0.17540376 -9.185845 16.62954 10.740354
0001f0 2b 15 08 41 05 d9 45 41 2d ba 22 c1 66 9d 95 c0
       8.505168 12.365483 -10.170453 -4.6754637
000200 b3 af 21 c1 12 ea d9 c0 14 40 63 bf f5 4d 8e 41
       -10.105395 -6.809823 -0.8876965 17.788065
000210 e2 a1 18 42 78 62 63 c2 f4 44 84 3e 01 4f db 3f
       38.15809 -56.84616 0.25833857 1.7133485
000220 a9 e4 37 41 fc 09 36 42 d9 5f 07 40 d5 87 b0 42
       11.493325 45.50975 2.115225 88.2653
000230 98 9c a1 40 05 4f d8 40 e5 55 84 41 58 a7 03 42
       5.0503654 6.759646 16.54194 32.91342
000240 73 fb 3f 42 82 eb f4 40 5a d6 95 41 8f e9 d5 41
       47.995556 7.6537485 18.729664 26.739042
000250 f3 b9 ee c0 3e ff 6f c1 c6 59 1b 42 5a ab b5 41
       -7.460199 -14.999815 38.83767 22.708668
000260 a8 92 15 40 80 ca 8b 41 bc 84 a7 c0 a5 7c d7 40
       2.3370762 17.473877 -5.234953 6.7339654
000270 e8 c9 ca 3f 19 d8 4a c1 52 12 7f bf 72 80 91 40
       1.5842867 -12.677758 -0.9963733 4.5469294
000280 2f d6 3c 42 87 4a 6c c2 18 ed 84 41 0d dd af 40
       47.209164 -59.07278 16.615768 5.4957337
000290 2b 39 3a 42 e3 6d cb 42 36 91 25 40 2b 25 8a 43
       46.55583 101.71462 2.586988 276.29037
0002a0 eb 10 3c bf 8e 12 1f 41 71 f8 85 42 19 de 88 42
       -0.73463315 9.94203 66.98524 68.433784
0002b0 b1 69 45 42 6d fa 41 c1 ea 46 05 41 b5 96 e7 40
       49.353214 -12.123639 8.329813 7.237147
0002c0 20 10 5a c1 9c 63 ba c0 13 06 ce 41 8a b5 62 41
       -13.628937 -5.8246593 25.752966 14.169321
0002d0 eb 7a 2d c1 c4 4a 4b c0 9f 5b ca bf 67 2a c1 c0
       -10.842509 -3.1764383 -1.580921 -6.036426
0002e0 ae 0b a6 c1 47 05 c9 c1 96 fa 10 c2 8b 0f 58 c2
       -20.755703 -25.127577 -36.244713 -54.01518
0002f0 bc 5d a2 c1 00 e0 9b c2 7b 23 81 c1 47 94 3a be
       -20.295769 -77.9375 -16.142324 -0.18220626
000300 6c 8b bd 42 9d 8f 10 42 f8 9a a9 bf 98 20 d6 43
       94.77231 36.140247 -1.3250418 428.25464
000310 29 84 87 c0 7c a8 b9 c0 6e be af c1 95 f8 76 c2
       -4.234883 -5.801817 -21.967983 -61.742756
000320 71 4c 16 c2 60 5b e3 c0 1a b4 a1 3f f8 9f 55 c1
       -37.57465 -7.104904 1.2633088 -13.351555
000330 7d a9 bb c1 35 61 18 c2 ae e7 83 c1 1d 78 24 41
       -23.457758 -38.09493 -16.488125 10.279325
000340 36 25 f6 bd 36 24 9b c1 3b 99 b6 c1 ed 8d de c1
       -0.12018816 -19.392681 -22.82482 -27.8193
000350 ed e0 0e c2 ed 70 68 c1 e7 31 ed c0 9e c1 67 c0
       -35.719654 -14.52757 -7.4123416 -3.6211925
000360 3c 8d 4c c0 14 75 50 c0 b8 55 4f c0 03 0e 8d c0
       -3.1961203 -3.257146 -3.2396069 -4.4079604
000370 ab 09 cc 40 ec 5e df c2 43 71 3b c0 c5 29 bb c3
       6.37618 -111.685394 -2.928788 -374.32632
000380 65 0e cb 3c 4b c7 23 40 85 e9 71 41 0c e3 7b 41
       0.024787137 2.5590389 15.119512 15.742931
000390 e3 5d eb 3f bd 70 80 40 de 71 bb 40 1d 6c 68 c0
       1.8388027 4.013762 5.85765 -3.6315987
0003a0 72 f0 b3 c0 9c 0e ad 3f bd 7a c3 40 71 4f 2e 41
       -5.623101 1.3520083 6.1087327 10.894395
0003b0 03 31 ce 40 d5 4b a5 c0 1f fa 1f 40 c1 e0 34 3f
       6.443483 -5.165507 2.4996412 0.7065545
0003c0 92 9f ca bf 79 5d 00 40 a5 c3 57 c0 45 99 b9 c1
       -1.5829947 2.005705 -3.3713162 -23.199839
0003d0 46 5f ab c1 fc a7 3d 41 05 d7 99 c0 34 c2 76 bd
       -21.42152 11.853512 -4.8074975 -0.0602438
0003e0 23 fd 54 41 e2 5a 7e 41 d5 91 2c bf 0f 03 b6 42
       13.311801 15.897188 -0.6741002 91.005974
0003f0 04 00 00 00 04 00 00 00 04 00 00 00 04 00 00 00
       6e-45 6e-45 6e-45 6e-45

exp_avg_sq f4 [5, 128]
000000 a5 89 8e 46 00 95 1e 47 5f 35 4b 46 15 78 df 46
       18244.822 40597.0 13005.343 28604.041
000010 fc c2 47 46 56 76 0d 47 3f 62 cb 46 04 13 1e 47
       12784.746 36214.336 26033.123 40467.016
000020 b8 5a 9b 46 a7 5d 4a 47 29 fc 0a 47 d4 e2 fe 46
       19885.36 51805.652 35580.16 32625.414
000030 06 b8 49 47 c1 07 92 46 b9 75 e2 46 44 92 bf 46
       51640.023 18691.877 28986.861 24521.133
000040 fe 4a dd 46 d6 77 7c 46 24 0b 83 46 d0 4b 1d 47
       28325.496 16157.959 16773.57 40267.812
000050 fd 2f 46 47 e5 b3 03 47 f1 83 f1 45 e4 65 17 47
       50735.99 33715.895 7728.4927 38757.89
000060 fa b8 0a 47 20 c5 f5 46 54 12 d6 46 53 76 14 47
       35512.977 31458.562 27401.164 38006.324
000070 81 be f2 45 9a 2f 40 47 31 9f e7 46 d6 0d 6b 47
       7767.813 49199.6 29647.596 60173.836
000080 6f 1c fe 46 01 cf 2f 47 78 56 19 47 a6 34 ef 46
       32526.217 45007.004 39254.47 30618.324
000090 4c 64 68 47 5d 9e 32 47 17 c3 97 46 64 b0 2e 45
       59492.297 45726.363 19425.545 2795.0244
0000a0 d9 06 2f 47 b0 1d ee 46 f3 d1 0b 47 39 4d 1f 47
       44806.848 30478.844 35793.95 40781.223
0000b0 85 3e 27 47 5f 50 11 47 7f 04 e5 46 ed 2f 5b 47
       42814.52 37200.37 29314.248 56111.926
0000c0 cf 5a 92 46 41 2d 97 46 77 18 3d 47 7d 59 00 47
       18733.404 19350.627 48408.465 32857.49
0000d0 5d 57 89 46 4a ed 09 47 b7 80 11 47 d9 eb 84 47
       17579.682 35309.29 37248.715 68055.695
0000e0 72 10 fe 46 95 44 89 46 2a 3f b7 46 87 e0 73 47
       32520.223 17570.291 23455.582 62432.527
0000f0 3e 89 00 47 4e b2 5c 47 99 b0 04 47 0c 90 4e 47
       32905.242 56498.305 33968.598 52880.047
000100 72 c4 ec 46 dd 03 a1 46 a4 5b 26 47 e0 02 2d 47
       30306.223 20609.932 42587.64 44290.875
000110 ac 76 cf 46 e9 28 3e 47 2a e3 da 46 94 cf 05 46
       26555.336 48680.91 28017.582 8563.895
000120 29 21 31 46 55 26 25 46 03 54 24 47 a4 c7 ac 46
       11336.29 10569.583 42068.01 22115.82
000130 ee f2 5f 47 35 fb ac 46 1c 4e 28 47 4f 52 3b 47
       57330.93 22141.604 43086.11 47954.31
000140 5a f4 10 47 09 62 63 46 ae 6e cb 46 16 07 01 47
       37108.35 14552.509 26039.34 33031.086
000150 28 4b 8c 47 d1 62 a2 45 88 b4 72 47 bc a8 44 47
       71830.31 5196.352 62132.53 50344.734
000160 00 e9 fe 46 b4 e3 ff 46 eb f0 28 47 2a 8a 7e 47
       32628.5 32753.852 43248.918 65162.164
000170 5f 62 09 47 92 fa 43 46 20 dc c9 47 ad db 1c 47
       35170.37 12542.643 103352.25 40155.676
000180 a7 c6 0b 46 92 29 f0 46 49 fa d1 46 c7 6b b3 46
       8945.663 30740.785 26877.143 22965.889
000190 80 b8 ba 46 f4 04 e1 46 7f d0 bd 46 b4 63 0c 47
       23900.25 28802.477 24296.248 35939.703
0001a0 a8 d3 2c 46 ae 23 81 46 17 3a 0c 47 04 d4 77 47
       11060.914 16529.84 35898.09 63444.016
0001b0 c5 6d 08 47 94 fa a2 46 43 bf 0c 47 e6 33 55 47
       34925.77 20861.29 36031.26 54579.9
0001c0 1b c1 2a 47 af b8 47 46 6e 95 0f 47 e3 b8 45 47
       43713.105 12782.171 36757.43 50616.887
0001d0 87 a0 e7 46 4f 50 18 47 92 ca 0b 47 de 1e 47 46
       29648.264 38992.31 35786.57 12743.717
0001e0 ef 19 c0 46 10 0f 4d 47 56 1d 39 47 b9 74 0e 47
       24588.967 52495.062 47389.336 36468.723
0001f0 79 cd fb 46 1c cf 0a 47 b7 39 5a 47 44 6d 85 45
       32230.736 35535.11 55865.715 4269.658
000200 6a a1 a6 46 09 2d 3a 47 80 10 2f 46 2f 62 b1 46
       21328.707 47661.035 11204.125 22705.092
000210 e7 29 24 46 24 34 23 47 f0 b3 95 46 8a 9d 27 47
       10506.476 41780.14 19161.969 42909.54
000220 7c 70 9d 46 b5 3f 46 47 fd 21 13 47 74 6b 0e 47
       20152.242 50751.707 37665.99 36459.453
000230 80 e5 52 47 e8 ca 26 46 69 82 e3 46 dd 6d dc 46
       53989.5 10674.727 29121.205 28214.932
000240 e5 df 03 47 8f 87 97 46 bb a6 96 46 76 18 38 47
       33759.895 19395.78 19283.365 47128.46
000250 cc b3 2b 47 15 f9 0c 47 51 b8 03 46 d2 e3 3a 47
       43955.797 36089.082 8430.079 47843.82
000260 81 5b 1c 47 09 b2 fb 46 0c 36 d7 46 aa 40 13 47
       40027.504 32217.018 27547.023 37696.664
000270 ec fb c6 45 13 ef 2a 47 fa 3a cc 46 da 66 6b 47
       6367.49 43759.074 26141.488 60262.85
000280 96 9b 05 47 9c 5f 4d 47 65 80 39 47 35 cb f1 46
       34203.586 52575.61 47488.395 30949.604
000290 81 a2 73 47 71 29 33 47 e2 ba 76 46 f1 d7 f9 44
       62370.504 45865.44 15790.721 1998.7482
0002a0 af 62 18 47 15 18 0a 47 5f 14 c8 46 f9 f2 12 47
       39010.684 35352.082 25610.186 37618.973
0002b0 cc 68 2e 47 df 1f d6 46 5e 88 ed 46 7b e4 4a 47
       44648.797 27407.936 30404.184 51940.48
0002c0 e6 30 9a 46 88 8b a2 46 bf 66 4b 47 a5 c7 cb 46
       19736.45 20805.766 52070.746 26083.822
0002d0 51 39 8d 46 86 0a 0b 47 d1 ce 00 47 30 0f 73 47
       18076.658 35594.523 32974.816 62223.188
0002e0 93 78 0b 47 e3 60 56 46 ad 17 d7 46 cc 25 81 47
       35704.574 13720.222 27531.838 66123.59
0002f0 76 14 d6 46 a2 c8 66 47 56 53 0c 47 21 34 41 47
       27402.23 59080.633 35923.336 49460.13
000300 85 ae ee 46 83 57 68 46 8a 9c 44 47 0a 65 2b 47
       30551.26 14869.878 50332.54 43877.04
000310 fa 33 d9 46 2e 78 53 47 3a 7f d1 46 8e 64 0f 46
       27801.988 54136.18 26815.613 9177.139
000320 14 39 7a 45 c3 41 16 46 51 ed 30 47 9f b3 52 46
       4003.5674 9616.44 45293.316 13484.905
000330 0b df 59 47 31 c8 c7 46 57 c0 13 47 90 8c 26 47
       55775.043 25572.096 37824.34 42636.562
000340 a3 7b f8 46 ec 7d 3a 46 6c 6b b2 46 aa 85 14 47
       31805.818 11935.48 22837.71 38021.664
000350 be a3 99 47 c0 d0 01 45 cb be 87 47 ac f1 17 47
       78663.484 2077.0469 69501.586 38897.67
000360 d1 10 ff 46 28 41 05 47 90 a1 21 47 ec 49 8a 47
       32648.408 34113.156 41377.562 70803.84
000370 27 34 18 47 7d 03 51 46 b6 4f c2 47 2d d8 05 47
       38964.152 13376.872 99487.42 34264.176
000380 be 69 cf 45 c0 bf 19 47 86 41 f9 46 b1 d7 b9 46
       6637.218 39359.75 31904.762 23787.846
000390 f8 d4 d4 46 7a 78 f9 46 2f 42 ae 46 0b e9 dd 46
       27242.484 31932.238 22305.092 28404.521
0003a0 e0 85 ed 45 18 d3 9a 46 79 ff 08 47 06 d1 57 47
       7600.7344 19817.547 35071.473 55249.023
0003b0 ab 6e ef 46 8e a4 b1 46 c0 63 f0 46 a7 d8 75 47
       30647.334 22738.277 30769.875 62936.652
0003c0 b1 6b 2d 47 ef 53 57 46 01 8e 08 47 6f 65 39 47
       44395.69 13780.983 34958.004 47461.434
0003d0 64 cb e8 46 22 9a 13 47 1a ed f8 46 05 a6 42 46
       29797.695 37786.133 31862.55 12457.505
0003e0 a9 c7 9d 46 d0 47 34 47 74 d8 32 47 2e c2 0b 47
       20195.83 46151.812 45784.453 35778.18
0003f0 1d 58 0b 47 9f 33 08 47 3e ba 4e 47 10 e6 8b 45
       35672.113 34867.62 52922.242 4476.758
